models/17_05_2021/stock_self_attn_MSE_hinge_10000_64_24_6_24_5/0_discriminator.pth (torch, 55520 bytes, 40 tensors)

position.pe f4 [1, 24, 24]
000000 00 00 00 00 00 00 80 3f 00 00 00 00 00 00 80 3f
       0.0 1.0 0.0 1.0
000010 00 00 00 00 00 00 80 3f 00 00 00 00 00 00 80 3f
       0.0 1.0 0.0 1.0
000020 00 00 00 00 00 00 80 3f 00 00 00 00 00 00 80 3f
       0.0 1.0 0.0 1.0
000030 00 00 00 00 00 00 80 3f 00 00 00 00 00 00 80 3f
       0.0 1.0 0.0 1.0
000040 00 00 00 00 00 00 80 3f 00 00 00 00 00 00 80 3f
       0.0 1.0 0.0 1.0
000050 00 00 00 00 00 00 80 3f 00 00 00 00 00 00 80 3f
       0.0 1.0 0.0 1.0
000060 a4 6a 57 3f 41 51 0a 3f 1d 35 e5 3e 30 ea 64 3f
       0.84147096 0.54030234 0.44767085 0.8941984
000070 52 e9 5a 3e eb 14 7a 3f 76 75 cc 3d 98 b8 7e 3f
       0.21378067 0.9768817 0.099833414 0.9950042
000080 1e 0d 3e 3d 6a b9 7f 3f 47 7a b0 3c ca f0 7f 3f
       0.04639923 0.99892294 0.021542681 0.9997679
000090 57 d6 23 3c b9 fc 7f 3f 57 18 98 3b 4b ff 7f 3f
       0.009999833 0.99995 0.0046415734 0.9999892
0000a0 64 31 0d 3b d9 ff 7f 3f 6d 12 83 3a f8 ff 7f 3f
       0.0021544332 0.9999977 0.0009999998 0.9999995
0000b0 5c 5a f3 39 fe ff 7f 3f ab e8 61 39 00 00 80 3f
       0.00046415895 0.9999999 0.00021544348 1.0
0000c0 b7 c7 68 3f 33 11 d5 be fb f4 4c 3f f8 63 19 3f
       0.9092974 -0.41614684 0.8006131 0.59918165
0000d0 be d9 d5 3e b9 99 68 3f f8 6f 4b 3e a5 e5 7a 3f
       0.41767687 0.9085956 0.19866931 0.9800666
0000e0 b7 d8 bd 3d d1 e5 7e 3f cb 6f 30 3d 2c c3 7f 3f
       0.09269851 0.9956942 0.043075364 0.99907184
0000f0 3e d4 a3 3c e5 f2 7f 3f ec 17 18 3c 2d fd 7f 3f
       0.019998666 0.9998 0.009283047 0.9999569
000100 4e 31 8d 3b 64 ff 7f 3f 68 12 03 3b df ff 7f 3f
       0.004308856 0.9999907 0.0019999985 0.99999803
000110 5b 5a 73 3a f9 ff 7f 3f ab e8 e1 39 ff ff 7f 3f
       0.00092831784 0.9999996 0.00043088695 0.99999994
000120 c3 81 10 3e 26 70 7d bf ce f0 7b 3f 16 a2 35 3e
       0.14112 -0.9899925 0.98414314 0.17737612
000130 c8 2d 1a 3f 56 5d 4c 3f 6c 4e 97 3e ef 90 74 3f
       0.60226107 0.7982992 0.2955202 0.9553365
000140 17 21 0e 3e a8 85 7d 3f bd 46 84 3d 29 77 7f 3f
       0.1387981 0.9903207 0.06458805 0.997912
000150 1f b9 f5 3c 83 e2 7f 3f d5 22 64 3c a6 f9 7f 3f
       0.0299955 0.99955004 0.01392432 0.9999031
000160 bf c9 d3 3b a2 fe 7f 3f 92 9b 44 3b b5 ff 7f 3f
       0.006463259 0.99997914 0.0029999954 0.9999955
000170 c2 83 b6 3a f0 ff 7f 3f 7f 6e 29 3a fd ff 7f 3f
       0.0013924765 0.99999905 0.00064633036 0.9999998
000180 cf bd 41 bf 30 55 27 bf e7 9c 75 3f 6c 5d 90 be
       -0.7568025 -0.6536436 0.9594254 -0.28196275
000190 be 4d 42 3f f9 ad 26 3f d7 61 c7 3e a7 ca 6b 3f
       0.75899875 0.6510921 0.38941833 0.921061
0001a0 73 07 3d 3e b2 99 7b 3f df 45 b0 3d cc 0c 7f 3f
       0.18459873 0.98281395 0.08607077 0.996289
0001b0 db cb 23 3d 94 cb 7f 3f 3e 16 98 3c b4 f4 7f 3f
       0.039989334 0.9992001 0.018565293 0.9998276
0001c0 f8 30 0d 3c 91 fd 7f 3f 57 12 83 3b 7a ff 7f 3f
       0.008617632 0.99996287 0.003999989 0.999992
0001d0 54 5a f3 3a e3 ff 7f 3f a9 e8 61 3a fa ff 7f 3f
       0.0018566349 0.9999983 0.0008617738 0.99999964
0001e0 10 7c 75 bf 2c 3c 91 3e 0a 50 3b 3f cb 7f 2e bf
       -0.9589243 0.2836622 0.73169005 -0.68163747
0001f0 cf 71 61 3f 63 93 f2 3e 43 77 f5 3e 40 a9 60 3f
       0.88064283 0.47378072 0.47942552 0.87758255
000200 93 85 6b 3e ff 22 79 3f 0e 30 dc 3d 21 84 7e 3f
       0.23000173 0.97319025 0.10751353 0.9942036
000210 f4 b6 4c 3d 19 ae 7f 3f 3c 1a be 3c 5a ee 7f 3f
       0.049979165 0.99875027 0.023205869 0.9997307
000220 e6 7c 30 3c 33 fc 7f 3f dd d6 a3 3b 2e ff 7f 3f
       0.010771966 0.999942 0.004999979 0.9999875
000230 71 18 18 3b d3 ff 7f 3f 69 31 8d 3a f6 ff 7f 3f
       0.0023207928 0.9999973 0.0010772172 0.9999994
000240 8c 0f 8f be b8 cd 75 3f c6 c0 b2 3e 2d e4 6f bf
       -0.2794155 0.96017027 0.349127 -0.93707544
000250 63 29 76 3f 8f 93 8c 3e 68 8c 10 3f 32 49 53 3f
       0.961569 0.27456328 0.5646424 0.8253356
000260 e9 c0 8c 3e e9 22 76 3f 09 00 04 3e 38 dd 7d 3f
       0.2749093 0.9614702 0.12890638 0.9916568
000270 d1 9c 75 3d 12 8a 7f 3f 2b 1d e4 3c 96 e6 7f 3f
       0.059964005 0.99820054 0.02784594 0.9996122
000280 9d c8 53 3c 86 fa 7f 3f 58 9b c4 3b d2 fe 7f 3f
       0.012926248 0.99991643 0.0059999637 0.999982
000290 b7 83 36 3b bf ff 7f 3f 7d 6e a9 3a f2 ff 7f 3f
       0.0027849504 0.9999961 0.0012926605 0.99999917
0002a0 46 30 28 3f bd ff 40 3f 9f c6 db bd 8d 85 7e bf
       0.6569866 0.75390226 -0.10731243 -0.9942253
0002b0 41 7f 7f 3f 23 4f 80 3d 72 eb 24 3f b3 cc 43 3f
       0.9980355 0.06265094 0.6442176 0.7648422
0002c0 6a 71 a3 3e 18 9b 72 3f 5d d8 19 3e 25 18 7d 3f
       0.31922466 0.94767904 0.15023942 0.98864967
0002d0 32 3e 8f 3d 81 5f 7f 3f 6e 0f 05 3d 69 dd 7f 3f
       0.06994285 0.997551 0.032485418 0.9994722
0002e0 15 14 77 3c 8c f8 7f 3f c5 5f e5 3b 65 fe 7f 3f
       0.0150804715 0.9998863 0.006999942 0.9999755
0002f0 f8 ee 54 3b a8 ff 7f 3f 91 ab c5 3a ed ff 7f 3f
       0.003249107 0.99999475 0.0015081038 0.99999887
000300 95 46 7d 3f f6 fd 14 be e3 81 0a bf 62 4b 57 bf
       0.98935825 -0.14550003 -0.5410444 -0.840994
000310 e9 04 7d 3f 59 cf 1b be a5 a4 37 3f 5f 5b 32 3f
       0.9883562 -0.15215816 0.717356 0.6967067
000320 cb c7 b9 3e 80 8d 6e 3f 69 9e 2f 3e ff 34 7c 3f
       0.36285242 0.9318466 0.17150272 0.98518366
000330 50 aa a3 3d 65 2e 7f 3f 89 0f 18 3d d3 d2 7f 3f
       0.07991469 0.9968017 0.03712419 0.9993107
000340 a1 2f 8d 3c 44 f6 7f 3f 12 12 03 3c e7 fd 7f 3f
       0.017234625 0.99985147 0.007999914 0.999968
000350 38 5a 73 3b 8c ff 7f 3f a4 e8 e1 3a e7 ff 7f 3f
       0.0037132632 0.9999931 0.001723547 0.9999985
000360 32 01 d3 3e d5 3f 69 bf f1 3b 5c bf 9f 82 02 bf
       0.4121185 -0.91113025 -0.86028963 -0.5098056
000370 af d7 6e 3f 01 49 b8 be 1c 88 48 3f d5 21 1f 3f
       0.9329786 -0.35993198 0.78332686 0.62161
000380 ba b7 cf 3e 5c fc 69 3f 97 4f 45 3e e1 33 7b 3f
       0.4056986 0.91400695 0.19268642 0.98126036
000390 3e 12 b8 3d c2 f6 7e 3f cd 0e 2b 3d d3 c6 7f 3f
       0.089878544 0.9959527 0.041762162 0.99912757
0003a0 0c d5 9e 3c ae f3 7f 3f 3a 74 13 3c 59 fd 7f 3f
       0.019388698 0.999812 0.008999879 0.9999595
0003b0 ba e2 88 3b 6e ff 7f 3f b6 25 fe 3a e1 ff 7f 3f
       0.0041774185 0.9999913 0.0019389901 0.99999815
0003c0 f8 44 0b bf 64 cd 56 bf d1 5b 7f bf 7e e0 90 bd
       -0.5440211 -0.8390715 -0.99749476 -0.070740685
0003d0 61 9f 55 3f 82 12 0d bf a4 6a 57 3f 41 51 0a 3f
       0.8344632 -0.55106366 0.84147096 0.54030234
0003e0 1e 35 e5 3e 30 ea 64 3f 53 e9 5a 3e eb 14 7a 3f
       0.44767088 0.8941984 0.21378069 0.9768817
0003f0 76 75 cc 3d 98 b8 7e 3f 21 0d 3e 3d 6a b9 7f 3f
       0.099833414 0.9950042 0.04639924 0.99892294

r_cell.w_qs.weight f4 [24, 24]
000000 9a e9 df bc a2 54 40 3e f4 df 1f 3e c6 8d ac be
       -0.02733307 0.18782285 0.15612775 -0.33701915
000010 c7 b0 85 be 16 ea 19 bd 16 54 bc 3c 93 ee 51 bf
       -0.26111433 -0.037576757 0.022989314 -0.8200466
000020 e9 71 7f 3c 4a b3 48 bd e2 58 a4 bc d3 eb b8 3e
       0.015591123 -0.04899911 -0.020061914 0.3611742
000030 db c9 64 3d 84 5a 10 be 84 dd 67 3c fd fd 56 be
       0.055856567 -0.14097029 0.0141519345 -0.20995326
000040 df 68 59 3e d4 6c 02 bf e3 a0 1e bd 5e e9 80 3d
       0.21231411 -0.5094731 -0.038727652 0.06294511
000050 a2 87 14 3e 61 89 05 be d2 06 f3 3d d2 38 cb bc
       0.14504865 -0.13040687 0.11866535 -0.024807367
000060 69 b4 21 be 1e 70 90 be 19 6a 87 3e ef 89 86 be
       -0.15791477 -0.2821054 0.26448134 -0.2627711
000070 d8 a9 e6 be a0 8d 51 be 23 99 e8 3e 20 1f bc bd
       -0.45051455 -0.20464182 0.45429334 -0.09185624
000080 9f 64 09 bf bc 35 25 bf b9 da a1 3e 42 8b 09 be
       -0.5366916 -0.6453512 0.31612185 -0.13432029
000090 72 f3 ea bd 7b 5e 9b be 49 ec bc be df a7 8d 3e
       -0.11472215 -0.3034552 -0.3689902 0.27667138
0000a0 2f c5 c7 3e 63 a1 f3 be 29 eb 6b bd ef cf 2e 3e
       0.39017627 -0.47584066 -0.057597313 0.17071508
0000b0 59 26 43 3e 3e dd fb 3d 56 28 13 bb 20 31 08 3e
       0.19057597 0.12298058 -0.0022454462 0.1329999
0000c0 b7 fb 93 be 5a 55 ea bc 5b 25 32 be 80 51 32 be
       -0.2890298 -0.028605152 -0.17397062 -0.17413902
0000d0 78 7b b5 3e c6 e7 31 be b1 ff c9 3e 56 90 72 be
       0.35445762 -0.17373571 0.3945289 -0.23687872
0000e0 f4 23 97 3e 4b 35 fe 3d 8b ee 06 3e 64 32 60 be
       0.29519618 0.124125086 0.13176934 -0.21894222
0000f0 85 8d 90 bd 81 f4 37 be 89 05 f3 be 25 ee f1 bc
       -0.07058243 -0.17964365 -0.4746516 -0.029532501
000100 ce 44 de 3e 47 c5 7f 3e de b7 82 3e bc 0f 93 be
       0.4341187 0.24977599 0.25530905 -0.28722942
000110 ca 0e 59 3e d2 15 9e be 9e 8a 8e 3d 7e 07 5b 3e
       0.21197048 -0.30876023 0.06960033 0.21389577
000120 3f 01 10 3f 93 8d 68 be d8 27 96 be 8a 4c c8 bd
       0.562519 -0.22710256 -0.29327273 -0.09780224
000130 9c 9f 91 3d b3 b2 82 bd 82 6a 82 3e 6d cd ee be
       0.07110521 -0.063817404 0.25471884 -0.46641102
000140 c2 39 73 be 36 65 c4 3d d7 d3 80 3e b8 5c 99 bd
       -0.23752502 0.09589617 0.2516162 -0.07488388
000150 99 7e 69 bd 00 f9 c9 3d bf 49 a1 be b9 96 d8 3d
       -0.0570055 0.09861946 -0.31501576 0.10575623
000160 f1 c8 f8 bd 02 65 96 3e 11 c4 0d bf f1 d7 3e be
       -0.121477015 0.29373938 -0.553773 -0.18637063
000170 27 8e 5a be dd ab 09 be 1b 2d 8c 3e 0b 04 cb 3d
       -0.2134329 -0.13444467 0.27378163 0.099128805
000180 b4 f3 87 bd 4d 80 24 3e d5 e7 61 be 79 22 df 3e
       -0.066382796 0.16064568 -0.22061093 0.43580988
000190 86 2d 42 be ae 72 ed bd b3 6b b3 3e f0 b6 a0 3e
       -0.18962678 -0.11594139 0.35043105 0.3138957
0001a0 82 ef 09 bf 87 ec 09 3e b9 ed 9c 3e 3f 7a 21 bf
       -0.53881085 0.13469134 0.30650118 -0.6307716
0001b0 69 66 51 be 23 be 00 bf 2a 53 2b 3e fb 83 7a be
       -0.20449223 -0.50290126 0.16730943 -0.24464409
0001c0 e1 ea 06 bd 3e 98 7d 3d 44 1f d0 bd 6a a6 8f 3d
       -0.03293884 0.061912768 -0.101622134 0.07014163
0001d0 ed 01 00 bf 33 77 0b 3e d1 5b 9c bd 6d 6e 80 be
       -0.5000294 0.1361969 -0.076347 -0.25084248
0001e0 bd 98 60 be 7d b0 84 3c 8a e7 40 be c9 c8 b2 3e
       -0.21933265 0.016197437 -0.18838325 0.34918812
0001f0 74 a7 8d 3c c6 f3 03 be e6 3b 82 be 21 8e b4 3d
       0.017291762 -0.12885961 -0.25436324 0.088161714
000200 ba 99 ce 3e 87 22 c4 be 79 76 12 bd f7 c9 bc be
       0.4035166 -0.38307592 -0.035757516 -0.36872837
000210 39 ac ea bd 2d 30 8c bd 40 30 fc bd d0 0e 88 3e
       -0.1145863 -0.06845126 -0.123138905 0.265738
000220 77 e2 37 bf e1 c8 a2 3e 9a 91 2d 3e 10 2b 0a bf
       -0.7182993 0.31793883 0.16950074 -0.5397196
000230 e0 0a 15 3e 76 b6 ad 3d b7 97 0b bd 24 24 1a 3e
       0.1455493 0.08482067 -0.034080233 0.15052849
000240 68 67 40 be 3b 37 83 be 54 82 1f 3f 95 0c 07 3d
       -0.18789446 -0.25628075 0.6230824 0.032970984
000250 f9 77 22 3d 3c d8 0b 3d 19 53 5a be 3f 72 8f bc
       0.039665196 0.034141764 -0.21320762 -0.017510531
000260 aa 2b e3 bd 49 53 13 bf 97 36 6b be 5e 41 f1 bc
       -0.11092313 -0.5754896 -0.22970043 -0.029450115
000270 8c 5d a1 bd f7 4a 2e 3e 97 ee 90 bd 67 9e 85 3c
       -0.07879171 0.17020784 -0.070767574 0.016310884
000280 cd e1 14 be 64 14 91 3e 7c e8 73 3e 75 f9 dd bd
       -0.14539261 0.2833587 0.23819155 -0.10838596
000290 e9 45 ad 3d 13 91 5d be 27 4c 64 3e cf d5 e7 be
       0.084606 -0.21637373 0.22294675 -0.4528031
0002a0 16 50 bd 3e f9 df 8a 3e 75 c7 97 3e 51 7b 24 3f
       0.36975163 0.27124003 0.2964436 0.64250666
0002b0 f9 75 92 3e 64 42 af bd b9 d7 10 bd b5 ca 9e be
       0.2860563 -0.08557585 -0.03536198 -0.31014028
0002c0 c7 60 64 3d 5b cb 59 be 33 49 67 3c 4f a3 57 be
       0.055756357 -0.2126898 0.014116573 -0.21058391
0002d0 b1 2d f2 be db a8 ab 3e 84 21 1d 3e 8d 6f 31 3d
       -0.47300485 0.33527264 0.15344816 0.043319274
0002e0 cb 5b 06 3e 8c 5a 75 bc c8 b7 1b be c7 a7 f7 bd
       0.13120954 -0.014975201 -0.15206826 -0.12092548
0002f0 07 9a f5 3e f1 3d 4f be 7b 60 de be 8e 16 1a 3d
       0.47969076 -0.20238473 -0.43432984 0.037619166
000300 c5 7b 2d 3f 20 41 db be 53 2b 95 3e bb 9f 1a be
       0.6776698 -0.42823124 0.29134616 -0.15099995
000310 b5 09 84 3e 16 31 33 be 96 2d 7f bd 42 de 2f 3e
       0.25788656 -0.17499194 -0.062299334 0.17174628
000320 66 13 1f 3d 06 50 7c be 02 e1 6b 3d 22 26 1b 3e
       0.03883686 -0.24639902 0.05758763 0.15151265
000330 71 db ce be 60 36 6f bd 8f c7 44 be 2d c3 d5 bd
       -0.40401796 -0.058401465 -0.1921675 -0.104376175
000340 1a 85 1a bd db 05 a4 3c 13 4c 55 3e c5 a0 6f be
       -0.03772459 0.020022323 0.20829801 -0.23401172
000350 3a ec e3 bd a5 d7 a2 be 9d 21 24 3e 94 25 cc be
       -0.11129041 -0.3180515 0.16028447 -0.3987242
000360 41 01 4d be c1 cf 7b 3d 6c 72 22 3e aa 67 b9 bd
       -0.2002001 0.061477426 0.15863961 -0.090529755
000370 fa 4c b3 be 3d 0b 79 be 9f 75 7a be 7c 5c c8 be
       -0.35019666 -0.24320693 -0.24458931 -0.3913306
000380 b6 19 65 bd 47 4e 8c 3b 33 6a 27 be 46 a8 78 3e
       -0.055932723 0.0042817923 -0.16349106 0.24282941
000390 00 91 3b bd 1d bf 9e be 5b d3 87 be 00 bf 04 be
       -0.04579258 -0.31005183 -0.2652844 -0.12963486
0003a0 9f 3e 30 bf 9d 47 e4 bc 4a 64 19 be 68 5b 14 bf
       -0.6884555 -0.02786618 -0.14979663 -0.57951975
0003b0 d4 c9 90 bd dd 4a 05 3f 59 ff a0 be ba a0 11 be
       -0.07069746 0.5206736 -0.31444815 -0.14221469
0003c0 2b fe 20 3e 09 9a e2 3d 66 3f 02 bf ab 1f 7a 3e
       0.15721957 0.11064536 -0.5087799 0.24426143
0003d0 cf 4d 3e bd 00 03 c7 bc 94 01 32 3d cf 82 53 3e
       -0.046460923 -0.024293423 0.043458536 0.20655368
0003e0 53 2a a6 3e 20 a3 29 be 62 83 09 bd c0 9e da 3d
       0.32454166 -0.16566133 -0.033572562 0.106748104
0003f0 e4 13 90 3d 2a 69 1b bf 5d b3 9e bd 6f 6b 6e be
       0.07035044 -0.6070734 -0.077490546 -0.2328317

r_cell.w_qs.bias f4 [24]
000000 3d d5 c6 bd ee e2 04 3e 8e d9 31 3e a6 aa 3b 3e
       -0.09708641 0.12977192 0.17368147 0.18326816
000010 66 38 88 bd 8c a0 83 bd e5 1f f1 bc 97 24 91 3d
       -0.06651382 -0.06427106 -0.029434154 0.07087057
000020 47 1c 22 3e 57 87 15 be a2 68 0f be cd 5b e1 3c
       0.158311 -0.1460241 -0.14004758 0.027509594
000030 d7 a3 10 3e 66 26 a8 3d a2 22 64 bd d1 c5 f1 3d
       0.14125 0.08210449 -0.05569709 0.118053086
000040 41 b0 3a be c6 27 d1 3d 05 2d 7e bd 99 45 17 3e
       -0.18231298 0.10212664 -0.062054653 0.14772643
000050 4e 04 3a 3e a4 b0 b8 bb c1 58 46 3e 02 dd 7d 3d
       0.18165705 -0.0056362916 0.19369794 0.061978348

r_cell.w_ks.weight f4 [24, 24]
000000 23 5f 6e bd 6d 57 f6 bd 68 b3 30 bd 87 ed 91 3d
       -0.0581962 -0.12028394 -0.043139845 0.07125383
000010 12 be 81 be 9a c4 ae 3d ac cf 47 bf 24 96 27 bf
       -0.25340325 0.085335925 -0.7805126 -0.6546347
000020 44 d8 d8 be 75 39 fa 3e d1 b9 3b be 27 15 ec 3e
       -0.42352498 0.4887196 -0.18332602 0.46109888
000030 41 d2 be 3e 66 24 31 3f 47 3a 88 bd 46 e9 b4 3d
       0.37269786 0.69196165 -0.066517405 0.08833556
000040 35 28 b5 bd c5 57 92 be 0a 74 53 3e 48 b0 c6 3e
       -0.088455595 -0.28582588 0.20649734 0.38806367
000050 39 35 22 bf 64 cd b6 3e 19 51 38 be 41 79 98 be
       -0.6336246 0.35703576 -0.17999686 -0.2978001
000060 7c fc 1b 3e 0c fd 82 3e 43 d6 ab 3e b3 88 4a 3d
       0.15233034 0.25583684 0.33561906 0.049446773
000070 d4 54 c6 bd 24 74 5f 3d b7 bc 09 be a8 8e d4 3d
       -0.096841484 0.05455412 -0.13450895 0.10378772
000080 98 38 1b be d4 d9 4f 3d 8a 71 9f be b7 2e 1b 3e
       -0.15158308 0.050744846 -0.3114131 0.15154539
000090 f7 e8 25 bf d2 aa 63 be 34 3e 73 be 5d 5a 92 3e
       -0.648086 -0.22233132 -0.23754197 0.28584567
0000a0 1e 58 b6 3e a1 68 41 be 97 51 aa 3e 2a 5f ea 38
       0.35614103 -0.18887569 0.33265373 0.00011175715
0000b0 48 1b 15 bd f1 6e 13 3c 5e fa 8a 3e 19 17 13 3f
       -0.03640297 0.008998618 0.2714414 0.5745712
0000c0 ad f3 d0 bd 6a 8b 98 bd 6c 11 c7 be cc 5e 91 bc
       -0.102027275 -0.07448466 -0.3888048 -0.017745398
0000d0 c7 e8 99 be cf 73 d1 bd 07 12 1d bd 22 ba 7d be
       -0.30060408 -0.10227167 -0.03834727 -0.24778035
0000e0 24 0c da bd 2a 2c a6 be 8d df be be 21 07 74 be
       -0.10646847 -0.3245557 -0.3727993 -0.23830844
0000f0 b8 8a 04 3e 12 3e 7c 3d 85 4f a2 3d 5b 48 2c 3e
       0.12943542 0.061582632 0.079253234 0.16824476
000100 ce 4b a2 bd 4d 79 0a 3e 5e 06 4e 3d 13 8b c5 3c
       -0.07924615 0.13522835 0.05029904 0.024114167
000110 f5 eb 16 3e 91 a5 bf bd d3 94 81 3e 5a 94 89 be
       0.14738448 -0.09357751 0.25308856 -0.26870996
000120 24 7c bc bd 48 5d 4d 3d 75 a2 c9 3d aa 22 20 3d
       -0.092033654 0.050137788 0.09845439 0.03909556
000130 1f 8e ba bc 95 56 87 bc 0a 1a 27 3f d6 20 a5 3c
       -0.022772847 -0.016520778 0.6527411 0.020157259
000140 bf 9d f2 be 3e 1e 23 bd 8a 0b df 3e 9d 66 11 3e
       -0.47385976 -0.039823763 0.4356349 0.141993
000150 fb 3f 08 be f1 c0 99 3e 6c 0b 8e be b5 1e 4e 3f
       -0.13305657 0.30030015 -0.2774309 0.80515605
000160 a7 81 c8 bd 96 ca 37 3e 4b f5 27 be e6 ac 6a 3e
       -0.09790354 0.17948374 -0.16402166 0.22917518
000170 e5 7e a4 3e 58 da a2 be e7 ea 89 3d 79 9b b9 3d
       0.32128063 -0.31807208 0.06734257 0.09062857
000180 c4 d7 ec 3e 28 43 0c be 0a c8 3a be 7f 1d 44 bd
       0.46258366 -0.13697493 -0.18240371 -0.047879692
000190 a8 61 c2 3e 64 86 ae 3d 43 6c 46 be 9c 45 79 3d
       0.3796513 0.08521727 -0.19377236 0.0608574
0001a0 ec 1b 1f 3f be 53 43 be 21 c8 3c 3c cd 24 72 3e
       0.6215198 -0.19074914 0.011522324 0.23646851
0001b0 e1 0c d7 bd d3 bb b5 3e 85 33 6b 3e 1d 03 f1 3e
       -0.10500503 0.3549486 0.22968872 0.47072688
0001c0 b9 df b2 bd b7 10 9d 3c 18 8f d9 be 25 d9 11 be
       -0.08734078 0.01917301 -0.42491984 -0.1424299
0001d0 ce 31 24 3e fb 83 c2 be fb ed 0f 3e 39 96 d4 be
       0.16034624 -0.37991318 0.14055626 -0.4152086
0001e0 95 52 77 3e 6e 9e e8 bb d6 60 b3 be ec 65 43 3e
       0.24152596 -0.0070989644 -0.35034817 0.19081849
0001f0 07 38 a6 3d 68 99 82 3e 7b cf 88 3d 84 44 d9 3e
       0.08116155 0.25507665 0.06680199 0.42435086
000200 8b c6 1a 3f 43 8a d4 3e 4d d3 85 be 17 ef 89 bd
       0.604592 0.41511735 -0.26137772 -0.06735056
000210 7b 7c 89 3e c1 98 78 3e 1d 20 bd 3d 6a 68 e9 be
       0.26852784 0.24277021 0.09234641 -0.45587474
000220 06 06 8e bd 8d 47 f4 bc 2f bc 9d 3e 0f e3 0f 3b
       -0.06934743 -0.029819274 0.30807635 0.0021955406
000230 0b 87 b4 3d 54 6b f3 be dd 4b 89 3d bc 88 3f be
       0.0881482 -0.47542822 0.06703923 -0.18704504
000240 09 d5 bd 3d 48 2e 40 bd e9 12 6a be d6 ed 66 3e
       0.09269149 -0.046919137 -0.22858776 0.22551665
000250 22 e1 9d 3e ac 2f 6c 3f a6 e9 43 be b7 58 da 3e
       0.30835825 0.9226024 -0.19132099 0.4264581
000260 15 4a 79 3d 5b c9 a7 3d 38 14 2a be 21 3f 17 3f
       0.060861666 0.081927024 -0.16609275 0.590807
000270 91 2a a5 be b7 df 99 be a3 c0 b4 3e be 10 37 be
       -0.32259038 -0.30053493 0.3530322 -0.1787748
000280 9b 3b 11 3e 81 98 ce 3d 08 0c b8 3d 31 67 25 3e
       0.14182894 0.100876816 0.0898667 0.16152646
000290 d2 82 a0 3c 26 ee b7 bd 48 6a 6d 3e 01 f2 7a 3e
       0.01959363 -0.0898097 0.23185074 0.2450638
0002a0 6a bd 6b 3e 46 e4 de be 24 f2 f2 3c 4c da 3a be
       0.23021474 -0.43533534 0.029656477 -0.18247336
0002b0 1f 45 b2 3d 35 07 d8 bd b7 7c c9 3e b0 d3 82 be
       0.0870459 -0.1054825 0.39352962 -0.2555213
0002c0 10 f9 b4 be 45 15 61 be 19 ea 1f 3f 5f 49 38 3e
       -0.3534627 -0.2198077 0.6246658 0.17996739
0002d0 83 c3 8d bd d4 2d e9 3e f1 4f a3 be 35 87 ca 3d
       -0.069220565 0.45542777 -0.31896928 0.0988907
0002e0 8f ac af be ef 14 9a 3d 44 bb 6d be c7 39 16 3e
       -0.3431134 0.07523524 -0.23215967 0.14670478
0002f0 34 e3 ac 3e d6 04 26 bf 43 fd 59 3e f8 f2 33 3e
       0.33767092 -0.6485113 0.21288018 0.17573154
000300 19 84 83 bd 24 e7 e1 3d 11 0a 0e 3e ee 6d c9 be
       -0.0642168 0.11030415 0.13871028 -0.39341682
000310 4c 6c 11 bd 16 8f 93 3c e0 b8 b7 be 77 87 a2 3a
       -0.03550367 0.018012565 -0.35883236 0.0012399991
000320 a8 f3 a7 be 7e 80 06 bf 87 25 8e be 0b 79 87 3e
       -0.32803082 -0.52539814 -0.27763006 0.26459536
000330 f0 ed c6 3d 84 2e 27 3e fb 5b fa ba 0a 3c 5b be
       0.09713352 0.16326338 -0.0019100899 -0.21409622
000340 8f ee 23 3e 36 3c a8 be 3f 19 5a bc 5c 07 fc be
       0.16008972 -0.32858437 -0.013311683 -0.49224365
000350 a6 3f 6a be 41 00 f8 3e 98 ec 7d be 56 3a 4b be
       -0.22875842 0.48437694 -0.24797285 -0.19846472
000360 d1 74 ad 3d 49 71 7a 3e 0b 7f 36 3e 84 b0 8c 3e
       0.084695466 0.24457277 0.178219 0.2747842
000370 81 25 03 be aa 65 41 3e d2 ed 36 3f ab 78 c5 be
       -0.12807275 0.18886438 0.71456635 -0.38568625
000380 3f 14 73 be 72 25 8b bd 4d 5b 9e be f3 ca 79 bc
       -0.23738192 -0.067942515 -0.30929032 -0.015246141
000390 cd 15 22 3e 26 65 0d be a3 22 3c be c1 e1 ce be
       0.15828629 -0.13808116 -0.18372588 -0.40406612
0003a0 1d 08 cd bd df 4b 5b be 23 4e 8f 3d 80 01 44 3d
       -0.10011313 -0.21415661 0.06997325 0.047852993
0003b0 f8 b4 ea 3e f7 91 af be 8f db 04 be 64 2f 0e 3e
       0.45841193 -0.3429105 -0.1297438 0.13885266
0003c0 e6 f3 d4 3d ee fd 0b 3e 11 e0 0f 3f 08 00 63 bd
       0.103980824 0.13671085 0.56201273 -0.05541995
0003d0 49 6d 72 3e f0 75 bc 3d d0 cd 1e 3e 49 84 b5 be
       0.23674501 0.09202182 0.15508199 -0.35452488
0003e0 cc 1d a5 3e 03 ed ae 3e 98 94 7f 3e b4 8f 39 3d
       0.32249296 0.341652 0.24959028 0.04530306
0003f0 5e f6 c4 be 6c d9 a2 3e 44 6e 7c 3e 3e 8f c5 3d
       -0.38469213 0.31806505 0.24651438 0.09646462

r_cell.w_ks.bias f4 [24]
000000 73 52 e4 3d 92 38 22 bb 26 dc 97 bd 5a d6 0a bd
       0.111485384 -0.0024752957 -0.07415037 -0.033895828
000010 29 da d0 bd 11 73 fd 3d ce 32 e1 3c 5b 58 03 be
       -0.10197861 0.12375463 0.027490046 -0.12826674
000020 5e b6 41 3e 9e 0f b0 bc 5e a9 53 3d b1 eb 4b 3e
       0.18917224 -0.021491822 0.051675193 0.19914128
000030 74 6c 09 be d0 c6 84 3c 53 0e 04 3e 8b 1c 27 3e
       -0.13420278 0.016208082 0.1289609 0.16319482
000040 ac 1c 3c 3e 73 76 43 be b0 0f a6 bc 16 0f 15 3e
       0.18370312 -0.19088154 -0.020271152 0.14556536
000050 1c 7f 7b bd 6a 27 f5 bd e7 6a 3c be 54 55 16 bd
       -0.061400518 -0.11970408 -0.18400155 -0.03670247

r_cell.w_vs.weight f4 [24, 24]
000000 ac 27 1b 3e a0 71 60 3e 3f f2 ea 3d 1c 02 aa be
       0.15151852 0.21918344 0.11471986 -0.33204734
000010 29 9a d0 be 11 99 ab 3e 0d b1 3b 3f b7 0e 45 be
       -0.40742615 0.33515218 0.73317033 -0.19243895
000020 a1 dc b1 bd b7 20 6a 3e 69 97 6a be 08 fc 90 bd
       -0.0868466 0.22864042 -0.22909321 -0.07079321
000030 9e cb 4f 3e 83 f7 8d 3e df 9f 75 bc 1f 3b 02 bf
       0.20292518 0.277279 -0.0149917295 -0.5087146
000040 a0 16 97 3e df 01 6c 3e 10 12 60 bd 42 aa 15 bd
       0.2950945 0.23047589 -0.054704726 -0.036539324
000050 01 43 12 3f 00 db 9e bc 89 e6 87 bd 9f f6 4f be
       0.5713349 -0.019391537 -0.06635768 -0.20308922
000060 4f 33 68 3e d6 45 e7 be a8 95 8e 3d 5b 28 82 be
       0.22675823 -0.45170468 0.069621384 -0.25421414
000070 1e 15 f0 3e 42 33 dc be bd 89 81 3c 66 d2 0f bd
       0.4689111 -0.43007857 0.015812749 -0.03511276
000080 cc 9b ec be 79 ea 43 3e 17 be a7 3e 9f b4 21 be
       -0.46212614 0.19132413 0.32762215 -0.15791558
000090 c2 0b 3b 3e dd 62 a7 3d b6 5f e6 3e 23 35 87 3c
       0.18266204 0.081731535 0.44994897 0.01650483
0000a0 4a 6e 8e 3e bd 09 00 3e 5b 3c bc bd 7b 86 ad be
       0.2781852 0.12503715 -0.091911994 -0.33891663
0000b0 42 93 44 be a1 2d 17 bf e7 79 93 3e fa 3b e7 3e
       -0.191968 -0.59054 0.28803942 0.45162946
0000c0 1c 2a 81 bc 71 69 60 3e 0b 44 ca 3e e9 70 af 3e
       -0.01576715 0.21915223 0.39505038 0.3426583
0000d0 a9 86 fa 3d 92 eb df be 30 9d c3 3d 9e a4 c9 3c
       0.12232716 -0.43734413 0.095514655 0.024614628
0000e0 d5 73 89 be 71 a3 c7 bd 48 e5 7b be ed e5 26 be
       -0.26846185 -0.09747971 -0.24599183 -0.16298647
0000f0 70 1f fb bc 2c 1f 4e 3e 9c 83 5a bd cb 07 ea be
       -0.030654639 0.20129079 -0.05334817 -0.4570907
000100 52 87 80 3e f0 59 8c 3d f6 11 c2 3e 16 f9 a5 be
       0.2510324 0.06853092 0.37904328 -0.324166
000110 bc 63 12 be 98 28 b3 3e 30 f5 69 be 27 8d 46 bb
       -0.14295858 0.34991908 -0.22847438 -0.0030296536
000120 84 90 ff be 85 3d 52 be d6 77 e5 bd a9 bb 6d be
       -0.49914944 -0.2053128 -0.112044975 -0.23216118
000130 89 04 6a 3e 01 1c 9b bc c1 b3 de bc 99 5d 81 be
       0.22853293 -0.018934252 -0.027185323 -0.25266722
000140 09 cf fe 3d 4c 70 30 be 22 46 1d 3e 3f 6c e6 bd
       0.124418326 -0.17230338 0.15358785 -0.11251115
000150 20 98 74 bd cd b6 4a 3e b7 d1 2e 3e 91 1f a0 3e
       -0.05971539 0.19796295 0.17072187 0.31274083
000160 d9 7f e7 3e 14 7f 14 3e c3 fb 80 3e 4f 70 ff 3b
       0.45214728 0.14501601 0.2519208 0.0077953706
000170 cf 89 66 be d5 73 de 3d b1 1c 84 3e 8c a0 8d bd
       -0.22513507 0.10861937 0.2580314 -0.069153875
000180 17 1d 50 bd 1d fc c5 be 47 f0 05 be be 61 f2 bd
       -0.050808992 -0.3866891 -0.1307994 -0.11835049
000190 4b 37 1d be 39 88 72 3b 4d fe 09 3f cf 1a 11 bf
       -0.15353124 0.0037007465 0.5390366 -0.5668153
0001a0 e0 a8 0c 3d 58 dd 55 3d d3 c2 90 3e 01 6f 60 bb
       0.03434074 0.052213043 0.2827364 -0.003424585
0001b0 3a ac 82 be c6 7e 32 bd 1f 1d 06 3f 90 89 4e 3e
       -0.25522023 -0.04357793 0.52388185 0.20169663
0001c0 08 75 da 3c 3c bd 34 3e 30 37 9b bc e2 cf ad be
       0.026667133 0.17650312 -0.018947214 -0.33947664
0001d0 49 bc 48 be c9 63 a4 be cd 07 a6 be 26 3a 1e 3e
       -0.19603075 -0.3210738 -0.32427827 0.1545187
0001e0 4f 89 90 3e d9 b4 5b 3e 6d 76 6b bd 81 ec ce be
       0.28229758 0.21455707 -0.057485987 -0.40414813
0001f0 df 06 b0 be 60 a4 34 3d 03 94 71 3d 8c 40 47 3d
       -0.34380242 0.044102073 0.058979046 0.04864554
000200 98 09 e1 3e ae d6 c2 3d 11 50 18 3e 34 58 ed 3b
       0.43952632 0.09513603 0.14874293 0.0072431806
000210 0b 70 bc be 09 d1 0e bf 5e 10 96 be 0b 3d 9f be
       -0.36804232 -0.5578771 -0.29309362 -0.3110126
000220 18 29 d4 be 41 f0 e1 3d a0 72 e4 bd 7d e5 8e be
       -0.41437602 0.11032153 -0.111546755 -0.2790946
000230 31 ac a8 be c1 c6 73 bd 44 d4 ae be cd ca 97 3d
       -0.32943872 -0.05951572 -0.3414632 0.07411728
000240 d1 dd 9d bc 7e ed 2d 3e 80 0c ac 3d 82 82 d8 bc
       -0.01927081 0.16985127 0.08400822 -0.026429418
000250 dc 88 16 3e 1f d3 00 3f ea b9 a0 be bc 9f 60 bd
       0.14700645 0.50322145 -0.3139184 -0.054839835
000260 35 80 ac be 42 7a aa 3d 0b 09 33 be f0 c5 12 3e
       -0.33691564 0.083241 -0.17483918 0.1433332
000270 7e 6d 2f bd 51 72 9a 3e 53 f0 8d 3e 0f 65 c6 3d
       -0.04282903 0.30165341 0.27722415 0.09687244
000280 ff a3 bf be ba d6 94 be c8 78 ed be bb 41 8c 3e
       -0.37429807 -0.29070073 -0.4638121 0.27393898
000290 8e e8 ff be e2 e5 02 bf 57 b8 bb 3e 24 07 46 3e
       -0.49982113 -0.51132023 0.36664078 0.19338661
0002a0 81 73 32 be d3 be be bd 37 fa 5c be e4 f1 31 3e
       -0.17426874 -0.093137406 -0.21579824 0.1737743
0002b0 ac dc 91 3c 78 32 48 be 9f 6d f5 bd 03 16 68 be
       0.01780542 -0.19550502 -0.11983799 -0.22664647
0002c0 47 89 80 be 14 3c e9 bd dc 99 79 3e 73 e7 c6 3d
       -0.25104734 -0.11388412 0.24375099 0.09712114
0002d0 36 bd 26 3e e5 8c 8a be 8f a8 f4 3e c6 63 f2 3d
       0.16283116 -0.2706062 0.4778485 0.118354365
0002e0 c1 50 dd 3b 40 9a 78 3d b2 e1 a9 bd 24 64 00 3e
       0.0067540114 0.06069398 -0.08295001 0.125382
0002f0 f1 01 0d bc 7e b9 2f 3f 9d 59 a2 be 1e bf a6 be
       -0.00860642 0.68642414 -0.31708995 -0.32567686
000300 dd 60 c5 bc a0 32 18 bd be a8 df 3d 78 b2 f0 be
       -0.02409404 -0.037157655 0.10920857 -0.4701116
000310 cf 68 e7 3d 04 a5 be 3d 59 45 0f be d9 8d 98 3d
       0.112992875 0.09308818 -0.13991298 0.0744893
000320 d7 a2 2e be 03 02 a3 3e 74 f8 26 bd 89 dc be be
       -0.17054306 0.31837472 -0.040764287 -0.3727763
000330 77 f1 a3 3d f3 bb 40 be 3b 9f 27 3d e9 ef 7a bd
       0.0800504 -0.18821697 0.04092334 -0.061263952
000340 04 89 94 be d3 4e 58 bc 02 23 fb bd 92 ec c6 3d
       -0.29010785 -0.013202387 -0.122625366 0.09713091
000350 0a 67 00 bc 1e 3b 62 be c3 61 eb be 7f 21 23 be
       -0.007837066 -0.22092864 -0.45973024 -0.15930746
000360 5c c2 e5 3e 0c 49 f7 3d 51 34 ba 3d 33 49 e4 3d
       0.44874847 0.120744795 0.0909201 0.11146774
000370 93 3e 0c be 94 1f 19 bf 12 72 79 3d a4 ca 6b bd
       -0.13695745 -0.5981381 0.0608998 -0.0575663
000380 78 33 1a be 08 94 ed bd f2 bc 23 bc 6f 68 07 3e
       -0.15058696 -0.116005 -0.009993779 0.13223432
000390 c8 00 a9 3e 3d ce e3 3e 0f 76 01 be ab 12 e7 3e
       0.3300841 0.44493285 -0.12642692 0.4513143
0003a0 01 9a 07 bf 88 ce a2 3e e8 0a f9 be 1d 00 2f be
       -0.52969366 0.31798196 -0.48641133 -0.17089887
0003b0 fe 36 cf 3d cb 64 d1 3d d2 79 04 3e 75 89 34 3e
       0.10117911 0.10224303 0.12937096 0.1763056
0003c0 db e4 db 3e ae 67 01 be 40 6c 20 be 3d f1 b2 3d
       0.4294804 -0.12637207 -0.15666294 0.08737419
0003d0 5c 8d 0d bf cc 75 72 3e 35 cb 97 3e 40 bd 02 bf
       -0.5529382 0.23677748 0.29647222 -0.5107002
0003e0 ae 4c 7f be 7b 8e f5 bd 81 26 2c be df 25 f5 3e
       -0.24931595 -0.119900666 -0.16811563 0.47880456
0003f0 0f 6b 49 be ab 35 7c 3e a7 bf 5a 3e 9f fc 03 bf
       -0.19669746 0.24629848 0.21362172 -0.51557344

r_cell.w_vs.bias f4 [24]
000000 9e 08 8b bd f7 ab 52 be 96 9b 35 3c dc 8e 2d be
       -0.06788753 -0.20573412 0.011084458 -0.16949028
000010 4a 1e 40 3e 5c d3 1e bd 61 e4 70 3d 1a 1c ab bd
       0.18761554 -0.038775787 0.05881155 -0.08354969
000020 de 47 1e be a5 e0 90 bc 17 e3 cb 3d 06 3e 3a ba
       -0.15457103 -0.017685244 0.09955423 -0.0007104579
000030 4e e3 33 3e 19 1d f4 3c 55 d7 96 bd 5e 72 cc bd
       0.17567179 0.029799031 -0.0736529 -0.09982751
000040 e0 92 a3 bc d1 47 dc 3c 7c 05 b5 3d 98 cc ce 3d
       -0.019967496 0.026889713 0.08838937 0.10097617
000050 52 b3 70 bd a9 cf ab 3d 95 6e 48 3e dc 38 bb bd
       -0.058764763 0.083892174 0.19573434 -0.091417044

r_cell.layer_norm.weight f4 [24]
000000 2f fc 80 3f 79 45 80 3f 70 83 86 3f 09 da 7f 3f
       1.007696 1.0021201 1.0508862 0.9994207
000010 c8 0f 80 3f 72 e9 81 3f 3c 85 80 3f 52 3d 81 3f
       1.0004816 1.0149367 1.004066 1.0096838
000020 69 ab 7f 3f 70 e3 7f 3f e5 3f 78 3f fe 8b 81 3f
       0.99870926 0.9995642 0.96972495 1.0120847
000030 f4 aa 76 3f 91 27 80 3f bc 65 80 3f d7 b0 7d 3f
       0.96354604 1.0012075 1.0031047 0.9909796
000040 35 9c 7e 3f 87 2c 7d 3f ef ce 83 3f 04 49 81 3f
       0.99457103 0.9889607 1.0297526 1.0100408
000050 1c 5b 80 3f fa cf 7a 3f d3 d1 7e 3f 39 0a 80 3f
       1.0027804 0.979736 0.99538916 1.000312

r_cell.layer_norm.bias f4 [24]
000000 ea b4 33 ba ed 46 0d ba 1d e2 67 3d 2b b4 c9 3a
       -0.00068552664 -0.0005389292 0.056612123 0.0015388777
000010 f2 4a a0 3a 3c 00 88 ba 8a a0 ed bb 02 1e 66 bc
       0.0012229367 -0.0010376046 -0.0072518038 -0.01404524
000020 a9 91 a5 39 d7 7e 70 ba bc 57 06 3b a6 c0 b0 bc
       0.00031579778 -0.0009174174 0.002049907 -0.021576237
000030 e8 87 f0 ba be 43 08 3b e1 86 0b bb 7d 1f 9f 3b
       -0.001835105 0.002079233 -0.002129011 0.0048560486
000040 9a 3f ee ba 85 0a 8a 3b 61 0f 91 ba 37 a1 fd bc
       -0.0018176914 0.00421268 -0.0011067205 -0.030960662
000050 c3 be f0 ba 2c c3 4f 3c 94 b4 a5 b9 e7 49 a3 bb
       -0.0018367398 0.01268081 -0.00031605794 -0.004983175

r_cell.fc.weight f4 [24, 24]
000000 5a 43 cb bc 61 ff f8 3d 76 97 70 bd b7 c7 17 3d
       -0.02481239 0.12158085 -0.058738194 0.037055697
000010 38 c1 1a bd 98 5c 31 be a9 6c 8d bd c7 07 5b be
       -0.037781924 -0.17320478 -0.06905491 -0.21389686
000020 e0 33 cb bd fb ba 8d bd 4f 41 97 be 85 0a 10 be
       -0.09922004 -0.06920429 -0.29542014 -0.14066513
000030 6c c0 fe bc ca 42 e2 3d a8 0b 1a be 1a e0 92 be
       -0.031097613 0.11047895 -0.15043509 -0.286866
000040 e0 73 2b bd 2a 24 7f 3e db 3c 90 3e d0 f6 5f be
       -0.041858554 0.24916139 0.2817143 -0.21871495
000050 8d b0 38 3d 3d e2 bc 3e 7c 9b 89 be e6 c2 ea 3e
       0.045090247 0.36891356 -0.26876438 0.4585182
000060 fa bc 66 3e be 33 a8 3c 26 30 ca 3e 89 08 a0 be
       0.22533026 0.020532485 0.3948986 -0.31256512
000070 fc 81 de 3d e7 b3 ad 3d ba be ab bd 1b 10 54 be
       0.10864636 0.08481579 -0.083859876 -0.20709269
000080 e6 8b a2 be 0f 6d e2 3e 10 21 dc bd 6c 3e dd be
       -0.3174736 0.4422383 -0.10748494 -0.43211687
000090 53 45 e2 3d 68 19 68 be 28 a0 88 3e 0d bb c1 bc
       0.11048379 -0.22665942 0.2668469 -0.023648763
0000a0 3d 00 58 bd f3 a1 3d 3e a3 e0 35 be c9 46 18 be
       -0.052734602 0.1851881 -0.17761473 -0.14870752
0000b0 f9 dd 07 3e f0 0c 52 3e af 77 5a be bd c4 6c 3e
       0.1326827 0.20512748 -0.21334718 0.23121925
0000c0 16 87 e9 3e 44 6c 40 be ff e3 01 3e 7f f7 82 3e
       0.45610875 -0.187913 0.1268463 0.2557945
0000d0 11 19 98 3e 75 8e 91 bc 8b 81 5d bd fd bc 6e 3e
       0.29706624 -0.017768124 -0.05407862 0.23314281
0000e0 4f 97 91 bd fc 26 5a 3e ab 99 6c 3e e8 f0 88 3d
       -0.07108938 0.21303934 0.23105495 0.06686574
0000f0 56 be 8b bd ef da 92 3e 00 f2 a8 bd e9 64 1a bc
       -0.06823413 0.28682658 -0.08249283 -0.009423473
000100 36 8b 6a be 7f 7f b1 3e 06 e3 50 3d e6 e7 14 3e
       -0.22904667 0.34667584 0.050997756 0.14541587
000110 da 3e ab be ef 93 07 3e 1f 72 bd 3d ce 9b 7b 3c
       -0.3344639 0.13240026 0.092502825 0.015356971
000120 bd a7 5e be 36 70 48 3e 77 55 57 be c2 35 c5 3e
       -0.21743675 0.19574055 -0.21028696 0.38517576
000130 54 c6 b6 be 99 8e c7 3e a3 05 bf 3c e0 a8 c4 be
       -0.35698187 0.3897598 0.023318117 -0.3841009
000140 12 f6 21 be f6 4e 0d be 5d c6 83 3e 2f ef 26 be
       -0.15816525 -0.13799652 0.25737277 -0.16302179
000150 4c da 09 be ee 06 a4 bd ec fd 8c 3c 29 ed 19 3d
       -0.1346218 -0.08009134 0.017210923 0.03757969
000160 f6 a8 fb ba 08 37 2f be d5 13 3b bc 2f 24 a1 be
       -0.0019200135 -0.17110837 -0.011418303 -0.31472918
000170 a1 14 3f be 1d f5 6b 3e 9f 8b 93 be 54 55 53 3e
       -0.18660213 0.23042722 -0.2881746 0.20638019
000180 f5 c9 bf 3d 6c ff 8c 3e eb 9c a9 be a6 27 7f 3e
       0.09364692 0.2753862 -0.3312753 0.24917468
000190 4d 7d 02 3e 4a 38 f7 3c 35 18 dd 3d 1c 2d ac be
       0.12743111 0.030178208 0.10795633 -0.33628166
0001a0 e4 c8 2d 3e 87 af 7f be 73 19 ab be 45 af de be
       0.16971165 -0.24969302 -0.33417854 -0.43493095
0001b0 13 c0 ab be 61 11 b6 bd aa 12 99 bd cc 26 03 3d
       -0.33544978 -0.088900335 -0.07474263 0.03201942
0001c0 9c 5c ad 3c 6f 66 a4 3e 6c 95 b8 bc ac 8f 06 3d
       0.021162324 0.321094 -0.022532187 0.03285186
0001d0 a8 be b8 be 62 01 22 3f 7c d3 9f 3d b0 7a 94 be
       -0.3608296 0.6328336 0.07804009 -0.28999853
0001e0 04 24 8f 3d db 96 91 be 1d 91 1f be 94 77 bb 3e
       0.06989291 -0.28435406 -0.155827 0.36614668
0001f0 c2 5b 1f be de 0c 96 3d 8e 34 f3 bd a2 2a 34 3e
       -0.15562347 0.07326673 -0.118752584 0.17594388
000200 63 ea 8a 3e e6 ff 0f bd ea 5c 56 be 38 09 c7 3e
       0.27131948 -0.035156153 -0.20933881 0.3887422
000210 ac 2f 71 be 84 dd 39 3e a7 06 3e be a7 2d fb 3d
       -0.23553342 0.18150908 -0.18557225 0.12264567
000220 88 39 f9 bd 01 68 7f be 6d 89 0b 3f 27 f2 97 be
       -0.12169176 -0.24942018 0.5450657 -0.29676935
000230 cd a6 4c 3d 6b 77 0e be 51 6c ef be a1 da 58 3e
       0.04996376 -0.13912742 -0.46762326 0.2117715
000240 37 fb 0b be 63 63 86 3e 2b d5 8c be b0 ef f7 3e
       -0.1367005 0.262477 -0.27506384 0.48425055
000250 d8 0e 19 be ef 1e 26 be 1f 85 d0 be 79 db c7 3d
       -0.14947069 -0.16222738 -0.40726563 0.09758658
000260 e5 7e 8a 3e 78 0e b5 be e0 03 b1 3e c9 99 96 be
       0.27049938 -0.353626 0.3457327 -0.29414204
000270 a5 d9 ba be e3 a5 a8 bc b9 38 11 3d 13 a5 5b 3d
       -0.36494175 -0.020586913 0.035454486 0.053624224
000280 ac f0 b8 bd d0 e8 bd 3d a8 f6 6a be 56 75 ad bc
       -0.090302795 0.09272921 -0.22945654 -0.021174114
000290 e3 ea 93 bd cc b3 8d 3e f3 29 5c be ab c8 38 3d
       -0.072225355 0.27676237 -0.21500377 0.045113247
0002a0 39 1c 94 be 73 ba 89 3d 3f 4c 2b bd 66 91 b6 3e
       -0.28927782 0.067250155 -0.04182076 0.35657805
0002b0 17 62 9a 3e 15 41 d9 3b 7a 41 ca 3e c6 32 9c 3c
       0.30152962 0.006630073 0.3950308 0.01906718
0002c0 23 72 56 bd 81 57 72 bd 34 f3 14 be 73 8e ad be
       -0.052354943 -0.05916548 -0.145459 -0.33897743
0002d0 59 f8 de 3d 07 11 2f be 03 e3 0e 3d 83 df ce 3b
       0.10887212 -0.17096339 0.034884464 0.0063132658
0002e0 fd d5 b3 bd bd 33 64 3e 46 1d 00 3e 2a ab 16 3e
       -0.087810494 0.22285362 0.12511167 0.14713731
0002f0 a0 ef 15 3e 12 ea d7 3d 23 3f b3 3e 9e f6 0b 3e
       0.14642191 0.10542692 0.35009107 0.13668296
000300 f4 61 21 be 9d 61 fa 3d 7a 07 9b 3d c1 5f ae be
       -0.15760022 0.122256495 0.075697854 -0.3405743
000310 12 c6 2c 3e 11 77 97 be 24 c9 a7 3c 79 45 1f be
       0.16872433 -0.29583028 0.020481654 -0.15553845
000320 a1 b5 85 be 94 c6 e5 3d 61 f4 ff bc ff 26 d8 bd
       -0.26115134 0.112195164 -0.031244459 -0.10554313
000330 b0 99 c3 3e 06 05 f7 3d 8d f6 b1 bd db 51 37 3d
       0.38203192 0.12061505 -0.08689604 0.044755798
000340 95 c0 2e be 1d d0 09 3d 90 da 8a be b7 76 b3 bd
       -0.17065652 0.033645738 -0.27119875 -0.087628774
000350 a6 71 3d 3e 5a a8 97 3e 88 68 5c 3c b1 cf 73 be
       0.18500385 0.2962063 0.013452657 -0.23809697
000360 9b ff b0 be eb eb 92 bd 5f fc 30 bd 97 10 cc 3d
       -0.34570011 -0.07173904 -0.04320943 0.09964102
000370 bf 73 49 be 0e 85 13 be c7 5b 35 3e cb 83 32 be
       -0.1967306 -0.14406225 0.17710792 -0.17433088
000380 55 1e 89 3c 6a 3f d6 3d 88 4e 6e be 29 0f 14 bd
       0.016738096 0.10461314 -0.23272145 -0.03614727
000390 de e5 12 be ad 47 f2 bc 8a fd 0d be 41 48 40 3d
       -0.143455 -0.029575193 -0.13866249 0.046943907
0003a0 fb 2b f7 bd c7 9a 8b bc 3e 0f 92 be a6 06 69 3e
       -0.120689355 -0.017041577 -0.28527254 0.22756442
0003b0 d8 a4 9e bd 32 21 87 bd 1c e8 90 3d b3 ca b6 3e
       -0.07746285 -0.065981284 0.07075521 0.35701522
0003c0 63 61 d2 3e 6f ea 92 be 27 c6 a4 be be 6a b8 bd
       0.41089925 -0.28694484 -0.32182428 -0.090047345
0003d0 53 6e 9c 3e e2 39 73 3d 00 e3 32 be 03 0f 9d 3d
       0.3055292 0.059381373 -0.17469406 0.07668879
0003e0 42 a0 21 bd f7 8e 4f be ca 9b 78 be f0 37 82 3e
       -0.039459474 -0.2026938 -0.24278179 0.25433302
0003f0 b3 70 a4 3e 9b a8 3b be 25 86 e7 bd 79 ef c6 bd
       0.32117233 -0.18326037 -0.11304883 -0.097136445

r_cell.fc.bias f4 [24]
000000 a5 64 a6 bb 8e 92 12 3e 54 5d 4b 3e 94 ab 5a bd
       -0.0050779157 0.14313719 0.1985982 -0.053386286
000010 61 8a 22 3d c3 48 46 3d 10 8f c9 3b fd 42 26 be
       0.03968275 0.048409235 0.0061510876 -0.16236492
000020 c7 5a 10 3e 14 4c 45 3e 40 00 09 3e 6b 86 07 3e
       0.14097129 0.19267303 0.13379002 0.1323487
000030 ea d9 52 be 45 a7 d7 bd 97 31 f4 3d 7a 48 06 be
       -0.2059094 -0.10529951 0.11923521 -0.13113585
000040 cc 07 00 3e be 92 00 be de 0f 91 bd 2d d8 12 bc
       0.12502974 -0.12555978 -0.070831046 -0.008962673
000050 4b af 39 be 19 1d 38 3d b3 e1 d8 bd c0 12 49 be
       -0.18133275 0.044949625 -0.10589924 -0.19636059

fc1.0.bias f4 [24]
000000 89 c9 1e 3d 4b 88 9a 3c 00 dc d7 3c 70 26 cb bc
       0.038766418 0.018863818 0.026350021 -0.024798602
000010 02 a1 f7 bc 46 a4 86 bb a4 13 65 bc 8c 74 30 bc
       -0.030228142 -0.0041089384 -0.0139817335 -0.010769974
000020 da 4b 59 bc c3 f7 01 bb 30 e1 e5 bb c5 87 b4 3c
       -0.013262713 -0.0019831515 -0.00701537 0.022037396
000030 e5 6e 9e bc 0b 75 36 bc b9 72 a2 3c 42 22 08 bc
       -0.019339988 -0.011136304 0.019830095 -0.008308949
000040 b5 56 7c bc 1d 24 95 bc 26 4e e5 3b b3 e4 93 3c
       -0.015401532 -0.018205697 0.0069978414 0.018053388
000050 50 ab c2 bc c5 cc 7e 3b 19 25 12 ba 19 16 45 3b
       -0.023763329 0.0038879376 -0.0005574986 0.0030072986

fc1.0.weight_orig f4 [24, 6]
000000 2f 21 80 3e 3f dc 49 be ba db c1 be b4 c7 66 3d
       0.25025317 -0.19712923 -0.3786295 0.056342795
000010 24 be ff bd d4 8e ef bd 1b 2b 85 3d 55 9e 5c bd
       -0.12487438 -0.11697164 0.06502362 -0.053861935
000020 f3 78 47 3e 62 a6 10 be 7a 5f ac be 21 ca 49 be
       0.19479732 -0.1412597 -0.33666593 -0.19706012
000030 d9 43 55 3e 49 bb 80 be e7 a5 e2 3c 0a 2e 95 3e
       0.20826663 -0.25142887 0.027666999 0.29136688
000040 3e 92 a4 bd 6d 87 e1 3c 4f 9e 88 3d 9c 3f 81 be
       -0.08035706 0.027530396 0.0667082 -0.25243843
000050 ce 28 18 3d f3 6e 8b be 0b de 87 3e e0 d3 49 3e
       0.03714829 -0.27233085 0.26536593 0.1970973
000060 9c bc e6 3d b1 36 5a 3b 7c f7 bc 3c 5c d5 a8 bd
       0.11266443 0.0033296759 0.023067228 -0.0824382
000070 56 34 98 3e 8d 1e ab 3e ba 33 1e 3e 11 e1 d7 be
       0.2972743 0.33421746 0.1544942 -0.421639
000080 fd cd f7 be 2b 6b be bc fc bb 43 be 38 6b 91 3d
       -0.48399344 -0.023244461 -0.19114679 0.071005285
000090 c5 8c 46 be 14 da ee 3e 4d 0d 04 3e 17 04 ef 3e
       -0.19389637 0.46650755 0.12895699 0.46682808
0000a0 0c 1f 9a 3e f5 0c 48 be 68 8f 5d 3c 38 c7 dd 3e
       0.30101812 -0.19536193 0.01352296 0.43316054
0000b0 46 6a d8 3e 08 e9 25 3e 9c b0 ad 3e 20 a3 22 be
       0.4226858 0.16202176 0.33923805 -0.1588254
0000c0 83 35 78 3e e2 c5 48 3e 5e ce e1 be 62 a9 3e be
       0.24239163 0.19606736 -0.44102758 -0.18619302
0000d0 1c fb 98 3d b0 dd cf 3e 62 15 50 be 7a 84 b6 be
       0.0746977 0.40598822 -0.20320657 -0.35647947
0000e0 23 4b 68 3e 64 fe b7 3e 2a c2 d0 be f4 94 54 be
       0.22684912 0.35936272 -0.40773135 -0.20759946
0000f0 03 4a af 3e 84 1f 42 be 0f b9 cf 3d 35 f1 cc 3e
       0.34236154 -0.18957335 0.10142719 0.40027776
000100 33 c9 75 3e 3e 72 06 be bc b7 53 3d d6 94 af be
       0.24002533 -0.13129517 0.051688895 -0.3429324
000110 39 0b 70 be 3a e5 93 be b5 dd bd bd c0 58 95 3e
       -0.23441781 -0.28885823 -0.09270803 0.29169273
000120 8b 25 84 3e 11 23 99 be 2d 05 d5 be da d3 8d 3d
       0.25809893 -0.29909566 -0.4160551 0.06925173
000130 2c cd da 3e 7e 41 1b 3e 8a 46 b2 be 06 16 bc be
       0.4273466 0.15161702 -0.34819442 -0.36735553
000140 47 42 af be 7f 89 aa 3e 0e e0 52 3e 46 5c da 3e
       -0.34230253 0.33308026 0.20593283 0.42648524
000150 d6 80 4d 3e 4b 94 8e be a8 9e 24 be 03 29 b8 bd
       0.20068678 -0.27847514 -0.16076148 -0.08992197
000160 67 ec 13 be 5e 78 e6 be 61 1f 30 bc 46 be 16 bc
       -0.14445649 -0.45013708 -0.010749669 -0.009200638
000170 ee 50 13 be 1e 57 c1 3e 2c aa d0 be ee 38 83 3e
       -0.14386341 0.37761778 -0.4075483 0.2562937
000180 0b ab 15 3e 50 b8 f4 3d 12 0f de 3e 3b 36 b6 3e
       0.14616029 0.11949217 0.43370873 0.3558825
000190 a6 6d d4 be ec 28 9a 3c ed ee b0 be 66 a0 73 be
       -0.41489905 0.018818341 -0.34557286 -0.23791656
0001a0 c2 d7 ba 3e c0 f7 f1 3e 60 e1 00 be 6a 78 50 be
       0.36492735 0.4725933 -0.12585974 -0.20358434
0001b0 51 45 ea bd ad 8d bf 3d b0 08 bb 3e 08 d9 d0 3e
       -0.11439002 0.093531944 0.36530066 0.40790582
0001c0 f0 7c b6 3e cd ce 87 be d0 5d 1e 3e 8b 76 36 3e
       0.35642195 -0.26524964 0.15465474 0.17818658
0001d0 49 ff c1 3e 6f 6b 59 be eb f6 2e be a7 aa 0c 3e
       0.3789008 -0.21232389 -0.17086379 0.13736974
0001e0 f6 11 98 3d 94 ef d7 3d 8b 8a 82 be 59 6a f1 3d
       0.07425301 0.10543743 -0.25496325 0.11787862
0001f0 bf a0 cb 3e 59 a2 3a 3e 65 d1 48 3e a6 c9 d1 be
       0.39771077 0.18225993 0.19611128 -0.40974158
000200 77 39 1c 3d 75 6f 22 be 36 92 8c 3e 12 34 d5 bd
       0.03814074 -0.1586283 0.274553 -0.10410322
000210 08 fc 4b 3d dd 49 37 be 52 de 2e be c0 80 76 3d
       0.049800903 -0.1789927 -0.17076996 0.06018138
000220 0f c8 8a 3e 63 c8 f1 3d 43 b2 15 be 98 b0 df be
       0.27105758 0.11805799 -0.14618783 -0.43689418
000230 f7 c7 d1 3e 97 54 86 bc 7c b5 6d be 4d c1 cb 3c
       0.40972874 -0.016397757 -0.23213762 0.024872446

fc1.0.weight_u f4 [24]
000000 d1 d8 29 be 2c a4 dd 3d 82 79 a4 3b 7e 28 29 be
       -0.16586615 0.10822329 0.0050193677 -0.16519353
000010 03 3f 00 be 84 30 91 be b2 db 86 3e 41 0f 8b 3e
       -0.12524037 -0.28357327 0.2633949 0.27160075
000020 eb 58 9c be d0 04 5f 3e 24 6c 4c 3d 5c da 8a be
       -0.3053659 0.2177918 0.04990782 -0.2711972
000030 95 57 a0 be 1f ce 49 be 4c 2c 38 bd ad 69 39 3c
       -0.3131682 -0.19707535 -0.04496412 0.011316699
000040 cd f1 93 3e 99 a8 9b 3e 49 fc 8e 3e a8 ae d8 3d
       0.28895417 0.30402067 0.27926853 0.10580188
000050 50 e7 18 be 6f 5d f8 bd 80 df 15 be 9b 04 fa 3d
       -0.14931989 -0.12127196 -0.1463604 0.1220791

fc1.0.weight_v f4 [6]
000000 fd b4 6e be 25 eb 9f 3e 40 29 38 3f af e7 c2 3e
       -0.23311229 0.3123409 0.7193794 0.38067386
000010 1d dd 47 be 16 b2 c4 be
       -0.19517942 -0.3841712
