models/17_05_2021/stock_self_attn_MSE_hinge_10000_64_24_6_24_5/1000_generator.pth (torch, 54798 bytes, 39 tensors)

position.pe f4 [1, 24, 24]
00000000: 0000 0000 0000 803f 0000 0000 0000 803f
00000010: 0000 0000 0000 803f 0000 0000 0000 803f
00000020: 0000 0000 0000 803f 0000 0000 0000 803f
00000030: 0000 0000 0000 803f 0000 0000 0000 803f
00000040: 0000 0000 0000 803f 0000 0000 0000 803f
00000050: 0000 0000 0000 803f 0000 0000 0000 803f
00000060: a46a 573f 4151 0a3f 1d35 e53e 30ea 643f
00000070: 52e9 5a3e eb14 7a3f 7675 cc3d 98b8 7e3f
00000080: 1e0d 3e3d 6ab9 7f3f 477a b03c caf0 7f3f
00000090: 57d6 233c b9fc 7f3f 5718 983b 4bff 7f3f
000000a0: 6431 0d3b d9ff 7f3f 6d12 833a f8ff 7f3f
000000b0: 5c5a f339 feff 7f3f abe8 6139 0000 803f
000000c0: b7c7 683f 3311 d5be fbf4 4c3f f863 193f
000000d0: bed9 d53e b999 683f f86f 4b3e a5e5 7a3f
000000e0: b7d8 bd3d d1e5 7e3f cb6f 303d 2cc3 7f3f
000000f0: 3ed4 a33c e5f2 7f3f ec17 183c 2dfd 7f3f
00000100: 4e31 8d3b 64ff 7f3f 6812 033b dfff 7f3f
00000110: 5b5a 733a f9ff 7f3f abe8 e139 ffff 7f3f
00000120: c381 103e 2670 7dbf cef0 7b3f 16a2 353e
00000130: c82d 1a3f 565d 4c3f 6c4e 973e ef90 743f
00000140: 1721 0e3e a885 7d3f bd46 843d 2977 7f3f
00000150: 1fb9 f53c 83e2 7f3f d522 643c a6f9 7f3f
00000160: bfc9 d33b a2fe 7f3f 929b 443b b5ff 7f3f
00000170: c283 b63a f0ff 7f3f 7f6e 293a fdff 7f3f
00000180: cfbd 41bf 3055 27bf e79c 753f 6c5d 90be
00000190: be4d 423f f9ad 263f d761 c73e a7ca 6b3f
000001a0: 7307 3d3e b299 7b3f df45 b03d cc0c 7f3f
000001b0: dbcb 233d 94cb 7f3f 3e16 983c b4f4 7f3f
000001c0: f830 0d3c 91fd 7f3f 5712 833b 7aff 7f3f
000001d0: 545a f33a e3ff 7f3f a9e8 613a faff 7f3f
000001e0: 107c 75bf 2c3c 913e 0a50 3b3f cb7f 2ebf
000001f0: cf71 613f 6393 f23e 4377 f53e 40a9 603f
00000200: 9385 6b3e ff22 793f 0e30 dc3d 2184 7e3f
00000210: f4b6 4c3d 19ae 7f3f 3c1a be3c 5aee 7f3f
00000220: e67c 303c 33fc 7f3f ddd6 a33b 2eff 7f3f
00000230: 7118 183b d3ff 7f3f 6931 8d3a f6ff 7f3f
00000240: 8c0f 8fbe b8cd 753f c6c0 b23e 2de4 6fbf
00000250: 6329 763f 8f93 8c3e 688c 103f 3249 533f
00000260: e9c0 8c3e e922 763f 0900 043e 38dd 7d3f
00000270: d19c 753d 128a 7f3f 2b1d e43c 96e6 7f3f
00000280: 9dc8 533c 86fa 7f3f 589b c43b d2fe 7f3f
00000290: b783 363b bfff 7f3f 7d6e a93a f2ff 7f3f
000002a0: 4630 283f bdff 403f 9fc6 dbbd 8d85 7ebf
000002b0: 417f 7f3f 234f 803d 72eb 243f b3cc 433f
000002c0: 6a71 a33e 189b 723f 5dd8 193e 2518 7d3f
000002d0: 323e 8f3d 815f 7f3f 6e0f 053d 69dd 7f3f
000002e0: 1514 773c 8cf8 7f3f c55f e53b 65fe 7f3f
000002f0: f8ee 543b a8ff 7f3f 91ab c53a edff 7f3f
00000300: 9546 7d3f f6fd 14be e381 0abf 624b 57bf
00000310: e904 7d3f 59cf 1bbe a5a4 373f 5f5b 323f
00000320: cbc7 b93e 808d 6e3f 699e 2f3e ff34 7c3f
00000330: 50aa a33d 652e 7f3f 890f 183d d3d2 7f3f
00000340: a12f 8d3c 44f6 7f3f 1212 033c e7fd 7f3f
00000350: 385a 733b 8cff 7f3f a4e8 e13a e7ff 7f3f
00000360: 3201 d33e d53f 69bf f13b 5cbf 9f82 02bf
00000370: afd7 6e3f 0149 b8be 1c88 483f d521 1f3f
00000380: bab7 cf3e 5cfc 693f 974f 453e e133 7b3f
00000390: 3e12 b83d c2f6 7e3f cd0e 2b3d d3c6 7f3f
000003a0: 0cd5 9e3c aef3 7f3f 3a74 133c 59fd 7f3f
000003b0: bae2 883b 6eff 7f3f b625 fe3a e1ff 7f3f
000003c0: f844 0bbf 64cd 56bf d15b 7fbf 7ee0 90bd
000003d0: 619f 553f 8212 0dbf a46a 573f 4151 0a3f
000003e0: 1e35 e53e 30ea 643f 53e9 5a3e eb14 7a3f
000003f0: 7675 cc3d 98b8 7e3f 210d 3e3d 6ab9 7f3f
0.0 1.0 0.0 1.0 0.0 1.0 0.0 1.0
0.0 1.0 0.0 1.0 0.0 1.0 0.0 1.0
0.0 1.0 0.0 1.0 0.0 1.0 0.0 1.0
0.84147096 0.54030234 0.44767085 0.8941984 0.21378067 0.9768817 0.099833414 0.9950042
0.04639923 0.99892294 0.021542681 0.9997679 0.009999833 0.99995 0.0046415734 0.9999892
0.0021544332 0.9999977 0.0009999998 0.9999995 0.00046415895 0.9999999 0.00021544348 1.0
0.9092974 -0.41614684 0.8006131 0.59918165 0.41767687 0.9085956 0.19866931 0.9800666
0.09269851 0.9956942 0.043075364 0.99907184 0.019998666 0.9998 0.009283047 0.9999569
0.004308856 0.9999907 0.0019999985 0.99999803 0.00092831784 0.9999996 0.00043088695 0.99999994
0.14112 -0.9899925 0.98414314 0.17737612 0.60226107 0.7982992 0.2955202 0.9553365
0.1387981 0.9903207 0.06458805 0.997912 0.0299955 0.99955004 0.01392432 0.9999031
0.006463259 0.99997914 0.0029999954 0.9999955 0.0013924765 0.99999905 0.00064633036 0.9999998
-0.7568025 -0.6536436 0.9594254 -0.28196275 0.75899875 0.6510921 0.38941833 0.921061
0.18459873 0.98281395 0.08607077 0.996289 0.039989334 0.9992001 0.018565293 0.9998276
0.008617632 0.99996287 0.003999989 0.999992 0.0018566349 0.9999983 0.0008617738 0.99999964
-0.9589243 0.2836622 0.73169005 -0.68163747 0.88064283 0.47378072 0.47942552 0.87758255
0.23000173 0.97319025 0.10751353 0.9942036 0.049979165 0.99875027 0.023205869 0.9997307
0.010771966 0.999942 0.004999979 0.9999875 0.0023207928 0.9999973 0.0010772172 0.9999994
-0.2794155 0.96017027 0.349127 -0.93707544 0.961569 0.27456328 0.5646424 0.8253356
0.2749093 0.9614702 0.12890638 0.9916568 0.059964005 0.99820054 0.02784594 0.9996122
0.012926248 0.99991643 0.0059999637 0.999982 0.0027849504 0.9999961 0.0012926605 0.99999917
0.6569866 0.75390226 -0.10731243 -0.9942253 0.9980355 0.06265094 0.6442176 0.7648422
0.31922466 0.94767904 0.15023942 0.98864967 0.06994285 0.997551 0.032485418 0.9994722
0.0150804715 0.9998863 0.006999942 0.9999755 0.003249107 0.99999475 0.0015081038 0.99999887
0.98935825 -0.14550003 -0.5410444 -0.840994 0.9883562 -0.15215816 0.717356 0.6967067
0.36285242 0.9318466 0.17150272 0.98518366 0.07991469 0.9968017 0.03712419 0.9993107
0.017234625 0.99985147 0.007999914 0.999968 0.0037132632 0.9999931 0.001723547 0.9999985
0.4121185 -0.91113025 -0.86028963 -0.5098056 0.9329786 -0.35993198 0.78332686 0.62161
0.4056986 0.91400695 0.19268642 0.98126036 0.089878544 0.9959527 0.041762162 0.99912757
0.019388698 0.999812 0.008999879 0.9999595 0.0041774185 0.9999913 0.0019389901 0.99999815
-0.5440211 -0.8390715 -0.99749476 -0.070740685 0.8344632 -0.55106366 0.84147096 0.54030234
0.44767088 0.8941984 0.21378069 0.9768817 0.099833414 0.9950042 0.04639924 0.99892294

r_cell.w_qs.weight f4 [24, 24]
00000000: 5e00 92be 16ca d73d 2d1a 823e 3430 7a3e
00000010: ba73 80bd 7390 5bbd 9a7d d5bd 512f 2f3e
00000020: 202e d93e b581 1c3e 3c5d 3f3b 813f 2dbe
00000030: f839 fc3e 6a97 d4be 7ac3 49be 5e2d 3bbe
00000040: 071c 9e3e 77a7 26be 950e 9cbe 3a4d efbc
00000050: d11f 173e 54d4 26bd 8006 dd3e be49 5cbe
00000060: 0a26 093c 97c1 36be 46d1 043d 27be e7bd
00000070: a0fc 56be 51c8 1ebe 90c6 c83e 0a0c 67be
00000080: 95b6 9b3e 531d 383d 1084 05be 9392 253e
00000090: f718 c93e 325f b83e de04 dfbe 17e0 8cbe
000000a0: 2fd5 133e c05b 893e 30ef 5ebd 690b d23e
000000b0: 9d16 2a3e 1caa b4bc f069 f33d c339 e1bd
000000c0: 16eb 6cbd 0321 43be 962c 433e 6eba b63e
000000d0: 739f 48be 2e50 723e b2a6 153e 27d7 0c3e
000000e0: b7ca 5cbe db4f 06bd 0925 0c3e 5b1e a13e
000000f0: 8f83 a03e a7dd 483e 1aa5 da3d f877 27bd
00000100: 2da7 e0bc 95a9 87bd 96e2 60be 7e88 0bbf
00000110: ca46 39be 03b0 b03d 7f3c 57be 335b adbd
00000120: cc5d 253d 0d5d 993d 26e1 8abe d9d2 e03e
00000130: b93f 6ebe 5241 8cba 74a2 82bd 1bdb 9c3d
00000140: 3f29 e03e c285 45be ecb7 923e a2b3 3fbe
00000150: ce1e 973e b5cd dcbe 8d67 8bbe 6891 6d3e
00000160: 5a46 95be 3ad5 15be 00c9 4abe 7169 bb3e
00000170: a51e 833d 7c6f 7d3e e6f0 fb3b f70e 3cbe
00000180: 9e72 973e 0a70 2b3e 7538 f83d 5f31 26be
00000190: 5251 853e c985 28bd 3130 93bd 55a5 d3be
000001a0: 808e d9bd 716b 273e 142c 8dbe 1020 f8bc
000001b0: 4b90 16bf 91ec 1fbf 8fb4 f0bc 98c4 463e
000001c0: 5521 90be 00c8 4d3c ad7e 8b3e 4652 f0be
000001d0: 7de5 203d 9650 a93c 1d50 90be e097 3ebd
000001e0: f02a 943e 178d 013d e9f5 e8bd 34f1 01bd
000001f0: e834 61be c9e2 243d f6eb e83d d226 04bd
00000200: c720 0f3e 2b30 0f3e 036f 40bf c3ad 76be
00000210: 9e64 1c3f d94d 853d 359c e6bd 4f30 943d
00000220: adb0 fabd 6ebc d1bb 5571 963e 9d70 403d
00000230: ecf0 d3be 15be 553e 07b5 443d 1b4c 09be
00000240: c9cf 1abe 8770 80be 2070 a4be 4c0c d33d
00000250: 7267 0cbf 057c 30be 6e58 35be 9157 99be
00000260: 177a 8f3d 7942 3e3e efcb d83e f885 903e
00000270: 8014 c3bd 833f eebd 5589 fc3e da61 06bd
00000280: a90b 1cbe 82af 213d b51c 04bd 0ce7 e33e
00000290: 9b7b a53c 734c a2bd 7b45 bd3e 65b1 913e
000002a0: 0467 ad3c 3e84 983d aaa1 833e 392d 10be
000002b0: 43f4 f5be c4e3 9f3e b2e3 603e c2a2 8f3e
000002c0: aa3d 65bc 1fcd fc3b 6c52 483f e20e aabe
000002d0: 8722 6a3e e4a9 d2be bc3d d23d d65c 763e
000002e0: 3380 113f 708e 34bd fb57 b03d 174a ed3d
000002f0: fb10 943f e35d a43e 3b04 9a3d 5e71 d9bd
00000300: f9df e5bc 828f 8e3e f034 633e e0bc e13d
00000310: 337c 933e 9739 09be c0a3 87bd d184 873e
00000320: 1953 9f3e a01c 1bbf c511 efbe 28ec 94bd
00000330: 5f68 07bd 1d9d bfbe 1494 f43a 8e07 fe3e
00000340: 8274 ac3d fcf9 883d 3b2d c8be 65be 173e
00000350: 610e 703e e6a8 993d da0f b7be 6b11 38be
00000360: 4664 253e a3db 5abd a433 71be cc65 d03c
00000370: a19c e0be 7f0e 783d ed0d 75be 3d1c 45bd
00000380: 92e1 06be 4fc7 263e 2f46 b43e 350b 3e3f
00000390: 133a 943e 9ded 54bd dc13 bebe 9e9d 4bbe
000003a0: 84c4 253e 8a6c ddbc e4c2 e33d e78f 6d3e
000003b0: ad00 acbe 0643 2ebe 6c75 f73c 1efb 5c3e
000003c0: ec7b 143e 18cf e03c cdc1 10be 62ef c5bb
000003d0: 6576 1b3d 7086 a2be 5299 f93d 1efe f63e
000003e0: bd74 093d 5184 043c 570d 40bc a70d ebbe
000003f0: 6f0b e0be 97eb aa3d bec7 fb3e a25b 233f
-0.28515905 0.10536592 0.25410596 0.2443245 -0.06272073 -0.053604554 -0.10424347 0.17107894
0.42418003 0.15283854 0.002919986 -0.16918756 0.49262977 -0.4152177 -0.19703475 -0.18279025
0.30880758 -0.1627482 -0.30479875 -0.02921163 0.14758231 -0.040729836 0.43169022 -0.21512505
0.008370886 -0.17847286 0.03242614 -0.113155656 -0.20994806 -0.15506102 0.3921399 -0.22563186
0.30412737 0.04494984 -0.13038659 0.16169195 0.3927686 0.36010128 -0.435584 -0.27514717
0.14436792 0.26827812 -0.054427326 0.4102433 0.16610189 -0.02205377 0.1188544 -0.10997345
-0.057841383 -0.19055562 0.19059977 0.3568911 -0.19592075 0.23663399 0.1461437 0.13753949
-0.21561705 -0.032791 0.13686003 0.31468472 0.3135037 0.19615804 0.10676022 -0.040885895
-0.027423466 -0.06624142 -0.21961436 -0.54505146 -0.1809341 0.086273216 -0.21019171 -0.084646605
0.040372655 0.07488451 -0.271249 0.43910864 -0.23266496 -0.0010700619 -0.06378642 0.076589786
0.43781468 -0.19289306 0.28655946 -0.18720868 0.2951569 -0.43125692 -0.2722744 0.232
-0.29155236 -0.1463212 -0.19803238 0.36603883 0.06402329 0.24749559 0.0076886294 -0.18365084
0.29579633 0.16741958 0.12120143 -0.16229771 0.26038605 -0.041143212 -0.07186926 -0.41337076
-0.10622883 0.1634958 -0.2757269 -0.030288726 -0.58813924 -0.62470347 -0.029382972 0.19410932
-0.2815043 0.012559891 0.27245083 -0.4693777 0.039281357 0.02066831 -0.28186122 -0.046531558
0.2893901 0.031628694 -0.11375029 -0.03172417 -0.21992838 0.04025534 0.11373131 -0.032263584
0.13977347 0.13983218 -0.7516939 -0.24089722 0.6109103 0.06508989 -0.11260263 0.07235777
-0.122407295 -0.0064006364 0.2938334 0.046982396 -0.41394746 0.20873292 0.048024204 -0.13407938
-0.15118326 -0.25085852 -0.32116795 0.1030508 -0.54845345 -0.1723481 -0.17709514 -0.2994962
0.07005709 0.18580045 0.4234309 0.2822721 -0.095253944 -0.11633208 0.49323526 -0.032808162
-0.15238823 0.039474018 -0.03225394 0.44512212 0.020200541 -0.07924738 0.36967072 0.28455654
0.021167286 0.07447098 0.25709277 -0.14079751 -0.4803792 0.3122846 0.21961859 0.28053862
-0.013991753 0.007714882 0.78250766 -0.3321448 0.22864734 -0.4114524 0.10265681 0.24058852
0.5683624 -0.04408115 0.08610531 0.11586397 1.1567682 0.3210288 0.07520338 -0.10617326
-0.0280609 0.27843863 0.22188163 0.11022353 0.28805694 -0.13400875 -0.0662303 0.26468518
0.31118086 -0.60590553 -0.46693245 -0.07271606 -0.03305852 -0.37424555 0.0018659853 0.4961514
0.084206596 0.06688306 -0.39097008 0.14818723 0.23442985 0.07502918 -0.3575428 -0.17975394
0.16151533 -0.05343212 -0.23554856 0.025439166 -0.43869498 0.0605607 -0.23931094 -0.048122633
-0.13171986 0.16286968 0.35209796 0.7423585 0.28950557 -0.05198442 -0.37124527 -0.19884345
0.16188246 -0.027029295 0.11121157 0.23199426 -0.33594266 -0.17017755 0.030207358 0.21580169
0.14500397 0.0274425 -0.14136429 -0.0060404995 0.037954707 -0.31743193 0.12187447 0.4824075
0.033558596 0.008088187 -0.0117219305 -0.45908853 -0.43758723 0.083457164 0.4917583 0.63811696

r_cell.w_qs.bias f4 [24]
00000000: 99a6 803d c152 193e b291 d2bc 76b2 883d
00000010: 2c0b 4abd b82d 8b3d a513 8b3e 736b 4dbe
00000020: 9531 8bbe 6121 e7bc 9d1b 053e dc11 bebc
00000030: 4685 fa3d f56d d6bc 1120 443e fa0f 793e
00000040: 996b 5e3e afe7 90bd 8a52 ce3d d98b e4bc
00000050: 36e5 1b3e 1a77 983d e38b 0bbd cc32 1bbe
0.06281776 0.14972974 -0.025704239 0.06674664 -0.04932706 0.067958295 0.27163425 -0.2006052
-0.27186266 -0.028214158 0.12998815 -0.023201875 0.12232451 -0.026175478 0.19152857 0.24322501
0.21720733 -0.0707544 0.10074337 -0.027898716 0.15224156 0.07444592 -0.034068953 -0.15156096

r_cell.w_ks.weight f4 [24, 24]
00000000: 513e cf3e 9428 98be 4f68 f13d 37fc 913e
00000010: 4858 013e 80a8 e63d f18c 1c3e 434e 5ebd
00000020: 5fd3 c8be c4c4 413d 5372 bf3d 8651 03bf
00000030: eab6 863e 5fc1 e5bd 93e6 a1bc d0c8 11bf
00000040: 7009 d0be b7c2 1a3d 613f 30bc eaeb a8be
00000050: cbae 9a3d 746a ee3e 8a7e dd3e 8047 8cbe
00000060: 6ab2 a3be 5769 5cbe ce1c 4d3e 1f06 a73e
00000070: 8a0b 9abe e373 0cbf 5cf4 1c3d 1e5a 96bd
00000080: 898b ba3b c259 353e aa40 403d 2f75 c3bd
00000090: c76f 15bf 5bfb b23e fd11 7f3e 23a4 c83d
000000a0: 8f35 ad3d bb4a 39be 4149 a1bd b3c1 4f3d
000000b0: b4f0 babe d4bf e0be 12bc a3be 5fee d83e
000000c0: bd63 c9be 7bdc e63e 2371 7a3d 0f1b afbd
000000d0: 3600 32bd 0b9f 00bf cd2d 82be 668e 4dbe
000000e0: d815 833e e430 7abe b999 bd3e 1f4f 2a3e
000000f0: 409c 5fbe f8b5 3abe 2a6c 9c3c b137 0cbd
00000100: be4e 8b3e d91f 4dbe 9cd3 823d 01f6 46be
00000110: a148 4dbe 0605 573e fe39 47be ea00 363f
00000120: e050 513e 39b3 f5be 03db b03d 41b6 a1ba
00000130: b470 44be d5ca a5bd 3d13 96ba 10bf dabe
00000140: 85ad 85be f9c4 b6bd f063 b13c 8ddb 533d
00000150: 304d 7b3e 694c 78bd dea0 9fbd 65b2 11be
00000160: eb0c 09bf d862 1bbe 8eab 4ebd c750 e93c
00000170: 9690 97be 1348 b63d eca9 873e 6c5f 5f3f
00000180: 8d71 a3bd 56f6 2b3e 132d 53be fbef af3e
00000190: 8223 c9bd c3d5 ee3e 4eea 60be 13c0 d8bd
000001a0: f610 dc3e fd7f d73e a0ea 9fbe 2db8 b33e
000001b0: ce1a 21bf c1db 1bbe 1a31 a9bc e284 68bc
000001c0: 66dc bfbe 95b4 ea3e f039 8dbb 3630 d8bd
000001d0: 050e c2bd 9dd8 bfbd 1af1 e7bd 1085 e6bc
000001e0: a2ce 21bd 5a08 753e eae1 dcbd c0ad 8dbe
000001f0: fd2c 0e3f 92d5 38be 27e0 023d 0cd6 b63e
00000200: 7f01 1ebe 8267 823d 5041 0fbe e0c5 24bd
00000210: a228 32be dc58 44be 415f 133d 970d 733e
00000220: 08ae 54bd e926 e03e 4fce eb3d 5ce3 a8bc
00000230: 7022 45be 1289 89bd dd94 8f3d f538 b33d
00000240: 8ca8 683e b46e fbbd fa14 58be ffb0 b13e
00000250: 3d49 b7be 7fea 9b3e de3a 323e 3a6d 9fbe
00000260: 2b93 39be 2c1f e6be d656 91bd 1474 38be
00000270: c3a7 80be 4cc4 3e3e e9f8 e93d 9bcf c4bd
00000280: 339c d2bd 3fd2 0a3f c6f0 693d db4e 27be
00000290: f705 3abe 23c5 25be 30f3 17be 4b74 d7be
000002a0: e9ae 2ebd 1e07 b1be 4716 063f 09f7 8e3d
000002b0: f7dd a1bc f7d5 363f 98bf c1bd c69a 91be
000002c0: 96ae 81be 77e0 c0be 70d7 22be bc75 0d3d
000002d0: afe5 e13e ba00 403e bb4c 623e 5637 d1be
000002e0: 7f33 05bf 394b 32bf 2e98 87be 0952 163d
000002f0: e0ad f13d 61c2 6ebe 7e5f b0be b832 8ebe
00000300: f9eb 383e d663 283e e45e 7d3e b9cf 82be
00000310: cd75 cd3e 2b97 bbbd 894d 3ebf e94f 4dbe
00000320: ecc6 03be e912 b6bc d076 8d3e 6eeb b7bd
00000330: 10b9 51bd b209 5f3e fcaf 803e 7473 cebd
00000340: 0875 0b3e 982c 76bb 66e4 313e 0e92 f6bd
00000350: 38b9 153f 82fa babe abf0 4dbe ddfe f83e
00000360: 4cd2 b4bd ec63 2f3e 78fa 81be cfbc 723d
00000370: 7c06 8b3d 90ee 833e f2b7 143d 5278 213e
00000380: 8ee6 8c3e fe1e 7a3e 4905 573e 1d52 3d3e
00000390: 792c 3abe da80 d7be 37dc 913d eed2 803e
000003a0: 4ea0 e2be bf0f a6be 4e3e 033b 7ab4 28bf
000003b0: 311d e5be 6148 783e 1e1d 983e 7fe3 91be
000003c0: 4c80 853d 475c 93bd 7815 ae3d 74fa b6bd
000003d0: 685b 8e3e ef8f cb3e 6400 02bf bfae e6bd
000003e0: 937c 96bd f747 b53e 0443 103f d310 28bc
000003f0: 6c2f c73d 035d 3d3e 7a99 eb3e 3d65 b93c
0.4047723 -0.2971846 0.117874734 0.28512737 0.12631333 0.112626076 0.1528814 -0.054273855
-0.39223763 0.04730679 0.093479775 -0.5129627 0.26311427 -0.11218523 -0.019763267 -0.5694704
-0.406322 0.03778335 -0.010757298 -0.32992488 0.0755287 0.46565592 0.43260604 -0.273983
-0.31972057 -0.21524559 0.2003052 0.32621858 -0.3008693 -0.5486433 0.038318977 -0.07341407
0.0056929034 0.17710021 0.04693667 -0.09543835 -0.58373684 0.34957394 0.24909206 0.097969316
0.08457481 -0.18094914 -0.078753 0.050721835 -0.36511767 -0.43896353 -0.31979424 0.42369363
-0.39333907 0.45090088 0.06114305 -0.08550083 -0.043457232 -0.5024268 -0.25425568 -0.20073852
0.25602603 -0.24432713 0.37031344 0.16631745 -0.21836948 -0.18233478 0.019094545 -0.0342328
0.27208513 -0.2003168 0.063880175 -0.1942978 -0.20047237 0.2099801 -0.19455716 0.71095145
0.20441008 -0.479883 0.08635523 -0.0012337641 -0.19183618 -0.08095328 -0.0011449825 -0.42723894
-0.26108947 -0.08924288 0.0216541 0.05172305 0.24541163 -0.060619745 -0.07794355 -0.14228208
-0.53535336 -0.15174425 -0.050456576 0.0284809 -0.29602498 0.08900466 0.26496828 0.8725498
-0.079806425 0.16793188 -0.20622663 0.34362778 -0.09821226 0.46647462 -0.2196438 -0.1058351
0.4298169 0.42089835 -0.31233692 0.35101452 -0.62931526 -0.15220548 -0.020653296 -0.014191838
-0.37472838 0.45840898 -0.004309885 -0.105560705 -0.0947533 -0.093674876 -0.11325283 -0.028139621
-0.0395037 0.23928967 -0.10785277 -0.27671623 0.55537397 -0.1805022 0.03195205 0.3571018
-0.15430258 0.06367399 -0.13989758 -0.04022777 -0.17398313 -0.19174522 0.035979513 0.23735653
-0.05192378 0.43779686 0.115139596 -0.020616226 -0.19251418 -0.06715597 0.07010815 0.08751098
0.22720546 -0.12276974 -0.21101752 0.3470535 -0.35798064 0.30452344 0.17405269 -0.3113802
-0.18122546 -0.44945657 -0.07096641 -0.1801303 -0.25127992 0.18629569 0.11424429 -0.0960991
-0.10283699 0.5422706 0.057114385 -0.16338675 -0.18166338 -0.16188483 -0.14838862 -0.42080912
-0.042647276 -0.34575742 0.5237774 0.06980712 -0.019759161 0.71420234 -0.09460372 -0.28438395
-0.2532851 -0.37671253 -0.15902495 0.03453611 0.44120547 0.18750277 0.22099583 -0.4086253
-0.520317 -0.6964603 -0.2648329 0.03669933 0.11800742 -0.23316337 -0.34447855 -0.2777307
0.18058766 0.16444334 0.24743229 -0.25549105 0.40128937 -0.091596924 -0.7433706 -0.20050015
-0.12868851 -0.022225814 0.2762971 -0.089804515 -0.05120188 0.21781042 0.25134265 -0.10080615
0.13618863 -0.00375632 0.17372283 -0.120395765 0.58485746 -0.36519247 -0.20111339 0.48631945
-0.088291734 0.17127961 -0.25386405 0.059262093 0.06788346 0.25767946 0.036308236 0.15768555
0.2751965 0.24425885 0.2099811 0.18488355 -0.18181027 -0.42090493 0.07122081 0.25160927
-0.44262928 -0.32433888 0.002002615 -0.65900385 -0.44748834 0.2424636 0.29709715 -0.28493878
0.06518611 -0.07195335 0.085001886 -0.08934489 0.27804112 0.3975825 -0.50781846 -0.11263799
-0.073479794 0.35406467 0.5635226 -0.010257917 0.09725842 0.18492512 0.4601553 0.022631282

r_cell.w_ks.bias f4 [24]
00000000: e6f0 d13d cf3e e03d 546c c83d 173c cd3c
00000010: 4220 3a3e 12dc 853e dad6 143e eec5 06be
00000020: f853 4bbe 258f 0dbd dfe2 313d c9e0 3dbd
00000030: cb78 813c 21b9 3f3e a68e cdbb 4a84 4f3e
00000040: f58a 0a3e fe9d 8a3d 973c 5abe d183 763d
00000050: 050e 05be f1b9 21bb fced 61bd dfaa 673d
0.10251026 0.1094948 0.09786287 0.025053067 0.18176368 0.26144463 0.14535084 -0.13161442
-0.1985625 -0.03456034 0.04342925 -0.04635695 0.015804669 0.18722965 -0.0062731085 0.20265308
0.1352957 0.06768416 -0.21312176 0.060184304 -0.1299363 -0.002467748 -0.0551586 0.05655944

r_cell.w_vs.weight f4 [24, 24]
00000000: e0a9 08bd f341 c33e 2cfc af3d 43cb 373e
00000010: 74ed 963e 7c11 353e 06d1 6a3e c77d e03e
00000020: 83d6 ce3e b517 7f3e 1200 373e bb43 09bf
00000030: e9ec 1dbe 1e37 cabe 2ae7 b6bd f7eb 003c
00000040: e61f 0a3f 847e e0bd 43a6 5e3e fc97 e53e
00000050: f220 5d3e f9c8 40bd 7ec9 d6be e4bf 9bbd
00000060: a72c b8be 29f6 babe 8d9e 67be f256 63bc
00000070: 63bf 783e 04a1 563d fcd0 013e bad0 b03f
00000080: 7baa f63e 8510 44be 6583 4c3e c66a 16bf
00000090: a72b 773d 700b 293f fd4e 803e effa 0c3e
000000a0: 8bcb d0ba e7b4 053e 68a7 00bf ab0a afbe
000000b0: 4d40 033e 8089 8cbe b9b2 93be 615b 063e
000000c0: 9d6a 48bf a8f5 cabd 43b4 44bd b25b 13bf
000000d0: 507c 81be af48 bb3e b011 38bf 363e 58be
000000e0: 4793 10bf c377 d0bd fac2 b0bd 2c13 c4be
000000f0: 7315 5d3d 0a95 00bf b1b4 4cbe b6a0 fa3e
00000100: f19f 83bd a1d3 1bbe 7f86 073b 60de 8abe
00000110: 10d6 d33d 9ef8 173e a65a a53d 028a 673e
00000120: 40a2 383f 74b0 30be 0bf0 113c 2243 b2be
00000130: a744 133f 1eba c1bd f0d2 17bf e994 a23c
00000140: b208 d63e 4d92 3cbe 17cf 3c3e 290e 403e
00000150: 6001 b53d ac38 82bd 0988 8c3f 2c66 203e
00000160: c1d0 d5bb 3253 8b3e fb86 253e ebb4 7bbd
00000170: 1eca 453d 4691 d73e 0474 0b3e b95a 203e
00000180: df73 e8bd 9f00 4abe 7310 c93e 7344 98be
00000190: eb84 06bf 5421 62be beec 853e 9231 49bf
000001a0: b852 863e 9261 15bd 0619 293e 749f b33e
000001b0: 91ee a7bd d8b5 d73e f45e 1ebe b105 e23e
000001c0: 5270 593d de7a c6bd 904c 593e da76 153e
000001d0: a92d 8c3e 0a7c b4be a802 c1be 55cc f5be
000001e0: a712 083e 41d2 4b3e d6f7 a23e ae3e b73b
000001f0: 7202 053f 0c64 3fbf a88b bdbe 3625 32bf
00000200: f0a5 17bf 5d8e 9cbe f766 32bd 1ad2 aebe
00000210: 31bd ccbe 91a5 ecbe 33d9 7bbe 7e39 5cbe
00000220: 239e 9b3d 5549 18be 1d3f cebe d7b8 1a3e
00000230: 062b eabd cd6c a3be 555d 043f 4e77 45be
00000240: 29ab 9c3e 9f01 99be e847 7bbf 8e3c de3d
00000250: 6dac bfbd 12ed c2be 0a29 17be 5fe5 fc3e
00000260: 33f8 e73d 8a17 e4bc d82f 0abe 501f 763d
00000270: 93d3 33be 63ec 6a3e 7456 393f b364 76bd
00000280: 26d1 eb3e b0f1 80be bcb7 a3bd b872 c1be
00000290: 7d59 233f 6d3a b23e 4135 c33d ea98 b83e
000002a0: fa2c 2e3e 89ac f5bd 1959 9f3e cc10 7f3e
000002b0: 3b92 a2be 1df7 b23d eb28 dabc 384b 0c3f
000002c0: ef12 5b3c d4c8 a9be 1d47 873e ae13 ca3d
000002d0: 797b 9cbe 1589 5ebd e57e 4f3f 9774 a93d
000002e0: 4206 9ebd 2d1f c13d 1025 12bf 9d30 7bbe
000002f0: fe97 afbe db68 c0bc 629a 17be 741b 6a3d
00000300: bbff d53d d028 3bbe 1e72 363e 6c01 b43c
00000310: b91e f93e 9064 80be 24c2 40bd 2148 6a3e
00000320: 4766 df3d 60bf e8bd 211f 2b3e d980 4d3e
00000330: 26fa 53be d4de 3dbd c653 263f cf07 233f
00000340: 4fb8 cdbe 1388 66bd ef27 39be b906 c43e
00000350: 86fc f03c 5486 783e d416 a03e 18b5 8a3d
00000360: f12d 1e3e 8467 afbe a699 19be ab28 9dbe
00000370: ed1c 853c 4a0e 99be 558c 4c3e 1515 73bf
00000380: a1e3 8fbe e9a2 bc3d ea16 8f3e edaf 52be
00000390: 7b94 193d 9958 663e 04f8 f2bd e43f 113f
000003a0: 8800 b73e 07bf 9cbe 9e73 91be 169b 67bc
000003b0: 2ed6 f73e ff3d 73bc 55f0 b93e 9fef 74be
000003c0: 048a d43e 8628 3cbd 9d44 a53e ab70 16bf
000003d0: 596e e93e 621b 29bf 7a88 cabe b203 cbbe
000003e0: 5b46 483e 8727 54be 1f4b 8a3d 2d6d a13e
000003f0: a8fb 1bbe 0767 47bf 08fb c43d f74a 963e
-0.03336513 0.38136253 0.0859302 0.17948632 0.29478037 0.17682451 0.22931299 0.4384596
0.40398034 0.24911387 0.1787112 -0.53618973 -0.15422405 -0.39495176 -0.0893081 0.007868758
0.53954923 -0.10961631 0.21743111 0.44842517 0.21594599 -0.047066662 -0.419506 -0.076049596
-0.35971567 -0.3651593 -0.22619076 -0.01387571 0.24291758 0.05239965 0.12677377 1.3813698
0.4817694 -0.19146927 0.19971998 -0.58756673 0.060344364 0.6603308 0.25060263 0.13767599
-0.0015929801 0.1305729 -0.5025544 -0.34187827 0.12817498 -0.27448654 -0.28847292 0.13120796
-0.7828768 -0.099101365 -0.048023473 -0.5756179 -0.25290155 0.3657889 -0.7190199 -0.21117482
-0.5647473 -0.10179093 -0.08630939 -0.38295877 0.053975534 -0.50227416 -0.19990803 0.48950738
-0.06426991 -0.15217449 0.002067953 -0.27122784 0.103435636 0.14840934 0.080739304 0.2261124
0.72122574 -0.17254812 0.008907328 -0.34816843 0.5752663 -0.09459327 -0.5930624 0.019846397
0.4180351 -0.18415184 0.18438374 0.18755402 0.08838153 -0.063584656 1.0979015 0.15663975
-0.0065251295 0.2721191 0.16164772 -0.061451834 0.048288457 0.42103022 0.13618475 0.15659608
-0.11350226 -0.197268 0.39270362 -0.29739723 -0.52546567 -0.22083026 0.26157182 -0.78591263
0.26234984 -0.036470003 0.16513452 0.3508259 -0.081998 0.42130923 -0.15465909 0.44144967
0.053085633 -0.09691404 0.21220613 0.1459612 0.27378586 -0.35250884 -0.3769734 -0.48007455
0.13288365 0.19904424 0.3182971 0.005592189 0.51956856 -0.74762034 -0.37020612 -0.6958803
-0.59237576 -0.30577365 -0.043555226 -0.3414467 -0.39988092 -0.46220067 -0.24594574 -0.21506307
0.075985216 -0.14871724 -0.40282527 0.15109573 -0.11433987 -0.31918946 0.51704913 -0.19283792
0.30599335 -0.2988405 -0.98156595 0.10851394 -0.093590595 -0.38071495 -0.14761749 0.49393746
0.11326637 -0.027843256 -0.13494813 0.060088456 -0.17561178 0.22941737 0.7239754 -0.060154628
0.46058005 -0.25184393 -0.07994029 -0.37782836 0.63808423 0.348102 0.09531642 0.36054164
0.17009345 -0.11995799 0.31122664 0.24908751 -0.3175219 0.08738539 -0.02663084 0.54802275
0.013371213 -0.33161032 0.26421443 0.09867035 -0.30562952 -0.05432995 0.81053 0.08274191
-0.07716037 0.094297744 -0.570878 -0.24530263 -0.34295648 -0.023487499 -0.14804986 0.057155088
0.10449167 -0.18277287 0.1781697 0.021973334 0.48656252 -0.25076723 -0.047060147 0.22879077
0.1090818 -0.11364627 0.16711093 0.20068683 -0.20700893 -0.046355084 0.6497158 0.6368379
-0.4017968 -0.056282114 -0.1808164 0.3828638 0.029417288 0.24269992 0.31267416 0.06772822
0.15447213 -0.34258664 -0.15000018 -0.3069509 0.016249144 -0.29893714 0.19975407 -0.94954044
-0.28103355 0.0921076 0.2794717 -0.20574923 0.037495118 0.22494735 -0.118637115 0.56738114
0.35742593 -0.30614492 -0.2840852 -0.014136096 0.48405594 -0.014846324 0.3631617 -0.23919533
0.41511548 -0.045937084 0.3227891 -0.5876567 0.45592 -0.6605741 -0.39557248 -0.39651257
0.19558088 -0.20718203 0.067526095 0.31528607 -0.15232718 -0.7789158 0.09618193 0.2935407

r_cell.w_vs.bias f4 [24]
00000000: 85f0 80bd 9536 043d 1bf7 583e e1cd 493e
00000010: 0398 223e 304b e0bd 323a ca3d 9d22 073d
00000020: a8fc 833d c495 1ebe 9d2a 793d 8f87 343e
00000030: 3e9e d1bd 33fd f33c ef32 d8bd fc7f 67bd
00000040: 16b3 edbd d6f1 0e3e 4706 3cbe ca14 f6bc
00000050: 7d41 12be 1bc0 903d 54d7 09be fd38 4dbe
-0.062958755 0.032278616 0.21188013 0.19707443 0.158783 -0.10951841 0.09874381 0.032991994
0.06444675 -0.15486819 0.060831655 0.17629836 -0.102352604 0.02978382 -0.1055659 -0.05651854
-0.116064236 0.1395944 -0.1836177 -0.03003921 -0.14282794 0.07067891 -0.13461047 -0.2004127

r_cell.layer_norm.weight f4 [24]
00000000: 63cf 693f 69ed 533f 6461 5e3f fa60 673f
00000010: a9a0 703f be33 353f 35b7 823f c665 863f
00000020: 3475 553f c5ce 8e3f deb3 9c3f ebfb 9c3f
00000030: 931c 943f e17c 863f b812 8f3f 149b 8c3f
00000040: 325b 973f 0087 853f eb8e 8d3f 3f83 823f
00000050: cfcf 883f 34b6 7c3f 1e32 903f b11e 773f
0.9133207 0.82784134 0.86867356 0.9038235 0.9399515 0.7078208 1.021216 1.0499809
0.8338196 1.1156851 1.2242391 1.2264379 1.157122 1.050686 1.1177588 1.0984826
1.1824706 1.0431824 1.105924 1.0196303 1.0688418 0.9871552 1.1265295 0.96531206

r_cell.layer_norm.bias f4 [24]
00000000: cd58 053e c020 05bd 6470 383b a615 71bc
00000010: 1057 c8bc d248 3e3c 41ff 0fbe 2b67 cb3c
00000020: 84cd 8f3b 7ca4 563c cd47 f9bd 16f6 063d
00000030: 9a60 463d 4af1 df3d e276 133d dcfe 38bd
00000040: 6b82 a93c a9d9 11bd eab9 113c 81a5 8ebd
00000050: ce7c 0dbd 0c5e 7bbb 7d39 ac3c 6934 fcba
0.13022156 -0.032501936 0.0028143162 -0.014714634 -0.024455577 0.011614041 -0.14062215 0.024829468
0.004388513 0.01310074 -0.12171898 0.03294953 0.04843197 0.10934694 0.036002047 -0.045164928
0.020692071 -0.035607968 0.008894423 -0.06965161 -0.03454285 -0.0038355617 0.021023506 -0.0019241694

r_cell.fc.weight f4 [24, 24]
00000000: 57c0 08be a433 91be b533 be3d f718 8b3c
00000010: 60ad 133e bb7c b7bb 3249 8dbe 50a8 9abe
00000020: a119 43be 3cf1 e43e dbb1 b63e 85c3 59be
00000030: ab86 1bbf 0518 a1be e7f1 94bd 4119 143d
00000040: 8935 883d 0e72 d33d 73c4 ac3e 1aa7 953e
00000050: fb75 e7bd 092c c43e 0c55 acbe 9645 0e3d
00000060: 28b4 c13e f1a7 48be a370 163e 4d84 20bf
00000070: 67f2 933d 5c1e fe3e 10d1 5fbd 1889 37be
00000080: 5177 83be 7d11 453e 84fb 02be 1aad 4bbe
00000090: 4675 11bd 8110 033e 98ce b2be 33b3 38be
000000a0: 44bf 603d 321a f73c 90e7 babd 1413 073b
000000b0: ab71 32bf 80d1 fbbd 2bf4 0dbf 3e5f d73e
000000c0: fc2d 6abe f1cb 3cbe d162 5e3d 4e2d 093f
000000d0: db46 783e c64b 52be 295b ce3d a161 fabc
000000e0: 6e43 143f cdaa 453e ae88 293f 686d ae3e
000000f0: 600a 193e 64c4 803e ad36 13be 75b5 ea3d
00000100: 104d e1bd a88e 81bf 2a11 a63d 4b86 4fbe
00000110: a343 323f 5b68 a8bc 0297 843d 7676 873e
00000120: b923 5fbe 78c8 18be b1d2 77bd 1722 a73e
00000130: 3b4f 3bbe a9a4 f03d ac1f 6a3e 0aa0 81be
00000140: 3752 323e 0e22 05bd d7b6 153d 8d26 743d
00000150: 1c84 83be 9388 48be 39d6 5a3f 0232 0d3e
00000160: 47fd 90be c134 fb3d dbd8 f43d f507 c0be
00000170: 7780 7cbd 549f a73e 599d 9bbe b668 51be
00000180: c240 5bbe 425e bbbe f832 1ebe 3f22 413e
00000190: 61e9 8dbe 16a8 343f f587 b9be dbef 983d
000001a0: 28f7 753e 2119 23bc 2e11 9d3e fbd3 623e
000001b0: f0d4 a0be ee54 babe c42e 2cbe 5eba f13e
000001c0: a93f 9ebe c648 9bbd fb07 433b 4f12 a4be
000001d0: 31f4 fa3d be49 e33d f614 acbe 547d 4e3e
000001e0: 8267 6c3d b842 ad3c 80bf a8be 408b bb3e
000001f0: b7ff 05be be89 30bd 740d d93e 59f7 793e
00000200: e368 633e 2085 6fbe f882 47be 6372 c63e
00000210: 7551 5e3e e28c a8be 62d2 dd3e 4b36 ee3d
00000220: 746c 33be 77a8 023f 3278 3dbe 99e9 3cbe
00000230: 6a43 b93e 89bc a63e f53a 3e3e b70d 02bf
00000240: cce1 5e3e f05e 28be aa49 a5bc c58e 41be
00000250: 3f59 b43e 83ff 033f 826c 573d 2b45 32be
00000260: 5274 0f3e b811 703e f58b c43d ab59 a33d
00000270: 7274 77be 8181 ebbe 97a7 803e 4d0b fcbc
00000280: 3e0d 643c bf3c 2bbe 1e28 fbbd c7aa 83bd
00000290: 223e 9abe e3d9 823e da81 883d 11ed e03e
000002a0: d328 ac3e e31d ca3e 1773 853e 739f 22bd
000002b0: 910f cebd 97e5 e9be 2eb8 94bd e2e1 9abd
000002c0: 70ec b63e 05ee 8cbe abfa 633e 4c81 4fbd
000002d0: 0200 b33e 0a46 b13d 042c dabe ff37 5c3e
000002e0: bdd3 083e 8513 6d3e 4c70 e7bd c53e cf3d
000002f0: be39 643d 2d02 64bd 4d9c d1be 3cee 98be
00000300: 05e6 76bb e330 cd3e ba5c bdbe 2a2f e73e
00000310: 2f10 cfbc 06b3 0cbf a942 273f e4b2 783d
00000320: 428d d13e 5036 84be f158 bcbe da45 4b3e
00000330: 15e6 f93e 41b1 87bd e7c9 573e 5704 443e
00000340: ac39 aabd 695c 62bd b3b4 efbe 97b3 0a3e
00000350: cd6d aebe 253f 8cbe fcfd 493e cfd2 b33d
00000360: 2298 da3b e30f 1b3f 9af9 a4bd 681f fd3e
00000370: 9e88 b5bd 7099 a7be 0e91 a03e 7d5d f03c
00000380: 690d 1bbe c5e7 9c3d 64a3 b3bd e87b 713e
00000390: df3b 00be e84a 00bd 5c11 683e ead5 d0bd
000003a0: 5af5 b63c 1735 f53d 742f 653e ba3e b93c
000003b0: c331 39bf 9687 903e 0c59 f53e 07c0 8d3d
000003c0: 82b0 633e 7de6 d03e 73d7 373c d505 b43d
000003d0: 4843 0a3e 83cf 4d3d 7e5c 3a3e e83f eb3c
000003e0: 7f5b 553e 067d 3d3e f039 ab3e f1d2 c83e
000003f0: a9d3 6e3e 58a5 4abe 3c75 a4be b377 a1be
-0.13354622 -0.2835971 0.09287206 0.016979678 0.14421606 -0.005599586 -0.27594906 -0.30206537
-0.19052745 0.44715297 0.35682568 -0.21265991 -0.6075236 -0.31463638 -0.07272702 0.036156897
0.06650836 0.103244886 0.3374363 0.2922905 -0.113018 0.38314846 -0.33658636 0.03473433
0.3783276 -0.19595315 0.14691405 -0.62701875 0.07223969 0.49632537 -0.054642737 -0.17923391
-0.2567697 0.19244952 -0.12791258 -0.19890252 -0.03551223 0.12799264 -0.34923244 -0.18037109
0.054869905 0.030163858 -0.09126198 0.0020610737 -0.69704694 -0.12295818 -0.55450696 0.42064852
-0.22869104 -0.18437172 0.054293457 0.53584754 0.24245779 -0.20536718 0.10075981 -0.030564131
0.5791539 0.19303437 0.6622418 0.34067845 0.14945364 0.25149834 -0.14376326 0.114603914
-0.11001027 -1.012166 0.081087425 -0.20266072 0.69634455 -0.020557573 0.06474115 0.26457566
-0.21790971 -0.14920223 -0.060503665 0.32643196 -0.18291943 0.117501564 0.22863644 -0.25317413
0.17414175 -0.03250318 0.036551323 0.059607077 -0.2568673 -0.19583349 0.8548313 0.13788608
-0.28318235 0.122659214 0.119554244 -0.3750607 -0.06164595 0.32738745 -0.30393484 -0.204501
-0.21411422 -0.3659535 -0.1544913 0.1886072 -0.27717116 0.7056898 -0.3623654 0.07467624
0.24020064 -0.009954722 0.3067717 0.22151177 -0.31412458 -0.3639292 -0.16814715 0.472125
-0.30907944 -0.0758224 0.0029759395 -0.32045218 0.12253607 0.110980496 -0.33609742 0.20164996
0.0577159 0.021149978 -0.32958603 0.36629677 -0.13085829 -0.04310011 0.42393076 0.24410762
0.2220798 -0.23390627 -0.19483554 0.38759145 0.21710761 -0.32919985 0.43324572 0.11631449
-0.1752184 0.51038307 -0.18502882 -0.18448485 0.36184245 0.32565716 0.18577178 -0.5080218
0.21765822 -0.16442466 -0.020176727 -0.18902119 0.3522434 0.51561755 0.052593715 -0.17409198
0.14009216 0.23444259 0.09597007 0.07976087 -0.24165514 -0.4599724 0.2512786 -0.030767107
0.013919173 -0.16722392 -0.12263511 -0.064290576 -0.3012553 0.2555686 0.06665392 0.43930867
0.33624896 0.39475927 0.2606437 -0.039702844 -0.10061563 -0.45682976 -0.07261692 -0.07562615
0.35727262 -0.27525344 0.22263591 -0.050660416 0.34960943 0.08655937 -0.42611706 0.21505736
0.13362022 0.23151977 -0.11300716 0.10119394 0.05571913 -0.055666137 -0.4093956 -0.29869258
-0.0037673723 0.4007636 -0.36984807 0.4515317 -0.025276272 -0.5496067 0.6533609 0.06071748
0.40928084 -0.25822687 -0.36786607 0.19850865 0.4880835 -0.066256054 0.21073113 0.1914228
-0.08311781 -0.05526391 -0.4681755 0.1354507 -0.34068146 -0.27391925 0.19725794 0.08780443
0.0066709677 0.60571116 -0.0805542 0.49438024 -0.08863948 -0.3273425 0.31360668 0.029341454
-0.15141834 0.07661394 -0.08771399 0.23582423 -0.12522839 -0.031321436 0.22662872 -0.10197051
0.02233379 0.11973017 0.22381383 0.022612918 -0.72341555 0.28228444 0.479195 0.06921392
0.22235301 0.4080085 0.011220801 0.08790175 0.13502228 0.050246727 0.18199345 0.028716996
0.20835684 0.18504724 0.3344264 0.39223436 0.2332293 -0.19789636 -0.32120693 -0.31536636

r_cell.fc.bias f4 [24]
00000000: 1145 a6bd 2e44 9fbc 8e07 983d 4859 323e
00000010: 1585 4e3e e269 55bd 8e60 4e3d a99d eabd
00000020: 2e46 4e3b 0a0a fa3d 9a90 a0bd fe89 cabd
00000030: 4bd3 dfbd da2e 3d3d eb55 febc 19d2 afbd
00000040: 35b3 0f3e 78fd 0ebe b892 24bd 7eea 843d
00000050: c128 f2bd d4c0 9bbd c03a 923d 1bbd 5b3e
-0.08118642 -0.01944169 0.07423316 0.1741687 0.20167954 -0.05210293 0.05038505 -0.114558525
0.0031474936 0.12208946 -0.078400806 -0.09889601 -0.10928973 0.04618726 -0.031046828 -0.08584995
0.14033206 -0.13963878 -0.040178984 0.06490038 -0.118241794 -0.076051384 0.07140112 0.21458857

fc1.0.bias f4 [24]
00000000: 2451 3bbd 071d 0e3d 45c6 393d bd86 9c3d
00000010: b980 80bc 6494 c83c fc0f b2bc c885 663c
00000020: 02d9 013d 039d 593d bbdd 91bc f9e4 3b3d
00000030: 5abb 8c3d 9667 b43d 2e90 3ebd f84c edbb
00000040: c115 133d 0a76 91bd e3e4 8abc 576c fd3c
00000050: cd10 2abc c1e5 b3bc fe74 183d 363f d8bc
-0.04573168 0.03469565 0.0453551 0.07642887 -0.01568638 0.02448482 -0.021736138 0.014069982
0.031701095 0.053128254 -0.017805925 0.045872662 0.06871672 0.0880882 -0.04652422 -0.0072418414
0.035909418 -0.07102592 -0.016954845 0.03093545 -0.010379982 -0.021960141 0.037220947 -0.026397329

fc1.0.weight_orig f4 [24, 6]
00000000: 14cd 833d bd4c a73c 72d6 ef3c 40c8 8cbd
00000010: 6870 8c3d d45a 7b3e c6af 303d 9f5d ffbd
00000020: 27f7 423d ec97 4bbd e44b 22bd 65ad 70bc
00000030: 718c 8e3d 036e ee3c dece 2cbd 592d 44bd
00000040: f78e 8ebb 2e91 abbe deb6 14be f26b ca3d
00000050: 3f0b 153e 4391 953e 98d5 28be 57e2 afbe
00000060: 0048 86be fa99 3f3e 5f62 d4bc 5510 b33e
00000070: cf55 eabd 3678 24be 51f2 58be 1310 6b3d
00000080: ab5f cbbd f907 2c3e a348 30be 7bbe b4be
00000090: 5d72 34be bae7 983d 107e 943e 34b3 153e
000000a0: 4c41 34bd 85c2 78be 0fcc 8fbe 5f5a 403d
000000b0: 4630 123e d470 313e 744c 40be 00c2 c33c
000000c0: 2351 1cbe e073 213e ad78 3f3d 72c8 7f3e
000000d0: b398 1fbe 5202 29bd 9658 c1be 2618 9e3c
000000e0: e71f 4d3d cc7e 153e a22e c3bd 86b6 bebe
000000f0: e1df 34be 1801 593e cae0 d53e a740 c03e
00000100: 0311 6f3a e21f 84be aa83 56bc 29ba 8b3d
00000110: e252 8cbe 0465 f73d ee97 88be 4a38 f3bd
00000120: 5c5b 3a3e 421e dcbd a0d6 d1be f704 26be
00000130: 3d7d 423d 2fb3 f33e 748e 723d d878 193e
00000140: c503 97bd d0a3 ff3d ea61 a6bb e536 e7bc
00000150: f953 03be 2a87 8b3c 2f60 a63e ae9c 993d
00000160: 0f85 99bc e2ba cdbe 608e 89bb 5936 643c
00000170: 4e79 063d 42b2 333c 566d 39be b53c 6fbe
00000180: ad60 a73e d89f bdbd a2fa ce3e 5bb1 0abe
00000190: ece7 5c3e 2f20 143c fa08 81bc 42fe b0bb
000001a0: 97cb 0c3e 756e 35bd fc3a 1a3d 9315 c1bd
000001b0: 08b1 25be 1fad c23d b657 d13e 7e9a 443e
000001c0: 119d 723c 2e95 d4be 787d 1a3e 3c1b 313e
000001d0: ab97 c8bd 7a02 033e b342 28bc 2fcf 3dbe
000001e0: 6834 6f3e a49d c03c dca7 e03e a166 f5bd
000001f0: 78d2 493e 4bc0 4dbd 4c7e 68be 8a2e 9abd
00000200: fa9c b73e 39a1 4d3d ce5b 0f3e 5373 61be
00000210: 3618 f73d 589d 0c3b df82 aabe 877b 3dba
00000220: a523 5aba 64be 0b3f 2f68 f6bd b092 a2bc
00000230: a159 253e 268b 61bc 7349 aebc 793c 69be
0.064356 0.020422334 0.02927706 -0.06874132 0.06857377 0.24546367 0.04313638 -0.12469029
0.047598984 -0.04970543 -0.039623156 -0.014689778 0.06960381 0.029105192 -0.04218947 -0.04789481
-0.004350539 -0.335092 -0.14522883 0.0988387 0.14555071 0.29212388 -0.1648773 -0.3435237
-0.26226807 0.18711081 -0.025925813 0.34973398 -0.11442148 -0.16061482 -0.21186186 0.057388376
-0.099303566 0.16799916 -0.17215209 -0.35301575 -0.17621751 0.07466073 0.29002428 0.14619142
-0.044007584 -0.24292953 -0.28085372 0.046961185 0.14276227 0.17328197 -0.18779165 0.023896217
-0.15265326 0.15766859 0.046745945 0.24978808 -0.15585594 -0.04126198 -0.37762898 0.019298624
0.050079253 0.1459915 -0.09530379 -0.3724863 -0.17663528 0.21191823 0.41773063 0.37549326
0.00091196614 -0.25805575 -0.013092915 0.068226166 -0.27406985 0.12079814 -0.26678413 -0.11875971
0.18198913 -0.10747959 -0.40984058 -0.16212831 0.047482718 0.47597644 0.059217885 0.14987504
-0.07373766 0.12482417 -0.0050775902 -0.028224418 -0.12825002 0.017032225 0.32495257 0.075005874
-0.018740205 -0.40181643 -0.0041978806 0.013928973 0.03283053 0.010967793 -0.18108115 -0.23363002
0.32690945 -0.092590034 0.40425593 -0.13544218 0.21572846 0.009040876 -0.01575135 -0.0054014036
0.13749538 -0.044294793 0.037653908 -0.09427943 -0.16180813 0.095056765 0.4088723 0.19199559
0.014807955 -0.41520065 0.15086925 0.17295545 -0.09794553 0.12793913 -0.010269809 -0.18536066
0.23359835 0.023512669 0.43878067 -0.119824655 0.19709194 -0.050232213 -0.22704428 -0.07528408
0.3586195 0.050202582 0.13999864 -0.22016649 0.12065165 0.002145609 -0.33302972 -0.0007228185
-0.00083213515 0.5458739 -0.1203159 -0.019845337 0.16147472 -0.013766086 -0.021275258 -0.22776975

fc1.0.weight_u f4 [24]
00000000: 970f eb3d 970f eb3b 17bf c8bd da2c 8cbe
00000010: e137 47be de69 4abe 2634 7abe b113 08be
00000020: 9401 03be 84c5 88be 5044 acbe b617 8fbc
00000030: 61b7 bf3e 13c2 75bc d590 92be f1ab e9bd
00000040: de39 653b 90cc 87bd e7d2 b1be 980e 5cbd
00000050: 2634 7abd 0b88 64be dafc a63e a0d8 1cbe
0.11477583 0.0071734893 -0.098020725 -0.2737797 -0.1945491 -0.19766948 -0.24433956 -0.13288762
-0.12793571 -0.26713192 -0.33645868 -0.017467361 0.37444595 -0.014999884 -0.28626123 -0.11409748
0.0034977118 -0.06630814 -0.34731218 -0.053724855 -0.06108489 -0.22317521 0.32614785 -0.15317011

fc1.0.weight_v f4 [6]
00000000: 0af6 b63e b010 1abe 0225 fcbe 1527 abbe
00000010: 09aa da3d 4b19 323f
0.35734588 -0.15045428 -0.49246985 -0.33428255 0.10676963 0.69569844

fc1.1.weight f4 [24, 24]
00000000: 7a9f 55bf 9743 703e af8d 263e 93a8 563f
00000010: cd1f 6c3f 090a 093f 70fe 083f 534c 393f
00000020: 4db0 43bf 0ae5 66bf 960e 183f 6c59 c5be
00000030: f930 c93e aee6 293e a338 1f3f d779 b93e
00000040: 2d40 083f ba34 403f b9ec 4abe 79b0 97bd
00000050: a795 b9be 518e 653e 1d6e adbe d652 2fbd
00000060: bd37 3ebc a1f3 9e3a dc0f 1abf 4606 28be
00000070: 01ae 233d 8a58 dcbd b763 c2be d561 603e
00000080: b526 b03e eb2e 4d3c f5d4 bd3d c0e5 a8bd
00000090: 591e 033d 2873 bfbd 4db8 f6bd 47c3 b83e
000000a0: 41c5 233e 9361 92be 1c8f 4ebc 3bf2 e73e
000000b0: 4183 c8bc 2bb0 adbd 1699 e3bb 60e4 143e
000000c0: 3290 1c3f 2b9f 443d 637d 173f 4da2 42bf
000000d0: a065 2bbf 7d8c 94bd 4a9a 8ebd dd68 1fbf
000000e0: c87e a03e 1f56 133f 4906 5abf eca4 81be
000000f0: a8a0 57bf ed58 95bd 317d 3cbf eeab b23d
00000100: f086 dcbe 0c9e c73e 7c35 b03f 1adc 833f
00000110: b3ff 00bf 5e9a 013e 3a54 0a3f cbbd e23c
00000120: 3825 18bf f915 4d3e d7f1 77be 28cf 703f
00000130: a7b5 1b3f a02a 843e df78 8d3e b26c 4f3e
00000140: d2a3 9cbe 24e8 8fbf fd75 4f3f c943 d7bd
00000150: cb35 743f f6ef b1be eadb 0b3f e15d 2d3e
00000160: 2fa1 abbd 4ddc 613e 7d66 6abf cdef 25bf
00000170: da81 6ebe c558 873e 84bc 6fbf f904 533e
00000180: 69f9 963e a7b0 e4bd 11db 21bf dda1 2fbf
00000190: 7bb0 fabe b7e4 43bf 39b6 5bbf 8e26 0dbf
000001a0: 26bd 423f 4686 523f 6266 f0bd a907 0cbd
000001b0: 2e2a dabe c6be 45bc 90d0 a3be 9b70 76be
000001c0: abdc 2f3e 2a55 d9be 2990 62be 9fa3 733d
000001d0: f2fc 893e ea88 883d c315 983e 80f6 8abd
000001e0: 662a 793e 7711 44be 4ed4 e5be b930 b9be
000001f0: 53ee 9f3e 8201 2d3e c14e a6be 2c59 6fbd
00000200: 776a 483e d7a5 9e3d 3933 543e cb02 0a3f
00000210: d97a e5bd eb35 d6be bc25 44be f66f 153d
00000220: 4b64 0c3d 4dbf 143e a15c 94be 7990 c5be
00000230: e0bf c7bd 2b60 5ebe f9e8 09be c87d 3cbf
00000240: 5aad 7f3b 38ca bcbe 199d 3cbf 1180 16bf
00000250: 7a6d f5be 5cda f4be 6b3f 5dbf 405c 12be
00000260: 32a4 253f 7332 2e3f e4a3 27be cc2c e23d
00000270: 9405 cabe 1c2c bbbe 35bc c9be 5cd1 74ba
00000280: e9dd 723e 485c b7be 86e5 9dbd 0214 09bf
00000290: 2793 3f3f 4a8a b1be 35ab 763e 07dd c0be
000002a0: df08 21bf 2231 793d c513 a8bd 528e 663f
000002b0: 5598 2d3f 4eb4 9e3e e6a6 173f b18f db3e
000002c0: f287 d3be a943 99bf d774 583f 7ae3 8dbe
000002d0: e01a 453f 7346 cfbe ff10 173f a1c5 d43e
000002e0: cb6d 89be 5a8e ef3e 11c9 7ebf 3d89 c5bd
000002f0: d8e6 3a3d 03e5 87bc dbb0 7bbf 1335 1f3f
00000300: 6008 87be f200 86ba 81b9 3b3e 6b59 8c3c
00000310: 0311 283f 7bf7 453f 250e 653e 2e33 99be
00000320: 66ad 693e d303 d6bd c170 1e3e 3bde e8be
00000330: 582e 60be 6f63 a03e 890e ea3d 6402 06bf
00000340: bdf8 75be 22c0 063e 6ab2 e53e 376f 353d
00000350: acd0 553e ced0 673e bdef 58be 7886 b93e
00000360: b3c5 0e3f 2c00 7b3e c60a 1cbf 9674 a9bd
00000370: 8f08 13be 454c f1be 5159 febd 5241 bb3e
00000380: 74e7 973e 5ad0 1c3e 63be 923d 0f04 98be
00000390: e8eb b53c f4f5 623d f110 c5bd 7537 083f
000003a0: 66a5 d1be 9183 ccbe 1b2c edbe 0e5b 0fbf
000003b0: 9e3f 913d 7c58 483f ef00 f43e eb4c e7bd
000003c0: e704 6d3e 2dd8 08be 56c9 22bf ca26 473c
000003d0: 0591 7d3e 928e d0be c8cc c4be 1e74 9a3c
000003e0: 2ea0 173e d3a6 423d fd58 5c3d 4a72 113f
000003f0: 9ac3 183d a523 e6be a597 1abe 9ddf 6fbd
-0.83446467 0.23463283 0.16264986 0.83850974 0.92236024 0.5353094 0.5351324 0.72382087
-0.7644089 -0.90193236 0.59397256 -0.38544786 0.39295176 0.16591904 0.62195796 0.3622577
0.53222924 0.75080454 -0.19816865 -0.07406706 -0.36246988 0.2241757 -0.33873072 -0.042803608
-0.011609969 0.001212705 -0.6018045 -0.16408643 0.039960865 -0.10759075 -0.379667 0.2191232
0.3440453 0.012523393 0.09269134 -0.08246946 0.032011364 -0.09348136 -0.12046871 0.36086485
0.15993215 -0.28590068 -0.012607362 0.45301995 -0.02447665 -0.08480867 -0.0069457395 0.14540243
0.61157525 0.048003357 0.591757 -0.760289 -0.6695194 -0.072533585 -0.06963022 -0.62269384
0.31346726 0.57553285 -0.8516584 -0.25321138 -0.84229517 -0.07292352 -0.73628527 0.08724199
-0.430717 0.38987768 1.3766322 1.0301545 -0.50390166 0.12656543 0.5403477 0.027678391
-0.5943179 0.20027913 -0.24213348 0.94066095 0.60824054 0.2581377 0.2763128 0.20256308
-0.30593735 -1.1242719 0.8103941 -0.10510976 0.9539458 -0.34753388 0.5463244 0.16930343
-0.08380353 0.22056694 -0.91562635 -0.6481903 -0.23291722 0.26434913 -0.93647027 0.20607366
0.2948716 -0.11166506 -0.63224894 -0.6860636 -0.4896277 -0.76520866 -0.85824925 -0.55136955
0.7606987 0.82236135 -0.11738278 -0.034186993 -0.42610306 -0.01206941 -0.31995058 -0.24066393
0.17174022 -0.42447788 -0.22125305 0.059482213 0.26950794 0.06666739 0.29704103 -0.067852974
0.2433258 -0.19147287 -0.44888538 -0.36169985 0.31236514 0.16895106 -0.3248196 -0.05843465
0.19571863 0.07746475 0.20722665 0.5391051 -0.11205072 -0.4183801 -0.1915502 0.036483727
0.034275334 0.145261 -0.2897692 -0.38586786 -0.09753394 -0.21716373 -0.13467778 -0.73629427
0.0039013238 -0.3687303 -0.7367721 -0.58789164 -0.47935086 -0.47822845 -0.86424893 -0.14293003
0.6470367 0.6804573 -0.16371113 0.110437006 -0.3945738 -0.3655709 -0.39401403 -0.00093390583
0.23717465 -0.35812593 -0.07709794 -0.53546154 0.7483391 -0.3467582 0.24088748 -0.3766863
-0.6290416 0.060837872 -0.08206896 0.90060914 0.67810565 0.30996937 0.5923904 0.42883065
-0.41314656 -1.1973773 0.84553283 -0.27712613 0.76994133 -0.40483436 0.5901031 0.4155703
-0.26841578 0.46788293 -0.99525553 -0.09645317 0.045630306 -0.016588693 -0.98316735 0.6219036
-0.26373577 -0.001022367 0.18332483 0.017132482 0.6565096 0.7733075 0.22368677 -0.2992186
0.22820053 -0.10449948 0.154727 -0.45482048 -0.21892679 0.31325862 0.114285536 -0.523474
-0.24020667 0.1315923 0.44862682 0.044295516 0.20880383 0.22638246 -0.21185203 0.36235404
0.55770415 0.24511784 -0.6095394 -0.0827419 -0.14358734 -0.47128502 -0.124193795 0.36573273
0.29668772 0.15313855 0.0716522 -0.29690596 0.022207215 0.05541034 -0.09622372 0.5320962
-0.40946501 -0.39944127 -0.46322712 -0.55998313 0.07092212 0.78260016 0.47656962 -0.11293968
0.23146401 -0.13363715 -0.63588464 0.012155244 0.24762352 -0.40733773 -0.38437486 0.018854197
0.14807197 0.047522377 0.053795803 0.56815016 0.037295915 -0.4494907 -0.1509691 -0.058562864
