models/17_05_2021/stock_self_attn_MSE_hinge_10000_64_24_6_24_5/1000_embedder.pth (torch, 60914 bytes, 43 tensors)

position.pe f4 [1, 24, 24]
0.0 1.0 0.0 1.0 0.0 1.0 0.0 1.0
0.0 1.0 0.0 1.0 0.0 1.0 0.0 1.0
0.0 1.0 0.0 1.0 0.0 1.0 0.0 1.0
0.84147096 0.54030234 0.44767085 0.8941984 0.21378067 0.9768817 0.099833414 0.9950042
0.04639923 0.99892294 0.021542681 0.9997679 0.009999833 0.99995 0.0046415734 0.9999892
0.0021544332 0.9999977 0.0009999998 0.9999995 0.00046415895 0.9999999 0.00021544348 1.0
0.9092974 -0.41614684 0.8006131 0.59918165 0.41767687 0.9085956 0.19866931 0.9800666
0.09269851 0.9956942 0.043075364 0.99907184 0.019998666 0.9998 0.009283047 0.9999569
0.004308856 0.9999907 0.0019999985 0.99999803 0.00092831784 0.9999996 0.00043088695 0.99999994
0.14112 -0.9899925 0.98414314 0.17737612 0.60226107 0.7982992 0.2955202 0.9553365
0.1387981 0.9903207 0.06458805 0.997912 0.0299955 0.99955004 0.01392432 0.9999031
0.006463259 0.99997914 0.0029999954 0.9999955 0.0013924765 0.99999905 0.00064633036 0.9999998
-0.7568025 -0.6536436 0.9594254 -0.28196275 0.75899875 0.6510921 0.38941833 0.921061
0.18459873 0.98281395 0.08607077 0.996289 0.039989334 0.9992001 0.018565293 0.9998276
0.008617632 0.99996287 0.003999989 0.999992 0.0018566349 0.9999983 0.0008617738 0.99999964
-0.9589243 0.2836622 0.73169005 -0.68163747 0.88064283 0.47378072 0.47942552 0.87758255
0.23000173 0.97319025 0.10751353 0.9942036 0.049979165 0.99875027 0.023205869 0.9997307
0.010771966 0.999942 0.004999979 0.9999875 0.0023207928 0.9999973 0.0010772172 0.9999994
-0.2794155 0.96017027 0.349127 -0.93707544 0.961569 0.27456328 0.5646424 0.8253356
0.2749093 0.9614702 0.12890638 0.9916568 0.059964005 0.99820054 0.02784594 0.9996122
0.012926248 0.99991643 0.0059999637 0.999982 0.0027849504 0.9999961 0.0012926605 0.99999917
0.6569866 0.75390226 -0.10731243 -0.9942253 0.9980355 0.06265094 0.6442176 0.7648422
0.31922466 0.94767904 0.15023942 0.98864967 0.06994285 0.997551 0.032485418 0.9994722
0.0150804715 0.9998863 0.006999942 0.9999755 0.003249107 0.99999475 0.0015081038 0.99999887
0.98935825 -0.14550003 -0.5410444 -0.840994 0.9883562 -0.15215816 0.717356 0.6967067
0.36285242 0.9318466 0.17150272 0.98518366 0.07991469 0.9968017 0.03712419 0.9993107
0.017234625 0.99985147 0.007999914 0.999968 0.0037132632 0.9999931 0.001723547 0.9999985
0.4121185 -0.91113025 -0.86028963 -0.5098056 0.9329786 -0.35993198 0.78332686 0.62161
0.4056986 0.91400695 0.19268642 0.98126036 0.089878544 0.9959527 0.041762162 0.99912757
0.019388698 0.999812 0.008999879 0.9999595 0.0041774185 0.9999913 0.0019389901 0.99999815
-0.5440211 -0.8390715 -0.99749476 -0.070740685 0.8344632 -0.55106366 0.84147096 0.54030234
0.44767088 0.8941984 0.21378069 0.9768817 0.099833414 0.9950042 0.04639924 0.99892294
00000000: 0000 0000 0000 803f 0000 0000 0000 803f
00000010: 0000 0000 0000 803f 0000 0000 0000 803f
00000020: 0000 0000 0000 803f 0000 0000 0000 803f
00000030: 0000 0000 0000 803f 0000 0000 0000 803f
00000040: 0000 0000 0000 803f 0000 0000 0000 803f
00000050: 0000 0000 0000 803f 0000 0000 0000 803f
00000060: a46a 573f 4151 0a3f 1d35 e53e 30ea 643f
00000070: 52e9 5a3e eb14 7a3f 7675 cc3d 98b8 7e3f
00000080: 1e0d 3e3d 6ab9 7f3f 477a b03c caf0 7f3f
00000090: 57d6 233c b9fc 7f3f 5718 983b 4bff 7f3f
000000a0: 6431 0d3b d9ff 7f3f 6d12 833a f8ff 7f3f
000000b0: 5c5a f339 feff 7f3f abe8 6139 0000 803f
000000c0: b7c7 683f 3311 d5be fbf4 4c3f f863 193f
000000d0: bed9 d53e b999 683f f86f 4b3e a5e5 7a3f
000000e0: b7d8 bd3d d1e5 7e3f cb6f 303d 2cc3 7f3f
000000f0: 3ed4 a33c e5f2 7f3f ec17 183c 2dfd 7f3f
00000100: 4e31 8d3b 64ff 7f3f 6812 033b dfff 7f3f
00000110: 5b5a 733a f9ff 7f3f abe8 e139 ffff 7f3f
00000120: c381 103e 2670 7dbf cef0 7b3f 16a2 353e
00000130: c82d 1a3f 565d 4c3f 6c4e 973e ef90 743f
00000140: 1721 0e3e a885 7d3f bd46 843d 2977 7f3f
00000150: 1fb9 f53c 83e2 7f3f d522 643c a6f9 7f3f
00000160: bfc9 d33b a2fe 7f3f 929b 443b b5ff 7f3f
00000170: c283 b63a f0ff 7f3f 7f6e 293a fdff 7f3f
00000180: cfbd 41bf 3055 27bf e79c 753f 6c5d 90be
00000190: be4d 423f f9ad 263f d761 c73e a7ca 6b3f
000001a0: 7307 3d3e b299 7b3f df45 b03d cc0c 7f3f
000001b0: dbcb 233d 94cb 7f3f 3e16 983c b4f4 7f3f
000001c0: f830 0d3c 91fd 7f3f 5712 833b 7aff 7f3f
000001d0: 545a f33a e3ff 7f3f a9e8 613a faff 7f3f
000001e0: 107c 75bf 2c3c 913e 0a50 3b3f cb7f 2ebf
000001f0: cf71 613f 6393 f23e 4377 f53e 40a9 603f
00000200: 9385 6b3e ff22 793f 0e30 dc3d 2184 7e3f
00000210: f4b6 4c3d 19ae 7f3f 3c1a be3c 5aee 7f3f
00000220: e67c 303c 33fc 7f3f ddd6 a33b 2eff 7f3f
00000230: 7118 183b d3ff 7f3f 6931 8d3a f6ff 7f3f
00000240: 8c0f 8fbe b8cd 753f c6c0 b23e 2de4 6fbf
00000250: 6329 763f 8f93 8c3e 688c 103f 3249 533f
00000260: e9c0 8c3e e922 763f 0900 043e 38dd 7d3f
00000270: d19c 753d 128a 7f3f 2b1d e43c 96e6 7f3f
00000280: 9dc8 533c 86fa 7f3f 589b c43b d2fe 7f3f
00000290: b783 363b bfff 7f3f 7d6e a93a f2ff 7f3f
000002a0: 4630 283f bdff 403f 9fc6 dbbd 8d85 7ebf
000002b0: 417f 7f3f 234f 803d 72eb 243f b3cc 433f
000002c0: 6a71 a33e 189b 723f 5dd8 193e 2518 7d3f
000002d0: 323e 8f3d 815f 7f3f 6e0f 053d 69dd 7f3f
000002e0: 1514 773c 8cf8 7f3f c55f e53b 65fe 7f3f
000002f0: f8ee 543b a8ff 7f3f 91ab c53a edff 7f3f
00000300: 9546 7d3f f6fd 14be e381 0abf 624b 57bf
00000310: e904 7d3f 59cf 1bbe a5a4 373f 5f5b 323f
00000320: cbc7 b93e 808d 6e3f 699e 2f3e ff34 7c3f
00000330: 50aa a33d 652e 7f3f 890f 183d d3d2 7f3f
00000340: a12f 8d3c 44f6 7f3f 1212 033c e7fd 7f3f
00000350: 385a 733b 8cff 7f3f a4e8 e13a e7ff 7f3f
00000360: 3201 d33e d53f 69bf f13b 5cbf 9f82 02bf
00000370: afd7 6e3f 0149 b8be 1c88 483f d521 1f3f
00000380: bab7 cf3e 5cfc 693f 974f 453e e133 7b3f
00000390: 3e12 b83d c2f6 7e3f cd0e 2b3d d3c6 7f3f
000003a0: 0cd5 9e3c aef3 7f3f 3a74 133c 59fd 7f3f
000003b0: bae2 883b 6eff 7f3f b625 fe3a e1ff 7f3f
000003c0: f844 0bbf 64cd 56bf d15b 7fbf 7ee0 90bd
000003d0: 619f 553f 8212 0dbf a46a 573f 4151 0a3f
000003e0: 1e35 e53e 30ea 643f 53e9 5a3e eb14 7a3f
000003f0: 7675 cc3d 98b8 7e3f 210d 3e3d 6ab9 7f3f

r_cell.w_qs.weight f4 [24, 24]
0.38747394 0.16838358 -0.35087574 -0.07756602 0.124646455 -0.35533547 0.9238405 -0.1204027
-0.04748353 0.5380901 0.34141782 0.40510106 0.25603625 0.2397417 0.48996037 -0.38788763
0.10404381 0.104389876 0.0069937436 0.4074194 -0.0007819154 0.052870166 -0.076056294 0.10434224
0.16021444 0.30540892 -0.6875255 0.5124864 -0.049907517 -0.78426987 -0.87743956 -0.3283799
0.6677958 -0.048105527 0.20069957 -0.13311376 -0.43446058 -0.031760756 0.34605145 0.051773816
-0.55412704 0.06077125 -0.24120659 0.21220416 0.15353368 0.33184102 0.047270786 0.19329178
0.3027881 -0.16534467 0.4384384 -0.0024442999 -0.057502147 0.3253867 1.0180633 0.17833744
0.417876 -0.28249243 -0.4914712 0.17086591 -0.2578911 0.29270574 -0.1641877 -0.5037017
0.66095775 -0.60934496 -0.26320502 0.12954992 -0.7131506 -0.19389042 -0.36224645 0.13244657
-0.36529973 0.46556047 0.21313868 -0.23190369 0.0008942564 -0.3567304 -0.15378097 0.070682496
0.27255136 -0.62715495 -0.15920636 0.04394172 -0.024271762 0.0363755 -0.024303565 -0.34516278
0.025734667 -0.27437198 -0.36631504 -0.42835474 -0.01929704 -0.5018125 0.06320284 0.18983331
0.11531691 0.4422113 -0.24725628 -0.8306199 -0.081951916 0.3022273 0.21912324 0.18275948
0.0823597 0.49487138 0.0824954 -0.19209825 -0.2019117 0.007855601 0.71632373 0.20155384
-0.47391883 0.34225085 0.3984187 0.10705669 0.22129214 0.4042913 -0.25491574 -0.03603211
0.48609737 -0.29221356 0.48007917 -0.23419937 0.009659857 -0.4321294 0.25302082 0.29846254
0.11505518 -0.25227723 -0.46783113 0.18465057 -0.16343918 0.59057397 -0.55786335 0.31007418
0.5599776 -0.30766425 -0.5647259 0.7442242 -0.3754513 -0.38462958 -0.05086374 -0.37088916
0.20788832 -0.21934743 0.16273485 0.2167315 -0.31409967 -0.24051625 -0.5180932 -0.81081533
0.35946667 0.4760562 0.2980087 0.18385689 -0.3675032 0.48244697 -0.11817913 -0.1463227
0.51616824 -0.2607669 -0.12272639 -0.015250376 0.48220748 0.91515994 -0.0036818897 -0.13588677
-0.17355914 -0.0129562775 -0.086542875 -0.7333249 0.16781522 -0.22632363 -0.15384987 0.23729792
-0.33994123 -0.154439 0.18150893 0.47781572 -0.09400911 -0.44682783 0.47612464 0.20896702
0.4367046 0.044574115 0.5534128 0.23150422 -0.11866125 0.07039362 0.51634663 -0.14189832
0.032941516 0.23849471 0.14894092 0.36239865 -0.110603094 0.52357024 0.05986987 -0.37881303
0.16410045 -0.27237624 0.22990742 -0.19676341 -0.02180649 0.006451213 0.22189425 0.053006284
-0.06220279 -0.06526314 -0.8333354 0.20080064 -0.319666 0.19790266 0.35053092 -0.11721392
-0.12476246 -0.29507744 0.50554657 -0.064394526 0.5590141 0.4008908 -0.530172 -0.13806665
0.14128608 0.06998034 -0.12309569 0.20764916 0.018701794 -0.007566433 -0.1589406 0.0038707007
-0.7974208 -0.039242946 -0.15979184 0.34263265 0.60960597 -0.24126796 -0.26880378 -0.1868193
-0.18738513 0.36022502 0.0021309585 0.17713471 -0.24620736 0.023787677 -0.4911576 -0.011295893
0.28771645 0.22407785 -0.30294824 -0.021813983 -0.0150214555 -0.17287783 -0.0071648527 -0.24893269
00000000: fc62 c63e bf6c 2c3e fca5 b3be efda 9ebd
00000010: a446 ff3d 88ee b5be d080 6c3f b195 f6bd
00000020: 177e 42bd 46c0 093f 51ce ae3e 6869 cf3e
00000030: 2f17 833e d97e 753e 16dc fa3e 3599 c6be
00000040: ec14 d53d 5cca d53d c62b e53b 4799 d03e
00000050: 74f9 4cba 638e 583d 67c3 9bbd 62b1 d53d
00000060: 410f 243e 8f5e 9c3e ac01 30bf 4f32 033f
00000070: d36b 4cbd e9c5 48bf e19f 60bf 6921 a8be
00000080: aaf4 2a3f 4d0a 45bd 3084 4d3e f94e 08be
00000090: 9e71 debe 9117 02bd a82d b13e c810 543d
000000a0: 45db 0dbf 46eb 783d dcfe 76be 0c4c 593e
000000b0: ef37 1d3e 11e7 a93e 039f 413d 48ee 453e
000000c0: 0b07 9b3e 1d50 29be ff7a e03e 8c30 20bb
000000d0: 5f87 6bbd 1699 a63e e64f 823f 179e 363e
000000e0: d8f3 d53e d9a2 90be 1da2 fbbe 79f7 2e3e
000000f0: 4d0a 84be 87dd 953e d220 28be 98f2 00bf
00000100: 8734 293f 08fe 1bbf cfc2 86be bca8 043e
00000110: 0a91 36bf 368b 46be 5e78 b9be 13a0 073e
00000120: 9108 bbbe f15d ee3e 0741 5a3e 2978 6dbe
00000130: 886c 6a3a 5ea5 b6be c278 1dbe fcc1 903d
00000140: da8b 8b3e 3a8d 20bf fe06 23be 3cfc 333d
00000150: 93d5 c6bc 7afe 143d 4518 c7bc 2db9 b0be
00000160: 82d1 d23c 7c7a 8cbe a58d bbbe 5051 dbbe
00000170: d314 9ebc c976 00bf 7e70 813d aa63 423e
00000180: 462b ec3d 8569 e23e c030 7dbe 81a3 54bf
00000190: 68d6 a7bd 89bd 9a3e d861 603e 4d25 3b3e
000001a0: 34ac a83d c85f fd3e 59f3 a83d 67b5 44be
000001b0: f1c1 4ebe c7b4 003c fe60 373f 2164 4e3e
000001c0: 7da5 f2be 813b af3e 89fd cb3e 8a40 db3d
000001d0: 689a 623e 45ff ce3e 5184 82be 6896 13bd
000001e0: c1e1 f83e 049d 95be f0cc f53e f6d1 6fbe
000001f0: 6044 1e3c 1140 ddbe f28b 813e 15d0 983e
00000200: 0da2 eb3d 7b2a 81be 9087 efbe 0a15 3d3e
00000210: 9a5c 27be db2f 173f 22d0 0ebf 0bc2 9e3e
00000220: b15a 0f3f 2b86 9dbe e091 10bf 7a85 3e3f
00000230: 273b c0be 2bee c4be 7f56 50bd 2fe5 bdbe
00000240: ade0 543e 9d9c 60be f7a3 263e ddee 5d3e
00000250: acd1 a0be e449 76be c2a1 04bf 9891 4fbf
00000260: 040c b83e a3bd f33e 9994 983e fb44 3c3e
00000270: 6129 bcbe 4a03 f73e e607 f2bd 9ed5 15be
00000280: 9a23 043f 3d83 85be f957 fbbd b7dc 79bc
00000290: e6e3 f63e ec47 6a3f dc4b 71bb e725 0bbe
000002a0: 7db9 31be 9146 54bc 643d b1bd 2ebb 3bbf
000002b0: c1d7 2b3e 62c1 67be d28a 1dbe 3afe 723e
000002c0: c70c aebe 4225 1ebe 7add 393e 43a4 f43e
000002d0: d987 c0bd 9ec6 e4be 9cc6 f33e 73fb 553e
000002e0: bf97 df3e 5993 363d 76ac 0d3f 710f 6d3e
000002f0: ab04 f3bd 882a 903d 4b2f 043f cb4d 11be
00000300: afed 063d f537 743e f883 183e 518c b93e
00000310: e083 e2bd b308 063f 1c3a 753d c8f3 c1be
00000320: f309 283e e674 8bbe da6c 6b3e 597c 49be
00000330: 86a3 b2bc b264 d33b 3f38 633e 1e1d 593d
00000340: 5ac8 7ebd aea8 85bd 7855 55bf af9e 4d3e
00000350: 43ab a3be ffa6 4a3e ca78 b33e da0d f0bd
00000360: 7683 ffbd 6414 97be 806b 013f 47e1 83bd
00000370: 8c1b 0f3f 8f41 cd3e 5ab9 07bf 5861 0dbe
00000380: 4cad 103e da51 8f3d 9819 fcbd fba1 543e
00000390: 8134 993c d7ef f7bb 53c1 22be 95ab 7d3b
000003a0: c523 4cbf 36bd 20bd 79a0 23be 8c6d af3e
000003b0: 230f 1c3f f30e 77be a6a0 89be 8f4d 3fbe
000003c0: e3e1 3fbe 6a6f b83e 8da7 0b3b cd62 353e
000003d0: c81d 7cbe 60de c23c 0279 fbbe 6912 39bc
000003e0: 924f 933e aa74 653e 081c 9bbe 3db3 b2bc
000003f0: 8d1c 76bc e306 31be 24c7 eabb 36e8 7ebe

r_cell.w_qs.bias f4 [24]
0.13123251 0.013588601 -0.3195656 -0.12526277 0.0966387 -0.34368467 -0.2848279 -0.08558509
-0.044979516 0.04283819 0.036577903 -0.15091419 0.13363284 0.28230557 -0.36603352 -0.21095605
-0.008001754 0.11027675 -0.02909935 -0.2861153 0.21319154 0.32304496 -0.045465734 0.5610857
00000000: d161 063e b9a2 5e3c 1a9e a3be e244 00be
00000010: 83ea c53d 70f7 afbe f6d4 91be 3c47 afbd
00000020: 713c 38bd 1977 2f3d b6d2 153d 4089 1abe
00000030: 0cd7 083e 5b8a 903e bf68 bbbe dd04 58be
00000040: ca19 03bc c7d8 e13d c361 eebc b47d 92be
00000050: e24e 5a3e 2666 a53e 473a 3abd 50a3 0f3f

r_cell.w_ks.weight f4 [24, 24]
0.17674343 0.06772308 0.33872864 0.63097465 0.5402777 -0.13282715 0.011791358 0.4249939
-0.1979972 0.5984422 0.12711334 -0.22919698 -0.31582618 0.16337454 -0.449887 0.08794904
0.18558721 -0.18867429 -0.43607253 -0.10671424 0.32061517 0.0653982 -0.42549074 0.24537681
-0.2894557 -0.30910578 -0.21965268 0.24915731 0.22158813 -0.2876797 -0.67242944 0.52542794
0.35308397 0.06819921 -0.58079404 0.37974924 -0.32031035 -0.16603783 -0.052414626 -0.33626187
-0.30882275 -0.7037277 0.31193364 -0.17804152 0.22733457 -0.1544491 -0.24835013 0.28661492
0.09054477 0.33013037 -0.050680198 0.61897266 -0.103421986 0.0690907 0.15213901 -0.30947912
0.060654953 -0.33110508 0.26697254 -0.5317338 0.065297656 0.9256363 0.55727774 -0.045002773
0.04835705 0.4775025 0.14381342 0.099413976 -0.1686481 0.28765467 0.8158277 0.33102137
-0.5228387 0.31055805 0.18071036 0.21449608 0.39916635 0.0150282625 0.5332753 0.020373685
0.65616274 -0.34181258 0.1370997 0.113549575 -0.1824846 -0.82394165 0.14339148 0.01769916
-0.66836876 -0.31706458 -0.28915513 -0.2252988 -0.57671535 -0.18047476 0.55912375 0.31768534
0.5490343 -0.13632731 -0.18752414 -0.022444671 -0.3681049 0.41684166 0.07659583 0.4182154
-0.3267426 0.14876756 -0.11538242 -0.3748919 -0.013173111 0.13987565 -0.032145895 0.41961235
-0.7472629 0.051236935 0.36092827 -0.061027218 0.0888569 0.2820675 -0.11960884 -0.18697564
-0.24115334 0.27110806 0.092831515 0.2664204 -0.0376632 -0.06793481 0.216588 -0.13243528
0.38608557 -0.15697478 0.522027 0.2493752 0.5339664 0.20782502 1.1068875 -0.70343107
-0.17415105 -0.3348056 -0.8830938 0.5580697 0.048388407 0.01781059 0.40316975 -0.14035219
-0.40913102 -0.25477913 -0.21961431 -0.07436134 0.3298386 -1.0107194 -0.15514937 -0.58124286
0.095781535 0.33892316 -0.14285506 0.9469944 0.43182987 0.81079745 -0.06996364 0.011453472
-0.059736196 0.012048928 -0.06657118 -0.19654065 -0.15365018 -0.35058796 -0.4692011 0.29289097
-0.09971333 -0.27477825 -0.5863952 -0.14642555 -0.050498072 0.21512435 -0.2046438 0.70178455
0.085179865 -0.007911398 -0.042717136 0.29238597 -0.14659859 0.045385513 0.099923074 0.31161413
0.16753177 0.29459488 -0.18279856 0.34230772 0.03905841 -0.10317612 -0.00962744 -0.661501
-0.22694312 0.41385418 0.6442206 0.12689433 0.25100264 -0.20278801 0.32656828 -0.53479236
0.4818499 -0.012880945 -0.12463646 -0.38002273 -0.21396105 0.111368924 -0.10672964 -0.46103063
-0.42118758 -0.34870487 -0.52984226 -0.104494646 0.22736362 -0.33203194 -0.31898728 0.65587556
-0.048356187 -0.06040503 -0.21689369 -0.009954277 0.47424042 -0.017351912 -0.41633222 -0.011013402
-0.5592826 0.4419822 -0.21767877 -0.12078149 -0.07468712 -0.5324198 0.6649428 0.055803582
-0.5243803 0.13491805 0.39987868 -0.4206716 -0.051180232 -0.41073695 -0.5206123 0.13956311
0.047506053 0.18904218 0.3468602 -0.43840358 -0.39152294 -0.42464983 -0.39137295 -0.27015707
0.25140834 0.17440647 -0.36441904 -0.10998845 0.31096336 -0.04460034 -0.09673899 0.59349626
00000000: 3bfc 343e 66b2 8a3d d76d ad3e 8e87 213f
00000010: a44f 0a3f d703 08be 8a30 413c cd98 d93e
00000020: c7bf 4abe 8233 193f 002a 023e 9db2 6abe
00000030: f8b3 a1be a84b 273e 9757 e6be a01e b43d
00000040: 930a 3e3e d533 41be e644 dfbe ff8c dabd
00000050: ac27 a43e 7eef 853d ecd9 d9be 0f44 7b3e
00000060: 8a33 94be 1d43 9ebe a2ec 60be 1823 7f3e
00000070: 00e8 623e c14a 93be 5624 2cbf 7282 063f
00000080: 6cc7 b43e 07ac 8b3d ebae 14bf 7e6e c23e
00000090: b8ff a3be d205 2abe b8b0 56bd 842a acbe
000000a0: 041e 9ebe 8027 34bf c4b5 9f3e 8450 36be
000000b0: 65ca 683e e827 1ebe 7f4f 7ebe 31bf 923e
000000c0: 896f b93d d906 a93e 0a96 4fbd fe74 1e3f
000000d0: e8ce d3bd 6d7f 8d3d 54ca 1b3e 0c74 9ebe
000000e0: 5471 783d 9b86 a9be a0b0 883e b51f 08bf
000000f0: c7ba 853d 80f6 6c3f c1a9 0e3f d454 38bd
00000100: 0b12 463d 357b f43e d343 133e 8e99 cb3d
00000110: 16b2 2cbe 7947 933e 16da 503f a27b a93e
00000120: c2d8 05bf 7701 9f3e 230c 393e dca4 5b3e
00000130: 885f cc3e 1a39 763c bb84 083f b7e6 a63c
00000140: 48fa 273f 0f02 afbe dd63 0c3e ae8c e83d
00000150: 3edd 3abe d7ed 52bf 37d5 123e d4fd 903c
00000160: 371a 2bbf 4a56 a2be 240c 94be bbb4 66be
00000170: 9ea3 13bf 60ce 38be bc22 0f3f a7a7 a23e
00000180: 838d 0c3f 6399 0bbe 5406 40be e3dd b7bc
00000190: 3f78 bcbe 456c d53e 46de 9c3d 5420 d63e
000001a0: ce4a a7be 8656 183e 9e4d ecbd d5f1 bfbe
000001b0: 08d4 57bc 903b 0f3e 6aab 03bd 6ed7 d63e
000001c0: 9f4c 3fbf d2dd 513d 97cb b83e adf7 79bd
000001d0: 9bfa b53d 276b 903e 7bf5 f4bd 8b76 3fbe
000001e0: e7f0 76be adce 8a3e 731e be3d 4168 883e
000001f0: ba44 1abd 6821 8bbd 3fc9 5d3e 1d9d 07be
00000200: 02ad c53e ffbd 20be 90a3 053f 365c 7f3e
00000210: 06b2 083f 15d0 543e 7dae 8d3f 0f14 34bf
00000220: a754 32be a46b abbe 6f12 62bf a8dd 0e3f
00000230: ec32 463d 84e7 913c 446c ce3e 7cb8 0fbe
00000240: 9f79 d1be 6972 82be 93e2 60be c24a 98bd
00000250: 9be0 a83e 415f 81bf 7adf 1ebe 55cc 14bf
00000260: 1c29 c43d 5687 ad3e 9948 12be 3a6e 723f
00000270: ce18 dd3e 6c90 4f3f 1949 8fbd 58a7 3b3c
00000280: f1ad 74bd de68 453c 7956 88bd f441 49be
00000290: 7956 1dbe 4480 b3be 203b f0be cef5 953e
000002a0: 8136 ccbd bcaf 8cbe ff1d 16bf 94f0 15be
000002b0: 11d7 4ebd 8f49 5c3e 258e 51be 27a8 333f
000002c0: c872 ae3d cf9e 01bc 2af8 2ebd 9db3 953e
000002d0: f11d 16be 29e6 393d 78a4 cc3d e38b 9f3e
000002e0: 738d 2b3e 24d5 963e 8c2f 3bbe f542 af3e
000002f0: b6fb 1f3d 004e d3bd 69bc 1dbc 2158 29bf
00000300: c763 68be b2e4 d33e a4eb 243f 96f0 013e
00000310: 6b83 803e a9a7 4fbe f533 a73e 27e8 08bf
00000320: 08b5 f63e 990a 53bc 6641 ffbd 5792 c2be
00000330: 9b18 5bbe 6415 e43d 1295 dabd 350c ecbe
00000340: e6a5 d7be 7289 b2be bea3 07bf 4a01 d6bd
00000350: 02d2 683e 1700 aabe 4d52 a3be 76e7 273f
00000360: 2311 46bd 446b 77bd 6119 5ebe 4417 23bc
00000370: a4cf f23e 9925 8ebc 7f29 d5be 8e71 34bc
00000380: 252d 0fbf 7e4b e23e 2fe7 5ebe 495c f7bd
00000390: 90f5 98bd aa4c 08bf b139 2a3f 4c92 643d
000003a0: ca3d 06bf f527 0a3e e6bc cc3e 4562 d7be
000003b0: 5da2 51bd 1d4c d2be d946 05bf a2e9 0e3e
000003c0: b595 423d 4694 413e a997 b13e 6f76 e0be
000003d0: b275 c8be b46b d9be 0962 c8be 0752 8abe
000003e0: 98b8 803e 9c97 323e 2295 babe a041 e1bd
000003f0: 9736 9f3e d9ae 36bd 171f c6bd 5fef 173f

r_cell.w_ks.bias f4 [24]
-0.21934928 -0.20763503 -0.12546335 0.07060001 0.2150947 0.07174353 0.09771254 -0.112890735
-0.0697964 -0.030002287 0.186049 0.19966052 0.088992395 -0.0864269 -0.009773141 0.018022282
-0.06204435 -0.05258281 0.13272561 -0.19102298 -0.02305233 -0.062285088 -0.15083303 -0.22198638
00000000: 199d 60be 479e 54be 7779 00be bd96 903d
00000010: c941 5c3e 46ee 923d 831d c83d 4233 e7bd
00000020: 6af1 8ebd 5bc7 f5bc a183 3e3e cf73 4c3e
00000030: a541 b63d 9600 b1bd 861f 20bc 77a3 933c
00000040: 3722 7ebd 1361 57bd 39e9 073e 879b 43be
00000050: 3dd8 bcbc a61e 7fbd f973 1abe 6650 63be

r_cell.w_vs.weight f4 [24, 24]
-0.59432256 -0.27893233 0.039939675 0.20890424 0.032302223 -0.44829774 -0.15912406 0.39762414
0.15895201 0.051772423 0.019161705 -0.16219978 0.24059163 0.44338804 -0.13756886 0.30087614
0.38791177 0.13079429 0.0732728 0.11458149 0.2833089 0.14486171 -0.116520226 0.3036767
-0.022708643 0.03545348 -0.09006482 0.03821407 0.50087917 -0.3185043 -0.103953615 0.14135186
0.026643902 0.61091536 -0.28094655 0.1685338 -0.20523445 -0.0719892 -0.039624892 -0.062220152
0.40058237 0.19281137 0.50189567 0.40663332 0.30302966 0.2668194 -0.21382347 -0.19548355
-0.23059659 0.054908607 0.4530832 -0.04504876 -0.06765887 -0.046908665 -0.31377864 0.089659795
0.092207946 -0.21234624 0.14933729 -0.061703358 0.046998937 0.26359668 -0.19753398 0.047600128
-0.043086942 0.16884933 0.2917262 0.15506011 -0.18033928 -0.21660471 0.03878712 -0.2201882
-0.08640977 0.11115954 0.058249377 -0.37253162 0.2624502 -0.40537065 0.023733918 0.026605418
0.072893836 -0.11235677 0.2273916 0.1636011 0.16298728 0.017838378 0.75468373 -0.25988734
0.062660754 0.2430467 -0.39257407 0.14781149 -0.31963882 0.0924374 -0.03681421 -0.2065939
-0.051689357 -0.1290138 0.045993768 -0.09028618 -0.124132924 0.110858954 -0.06291601 0.45286041
0.25702867 0.22849153 0.1959131 -0.2580153 0.12241523 -0.14805445 0.3276214 -0.44083697
0.33433458 -0.07139811 0.5366883 -0.035677135 -0.0842354 -0.07618704 0.33371946 0.2227033
-0.18568279 0.008192406 -0.39948753 0.32687667 0.54604214 0.17444171 -0.4570179 -0.34279886
-0.023844248 0.48078555 0.0072970623 -0.24940711 -0.40770325 -0.079585195 -0.20011911 0.45808256
0.18693599 -0.17819603 0.18664429 0.35342476 -0.028784707 0.23848245 0.20705976 0.33382574
-0.3118329 0.061296936 -0.0699712 -0.35004064 0.089044385 0.17700988 -0.044496875 0.34835535
0.33382076 0.11813608 0.4273549 0.31845295 0.46426392 0.28268182 -0.24873477 0.20264326
-0.3272945 0.64163446 0.21962592 0.17318124 0.30813852 0.035572086 0.17576995 0.10457916
0.28609204 0.027098352 -0.3242215 0.13979733 -0.32947606 -0.122510806 0.08604698 -0.39563143
0.03613736 -0.27349946 0.17876342 -0.052108236 -0.11493268 -0.17631024 0.06585551 -0.2445858
0.055101495 -0.17362536 0.044480503 -0.5208622 -0.10146167 -0.16152488 0.008132838 0.10418667
0.06224654 -0.061060514 0.39073625 -0.12917992 0.4254585 -0.044588733 0.12370073 -0.26913217
0.059046686 -0.16208345 -0.209555 0.014178979 0.22368039 -0.11132876 0.2518256 0.08738849
-0.12666601 0.063037515 0.7876496 0.021105556 -0.03966597 0.35781643 -0.054915167 -0.11046696
0.22917001 0.03161508 -0.24708515 0.026149893 0.32283747 0.23645404 0.085949354 0.12267909
-0.024979189 -0.22332835 0.29779345 -0.013413143 0.07506698 0.23492587 0.33060437 -0.108123496
0.34390923 -0.07413356 -0.35348776 0.25757557 -0.08635675 -0.24254943 -0.17106804 -0.2011611
0.038374502 -0.062373877 0.07850082 -0.06623492 0.025619393 -0.014329432 -0.260456 0.37081242
-0.4087298 -0.08059456 -0.53702426 0.37293094 0.6158676 -0.048079286 0.08119038 -0.105032876
00000000: 8625 18bf 38d0 8ebe c997 233d feea 553e
00000010: 564f 043d 4887 e5be 6bf1 22be 6495 cb3e
00000020: 51c4 223e 520f 543d 02f9 9c3c b317 26be
00000030: a75d 763e c203 e33e dade 0cbe 700c 9a3e
00000040: 5f9c c63e f0ee 053e 0d10 963d b3a9 ea3d
00000050: dd0d 913e a156 143e 28a2 eebd 837b 9b3e
00000060: 7a07 babc ab37 113d e873 b8bd 5b86 1c3d
00000070: 9e39 003f ff12 a3be a2e5 d4bd 8bbe 103e
00000080: 5044 da3c f364 1c3f 3ad8 8fbe 2094 2c3e
00000090: fb28 52be 136f 93bd b64d 22bd 8fda 7ebd
000000a0: 2219 cd3e 5870 453e 3c7c 003f 3e32 d03e
000000b0: b426 9b3e 8d9c 883e 8af4 5abe d72c 48be
000000c0: 8321 6cbe d9e7 603d 85fa e73e 0c85 38bd
000000d0: bc90 8abd 4d23 40bd 98a7 a0be 8e9f b73d
000000e0: 85d7 bc3d 4b71 59be e0eb 183e a9bc 7cbd
000000f0: f581 403d 25f6 863e 5946 4abe 5af8 423d
00000100: ef7b 30bd d7e6 2c3e 235d 953e 14c8 1e3e
00000110: dcaa 38be a0cd 5dbe 3edf 1e3d 0479 61be
00000120: 9bf7 b0bd 9da7 e33d e696 6e3d 77bc bebe
00000130: df5f 863e be8c cfbe a26d c23c 9bf3 d93c
00000140: 5d49 953d 4e1b e6bd 58d9 683e 0c87 273e
00000150: 23e6 263e ca21 923c f432 413f f40f 85be
00000160: 4854 803d 3ce1 783e 78ff c8be e55b 173e
00000170: b3a7 a3be d24f bd3d 7fca 16bd 5a8d 53be
00000180: 38b8 53bd 321c 04be f663 3c3d f6e7 b8bd
00000190: 6739 febd 050a e33d 1cda 80bd 52dd e73e
000001a0: 4399 833e aff9 693e 729d 483e 951a 84be
000001b0: d6b4 fa3d 969b 17be febd a73e 62b5 e1be
000001c0: e72d ab3e 2c39 92bd 6864 093f 3022 12bd
000001d0: 9c83 acbd f307 9cbd 47dd aa3e 550c 643e
000001e0: a123 3ebe 7139 063c a189 ccbe 615c a73e
000001f0: 6bc9 0b3f d9a0 323e 40fe e9be 5583 afbe
00000200: 0355 c3bc 8629 f63e 321c ef3b 9464 7fbe
00000210: 7bbe d0be 90fd a2bd 06ec 4cbe cc89 ea3e
00000220: 266c 3f3e 0579 36be ae1f 3f3e 17f4 b43e
00000230: e8cd ebbc be34 743e 7907 543e 35eb aa3e
00000240: 90a8 9fbe 7f12 7b3d 0f4d 8fbd 8738 b3be
00000250: e75c b63d 1442 353e 5b42 36bd a25b b23e
00000260: 8eea aa3e 54f1 f13d 43ce da3e 440c a33e
00000270: 00b4 ed3e acbb 903e 54b4 7ebe b781 4f3e
00000280: 2593 a7be 2842 243f 9ee5 603e 6c56 313e
00000290: 55c4 9d3e 09b4 113d 0afd 333e 992d d63d
000002a0: a87a 923e 5dfd dd3c 5c00 a6be 0827 0f3e
000002b0: 16b1 a8be f2e6 fabd 6639 b03d 3490 cabe
000002c0: c504 143d 1f08 8cbe c20d 373e 726f 55bd
000002d0: d361 ebbd ac8a 34be 41df 863d b374 7abe
000002e0: 1bb2 613d d9ca 31be 3031 363d 3a57 05bf
000002f0: 23cb cfbd c766 25be 983f 053c d25f d53d
00000300: 3af6 7e3d 971a 7abd 950e c83e be47 04be
00000310: b2d5 d93e ada2 36bd cf56 fd3d b1cb 89be
00000320: f0da 713d 34f9 25be 9695 56be f34e 683c
00000330: 790c 653e 5500 e4bd 49ef 803e bdf8 b23d
00000340: bcb4 01be d019 813d 67a3 493f 8fe5 ac3c
00000350: c978 22bd b733 b73e baee 60bd 803c e2bd
00000360: 8bab 6a3e d07e 013d e403 7dbe 4d38 d63c
00000370: f44a a53e 0221 723e 3706 b03d 2d3f fb3d
00000380: 28a1 ccbc 30b0 64be 6278 983e cdc2 5bbc
00000390: b8bc 993d 6890 703e fa44 a93e da6f ddbd
000003a0: df14 b03e 56d3 97bd 59fc b4be f2e0 833e
000003b0: cfdb b0bd e15e 78be 762c 2fbe 2dfd 4dbe
000003c0: 952e 1d3d c07b 7fbd 0ac5 a03d 2ca6 87bd
000003d0: c3df d13c fec5 6abc 7d5a 85be 20db bd3e
000003e0: 0845 d1be c30e a5bd 6c7a 09bf cef0 be3e
000003f0: 80a9 1d3f c9ee 44bd 2447 a63d 7a1b d7bd

r_cell.w_vs.bias f4 [24]
-0.10539113 0.0728289 -0.13416436 -0.16410337 -0.06117193 -0.038062394 -0.03891141 -0.018452259
-0.127062 0.048629124 -0.08377954 0.15726486 -0.04962251 -0.08046443 -0.053966157 -0.10636504
-0.13964961 0.042974446 0.13075443 -0.16113883 -0.054034334 -0.061643712 0.019162446 -0.15864103
00000000: 4ed7 d7bd 5127 953d 6262 09be b70a 28be
00000010: 6b8f 7abd 50e7 1bbd 9261 1fbd 3129 97bc
00000020: 8a1c 02be 552f 473d 9c94 abbd 0a0a 213e
00000030: f940 4bbd 89ca a4bd 9e0b 5dbd ead5 d9bd
00000040: 4f00 0fbe f905 303d 7de4 053e 9401 25be
00000050: 1b53 5dbd 1e7e 7cbd 90fa 9c3c cb72 22be

r_cell.layer_norm.weight f4 [24]
1.0094163 1.0168895 1.093325 1.0474701 0.97855467 1.0417386 1.098594 0.98056424
1.060419 0.91108435 1.1630486 0.84387016 0.99401706 1.1334771 1.0012587 1.0234944
1.0040764 0.86654395 1.1861459 0.96581054 1.0176281 0.9742423 1.0767989 1.0512701
00000000: 8e34 813f 6f29 823f 13f2 8b3f 8013 863f
00000010: 8f82 7a3f b157 853f ba9e 8c3f 4206 7b3f
00000020: cfbb 873f d33c 693f c7de 943f e007 583f
00000030: e777 7e3f c715 913f 3f29 803f dd01 833f
00000040: 9385 803f d3d5 5d3f a1d3 973f 5c3f 773f
00000050: a341 823f f267 793f 8cd4 893f 0590 863f

r_cell.layer_norm.bias f4 [24]
-0.069695316 -0.06091459 0.15490046 -0.043753147 0.037080705 -0.03785905 -0.040214807 -0.028004045
0.017790657 -0.01903253 -0.05884043 -0.011656602 0.041642502 0.0047061606 -0.028652713 -0.13310605
0.048170596 -0.15556483 0.011897647 -0.0062695183 -0.0014169618 -0.07495325 -0.04532192 0.020084
00000000: 6bbc 8ebd 9481 79bd 3a9e 1e3e 8036 33bd
00000010: f0e1 173d 1712 1bbd 48b8 24bd bd68 e5bc
00000020: b6bd 913c 1cea 9bbc aa02 71bd 55fb 3ebc
00000030: 5491 2a3d 2336 9a3b 18b9 eabc f44c 08be
00000040: 884e 453d 634c 1fbe 59ee 423c 8870 cdbb
00000050: 59b9 b9ba 1781 99bd 7aa3 39bd 3387 a43c

r_cell.fc.weight f4 [24, 24]
-0.012209198 0.34976542 0.18400297 0.039480153 0.15540527 -0.014228531 -0.17528163 0.1425053
0.1467785 0.15433982 -0.18789655 -0.09335439 0.15597248 0.28801423 0.12972353 -0.19070165
-0.19488654 0.20740996 0.10518034 0.26475716 0.1460546 0.048510224 -0.30167127 -0.19451836
-0.045206174 0.026247324 -0.026629401 0.122458056 -0.002183667 0.34543148 0.22671074 -0.03876994
0.20600218 -0.083560266 -0.16348392 -0.0032248844 0.08651694 -0.04153795 0.14664957 -0.07546058
-0.36513737 -0.13625357 0.045388687 -0.039649565 0.011305498 0.24863467 0.26155198 0.52961576
0.056795865 0.068760574 0.20808648 0.07290517 -0.021664519 0.019256027 0.041111495 0.1943617
-0.10425833 -0.07403251 -0.31414253 -0.19281586 -0.038805917 0.16232748 -0.060255308 -0.16584237
-0.071988344 -0.32856715 0.19444935 -0.027991582 -0.19412126 -0.2977948 0.033500608 -0.17687647
-0.23021372 0.09536411 -0.11288752 0.013551585 -0.15923092 0.2902451 0.3187554 0.06404013
0.10857944 0.11590146 -0.10461504 0.08866589 -0.07276818 0.12150414 -0.21734169 0.10484424
-0.03902971 -0.25537533 0.01805157 0.017380433 -0.08505648 0.054574482 -0.2641432 -0.39142528
0.1256967 0.12575878 -0.35210255 -0.051315866 -0.02657649 0.29103437 0.4179345 -0.18070251
-0.24396099 0.22331795 0.13385679 -0.105242155 0.05152405 0.19201344 0.08523353 0.16546571
-0.06590328 0.024627486 -0.022755349 -0.28883907 0.0809385 0.07321315 -0.20759006 0.17524473
-0.10459715 -0.08846369 -0.1311603 0.23078915 -0.077620186 -0.40047643 -0.21673197 0.32076496
-0.110348135 -0.08193683 0.39387816 -0.03892016 0.013792357 -0.31029806 0.5263459 -0.587654
0.08249334 0.11789865 0.013244762 0.23301199 0.05955683 0.043364346 0.0609009 -0.15893038
-0.030726226 0.066943966 -0.08544288 -0.36045018 -0.08065082 -0.20567167 -0.09767004 -0.10422834
0.033177074 0.09419425 0.37904122 -0.066398665 -0.10559046 0.082676284 0.07422312 0.06262081
0.026696164 0.18130292 -0.18404308 0.10287092 0.073237635 0.23789437 0.27589825 0.01537453
-0.12056647 0.3859376 0.21930614 -0.100297086 -0.103455156 -0.090204105 0.002002142 -0.040315073
0.23971644 -0.20055963 0.040687628 0.31892714 0.016099837 0.1362224 0.059545103 0.17760001
-0.22705449 -0.24463487 0.19817628 0.40589613 0.23556639 -0.01605996 -0.25650725 0.0044174674
0.11770494 0.41242182 0.093149126 -0.08439289 0.29815102 -0.087150276 -0.38289002 0.20701131
-0.012809389 -0.023558054 -0.095507294 -0.047205172 -0.046156496 0.38857833 0.05480717 -0.2773091
-0.03745325 -0.07367418 0.05627914 0.101522334 -0.18074599 0.14901926 -0.023655573 -0.0990817
0.14817537 -0.12600856 -0.5202672 -0.117639236 -0.0424664 -0.06444313 0.2589288 -0.11326953
-0.3183551 -0.04362823 0.27977827 -0.11490397 0.025449427 0.08574847 -0.32037887 -0.3440142
-0.18869567 0.11384665 0.1219643 0.028534712 0.013920231 -0.39865315 -0.62019956 -0.3891495
0.03578545 -0.23604552 -0.3600531 -0.13658243 -0.06346883 0.09644246 0.16801806 0.1166149
0.11378817 0.05115871 -0.20222306 -0.059668407 -0.3551268 0.31386104 -0.054990288 0.21348143
00000000: 1709 48bc 7414 b33e 466b 3c3e f1b5 213d
00000010: 8f22 1f3e c91e 69bc 077d 33be e9ec 113e
00000020: 1a4d 163e 420b 1e3e f467 40be 9630 bfbd
00000030: 40b7 1f3e 9a76 933e 3fd6 043e 4b47 43be
00000040: 5690 47be 4763 543e ca68 d73d 408e 873e
00000050: 568f 153e a8b2 463d a874 9abe d22f 47be
00000060: 1c2a 39bd a104 d73c e725 dabc 4acb fa3d
00000070: da1b 0fbb 65dc b03e dc26 683e 3bcd 1ebd
00000080: 3cf2 523e a521 abbd 5468 27be 9558 53bb
00000090: cb2f b13d b323 2abd 4e2b 163e 148b 9abd
000000a0: 49f3 babe 0e86 0bbe 7de9 393d 9567 22bd
000000b0: b23a 393c 169a 7e3e 24ea 853e e694 073f
000000c0: c8a2 683d 58d2 8c3d 9f14 553e 4e4f 953d
000000d0: ca79 b1bc d1be 9d3c 8764 283d c106 473e
000000e0: 6485 d5bd 5b9e 97bd 4ad7 a0be 8571 45be
000000f0: f4f2 1ebd 2d39 263e 45ce 76bd 95d2 29be
00000100: a06e 93bd f439 a8be bb1d 473e 9a4e e5bc
00000110: b9c7 46be 8f78 98be ef37 093d 1b1f 35be
00000120: 25bd 6bbe 424e c33d 9231 e7bd 7807 5e3c
00000130: 6e0d 23be 019b 943e e833 a33e 7927 833d
00000140: e65e de3d bf5d ed3d 6940 d6bd 7696 b53d
00000150: 7c07 95bd 2ad7 f83d d28e 5ebe 94b8 d63d
00000160: 9edd 1fbd 8ec0 82be e3e0 933c 6961 8e3c
00000170: 1732 aebd 7e89 5f3d c73d 87be e568 c8be
00000180: a3b6 003e e9c6 003e c946 b4be 9630 52bd
00000190: f0b6 d9bc 7502 953e 83fb d53e 140a 39be
000001a0: e9d0 79be 76ad 643e c111 093e 3389 d7bd
000001b0: e20a 533d 2c9f 443e eb8e ae3d d86f 293e
000001c0: 4df8 86bd 95bf c93c 6d69 babc b7e2 93be
000001d0: 16c3 a53d c7f0 953d 7d92 54be 5b73 333e
000001e0: 0837 d6bd 732c b5bd e34e 06be fe53 6c3e
000001f0: 55f7 9ebd 3f0b cdbe fcee 5dbe 4e3b a43e
00000200: 34fe e1bd 7fce a7bd 66aa c93e bf6a 1fbd
00000210: 57f9 613c 63df 9ebe 9bbe 063f 7e70 16bf
00000220: 45f2 a83d d974 f13d 8f00 593c b29a 6e3e
00000230: ddf1 733d d09e 313d 3973 793d a5be 22be
00000240: 91b5 fbbc eb19 893d adfc aebd ed8c b8be
00000250: 422c a5bd 989b 52be 3b07 c8bd ab75 d5bd
00000260: afe4 073d eae8 c03d b111 c23e 06fc 87bd
00000270: d03f d8bd 2f52 a93d 4b02 983d 573f 803d
00000280: eab1 da3c 79a7 393e ca75 3cbe fdad d23d
00000290: 9dfd 953d 959a 733e 8942 8d3e 74e5 7b3c
000002a0: 8eeb f6bd 9d99 c53e ca91 603e 8f68 cdbd
000002b0: 4ce0 d3bd eebc b8bd 5e36 033b 6b21 25bd
000002c0: 3a78 753e 815f 4dbe 12a8 263d 6b4a a33e
000002d0: cee3 833c e37d 0b3e 91e5 733d c7dc 353e
000002e0: f980 68be 9081 7abe b9ee 4a3e 9ed1 cf3e
000002f0: 5138 713e 2d90 83bc eb54 83be 67c0 903b
00000300: 4a0f f13d f428 d33e f8c4 be3d 2ed6 acbd
00000310: 40a7 983e d87b b2bd 290a c4be c6fa 533e
00000320: 79de 51bc d2fc c0bc 5499 c3bd 365a 41bd
00000330: 980e 3dbd bdf3 c63e 7c7d 603d 75fb 8dbe
00000340: 9468 19bd 7de2 96bd f584 663d f1ea cf3d
00000350: 7a15 39be 8198 183e 55c9 c1bc 59eb cabd
00000360: 49bb 173e 6308 01be 3b30 05bf d7ec f0bd
00000370: 3ff1 2dbd c2fa 83bd 5192 843e dbf9 e7bd
00000380: 71ff a2be 84b3 32bd 193f 8f3e c652 ebbd
00000390: 517b d03c e59c af3d b308 a4be a122 b0be
000003a0: 7039 41be 6f28 e93d 6bc8 f93d a1c1 e93c
000003b0: ae11 643c 441c ccbe 66c5 1ebf 9a3e c7be
000003c0: c493 123d ebb5 71be e158 b8be 44dc 0bbe
000003d0: f2fb 81bd a083 c53d ed0c 2c3e cbd3 ee3d
000003e0: c609 e93d cc8b 513d 9013 4fbe dc66 74bd
000003f0: 2ed3 b5be 65b2 a03e 7f3d 61bd e09a 5a3e

r_cell.fc.bias f4 [24]
0.021863334 -0.029227018 0.15292642 -0.12826006 0.00903974 -0.1160771 -0.12717974 0.054181192
0.037859924 -0.14674659 -0.15820645 -0.040920243 -0.02439403 0.10415206 0.05644774 -0.032531776
0.046573505 0.03816439 0.18001106 -0.058850385 -0.121375136 -0.13944001 -0.123410046 0.0669248
00000000: bc1a b33c 806d efbc be98 1c3e 9b56 03be
00000010: 6b1b 143c d5b9 edbd 683b 02be 19ed 5d3d
00000020: 0213 1b3d bd44 16be df00 22be fc9b 27bd
00000030: fdd5 c7bc ad4d d53d bf35 673d 0a40 05bd
00000040: dcc3 3e3d 4352 1c3d d254 383e 1a0d 71bd
00000050: 8793 f8bd 5dc9 0ebe 68be fcbd df0f 893d

fc1.0.bias f4 [24]
-0.14897999 0.1132777 -0.23821007 -0.015734108 0.0441477 0.20146851 0.010042059 -0.13346943
0.18999754 -0.22483906 0.06761017 0.09992542 0.13154875 -0.18719056 -0.08356815 -0.23689517
0.14573039 0.09085417 -0.08281183 0.078500755 0.11335663 0.05759889 -0.12988932 0.15083736
00000000: 368e 18be 24fe e73d 57ed 73be d1e4 80bc
00000010: 38d4 343d c34d 4e3e 7387 243c 36ac 08be
00000020: b78e 423e 363c 66be 3377 8a3d b3a5 cc3d
00000030: b7b4 063e e2ae 3fbe c725 abbd a694 72be
00000040: 593a 153e c011 ba3d 4099 a9bd 01c5 a03d
00000050: 8527 e83d d0ec 6b3d b501 05be 1c75 1a3e

fc1.0.weight_orig f4 [24, 6]
-0.06446214 -0.11225519 -0.30475816 -0.40131676 0.40816632 0.45253596 0.28152484 -0.029541181
0.12971593 0.3771126 0.11709091 -0.57648003 -0.20163207 -0.054177556 0.08354622 -0.26081657
0.2663795 -0.3053829 0.15664242 -0.41339406 -0.06005075 0.124095336 -0.047668517 0.38685885
0.4358963 0.47135338 -0.27729693 -0.3573777 0.26042435 -0.14104572 -0.33028427 0.21216641
0.37636092 -0.23692662 0.24481045 0.3609453 -0.30864573 0.025244335 0.39381638 0.10611114
0.018237693 -0.16914816 -0.122775845 -0.28441212 -0.13410833 0.049186707 0.4256583 0.041323893
-0.08178891 0.24652402 -0.054564398 -0.23360106 0.33073872 0.40101698 -0.28878397 0.39893058
-0.054188784 -0.09101516 -0.31147453 -0.08373193 0.008900551 0.3110858 0.1815296 0.014285019
0.12200716 -0.46481407 0.18245693 -0.30102548 0.041242868 -0.36354122 0.50579524 0.29122096
0.079921186 -0.12766749 0.5552119 0.08604726 0.13300987 -0.10548393 -0.14480357 0.18873033
-0.13401744 0.26387942 -0.3193424 -0.042322997 -0.23561226 0.12522331 0.03325635 0.0057767904
-0.33383217 0.3601978 0.23119128 0.014496094 -0.050216716 -0.24022017 -0.37922058 0.007155577
0.011953747 -0.34895983 -0.14113127 0.17081176 0.47745866 0.33269173 -0.31333503 0.061049778
0.08319277 0.4048028 0.169766 -0.40088657 0.32430956 -0.22919394 -0.3431197 0.07735161
-0.2129199 -0.1570858 -0.26475745 0.19787566 0.15314108 0.44098967 -0.12760827 0.0121433325
-0.14838204 0.3183743 0.28420663 0.40956828 -0.2872484 0.3858849 0.4683665 0.40033922
-0.15144248 -0.40577856 0.087468415 -0.19283001 -0.31960496 -0.29972735 -0.0738966 0.4397778
-0.061164618 -0.42864335 0.1992483 0.058947627 -0.36849988 0.38253364 0.1937663 0.1017085
00000000: ba04 84bd 0de6 e5bd 4309 9cbe 6479 cdbe
00000010: 2dfb d03e cbb2 e73e 0624 903e 5900 f2bc
00000020: 41d4 043e e714 c13e 5ccd ef3d 3294 13bf
00000030: a378 4ebe 49e9 5dbd 481a ab3d c089 85be
00000040: e562 883e 265b 9cbe df66 203e 63a8 d3be
00000050: c6f7 75bd b225 fe3d 1040 43bd 5d12 c63e
00000060: cd2d df3e 3b55 f13e ddf9 8dbe 36fa b6be
00000070: 5756 853e 4a6e 10be 051b a9be 2742 593e
00000080: 61b2 c03e e49c 72be 97af 7a3e d3cd b83e
00000090: d006 9ebe 35cd ce3c 4da2 c93e cc50 d93d
000000a0: 3767 953c 2d35 2dbe e771 fbbd 779e 91be
000000b0: b253 09be 0078 493d e2ef d93e 3e43 293d
000000c0: f280 a7bd cb70 7c3e eb7e 5fbd 1e35 6fbe
000000d0: 9656 a93e 1952 cd3e 7edb 93be a140 cc3e
000000e0: 0ff5 5dbd 2866 babd 9779 9fbe a57b abbd
000000f0: 9ed3 113c a346 9f3e e5e2 393e b60b 6a3c
00000100: e4de f93d 1cfc edbe fdd5 3a3e 0320 9abe
00000110: 48ee 283d 1322 babe cc7b 013f ea1a 953e
00000120: b8ad a33d 44bb 02be 5e22 0e3f 8c39 b03d
00000130: bd33 083e f507 d8bd 6347 14be 8642 413e
00000140: de3b 09be 341b 873e d980 a3be e15a 2dbd
00000150: 5744 71be 8a3a 003e cf37 083d 3b4b bd3b
00000160: 0dec aabe d96b b83e 68bd 6c3e 0681 6d3c
00000170: 0bb0 4dbd 47fc 75be 3329 c2be 5579 ea3b
00000180: a6d9 433c ddaa b2be b784 10be 47e9 2e3e
00000190: 7675 f43e 9256 aa3e 736d a0be 550f 7a3d
000001a0: f960 aa3d 5042 cf3e 23d7 2d3e 0141 cdbe
000001b0: e70b a63e d1b1 6abe 63ad afbe 856a 9e3d
000001c0: ad07 5abe 1adb 20be 4a8e 87be eb9f 4a3e
000001d0: 04d1 1c3e 66c9 e13e beab 02be d4f4 463c
000001e0: 76f1 17be f501 a33e 8883 913e efb2 d13e
000001f0: 3912 93be b592 c53e bccd ef3e 43f9 cc3e
00000200: bd13 1bbe 35c2 cfbe a422 b33d 3b75 45be
00000210: 43a3 a3be dd75 99be 1a57 97bd 8e2a e13e
00000220: c087 7abd 2477 dbbe bf07 4c3e 1173 713d
00000230: 04ac bcbe 73db c33e ac6a 463e 8c4c d03d

fc1.0.weight_u f4 [24]
-0.4106001 0.23505764 -0.028102491 -0.11705106 -0.22686748 -0.12387619 0.18823722 -0.12121439
-0.25635207 0.13636619 0.1519275 -0.37783945 0.085314184 0.19888443 0.03460343 -0.031293243
-0.2029795 0.27559894 0.008083519 0.25662506 0.18810071 -0.17622498 0.3084961 -0.029552832
00000000: 2d3a d2be f3b2 703e 3237 e6bc 77b8 efbd
00000010: f34f 68be cdb2 fdbd 42c1 403e 403f f8bd
00000020: 9440 83be 94a3 0b3e e292 1b3e 2c74 c1be
00000030: 34b9 ae3d 5ca8 4b3e 54bc 0d3d 582d 00bd
00000040: dcd9 4fbe 4e1b 8d3e bc70 043c 5c64 833e
00000050: 799d 403e 5274 34be 33f3 9d3e c818 f2bc

fc1.0.weight_v f4 [6]
-0.28719923 0.117118314 0.26017192 0.60879683 -0.45291206 -0.5102427
00000000: c70b 93be badb ef3d 4135 853e 1cda 1b3f
00000010: 17e4 e7be 449f 02bf

fc1.1.weight f4 [24, 24]
-0.399684 0.45876363 0.20277783 0.050531067 -0.1494998 0.7225601 -0.11058403 0.15276137
-0.36719996 0.24096844 -0.320483 -0.60658395 0.14092581 0.023298487 0.3058568 0.35423252
-0.5885595 -0.3669756 0.541586 0.5565923 -0.2584905 0.20737655 -0.18153466 -0.55123264
0.38564786 -0.56465554 -0.19426009 -0.5081798 -1.175977 0.030485928 0.08851665 -0.15097842
0.17656837 -0.18422988 0.31892562 0.1073217 -0.6247944 0.034156673 -0.4118124 -0.09066452
0.31363302 -0.28456098 -0.11902651 -0.6463184 0.28696492 0.071883254 0.28102595 0.89557046
0.12510282 -0.43812892 -0.8256465 -0.5889648 0.64584124 -0.51872414 -0.3365439 0.07393273
0.6399614 0.08450478 0.407937 0.5782158 0.6382681 0.10213804 -0.28026876 0.5976857
0.29049855 -0.12206443 0.156844 -0.18588658 -0.14844458 -0.13410358 -0.08133313 -0.5889478
0.0057412027 -0.56907934 0.059979282 0.032485798 0.31699196 -0.5473086 0.021618789 0.01552634
0.7690086 0.43849978 0.33767727 0.25815073 0.29184714 -0.118699275 -0.17148936 0.036534056
0.4315102 -0.31365395 0.31472972 0.79260963 -0.28959256 -0.089471 -0.12696563 -0.3817196
-0.4903406 0.7008495 -0.013329392 0.42083353 -0.45756948 0.621891 0.57843125 0.034138307
-0.6489552 0.00029906703 -0.38548347 -0.36866283 -0.22027472 0.5743041 0.17744833 -0.5660281
-0.46993124 0.4724414 0.041158278 -0.106626734 0.17344995 0.20115033 0.08019337 0.6757754
0.60707057 -0.7982761 -1.0468682 -0.721687 -0.21346676 -1.4139777 0.1398514 0.28574577
1.0218608 -0.75351894 0.08646299 0.5380447 0.16131558 -0.47972187 -0.059473816 0.41990018
0.15455407 0.4443281 -0.2574617 -0.20493081 0.14827782 -0.69806683 0.15595144 -0.12284
-0.35494825 1.0523945 1.1656978 0.4172525 0.2632959 0.57088107 -0.4251411 -0.40736142
-0.80686164 0.11965433 -0.3605997 -0.271619 -0.31282705 0.42703512 0.02556435 -0.59017336
-0.41204062 -0.4509665 -0.25120836 0.3428616 -0.084649056 -0.29906026 0.29366538 0.0070753945
0.43019882 -0.49120513 -0.15926787 -0.5657318 -0.0927797 0.024322804 -0.42246845 -0.18814425
0.88144696 1.0772353 0.29322666 0.9087194 -0.4633375 0.13395913 -0.49295476 -0.60264903
0.055004276 0.19100617 0.15746397 0.29314116 -0.24726829 0.76970166 -0.13302098 0.42870975
0.021417322 -0.61830163 0.03732429 -0.39821342 0.35162246 -0.7943759 -0.19911279 -0.1861874
-0.25951955 -0.4446581 0.5148932 0.42856857 -0.10331598 0.00440356 -0.47368938 -0.5902503
0.29296085 -0.12583168 -0.1893561 0.16796042 0.116965786 -0.3172628 0.16690977 -0.16216542
0.5667015 -0.58451897 0.4207878 -0.17076497 0.14555128 -1.068363 -0.28145015 -0.1396155
0.4989861 0.2987151 0.36719447 1.0228244 0.5837325 -0.4758696 -0.2869035 0.63252634
0.28351387 -0.15997061 -0.17969978 -0.3462986 -0.10124366 0.13635501 -0.23914346 -0.29450414
-0.21061805 1.0173309 -0.306421 0.6042651 0.613262 -0.0781738 -0.18044752 0.72226685
-0.8549662 -0.8100062 -0.44168907 -0.0748087 -0.25574264 -0.709802 0.4879 0.45084786
00000000: 62a3 ccbe 11e3 ea3e fea4 4f3e aaf9 4e3d
00000010: 7a16 19be b3f9 383f e179 e2bd 7a6d 1c3e
00000020: a201 bcbe 6ec0 763e 5916 a4be 1649 1bbf
00000030: db4e 103e 78dc be3c 4399 9c3e f75d b53e
00000040: d6ab 16bf 3ae4 bbbe 61a5 0a3f d57c 0e3f
00000050: de58 84be 855a 543e 39e4 39be 951d 0dbf
00000060: a373 c53e 448d 10bf 1eec 46be 1218 02bf
00000070: 6a86 96bf a0bd f93c 3848 b53d 169a 1abe
00000080: 57ce 343e c2a6 3cbe 384a a33e 7bcb db3d
00000090: 87f2 1fbf dee7 0b3d 13d9 d2be 52ae b9bd
000000a0: 8294 a03e fab1 91be 2cc4 f3bd 1f75 25bf
000000b0: 11ed 923e 8737 933d a2e2 8f3e 1b44 653f
000000c0: f41a 003e 6f52 e0be 925d 53bf 66c6 16bf
000000d0: da55 253f 1bcb 04bf 7b4f acbe 0b6a 973d
000000e0: 83d4 233f d810 ad3d 1edd d03e f305 143f
000000f0: 8a65 233f c02d d13d 637f 8fbe ee01 193f
00000100: 3abc 943e eafc f9bd b79b 203e 0d59 3ebe
00000110: db01 18be 7352 09be fc91 a6bd 48c5 16bf
00000120: b320 bc3b 2faf 11bf d6ac 753d d40f 053d
00000130: c54c a23e 6b1c 0cbf e319 b13c 3162 7e3c
00000140: bfdd 443f 0b83 e03e 09e4 ac3e 552c 843e
00000150: fd6c 953e 9b18 f3bd e89a 2fbe bca4 153d
00000160: e8ee dc3e 4097 a0be 4124 a13e 77e8 4a3f
00000170: 7a45 94be 923c b7bd 4703 02be c070 c3be
00000180: ec0d fbbe df6a 333f 8663 5abc 7e77 d73e
00000190: 8c46 eabe 4034 1f3f 1214 143f 9cd4 0b3d
000001a0: ee21 26bf 19cc 9c39 175e c5be 60c1 bcbe
000001b0: b28f 61be 9805 133f 04b5 353e 38e7 10bf
000001c0: d49a f0be d7e3 f13e 9595 283d 1e5f dabd
000001d0: dd9c 313e 5afa 4d3e 6c3c a43d 9eff 2c3f
000001e0: fa68 1b3f d35b 4cbf c7ff 85bf 7bc0 38bf
000001f0: 0897 5abe 39fd b4bf 3535 0f3e 454d 923e
00000200: 56cc 823f 9ee6 40bf 8213 b13d 4cbd 093f
00000210: e92f 253e 1b9e f5be d19a 73bd 28fd d63e
00000220: 6c43 1e3e f97e e33e 05d2 83be 62d9 51be
00000230: 24d6 173e 82b4 32bf bcb1 1f3e 8a93 fbbd
00000240: c7bb b5be ddb4 863f 9635 953f 1fa2 d53e
00000250: b8ce 863e 4325 123f 18ac d9be ad91 d0be
00000260: 7c8e 4ebf 540d f53d 86a0 b8be a511 8bbe
00000270: de2a a0be 59a4 da3e 546c d13c 9a15 17bf
00000280: fdf6 d2be 15e5 e6be 629e 80be 8e8b af3e
00000290: 7c5c adbd 6d1e 99be 4f5b 963e b6d8 e73b
000002a0: 0543 dc3e 3d7f fbbe 1e17 23be cdd3 10bf
000002b0: 4903 bebd 9e40 c73c c94d d8be e3a8 40be
000002c0: 82a6 613f d9e2 893f ce21 963e d6a1 683f
000002d0: 933a edbe 952c 093e 9164 fcbe 3547 1abf
000002e0: 2a4c 613d 1f97 433e 3c3e 213e 9916 963e
000002f0: e633 7dbe 2b0b 453f a736 08be d87f db3e
00000300: 6173 af3c 0449 1ebf 5be1 183d a1e2 cbbe
00000310: dc07 b43e 385c 4bbf 39e4 4bbe e9a7 3ebe
00000320: bfdf 84be 3aaa e3be 0ad0 033f 576d db3e
00000330: 5497 d3bd bd4b 903b 6a87 f2be a51a 17bf
00000340: f7fe 953e 05da 00be 91e6 41be d1fd 2b3e
00000350: c28b ef3d 4570 a2be 65ea 2a3e b10e 26be
00000360: 5913 113f 09a3 15bf 8071 d73e 03dd 2ebe
00000370: 650b 153e 1ec0 88bf 3c1a 90be 5ef7 0ebe
00000380: 1b7b ff3e 30f1 983e ea00 bc3e e9eb 823f
00000390: 7e6f 153f 2ea5 f3be 04e5 92be 3fed 213f
000003a0: bb28 913e 56cf 23be 3803 38be 0d4e b1be
000003b0: d658 cfbd a6a0 0b3e 06e2 74be 3fc9 96be
000003c0: 42ac 57be e637 823f 37e3 9cbe 1eb1 1a3f
000003d0: bdfe 1c3f 9619 a0bd 3cc7 38be 7be6 383f
000003e0: 11df 5abf 915c 4fbf 1225 e2be 4e35 99bd
000003f0: b3f0 82be 95b5 35bf 07ce f93e 88d5 e63e
