models/17_05_2021/stock_self_attn_MSE_hinge_10000_64_24_6_24_5/1500_supervisor.pth (torch, 56590 bytes, 39 tensors)

position.pe f4 [1, 24, 24]
0.0 1.0 0.0 1.0 0.0 1.0 0.0 1.0
0.0 1.0 0.0 1.0 0.0 1.0 0.0 1.0
0.0 1.0 0.0 1.0 0.0 1.0 0.0 1.0
0.84147096 0.54030234 0.44767085 0.8941984 0.21378067 0.9768817 0.099833414 0.9950042
0.04639923 0.99892294 0.021542681 0.9997679 0.009999833 0.99995 0.0046415734 0.9999892
0.0021544332 0.9999977 0.0009999998 0.9999995 0.00046415895 0.9999999 0.00021544348 1.0
0.9092974 -0.41614684 0.8006131 0.59918165 0.41767687 0.9085956 0.19866931 0.9800666
0.09269851 0.9956942 0.043075364 0.99907184 0.019998666 0.9998 0.009283047 0.9999569
0.004308856 0.9999907 0.0019999985 0.99999803 0.00092831784 0.9999996 0.00043088695 0.99999994
0.14112 -0.9899925 0.98414314 0.17737612 0.60226107 0.7982992 0.2955202 0.9553365
0.1387981 0.9903207 0.06458805 0.997912 0.0299955 0.99955004 0.01392432 0.9999031
0.006463259 0.99997914 0.0029999954 0.9999955 0.0013924765 0.99999905 0.00064633036 0.9999998
-0.7568025 -0.6536436 0.9594254 -0.28196275 0.75899875 0.6510921 0.38941833 0.921061
0.18459873 0.98281395 0.08607077 0.996289 0.039989334 0.9992001 0.018565293 0.9998276
0.008617632 0.99996287 0.003999989 0.999992 0.0018566349 0.9999983 0.0008617738 0.99999964
-0.9589243 0.2836622 0.73169005 -0.68163747 0.88064283 0.47378072 0.47942552 0.87758255
0.23000173 0.97319025 0.10751353 0.9942036 0.049979165 0.99875027 0.023205869 0.9997307
0.010771966 0.999942 0.004999979 0.9999875 0.0023207928 0.9999973 0.0010772172 0.9999994
-0.2794155 0.96017027 0.349127 -0.93707544 0.961569 0.27456328 0.5646424 0.8253356
0.2749093 0.9614702 0.12890638 0.9916568 0.059964005 0.99820054 0.02784594 0.9996122
0.012926248 0.99991643 0.0059999637 0.999982 0.0027849504 0.9999961 0.0012926605 0.99999917
0.6569866 0.75390226 -0.10731243 -0.9942253 0.9980355 0.06265094 0.6442176 0.7648422
0.31922466 0.94767904 0.15023942 0.98864967 0.06994285 0.997551 0.032485418 0.9994722
0.0150804715 0.9998863 0.006999942 0.9999755 0.003249107 0.99999475 0.0015081038 0.99999887
0.98935825 -0.14550003 -0.5410444 -0.840994 0.9883562 -0.15215816 0.717356 0.6967067
0.36285242 0.9318466 0.17150272 0.98518366 0.07991469 0.9968017 0.03712419 0.9993107
0.017234625 0.99985147 0.007999914 0.999968 0.0037132632 0.9999931 0.001723547 0.9999985
0.4121185 -0.91113025 -0.86028963 -0.5098056 0.9329786 -0.35993198 0.78332686 0.62161
0.4056986 0.91400695 0.19268642 0.98126036 0.089878544 0.9959527 0.041762162 0.99912757
0.019388698 0.999812 0.008999879 0.9999595 0.0041774185 0.9999913 0.0019389901 0.99999815
-0.5440211 -0.8390715 -0.99749476 -0.070740685 0.8344632 -0.55106366 0.84147096 0.54030234
0.44767088 0.8941984 0.21378069 0.9768817 0.099833414 0.9950042 0.04639924 0.99892294
00000000: 0000 0000 0000 803f 0000 0000 0000 803f
00000010: 0000 0000 0000 803f 0000 0000 0000 803f
00000020: 0000 0000 0000 803f 0000 0000 0000 803f
00000030: 0000 0000 0000 803f 0000 0000 0000 803f
00000040: 0000 0000 0000 803f 0000 0000 0000 803f
00000050: 0000 0000 0000 803f 0000 0000 0000 803f
00000060: a46a 573f 4151 0a3f 1d35 e53e 30ea 643f
00000070: 52e9 5a3e eb14 7a3f 7675 cc3d 98b8 7e3f
00000080: 1e0d 3e3d 6ab9 7f3f 477a b03c caf0 7f3f
00000090: 57d6 233c b9fc 7f3f 5718 983b 4bff 7f3f
000000a0: 6431 0d3b d9ff 7f3f 6d12 833a f8ff 7f3f
000000b0: 5c5a f339 feff 7f3f abe8 6139 0000 803f
000000c0: b7c7 683f 3311 d5be fbf4 4c3f f863 193f
000000d0: bed9 d53e b999 683f f86f 4b3e a5e5 7a3f
000000e0: b7d8 bd3d d1e5 7e3f cb6f 303d 2cc3 7f3f
000000f0: 3ed4 a33c e5f2 7f3f ec17 183c 2dfd 7f3f
00000100: 4e31 8d3b 64ff 7f3f 6812 033b dfff 7f3f
00000110: 5b5a 733a f9ff 7f3f abe8 e139 ffff 7f3f
00000120: c381 103e 2670 7dbf cef0 7b3f 16a2 353e
00000130: c82d 1a3f 565d 4c3f 6c4e 973e ef90 743f
00000140: 1721 0e3e a885 7d3f bd46 843d 2977 7f3f
00000150: 1fb9 f53c 83e2 7f3f d522 643c a6f9 7f3f
00000160: bfc9 d33b a2fe 7f3f 929b 443b b5ff 7f3f
00000170: c283 b63a f0ff 7f3f 7f6e 293a fdff 7f3f
00000180: cfbd 41bf 3055 27bf e79c 753f 6c5d 90be
00000190: be4d 423f f9ad 263f d761 c73e a7ca 6b3f
000001a0: 7307 3d3e b299 7b3f df45 b03d cc0c 7f3f
000001b0: dbcb 233d 94cb 7f3f 3e16 983c b4f4 7f3f
000001c0: f830 0d3c 91fd 7f3f 5712 833b 7aff 7f3f
000001d0: 545a f33a e3ff 7f3f a9e8 613a faff 7f3f
000001e0: 107c 75bf 2c3c 913e 0a50 3b3f cb7f 2ebf
000001f0: cf71 613f 6393 f23e 4377 f53e 40a9 603f
00000200: 9385 6b3e ff22 793f 0e30 dc3d 2184 7e3f
00000210: f4b6 4c3d 19ae 7f3f 3c1a be3c 5aee 7f3f
00000220: e67c 303c 33fc 7f3f ddd6 a33b 2eff 7f3f
00000230: 7118 183b d3ff 7f3f 6931 8d3a f6ff 7f3f
00000240: 8c0f 8fbe b8cd 753f c6c0 b23e 2de4 6fbf
00000250: 6329 763f 8f93 8c3e 688c 103f 3249 533f
00000260: e9c0 8c3e e922 763f 0900 043e 38dd 7d3f
00000270: d19c 753d 128a 7f3f 2b1d e43c 96e6 7f3f
00000280: 9dc8 533c 86fa 7f3f 589b c43b d2fe 7f3f
00000290: b783 363b bfff 7f3f 7d6e a93a f2ff 7f3f
000002a0: 4630 283f bdff 403f 9fc6 dbbd 8d85 7ebf
000002b0: 417f 7f3f 234f 803d 72eb 243f b3cc 433f
000002c0: 6a71 a33e 189b 723f 5dd8 193e 2518 7d3f
000002d0: 323e 8f3d 815f 7f3f 6e0f 053d 69dd 7f3f
000002e0: 1514 773c 8cf8 7f3f c55f e53b 65fe 7f3f
000002f0: f8ee 543b a8ff 7f3f 91ab c53a edff 7f3f
00000300: 9546 7d3f f6fd 14be e381 0abf 624b 57bf
00000310: e904 7d3f 59cf 1bbe a5a4 373f 5f5b 323f
00000320: cbc7 b93e 808d 6e3f 699e 2f3e ff34 7c3f
00000330: 50aa a33d 652e 7f3f 890f 183d d3d2 7f3f
00000340: a12f 8d3c 44f6 7f3f 1212 033c e7fd 7f3f
00000350: 385a 733b 8cff 7f3f a4e8 e13a e7ff 7f3f
00000360: 3201 d33e d53f 69bf f13b 5cbf 9f82 02bf
00000370: afd7 6e3f 0149 b8be 1c88 483f d521 1f3f
00000380: bab7 cf3e 5cfc 693f 974f 453e e133 7b3f
00000390: 3e12 b83d c2f6 7e3f cd0e 2b3d d3c6 7f3f
000003a0: 0cd5 9e3c aef3 7f3f 3a74 133c 59fd 7f3f
000003b0: bae2 883b 6eff 7f3f b625 fe3a e1ff 7f3f
000003c0: f844 0bbf 64cd 56bf d15b 7fbf 7ee0 90bd
000003d0: 619f 553f 8212 0dbf a46a 573f 4151 0a3f
000003e0: 1e35 e53e 30ea 643f 53e9 5a3e eb14 7a3f
000003f0: 7675 cc3d 98b8 7e3f 210d 3e3d 6ab9 7f3f

r_cell.w_qs.weight f4 [24, 24]
0.14485286 0.18577854 -0.2521662 -0.22450401 -0.055910904 0.18956593 0.2308296 0.05944352
-0.16163686 0.63754565 -0.33907455 0.6568924 0.48897627 -0.24250682 0.23359181 -0.10157186
-0.20714785 0.775469 0.07952024 -0.23299092 -0.20201373 -0.7152482 0.15384601 0.37575224
0.3600091 -0.35754368 -0.062457763 0.16140041 -0.5381089 -0.21595685 -0.65277743 -0.079156354
0.5720072 0.34748113 -0.14065412 0.24292696 -0.6236213 0.7480238 0.23134528 -0.12641126
0.5234031 0.40778288 0.34146512 0.46103743 -0.24846254 0.22290504 0.48875928 0.3255737
-0.111180425 0.0668521 -0.2721291 0.3452378 -0.29254153 0.24086991 0.32139227 0.25501615
0.17026812 0.15826932 -0.07390147 -0.5018253 -0.26129234 0.090596065 0.0033426434 0.83630675
0.28661424 -0.7743007 0.40251976 -0.20059627 -0.8009902 -0.61097884 0.41497883 -0.22110535
-0.20103805 0.024905302 0.18424065 -0.018991513 0.7897958 0.025576867 -0.78281885 -1.0174985
-0.016786298 -0.20385501 0.30721772 0.5319081 -0.37025258 -0.5738431 -0.5003071 -0.175178
0.74040914 -0.29533395 0.05037632 0.26902756 0.45706636 0.63252294 -0.6490718 -0.18035188
-0.2441287 0.50348926 0.33830318 -0.4889501 0.14790425 0.2564829 0.40715382 -0.088021666
-0.0016454348 0.33852217 0.13502146 0.09493163 -0.66044796 -0.09222256 -0.26713565 -0.04476005
0.13499834 -0.67834383 0.11967251 -0.04491494 0.12510261 0.040597517 -1.4736029 -0.0059469
-1.0512514 -0.015793094 -0.13112694 1.201337 -0.035813387 -0.47299317 -0.15440069 0.44936377
-0.25583065 0.11742976 0.41725722 1.0216614 -0.37402907 0.060373917 -0.35333142 0.5582518
-0.09879601 0.54352146 -0.25146064 -0.33863568 0.20452197 0.30592293 0.17471766 0.39770874
0.48626596 -0.17271765 -0.09935804 0.33050394 -0.22165562 0.6549909 -0.81061864 0.35887417
0.01393611 -0.13062629 0.35205308 -0.1521306 0.3249077 -0.6975327 -0.6998029 0.13821581
-0.060207564 -0.4142596 0.47547728 -0.39898857 -0.17362201 0.025684603 -0.2882399 -0.020971838
0.22212403 0.003049948 0.4348731 0.44338173 -0.17480882 0.836561 0.7916911 -0.10460224
-0.3011284 0.06772812 -0.017530352 0.06843034 -0.06874568 0.22553356 0.3064404 -0.41422087
0.38029566 0.8818316 -0.106653206 0.40880066 -0.51444334 -0.9240088 0.52704525 0.44145942
-0.11473325 0.1583789 0.20310767 -0.9063132 -0.37424678 0.29806668 0.8240423 -0.18200499
-0.83022666 0.21104299 0.22667208 -0.39329028 0.18174566 -0.5198478 1.0429966 0.12273119
0.06345096 -0.2081921 -0.25566545 0.44389737 -0.28840104 0.39576972 0.6664403 0.24107985
0.16307528 0.12441984 -0.30266103 -0.5475657 0.08925208 -0.1363355 -0.31393877 0.24726823
0.12977318 0.52688074 -0.112041615 0.17755938 0.19229871 0.1199538 -0.52416265 0.46309125
0.49381748 -0.677525 -0.09133694 0.27132732 -0.85485214 -0.20742838 0.15643942 0.6099995
-0.05508134 0.17670575 0.3301624 -0.00375387 -0.44111964 -0.36491165 -0.9725029 -0.11353302
-0.43449798 0.014797024 -0.26122084 -0.36368108 -0.49641576 -0.1454437 -0.49251848 0.27189577
00000000: 4f54 143e bb3c 3e3e ee1b 81be 61e4 65be
00000010: d502 65bd 921d 423e 985e 6c3e 0c7b 733d
00000020: 2284 25be 3136 233f 2e9b adbe 1a2a 283f
00000030: 195b fa3e b553 78be b132 6f3e e804 d0bd
00000040: 911e 54be 2385 463f 82db a23d 2c95 6ebe
00000050: b0dc 4ebe 821a 37bf cf89 1d3e 9962 c03e
00000060: 1d53 b83e f70f b7be b6d3 7fbd 2646 253e
00000070: 81c1 09bf cb23 5dbe 6c1c 27bf ba1c a2bd
00000080: 106f 123f 0ce9 b13e a207 10be d8c1 783e
00000090: a5a5 1fbf 7d7e 3f3f c7e5 6c3e f471 01be
000000a0: bffd 053f ebc8 d03e 84d4 ae3e 190d ec3e
000000b0: f76c 7ebe 3841 643e a83e fa3e 99b1 a63e
000000c0: 90b2 e3bd c1e9 883d 8154 8bbe 02c3 b03e
000000d0: 01c8 95be 9aa6 763e 878d a43e 7a91 823e
000000e0: c45a 2e3e 5a11 223e a759 97bd 9f77 00bf
000000f0: 1cc8 85be 6e8a b93d 4010 5b3b 3318 563f
00000100: 1abf 923e 9238 46bf 1217 ce3e 1c69 4dbe
00000110: b20d 4dbf 1c69 1cbf 1b78 d43e 7169 62be
00000120: ebdc 4dbe 3406 cc3c 95a9 3c3e 1794 9bbc
00000130: 0f30 4a3f 9486 d13c d166 48bf 643d 82bf
00000140: 6b83 89bc 5ebf 50be a44b 9d3e 212b 083f
00000150: bf91 bdbe 62e7 12bf 2014 00bf dd61 33be
00000160: 748b 3d3f 0336 97be 6657 4e3d fbbd 893e
00000170: 9a04 ea3e 06ed 213f 9229 26bf 2aae 38be
00000180: e0fc 79be ace4 003f 1336 ad3e ab57 fabe
00000190: 3674 173e ba51 833e 7776 d03e b444 b4bd
000001a0: a1ab d7ba c752 ad3e 1143 0a3e 846b c23d
000001b0: 1e13 29bf 2edf bcbd 01c6 88be 5056 37bd
000001c0: 013d 0a3e f1a7 2dbf dc16 f53d baf8 37bd
000001d0: e61a 003e 9549 263d 059f bcbf 37de c2bb
000001e0: 688f 86bf 8560 81bc 2446 06be 69c5 993f
000001f0: 0fb1 12bd 292c f2be 371b 1ebe 0213 e63e
00000200: 3cfc 82be 047f f03d bda2 d53e cdc5 823f
00000210: bd80 bfbe a44a 773d dbe7 b4be 97e9 0e3f
00000220: 9055 cabd 3924 0b3f 73bf 80be a861 adbe
00000230: 356e 513e eea1 9c3e 30e9 323e 7ba0 cb3e
00000240: daf7 f83e e5dc 30be 3a7c cbbd d037 a93e
00000250: b1f9 62be 7cad 273f b484 4fbf 5bbe b73e
00000260: 4854 643c e6c2 05be 4d40 b43e 20c8 1bbe
00000270: 4d5a a63e 8191 32bf 4826 33bf 7288 0d3e
00000280: 359c 76bd d619 d4be c271 f33e 3b48 ccbe
00000290: f8c9 31be 8468 d23c 2e94 93be 22cd abbc
000002a0: 7b74 633e a3e1 473b b0a7 de3e ee02 e33e
000002b0: 1501 33be dd28 563f 45ac 4a3f b339 d6bd
000002c0: 802d 9abe 0ab5 8a3d d09b 8fbc 3525 8c3d
000002d0: 89ca 8cbd 45f2 663e c2e5 9c3e c214 d4be
000002e0: 1db6 c23e b7bf 613f ff6c dabd 524e d13e
000002f0: 8fb2 03bf d78b 6cbf 70ec 063f f806 e23e
00000300: 44f9 eabd 142e 223e 75fb 4f3e 2404 68bf
00000310: 469d bfbe 329c 983e 70f4 523f 845f 3abe
00000320: bc89 54bf a71b 583e ba1c 683e 585d c9be
00000330: 891b 3a3e bf14 05bf ea80 853f 7d5a fb3d
00000340: 94f2 813d 4f30 55be 95e6 82be 8446 e33e
00000350: 4da9 93be 54a2 ca3e d59b 2a3f a3dd 763e
00000360: 35fd 263e d4cf fe3d 63f6 9abe 442d 0cbf
00000370: cbc9 b63d 899b 0bbe 95bc a0be e233 7d3e
00000380: 43e3 043e a8e1 063f 1376 e5bd 20d2 353e
00000390: f4e9 443e 57aa f53d 862f 06bf 4c1a ed3e
000003a0: a5d5 fc3e 4772 2dbf dd0e bbbd 6aeb 8a3e
000003b0: 97d7 5abf 1b68 54be a831 203e ed28 1c3f
000003c0: f99c 61bd 5af2 343e 0c0b a93e 7d03 76bb
000003d0: 6fda e1be b3d5 babe f3f5 78bf 0084 e8bd
000003e0: 8576 debe 386f 723c bdbe 85be 6834 babe
000003f0: 352a febe 31ef 14be 622b fcbe ec35 8b3e

r_cell.w_qs.bias f4 [24]
-0.10599792 -0.1675236 -0.29254416 0.73736423 -0.122120015 -0.21420366 0.1663044 0.1087707
0.42865112 -0.50802374 -0.21034738 -0.38894463 0.18382144 -0.02240718 0.10179531 0.1021836
-0.29947883 -0.2089854 0.37416875 0.26521116 -0.06823295 -0.1302584 -0.015093388 -0.07349879
00000000: 7015 d9bd 4e8b 2bbe 59c8 95be e7c3 3c3f
00000010: 0f1a fabd 3458 5bbe b34b 2a3e 2cc3 de3d
00000020: 2978 db3e d80d 02bf 4e65 57be c023 c7be
00000030: b03b 3c3e 438f b7bc 0f7a d03d a345 d13d
00000040: 4a55 99be 4500 56be 0c93 bf3e c2c9 873e
00000050: b8bd 8bbd 7562 05be 424a 77bc 8986 96bd

r_cell.w_ks.weight f4 [24, 24]
0.5207534 0.26614672 0.015008255 0.18178691 0.1669609 0.2289241 -0.15127647 0.48362166
0.20982167 -0.20608377 -0.3703467 0.57817394 -0.18521087 0.30139384 0.4917419 0.18954211
-0.1637308 -1.1193311 0.2825407 0.16693522 0.19315164 0.020640962 -0.0025185836 -0.024594804
0.21770665 -0.0852422 -0.18341625 0.21659079 0.039758716 -0.09185727 0.2807694 -0.012193391
-0.23461196 0.33509094 -0.11219651 0.14021444 0.14503297 0.6608672 -0.43457037 -0.8719333
-0.32733515 0.02749704 0.11291774 -0.03891787 -0.5211223 -0.19123243 0.043775048 0.3768828
0.19058815 0.083843425 -0.46683416 0.16555363 -0.6820415 -0.14492665 0.39376742 -0.321762
-0.34953058 -0.19471289 -0.25085905 -0.055857368 -0.12991087 -0.15044776 0.9026468 -0.2544887
-0.2792773 0.041554235 0.13544953 -0.2501685 -0.6500718 0.114862636 0.1794387 0.21512876
0.43892896 -0.14910021 -0.34789392 -0.29398155 -0.7084395 0.35306522 -0.8374889 -0.00012915712
-0.019930637 -0.35536048 0.6571426 0.25069797 -0.18552476 0.19959734 -0.26045904 0.48516554
-0.19786404 -0.010965929 -0.09417337 0.34845766 0.48622024 0.11174401 -0.23409684 -0.16299358
0.31944376 0.14967531 -0.64154434 -0.032594875 0.12412649 -0.2212114 -0.12705532 -0.43958017
-0.41820845 -0.3733679 0.2697959 -0.36134318 -0.36183158 0.2350894 0.025314927 -0.12573054
-0.3065981 0.093073145 0.34038532 0.1709787 0.661461 -0.6924419 -0.49932292 -0.1608956
-0.07269732 -0.26809108 -0.42903775 0.8533266 -0.22809808 0.20711003 -0.2019908 0.0654058
0.5691053 0.6616097 0.17948243 0.3228755 -0.33625832 -0.06391085 -0.15022852 0.03942716
0.014238746 0.6440286 0.59491664 0.22663063 -0.5263447 -0.5044568 -0.5775416 0.11783084
-0.25058052 -0.56991214 0.44347146 0.923748 0.059469294 -0.28897613 0.41071737 -0.049143422
-0.18205805 0.22632644 1.3117704 0.23588248 -0.09087159 -0.5471882 -0.9616281 0.17039008
0.5886557 -0.40277728 0.1279531 0.23988701 0.45653528 -0.14950654 -0.040010173 -0.2448738
0.19561163 0.83030367 0.27650535 0.27146533 -0.19785242 0.725062 0.7008744 0.48441276
-0.105793 -0.50996995 -1.2925066 -0.0043971916 0.14640306 0.86716455 -0.32556316 -0.31068832
0.25338006 0.80030644 0.74827105 0.4187108 0.10853956 -0.21493329 0.66051316 -0.4543662
0.03891568 -0.35364535 0.503238 -0.85348815 -0.54556245 -0.1982391 0.9013353 0.027339483
0.009987652 -0.4851103 -0.2326596 -0.21497993 -0.37990162 -0.91933876 0.1295547 0.5717102
0.72669506 -0.34828722 0.05035409 0.16752347 0.42709112 -0.099441946 0.6263803 0.0791859
-0.27409548 -0.51452124 -0.56572974 0.2563271 -0.08201845 -0.027882108 -0.84955174 0.37400755
-0.34845528 0.5702881 -0.1906118 -0.28464177 -0.5015033 0.019945234 0.49324906 0.2369853
-1.0679576 -0.5776172 -0.11058288 -0.13940388 -0.9676218 0.53801084 0.8940605 -0.6615158
-0.2852052 0.60288113 0.13664205 -0.29129866 -0.044616442 -0.13531183 0.19247521 -0.43725044
-0.47138274 -0.123993665 -0.336712 0.19243388 -0.9639908 -0.7796403 0.2586441 -0.016889952
00000000: 1850 053f 6244 883e 2fe5 753c 5926 3a3e
00000010: ccf7 2a3e 146b 6a3e 38e8 1abe 429d f73e
00000020: 7edb 563e a007 53be 159e bdbe 3503 143f
00000030: eba7 3dbe 4b50 9a3e 98c5 fb3e 5417 423e
00000040: 0ca9 27be 3e46 8fbf 2da9 903e 11f1 2a3e
00000050: 8bc9 453e 3c17 a93c d20e 25bb 0b7b c9bc
00000060: 7eee 5e3e 7693 aebd 78d1 3bbe fac9 5d3e
00000070: 09da 223d aa1f bcbd 02c1 8f3e cac6 47bc
00000080: 1e3e 70be 0a91 ab3e 49c7 e5bd 6094 0f3e
00000090: 8683 143e 982e 293f 0280 debe 0537 5fbf
000000a0: 7998 a7be 7941 e13c 6b41 e73d 5868 1fbd
000000b0: 4568 05bf 6fd2 43be 774d 333d c8f6 c03e
000000c0: 8a29 433e 1ab6 ab3d e304 efbe e486 293e
000000d0: 469a 2ebf a767 14be e29b c93e fdbd a4be
000000e0: acf5 b2be d162 47be 9970 80be b2ca 64bd
000000f0: 5b07 05be fa0e 1abe dc13 673f 584c 82be
00000100: 6ffd 8ebe c634 2a3d 48b3 0a3e 1616 80be
00000110: 1b6b 26bf 1a3d eb3d c7be 373e b74a 5c3e
00000120: 4cbb e03e baad 18be 271f b2be c084 96be
00000130: 4b5c 35bf f7c4 b43e ac65 56bf 5a6e 07b9
00000140: 9345 a3bc cff1 b5be 7f3a 283f 7c5b 803e
00000150: 34fa 3dbe 3f63 4c3e e35a 85be 9e67 f83e
00000160: df9c 4abe 71aa 33bc f8dd c0bd 0b69 b23e
00000170: dcf1 f83e 0bda e43d 15b7 6fbe cae7 26be
00000180: 228e a33e 7c44 193e 403c 24bf 3482 05bd
00000190: 0736 fe3d 3e85 62be ca1a 02be a710 e1be
000001a0: 6b1f d6be 142a bfbe b022 8a3e f901 b9be
000001b0: fd41 b9be 47bb 703e 4061 cf3c 82bf 00be
000001c0: 6dfa 9cbe 229d be3d fc46 ae3e 0a15 2f3e
000001d0: 8255 293f df43 31bf 41a7 ffbe d1c1 24be
000001e0: 55e2 94bd 3c43 89be d6aa dbbe 9d73 5a3f
000001f0: 8b92 69be a714 543e add6 4ebe 7af3 853d
00000200: e3b0 113f 415f 293f 3eca 373e f04f a53e
00000210: 0d2a acbe b1e3 82bd 81d5 19be 607e 213d
00000220: a149 693c 0fdf 243f 754c 183f dc11 683e
00000230: 87be 06bf 1524 01bf c4d9 13bf 4c51 f13d
00000240: 174c 80be c3e5 11bf b10e e33e c07a 6c3f
00000250: 1396 733d aef4 93be 8c49 d23e 9d4a 49bd
00000260: 6d6d 3abe 1ec2 673e 18e8 a73f 2d8b 713e
00000270: e21a babd 8714 0cbf 422d 76bf bd7a 2e3e
00000280: 24b2 163f d338 cebe 2306 033e f1a4 753e
00000290: febe e93e 3e18 19be b5e1 23bd 33c0 7abe
000002a0: 6a4e 483e c88e 543f 1c92 8d3e 81fd 8a3e
000002b0: d399 4abe aa9d 393f 816c 333f f304 f83e
000002c0: 00aa d8bd 648d 02bf db70 a5bf 5116 90bb
000002d0: afea 153e 7ffe 5d3f 37b0 a6be 8a12 9fbe
000002e0: 08bb 813e e2e0 4c3f b18e 3f3f 4361 d63e
000002f0: fd49 de3d 7917 5cbe 6417 293f b0a2 e8be
00000300: 0c66 1f3d 0111 b5be 35d4 003f 337e 5abf
00000310: fba9 0bbf 31ff 4abe e9bd 663f 0df7 df3c
00000320: 40a3 233c 6160 f8be 513e 6ebe b323 5cbe
00000330: 7782 c2be c959 6bbf fda9 043e 9a5b 123f
00000340: b008 3a3f b452 b2be 1740 4e3d 468b 2b3e
00000350: b0ab da3e 38a8 cbbd 765a 203f 382c a23d
00000360: 3e56 8cbe aab7 03bf aad3 10bf 4e3d 833e
00000370: 4af9 a7bd 0569 e4bc 397c 59bf eb7d bf3e
00000380: bb68 b2be 67fe 113f bd2f 43be 91bc 91be
00000390: 8562 00bf 3064 a33c 248b fc3e 46ac 723e
000003a0: d6b2 88bf b9de 13bf 4779 e2bd e4bf 0ebe
000003b0: 10b6 77bf 14bb 093f 26e1 643f 1959 29bf
000003c0: 6a06 92be 6b56 1a3f e5eb 0b3e 1925 95be
000003d0: bbbf 36bd 2f8f 0abe 3918 453e 4adf dfbe
000003e0: 1459 f1be 64f0 fdbd 8465 acbe 630d 453e
000003f0: 1ac8 76bf 8296 47bf 006d 843e cc5c 8abc

r_cell.w_ks.bias f4 [24]
-0.24568307 -0.05479961 0.014894276 0.12269418 0.013721193 0.21915069 0.25380605 0.15705344
-0.11542024 -0.07045539 0.3204737 -0.20335117 0.21221249 0.2242331 0.06882675 -0.20471576
0.05985526 -0.07764439 0.10000406 0.2692689 0.003803966 0.18650293 -0.017539514 -0.26203662
00000000: 5894 7bbe 8e75 60bd 1f07 743c 1647 fb3d
00000010: dbce 603c 0a69 603e def2 813e 9ed2 203e
00000020: 7261 ecbd ea4a 90bd 2115 a43e 4a3b 50be
00000030: 3b4e 593e 5d9d 653e 0af5 8c3d 02a1 51be
00000040: ca2a 753d 0604 9fbd eece cc3d 9ddd 893e
00000050: f64b 793b a0fa 3e3e 07af 8fbc aa29 86be

r_cell.w_vs.weight f4 [24, 24]
-0.005768643 -0.31553096 0.1893158 -0.11553882 0.10460063 -0.17602022 -0.0712528 0.57805705
-0.22702344 -0.33707154 -0.17435448 -0.55590415 -0.38666633 -0.5677102 0.41546553 0.05505927
0.18892351 0.02563778 -0.5500397 -0.28429013 0.19779623 0.20432979 0.0183911 0.3846822
0.24321273 0.30219215 0.042972665 -0.33039057 0.2833411 -0.5571827 -0.18963559 -0.28027418
0.84144783 0.14017855 0.16586602 -0.40122592 0.7605156 0.14782909 -0.5517528 -0.30934423
0.5400378 0.5186648 -0.10219674 -0.37725055 -0.5476666 -0.41316807 -0.17712232 0.18569022
0.63545644 0.45178774 -0.24758677 0.50134045 -0.05976136 0.046828687 0.3123586 -0.0564371
0.21405862 0.1266811 -0.25700146 0.50294554 -0.16527218 0.11701379 -0.26870874 0.2889307
0.13009499 -0.23923141 -0.070022784 0.156555 -0.25880364 0.3603983 -0.14385162 0.1556993
0.55632806 0.26252264 -0.17022811 0.12721455 -0.46848992 0.22166057 -0.15789406 0.2225894
0.07060401 -0.19585177 -0.14547789 0.5227609 0.23093265 -0.15723778 -0.681978 -0.35278004
-0.0025888965 -0.084533274 0.15638311 0.37941292 -0.028213322 0.12990525 -0.11102123 -0.14703801
-0.46159178 -0.5812902 0.16096541 -0.3511759 -0.016780818 0.09386751 -0.022084808 0.39653566
-0.17975019 0.9125298 0.11879549 0.26292697 0.23934339 -0.008410335 -0.29339072 0.25552076
0.42450175 0.019284505 -0.07372613 -0.20578176 0.13770507 0.13750534 -0.055273324 -0.5477066
0.20016181 0.34618 0.4325276 -0.22583947 0.361924 0.09360955 -0.27136663 0.2940828
-0.03800941 0.3238994 0.21185574 -0.1833072 -0.12905778 0.75527954 -0.12169652 -0.051073704
0.0904196 0.025057467 -0.15445241 0.36471072 0.49365646 -0.46432802 0.36610365 -0.42870662
0.18269886 -0.12551276 -0.14141248 0.18246222 -0.33599135 -0.25095648 0.3432996 0.19728482
0.5001654 0.093368344 0.20580119 -0.22019684 0.2941065 0.12665758 0.21406952 0.29561308
0.1539723 -0.16012247 -0.55364186 -0.11424678 -0.25776577 0.07285468 0.48217708 -0.3532934
-0.09095999 0.28454986 0.35228035 -0.40250486 -0.046957377 0.040661793 0.1158999 0.025401935
-0.53131235 -0.56540436 -0.27878788 -0.35757378 0.203434 0.33292076 0.23719403 -0.22087316
-0.13449219 -0.2791558 0.20989671 0.3486269 0.4754283 0.3032425 0.5491327 0.098305106
0.342959 -0.13251583 -0.37570408 -0.15163432 0.19176632 0.23420486 0.14131834 0.2652366
-0.24672353 0.13346018 0.078499146 0.24062921 0.27631724 -0.57106006 0.116229035 -0.59468067
-0.1389388 0.33888882 0.6895945 -0.047836315 -0.17116806 -0.051902596 0.673854 -0.08749817
-0.018228909 0.09703624 -0.55676657 0.15286265 -0.14742443 -0.52815765 -0.5961864 -0.26967055
0.5387405 0.17084832 0.3305452 0.026156452 0.45410475 0.20162061 -0.175122 -0.4418776
-0.050325766 -0.80437845 0.24318656 0.058538098 -0.13484499 -0.08868705 0.19193102 -0.23721775
-0.57888275 0.49689022 -0.6039302 0.112011425 0.23217233 0.26580217 -0.42597744 -0.1444251
0.2062961 -0.23217463 -0.22606045 -0.170621 -0.3269811 -0.06062444 -0.1708802 0.08674125
00000000: e306 bdbb 468d a1be 00dc 413e 9e9f ecbd
00000010: db38 d63d a53e 34be fdec 91bd 8cfb 133f
00000020: d578 68be a494 acbe fb89 32be bc4f 0ebf
00000030: 21f9 c5be 7555 11bf e6b7 d43e d485 613d
00000040: 2a75 413e 5206 d23c 67cf 0cbf 7a8e 91be
00000050: 188b 4a3e d43b 513e efa8 963c 11f5 c43e
00000060: c20c 793e eeb8 9a3e 1b04 303d f428 a9be
00000070: 1612 913e 87a3 0ebf d52f 42be 1980 8fbe
00000080: 2069 573f f78a 0f3e c8d8 293e 7c6d cdbe
00000090: 26b1 423f 8260 173e ac3f 0dbf 5e62 9ebe
000000a0: eb3f 0a3f 37c7 043f 864c d1bd fc26 c1be
000000b0: e133 0cbf c48a d3be 8e5f 35be 9425 3e3e
000000c0: 46ad 223f b950 e73e 6387 7dbe d957 003f
000000d0: 54c8 74bd 70cf 3f3d 77ed 9f3e 972a 67bd
000000e0: 2f32 5b3e b1b8 013e b295 83be 0ac1 003f
000000f0: 1c3d 29be eda4 ef3d 3194 89be baee 933e
00000100: 9f37 053e 14f9 74be 1b68 8fbd f44f 203e
00000110: e981 84be 2086 b83e d74d 13be a36f 1f3e
00000120: 846b 0e3f 5e69 863e 4750 2ebe 8844 023e
00000130: e9dd efbe fdfa 623e fbae 21be 7aee 633e
00000140: d698 903d 5e8d 48be 28f8 14be a9d3 053f
00000150: 9c79 6c3e f102 21be 1c96 2ebf 969f b4be
00000160: 7aaa 29bb c81f adbd e522 203e 6942 c23e
00000170: a01f e7bc e205 053e 195f e3bd 2291 16be
00000180: c255 ecbe 6fcf 14bf 1ed4 243e 54cd b3be
00000190: ed77 89bc 9c3d c03d 33eb b4bc b906 cb3e
000001a0: 6f10 38be 8e9b 693f 0d4b f33d 5d9e 863e
000001b0: 6f16 753e 80cb 09bc 4f37 96be 9ed3 823e
000001c0: 4b58 d93e 8afa 9d3c bafd 96bd 74b8 52be
000001d0: 8f02 0d3e 33ce 0c3e 4866 62bd 8036 0cbf
000001e0: 38f7 4c3e 813e b13e 4274 dd3e 7642 67be
000001f0: 1a4e b93e 5db6 bf3d 91f0 8abe 0592 963e
00000200: c1af 1bbd 24d6 a53e b6f0 583e e2b4 3bbe
00000210: b927 04be 005a 413f 063c f9bd a932 51bd
00000220: e92d b93d 5145 cd3c c628 1ebe 5dbb ba3e
00000230: 8ac0 fc3e 67bc edbe f071 bb3e 6f7f dbbe
00000240: 6915 3b3e 6b86 00be 6fce 10be 60d7 3a3e
00000250: 0f07 acbe 5e7d 80be f7c4 af3e 0805 4a3e
00000260: d70a 003f e737 bf3d 8cbd 523e 487b 61be
00000270: 2195 963e 86b2 013e 0a35 5b3e 995a 973e
00000280: eaaa 1d3e 25f7 23be 79bb 0dbf 37fa e9bd
00000290: e0f9 83be d634 953d eadf f63e dfe2 b4be
000002a0: 3b49 babd 85b0 913e 175e b43e 1e15 cebe
000002b0: 6156 40bd fb8c 263d ed5c ed3d b817 d03c
000002c0: 1604 08bf 57be 10bf 49bd 8ebe e913 b7be
000002d0: 0151 503e 9774 aa3e fee2 723e 932c 62be
000002e0: 52b8 09be 82ed 8ebe 2aef 563e 3a7f b23e
000002f0: 576b f33e 9a42 9b3e f693 0c3f 3054 c93d
00000300: 5298 af3e 3bb2 07be 495c c0be 0746 1bbe
00000310: 645e 443e 66d3 6f3e c1b5 103e 17cd 873e
00000320: 18a5 7cbe c9a9 083e 29c4 a03d 8167 763e
00000330: 7479 8d3e fe30 12bf 7d09 ee3d fe3c 18bf
00000340: f945 0ebe d682 ad3e 4489 303f 03f0 43bd
00000350: ae46 2fbe d197 54bd b281 2c3f 3e32 b3bd
00000360: cb54 95bc f0ba c63d 4188 0ebf 0788 1c3e
00000370: 6ef6 16be 5735 07bf ac9f 18bf 4212 8abe
00000380: e6ea 093f ddf2 2e3e 383d a93e 0e46 d63c
00000390: 6b80 e83e a275 4e3e 2e53 33be c83d e2be
000003a0: 6422 4ebd bfeb 4dbf e605 793e a5c5 6f3d
000003b0: ce14 0abe 8ea1 b5bd 9189 443e 36e9 72be
000003c0: a931 14bf 6568 fe3e 2b9b 1abf 3f66 e53d
000003d0: 95be 6d3e 3917 883e b719 dabe 2ce4 13be
000003e0: 493f 533e 30bf 6dbe 647c 67be 45b7 2ebe
000003f0: 116a a7be 5551 78bd 38fb 2ebe 65a5 b13d

r_cell.w_vs.bias f4 [24]
0.04133227 0.04652584 -0.26197767 -0.047716334 0.13020141 0.17716154 0.2213527 0.18058845
-0.15551159 -0.11862673 0.033183083 0.04625946 0.09854561 0.010823144 0.16547501 -0.013420519
0.057631005 -0.11676825 -0.15536429 0.049038365 0.17456844 -0.0821602 -0.16534182 0.18298872
00000000: 074c 293d e191 3e3d f021 86be 3472 43bd
00000010: 8553 053e d669 353e 48aa 623e 2eec 383e
00000020: 6e3e 1fbe 92f2 f2bd fcea 073d 8f7a 3d3d
00000030: 48d2 c93d 8e53 313c 4872 293e bde1 5bbc
00000040: 7d0e 6c3d 3124 efbd d117 1fbe 74dc 483d
00000050: 12c2 323e 9b43 a8bd 5e4f 29be 6561 3b3e

r_cell.layer_norm.weight f4 [24]
1.4066998 1.8163222 0.9501246 1.3946594 0.88097835 0.95706546 1.2382249 1.1220509
0.8743203 0.79226965 1.2013222 0.69056505 0.8439871 0.85216445 1.2850478 1.0593253
1.2604308 0.9235623 1.213279 1.2583534 1.1136291 0.916992 0.8945708 0.9423155
00000000: bd0e b43f 3f7d e83f 5e3b 733f 3384 b23f
00000010: cc87 613f 3e02 753f 277e 9e3f 5d9f 8f3f
00000020: 75d3 5f3f 2fd2 4a3f edc4 993f dfc8 303f
00000030: 8a0f 583f 7327 5a3f 727c a43f f997 873f
00000040: cc55 a13f 946e 6c3f ba4c 9b3f b911 a13f
00000050: 668b 8e3f fdbf 6a3f 9802 653f 973b 713f

r_cell.layer_norm.bias f4 [24]
-0.04724532 0.06593198 -0.12574242 -0.045127787 -0.14282861 -0.06649938 0.12630814 0.120000124
-0.08641188 0.028774898 -0.024349416 -0.05483907 0.23714161 0.14559014 0.10601589 0.06341761
-0.06380217 0.037607126 -0.04283095 -0.13020152 0.11438662 -0.15468909 0.11910083 -0.1060899
00000000: 4f84 41bd 5907 873d 9fc2 00be ead7 38bd
00000010: aa41 12be d430 88bd ec56 013e a0c2 f53d
00000020: b6f8 b0bd 56b9 eb3c 6d78 c7bc ef9e 60bd
00000030: 40d5 723e 9515 153e dc1e d93d 18e1 813d
00000040: b6aa 82bd ee09 1a3d 826f 2fbd 8c53 05be
00000050: 8843 ea3d d166 1ebe 23eb f33d a945 d9bd

r_cell.fc.weight f4 [24, 24]
0.10027216 0.22860612 -0.2741054 0.091828875 -0.12724204 -0.03522426 -0.11257928 0.30745992
0.03963095 -0.40305495 -0.20603028 -0.0325398 0.072023824 -0.20972383 0.061917614 0.46397546
0.064286135 0.09876589 0.21854058 -0.05688842 -0.16714431 -0.020221993 -0.27032 -0.22247592
0.03545426 0.16911985 -0.21327107 0.2694768 -0.26008904 -0.101814635 -0.07651383 -0.058629844
-0.039534014 -0.08197713 0.11213309 0.08647201 -0.24184889 0.18552107 0.0928765 -0.030390183
0.14189205 -0.14372374 -0.17388195 0.18939562 -0.10797766 -0.1279585 0.17332706 -0.27509853
-0.0681114 -0.51453125 -0.13680923 -0.18914823 0.05434866 -0.23190339 0.08150591 -0.23094305
0.27483562 -0.33934003 -0.20162646 0.105965756 0.10725467 0.10364169 0.33076143 -0.39882386
0.1932782 0.08609171 0.5321395 0.12803055 -0.16952008 0.15882182 -0.16131665 0.010801361
0.011892478 -0.17664653 -0.12148898 0.17361245 0.06603332 0.08909952 0.18517552 -0.43370155
-0.18023388 -0.042250615 0.19646896 0.113887385 0.164534 0.31269854 -0.1606854 -0.005721629
0.026389614 -0.057292324 -0.07243023 -0.043363508 0.0940101 0.120071694 -0.14107203 -0.13221924
-0.04620595 -0.21499693 0.049585093 -0.10892953 0.5172794 0.20460714 0.005958637 0.43026823
-0.15728645 0.34296933 0.3004532 0.034085948 -0.16655132 0.072943226 -0.4601133 -0.4509093
0.522694 0.25779036 0.10933908 -0.03102414 -0.7268748 0.19106254 -0.30251095 -0.28445345
0.2942748 -0.0758317 -0.119813606 0.15054455 0.11442573 -0.09602848 -0.34224576 -0.46944806
0.39674187 -0.16467631 0.2244817 0.08610176 -0.24980076 -0.259165 0.34249976 -0.04835687
0.34566852 -0.11872141 0.03249251 0.28264102 0.03710836 -0.25903738 0.015358165 0.534051
-0.08431872 0.05932878 0.06432217 0.20423861 -0.20952205 -0.16017053 0.005016835 0.28120098
0.11413925 0.17703317 -0.45824054 0.3045755 -0.42013785 0.024592308 0.11677353 0.22755784
0.13445866 0.46389678 -0.38666874 -0.18470354 -0.18477008 -0.06982051 0.38895953 0.29700637
-0.070490345 0.16418052 -0.47160172 0.1597981 0.09271187 0.06381541 0.044988576 0.0178378
0.20350102 -0.01599332 0.011780392 -0.0251885 -0.42821342 0.16446611 -0.2372962 0.23803993
-0.25673157 -0.57696617 -0.31398666 -0.009668998 0.19020803 -0.15114982 0.20308958 0.12412528
0.19839673 0.023261229 0.14983559 0.3658225 -0.69004244 -0.41195664 -1.0087008 0.14215064
0.36933202 -0.27294424 0.35757723 0.36272514 0.22069149 0.16675419 -0.19763531 -0.1694892
-0.01811099 0.15788342 -0.07657419 0.08081784 0.009838415 0.21488242 0.068524174 -0.011900508
-0.02288645 -0.1699755 -0.26596734 -0.25545382 0.7294158 0.17395459 0.7270205 -0.17434655
-0.30751762 0.24668258 -0.40212488 0.30197337 -0.104163334 -0.009322937 -0.04773251 0.12406586
-0.10618641 0.22008137 0.1538775 0.27724153 0.15113264 -0.4286908 -0.060741674 0.047694437
-0.35375378 0.037803814 0.100185975 0.3184929 0.12970245 0.20240471 0.0008794394 -0.04733987
-0.06891021 -0.010553669 -0.22731484 0.18268792 0.08037376 -0.23264265 0.008306664 0.30483937
00000000: 7d5b cd3d b917 6a3e 8b57 8cbe c710 bc3d
00000010: bd4b 02be 5047 10bd f78f e6bd 636b 9d3e
00000020: 1054 223d 385d cebe 9af9 52be 7448 05bd
00000030: 3a81 933d d8c1 56be 539d 7d3d 318e ed3e
00000040: 73a8 833d c545 ca3d 1ac9 5f3e d503 69bd
00000050: e127 2bbe 98a8 a5bc 6267 8abe bad0 63be
00000060: 7c38 113d c12d 2d3e bb63 5abe ddf8 893e
00000070: 642a 85be 3184 d0bd 48b3 9cbd d925 70bd
00000080: 6bee 21bd a0e3 a7bd 09a6 e53d 3d18 b13d
00000090: 3ca7 77be 3cf9 3d3e 0936 be3d d5f4 f8bc
000000a0: 264c 113e 512c 13be 1c0e 32be edf0 413e
000000b0: 6423 ddbd 8e07 03be a67c 313e b7d9 8cbe
000000c0: fd7d 8bbd 52b8 03bf b817 0cbe 13b0 41be
000000d0: b39c 5e3d 1578 6dbe 92ec a63d 567c 6cbe
000000e0: 41b7 8c3e fabd adbe 2b77 4ebe 9304 d93d
000000f0: 56a8 db3d 1842 d43d 9059 a93e a432 ccbe
00000100: b8ea 453e da50 b03d 4b3a 083f 711a 033e
00000110: ac96 2dbe 30a2 223e 3130 25be 31f8 303c
00000120: abd8 423c d4e2 34be 37cf f8bd 76c7 313e
00000130: 7a3c 873d cf79 b63d a79e 3d3e 210e debe
00000140: 3b8f 38be fb0e 2dbd 292f 493e ca3d e93d
00000150: 9a7b 283e 061a a03e b78a 24be 817c bbbb
00000160: 082f d83c 5bab 6abd 4d56 94bd ef9d 31bd
00000170: 5e88 c03d 26e8 f53d 3075 10be 7b64 07be
00000180: 7342 3dbd 2828 5cbe bd19 4b3d 7216 dfbd
00000190: 6c6c 043f 8984 513e ac40 c33b 1e4c dc3e
000001a0: b30f 21be ad99 af3e 00d5 993e b59d 0b3d
000001b0: 6e8c 2abe 4263 953d f893 ebbe 95dd e6be
000001c0: 46cf 053f 19fd 833e 2bed df3d 5626 febc
000001d0: 7814 3abf e6a5 433e b7e2 9abe e2a3 91be
000001e0: 30ab 963e a64d 9bbd d660 f5bd 5a28 1a3e
000001f0: 0a58 ea3d 94aa c4bd d63a afbe 7f5b f0be
00000200: c021 cb3e e8a0 28be 88de 653e 1f56 b03d
00000210: c5cb 7fbe 46b1 84be 215c af3e da11 46bd
00000220: 77fb b03e 3624 f3bd de16 053d 53b6 903e
00000230: f0fe 173d 8ca0 84be d0a0 7b3c 91b7 083f
00000240: 4baf acbd bc02 733d 58bb 833d ed23 513e
00000250: f38c 56be be03 24be 4364 a43b 93f9 8f3e
00000260: d7c1 e93d 2f48 353e 819e eabe 52f1 9b3e
00000270: 4f1c d7be cf75 c93c f626 ef3d ec04 693e
00000280: 88af 093e e183 ed3e 72f9 c5be ed22 3dbe
00000290: 5e34 3dbe 0efe 8ebd b425 c73e 3811 983e
000002a0: 3e5d 90bd f01e 283e c875 f1be 1da2 233e
000002b0: b9df bd3d a7b1 823d f145 383d 9420 923c
000002c0: 9262 503e 6c04 83bc 8c02 413c 1d58 cebc
000002d0: ca3e dbbe ce69 283e c6fd 72be bdc0 733e
000002e0: 5272 83be 0eb4 13bf dcc2 a0be b86a 1ebc
000002f0: e5c5 423e 05c7 1abe b7f6 4f3e 6535 fe3d
00000300: 8328 4b3e 558e be3c 806e 193e 164d bb3e
00000310: 9fa6 30bf fbeb d2be 1c1d 81bf f08f 113e
00000320: 1619 bd3e 59bf 8bbe 5d14 b73e 1cb7 b93e
00000330: f3fc 613e 9cc1 2a3e e960 4abe 948e 2dbe
00000340: 805d 94bc 31ac 213e eed2 9cbd d383 a53d
00000350: 4e31 213c 230a 5c3e 6756 8c3d 59fa 42bc
00000360: 5d7c bbbc 0f0e 2ebe df2c 88be d8ca 82be
00000370: feba 3a3f 2721 323e 041e 3a3f e787 32be
00000380: f372 9dbe 5c9a 7c3e 50e3 cdbe 419c 9a3e
00000390: 9653 d5bd 3bbf 18bc 2a83 43bd 3e16 fe3d
000003a0: 4378 d9bd 035d 613e 1092 1d3e 9af2 8d3e
000003b0: 84c2 1a3e 5c7d dbbe 43cc 78bd 3e5b 433d
000003c0: 371f b5be 2cd8 1a3d 4e2e cd3d 8011 a33e
000003d0: b8d0 043e 2e43 4f3e 2e8a 663a 74e7 41bd
000003e0: cc20 8dbd 4ce9 2cbc 39c5 68be 8b12 3b3e
000003f0: ff9a a43d e039 6ebe ad18 083c e813 9c3e

r_cell.fc.bias f4 [24]
0.11713305 -0.034115702 0.08426221 -0.18018848 -0.15385789 0.08173405 -0.12237059 -0.1415112
0.0052803326 -0.078856036 0.10497718 0.23256446 -0.08888032 0.21005353 0.04615735 -0.040021192
0.063078 -0.09032841 -0.12005989 -0.018206684 -0.109068274 0.07810252 0.048977885 -0.27050892
00000000: 74e3 ef3d e8bc 0bbd aa91 ac3d 5483 38be
00000010: ec8c 1dbe 2e64 a73d 6f9d fabd 50e8 10be
00000020: a406 ad3b 467f a1bd 47fe d63d 6125 6e3e
00000030: e306 b6bd 4618 573e 7d0f 3d3d 43ed 23bd
00000040: 0a2f 813d 1afe b8bd f6e1 f5bd 2f26 95bc
00000050: 305f dfbd 37f4 9f3d 099d 483d 2580 8abe

fc1.0.bias f4 [24]
0.11252606 0.09069608 0.07842851 0.033185728 -0.006374252 0.04579472 -0.015611586 0.021659505
-0.04381835 -0.09017511 0.014685534 0.041759074 0.037622347 0.026161442 -0.030795095 -0.1088133
-0.032594837 -0.022607503 0.07092598 0.046578262 0.016932735 -0.013032266 -0.029310873 0.0038367282
00000000: 1074 e63d debe b93d 209f a03d c2ed 073d
00000010: 1adf d0bb 3f93 3b3d bdc7 7fbc 466f b13c
00000020: df7a 33bd baad b8bd 989b 703c 900b 2b3d
00000030: e419 1a3d 8550 d63c ff45 fcbc 82d9 debd
00000040: 2a82 05bd 5f33 b9bc a441 913d d9c8 3e3d
00000050: 85b6 8a3c 4985 55bc 5b1d f0bc 9e71 7b3b

fc1.0.weight_orig f4 [24, 24]
-0.13479474 0.49155623 -0.39830476 0.29146156 0.18316576 -0.13728584 0.35359582 0.34420636
-0.63002646 0.6401016 -0.2711477 0.13292487 0.030893221 0.16368571 -0.13361195 -0.5677046
0.2751018 0.3982671 -0.23775655 -0.2293536 0.3882616 -0.07990163 -0.23222445 -0.12441637
-0.37063733 0.1624304 0.24136405 0.026253033 0.2345866 0.27827197 -0.31002253 -0.017252289
0.45597872 -0.3946854 0.029761124 -0.30564255 -0.07539647 -0.015544023 0.48373148 -0.22234382
-0.4216375 0.011760514 -0.24501069 0.30287093 0.21858685 0.070516296 0.020785406 -0.34710744
-0.18999924 0.0029733954 0.3417208 -0.2948611 0.12234918 0.011086874 0.09316551 -0.18431039
0.63554215 -0.1756345 0.3081272 0.2308775 -0.3420423 -0.16890891 0.046311386 -0.22716741
0.0034529963 -0.21152003 0.06273432 -0.028430646 -0.41165832 -0.0021118175 -0.010282578 -0.4079688
-0.054216407 0.1591985 -0.32548878 0.39455655 -0.28925252 -0.20889935 -0.39295006 0.007016906
-0.5091619 0.18115185 0.13822484 -0.33817557 -0.32436013 0.0352181 0.3826192 0.3135875
-0.03691382 0.2668747 -0.19691342 0.8073473 -0.24791381 0.59197843 -0.27861977 0.2522342
0.05081006 -0.055976048 -0.094699845 0.21817467 0.15608305 0.40629205 0.12615208 -0.28003144
-0.40888655 0.3809181 -0.18249466 0.09592756 -0.19883105 0.32189408 -0.120075814 0.37816447
0.07162374 0.6858784 0.087695695 0.17159337 0.16307591 -0.35243136 0.28103387 -0.04230609
-0.3226674 0.42247963 -0.551825 0.21799357 -0.41781554 -0.5152714 -0.2991737 -0.15871716
-0.42914638 0.055803902 -0.10433497 -0.29265806 0.2445256 -0.29319733 0.660058 -0.08280306
0.16398956 0.07143118 -0.07295001 0.11461249 0.027882509 -0.45942017 -0.14945413 -0.05298384
-0.13315256 -0.13110444 0.045967944 -0.27796578 -0.14739732 0.14071877 -0.11369551 0.10906401
-0.13260932 0.61933255 0.15299691 -0.47186387 -0.3702704 -0.06868723 0.26036787 -0.5180119
0.30374056 -0.22953661 -0.111175634 0.58149815 0.31711715 0.03040059 -0.20871437 -0.094493546
-0.04862811 -0.38351783 -0.32282665 0.052291315 0.2425776 -0.16885352 -0.37019867 0.2145106
0.06601503 -0.5494816 -0.032490637 -0.4605023 -0.1850405 0.049924705 -0.20378084 0.46981642
0.70623094 0.1491048 -0.31963232 -0.055536363 -0.08644368 0.4816047 0.19374217 0.086500734
0.1227798 -0.17480972 -0.4086307 -0.1575556 -0.028032 0.084701724 0.21320653 -0.06596337
0.17260388 -0.14795943 0.13953155 -0.13545723 0.5066624 -0.66318923 -0.05644813 -0.47607625
0.39959702 -0.14507456 0.21330263 -0.36489284 0.18306988 0.4496524 0.02453482 0.3104782
0.067587465 -0.2752651 0.2969349 0.24434614 -0.086152494 -0.06975201 0.09444666 -0.1377684
0.5771496 0.5376305 -0.37990475 0.37700903 -0.15674904 -0.58663267 -0.583235 -0.09537677
-0.15265842 -0.28545842 0.12425375 -0.3406092 0.04599873 0.10940905 0.7244124 0.22893707
-0.572454 -0.15261026 0.32689324 -0.108353734 -0.10413136 0.11059302 0.19384277 -0.34372163
-0.022617811 -0.41067284 -0.25319117 0.6155873 -0.20485048 0.63426363 -0.5666662 0.2399923
00000000: a207 0abe 42ad fb3e 9aee cbbe 733a 953e
00000010: ce8f 3b3e a994 0cbe 830a b53e d13b b03e
00000020: 6a49 21bf b3dd 233f dfd3 8abe 751d 083e
00000030: c813 fd3c 3a9d 273e 92d1 08be 1755 11bf
00000040: 25da 8c3e aae9 cb3e 7476 73be acdb 6abe
00000050: 39ca c63e 77a3 a3bd 3fcc 6dbe 03ce febd
00000060: 2dc4 bdbe 2854 263e 2328 773e 9a10 d73c
00000070: 7837 703e aa79 8e3e 46bb 9ebe ac54 8dbc
00000080: 0b76 e93e 3414 cabe 9acd f33c 2e7d 9cbe
00000090: 7769 9abd 5cac 7ebc a7ab f73e 19ae 63be
000000a0: dfe0 d7be 2caf 403c 15e4 7abe e611 9b3e
000000b0: 3bd5 5f3e d96a 903d 2846 aa3c 11b8 b1be
000000c0: 298f 42be 4cdd 423b 07f6 ae3e 09f8 96be
000000d0: 3592 fa3d b8a5 353c 8fcd be3d ddbb 3cbe
000000e0: e4b2 223f 88d9 33be d9c2 9d3e 276b 6c3e
000000f0: 2b20 afbe 75f6 2cbe 02b1 3d3d 939e 68be
00000100: aa4b 623b b598 58be da7a 803d 63e7 e8bc
00000110: e1c4 d2be 6b66 0abb 4278 28bc 49e1 d0be
00000120: 0612 5ebd ee04 233e 77a6 a6be 5103 ca3e
00000130: e818 94be b6e9 55be c030 c9be 13ee e53b
00000140: 6f58 02bf df7f 393e d08a 0d3e 5925 adbe
00000150: 8812 a6be db40 103d aae6 c33e 8a8e a03e
00000160: f232 17bd cda3 883e aca3 49be 50ae 4e3f
00000170: 1edd 7dbe e68b 173f 40a7 8ebe d724 813e
00000180: 361e 503d 2447 65bd fef1 c1bd 2e69 5f3e
00000190: 3cd4 1f3e 8305 d03e 032e 013e 4860 8fbe
000001a0: 9459 d1be b207 c33e e1df 3abe ab75 c43d
000001b0: 5e9a 4bbe 4dcf a43e 4fea f5bd c69e c13e
000001c0: 78af 923d ba95 2f3f cd99 b33d 2cb6 2f3e
000001d0: 5ffd 263e e271 b4be ace3 8f3e 2749 2dbd
000001e0: a934 a5be 404f d83e 6744 0dbf b539 5f3e
000001f0: ebeb d5be d4e8 03bf 4c2d 99be c086 22be
00000200: 13b9 dbbe a292 643d 93ad d5bd 47d7 95be
00000210: eb64 7a3e f61d 96be 90f9 283f a794 a9bd
00000220: e1ec 273e 834a 923d d166 95bd f4b9 ea3d
00000230: dc69 e43c 1f39 ebbe 810a 19be 9505 59bd
00000240: 2559 08be 3e40 06be e248 3c3d 8851 8ebe
00000250: 53ef 16be 9518 103e 31d9 e8bd f45c df3d
00000260: bdca 07be 948c 1e3f 39ab 1c3e 2498 f1be
00000270: 1594 bdbe e4ab 8cbd f04e 853e 6e9c 04bf
00000280: e283 9b3e a50b 6bbe 0db0 e3bd 10dd 143f
00000290: 2e5d a23e a80a f93c 38b9 55be d585 c1bd
000002a0: 452e 47bd 735c c4be 8949 a5be 6b2f 563d
000002b0: 4366 783e f0e7 2cbe ae8a bdbe aba8 5b3e
000002c0: e332 873d d3aa 0cbf e714 05bd f5c6 ebbe
000002d0: 427b 3dbe d97d 4c3d edab 50be c78b f03e
000002e0: 8dcb 343f eeae 183e d9a6 a3be 197a 63bd
000002f0: 6209 b1bd e494 f63e 5964 463e 4c27 b13d
00000300: fa73 fb3d 5201 33be 0b38 d1be 4156 21be
00000310: 5da3 e5bc 1978 ad3d d052 5a3e ce17 87bd
00000320: 12bf 303e ad82 17be 5ce1 0e3e 4db5 0abe
00000330: a1b4 013f c5c6 29bf 2836 67bd 44c0 f3be
00000340: fb97 cc3e 6d8e 14be 016c 5a3e 3cd3 babe
00000350: ac76 3b3e d738 e63e 3ffd c83c 00f7 9e3e
00000360: 4c6b 8a3d 8cef 8cbe da07 983e e035 7a3e
00000370: b870 b0bd 24da 8ebd 406d c13d 2913 0dbe
00000380: 14c0 133f 27a2 093f e082 c2be 5407 c13e
00000390: d282 20be 8f2d 16bf e44e 15bf e554 c3bd
000003a0: 7d52 1cbe 9b27 92be c078 fe3d 5464 aebe
000003b0: 2a69 3c3d da11 e03d 1773 393f 7b6e 6a3e
000003c0: 588c 12bf dd45 1cbe 8d5e a73e 90e8 ddbd
000003d0: d342 d5bd 987e e23d b87e 463e 48fc afbe
000003e0: fd48 b9bc b643 d2be 46a2 81be 2197 1d3f
000003f0: 53c4 51be 1a5f 223f 0911 11bf 8bc0 753e

fc1.0.weight_u f4 [24]
-0.10172117 -0.08295631 0.031137936 -0.18045539 0.18358286 -0.22126895 -0.17513867 -0.13119763
-0.12822653 0.34120765 0.329636 -0.016145596 0.18139362 -0.21970521 0.17795339 0.3243193
0.01624333 -0.10774156 0.18717946 0.22064345 0.06884357 0.31212214 0.39374927 0.078030534
00000000: 3053 d0bd ffe4 a9bd fc14 ff3c 4cc9 38be
00000010: 25fd 3b3e 5494 62be 8d57 33be ac58 06be
00000020: d14d 03be c5b2 ae3e 0dc6 a83e c543 84bc
00000030: 40bf 393e 67fa 60be 6a39 363e 2e0d a63e
00000040: bb10 853c 9ba7 dcbd f9ab 3f3e 5bf0 613e
00000050: dcfd 8c3d 79ce 9f3e 8199 c93e 79ce 9f3d

fc1.0.weight_v f4 [24]
-0.105707735 -0.20703705 0.28365952 0.08631756 -0.029046172 0.15043025 0.17185326 -0.2900708
0.07591879 0.17607531 -0.11305724 0.39218196 -0.056489527 0.028792066 -0.34464476 0.2339331
-0.3019551 0.059226044 -0.06532457 -0.070484854 -0.027951565 -0.18717775 0.41157213 0.17576256
00000000: 4c7d d8bd 8501 54be d23b 913e 43c7 b03d
00000010: 3df2 edbc 630a 1a3e 4dfa 2f3e 2984 94be
00000020: 507b 9b3d 164d 343e 8e8a e7bd 13cc c83e
00000030: 9061 67bd 57dd eb3c 4775 b0be 298c 6f3e
00000040: dc99 9abe 0297 723d e3c8 85bd 5d5a 90bd
00000050: aefa e4bc 86ab 3fbe 95b9 d23e 1afb 333e

fc1.1.weight f4 [24, 24]
0.73926735 -0.4775568 -0.7886723 1.0685147 0.5203039 0.025857419 0.3101639 0.060469422
1.769265 0.73064387 0.22414942 -0.89327425 -0.3363264 0.41812667 -0.42256474 -0.60611963
-0.41364285 -0.17812286 0.26190338 1.2168115 -0.6237576 0.03421634 0.3332733 -0.08493055
0.17725271 0.03343071 0.5130073 -0.4199382 0.270288 0.54728985 0.7659584 -0.042464178
-0.2708216 0.40197948 -1.0046688 0.25333196 0.5388967 -0.44178075 0.58709294 0.7388048
-0.7396989 -0.14112529 -0.05161633 -1.0419754 -0.25712314 0.13245982 -0.6079706 0.21793099
-0.12105831 0.23095596 0.43960088 0.4203408 0.7985339 -1.1311831 -0.839665 -0.63394874
-0.089951746 -0.021978514 -0.326964 0.11332331 -0.8959071 0.11215151 0.43474716 0.22453237
0.50512886 -0.06676605 -0.25282702 -0.46330458 0.29067528 -0.13508458 -0.42007476 -0.52828985
0.40260834 0.1802697 -0.4391729 1.0157427 -0.03371813 -0.18079704 0.12842065 0.6346165
0.3245738 0.039957553 0.24270675 0.4462993 -0.14000887 0.75283206 -0.6930751 -0.6296925
0.2166369 -1.076355 -1.1412417 -0.4541313 -0.61429983 0.4548949 0.35310867 0.34815788
0.59128755 -1.0006435 0.9007475 0.35392076 0.6103003 -0.4804709 -0.9730688 0.27076766
0.9543178 1.3726084 0.64650923 0.27450764 -0.2576054 0.5146034 0.84048164 -0.58528554
0.2252726 -0.1437789 -0.69849914 0.656292 -0.5667382 0.8809793 0.536684 0.59325486
0.120815806 0.027868869 1.0489452 -0.95991486 2.0095072 -0.3680719 -0.90974647 -0.61983466
0.15952684 -0.11100118 0.5403488 -1.0358821 -0.7044521 0.40680408 -0.19670807 0.9158339
-0.8365542 2.613196 0.39952457 -0.38253906 0.5283882 -0.14178969 0.5981422 0.9639851
0.51018655 0.64724207 0.8497972 -1.4611121 0.0059090722 0.55939955 1.6412882 0.7478967
0.93692935 -0.088739894 0.73544693 -0.1269364 0.976905 -0.9736781 -0.3296331 -0.20117737
-0.8583969 -0.12768252 0.7878431 0.64752895 -0.4113146 0.33376664 0.40800253 -0.33034608
1.1226788 -0.539892 -0.42879072 1.1916492 -1.0226629 0.1284121 0.35514835 0.43906406
0.5031678 1.1388509 -0.31161377 -1.6102449 -0.42934301 -0.15538315 0.67388 -1.0942898
0.8626406 -1.0539021 0.270167 -2.2178123 -0.9950469 0.43651596 -0.6585629 -0.05612708
-0.19773898 0.9143487 0.19842626 1.0053359 -1.1469232 -0.30938205 -0.019552367 -0.7764751
-0.6300994 0.702389 -0.9015718 -0.16755173 0.4258279 0.96398216 0.17032161 0.6205966
-0.76724 -1.1606301 -0.47013286 -0.7788307 0.15497172 -0.21527137 -0.28976685 -1.2184849
1.5563498 1.0563936 0.031474844 0.13390023 -0.47743154 0.28078666 0.9378464 -0.08764001
0.7329121 -1.3096014 0.17846954 -0.48668292 -0.036382962 0.33855167 -0.82392824 1.3903041
0.57225496 0.04233183 0.05386011 0.38921323 0.27627298 -1.4639353 0.36678305 -0.38718104
-0.63766104 1.0191215 1.1440398 0.009262915 1.052116 -0.1729594 -0.20086929 0.042791534
0.19532813 -0.59341145 0.40503868 0.27980548 0.001378884 0.28527576 -0.35462925 0.9624914
00000000: a040 3d3f 5382 f4be 6ee6 49bf 17c5 883f
00000010: a332 053f f0d2 d33c cdcd 9e3e c9ae 773d
00000020: 4777 e23f 7a0b 3b3f 6d87 653e 9fad 64bf
00000030: f932 acbe b314 d63e 685a d8be a82a 1bbf
00000040: ffc8 d3be d765 36be 3318 863e 7bc0 9b3f
00000050: 94ae 1fbf 6f26 0c3d cca2 aa3e 11f0 adbd
00000060: bc81 353e a4ee 083d 7254 033f 2402 d7be
00000070: 3063 8a3e 301b 0c3f da15 443f ebee 2dbd
00000080: 21a9 8abe 41d0 cd3e fd98 80bf bab4 813e
00000090: 22f5 093f 1631 e2be b94b 163f 5022 3d3f
000000a0: e85c 3dbf 2683 10be a56b 53bd 735f 85bf
000000b0: a5a5 83be 8ca3 073e f6a3 1bbf 4d29 5f3e
000000c0: 6bed f7bd b87f 6c3e 5e13 e13e e936 d73e
000000d0: b86c 4c3f 9cca 90bf 49f4 56bf 774a 22bf
000000e0: 9f38 b8bd 490c b4bc d367 a7be 0d16 e83d
000000f0: 2b5a 65bf b1af e53d 2e97 de3e d0eb 653e
00000100: 2050 013f a4bc 88bd 8b72 81be 4236 edbe
00000110: 64d3 943e 9d53 0abe 0a14 d7be 013e 07bf
00000120: ae22 ce3e 9f98 383e 45db e0be db03 823f
00000130: 061c 0abd dc22 39be b480 033e 3a76 223f
00000140: 8a2e a63e 88aa 233d 1e88 783e 5881 e43e
00000150: 7c5e 0fbe 9ab9 403f 5f6d 31bf 8733 21bf
00000160: 10d6 5d3e 00c6 89bf 3514 92bf e683 e8be
00000170: c142 1dbf fce7 e83e a9ca b43e c041 b23e
00000180: 9f5e 173f 1615 80bf 6397 663f 1a35 b53e
00000190: a43c 1c3f 4800 f6be 091b 79bf 0fa2 8a3e
000001a0: 2c4e 743f a2b1 af3f a181 253f 448c 8c3e
000001b0: dbe4 83be 0cbd 033f ce29 573f 46d5 15bf
000001c0: dcad 663e c73a 13be d7d0 32bf c102 283f
000001d0: c115 11bf dc87 613f 1f64 093f 8ddf 173f
000001e0: 476e f73d 414d e43c d643 863f fbbc 75bf
000001f0: c49b 0040 ec73 bcbe 25e5 68bf 7cad 1ebf
00000200: 015b 233e 9654 e3bd 4d54 0a3f c997 84bf
00000210: f956 34bf a048 d03e d76d 49be 1774 6a3f
00000220: 6b28 56bf 9a3e 2740 7c8e cc3e 29dc c3be
00000230: 7344 073f 5131 11be d91f 193f bac7 763f
00000240: 969b 023f a8b1 253f 4f8c 593f b905 bbbf
00000250: e4a0 c13b cf34 0f3f bb15 d23f 2876 3f3f
00000260: 9ada 6f3f 43bd b5bd 4046 3c3f 9efb 01be
00000270: 7216 7a3f f842 79bf abc5 a8be 7101 4ebe
00000280: e6bf 5bbf 35bf 02be 16b0 493f 75c4 253f
00000290: d497 d2be 76e3 aa3e b5e5 d03e 1f23 a9be
000002a0: f0b3 8f3f 5d36 0abf 758a dbbe f687 983f
000002b0: 9ee6 82bf 767e 033e 01d6 b53e 01cd e03e
000002c0: 9bcf 003f dec5 913f d78b 9fbe 811c cebf
000002d0: d9d2 dbbe c31c 1fbe 6683 2c3f b011 8cbf
000002e0: 04d6 5c3f 44e6 86bf 5453 8a3e a3f0 0dc0
000002f0: 65bb 7ebf 057f df3e 9497 28bf 82e5 65bd
00000300: 167c 4abe c212 6a3f 4130 4b3e d9ae 803f
00000310: 61ce 92bf 5367 9ebe 492c a0bc 12c7 46bf
00000320: 324e 21bf c4cf 333f 69cd 66bf ae92 2bbe
00000330: 1d06 da3e 89c7 763f ca68 2e3e 6bdf 1e3f
00000340: d769 44bf 878f 94bf 41b5 f0be 7361 47bf
00000350: e8b0 1e3e 1970 5cbe 525c 94be 50f7 9bbf
00000360: 7836 c73f e837 873f c4eb 003d 241d 093e
00000370: e871 f4be 45c3 8f3e b416 703f 9b7c b3bd
00000380: 21a0 3b3f 05a1 a7bf b8c0 363e 812e f9be
00000390: 4d06 15bd a556 ad3e f6ec 52bf 7cf5 b13f
000003a0: 4d7f 123f 2464 2d3d 6b9c 5c3d f546 c73e
000003b0: a773 8d3e 3b62 bbbf fdca bb3e 983c c6be
000003c0: c13d 23bf 9372 823f e56f 923f 7bc3 173c
000003d0: bdab 863f 451c 31be aeb0 4dbe 2d46 2f3d
000003e0: 1904 483e d0e9 17bf 3b61 cf3e aa42 8f3e
000003f0: abbb b43a aa0f 923e f791 b5be d665 763f
