models/17_05_2021/stock_self_attn_MSE_hinge_10000_64_24_6_24_5/2000_recovery.pth (torch, 54734 bytes, 39 tensors)

position.pe f4 [1, 24, 24]
000000 00 00 00 00 00 00 80 3f 00 00 00 00 00 00 80 3f
       0.0 1.0 0.0 1.0
000010 00 00 00 00 00 00 80 3f 00 00 00 00 00 00 80 3f
       0.0 1.0 0.0 1.0
000020 00 00 00 00 00 00 80 3f 00 00 00 00 00 00 80 3f
       0.0 1.0 0.0 1.0
000030 00 00 00 00 00 00 80 3f 00 00 00 00 00 00 80 3f
       0.0 1.0 0.0 1.0
000040 00 00 00 00 00 00 80 3f 00 00 00 00 00 00 80 3f
       0.0 1.0 0.0 1.0
000050 00 00 00 00 00 00 80 3f 00 00 00 00 00 00 80 3f
       0.0 1.0 0.0 1.0
000060 a4 6a 57 3f 41 51 0a 3f 1d 35 e5 3e 30 ea 64 3f
       0.84147096 0.54030234 0.44767085 0.8941984
000070 52 e9 5a 3e eb 14 7a 3f 76 75 cc 3d 98 b8 7e 3f
       0.21378067 0.9768817 0.099833414 0.9950042
000080 1e 0d 3e 3d 6a b9 7f 3f 47 7a b0 3c ca f0 7f 3f
       0.04639923 0.99892294 0.021542681 0.9997679
000090 57 d6 23 3c b9 fc 7f 3f 57 18 98 3b 4b ff 7f 3f
       0.009999833 0.99995 0.0046415734 0.9999892
0000a0 64 31 0d 3b d9 ff 7f 3f 6d 12 83 3a f8 ff 7f 3f
       0.0021544332 0.9999977 0.0009999998 0.9999995
0000b0 5c 5a f3 39 fe ff 7f 3f ab e8 61 39 00 00 80 3f
       0.00046415895 0.9999999 0.00021544348 1.0
0000c0 b7 c7 68 3f 33 11 d5 be fb f4 4c 3f f8 63 19 3f
       0.9092974 -0.41614684 0.8006131 0.59918165
0000d0 be d9 d5 3e b9 99 68 3f f8 6f 4b 3e a5 e5 7a 3f
       0.41767687 0.9085956 0.19866931 0.9800666
0000e0 b7 d8 bd 3d d1 e5 7e 3f cb 6f 30 3d 2c c3 7f 3f
       0.09269851 0.9956942 0.043075364 0.99907184
0000f0 3e d4 a3 3c e5 f2 7f 3f ec 17 18 3c 2d fd 7f 3f
       0.019998666 0.9998 0.009283047 0.9999569
000100 4e 31 8d 3b 64 ff 7f 3f 68 12 03 3b df ff 7f 3f
       0.004308856 0.9999907 0.0019999985 0.99999803
000110 5b 5a 73 3a f9 ff 7f 3f ab e8 e1 39 ff ff 7f 3f
       0.00092831784 0.9999996 0.00043088695 0.99999994
000120 c3 81 10 3e 26 70 7d bf ce f0 7b 3f 16 a2 35 3e
       0.14112 -0.9899925 0.98414314 0.17737612
000130 c8 2d 1a 3f 56 5d 4c 3f 6c 4e 97 3e ef 90 74 3f
       0.60226107 0.7982992 0.2955202 0.9553365
000140 17 21 0e 3e a8 85 7d 3f bd 46 84 3d 29 77 7f 3f
       0.1387981 0.9903207 0.06458805 0.997912
000150 1f b9 f5 3c 83 e2 7f 3f d5 22 64 3c a6 f9 7f 3f
       0.0299955 0.99955004 0.01392432 0.9999031
000160 bf c9 d3 3b a2 fe 7f 3f 92 9b 44 3b b5 ff 7f 3f
       0.006463259 0.99997914 0.0029999954 0.9999955
000170 c2 83 b6 3a f0 ff 7f 3f 7f 6e 29 3a fd ff 7f 3f
       0.0013924765 0.99999905 0.00064633036 0.9999998
000180 cf bd 41 bf 30 55 27 bf e7 9c 75 3f 6c 5d 90 be
       -0.7568025 -0.6536436 0.9594254 -0.28196275
000190 be 4d 42 3f f9 ad 26 3f d7 61 c7 3e a7 ca 6b 3f
       0.75899875 0.6510921 0.38941833 0.921061
0001a0 73 07 3d 3e b2 99 7b 3f df 45 b0 3d cc 0c 7f 3f
       0.18459873 0.98281395 0.08607077 0.996289
0001b0 db cb 23 3d 94 cb 7f 3f 3e 16 98 3c b4 f4 7f 3f
       0.039989334 0.9992001 0.018565293 0.9998276
0001c0 f8 30 0d 3c 91 fd 7f 3f 57 12 83 3b 7a ff 7f 3f
       0.008617632 0.99996287 0.003999989 0.999992
0001d0 54 5a f3 3a e3 ff 7f 3f a9 e8 61 3a fa ff 7f 3f
       0.0018566349 0.9999983 0.0008617738 0.99999964
0001e0 10 7c 75 bf 2c 3c 91 3e 0a 50 3b 3f cb 7f 2e bf
       -0.9589243 0.2836622 0.73169005 -0.68163747
0001f0 cf 71 61 3f 63 93 f2 3e 43 77 f5 3e 40 a9 60 3f
       0.88064283 0.47378072 0.47942552 0.87758255
000200 93 85 6b 3e ff 22 79 3f 0e 30 dc 3d 21 84 7e 3f
       0.23000173 0.97319025 0.10751353 0.9942036
000210 f4 b6 4c 3d 19 ae 7f 3f 3c 1a be 3c 5a ee 7f 3f
       0.049979165 0.99875027 0.023205869 0.9997307
000220 e6 7c 30 3c 33 fc 7f 3f dd d6 a3 3b 2e ff 7f 3f
       0.010771966 0.999942 0.004999979 0.9999875
000230 71 18 18 3b d3 ff 7f 3f 69 31 8d 3a f6 ff 7f 3f
       0.0023207928 0.9999973 0.0010772172 0.9999994
000240 8c 0f 8f be b8 cd 75 3f c6 c0 b2 3e 2d e4 6f bf
       -0.2794155 0.96017027 0.349127 -0.93707544
000250 63 29 76 3f 8f 93 8c 3e 68 8c 10 3f 32 49 53 3f
       0.961569 0.27456328 0.5646424 0.8253356
000260 e9 c0 8c 3e e9 22 76 3f 09 00 04 3e 38 dd 7d 3f
       0.2749093 0.9614702 0.12890638 0.9916568
000270 d1 9c 75 3d 12 8a 7f 3f 2b 1d e4 3c 96 e6 7f 3f
       0.059964005 0.99820054 0.02784594 0.9996122
000280 9d c8 53 3c 86 fa 7f 3f 58 9b c4 3b d2 fe 7f 3f
       0.012926248 0.99991643 0.0059999637 0.999982
000290 b7 83 36 3b bf ff 7f 3f 7d 6e a9 3a f2 ff 7f 3f
       0.0027849504 0.9999961 0.0012926605 0.99999917
0002a0 46 30 28 3f bd ff 40 3f 9f c6 db bd 8d 85 7e bf
       0.6569866 0.75390226 -0.10731243 -0.9942253
0002b0 41 7f 7f 3f 23 4f 80 3d 72 eb 24 3f b3 cc 43 3f
       0.9980355 0.06265094 0.6442176 0.7648422
0002c0 6a 71 a3 3e 18 9b 72 3f 5d d8 19 3e 25 18 7d 3f
       0.31922466 0.94767904 0.15023942 0.98864967
0002d0 32 3e 8f 3d 81 5f 7f 3f 6e 0f 05 3d 69 dd 7f 3f
       0.06994285 0.997551 0.032485418 0.9994722
0002e0 15 14 77 3c 8c f8 7f 3f c5 5f e5 3b 65 fe 7f 3f
       0.0150804715 0.9998863 0.006999942 0.9999755
0002f0 f8 ee 54 3b a8 ff 7f 3f 91 ab c5 3a ed ff 7f 3f
       0.003249107 0.99999475 0.0015081038 0.99999887
000300 95 46 7d 3f f6 fd 14 be e3 81 0a bf 62 4b 57 bf
       0.98935825 -0.14550003 -0.5410444 -0.840994
000310 e9 04 7d 3f 59 cf 1b be a5 a4 37 3f 5f 5b 32 3f
       0.9883562 -0.15215816 0.717356 0.6967067
000320 cb c7 b9 3e 80 8d 6e 3f 69 9e 2f 3e ff 34 7c 3f
       0.36285242 0.9318466 0.17150272 0.98518366
000330 50 aa a3 3d 65 2e 7f 3f 89 0f 18 3d d3 d2 7f 3f
       0.07991469 0.9968017 0.03712419 0.9993107
000340 a1 2f 8d 3c 44 f6 7f 3f 12 12 03 3c e7 fd 7f 3f
       0.017234625 0.99985147 0.007999914 0.999968
000350 38 5a 73 3b 8c ff 7f 3f a4 e8 e1 3a e7 ff 7f 3f
       0.0037132632 0.9999931 0.001723547 0.9999985
000360 32 01 d3 3e d5 3f 69 bf f1 3b 5c bf 9f 82 02 bf
       0.4121185 -0.91113025 -0.86028963 -0.5098056
000370 af d7 6e 3f 01 49 b8 be 1c 88 48 3f d5 21 1f 3f
       0.9329786 -0.35993198 0.78332686 0.62161
000380 ba b7 cf 3e 5c fc 69 3f 97 4f 45 3e e1 33 7b 3f
       0.4056986 0.91400695 0.19268642 0.98126036
000390 3e 12 b8 3d c2 f6 7e 3f cd 0e 2b 3d d3 c6 7f 3f
       0.089878544 0.9959527 0.041762162 0.99912757
0003a0 0c d5 9e 3c ae f3 7f 3f 3a 74 13 3c 59 fd 7f 3f
       0.019388698 0.999812 0.008999879 0.9999595
0003b0 ba e2 88 3b 6e ff 7f 3f b6 25 fe 3a e1 ff 7f 3f
       0.0041774185 0.9999913 0.0019389901 0.99999815
0003c0 f8 44 0b bf 64 cd 56 bf d1 5b 7f bf 7e e0 90 bd
       -0.5440211 -0.8390715 -0.99749476 -0.070740685
0003d0 61 9f 55 3f 82 12 0d bf a4 6a 57 3f 41 51 0a 3f
       0.8344632 -0.55106366 0.84147096 0.54030234
0003e0 1e 35 e5 3e 30 ea 64 3f 53 e9 5a 3e eb 14 7a 3f
       0.44767088 0.8941984 0.21378069 0.9768817
0003f0 76 75 cc 3d 98 b8 7e 3f 21 0d 3e 3d 6a b9 7f 3f
       0.099833414 0.9950042 0.04639924 0.99892294

r_cell.w_qs.weight f4 [24, 24]
000000 a3 47 27 3d 51 65 09 bf 82 57 53 be c0 00 44 3e
       0.040839802 -0.5367022 -0.2063885 0.19140911
000010 5f 68 3b 3e 84 e3 1a bf 3f 2f 3e be de 2b 90 be
       0.18301533 -0.6050341 -0.1857271 -0.28158468
000020 e4 cc 50 be 0b 4c 26 be 9a cf 4f be 04 3f 92 bc
       -0.2039066 -0.16239946 -0.20294037 -0.017852314
000030 49 af 83 be 48 6f d9 bd d6 74 aa be 9b 82 33 bf
       -0.2571967 -0.10616928 -0.33292264 -0.70121163
000040 11 21 a1 3d 17 47 ac 3e 46 9b bf bd ef 84 1b 3d
       0.07867635 0.33647987 -0.09355788 0.037968572
000050 af 5c 05 be b4 ab 9a bd 79 8f 3b bf 98 eb 93 3b
       -0.13023637 -0.07552281 -0.73265797 0.004514169
000060 e1 0e 04 bf 3a e6 e5 be 5a ba 55 3e 71 ad 0e 3f
       -0.51585203 -0.4490221 0.20871869 0.557334
000070 98 3f 94 3e 0d 9e 8c 3e ea 19 05 3f 6d 3e f3 bd
       0.28954768 0.27464333 0.51992667 -0.11877141
000080 1e c2 27 3d 73 4b 89 3c 01 52 0f bd e5 04 d7 3e
       0.04095661 0.01675961 -0.034990314 0.41995922
000090 43 55 64 be 8c 5d 00 3f 1c d6 4c be 3f b3 00 bf
       -0.2229815 0.5014274 -0.20003551 -0.5027351
0000a0 52 50 65 be 4f d4 07 3f c4 aa 09 be 4a f5 49 3f
       -0.22393921 0.5305833 -0.13444048 0.78889906
0000b0 8b 8e cc bd be 5f 0e bf 7e 33 72 be 3b ec 9a bb
       -0.099881254 -0.5561484 -0.23652455 -0.004727868
0000c0 3d 2d 9a be 99 2c 5f bd 35 8f 16 bf e3 69 4b be
       -0.3011264 -0.05448589 -0.58812267 -0.19864611
0000d0 29 b5 73 3c f6 ab 26 bf e6 e0 e6 be 5f 2b 56 3e
       0.014874735 -0.6510614 -0.4509346 0.20914982
0000e0 6c ca 7d 3f d0 ef 4f 3c 1b 81 0f be c7 9d 3d be
       0.99136996 0.012691453 -0.14014094 -0.18517219
0000f0 ca 24 a7 be 4e 3f 46 be a8 5a e1 be ff 02 d2 bc
       -0.32645255 -0.19360086 -0.44014478 -0.025636194
000100 4e e3 b3 bd 48 a3 2b be d2 0a 99 3d 2e a2 3b bf
       -0.08783589 -0.16761506 0.07472767 -0.7329434
000110 a5 71 20 bf b3 e4 90 be c7 e6 2f be 26 45 5f be
       -0.6267341 -0.28299484 -0.17177878 -0.21803722
000120 2c 87 c8 be 37 e0 58 3d 47 bc f9 bd 13 a3 b1 3d
       -0.39165628 0.052948203 -0.12194114 0.08673682
000130 11 c8 53 3e 98 e8 30 3e c5 38 3a be 13 0c 1f 3f
       0.20681788 0.17276227 -0.18185718 0.621278
000140 25 3a 3f 3e a4 e2 0d bd 21 bd 14 bf c6 15 81 3e
       0.18674524 -0.03463997 -0.5810109 0.25211924
000150 a5 19 ac bd 05 8c 5d 3e 6d 54 61 3d 6a 81 37 be
       -0.08403329 0.21635444 0.055012155 -0.17920461
000160 22 4a d3 3e ef 0c 15 bf a8 27 0c 3f 50 10 77 3d
       0.41267496 -0.5822286 0.5474801 0.06031829
000170 da ef da 3a 10 de 39 be e3 c0 2d 3d 36 94 56 3e
       0.0016703561 -0.18151116 0.04242028 0.20954975
000180 d0 ea 1a 3f 93 6f 0e 3f aa 51 2a 3e ac 85 84 be
       0.60514545 0.55639 0.16632715 -0.25883234
000190 5e 42 24 3e 5d 7e 7f 3e ce a3 9f bc b7 1b 14 3e
       0.16040942 0.24950548 -0.019487288 0.14463697
0001a0 b6 a8 12 3e 47 28 29 bf ab 29 95 be 5b 2a b7 bd
       0.1432217 -0.66077083 -0.29133353 -0.089436255
0001b0 19 25 dc 3e 4e cd 18 bf fa 1f 1b be 9a 56 a6 3d
       0.42997053 -0.5968827 -0.15148917 0.08121987
0001c0 76 ba 01 bb 75 bc f1 be 44 7d 76 be 4e 9d fe bd
       -0.0019794977 -0.47214094 -0.24071223 -0.12432347
0001d0 57 e8 11 bf bd 2b e2 3e c1 cb d0 be b4 b8 7c 3c
       -0.5699515 0.44173995 -0.40780452 0.015424896
0001e0 7b 9b 31 bf 6e cd 6d be 23 23 d8 3e a5 29 ac be
       -0.6937787 -0.23222896 0.42214307 -0.33625522
0001f0 65 53 d4 3e 36 79 7d 3c c5 25 2f 3e 83 67 05 bf
       0.41469875 0.0154707935 0.17104252 -0.5211107
000200 8d c0 b6 3e c8 b0 12 3e 1a 97 d4 bd 80 09 52 3f
       0.3569378 0.14325249 -0.10380383 0.82045746
000210 48 55 a2 be 68 58 f8 3e d6 6f 88 bd 89 e9 63 3d
       -0.3170569 0.4850495 -0.06661956 0.05564264
000220 de 2a 6a 3e 8b d3 f6 be 22 70 6b bd c4 ae fa be
       0.22867915 -0.4820827 -0.057479985 -0.4896146
000230 7c bd 97 be 5d f6 29 be fa 74 9c 3e 78 4c 86 3c
       -0.29636753 -0.16597886 0.30557996 0.016393885
000240 20 82 57 bd 31 90 0c 3e 83 bf e2 be 03 21 f4 be
       -0.05261433 0.1372688 -0.44286737 -0.47681436
000250 27 58 0b bd 2c f4 0f bd 6d ea 0a bf 76 25 33 bf
       -0.034019616 -0.03514497 -0.54263955 -0.69979036
000260 94 4e 7b 3e 1c f8 e0 bd 1e b4 a3 bd 9c d2 25 3e
       0.24541694 -0.10984823 -0.07993339 0.16193622
000270 03 23 1c 3e 0d 89 6b be b1 f1 0e 3f ff 9f b5 3d
       0.15247731 -0.230015 0.5583754 0.088684075
000280 de e9 b6 3e c0 f7 8f 3e 06 7f d9 be a8 72 bc be
       0.35725302 0.28118706 -0.42479724 -0.36806226
000290 4c 7d ac 3e 41 93 30 3f 9f 4d 04 3f 8e 24 8b be
       0.33689344 0.6897469 0.5168094 -0.27176327
0002a0 c3 32 6d 3e aa b8 38 be 51 d2 79 3e 08 95 c7 bb
       0.23163895 -0.18039194 0.24396636 -0.006090764
0002b0 02 3c 02 bf d7 28 c4 3e 42 c6 0d be ff c1 41 3f
       -0.50872815 0.38312408 -0.1384516 0.7568664
0002c0 94 7f 17 3e e1 eb 4c bc 0b c5 61 3f cf ff 94 bc
       0.14794761 -0.01250741 0.8819129 -0.018188385
0002d0 75 e7 a8 3e b3 f8 c5 bd f0 7c 98 3c a6 ff b0 3d
       0.32989088 -0.09666576 0.018614262 0.08642511
0002e0 cf 7b b0 3e c6 34 32 3d cf da 42 3e cc 3b 64 3e
       0.34469458 0.04350736 0.19028781 0.22288436
0002f0 3c d4 ad 3d ee 0e 97 be bc 83 fd be 11 e8 1b 3f
       0.08487746 -0.29503578 -0.49514568 0.6090098
000300 66 58 17 3d 73 b8 1b bf 0f a4 00 3e 93 34 45 be
       0.036949538 -0.6082832 0.12562583 -0.19258337
000310 a7 52 dc 3d b3 8c d5 3c 0d 40 9f 3e 69 68 11 bf
       0.10757952 0.026068067 0.31103554 -0.5679994
000320 c6 35 e6 3e 49 02 03 3e 24 a4 c9 3c 9f 1d 0c bf
       0.449629 0.1279384 0.024614401 -0.547327
000330 ed 45 e2 be 05 99 c9 bd ae 81 8b 3e 53 ee d5 3c
       -0.44193974 -0.09843639 0.27247375 0.026114618
000340 30 88 42 3e 00 82 12 bf 8d eb de 3d ea 46 4f be
       0.18997264 -0.57229614 0.108847715 -0.20241895
000350 08 cc 87 3e be de 5a 3e 73 f4 fa 3e 96 0a 41 be
       0.2652285 0.21374032 0.49014625 -0.18851694
000360 d6 a1 db 3e 2d ea 97 3d 33 63 b8 3c 52 fb 85 be
       0.4289691 0.07417712 0.02250824 -0.26168305
000370 e3 25 88 3e 69 b8 10 3f 67 43 a5 bd 48 74 ce bd
       0.26591405 0.5653139 -0.080694966 -0.10080773
000380 6c 3d 09 3c 4a 49 85 3d fd 50 b6 3e b2 f6 20 be
       0.0083764605 0.065081194 0.35608664 -0.15719107
000390 41 68 7e 3c 4c 9b b2 be f6 44 f7 3d bb 4b dc bd
       0.015527786 -0.34884107 0.120737 -0.10756632
0003a0 67 e4 e2 3e 8a 57 33 3c 66 07 9e be 71 7b 74 3e
       0.44314882 0.010946164 -0.3086502 0.23875214
0003b0 4d 18 66 be c6 f4 24 3e 7e f4 29 bd 74 80 81 be
       -0.22470208 0.16108999 -0.04149293 -0.25293314
0003c0 01 2f 03 3f 9f 3a 89 be cf ea cf be 5a 64 dc bc
       0.512436 -0.26802537 -0.40608832 -0.02690332
0003d0 38 89 3f bf 13 c0 fb 3e 07 74 5a 3e 4d e8 90 bd
       -0.74818754 0.49169978 0.21333323 -0.07075558
0003e0 6d 0e 13 bb cf 13 13 be bb 7f c3 3e 5e 6f b5 3e
       -0.0022439018 -0.14363025 0.38183388 0.3543653
0003f0 c9 86 d1 3e ca 42 dc be 3d 45 17 3f da 04 9b be
       0.40923145 -0.43019706 0.59090024 -0.3027714

r_cell.w_qs.bias f4 [24]
000000 0b 40 60 3c 3b 33 9a 3d d6 85 0a bd 90 b6 4c be
       0.013687144 0.07529303 -0.033819042 -0.19991517
000010 a0 14 c5 be 77 b8 3a be fd 7f 82 be 64 74 dc 3e
       -0.38492298 -0.1823443 -0.25488272 0.4305755
000020 a3 6c 54 bf 23 22 a7 bd 64 49 7b be 80 3d e3 be
       -0.82978266 -0.08160808 -0.24539715 -0.44382858
000030 76 0e 90 bd 77 15 e9 3d 15 94 05 3e 3a 61 31 3d
       -0.07034008 0.11381047 0.1304477 0.043305613
000040 97 7a 03 3f 2d 2f 38 bf 86 80 90 bd f7 f7 37 3e
       0.5135893 -0.71946985 -0.07055764 0.17965685
000050 f7 89 4f bd 04 45 82 3e e1 02 ec 3e 86 40 dd 3e
       -0.050668683 0.2544328 0.46095946 0.4321329

r_cell.w_ks.weight f4 [24, 24]
000000 9a f5 0a 3e a2 80 46 bd ca 2f 0d 3f 25 aa 31 be
       0.13570252 -0.048462518 0.55151045 -0.17350061
000010 0b f7 c7 be 66 0d ca 3d 18 58 ab be b5 21 81 3e
       -0.39055666 0.09865837 -0.33465648 0.2522103
000020 f7 e9 0b 3e 01 e8 42 3d 6d c6 05 3d 55 b4 b7 3e
       0.1366347 0.047584537 0.032659937 0.3587977
000030 d5 72 49 3e 90 e2 10 3f 78 ee 44 3e ff a1 78 bf
       0.19672711 0.56595707 0.19231594 -0.97122186
000040 df 50 8d be 88 8e 7d be 78 28 3e be 11 b8 13 3d
       -0.27600762 -0.24761403 -0.18570125 0.03606421
000050 50 d0 72 3e 55 cc d6 3e a0 6f 22 3f e1 5c 2a 3f
       0.23712277 0.41952768 0.63451576 0.6654797
000060 2e 9b 05 3d de 88 98 be f7 b5 19 3f bd 66 26 3e
       0.032618694 -0.2979192 0.6004328 0.16250129
000070 b0 92 11 bf a1 05 7c be 84 43 f1 3e 80 d4 08 bf
       -0.5686445 -0.24611522 0.47121823 -0.5344925
000080 3e a1 cb bd 17 67 58 3e 56 65 b0 3e b0 86 cd 3d
       -0.09942864 0.21133076 0.34452313 0.10035455
000090 3d 00 12 be 7d 73 d0 3e 1a 99 09 3f 8e a7 4f be
       -0.14257903 0.4071311 0.5374924 -0.20278761
0000a0 37 71 07 bf 74 5a 17 be a8 9f bb be dc 82 bd 3e
       -0.5290713 -0.14780599 -0.36645246 0.370139
0000b0 40 e0 b8 be 76 cf d6 be d6 50 54 be b7 65 35 bd
       -0.3610859 -0.41955155 -0.20733961 -0.044286456
0000c0 92 1e ee 3e c6 a5 07 3f c8 91 da 3d 5b 26 af 3d
       0.46507698 0.52987325 0.10672337 0.085522376
0000d0 97 20 d1 be 1f 6f 93 3e 42 d6 46 be 3e 1d d5 be
       -0.40845177 0.28795716 -0.1941767 -0.41623873
0000e0 78 13 49 be 92 ba ec 3e 44 c0 94 be 39 6c 96 be
       -0.19636333 0.46236092 -0.29052937 -0.29379442
0000f0 10 ce a4 3e 01 29 2f bf 94 36 81 bd da 0a 90 be
       0.32188463 -0.6842194 -0.06309238 -0.2813328
000100 77 67 9a be 90 a4 73 be 66 e1 b6 be 7d d0 1a bf
       -0.30157062 -0.23793244 -0.3571884 -0.6047438
000110 d7 23 bf 3e cf 94 c1 3e bc 34 5c 3f 02 d2 0b 3f
       0.3733203 0.37808844 0.86017966 0.5461732
000120 28 11 06 3f 3e 61 1f 3f 95 22 84 3d ce 7a 70 be
       0.5236993 0.62257755 0.064519085 -0.23484346
000130 af e8 1e 3f 81 9c a3 3e 57 dd 27 bf 76 26 bc be
       0.62073797 0.3195534 -0.6557211 -0.36748093
000140 82 6a ac 3e 29 ec 02 bf 24 86 19 3f 80 2e 39 3e
       0.3367501 -0.511416 0.5997031 0.18084145
000150 e8 e4 67 3e 43 cb ab 3d 96 a9 ab be fe d4 65 bb
       0.22645915 0.083883785 -0.3352782 -0.003506958
000160 25 9c ca 3e 08 ea ce 3e b1 51 69 be 81 84 68 be
       0.39572254 0.40412927 -0.22785069 -0.22706796
000170 73 d4 6c 3e e7 60 26 be e9 a3 fb 3e df 81 0e 3f
       0.23127918 -0.16247903 0.4914849 0.5566692
000180 fa 69 ab 3e 1d b6 24 3f 1b 19 e1 bd e7 01 4f be
       0.3347929 0.6434038 -0.109911166 -0.2021557
000190 07 f2 11 bd 1c 41 62 be 94 29 09 3f 02 9d 9a bc
       -0.035631206 -0.2209515 0.5357907 -0.018873695
0001a0 79 2d ab 3e a3 a5 cf bd 87 50 10 be 2b 5e b7 bc
       0.3343313 -0.101390146 -0.14093219 -0.02238377
0001b0 03 4f 73 3e ce cf 8a bc 96 6b 2c be a3 00 b0 3e
       0.2376061 -0.016944792 -0.16837916 0.34375486
0001c0 10 fb d8 3e f2 0a 1e be 60 6a e1 3e fe 74 d5 be
       0.42379045 -0.15433863 0.4402647 -0.4169082
0001d0 7a 66 96 3e c2 92 37 3e ee a5 8d 3e 61 f8 36 3e
       0.29375058 0.17927077 0.27665657 0.17868187
0001e0 47 19 a7 3d 1a 40 d3 3e ce 30 06 bf 70 53 8a bd
       0.08159118 0.41259843 -0.5241822 -0.06754196
0001f0 19 54 e3 3e 28 c6 3a be fa 15 3a be 20 f2 1d 3e
       0.444001 -0.18239653 -0.18172446 0.15424395
000200 0d ad 4c 3e 50 59 21 3e 40 af 59 3e 67 30 ce 3e
       0.19987889 0.15756726 0.21258259 0.40271303
000210 11 fe ae 3e 67 26 1f 3e 76 25 75 be 14 d2 06 3f
       0.34178212 0.15541993 -0.23940071 0.52664304
000220 32 99 cb 3e 0c ac aa 3e 7e bd 3c bf b4 ca 01 bf
       0.39765316 0.33334386 -0.7372664 -0.50699925
000230 4a 09 9e bd 9a 13 46 3e 76 f6 89 3d 0d 44 19 3e
       -0.077166155 0.19343415 0.06736462 0.14967366
000240 5c 04 11 3f 96 70 b4 3e 49 da b7 bc 1e ca 95 be
       0.56647277 0.35242146 -0.022442954 -0.29255766
000250 29 f0 09 3e 6d ea dd be 9c e1 91 3d e4 17 4e be
       0.1347052 -0.43342915 0.0712311 -0.20126301
000260 6c c7 e3 bd b9 8e c8 be ba a6 e6 3e 78 ae c9 3e
       -0.11122021 -0.3917139 0.45049077 0.39390922
000270 36 bf 8c be ce 30 f1 bd ba 0a 0a be 4c 49 ba bd
       -0.27489632 -0.11776887 -0.13480654 -0.090960115
000280 9e 36 ed be 7d 8e 60 bf f6 7f ce 3c d2 c9 0d be
       -0.46330732 -0.8771742 0.0252075 -0.1384652
000290 c3 70 92 3f df 92 ab 3e d1 a2 0f 3f 59 46 ff be
       1.1440662 0.3351049 0.56107813 -0.49858359
0002a0 c2 ef a5 be 60 72 99 bd 3b 5a a9 3e ed 94 b2 be
       -0.32409483 -0.074925184 0.33076653 -0.34879246
0002b0 60 6c 85 be c3 69 b5 bd 7b fa 14 3e d4 b2 8a 3d
       -0.26059246 -0.08858063 0.14548676 0.0677239
0002c0 ac 3e d2 3e e3 1e 7c 3e 35 6e b7 3d 6a 48 a6 be
       0.4106344 0.24621157 0.08956567 -0.32477123
0002d0 ec 14 87 be 54 af 30 3d de 1c dc be ea 3a 64 3e
       -0.2638315 0.043135956 -0.42990774 0.22288099
0002e0 c3 17 01 bf 3d 8c 1c be 36 1b b9 be ff 20 b5 3e
       -0.5042688 -0.15287872 -0.36153573 0.35376737
0002f0 0d 38 aa be f9 1b 48 bf a7 a7 cf be c2 8a 23 bd
       -0.33245888 -0.7816768 -0.40557596 -0.03992725
000300 29 20 67 3d 9e a8 99 bc 09 b2 bb 3d eb a7 9e be
       0.056427155 -0.01875716 0.09164817 -0.30987486
000310 40 fa 3e be bd f9 99 be ec 46 e8 be 35 e3 7b bc
       -0.1865015 -0.30073348 -0.4536661 -0.015373995
000320 f8 6d bb bd 16 6c 4d be 21 9a 27 be 34 e6 8a bb
       -0.09151834 -0.20060763 -0.1636739 -0.004238868
000330 f3 f0 b7 bd 80 1e 59 bb 4a 88 d5 bc cc 61 85 be
       -0.08981504 -0.0033129752 -0.026065964 -0.26051176
000340 4c 46 52 3f 5c 6d bd bd 85 c1 34 3f d2 b7 37 bf
       0.82138515 -0.09249374 0.7060779 -0.7176486
000350 1f cb 9d 3e 24 ad 07 3f 13 61 95 3e 05 27 31 be
       0.30819032 0.52998567 0.29175624 -0.17300041
000360 1e ab 84 3e 50 9f ac 3d a5 88 f2 bd 40 29 e8 be
       0.25911802 0.08428824 -0.11842469 -0.4534397
000370 81 61 1a 3f 98 09 13 bf 22 a3 e4 bd 03 b8 19 be
       0.6030503 -0.57436514 -0.111639276 -0.15011601
000380 54 26 30 3f 17 a3 62 3e 1c ad ae be 9b 88 9d 3d
       0.68808484 0.22132526 -0.34116447 0.07692071
000390 77 01 95 3d 35 5d 5f 3d fe c0 16 bf 98 43 ac be
       0.0727567 0.05453225 -0.5888823 -0.3364532
0003a0 c6 26 2a 3e 82 61 bd 3d da 9a 1d 3f 0c d4 24 3e
       0.16616353 0.09247114 0.6156441 0.16096514
0003b0 ab 82 2e 3f 5b c6 93 3e 26 37 2e 3e 5f 80 47 3e
       0.68168133 0.2886227 0.17013225 0.19482563
0003c0 27 f6 33 3e 8d 6c a5 3e 90 0c df 3e 22 81 1e bf
       0.17574368 0.3230938 0.43564272 -0.6191579
0003d0 01 1b 83 bd 00 71 78 be 7c 8f 27 3f 3e cf d3 3d
       -0.06401635 -0.24261856 0.65453315 0.10342263
0003e0 b8 bc 11 3d b7 14 2a be bc a2 2f 3e 82 59 ca be
       0.035580367 -0.16609465 0.17151922 -0.39521414
0003f0 76 14 70 be ff b3 40 3e 3f 9c 23 bf 16 cf 5e be
       -0.23445305 0.18818663 -0.6391029 -0.21758685

r_cell.w_ks.bias f4 [24]
000000 13 7c aa 3d f2 9f a9 3d fd d0 4c 3d cf 13 25 3e
       0.083244465 0.0828246 0.050003994 0.16120838
000010 3b 9f 40 3e aa 09 78 3e 85 9c 49 be 81 9c be 3d
       0.18810742 0.24222437 -0.19688614 0.093071945
000020 85 34 6b 3e c4 72 a6 bd c9 cb 15 3e a6 ab da 3c
       0.22969253 -0.081273586 0.14628519 0.026693176
000030 a2 c0 01 be d0 1c aa 3d bb 83 20 3e f9 14 1a bd
       -0.1267114 0.08306277 0.15675251 -0.037617657
000040 01 27 3b be 07 82 e0 bb 67 e5 a6 3d c2 94 94 3d
       -0.18276598 -0.006851438 0.08149224 0.07254936
000050 e0 91 f1 3c 7a 7e 06 be 16 55 d0 3d b4 45 2d bd
       0.029488504 -0.13134184 0.10172479 -0.042302802

r_cell.w_vs.weight f4 [24, 24]
000000 69 12 4c bd f9 03 80 bc fe 5c e7 be 92 dc c1 3d
       -0.049822245 -0.015626894 -0.45188135 0.094658986
000010 81 d5 84 be 96 db 92 be d3 a0 aa 3e 4c a9 0d 3e
       -0.2594414 -0.28683156 0.33325824 0.13834113
000020 68 2a d8 3d 93 0a f4 3e f4 8e 6b 3d e9 00 85 be
       0.10554963 0.47664317 0.057509378 -0.25977257
000030 96 9f 8f be d4 58 a1 3e 70 d4 98 bd d5 5e c1 be
       -0.28051442 0.31513083 -0.07462394 -0.37767664
000040 65 85 4a be ca ea 2c bd 36 3c bf be 5b ca 4f 3e
       -0.19777448 -0.0422161 -0.37350625 0.20292036
000050 23 24 79 be 06 f6 15 3e b9 ff 9b 3e bb 58 11 3f
       -0.24330191 0.14644632 0.30468538 0.56776017
000060 39 d3 45 bd 66 6d c2 bc 8d c1 5a bd 3c 9a 90 3e
       -0.04829714 -0.023733806 -0.05340724 0.2824267
000070 9d b8 f4 be 14 63 c2 3d 16 d2 f6 be f0 78 14 3f
       -0.477971 0.09491554 -0.48207158 0.57997036
000080 63 b8 8a 3d ef 60 82 be 73 42 21 3d 5e 26 82 be
       0.0677345 -0.2546458 0.03937001 -0.25419897
000090 c3 1c 40 3e ce 5e 07 3f 20 2b e0 bd fd c9 60 3e
       0.18760972 0.52879035 -0.109457254 0.21952052
0000a0 71 02 d6 3e 80 ad 48 3e 47 59 ac be 19 a2 91 bd
       0.41798738 0.19597435 -0.33661863 -0.07110996
0000b0 0a cf 24 3d 47 b2 8d 3e a8 e2 f5 be 56 dc 37 be
       0.04023651 0.27675077 -0.48024487 -0.17955145
0000c0 e3 1d 2e be e2 9f 33 bc db ee 16 3f 14 80 58 3e
       -0.17003588 -0.010963412 0.58958215 0.21142608
0000d0 4c 43 94 3d e3 5b 27 bf 60 63 77 3d b0 c7 5b bd
       0.07239398 -0.65374583 0.060397506 -0.053657234
0000e0 ea 96 38 b9 7f 11 73 3e 8e 40 2c 3e ef 4f 41 3e
       -0.00017603827 0.23737143 0.168215 0.18878148
0000f0 fd 98 45 3e 31 94 08 be c9 7a 2a bf 19 ff d4 be
       0.19296642 -0.1333778 -0.66593605 -0.41600874
000100 82 e0 fd be 0b 01 35 be 25 0f fb bd 45 c6 c3 3d
       -0.49585348 -0.17676179 -0.12258748 0.09559301
000110 1a 8c 0b 3d 57 c7 b4 bd a5 0b 9a 3c 9e 87 90 be
       0.034069158 -0.088270836 0.01880438 -0.28228468
000120 f2 bd 7c 3e 1a ea 22 bd b8 d2 72 bd f6 f3 62 be
       0.24681833 -0.039774038 -0.05928299 -0.22163376
000130 68 74 39 bd 12 59 67 3e 73 4d 52 bd d4 de 69 be
       -0.04527703 0.22592571 -0.051343393 -0.22838908
000140 d8 fb e5 3e 84 3e 4b 3d ee 58 20 3e 51 00 e5 3e
       0.44918704 0.049620166 0.15658924 0.44726804
000150 ed 97 3a 3e 6d 5c ca be 57 e0 03 3f 59 3d 4b be
       0.18222018 -0.3952364 0.5151419 -0.19847621
000160 08 e8 ff 3d 02 21 c6 be fa b6 53 bb af 2f 6f 3e
       0.12495428 -0.38697058 -0.0032305107 0.23358034
000170 71 06 19 bd 8f 19 79 be c3 cb 3f 3e 5f c7 10 be
       -0.03735966 -0.24326156 0.18730073 -0.14138554
000180 4b 7f 01 bf f7 de 9e bd a3 80 09 be ee 9a 37 3e
       -0.5058486 -0.07757371 -0.13427977 0.17930195
000190 1e a2 71 bd 13 2a dd be 39 33 96 3e 27 4c 6f 3e
       -0.058992498 -0.43196163 0.29335955 0.23368894
0001a0 12 75 ae bd 56 ce 22 bf d5 28 7d be 9c 0c f4 be
       -0.08518423 -0.63596094 -0.24722607 -0.4766587
0001b0 a2 53 30 bb bd 9e 66 3e a2 42 39 bd ba 20 f7 be
       -0.0026905318 0.22521491 -0.04522956 -0.48267156
0001c0 a7 cd ab be ad 45 d5 be 84 d8 b9 3e 37 ef 33 be
       -0.33555338 -0.4165472 0.36298 -0.17571722
0001d0 00 57 8e bd 89 81 c9 be b4 56 7c 3e 58 47 2a 3d
       -0.06950188 -0.3935664 0.2464245 0.041571945
0001e0 86 28 35 bd 4a 61 3b 3e 56 e8 d0 3e 57 97 c7 3e
       -0.0442281 0.18298832 0.40802258 0.3898265
0001f0 61 91 01 3f 8c cc 6e 3f 58 63 78 be 99 a9 db bc
       0.50612456 0.93280864 -0.24256647 -0.026814269
000200 3c f5 0e 3f 95 10 05 3e c7 d9 a5 3e 83 d3 9b 3d
       0.5584295 0.12994607 0.32392713 0.07608702
000210 35 c7 77 3c c4 6a e5 3e 1f 0c 52 3c 8b b0 9d 3e
       0.015123178 0.44808018 0.012820273 0.30798754
000220 14 89 18 3d 8e 53 2b 3f 0c c4 0f 3d eb e1 7d be
       0.037240103 0.6692437 0.035099074 -0.24793212
000230 db 5c 5f 3f a7 90 c3 3d 85 e3 09 be ff 55 8e 3d
       0.8725106 0.095490746 -0.13465698 0.06949996
000240 67 6a 9e bd 39 49 7e 3e a8 07 c8 3d 02 cd 25 be
       -0.077351384 0.2483262 0.09767085 -0.16191486
000250 71 f0 8a 3d 4e 65 82 ba e9 6a e4 bd 58 8c 96 be
       0.06784142 -0.0009948404 -0.11153204 -0.2940395
000260 8b ef ba be 1f e6 84 3e fe a4 3f 3e d2 df 16 3f
       -0.36510882 0.25956818 0.18715283 0.5893527
000270 75 2d 51 be 2d 6f e6 bd f3 0f 69 3e ef ed fa bd
       -0.20427497 -0.11251674 0.2275999 -0.122524135
000280 e3 f1 5e be ed b2 19 bf 19 2e 85 be f8 a6 d7 be
       -0.2177196 -0.60038644 -0.26011732 -0.42119575
000290 ba d0 a8 be 22 18 fb bd bd 7d 13 bf 33 a8 38 3e
       -0.32971746 -0.12260462 -0.57613736 0.18032913
0002a0 1e 89 6d be 96 54 d4 be 52 ea 02 bf b6 a9 5c 3d
       -0.23196837 -0.41470784 -0.51138794 0.053872786
0002b0 d7 e3 78 bd 31 47 0c 3f 1a e2 4e ba 05 28 8e be
       -0.06076416 0.5479613 -0.0007891968 -0.27764907
0002c0 84 0f 0a 3d 5d ae 3b 3e 95 39 87 be 18 00 c0 3e
       0.033706203 0.18328233 -0.2641112 0.37500072
0002d0 c4 79 c9 bc 0f f6 f7 be f1 56 e5 3c 95 89 04 bf
       -0.024594195 -0.48429915 0.027995558 -0.51772434
0002e0 b1 16 2d be 85 84 10 be 32 03 5f 3e 79 81 1f bf
       -0.16903187 -0.14113052 0.21778563 -0.62306935
0002f0 18 cd 2d be 8d 48 23 bf dc c3 bf bd 53 7c 84 3d
       -0.16972768 -0.6378258 -0.09363529 0.064690255
000300 08 07 a7 be 17 1a e3 bd 5a 65 59 bd 8f b2 71 3e
       -0.32622552 -0.110889606 -0.053075172 0.23603271
000310 2a 98 94 be b3 40 3d be a3 dd 33 bd 29 99 ea bc
       -0.29022342 -0.18481712 -0.04391254 -0.028637486
000320 0b 0b 21 3e a2 63 34 be 5c 7f 0c bc 93 db e3 be
       0.15726869 -0.17616132 -0.008575287 -0.4450346
000330 d1 d6 0c 3c eb f2 89 be 1e d0 cf be 74 c5 5c be
       0.008596138 -0.26943144 -0.40588468 -0.21559697
000340 0b 3a 34 3e ee b2 91 3d d0 02 90 3c bf d2 97 3e
       0.17600267 0.07114206 0.017579466 0.29652974
000350 53 56 64 be a2 f9 e4 3e 1c b8 54 be 7e ee ca be
       -0.22298555 0.44721705 -0.20773357 -0.3963508
000360 4a 52 07 be 16 36 1f 3f c3 26 14 3c e8 a4 68 3e
       -0.13214985 0.62191904 0.009042445 0.22719157
000370 f0 61 c0 3e 67 bc 9b bd a3 a3 9a 3b 05 d1 43 3e
       0.3757472 -0.07604294 0.004719214 0.19122703
000380 70 a5 5f 3d d0 a6 f5 be fe 3f c0 bd 1e c7 2a be
       0.054601133 -0.4797883 -0.093872055 -0.1667752
000390 d5 90 f5 3e 6c a9 4b be 3a e6 c6 3e 50 82 92 3d
       0.4796206 -0.19888848 0.38847524 0.071537614
0003a0 ef 42 4c be af 47 fe 3d 6e 2a 76 3e 26 fd b3 be
       -0.19947408 0.12416016 0.24039623 -0.35154074
0003b0 b4 63 9f be 62 43 94 3e 9e b4 bf be 63 fc 2d 3d
       -0.31130755 0.2895766 -0.37442487 0.042477023
0003c0 16 cf 51 3e f1 20 44 3e 49 ca 1e be dd 7e a7 3e
       0.20489153 0.19153191 -0.15506853 0.32713977
0003d0 76 f6 b7 3d c9 66 f4 be 1c 92 f6 bd 0f 6f 6e bc
       0.089825556 -0.4773467 -0.12039587 -0.014552846
0003e0 0a 0a 79 be c1 a4 2d be 18 19 9d 3d c0 2a 78 be
       -0.24320236 -0.1695738 0.07670802 -0.24235058
0003f0 39 83 9c 3e 19 e5 92 be 88 cd 36 3e 5d 21 cf 3e
       0.30568865 -0.28690413 0.17851841 0.40455142

r_cell.w_vs.bias f4 [24]
000000 50 3d ff 3d 4b 5f 58 be a4 d5 23 bd e0 70 72 3e
       0.12462866 -0.21130101 -0.039998665 0.23675871
000010 c5 6b fa 3d e4 f0 0b bd 00 a9 0b 3d 75 0d aa bc
       0.12227587 -0.034165278 0.034096718 -0.02075837
000020 93 2c 13 be ea 52 2f bd 52 d2 7d 3e 5a 47 86 3b
       -0.14372472 -0.042803682 0.24787262 0.0040978612
000030 97 d9 c6 bd e1 79 20 be 53 84 a4 3b 28 ac 50 bd
       -0.09709471 -0.15671493 0.005020657 -0.05094543
000040 16 75 3a 3e 4b b4 32 3d 7c 94 2d be c7 f0 11 be
       0.18208727 0.043628972 -0.16951174 -0.14252006
000050 78 23 11 3e 71 45 48 3d 4e 41 1c be d9 a6 4e 3c
       0.14173687 0.04889435 -0.15259287 0.012613022

r_cell.layer_norm.weight f4 [24]
000000 f9 33 77 3f 3a 4c 70 3f b6 27 6c 3f 33 ff 8b 3f
       0.9656368 0.9386631 0.92248094 1.0937256
000010 95 b6 80 3f 06 07 7e 3f c1 42 b0 3f 54 42 bd 3f
       1.005572 0.99229467 1.3770372 1.4785867
000020 c3 3c 8e 3f cd c7 9d 3f f5 10 7f 3f 9b 1a af 3f
       1.1112293 1.2326599 0.9963525 1.3679994
000030 03 0c ab 3f e7 e8 95 3f 38 ed 7e 3f 10 9d 51 3f
       1.3363041 1.1711701 0.9958072 0.81880283
000040 8a 45 bf 3f 8a 6b 5a 3f fb b3 c8 3f f9 f5 9f 3f
       1.4943097 0.8532034 1.5679926 1.249694
000050 8b d9 87 3f 72 78 6f 3f 3b 80 95 3f 77 4f 84 3f
       1.0613264 0.9354316 1.1679758 1.0336751

r_cell.layer_norm.bias f4 [24]
000000 ea 6f d5 3c ad 7a fc bd fb f7 bf bd 4c 0f 0f be
       0.026054341 -0.12328086 -0.093734704 -0.13970679
000010 0b 56 e9 3d 2f f3 80 bd 8d 92 a6 bd 6e 42 46 3d
       0.113933645 -0.062963836 -0.08133421 0.048403196
000020 84 89 86 bd d1 c3 00 bc b4 e7 f5 3d 0e b7 52 bd
       -0.06569198 -0.007859186 0.120070845 -0.051444106
000030 fe 0b 61 39 23 9c c0 bc 60 40 f2 3b 72 6f eb 3c
       0.0002146214 -0.023511952 0.007392928 0.028739665
000040 a5 2b d6 3d 5e 3c 82 be d4 17 16 bd bc e9 02 3d
       0.10457543 -0.25436682 -0.036643818 0.031961188
000050 10 95 d6 3d f3 27 41 3e 18 0a fc 3d be 6b 74 bd
       0.1047765 0.18862896 0.12306613 -0.059673063

r_cell.fc.weight f4 [24, 24]
000000 14 f4 93 be 59 50 fe bd cf 0a 85 3e d9 94 99 3e
       -0.28897154 -0.12417669 0.2598481 0.29996374
000010 65 25 19 3d 50 54 20 3d fc a8 59 3e 3c a0 c5 bd
       0.037389178 0.039142907 0.21255869 -0.09649703
000020 7d 7a 19 be 86 34 82 bd 94 77 b0 be 61 31 b0 3e
       -0.14988132 -0.06357674 -0.3446623 0.34412673
000030 68 f9 9c bd 40 fb a9 3e 0e 1c 34 3e 82 2b fe bc
       -0.07664758 0.331995 0.17588827 -0.031026606
000040 53 57 09 be d5 c6 19 be 6a c7 7b be 69 59 9b 3e
       -0.13412218 -0.15017255 -0.24587789 0.30341652
000050 40 65 48 bd 71 e1 1d be d4 87 83 be 55 2d 89 be
       -0.048924685 -0.1541803 -0.25689566 -0.26792398
000060 a9 24 9e be 50 c9 3d 3e 04 5a 53 be 66 27 e9 bd
       -0.30887344 0.18533826 -0.20639807 -0.11384468
000070 3c b0 6d 3e 22 8f b1 3c c1 45 10 bf d7 f5 73 be
       0.2321176 0.021674696 -0.56356436 -0.23824249
000080 ef cd 17 3f ec b1 18 3e c9 45 42 3e d9 13 47 3e
       0.59298605 0.14911622 0.18971933 0.19441165
000090 4b f9 fe 3d 18 5c b0 3c 36 00 3f be 58 e9 f5 be
       0.124498926 0.021528289 -0.18652424 -0.4802959
0000a0 d9 e9 ff 3c fa d1 ea bd 95 06 fd bd 7b a9 6d be
       0.031239437 -0.11465831 -0.12354771 -0.23209183
0000b0 e6 25 46 3f 05 18 99 3e 22 32 26 3e 4c 96 15 be
       0.7740158 0.29901138 0.16230062 -0.14608115
0000c0 a9 b7 02 be bc 14 83 3e 00 1c cf be 0a 70 8f be
       -0.12765373 0.25601757 -0.4045105 -0.28015167
0000d0 f9 fc b4 3e d5 76 8d be 48 13 b7 be a6 f0 ab be
       0.35349253 -0.27629724 -0.35756898 -0.33582038
0000e0 2d 73 0b bd 27 f3 8a 3d 95 fe 28 be b8 72 f3 3e
       -0.034045387 0.06784659 -0.16503365 0.4754846
0000f0 49 c1 cf be b4 7d 35 3e 5f d5 80 3e 7f 43 af 3e
       -0.40577152 0.17723733 0.2516279 0.34231183
000100 85 a0 a1 3d 8d 06 2c be e0 4b c0 be 21 1c c7 bd
       0.07891945 -0.16799374 -0.37557888 -0.09722162
000110 17 a1 d1 3e 4f 10 c2 3e c1 f7 ae 3b 03 dc 9a bd
       0.40943214 0.37903067 0.005339593 -0.07561495
000120 a2 85 f4 3e 6b ee 1c be 94 95 e8 3e ea f2 5b be
       0.47758204 -0.15325324 0.4542662 -0.21479383
000130 89 de 8a 3e 94 10 f1 3e bc 71 30 bb a8 54 b5 3e
       0.27122906 0.4708296 -0.002692326 0.3541615
000140 83 3e aa 3d c4 3e 17 3d 2d 25 cc bc 57 b4 10 3e
       0.083127044 0.036925092 -0.02492007 0.14131294
000150 6c ca ab be 4c 37 f3 bd e0 e1 bd ba a8 07 e8 be
       -0.33552873 -0.118757814 -0.0014486872 -0.4531834
000160 e0 06 61 3e 48 17 c7 3e 23 d8 be 3c d1 28 d7 3d
       0.21975279 0.3888495 0.023296421 0.10505832
000170 50 ed 30 be 03 22 d3 bd fd fa 9b be 32 ed be 3e
       -0.17278028 -0.103092216 -0.30464926 0.3729034
000180 0a ea 95 3d 73 3b 7d bd b7 85 0e 3d 45 36 5d 3e
       0.0732003 -0.061824273 0.03479549 0.21602733
000190 33 b2 c8 be f5 b5 17 bd b0 e0 a7 bc 2f 55 e8 3e
       -0.39198455 -0.037038762 -0.020492882 0.4537749
0001a0 4e f2 21 3c 10 e5 d4 bd af 16 10 bf a1 b8 28 3e
       0.00988443 -0.10395253 -0.5628461 0.1647668
0001b0 e6 12 f8 3c 0d d3 69 3e a5 92 bb 3d 89 2a c3 3e
       0.030282449 0.22834416 0.091588296 0.3811839
0001c0 01 92 c8 be b5 8e af bd 22 97 0c 3f 1d 3b aa be
       -0.39173892 -0.08572141 0.5491811 -0.33248225
0001d0 ed ba b4 be 89 09 9d be c7 34 0f 3e 8c 70 7a be
       -0.35298863 -0.30671337 0.13984977 -0.24456996
0001e0 30 22 2c 3e ae 3e f5 3e 0f a0 b7 be 52 48 84 bd
       0.16809916 0.47899383 -0.35864303 -0.064591065
0001f0 6e 5c 27 be 8e dc 33 be e4 32 0a 3f de 51 19 3e
       -0.16343853 -0.17564604 0.539839 0.14972636
000200 19 4b c1 bd 79 87 f8 bd 70 01 9e bc 33 16 23 be
       -0.09438152 -0.12135214 -0.019287795 -0.15926437
000210 74 49 35 bd 3c 4f 08 bd b2 7c 4d be 3d 1b e2 bd
       -0.044259503 -0.03327869 -0.20067099 -0.110403515
000220 50 5e 67 be 89 81 35 3d 8b b6 87 3e 3c 0c bf 3e
       -0.22594571 0.044312987 0.26506457 0.37314022
000230 29 bb b5 3b c1 e9 bc 3d 8e 23 80 be 3d 15 0f 3d
       0.005545993 0.092242725 -0.25027126 0.034932364
000240 51 10 d6 3d b9 48 a7 3d d3 43 fb bc 8d e3 95 3d
       0.10452331 0.081681676 -0.03067199 0.073187925
000250 6f 32 9f be 07 76 ba 3c 3e 66 2f 3d 0b 5d 04 be
       -0.31093165 0.022761358 0.042822115 -0.12926118
000260 ee b5 8c 3d 3e 68 e4 3c c5 bf 87 be e3 c1 36 bd
       0.06870638 0.027881738 -0.26513496 -0.0446185
000270 93 69 8e 3d af 96 31 be ce bb 78 3d e6 8d 49 3a
       0.069537304 -0.17342637 0.06072598 0.0007688686
000280 63 0f 84 3d 83 0c 82 3b 46 9f 8a be 1c be 44 be
       0.06448247 0.0039687767 -0.2707464 -0.19213146
000290 08 5b b8 3e 53 1e 32 be f6 80 93 3e 20 1a c8 3e
       0.3600695 -0.1739438 0.28809327 0.39082432
0002a0 9d 7f f2 3d ad bc 7d be e6 6e d7 3d eb 3e 25 3e
       0.118407466 -0.24779005 0.10519199 0.16137283
0002b0 90 d7 87 bc 94 c0 e3 bd 92 fd b9 be 11 da 90 bd
       -0.01658228 -0.11120716 -0.3632627 -0.07072843
0002c0 99 5c 86 be 15 a9 4b 3d e7 75 54 bd 77 8f 7c 3e
       -0.2624252 0.049721796 -0.051870253 0.24664102
0002d0 39 99 5e bd d4 f4 35 bd bc aa 1b ba 4b 4b b4 bd
       -0.054345343 -0.04442294 -0.0005938222 -0.088034235
0002e0 12 e1 83 3e 00 d1 34 be 52 ba d3 3e c3 07 0d 3e
       0.25757653 -0.17657852 0.4135309 0.13772492
0002f0 2b 9c 53 3d 72 bb fc bc 2c 1f df 3d 6f bf 5d 3d
       0.051662605 -0.0308511 0.108946174 0.054137643
000300 22 7c 56 3e 69 16 f8 bd f3 4b 45 3e 71 e5 b9 3d
       0.2094579 -0.121136494 0.19267254 0.090769656
000310 e8 72 a4 3d 64 3f 3f 3c 07 ab e0 bc f3 be 99 bd
       0.08029729 0.011672828 -0.027425302 -0.07507124
000320 14 06 10 bf 53 88 97 bd da ca 45 3d 47 34 60 3e
       -0.56259274 -0.07399049 0.048289157 0.21894942
000330 61 15 84 be 1c 5f aa bc ad b4 ae bd 3e 26 a0 bd
       -0.2579756 -0.020797305 -0.08530555 -0.07819794
000340 60 10 56 be 5e 00 f8 bd 75 4a 27 be cc 18 8f 3d
       -0.20904684 -0.12109445 -0.16336997 0.069871515
000350 3f 04 8a be 32 79 2c 3c 3f db df 3d 07 21 30 be
       -0.26956365 0.010526942 0.1093049 -0.17200099
000360 3c 55 95 3d 46 2f 19 be 38 6d 0a 3e 50 d1 03 bf
       0.07291648 -0.1495944 0.13518226 -0.5149126
000370 91 1f a9 3e d2 21 84 bd b9 87 ef bd 4a 93 69 be
       0.33031896 -0.06451763 -0.11695809 -0.22810093
000380 d8 0e a2 bd 13 3f 7e 3e 8d f3 d5 3d 4d 7e 15 bd
       -0.079129875 0.24828748 0.10446844 -0.036497403
000390 5e 28 5c bd 96 89 38 bd 36 29 0c 3e 60 9f 30 bd
       -0.053749435 -0.045053087 0.13687596 -0.04312074
0003a0 aa e8 9f 3e 32 60 e8 3d db 50 bb 3d 9c b0 60 3e
       0.31232196 0.11346473 0.09146281 0.21942371
0003b0 ec a6 09 3e 06 55 bd 3d f3 c5 20 be 53 1e 20 3e
       0.13442582 0.092447326 -0.15700512 0.15636568
0003c0 4e a8 99 3e fe 40 0a 3e f3 ae 1e 3e f9 64 25 be
       0.3001122 0.13501355 0.15496425 -0.161518
0003d0 e6 1d ab 3e 7f 25 2b be ff 0f 53 3d 54 55 dd be
       0.33421248 -0.16713522 0.051528927 -0.43229163
0003e0 7a 4d 46 be a9 17 53 be 2c 28 00 3f 2e 1e 95 3e
       -0.19365492 -0.20614494 0.500613 0.29124588
0003f0 bb 3d b0 bd f8 d4 9f 3c 21 1f 60 3d 13 17 07 3e
       -0.08605524 0.019510731 0.054717187 0.13192396

r_cell.fc.bias f4 [24]
000000 91 3b 14 be cd 38 16 3d 88 b4 6a 3d d8 b3 3b bb
       -0.14475848 0.036675263 0.057301074 -0.002864113
000010 8d 8f 8d bd 37 e1 86 3d ec 43 61 3e e9 0c 0a 3e
       -0.06912146 0.06585925 0.21998566 0.13481487
000020 37 62 e7 3d 2d 2c e7 3d f8 99 a9 3c 4b 13 11 be
       0.1129803 0.11287723 0.0207033 -0.14167516
000030 78 bd 20 be ce 14 0a be 30 f8 d2 bd 73 49 cf 3d
       -0.15697277 -0.13484499 -0.10301244 0.10121431
000040 c7 95 64 be ea bd 8c be 3b 0b 96 3d 2a 0c 5a bd
       -0.2232276 -0.27488643 0.07326361 -0.053234257
000050 8d 84 df 3a 2c 52 9c bc 9b ed 5c bd 8b c2 28 3e
       0.0017053053 -0.019082151 -0.053937536 0.16480462

fc1.0.bias f4 [24]
000000 e5 82 43 bd 45 0a d9 bd b0 dd 4c 3d e6 17 83 bd
       -0.047732253 -0.10597662 0.050016105 -0.06401043
000010 93 2a ed 3d d6 d0 4a 3d 9d 02 c1 bc 8e 21 a9 3d
       0.11580386 0.049515568 -0.023560816 0.08258353
000020 79 be 43 3c 07 c0 0f bd 0f b3 06 bc a5 72 06 3d
       0.011947268 -0.03509524 -0.008221402 0.032824177
000030 27 52 be bc ec 82 6b bd 69 bc 1a bd 16 79 90 3c
       -0.023232533 -0.057497904 -0.03777734 0.017635863
000040 8d 4d ce 3d 7c 88 24 bd c1 34 95 3d c9 f0 85 3c
       0.100733854 -0.040169224 0.07285453 0.016350167
000050 dc a9 1e 3d 4f be 15 bd f0 02 f1 bc a3 fc a4 bd
       0.03873621 -0.036558446 -0.029420346 -0.08055999

fc1.0.weight_orig f4 [24, 24]
000000 94 fb 87 3a 35 0c 96 be 0f 09 bb 3e cd d1 b8 3d
       0.0010374659 -0.29306188 0.3653035 0.09024391
000010 86 16 de 3e e7 04 db 3d a1 66 39 3e 39 79 97 3b
       0.4337656 0.106942944 0.18105556 0.004622605
000020 97 88 48 be 4c 16 5b 3e d4 3f 57 bd 75 1f 1d 3f
       -0.19583355 0.21395224 -0.052551106 0.61376125
000030 70 a2 ab 3e a4 fb 29 3e ab 02 13 3e 08 f3 8f be
       0.33522367 0.165999 0.14356486 -0.28115106
000040 9f 63 f6 3c dd f5 5b 3e 47 28 35 3c b6 13 4a be
       0.0300768 0.21480508 0.011056966 -0.19734082
000050 fe a5 a2 3e 61 d9 13 bf 79 af b5 be 83 b4 26 bb
       0.31767267 -0.5775357 -0.35485438 -0.0025437183
000060 76 cb 0e 3f 69 73 20 be 06 c2 51 bd 12 5d c0 3e
       0.55779207 -0.15669025 -0.051210426 0.37571007
000070 d7 60 2a bd 4b 74 25 3e ad a4 f5 bd ec 28 bc 3b
       -0.04159626 0.16157643 -0.119943 0.005742183
000080 a6 62 82 3e 91 bf 28 be 59 38 ab be 8e 3e 80 3e
       0.25465888 -0.16479327 -0.33441427 0.25047725
000090 00 5e 52 be b9 9f 99 3b 6e ff b4 be 02 58 ce 3d
       -0.2054367 0.00468823 -0.35351127 0.1007538
0000a0 11 fa 03 3f 03 2a 6a 3e a1 b7 0b 3e 5b 59 f1 bd
       0.51553446 0.22867589 0.13644268 -0.11784621
0000b0 0e 0e 03 3e e1 c7 f1 bd 9f 88 ee 3e 49 00 62 be
       0.1279833 -0.11805702 0.4658861 -0.22070421
0000c0 66 0e 38 bf aa 49 e7 3d 01 0a a3 be 3c 69 c4 be
       -0.7189697 0.11293347 -0.3184357 -0.38361537
0000d0 3c 0d 71 3d a1 99 db 3e 3d 23 7a be 7a f7 65 be
       0.058850512 0.42890647 -0.24427505 -0.22457686
0000e0 0c 7d d2 be d6 a5 d0 3d d3 ca 9f 3e 06 86 2d 3d
       -0.41111028 0.10187881 0.3120943 0.042364143
0000f0 6d 2e 1e 3f 91 ea 0f 3e 20 b7 81 3d b7 b2 8c be
       0.6178959 0.14054324 0.063337564 -0.274801
000100 36 c7 5a be bf 62 91 3e 4a 86 9b bd e4 4f dd 3e
       -0.21365055 0.2839565 -0.07593973 0.43225014
000110 56 ce 42 3d cd 30 a8 3d f5 0b 5b bd 0e 75 66 3e
       0.04756006 0.08212433 -0.0534782 0.2250559
000120 1a cc d1 3e df 2f c9 be 7d 8c 84 3c b8 83 8d 3d
       0.4097603 -0.39294335 0.016180271 0.06909889
000130 44 d4 44 be a9 12 ee 3d fd ee 00 3e 85 c6 0f be
       -0.19221598 0.11624653 0.12591167 -0.14040573
000140 65 a5 16 3f 78 44 77 be 2e 3a 9b be 8f f7 5d be
       0.5884612 -0.24147213 -0.30317825 -0.21676467
000150 01 aa 9c be 05 5d 18 be ab 0c 0b 3f bb 90 e4 3e
       -0.30598453 -0.14879234 0.54316205 0.4464167
000160 a2 f8 bf bd 37 49 10 3f e7 9b 4d 3e 12 4a 85 bd
       -0.09373595 0.56361717 0.20079003 -0.065082684
000170 64 51 58 3e 53 09 b6 be 5f b6 21 3e 26 d7 db bd
       0.21124798 -0.3555399 0.15792225 -0.10734396
000180 6a 5b 04 3e 41 ec 93 3e f1 09 2e bd c7 33 b5 3e
       0.12925497 0.28891185 -0.04248995 0.35391065
000190 7f 55 db bb a4 4a ae be 74 f8 1c bc e8 ab c6 3e
       -0.0066935415 -0.3404132 -0.00958072 0.3880303
0001a0 7c d8 cb be 47 4a dd be 7e c1 b5 3d 79 77 1c 3e
       -0.39813602 -0.43220732 0.08874796 0.1527995
0001b0 7d 82 c6 bd 9c fa a2 be 5d a9 84 3e 1b 26 ee be
       -0.096928574 -0.31831825 0.25910464 -0.46513447
0001c0 88 87 3c be 32 a5 c1 be b0 9a 8a be b9 5d d9 3d
       -0.18411076 -0.37821347 -0.27071142 0.10613579
0001d0 08 47 9b be c5 6a da 3d a4 85 95 be b4 20 07 be
       -0.3032763 0.10664896 -0.29203522 -0.13196069
0001e0 bc 95 30 be ef 25 f4 3e 94 ef d3 3c 41 b9 5f 3e
       -0.17244619 0.4768519 0.025871076 0.21848013
0001f0 47 37 24 be 59 29 ba be fc 08 08 bf 37 f1 20 3f
       -0.16036712 -0.3635967 -0.5313871 0.62868065
000200 48 bd 48 bf e3 48 76 bd 6e fe 89 be 26 38 8d 3d
       -0.7841382 -0.060128104 -0.26951927 0.06895475
000210 1e 4f e8 3d 87 5b 5c 3e 2b d7 7c be f2 f2 01 3f
       0.113432154 0.2151929 -0.24691455 0.5076133
000220 d0 c2 3a bd 2b a8 5c 3e de 00 81 3e c8 2d a6 bd
       -0.045595944 0.21548526 0.25195974 -0.08114201
000230 82 97 d0 3c 72 9e 72 3e d8 1a 7c be 11 58 76 be
       0.02546287 0.23693255 -0.24619615 -0.24057032
000240 32 d2 0e 3c 2c 56 4e be 21 62 84 be 29 91 ea 3e
       0.008717107 -0.2015006 -0.25856116 0.45813873
000250 56 ab a6 3e a3 cd 00 3e 55 6c 90 3e 0e 3a a0 be
       0.32552594 0.12578444 0.2820765 -0.31294292
000260 e5 1d 9a bd fd a0 8e 3d 9f 30 95 be 81 ce 24 3e
       -0.07525233 0.069643 -0.29138657 0.160944
000270 6b 84 69 bc b6 4d 7b bd 69 d7 1c 3f fa 3d 37 be
       -0.014252762 -0.061353408 0.6126619 -0.17894736
000280 41 9a 94 3c ae 7a 8e 3e 0f 22 d3 be dd 89 87 be
       0.01813996 0.27827972 -0.41236922 -0.2647237
000290 cf 19 a4 3d 3a ba 1c bf ce b7 d5 be 3e ce 98 3e
       0.08012735 -0.6122166 -0.41741794 0.2984485
0002a0 0f 94 df 3d 4d 21 8f 3d f3 31 85 bd ca 1c 81 be
       0.10916912 0.069887735 -0.06503668 -0.25217277
0002b0 76 39 90 3e e8 1d c0 3e d5 ba db bd 64 9c c3 bd
       0.2816884 0.37522817 -0.10728995 -0.095513135
0002c0 7b 1e a3 be e7 03 94 3e cb ab 76 3d 06 c9 83 bd
       -0.31859192 0.28909227 0.06022243 -0.064348266
0002d0 98 10 b6 be d3 c4 a2 bd a4 c3 28 3e 28 d0 29 be
       -0.35559535 -0.079476975 0.16480881 -0.16583312
0002e0 a9 3c 44 3c 42 9e 0c bf c1 7b 4c 3e 84 5d d1 3e
       0.011977353 -0.5492898 0.19969083 0.4089166
0002f0 3b 59 c5 be e8 e9 ef be 6e 71 2f be bd 2f 1c be
       -0.3854464 -0.46858144 -0.17133114 -0.15252586
000300 42 c4 87 3b b0 3f 72 3e d2 bb 2c 3e e0 9d 4f 3e
       0.004143269 0.23657107 0.16868523 0.20275068
000310 1a c1 9c bd 95 68 ce bd 5c 9f 99 3e ac 4e 0d 3d
       -0.07654019 -0.10078541 0.30004394 0.034498855
000320 f7 44 14 be a7 82 d7 be 2f f8 30 3d 73 19 47 3e
       -0.14479433 -0.42091867 0.043205436 0.19443302
000330 f9 44 d3 3e 5c eb 84 be 9f 4c e8 3e 89 c1 d3 be
       0.4126356 -0.25960815 0.45370957 -0.41358593
000340 4a 5b 81 3e 1a 20 5c bd 91 0f d9 bd a5 73 24 3e
       0.2526496 -0.053741552 -0.10598672 0.1605974
000350 6a a2 09 3d 5e fe 9c be ed 57 be be f1 aa ed bd
       0.033602156 -0.30662817 -0.37176457 -0.1160487
000360 26 ef 28 be 25 15 39 3e 0e 14 b2 3e f1 3a 38 3e
       -0.16497478 0.18074472 0.34780926 0.17991234
000370 68 a7 b0 be c7 d0 dc 3d e4 ac 01 bf b7 37 39 bd
       -0.3450272 0.107820086 -0.50654435 -0.04521915
000380 46 78 65 be 1d a8 b4 be d2 a6 01 bd 30 5a 84 be
       -0.22409162 -0.3528451 -0.031653233 -0.25850058
000390 e5 26 87 bc a0 6c 85 3e 81 e4 9a be b1 d9 0a 3e
       -0.016498039 0.26059437 -0.3025246 0.13559605
0003a0 9b ab a9 3c f6 23 68 be a7 24 97 be ce c1 fb 3d
       0.02071171 -0.22669968 -0.2952015 0.12292825
0003b0 3f 2b a1 bd b0 c8 90 3b 5d 40 7d 3e 4e bb 8b bc
       -0.07869577 0.004418455 0.24731584 -0.017057087
0003c0 9e 8a ae be 9c 41 24 3e f5 7f ff 3d cf fa 49 3e
       -0.34090132 0.16040653 0.12475578 0.19724582
0003d0 6c 0a a1 be c6 55 48 3e d4 f4 71 3e f6 ef aa bd
       -0.31453264 0.1956397 0.23628551 -0.0834655
0003e0 c0 da 51 be b9 d0 3b bd 37 7d 91 bc c2 fc 08 3e
       -0.20493603 -0.04585335 -0.017759902 0.1337767
0003f0 50 58 52 be 85 05 cd 3b 3d 5e 90 3e 79 b1 27 be
       -0.20541501 0.0062567615 0.28196898 -0.16376294

fc1.0.weight_u f4 [24]
000000 d6 41 80 be d8 cd a1 bd a3 64 8f bd 28 1d cc bd
       -0.2505023 -0.0790059 -0.07001617 -0.099664986
000010 4a d7 52 3e b6 fb 7f 3e 60 7c 23 be c7 36 05 3e
       0.20589939 0.24998364 -0.15965414 0.13009177
000020 c5 92 48 3c 0f 89 bc 3d 7b 28 a2 bd 81 1e bb 3d
       0.012242024 0.09205829 -0.07917877 0.091366775
000030 bc 6c d1 be 68 fe 5d be 48 96 df 3e 68 79 96 be
       -0.4090327 -0.2167908 0.43669343 -0.293895
000040 13 2d cd 3e e8 01 21 be f9 a9 d2 3d c1 7a 05 be
       0.4007345 -0.15723383 0.10286326 -0.13035108
000050 8a 0a 19 3e 5b 34 56 bc dd 4f 08 be b7 2b 0a bd
       0.14945427 -0.013074006 -0.13311715 -0.033733096

fc1.0.weight_v f4 [24]
000000 19 c0 cb 3d 19 e6 89 3e 89 ac 29 be 1a 28 11 3d
       0.09948749 0.26933363 -0.16569723 0.035438634
000010 ba eb 23 3b 77 8b 89 be 22 a1 dd be 1d 99 40 3e
       0.002501233 -0.26864216 -0.43286997 0.18808408
000020 82 62 05 be 28 cf b8 bd 08 5c f8 3d e3 19 b8 be
       -0.13025859 -0.09023887 0.121269286 -0.3595725
000030 8f 55 4a be 9d 35 0f be a9 87 d0 3d 02 d9 15 3e
       -0.197592 -0.13985296 0.10182125 0.14633563
000040 f6 ee 3a 3e c7 17 86 be db 67 ce 3d 6b 2f 53 3e
       0.18255219 -0.26190016 0.100784026 0.20623557
000050 d4 30 09 be 37 cb 46 3e 82 4f a6 be 3f ef 0b be
       -0.13397533 0.19413458 -0.32482535 -0.13665484
