models/17_05_2021/stock_self_attn_MSE_hinge_10000_64_24_6_24_5/2500_generator.pth (torch, 54798 bytes, 39 tensors)

position.pe f4 [1, 24, 24]
0	0x00000000	0.0
1	0x3f800000	1.0
2	0x00000000	0.0
3	0x3f800000	1.0
4	0x00000000	0.0
5	0x3f800000	1.0
6	0x00000000	0.0
7	0x3f800000	1.0
8	0x00000000	0.0
9	0x3f800000	1.0
10	0x00000000	0.0
11	0x3f800000	1.0
12	0x00000000	0.0
13	0x3f800000	1.0
14	0x00000000	0.0
15	0x3f800000	1.0
16	0x00000000	0.0
17	0x3f800000	1.0
18	0x00000000	0.0
19	0x3f800000	1.0
20	0x00000000	0.0
21	0x3f800000	1.0
22	0x00000000	0.0
23	0x3f800000	1.0
24	0x3f576aa4	0.84147096
25	0x3f0a5141	0.54030234
26	0x3ee5351d	0.44767085
27	0x3f64ea30	0.8941984
28	0x3e5ae952	0.21378067
29	0x3f7a14eb	0.9768817
30	0x3dcc7576	0.099833414
31	0x3f7eb898	0.9950042
32	0x3d3e0d1e	0.04639923
33	0x3f7fb96a	0.99892294
34	0x3cb07a47	0.021542681
35	0x3f7ff0ca	0.9997679
36	0x3c23d657	0.009999833
37	0x3f7ffcb9	0.99995
38	0x3b981857	0.0046415734
39	0x3f7fff4b	0.9999892
40	0x3b0d3164	0.0021544332
41	0x3f7fffd9	0.9999977
42	0x3a83126d	0.0009999998
43	0x3f7ffff8	0.9999995
44	0x39f35a5c	0.00046415895
45	0x3f7ffffe	0.9999999
46	0x3961e8ab	0.00021544348
47	0x3f800000	1.0
48	0x3f68c7b7	0.9092974
49	0xbed51133	-0.41614684
50	0x3f4cf4fb	0.8006131
51	0x3f1963f8	0.59918165
52	0x3ed5d9be	0.41767687
53	0x3f6899b9	0.9085956
54	0x3e4b6ff8	0.19866931
55	0x3f7ae5a5	0.9800666
56	0x3dbdd8b7	0.09269851
57	0x3f7ee5d1	0.9956942
58	0x3d306fcb	0.043075364
59	0x3f7fc32c	0.99907184
60	0x3ca3d43e	0.019998666
61	0x3f7ff2e5	0.9998
62	0x3c1817ec	0.009283047
63	0x3f7ffd2d	0.9999569
64	0x3b8d314e	0.004308856
65	0x3f7fff64	0.9999907
66	0x3b031268	0.0019999985
67	0x3f7fffdf	0.99999803
68	0x3a735a5b	0.00092831784
69	0x3f7ffff9	0.9999996
70	0x39e1e8ab	0.00043088695
71	0x3f7fffff	0.99999994
72	0x3e1081c3	0.14112
73	0xbf7d7026	-0.9899925
74	0x3f7bf0ce	0.98414314
75	0x3e35a216	0.17737612
76	0x3f1a2dc8	0.60226107
77	0x3f4c5d56	0.7982992
78	0x3e974e6c	0.2955202
79	0x3f7490ef	0.9553365
80	0x3e0e2117	0.1387981
81	0x3f7d85a8	0.9903207
82	0x3d8446bd	0.06458805
83	0x3f7f7729	0.997912
84	0x3cf5b91f	0.0299955
85	0x3f7fe283	0.99955004
86	0x3c6422d5	0.01392432
87	0x3f7ff9a6	0.9999031
88	0x3bd3c9bf	0.006463259
89	0x3f7ffea2	0.99997914
90	0x3b449b92	0.0029999954
91	0x3f7fffb5	0.9999955
92	0x3ab683c2	0.0013924765
93	0x3f7ffff0	0.99999905
94	0x3a296e7f	0.00064633036
95	0x3f7ffffd	0.9999998
96	0xbf41bdcf	-0.7568025
97	0xbf275530	-0.6536436
98	0x3f759ce7	0.9594254
99	0xbe905d6c	-0.28196275
100	0x3f424dbe	0.75899875
101	0x3f26adf9	0.6510921
102	0x3ec761d7	0.38941833
103	0x3f6bcaa7	0.921061
104	0x3e3d0773	0.18459873
105	0x3f7b99b2	0.98281395
106	0x3db045df	0.08607077
107	0x3f7f0ccc	0.996289
108	0x3d23cbdb	0.039989334
109	0x3f7fcb94	0.9992001
110	0x3c98163e	0.018565293
111	0x3f7ff4b4	0.9998276
112	0x3c0d30f8	0.008617632
113	0x3f7ffd91	0.99996287
114	0x3b831257	0.003999989
115	0x3f7fff7a	0.999992
116	0x3af35a54	0.0018566349
117	0x3f7fffe3	0.9999983
118	0x3a61e8a9	0.0008617738
119	0x3f7ffffa	0.99999964
120	0xbf757c10	-0.9589243
121	0x3e913c2c	0.2836622
122	0x3f3b500a	0.73169005
123	0xbf2e7fcb	-0.68163747
124	0x3f6171cf	0.88064283
125	0x3ef29363	0.47378072
126	0x3ef57743	0.47942552
127	0x3f60a940	0.87758255
128	0x3e6b8593	0.23000173
129	0x3f7922ff	0.97319025
130	0x3ddc300e	0.10751353
131	0x3f7e8421	0.9942036
132	0x3d4cb6f4	0.049979165
133	0x3f7fae19	0.99875027
134	0x3cbe1a3c	0.023205869
135	0x3f7fee5a	0.9997307
136	0x3c307ce6	0.010771966
137	0x3f7ffc33	0.999942
138	0x3ba3d6dd	0.004999979
139	0x3f7fff2e	0.9999875
140	0x3b181871	0.0023207928
141	0x3f7fffd3	0.9999973
142	0x3a8d3169	0.0010772172
143	0x3f7ffff6	0.9999994
144	0xbe8f0f8c	-0.2794155
145	0x3f75cdb8	0.96017027
146	0x3eb2c0c6	0.349127
147	0xbf6fe42d	-0.93707544
148	0x3f762963	0.961569
149	0x3e8c938f	0.27456328
150	0x3f108c68	0.5646424
151	0x3f534932	0.8253356
152	0x3e8cc0e9	0.2749093
153	0x3f7622e9	0.9614702
154	0x3e040009	0.12890638
155	0x3f7ddd38	0.9916568
156	0x3d759cd1	0.059964005
157	0x3f7f8a12	0.99820054
158	0x3ce41d2b	0.02784594
159	0x3f7fe696	0.9996122
160	0x3c53c89d	0.012926248
161	0x3f7ffa86	0.99991643
162	0x3bc49b58	0.0059999637
163	0x3f7ffed2	0.999982
164	0x3b3683b7	0.0027849504
165	0x3f7fffbf	0.9999961
166	0x3aa96e7d	0.0012926605
167	0x3f7ffff2	0.99999917
168	0x3f283046	0.6569866
169	0x3f40ffbd	0.75390226
170	0xbddbc69f	-0.10731243
171	0xbf7e858d	-0.9942253
172	0x3f7f7f41	0.9980355
173	0x3d804f23	0.06265094
174	0x3f24eb72	0.6442176
175	0x3f43ccb3	0.7648422
176	0x3ea3716a	0.31922466
177	0x3f729b18	0.94767904
178	0x3e19d85d	0.15023942
179	0x3f7d1825	0.98864967
180	0x3d8f3e32	0.06994285
181	0x3f7f5f81	0.997551
182	0x3d050f6e	0.032485418
183	0x3f7fdd69	0.9994722
184	0x3c771415	0.0150804715
185	0x3f7ff88c	0.9998863
186	0x3be55fc5	0.006999942
187	0x3f7ffe65	0.9999755
188	0x3b54eef8	0.003249107
189	0x3f7fffa8	0.99999475
190	0x3ac5ab91	0.0015081038
191	0x3f7fffed	0.99999887
192	0x3f7d4695	0.98935825
193	0xbe14fdf6	-0.14550003
194	0xbf0a81e3	-0.5410444
195	0xbf574b62	-0.840994
196	0x3f7d04e9	0.9883562
197	0xbe1bcf59	-0.15215816
198	0x3f37a4a5	0.717356
199	0x3f325b5f	0.6967067
200	0x3eb9c7cb	0.36285242
201	0x3f6e8d80	0.9318466
202	0x3e2f9e69	0.17150272
203	0x3f7c34ff	0.98518366
204	0x3da3aa50	0.07991469
205	0x3f7f2e65	0.9968017
206	0x3d180f89	0.03712419
207	0x3f7fd2d3	0.9993107
208	0x3c8d2fa1	0.017234625
209	0x3f7ff644	0.99985147
210	0x3c031212	0.007999914
211	0x3f7ffde7	0.999968
212	0x3b735a38	0.0037132632
213	0x3f7fff8c	0.9999931
214	0x3ae1e8a4	0.001723547
215	0x3f7fffe7	0.9999985
216	0x3ed30132	0.4121185
217	0xbf693fd5	-0.91113025
218	0xbf5c3bf1	-0.86028963
219	0xbf02829f	-0.5098056
220	0x3f6ed7af	0.9329786
221	0xbeb84901	-0.35993198
222	0x3f48881c	0.78332686
223	0x3f1f21d5	0.62161
224	0x3ecfb7ba	0.4056986
225	0x3f69fc5c	0.91400695
226	0x3e454f97	0.19268642
227	0x3f7b33e1	0.98126036
228	0x3db8123e	0.089878544
229	0x3f7ef6c2	0.9959527
230	0x3d2b0ecd	0.041762162
231	0x3f7fc6d3	0.99912757
232	0x3c9ed50c	0.019388698
233	0x3f7ff3ae	0.999812
234	0x3c13743a	0.008999879
235	0x3f7ffd59	0.9999595
236	0x3b88e2ba	0.0041774185
237	0x3f7fff6e	0.9999913
238	0x3afe25b6	0.0019389901
239	0x3f7fffe1	0.99999815
240	0xbf0b44f8	-0.5440211
241	0xbf56cd64	-0.8390715
242	0xbf7f5bd1	-0.99749476
243	0xbd90e07e	-0.070740685
244	0x3f559f61	0.8344632
245	0xbf0d1282	-0.55106366
246	0x3f576aa4	0.84147096
247	0x3f0a5141	0.54030234
248	0x3ee5351e	0.44767088
249	0x3f64ea30	0.8941984
250	0x3e5ae953	0.21378069
251	0x3f7a14eb	0.9768817
252	0x3dcc7576	0.099833414
253	0x3f7eb898	0.9950042
254	0x3d3e0d21	0.04639924
255	0x3f7fb96a	0.99892294

r_cell.w_qs.weight f4 [24, 24]
0	0xbeaf305e	-0.3421659
1	0x3da20281	0.07910634
2	0x3e6fadc6	0.23406133
3	0x3ecf05c6	0.40434092
4	0xbd07a744	-0.0331185
5	0xbd873fca	-0.06603964
6	0xbd878d64	-0.06618765
7	0x3eb5eb8d	0.35531273
8	0x3ee3427a	0.44386655
9	0x3d6c6905	0.057717342
10	0x3d46b061	0.04850805
11	0xbdcdfc4c	-0.100578874
12	0x3f01b61d	0.5066851
13	0xbed44175	-0.4145619
14	0xbdefc0a1	-0.11706663
15	0xbe52c0e0	-0.20581388
16	0x3e94687d	0.28985968
17	0xbe1c6210	-0.15271783
18	0xbddf1ff7	-0.10894769
19	0x3e093287	0.13398181
20	0x3e043991	0.12912585
21	0x3d7bba8d	0.061457206
22	0x3eeaee20	0.458848
23	0xbebf4100	-0.3735428
24	0x3cbc1f3e	0.022964116
25	0xbe13a36a	-0.14417806
26	0x3e0cba06	0.13742837
27	0xbd8a8e7a	-0.067654565
28	0xbe53e480	-0.20692635
29	0xbe3a0506	-0.18165979
30	0x3ede1644	0.43376362
31	0xbe81bf5e	-0.25341314
32	0x3e8f074e	0.2793526
33	0x3e2ba5e4	0.16762501
34	0xbdbd2ea3	-0.09237411
35	0xbd4c4981	-0.049874786
36	0x3e48552a	0.19563738
37	0x3ea9d7d8	0.33172488
38	0xbf0b18b0	-0.54334545
39	0xbdfbb75b	-0.12290832
40	0x3e8cb9c6	0.27485484
41	0x3e8c5dc3	0.27415285
42	0xbc2a0396	-0.0103768315
43	0x3ecf3608	0.4047091
44	0x3e2f9a65	0.1714874
45	0x3da9410a	0.08264358
46	0x3e388d6d	0.180227
47	0xbbb6bed0	-0.005576946
48	0xbcb39043	-0.021919375
49	0xbe05417f	-0.13013266
50	0xbc8b3cbb	-0.016996732
51	0x3e6acc83	0.22929578
52	0xbe8ae614	-0.2712866
53	0x3e892920	0.26789188
54	0x3d03b70e	0.032156996
55	0x3e6c5cd0	0.2308228
56	0xbe908586	-0.2822687
57	0xbe92f3fa	-0.28701764
58	0x3e2874c6	0.16450796
59	0x3f015731	0.5052367
60	0x3ef25169	0.47327736
61	0x3de4c7eb	0.11170944
62	0x3e669557	0.22517906
63	0x3d96e2c7	0.07367473
64	0xbceb2839	-0.028705703
65	0xbe33f90d	-0.17575474
66	0xbee00f6f	-0.43761775
67	0xbeefbb6e	-0.46822685
68	0xbdda52e1	-0.10660339
69	0xbdc21659	-0.09476919
70	0xbe7c7bc7	-0.24656592
71	0xbde881a3	-0.11352851
72	0x3daebf5c	0.08532593
73	0x3d021941	0.031762365
74	0xbe00c12d	-0.1257369
75	0x3ebfdc08	0.37472558
76	0xbe8a63b5	-0.27029195
77	0x3d154fd7	0.036453094
78	0xbe8c50d4	-0.27405417
79	0x3e383235	0.17987902
80	0x3eeb53cc	0.4596237
81	0xbe760513	-0.24025373
82	0x3d85cba4	0.06532982
83	0xbdac0f61	-0.08401371
84	0x3e900d2a	0.28135043
85	0xbeb80b3a	-0.35946065
86	0xbe5de290	-0.21668458
87	0x3e9b3f81	0.30321887
88	0xbe888af2	-0.26668507
89	0xbd4b547d	-0.04964112
90	0xbdf8f3f6	-0.12155907
91	0x3eb59ae6	0.3546974
92	0x3e4638f5	0.19357665
93	0x3e218d1d	0.15776487
94	0xbe1b11f8	-0.15143573
95	0xbe72f384	-0.23725706
96	0x3e15631a	0.14588585
97	0x3e9a84ed	0.3017954
98	0x3e3947a8	0.18093741
99	0xbe01c84a	-0.1267406
100	0x3ec09929	0.37616852
101	0x3b1bb824	0.002376088
102	0xbc2c13b5	-0.010502745
103	0xbeb1a40d	-0.34695473
104	0x3d660ce5	0.05616464
105	0x3ede2ba9	0.43392685
106	0xbe5c6b83	-0.21525387
107	0xbe18946a	-0.14900365
108	0xbf1a059f	-0.6016483
109	0xbf37bf82	-0.7177659
110	0x3e0aaf40	0.13543415
111	0xbd8837a4	-0.066512376
112	0xbe2aca87	-0.1667882
113	0x3dad81b2	0.08472003
114	0xbbca4c6c	-0.006173661
115	0xbe9bd2e5	-0.30434337
116	0xbb84930b	-0.004045849
117	0x3e31b30e	0.1735346
118	0xbdaaefbe	-0.083465084
119	0x3d5a1474	0.053242162
120	0x3e56cf25	0.20977457
121	0x3d87ac5a	0.0662467
122	0xbd599c8b	-0.053127807
123	0xbd882d3c	-0.06649253
124	0xbe61895f	-0.22025059
125	0x3d594d76	0.053052388
126	0x3e2ca432	0.1685951
127	0xbdffc1ec	-0.124881595
128	0x3e284a71	0.16434647
129	0x3e8cd947	0.2750952
130	0xbf2f0b3a	-0.68376505
131	0xbe9af270	-0.3026309
132	0x3f185539	0.5950504
133	0x3d19f56e	0.037587576
134	0xbcd05471	-0.02543089
135	0x3d8af4a4	0.06784943
136	0xbc9a325c	-0.018822841
137	0xbd0fd0b4	-0.035111144
138	0x3ea421a1	0.32056907
139	0x3dd7d40f	0.10538494
140	0xbef856fe	-0.4850387
141	0x3e97903c	0.2960223
142	0x3dee5d74	0.116389185
143	0xbda700e1	-0.081544645
144	0xbebb6515	-0.36600557
145	0xbe773559	-0.24141444
146	0xbf07c259	-0.53030926
147	0x3e091c04	0.13389593
148	0xbf010eb8	-0.50413084
149	0xbe0e4b74	-0.1389597
150	0xbddeab73	-0.10872545
151	0xbe44a123	-0.19202094
152	0x3e06fe5f	0.13182972
153	0x3e5e6add	0.21720453
154	0x3edd072c	0.43169534
155	0x3e88833f	0.26662633
156	0xbdddc4a0	-0.10828519
157	0xbe50fbaf	-0.2040851
158	0x3efffc4b	0.49997172
159	0xbe85d942	-0.26142317
160	0xbe8c471d	-0.27398005
161	0x3d92379b	0.07139512
162	0xbe696c1c	-0.22795147
163	0x3ebe7a53	0.372027
164	0xbdc888c9	-0.09791715
165	0xbe0d8b93	-0.13822775
166	0x3eeaa098	0.45825648
167	0x3e98033b	0.29689965
168	0x3d9b7ae6	0.075918004
169	0x3e193b85	0.14964111
170	0x3e0ec97b	0.13944046
171	0xbdce0da9	-0.10061199
172	0xbeacdbeb	-0.33761534
173	0x3e98e5a4	0.29862702
174	0x3e6da870	0.23208785
175	0x3ea6f02a	0.32605106
176	0x3d88bca3	0.066766046
177	0x3dc95929	0.09831459
178	0x3f204b80	0.62615204
179	0xbebbad00	-0.36655426
180	0xb9ffd378	-0.00048794947
181	0xbeec936e	-0.4620623
182	0x3db49337	0.088171415
183	0x3dbdbd3f	0.092646115
184	0x3efd2df7	0.4944913
185	0x3c732005	0.014839177
186	0xbd09cc2a	-0.03364197
187	0x3e0ddcb7	0.13853727
188	0x3f811d17	1.0087003
189	0x3e872088	0.26392007
190	0x3e179fa0	0.14806986
191	0xbe1b8418	-0.15187109
192	0x3ddf9f4a	0.10919054
193	0x3e2736f3	0.16329555
194	0x3e9d2c13	0.30697688
195	0x3dd7048a	0.10498913
196	0x3e49b1e2	0.19696763
197	0xbd1e6cfa	-0.038678147
198	0xbe1fc991	-0.15604235
199	0x3e0fe741	0.1405306
200	0x3e71d735	0.23617251
201	0xbf34017b	-0.7031476
202	0xbe967ac6	-0.29390544
203	0xbe37da41	-0.17954351
204	0xbd6da2da	-0.058016635
205	0xbe4e0d9a	-0.20122376
206	0xbce8a36c	-0.028398238
207	0x3f3f0d26	0.7462944
208	0x3de7a595	0.11310879
209	0xbae54986	-0.0017493225
210	0xbde2e9f7	-0.110797815
211	0x3edb16af	0.42790744
212	0x3e27ad71	0.16374756
213	0x3e2744c3	0.16334824
214	0xbee0fc4b	-0.43942484
215	0xbe55e65e	-0.2088866
216	0x3e24e211	0.16101862
217	0xbd955816	-0.07292192
218	0xbe32073a	-0.17385569
219	0xbe2e1aa9	-0.17002358
220	0xbef49356	-0.47768658
221	0xbe0df2f4	-0.1386221
222	0xbe34378f	-0.17599319
223	0xbcb24489	-0.021761196
224	0x3c2d0b01	0.010561706
225	0x3e119a32	0.14218977
226	0x3e8b9790	0.2726407
227	0x3f3c6871	0.73596865
228	0x3e8db256	0.27675122
229	0xbe1597a0	-0.14608622
230	0xbea15f69	-0.31518105
231	0xbe066a50	-0.13126493
232	0x3e95b962	0.29242998
233	0xbc94c0e3	-0.018158382
234	0xbe1eeda1	-0.15520336
235	0x3dae4935	0.08510057
236	0xbed28596	-0.41117543
237	0xbeb3ad4b	-0.3509315
238	0xbe037cfd	-0.12840648
239	0x3e1b53ef	0.15168737
240	0x3e168551	0.14699294
241	0x3d65950d	0.05605035
242	0x3e2e95dc	0.17049354
243	0x3e06d41a	0.13166848
244	0x3dc9b10f	0.09848224
245	0xbe7a5f00	-0.24450302
246	0x3dbe1214	0.09280792
247	0x3ec7835a	0.389674
248	0x3d1aafec	0.03776543
249	0x3c7661bb	0.015037949
250	0xbdff4d01	-0.12465859
251	0xbea47bb3	-0.32125625
252	0xbeb84385	-0.35989013
253	0x3c09c5b8	0.008408956
254	0x3f03ac4c	0.5143478
255	0x3f20eff4	0.6286614

r_cell.w_qs.bias f4 [24]
0	0x3df51f6b	0.11968883
1	0x3e1488b4	0.14505273
2	0xbd6af48f	-0.057362135
3	0x3d5bef10	0.053694785
4	0xbe13d868	-0.14438021
5	0x3d8cb28d	0.06869993
6	0x3e84610b	0.25855288
7	0xbe5ad941	-0.21371938
8	0xbe4be2b2	-0.19910696
9	0xbdf14e21	-0.1178248
10	0x3e10f556	0.14156088
11	0xbde27a1f	-0.11058449
12	0x3e091a09	0.13388838
13	0x3cd9fab3	0.0266088
14	0x3e388eb1	0.18023182
15	0x3e3595c9	0.1773292
16	0x3e448bb8	0.19193923
17	0xbdb3c952	-0.08778633
18	0x3d5f1b38	0.054469317
19	0x3c26cd5b	0.0101807965
20	0x3d934639	0.07191128
21	0x3e085451	0.13313414
22	0xbc1fce79	-0.009753817
23	0xbe15c90e	-0.14627478

r_cell.w_ks.weight f4 [24, 24]
0	0x3eca65c7	0.39530775
1	0xbe86f809	-0.2636111
2	0x3e262f79	0.16229047
3	0x3ed64e94	0.41856825
4	0x3e5bad93	0.21452932
5	0x3df08202	0.11743547
6	0x3e924744	0.28569996
7	0xbe5608fa	-0.20901862
8	0xbe79890f	-0.2436869
9	0x3db8260b	0.08991631
10	0xbc23db93	-0.010001081
11	0xbeef6957	-0.46760055
12	0x3d9524a4	0.07282379
13	0xbedc24b0	-0.4299674
14	0xbe0747a6	-0.13210925
15	0xbf1c96c2	-0.6116754
16	0xbec33ba5	-0.38131443
17	0x3e7cade3	0.24675708
18	0x3da53d3b	0.080683194
19	0xbed84540	-0.42240334
20	0xbca0f143	-0.019646293
21	0x3f0706b7	0.5274462
22	0x3ed076f4	0.40715754
23	0xbeacd17b	-0.3375357
24	0xbe491df1	-0.19640328
25	0xbe048574	-0.12941533
26	0x3ea9c2a2	0.33156306
27	0x3ebee5c2	0.37284666
28	0xbe5c86ae	-0.21535751
29	0xbec1313c	-0.37732875
30	0xbd93bf83	-0.07214262
31	0xbd862d82	-0.06551649
32	0x3e8f306c	0.2796663
33	0x3eb47861	0.35248092
34	0x3e0271e1	0.12738754
35	0xbbcb50cc	-0.0062047
36	0xbf31c0dd	-0.6943491
37	0x3f046088	0.51709795
38	0x3e3df9e2	0.18552354
39	0x3e1539ef	0.14572881
40	0x3e6deab7	0.23234068
41	0x3e805da2	0.25071436
42	0xbd5899f5	-0.0528812
43	0x3c745b71	0.014914379
44	0xbe8999d8	-0.26875186
45	0xbecfb5c1	-0.40568355
46	0xbe838f92	-0.25695473
47	0x3db7bdf8	0.089717805
48	0xbec83574	-0.39103281
49	0x3f046f91	0.51732737
50	0x3c4fca0e	0.012682451
51	0xbe26fc95	-0.1630729
52	0xbb27b3ef	-0.0025589427
53	0xbeabc237	-0.33546612
54	0xbe0715ae	-0.13191864
55	0xbd7a0888	-0.061043292
56	0x3da5a9a0	0.08088994
57	0xbec8df67	-0.39232942
58	0x3eea8fe1	0.45812896
59	0x3eab9836	0.33514565
60	0xbdb645e5	-0.0890005
61	0xbe2a4162	-0.16626504
62	0x3dd27394	0.10275951
63	0xbe685ead	-0.22692366
64	0x3e4bf9d6	0.19919524
65	0xbf1959e5	-0.59902793
66	0xbd9538c2	-0.07286216
67	0x3d7a8611	0.061163012
68	0xbda25f85	-0.07928375
69	0x3e6adb16	0.22935137
70	0xbd770a8a	-0.060312785
71	0x3f5b1ba2	0.8558904
72	0x3ddb4b2b	0.107076965
73	0xbeffef2c	-0.4998716
74	0x3de0845e	0.10962747
75	0xbd7f162f	-0.062277015
76	0xbe7f7041	-0.24945165
77	0x3ce8b78b	0.028407833
78	0xbda1a2de	-0.078923926
79	0xbeb054d9	-0.34439734
80	0xbe80354b	-0.2504066
81	0xbe54a5ce	-0.20766374
82	0x3e9685a5	0.29398838
83	0x3e09312f	0.13397668
84	0x3ea45ccb	0.32102045
85	0x3d94fe36	0.072750494
86	0xbc082f2d	-0.008312029
87	0xbdf0abb9	-0.117515035
88	0xbef82632	-0.4846664
89	0xbe2d1d0d	-0.16905613
90	0x3b372d83	0.002795071
91	0x3cd3b181	0.025841476
92	0xbe75b0c9	-0.2399322
93	0x3d1f7716	0.03893193
94	0x3e7001bb	0.2343816
95	0x3f5c088d	0.8595055
96	0xbe12dd04	-0.14342123
97	0x3e09c888	0.13455403
98	0xbe99f319	-0.3006828
99	0x3e730dc5	0.23735721
100	0xbe21dde3	-0.158073
101	0x3ed6e953	0.41974887
102	0xbe80b4d7	-0.2513797
103	0x3ce4c3c0	0.027925372
104	0x3eae9dec	0.3410486
105	0x3eb1ea01	0.34748843
106	0xbe8436d3	-0.25823078
107	0x3e8ea770	0.2786212
108	0xbf005063	-0.5012266
109	0xbe3737c4	-0.17892367
110	0xbcabf879	-0.020992504
111	0xbcfd837b	-0.030946484
112	0xbedc6b1f	-0.43050477
113	0x3edecd71	0.43516114
114	0xbe2c40dd	-0.16821618
115	0xbdfdfa55	-0.12401263
116	0xbe848437	-0.25882122
117	0xbe4cb564	-0.1999107
118	0xbdd92d0f	-0.10604297
119	0xbdee256a	-0.1162823
120	0xbce8dbb9	-0.028425084
121	0x3e8b88aa	0.27252704
122	0xbe11dadd	-0.14243646
123	0xbeae641c	-0.34060752
124	0x3f0c1605	0.547211
125	0xbe8a5b05	-0.27022567
126	0x3d881da6	0.0664628
127	0x3e8ce6da	0.27519876
128	0xbe25407e	-0.16137883
129	0xbd4d8754	-0.050177887
130	0xbd25315a	-0.04033027
131	0xbd95a623	-0.07307079
132	0xbd37f19c	-0.04490815
133	0xbe5f904d	-0.2183239
134	0x3dff5ed2	0.124692574
135	0x3e431dc3	0.19054322
136	0xbe012eb0	-0.12615466
137	0x3ed4b269	0.41542366
138	0x3c46797a	0.012113923
139	0xbd12c652	-0.035833664
140	0xbe842859	-0.25812033
141	0xbdb19115	-0.0867025
142	0x3dac833b	0.08423468
143	0x3dae72ec	0.08518013
144	0xbd18e623	-0.03732885
145	0xbd90bdc4	-0.07067445
146	0xbe9b432a	-0.3032468
147	0x3ea82162	0.3283797
148	0xbe9d9af1	-0.30782273
149	0x3e630b62	0.22172311
150	0x3e193c24	0.14964348
151	0xbea6c8d8	-0.32575107
152	0x3c9dca60	0.019261539
153	0xbf10048d	-0.56256944
154	0x3d54ef03	0.05198575
155	0xbce8cd54	-0.02841822
156	0xbea93870	-0.3305087
157	0x3d0df6b2	0.034659095
158	0x3ea27726	0.31731528
159	0xbee5acac	-0.448583
160	0xbdccec5c	-0.100060195
161	0x3f2e123f	0.6799659
162	0xbe093154	-0.13397723
163	0xbe24eac0	-0.16105175
164	0xbe6c7d56	-0.23094687
165	0xbe71f8d0	-0.2363007
166	0xbd55c605	-0.0521908
167	0xbea054e9	-0.3131478
168	0x3dd8fa6b	0.105946384
169	0xbe6ab2bb	-0.22919743
170	0x3f226b99	0.6344543
171	0x3e0ed880	0.13949776
172	0x3cba8250	0.022767216
173	0x3efcfef0	0.49413252
174	0x3dc76038	0.09735149
175	0xbf001a92	-0.50040543
176	0xbe07af75	-0.13250525
177	0xbe631033	-0.22174148
178	0xbe903e6c	-0.28172624
179	0x3d86f3ee	0.06589495
180	0x3ec2f719	0.38079146
181	0x3e01d75b	0.12679808
182	0x3e46b732	0.19405821
183	0xbeaf156d	-0.34196034
184	0xbea779c1	-0.32710078
185	0xbf0a6c8f	-0.540719
186	0xbd18461a	-0.03717623
187	0xbd647ba4	-0.055781975
188	0x3dfef76c	0.12449536
189	0xbde21ec5	-0.11041025
190	0xbe820145	-0.25391594
191	0xbdb71337	-0.08939212
192	0x3e0a26ef	0.13491414
193	0x3e0db52c	0.13838643
194	0x3e7010d7	0.23443924
195	0xbe500e0a	-0.20317855
196	0x3ec934cd	0.39298096
197	0xbddd6708	-0.10810667
198	0xbf3935a6	-0.72347486
199	0xbe5e23db	-0.21693365
200	0xbe3900d2	-0.18066719
201	0xbdd88e32	-0.105739966
202	0x3ea3099f	0.31843278
203	0xbe10a8be	-0.1412687
204	0x3d9aa097	0.07550161
205	0x3d1e0257	0.03857645
206	0x3e50a008	0.20373547
207	0xbd2a8052	-0.041626282
208	0x3d498e79	0.04920814
209	0xbdf7d2b3	-0.121007346
210	0x3e3301d3	0.17481165
211	0xbe999dd2	-0.3000322
212	0x3f061039	0.52368504
213	0xbec4db6b	-0.38448653
214	0xbe893d78	-0.2680471
215	0x3f00e6e0	0.5035229
216	0xbe3e074d	-0.18557473
217	0x3e62615e	0.22107455
218	0xbe6ea0bf	-0.23303507
219	0x3d3c295d	0.045937885
220	0x3dee6a78	0.11641401
221	0x3e444bf5	0.191696
222	0x3dae9554	0.08524576
223	0x3e37d0cc	0.17950743
224	0x3e95798b	0.29194292
225	0x3e032b1a	0.1280941
226	0x3eab45a4	0.3345157
227	0x3e8e25b3	0.27763137
228	0xbe2680e0	-0.162601
229	0xbf0c95b4	-0.5491593
230	0x3e574cb7	0.21025358
231	0x3e4774ee	0.19478199
232	0xbeffc94b	-0.49958262
233	0xbec23af8	-0.37935615
234	0xbd41657b	-0.04721592
235	0xbf2645b0	-0.64950085
236	0xbe8150ee	-0.25257057
237	0x3e6b36a3	0.22970061
238	0x3ea16237	0.31520244
239	0xbe999220	-0.29994297
240	0x3e260083	0.16211133
241	0x3b8c2311	0.004276641
242	0x3e052b46	0.13004789
243	0x3d126f64	0.03575076
244	0x3eab76c8	0.3348906
245	0x3e670c21	0.2256322
246	0xbec6956d	-0.38785878
247	0xbe765262	-0.24054864
248	0xbd9f94e1	-0.07792068
249	0x3ee3265c	0.44365203
250	0x3e98f445	0.29873863
251	0x3d93ee2a	0.072231606
252	0x3e3175c3	0.17330079
253	0xbdbcf105	-0.09225658
254	0x3f0306fd	0.5118254
255	0xbd7288cf	-0.059212502

r_cell.w_ks.bias f4 [24]
0	0x3d01b3e2	0.03166569
1	0x3e45ca3a	0.19315425
2	0x3da78651	0.08179916
3	0x3d48601e	0.04891979
4	0x3e642778	0.22280681
5	0x3e98f7b0	0.2987647
6	0x3e484bde	0.19560191
7	0xbde13df9	-0.109981485
8	0xbe6663c7	-0.22499
9	0xbce88ffc	-0.02838897
10	0x3b76bd7e	0.0037649567
11	0xbdce18ff	-0.100633614
12	0x3c8e6851	0.017383726
13	0x3e1748d6	0.14773878
14	0xbd6d9137	-0.057999816
15	0x3e82180e	0.25408977
16	0x3e1b97c0	0.15194607
17	0x3debda31	0.11516226
18	0xbe60d523	-0.21956305
19	0x3a09b953	0.0005253751
20	0xbe2cddef	-0.16881536
21	0x3b8547f0	0.0040674135
22	0xbd95d536	-0.073160574
23	0x3ccb66b0	0.024829239

r_cell.w_vs.weight f4 [24, 24]
0	0xbdc7bf64	-0.09753302
1	0x3f011aab	0.5043132
2	0x3c9518a7	0.018200232
3	0x3e81a353	0.2531992
4	0x3eb39986	0.35078067
5	0x3ec01392	0.3751493
6	0x3e9fbdd0	0.31199503
7	0x3f006793	0.5015804
8	0x3eb8e578	0.3611257
9	0x3e3c9757	0.18417107
10	0x3de29d72	0.110651866
11	0xbedfe734	-0.4373108
12	0xbe6ae67e	-0.22939488
13	0xbf0c2901	-0.54750067
14	0xbd911474	-0.07083979
15	0xbd9e65a0	-0.07734227
16	0x3ee9cae5	0.4566261
17	0xbe0f6ed2	-0.14007118
18	0x3e35ad79	0.17741956
19	0x3e7dc9ea	0.24784055
20	0xbda2402e	-0.079223976
21	0x3c5fcc97	0.013659618
22	0xbedcc33a	-0.43117696
23	0xbd7d7586	-0.061879657
24	0xbea78149	-0.32715824
25	0xbec32704	-0.38115704
26	0xbe7665d3	-0.2406228
27	0xbde4d29b	-0.11172982
28	0x3ddb4c5a	0.10707922
29	0x3db83969	0.08995325
30	0x3e38e9f3	0.18057995
31	0x3fb73a59	1.4314681
32	0x3ec47eb5	0.3837792
33	0xbe5b0b7e	-0.21391103
34	0x3e79dc77	0.24400507
35	0xbf2c7fce	-0.67382514
36	0x3e22af88	0.15887272
37	0x3f357cc2	0.7089349
38	0x3e385cdc	0.18004173
39	0x3e819dee	0.25315803
40	0x3cc424fe	0.02394342
41	0x3d8ca1c4	0.06866792
42	0xbec353ac	-0.38149774
43	0xbe906fae	-0.28210205
44	0x3ea48106	0.32129687
45	0xbe9f9634	-0.31169283
46	0xbea2400b	-0.31689486
47	0x3e0955ce	0.13411638
48	0xbf47990e	-0.7796792
49	0xbe112c39	-0.14177026
50	0xbd670218	-0.05639848
51	0xbf06a287	-0.5259175
52	0xbe20cf81	-0.15704156
53	0x3f0cd3e9	0.5501085
54	0xbf3a273c	-0.72716117
55	0xbe8b321a	-0.27186662
56	0xbf07994e	-0.529683
57	0xbc6abe71	-0.014327631
58	0xbe31ae56	-0.1735166
59	0xbeae640d	-0.34060708
60	0xbd59fa06	-0.053216957
61	0xbef573b5	-0.4793984
62	0xbe81f702	-0.25383765
63	0x3ee4938c	0.4464382
64	0xbe203624	-0.15645653
65	0xbddb7b92	-0.107169285
66	0xbc9972c2	-0.018731479
67	0xbe688277	-0.22706018
68	0xbe31be22	-0.17357686
69	0x3e8adf01	0.27123263
70	0x3c17ef7d	0.009273407
71	0x3e8d2e55	0.2757441
72	0x3f30eb67	0.69109195
73	0xbe20171d	-0.15633817
74	0x3cf5ec1f	0.030019818
75	0xbeab44c2	-0.33450896
76	0x3ef2f9be	0.47456163
77	0xbe958e21	-0.29209998
78	0xbf12e3ad	-0.57378656
79	0x3de9429b	0.11389657
80	0x3ec6046a	0.38675243
81	0xbe79fb79	-0.24412335
82	0x3e89bff2	0.26904255
83	0x3e01b7f7	0.12667833
84	0x3e4e98d8	0.20175493
85	0xbcbf699c	-0.023365788
86	0x3f8f3594	1.1188226
87	0x3e48182b	0.1954047
88	0x3d371011	0.044693056
89	0x3e5e48d8	0.21707475
90	0x3e5890cc	0.21148986
91	0xbd46751f	-0.04845154
92	0x3e9bb0bb	0.30408272
93	0x3eaeb7b9	0.34124544
94	0x3e29b02e	0.16571113
95	0x3defe94b	0.11714419
96	0xbe3f41ad	-0.18677397
97	0xbe3413dc	-0.17585701
98	0x3ef5cb4f	0.48006675
99	0xbe1f5bdf	-0.1556239
100	0xbf047ed3	-0.5175602
101	0xbe854e33	-0.26036224
102	0x3e96eb87	0.29476568
103	0xbf3c2b6c	-0.73503757
104	0x3e6bc0ed	0.23022814
105	0xbd8436ad	-0.06455741
106	0x3e6826b4	0.22671014
107	0x3eef9f4d	0.46801224
108	0xbde55f44	-0.11199811
109	0x3ee43e0a	0.44578582
110	0xbe6de6dd	-0.23232599
111	0x3ebce579	0.36893824
112	0x3d44bfa8	0.04803434
113	0xbe16eef6	-0.14739594
114	0x3e47c85c	0.19510025
115	0x3e820bd0	0.25399637
116	0x3ecc77db	0.39935192
117	0xbe892a84	-0.2679025
118	0xbeb61afe	-0.35567468
119	0xbee664e2	-0.44998842
120	0x3e065557	0.13118492
121	0x3ea2f50c	0.3182758
122	0x3eb733c1	0.35781673
123	0xbc166524	-0.009179387
124	0x3f02316d	0.5085667
125	0xbf55e75c	-0.8355615
126	0xbed6ac1e	-0.4192819
127	0xbf2d38f8	-0.6766505
128	0xbf003ffe	-0.50097644
129	0xbea83908	-0.3285601
130	0xbda29317	-0.079382114
131	0xbe3e5c5b	-0.18589918
132	0xbec4b283	-0.38417444
133	0xbea957c2	-0.33074766
134	0x3d132d61	0.03593195
135	0xbe12d24b	-0.14338033
136	0x3e2a7713	0.16646986
137	0xbdbf832a	-0.093511894
138	0xbeb4ce71	-0.35313752
139	0x3e4eb4b6	0.20186123
140	0xbd2d8723	-0.042365205
141	0xbed4177d	-0.4142417
142	0x3f245012	0.6418468
143	0xbe4a4a1e	-0.19754836
144	0x3e9bff8f	0.30468413
145	0xbe83f401	-0.25772098
146	0xbf699db3	-0.91256255
147	0x3dc2bfdd	0.09509251
148	0xbe5540ee	-0.2082555
149	0xbf0e4c4f	-0.5558519
150	0xbdd03b2b	-0.101675354
151	0x3f1f0eef	0.6213216
152	0x3d8074c9	0.06272275
153	0xbdc06a11	-0.093952306
154	0xbd8cccf6	-0.06875031
155	0xbbf89a0b	-0.0075867227
156	0xbd5e75a6	-0.054311417
157	0x3e672a8b	0.22574823
158	0x3f3d91e4	0.74050736
159	0xbc837f37	-0.016051872
160	0x3f06cff5	0.5266107
161	0xbea04b05	-0.31307235
162	0xbcb5317c	-0.022118323
163	0xbec07237	-0.3758714
164	0x3f7d94a0	0.9905491
165	0x3e951f78	0.2912557
166	0x3e119eda	0.14220753
167	0x3e9e05ff	0.3086395
168	0x3e9460ce	0.28980106
169	0x3d30840c	0.04309468
170	0x3eb5793f	0.35444066
171	0x3e3647f8	0.17800891
172	0xbe992974	-0.2991444
173	0x3e1488f9	0.14505376
174	0x3e298a30	0.1655662
175	0x3f1a1530	0.6018858
176	0xbd2f62ce	-0.042818837
177	0xbeac2519	-0.33622053
178	0x3e9b29cc	0.30305326
179	0xbd5e9f3f	-0.054351088
180	0xbea7ca84	-0.32771695
181	0xbe0b7fcd	-0.13622971
182	0x3f1e3479	0.61798817
183	0x3c23c354	0.0099953
184	0xbd6c812a	-0.057740368
185	0x3d441969	0.047875796
186	0xbecd7d65	-0.4013473
187	0xbf03cecd	-0.5148743
188	0xbeba1d59	-0.36350515
189	0x3e0852bf	0.13312815
190	0xbe8ca4cb	-0.27469477
191	0x3e3427ac	0.17593259
192	0x3e116fc0	0.14202785
193	0xbdc9298a	-0.09822376
194	0x3e959a43	0.29219255
195	0xb9dd2035	-0.000421764
196	0x3eae8dc7	0.34092543
197	0xbebce453	-0.36892948
198	0xbd27a427	-0.040928032
199	0x3e9d2544	0.30692494
200	0x3d9facbc	0.07796618
201	0xbddb5659	-0.10709829
202	0x3e489189	0.19586767
203	0x3e32166a	0.17391363
204	0xbdd0f0bd	-0.10202167
205	0xbd40a96f	-0.047036584
206	0x3f1d9d29	0.6156793
207	0x3f2d820a	0.6777655
208	0xbe845b55	-0.2585093
209	0xbd82b66c	-0.063824505
210	0xbdc81556	-0.097696945
211	0x3ef8ce26	0.4859478
212	0x3e94c352	0.29055268
213	0x3e87bd34	0.26511538
214	0x3ea71a66	0.32637328
215	0x3dfea687	0.12434106
216	0xbcc75da3	-0.024336642
217	0xbea52d06	-0.32260913
218	0xbe19423a	-0.1496667
219	0xbe1c6a3b	-0.15274899
220	0xbcc38e08	-0.023871437
221	0xbed5fa18	-0.4179237
222	0x3e5a7f55	0.21337636
223	0xbf62bc06	-0.8856815
224	0xbeab7f45	-0.33495536
225	0xbc960d31	-0.018316837
226	0x3eb45ee9	0.3522866
227	0xbe061876	-0.13095269
228	0x3d836f87	0.064177565
229	0x3e3be5de	0.18349406
230	0xbd83e39f	-0.064399
231	0x3f12fd5e	0.5741786
232	0x3eb3d90e	0.35126537
233	0xbec1bad8	-0.37837863
234	0xbe9d138f	-0.30678985
235	0xbc8b1338	-0.016976938
236	0x3f0f3962	0.55946934
237	0xbd9ef778	-0.07762045
238	0x3ed09521	0.40738776
239	0xbe2b1903	-0.1670876
240	0x3e67fe03	0.22655492
241	0xbe259ee3	-0.16173892
242	0x3e7827fb	0.24234001
243	0xbf0357f7	-0.513061
244	0x3eb1a68b	0.34697375
245	0xbf4d3c62	-0.8017026
246	0xbed0e67d	-0.4080085
247	0xbeeef839	-0.46673754
248	0x3dac9c10	0.08428204
249	0xbe91b4f8	-0.2845838
250	0x3e281057	0.16412483
251	0x3eb3cb66	0.35116118
252	0x3d683d17	0.056698885
253	0xbf4b281c	-0.7935808
254	0x3e3c3fd1	0.18383719
255	0x3e914655	0.28373972

r_cell.w_vs.bias f4 [24]
0	0xbd69b4bf	-0.05705714
1	0x3dc51cd8	0.09624642
2	0x3e227f58	0.1586889
3	0x3e864583	0.26224908
4	0x3e6ef3c7	0.23335181
5	0xbdf64121	-0.12024141
6	0x3e29d497	0.16585003
7	0x3da14ea9	0.07876331
8	0x3d73c862	0.05951727
9	0xbdadefcc	-0.08493003
10	0x3dfa6435	0.12226144
11	0x3e797286	0.24360093
12	0xbe01518c	-0.12628764
13	0x3c0d61de	0.00862929
14	0xbdaaf921	-0.08348299
15	0x3bd6d980	0.0065566897
16	0xbe49c631	-0.1970451
17	0x3daaef62	0.0834644
18	0xbe4e99f3	-0.20175914
19	0xbdd44f8c	-0.10366735
20	0xbd85e5a8	-0.06537944
21	0x3c9f27b0	0.019428104
22	0xbda211e8	-0.079135716
23	0xbe1e2992	-0.15445545

r_cell.layer_norm.weight f4 [24]
0	0x3f55225d	0.8325556
1	0x3f7901a7	0.97268146
2	0x3f6cfd94	0.9257443
3	0x3f62daf9	0.88615376
4	0x3f6c7978	0.92372847
5	0x3f49b58a	0.7879263
6	0x3fa42e84	1.2826695
7	0x3f86e9eb	1.0540136
8	0x3f576a9c	0.8414705
9	0x3f9a1de1	1.2040368
10	0x3f9b8477	1.21498
11	0x3fa0f249	1.257394
12	0x3f911361	1.1334039
13	0x3f8f850c	1.1212478
14	0x3f93ea3d	1.1555859
15	0x3f872525	1.0558211
16	0x3fa1388d	1.2595383
17	0x3f796f57	0.97435516
18	0x3f92549b	1.143207
19	0x3f7f7191	0.99782664
20	0x3f7e0670	0.9922857
21	0x3f864ae8	1.049161
22	0x3f83e743	1.030495
23	0x3f82751d	1.019199

r_cell.layer_norm.bias f4 [24]
0	0x3cd28230	0.025696844
1	0xbdaec316	-0.085333034
2	0x3cd5c2fb	0.02609395
3	0xbd0b460c	-0.03400235
4	0xbd10937a	-0.035296895
5	0x3d6d68f6	0.057961427
6	0xbe007896	-0.12546
7	0x3c06fec2	0.00823945
8	0x3db448bc	0.088029355
9	0x3d870192	0.065920964
10	0xbd442d38	-0.047894686
11	0x3c78e745	0.015191858
12	0x3c10674b	0.008813689
13	0x3dc0816e	0.09399687
14	0x3d152956	0.036416374
15	0xbd358645	-0.044317503
16	0x3ce0644f	0.02739158
17	0x3d6dc0f1	0.05804533
18	0xbca72fc4	-0.020408519
19	0x3c7d564e	0.015462471
20	0x3ca2cdef	0.019873587
21	0xbd46cde5	-0.0485362
22	0x3dc8b904	0.09800914
23	0x3d9edb0c	0.077566236

r_cell.fc.weight f4 [24, 24]
0	0x3cbbe760	0.022937477
1	0xbe9f427b	-0.31105408
2	0xbd719e9b	-0.05898915
3	0xbdfbb08f	-0.12289535
4	0x3dca3f13	0.09875312
5	0xbd0f567f	-0.0349946
6	0xbf17900d	-0.5920418
7	0xbe1edeb8	-0.15514648
8	0xbea66784	-0.3250085
9	0x3ee504c7	0.44730207
10	0x3e760ce0	0.24028349
11	0xbebeae17	-0.37242195
12	0xbf2fa7b4	-0.6861527
13	0xbec83a66	-0.39107054
14	0xbc8ba17a	-0.017044771
15	0x3d58f940	0.05297208
16	0x3e6328b0	0.2218349
17	0x3e5b9475	0.2144335
18	0x3eebc184	0.46046078
19	0x3edf844c	0.43655622
20	0xbeb2365e	-0.34807104
21	0x3f116fe3	0.5681135
22	0xbe5b1af3	-0.21396999
23	0x3cf3a736	0.029742818
24	0x3edabed3	0.42723712
25	0xbe3ada55	-0.1824735
26	0x3b4f8076	0.0031662262
27	0xbf1d88fc	-0.61537147
28	0xbc821c7f	-0.015882729
29	0x3f1855b5	0.5950578
30	0xbe6cb5b6	-0.23116192
31	0xbd4290b9	-0.0475013
32	0xbe8c287b	-0.27374634
33	0x3dedf608	0.11619192
34	0xbe4a4788	-0.1975385
35	0xbec72655	-0.38896433
36	0xbde69f1c	-0.112608165
37	0x3de00462	0.10938336
38	0xbec0af65	-0.37633815
39	0x3c16e94d	0.009210897
40	0x3e482543	0.19545464
41	0x3e8645ad	0.26225033
42	0x3bc4712e	0.0059949374
43	0x3e5703d3	0.20997553
44	0xbf4dde67	-0.80417484
45	0x3c43638f	0.011925592
46	0xbef02c2d	-0.46908703
47	0x3ea8e2db	0.32985577
48	0xbe6e5fbe	-0.2327871
49	0xbe6d9158	-0.23199975
50	0x3d933569	0.071879216
51	0x3eeebd92	0.46629006
52	0x3e80d565	0.25162807
53	0xbe781059	-0.24224986
54	0x3e29fe56	0.16600928
55	0xbe1d3c8c	-0.15355128
56	0x3ef0d975	0.47040907
57	0x3e19396c	0.14963311
58	0x3f414504	0.75495934
59	0x3ee2262f	0.44169757
60	0x3ea080ae	0.31348175
61	0x3e8bb92c	0.27289712
62	0xbe38c30d	-0.18043156
63	0xbdac93ef	-0.084266536
64	0xbe0b3711	-0.13595225
65	0xbf8c14cd	-1.0943848
66	0xbcf1b36d	-0.029504502
67	0xbcd99358	-0.026559517
68	0x3f244643	0.6416971
69	0xbe09d441	-0.13459875
70	0x3dcec2dd	0.10095761
71	0x3ebd0907	0.3692095
72	0xbe7b2e67	-0.2452942
73	0x3dcb8781	0.09937955
74	0xbe2a0b91	-0.16605975
75	0x3ebd6460	0.36990643
76	0xbd44a80c	-0.048011824
77	0x3e3f2840	0.18667698
78	0x3f0352a5	0.5129798
79	0xbe9bfdc7	-0.30467054
80	0x3e4f1b02	0.20225146
81	0x3d7f9a01	0.06240273
82	0x3dcdd978	0.100512445
83	0x3e6a5f16	0.22887835
84	0xbe6d8bc6	-0.2319785
85	0xbd27963a	-0.04091475
86	0x3f1ee4ca	0.62067854
87	0x3dc92b64	0.09822729
88	0xbec07c2a	-0.3759473
89	0x3d5ed2d7	0.05440029
90	0x3d50b840	0.050956964
91	0xbeeaa185	-0.45826355
92	0x3d711dab	0.058866184
93	0x3e9742e7	0.2954323
94	0xbe840ae1	-0.2578955
95	0xbdda2b4e	-0.10652791
96	0xbe8c79aa	-0.27436572
97	0xbe93cd49	-0.28867558
98	0xbea3d465	-0.31997982
99	0x3ee7a986	0.45246524
100	0xbe8062af	-0.2507529
101	0x3f56c4dc	0.83894134
102	0xbe6154a1	-0.2200494
103	0xbd55d2e6	-0.05220308
104	0x3e254abb	0.16141789
105	0x3e29b6af	0.16573595
106	0x3ecbc978	0.39802146
107	0x3e8af46d	0.27139607
108	0xbe9540b6	-0.29150933
109	0xbeefe066	-0.4685089
110	0xbe83f016	-0.2576911
111	0x3ea6b206	0.32557696
112	0xbed3ba0a	-0.41352874
113	0xbea34439	-0.31887987
114	0x3bf5163a	0.0074794563
115	0xbec2700e	-0.37976116
116	0x3db07f1a	0.08617993
117	0x3ea69bd9	0.32540777
118	0xbe6f27e4	-0.23355061
119	0x3ebfbea5	0.37450138
120	0xbd32eb80	-0.04368162
121	0x3e2f9287	0.1714574
122	0xbdb883f8	-0.09009546
123	0x3e95215e	0.2912702
124	0xbd8a50c4	-0.06753686
125	0xbe1f67e0	-0.15566969
126	0x3f5347db	0.8253152
127	0x3e9060e7	0.2819893
128	0x3e44c2c3	0.1921492
129	0xbdcbc39e	-0.099494204
130	0xbe309fd2	-0.17248467
131	0x3f0ea6f5	0.55723506
132	0x3ecee6fb	0.404106
133	0xbe72c010	-0.23706079
134	0x3ef68b1a	0.48153
135	0x3d658182	0.05603171
136	0xbec5063c	-0.3848132
137	0x3ecb0027	0.39648554
138	0xbeb9dc2c	-0.3630079
139	0xbea25320	-0.31704044
140	0x3e4128bd	0.18863197
141	0x3e2b7cff	0.16746901
142	0x3e796057	0.24353157
143	0xbed22fc5	-0.4105207
144	0x3e949105	0.2901689
145	0xbe623a3b	-0.22092526
146	0x3d053c76	0.032528363
147	0xbe89c023	-0.269044
148	0x3e81b239	0.25331286
149	0x3f155149	0.58327156
150	0x3df604d3	0.12012639
151	0x3ded8c60	0.1159904
152	0x3c2e2bd5	0.010630568
153	0x3e096828	0.13418639
154	0xbd51ce3c	-0.05122207
155	0x3da8abe7	0.08235913
156	0xbe06dac2	-0.13169387
157	0xbe93560f	-0.28776595
158	0x3e708fe6	0.23492393
159	0x3e27e6e7	0.16396676
160	0x3e1870c2	0.14886764
161	0x3e02f05e	0.12787005
162	0xbe4cfcee	-0.2001836
163	0x3ea36cb0	0.3191886
164	0xbf05c529	-0.5225397
165	0x3e539c13	0.20665006
166	0x3e1dced0	0.15410924
167	0x3efdefa5	0.49596897
168	0x3eaaaa6e	0.33333153
169	0x3ead595b	0.33857235
170	0x3ea6991c	0.32538688
171	0xbddfa14f	-0.10919439
172	0xbe8b3f27	-0.2719662
173	0xbedee958	-0.43537402
174	0xbe3bd69a	-0.18343583
175	0xbdb8fa63	-0.090321325
176	0x3eb4e2c8	0.3532927
177	0xbea743b9	-0.32668856
178	0x3dbad68e	0.09122954
179	0xbde17b4e	-0.11009847
180	0x3e986a82	0.2976876
181	0x3ddf6766	0.109083936
182	0xbe442cc3	-0.191577
183	0x3ea9a7c2	0.33135802
184	0x3db7bc71	0.08971489
185	0x3ebcaf2e	0.36852401
186	0xbdb53555	-0.08848063
187	0xbd18facd	-0.037348557
188	0xbe0b6fd5	-0.1361688
189	0xbe41dacb	-0.18931119
190	0xbf098618	-0.53720236
191	0xbeaabc2c	-0.3334669
192	0x3e8d80a4	0.27637208
193	0x3ecd5156	0.40101117
194	0xbef7cac4	-0.48396885
195	0x3ebc37d0	0.36761332
196	0xbc786cdf	-0.015162676
197	0xbf0f0f1c	-0.5588243
198	0x3f1c2920	0.6100025
199	0xbcee7bd7	-0.029111786
200	0x3ed148a7	0.40875742
201	0xbe8d6b78	-0.27621055
202	0xbed241ef	-0.41065928
203	0x3e8f3ccd	0.27976075
204	0x3eb93607	0.36174032
205	0xbe0930df	-0.13397549
206	0x3e49d530	0.19710231
207	0x3e5c8f1b	0.21538965
208	0xbcd01242	-0.025399331
209	0x3d127cb5	0.03576346
210	0xbf18588a	-0.595101
211	0x3d1768fd	0.03696536
212	0xbed44494	-0.4145857
213	0xbe9892fd	-0.29799643
214	0x3cfedfaf	0.03111252
215	0x3e7f4df4	0.2493208
216	0x3e94789f	0.28998277
217	0x3f275a2b	0.6537196
218	0xbe462ef6	-0.19353852
219	0x3ec0e537	0.37674877
220	0xbe03cb38	-0.1287049
221	0xbe89fcc6	-0.26950663
222	0x3ea60450	0.32425165
223	0x3d966706	0.07343869
224	0xbe38e1e8	-0.18054926
225	0x3da9afbc	0.08285472
226	0xbdc0fa0b	-0.09422692
227	0x3eb5ec99	0.35532072
228	0xbe4d7681	-0.20064737
229	0xbd4eacbb	-0.050457697
230	0x3dfcaedc	0.12338039
231	0xbd22d366	-0.039752387
232	0x3de8a340	0.113592625
233	0x3e89a107	0.26880667
234	0x3e2a7b27	0.16648541
235	0xbd0f50d1	-0.034989182
236	0xbf36e0e5	-0.7143691
237	0x3ea2ea0c	0.3181919
238	0x3ebf4bb8	0.37362456
239	0x3df2fa61	0.11864162
240	0x3d52481d	0.051338304
241	0x3ea82b0a	0.32845336
242	0x3e08d5d4	0.13362819
243	0xbd948f1a	-0.07253857
244	0x3c343dc5	0.011001055
245	0xbcb0c9b4	-0.021580555
246	0x3e67c6ab	0.2263438
247	0xbe105a8a	-0.14097038
248	0x3e414999	0.18875732
249	0x3e0569ce	0.13028643
250	0x3e8b2678	0.27177787
251	0x3e99e7e9	0.30059746
252	0x3e1e6ce3	0.15471224
253	0xbe01593c	-0.12631696
254	0xbe30c7e9	-0.1726376
255	0xbece0614	-0.40239012

r_cell.fc.bias f4 [24]
0	0xbded3d60	-0.11583972
1	0xbdc294fa	-0.09501071
2	0x3d7043c9	0.058658395
3	0x3e19a185	0.15003021
4	0x3e07b8aa	0.13254037
5	0x3ce84d54	0.028357185
6	0x3e503ae9	0.20334972
7	0xbe51de2b	-0.20494907
8	0xbc8e639f	-0.017381487
9	0x3e1cadd0	0.15300679
10	0xbdbc103a	-0.091827825
11	0xbe0500b4	-0.1298855
12	0xbe164931	-0.14676358
13	0x3a119dfd	0.0005554853
14	0xbdb7cf3e	-0.08975075
15	0xbe0c8cd7	-0.13725601
16	0x3dfd6dbf	0.12374448
17	0xbddf9fb1	-0.109191306
18	0xbd74fa34	-0.059808925
19	0x3dde245c	0.10846779
20	0xbd384ea3	-0.04499687
21	0xbe07b01f	-0.13250779
22	0x3ddec2a4	0.108769685
23	0x3e9808bb	0.2969416

fc1.0.bias f4 [24]
0	0x3c6dfbc4	0.014525358
1	0xbb9c41fb	-0.0047686077
2	0x3d651e4b	0.055937093
3	0x3dc5aec9	0.09652478
4	0xbba99885	-0.0051756524
5	0xbd1ceb00	-0.03831005
6	0x3b7cf8a3	0.0038600347
7	0x3c9408e0	0.018070638
8	0x3d305fc1	0.043060068
9	0x3d51697d	0.051125992
10	0xbbf5f1a7	-0.007505614
11	0x3da096c9	0.0784126
12	0x3cef1256	0.029183548
13	0x3dd64f6a	0.10464366
14	0xbd104b60	-0.035228133
15	0xbd820862	-0.06349255
16	0x3c915488	0.017740503
17	0xbda179c4	-0.07884553
18	0xbd8964b7	-0.06708663
19	0x3ce2d329	0.02768858
20	0xbd71e5ed	-0.059057165
21	0xbb44160e	-0.0029920372
22	0x3c89450f	0.016756563
23	0x3b46dcaa	0.0030343928

fc1.0.weight_orig f4 [24, 6]
0	0x3d130d20	0.03590119
1	0x3d293fb9	0.041320536
2	0x3d9c8769	0.07643015
3	0x3ce2a893	0.027668273
4	0x3d46c05c	0.048523292
5	0x3eae57a1	0.3405123
6	0xbdf59e69	-0.11993105
7	0xbe861161	-0.26185134
8	0xbc9c4720	-0.019076884
9	0xbe5c470a	-0.21511474
10	0xbe2d655f	-0.16933201
11	0xbe56f22c	-0.20990819
12	0x3cb17729	0.021663265
13	0xbe0840fc	-0.1330604
14	0x3da9d358	0.08292264
15	0xbde61368	-0.1123417
16	0xbcb0b427	-0.021570278
17	0xbe9180d0	-0.2841859
18	0x3e884047	0.2661154
19	0x3eac9065	0.33703914
20	0x3d5a2ec6	0.053267263
21	0x3e948c8a	0.29013473
22	0x3e99d448	0.3004477
23	0xbd46deb4	-0.04855223
24	0x3e8fe255	0.28102365
25	0x3ea2ee3c	0.31822383
26	0x3de7c9c7	0.11317783
27	0x3e8a4dac	0.27012384
28	0x3e9c4f5b	0.30529293
29	0x3daf8089	0.08569438
30	0x3c46c3b9	0.012131625
31	0x3de5d99c	0.11223146
32	0xbb6ab404	-0.0035812864
33	0x3e02df6b	0.1278054
34	0x3d095920	0.03353226
35	0xbead9f84	-0.33910763
36	0x3d93b9bf	0.07213163
37	0x3da5176b	0.08061107
38	0x3c853d39	0.016264545
39	0x3dba5dc5	0.09099916
40	0x3dafc563	0.085825704
41	0xbe99d9c7	-0.30048963
42	0x3e14d4b1	0.1453426
43	0x3e79c046	0.24389753
44	0xbbbbcaf9	-0.0057309833
45	0x3e35f92e	0.17770836
46	0x3e3a4b7b	0.18192856
47	0x3c8cc033	0.017181491
48	0x3e4d530d	0.20051213
49	0x3e8c17d6	0.27361935
50	0x3e2b01e3	0.16699938
51	0x3e70973d	0.23495193
52	0x3e72bfa5	0.23705919
53	0x3e0af633	0.1357048
54	0x3e5ac77b	0.21365158
55	0x3ea71e15	0.32640138
56	0x3db89b7b	0.090140305
57	0x3e8485cd	0.25883332
58	0x3e8a9d7d	0.2707328
59	0xbdf803ac	-0.12110075
60	0x3dc91c58	0.09819859
61	0x3e5b7b2b	0.21433704
62	0x3d37c006	0.044860862
63	0x3e384183	0.1799374
64	0x3e1bbb42	0.15208152
65	0xbecfacd5	-0.40561548
66	0x3e067602	0.13130954
67	0x3e9c598f	0.30537078
68	0x3d8bdec6	0.068296
69	0x3e91542d	0.28384534
70	0x3e403465	0.18769987
71	0x3df55efd	0.11981008
72	0xbd1d763c	-0.038442835
73	0xbd00f704	-0.031485572
74	0x3c5f6b8f	0.013636484
75	0xbb7657fa	-0.003758906
76	0xbd3814a0	-0.044941545
77	0x3f2970ce	0.6618775
78	0x3d983918	0.07432765
79	0x3e43b517	0.19112049
80	0xbe069af1	-0.13145043
81	0x3e3a72a1	0.1820779
82	0x3dd167da	0.10224886
83	0xbc8e1c5f	-0.017347513
84	0x3d0aca71	0.03388447
85	0x3a803f27	0.0009784446
86	0x3c81e0e0	0.015854299
87	0xbb9fa8fd	-0.00487244
88	0x3d1a8559	0.037724826
89	0xbf0a8347	-0.54106563
90	0xbdc5d399	-0.096595
91	0xbdd29637	-0.102825575
92	0xbe1f3555	-0.15547688
93	0xbdb28d40	-0.087183475
94	0xbdd42b27	-0.10359793
95	0xbeb8287b	-0.35968384
96	0xbdf7d9ea	-0.12102111
97	0xbe48fed5	-0.1962846
98	0xbe2a9334	-0.16657716
99	0xbe1e2dc8	-0.15447152
100	0xbe2f1541	-0.17097951
101	0xbe916e14	-0.28404295
102	0xbdc614a4	-0.09671906
103	0xbd99a807	-0.07502752
104	0xbdb8d0de	-0.09024213
105	0xbda638f4	-0.08116332
106	0xbdf0fca7	-0.117669396
107	0xbe5cdf2f	-0.21569513
108	0xbcbd4f21	-0.02310902
109	0xbd842754	-0.06452814
110	0xbce9e4ab	-0.02855142
111	0xbd740232	-0.059572406
112	0xbcd56dde	-0.026053365
113	0xbf3d2535	-0.738849
114	0xbd268775	-0.040656526
115	0xbd05f9ef	-0.03270906
116	0xbd9e8c04	-0.077415496
117	0xbc4a9ffc	-0.012367245
118	0xbd871364	-0.06595495
119	0xbe480f44	-0.19537073
120	0xbe1572f5	-0.14594634
121	0xbe51fec3	-0.2050734
122	0xbe2e5233	-0.17023544
123	0xbe361ee3	-0.1778522
124	0xbe44c9d7	-0.19217621
125	0xbe20f86f	-0.1571977
126	0xbe00d070	-0.12579513
127	0xbe872dad	-0.26402035
128	0xbd0d222b	-0.034456413
129	0xbe78b70b	-0.24288575
130	0xbe25f6a2	-0.16207364
131	0xbe43c02f	-0.19116281
132	0xbbe854f7	-0.0070902067
133	0x3d563679	0.052298043
134	0xbd6ae794	-0.057349756
135	0x3d253f99	0.040343855
136	0xbaa88b18	-0.0012858836
137	0x3f2cd9d6	0.6751989
138	0x3d5e18d2	0.05422289
139	0x3dc03336	0.09384768
140	0xbc8d39f1	-0.017239543
141	0x3e0260f5	0.12732299
142	0x3da2be31	0.079464324
143	0xbe616b44	-0.22013575

fc1.0.weight_u f4 [24]
0	0x3e3dc906	0.18533716
1	0xbe6afe16	-0.22948489
2	0xbe2e6e8d	-0.1703436
3	0x3e3a5f96	0.18200526
4	0x3e781244	0.24225718
5	0xbdcfd6f8	-0.10148424
6	0xbda3e972	-0.080035105
7	0x3e0a4076	0.13501152
8	0x3e6ed4b4	0.23323327
9	0x3e0842f4	0.1330679
10	0xbd8cbd58	-0.06872052
11	0x3e5ec443	0.21754555
12	0x3e905d5f	0.28196236
13	0x3da15a5e	0.07878564
14	0xbe701c3e	-0.23448274
15	0xbe74a8d4	-0.23892528
16	0xbe801657	-0.25017044
17	0xbe2851a3	-0.16437392
18	0xbebc144e	-0.3673424
19	0xbdf286ee	-0.11842142
20	0xbe5241a8	-0.20532858
21	0xbe686f02	-0.22698596
22	0x3ea30f16	0.31847447
23	0xbd249f6a	-0.04019109

fc1.0.weight_v f4 [6]
0	0x3e5d9f5e	0.21642825
1	0x3eb9a827	0.36261103
2	0x3e067afa	0.1313285
3	0x3e9e8140	0.30957985
4	0x3e8bbd7d	0.27293006
5	0x3f4bda59	0.7963005

fc1.1.weight f4 [24, 24]
0	0xbf2d120d	-0.6760567
1	0x3f6bf3db	0.9216897
2	0x3ec9eeb0	0.39439917
3	0x3f9ab506	1.2086494
4	0x3f85ac08	1.0443125
5	0x3f38f64f	0.7225084
6	0x3e9cc06b	0.30615553
7	0x3f37ca57	0.7179312
8	0xbf836874	-1.0266252
9	0xbfa20034	-1.2656312
10	0x3f294f9e	0.6613711
11	0xbf156817	-0.58361953
12	0x3e92feee	0.2871012
13	0x3d500524	0.050786152
14	0x3eddf7da	0.43353158
15	0xba140b92	-0.0005647476
16	0x3f127f90	0.57225895
17	0x3f7a56fe	0.9778899
18	0xbd8c3dc3	-0.068477176
19	0xbe1ef37f	-0.15522574
20	0xbf49f68a	-0.78891814
21	0x3e497ed6	0.1967729
22	0xbe3ecf37	-0.18633734
23	0xbee2e807	-0.44317648
24	0xbee03c0f	-0.4379582
25	0xbd9f4dd2	-0.07778515
26	0xbf29023e	-0.66019046
27	0xbe96f876	-0.29486436
28	0xbe1494f7	-0.1450995
29	0xbe81ade6	-0.25327986
30	0xbecf769e	-0.40520185
31	0x3e343139	0.17596902
32	0x3ee5e4da	0.44901162
33	0x3e1cada6	0.15300617
34	0x3ee834e8	0.45352864
35	0x3e67d385	0.22639282
36	0x3ec77986	0.38959903
37	0x3e72de00	0.23717499
38	0xbdf11d68	-0.11773187
39	0x3f8d85f0	1.10565
40	0x3ed9ada6	0.42515296
41	0xbebba434	-0.36648715
42	0xbec3f3be	-0.38271898
43	0x3f81b511	1.0133382
44	0xbca897aa	-0.020580132
45	0xbf470161	-0.7773648
46	0xbd3810b5	-0.044937808
47	0xbd971332	-0.07376708
48	0x3f20e269	0.62845474
49	0xbed454c8	-0.41470933
50	0x3dff6e71	0.12472237
51	0xbf98d652	-1.1940405
52	0xbf5c3a72	-0.8602668
53	0xbeea5205	-0.457657
54	0xbdce96d2	-0.100873604
55	0xbf1fe47b	-0.6245801
56	0x3f0b84f6	0.5449976
57	0x3f6cbf04	0.92478967
58	0xbf4784b3	-0.7793686
59	0x3c8e5dc2	0.017378692
60	0xbf28cbeb	-0.65936154
61	0xbdbd224f	-0.092350595
62	0xbf176971	-0.59145266
63	0x3f3c27f0	0.7349844
64	0xbd9c6b66	-0.07637672
65	0x3ecfa953	0.40558872
66	0x3f7118e1	0.9417859
67	0x3f816964	1.0110288
68	0xbdd5c3bc	-0.10437724
69	0xbdbc468a	-0.09193142
70	0x3eded053	0.43518314
71	0xbe1971c6	-0.14984807
72	0xbf5e1161	-0.8674527
73	0x3f0f15d9	0.5589271
74	0xbdb23752	-0.08701958
75	0x3f8a1243	1.0786823
76	0x3f3823a9	0.71929413
77	0x3efb284a	0.49054176
78	0x3e12a728	0.14321578
79	0x3e4cbb86	0.1999341
80	0xbee30b0d	-0.4434437
81	0xbfaad486	-1.3346107
82	0x3f17d3cb	0.59307545
83	0xbe3d57e5	-0.1849056
84	0x3f68da13	0.90957755
85	0xbee5c04c	-0.44873273
86	0x3f0d1f5c	0.55125976
87	0x3ddcde1c	0.107845515
88	0xbdb61127	-0.0888999
89	0x3f144eda	0.5793282
90	0xbf54e89a	-0.8316742
91	0xbf9ea59c	-1.239429
92	0xbe91ecbf	-0.28500935
93	0x3e46fec2	0.1943312
94	0xbf837c5b	-1.0272325
95	0x3da140ad	0.07873664
96	0x3f53c6da	0.827253
97	0xbf05bcb8	-0.52241087
98	0xbf082d23	-0.53193873
99	0xbfbc180d	-1.469484
100	0xbf8f1d28	-1.1180773
101	0xbf5eb3b0	-0.8699293
102	0xbf6aa08f	-0.9165124
103	0xbf885bd2	-1.0653021
104	0x3fb09031	1.3794004
105	0x3fb3a889	1.4035808
106	0xbf1bc898	-0.60852957
107	0x3c34b595	0.011029621
108	0xbefe1526	-0.4962551
109	0x3d1fe32e	0.039035015
110	0xbef0dd78	-0.47043967
111	0xbeace0f1	-0.33765367
112	0x3ebab4ff	0.36466214
113	0xbe39a57b	-0.18129532
114	0x3d83ef96	0.06442182
115	0x3e2c56df	0.16830014
116	0x3f3995e8	0.72494364
117	0x3e0be287	0.13660632
118	0x3f00ac6a	0.50263083
119	0xbee01d77	-0.4377248
120	0xbeb795bd	-0.3585643
121	0xbf4b8608	-0.7950139
122	0xbfaada79	-1.3347923
123	0xbecc0acf	-0.39851996
124	0xbe814ab2	-0.252523
125	0xbe6895c7	-0.22713386
126	0xbee9ff60	-0.45702648
127	0xbf245418	-0.64190817
128	0x3f11002f	0.56640905
129	0x3d3ce761	0.046119098
130	0x3f4cef4f	0.80052656
131	0x3f338e2a	0.701388
132	0x3f1efdb2	0.6210586
133	0xbe663298	-0.22480237
134	0xbce7d1f6	-0.02829836
135	0x3fc0d1ed	1.5064064
136	0x3ed5f38b	0.4178737
137	0xbd63df81	-0.05563307
138	0xbf9c4dfc	-1.2211299
139	0x3df761f6	0.120792314
140	0x3eca2fb8	0.39489532
141	0xbf8dce32	-1.1078551
142	0xbef43d1b	-0.4770287
143	0xbf9afd1b	-1.2108492
144	0x3f2e23ee	0.68023574
145	0xbf8a3bdc	-1.0799518
146	0xbf9b6adc	-1.2141986
147	0xbfac4e70	-1.3461437
148	0xbf8e5e50	-1.1122532
149	0xbeef91cd	-0.46790925
150	0xbf599f44	-0.85008645
151	0xbf88d60b	-1.0690321
152	0x3fb18f0c	1.387178
153	0x3fcdc0bd	1.6074444
154	0xbf12af63	-0.5729887
155	0x3db811e8	0.0898779
156	0xbefcd090	-0.4937787
157	0xbea78073	-0.32715186
158	0xbec6b743	-0.38811693
159	0x3eb0b126	0.34510154
160	0xbd87e200	-0.06634903
161	0xbeb030f6	-0.34412354
162	0x3bd098bd	0.006365864
163	0xbe925741	-0.28582194
164	0x3fa8d720	1.3190651
165	0xbe818ce2	-0.25302798
166	0x3ea1f84f	0.31634757
167	0xbee18069	-0.44043282
168	0xbf2cdaec	-0.6752155
169	0x3c11ca28	0.008898295
170	0xbf3945d6	-0.72372186
171	0x3f8c8fb7	1.0981358
172	0x3f30b051	0.6901904
173	0x3f64688f	0.89222044
174	0x3f2c5edb	0.6733224
175	0x3e8fbf96	0.28075856
176	0xbebb3352	-0.36562592
177	0xbfb63406	-1.4234626
178	0x3f8d75ca	1.1051571
179	0xbe891b48	-0.26778626
180	0x3fbfb889	1.4978191
181	0xbefeaae1	-0.49739745
182	0x3f8350dc	1.0259051
183	0x3f53ab5c	0.8268335
184	0xbb6073af	-0.003424864
185	0x3f14d35f	0.58135027
186	0xbfe0c42a	-1.7559865
187	0xbc836cf4	-0.016043164
188	0xbce502e3	-0.027955478
189	0xbe4f58ed	-0.20248766
190	0xbfb3818b	-1.4023908
191	0x3f1d4dc2	0.61446774
192	0x3efe7b35	0.49703375
193	0x3e1c71dc	0.15277809
194	0x3ef7e35e	0.48415655
195	0x3e78863f	0.24269961
196	0x3f4a88dc	0.7911508
197	0x3f849f50	1.0361118
198	0x3edfba1f	0.43696687
199	0x3df68778	0.12037557
200	0xbe44b738	-0.19210517
201	0xbe88542f	-0.26626727
202	0xbd969061	-0.07351757
203	0xbf47af17	-0.7800154
204	0xbf0756ef	-0.52867025
205	0x3e9acab2	0.3023277
206	0x3d4d1520	0.050068974
207	0xbf940023	-1.1562542
208	0xbe695d17	-0.22789417
209	0x3ef6c782	0.48199087
210	0x3f37203e	0.7153357
211	0xbf3c5ddd	-0.73580724
212	0xbe56ece0	-0.20988798
213	0x3f0a8a1d	0.54116994
214	0xbcf9d40a	-0.030496616
215	0x3f2352fa	0.6379849
216	0x3f17e442	0.5933267
217	0x3f0b3402	0.5437623
218	0xbeea42ec	-0.45754182
219	0x3ebf352f	0.37345263
220	0x3eed51d9	0.46351507
221	0xbf016719	-0.5054794
222	0xbe8fe022	-0.28100687
223	0x3f3b3a4d	0.73135835
224	0x3d334b81	0.043773178
225	0xbeab3a39	-0.33442858
226	0x3f0fda6b	0.56192654
227	0xbf182929	-0.59437805
228	0x3e795e1c	0.24352306
229	0xbda61767	-0.081099324
230	0xbe29b4f9	-0.16572942
231	0x3f3a2587	0.7271351
232	0xbe8b7a95	-0.2724196
233	0xbf22ef47	-0.6364636
234	0xbeca3099	-0.39490202
235	0xbf0dc79b	-0.553827
236	0xbda7abca	-0.08187063
237	0x3f586b3b	0.8453862
238	0x3e480469	0.19532932
239	0xbe5ea66e	-0.21743175
240	0x3d4f0723	0.050543915
241	0xbe75e6a4	-0.24013764
242	0xbf0fe306	-0.56205785
243	0xbc715670	-0.014730081
244	0x3c1a09e8	0.009401776
245	0xbf02060c	-0.50790477
246	0xbee6f582	-0.45109183
247	0xbdd46d53	-0.103724144
248	0x3dfe7a2e	0.12425648
249	0x3e2c9d16	0.16856799
250	0x3e32d4f6	0.1746405
251	0x3f6639cd	0.89931947
252	0x3d9b83cf	0.075935
253	0xbece4dec	-0.40293825
254	0xbd4f5c1d	-0.050624955
255	0x3f60131d	0.87529165
