models/17_05_2021/stock_self_attn_MSE_hinge_10000_64_24_6_24_5/3500_Zdiscriminator.pth (torch, 55520 bytes, 40 tensors)

position.pe f4 [1, 24, 24]
000000 00 00 00 00 00 00 80 3f 00 00 00 00 00 00 80 3f
       0.0 1.0 0.0 1.0
000010 00 00 00 00 00 00 80 3f 00 00 00 00 00 00 80 3f
       0.0 1.0 0.0 1.0
000020 00 00 00 00 00 00 80 3f 00 00 00 00 00 00 80 3f
       0.0 1.0 0.0 1.0
000030 00 00 00 00 00 00 80 3f 00 00 00 00 00 00 80 3f
       0.0 1.0 0.0 1.0
000040 00 00 00 00 00 00 80 3f 00 00 00 00 00 00 80 3f
       0.0 1.0 0.0 1.0
000050 00 00 00 00 00 00 80 3f 00 00 00 00 00 00 80 3f
       0.0 1.0 0.0 1.0
000060 a4 6a 57 3f 41 51 0a 3f 1d 35 e5 3e 30 ea 64 3f
       0.84147096 0.54030234 0.44767085 0.8941984
000070 52 e9 5a 3e eb 14 7a 3f 76 75 cc 3d 98 b8 7e 3f
       0.21378067 0.9768817 0.099833414 0.9950042
000080 1e 0d 3e 3d 6a b9 7f 3f 47 7a b0 3c ca f0 7f 3f
       0.04639923 0.99892294 0.021542681 0.9997679
000090 57 d6 23 3c b9 fc 7f 3f 57 18 98 3b 4b ff 7f 3f
       0.009999833 0.99995 0.0046415734 0.9999892
0000a0 64 31 0d 3b d9 ff 7f 3f 6d 12 83 3a f8 ff 7f 3f
       0.0021544332 0.9999977 0.0009999998 0.9999995
0000b0 5c 5a f3 39 fe ff 7f 3f ab e8 61 39 00 00 80 3f
       0.00046415895 0.9999999 0.00021544348 1.0
0000c0 b7 c7 68 3f 33 11 d5 be fb f4 4c 3f f8 63 19 3f
       0.9092974 -0.41614684 0.8006131 0.59918165
0000d0 be d9 d5 3e b9 99 68 3f f8 6f 4b 3e a5 e5 7a 3f
       0.41767687 0.9085956 0.19866931 0.9800666
0000e0 b7 d8 bd 3d d1 e5 7e 3f cb 6f 30 3d 2c c3 7f 3f
       0.09269851 0.9956942 0.043075364 0.99907184
0000f0 3e d4 a3 3c e5 f2 7f 3f ec 17 18 3c 2d fd 7f 3f
       0.019998666 0.9998 0.009283047 0.9999569
000100 4e 31 8d 3b 64 ff 7f 3f 68 12 03 3b df ff 7f 3f
       0.004308856 0.9999907 0.0019999985 0.99999803
000110 5b 5a 73 3a f9 ff 7f 3f ab e8 e1 39 ff ff 7f 3f
       0.00092831784 0.9999996 0.00043088695 0.99999994
000120 c3 81 10 3e 26 70 7d bf ce f0 7b 3f 16 a2 35 3e
       0.14112 -0.9899925 0.98414314 0.17737612
000130 c8 2d 1a 3f 56 5d 4c 3f 6c 4e 97 3e ef 90 74 3f
       0.60226107 0.7982992 0.2955202 0.9553365
000140 17 21 0e 3e a8 85 7d 3f bd 46 84 3d 29 77 7f 3f
       0.1387981 0.9903207 0.06458805 0.997912
000150 1f b9 f5 3c 83 e2 7f 3f d5 22 64 3c a6 f9 7f 3f
       0.0299955 0.99955004 0.01392432 0.9999031
000160 bf c9 d3 3b a2 fe 7f 3f 92 9b 44 3b b5 ff 7f 3f
       0.006463259 0.99997914 0.0029999954 0.9999955
000170 c2 83 b6 3a f0 ff 7f 3f 7f 6e 29 3a fd ff 7f 3f
       0.0013924765 0.99999905 0.00064633036 0.9999998
000180 cf bd 41 bf 30 55 27 bf e7 9c 75 3f 6c 5d 90 be
       -0.7568025 -0.6536436 0.9594254 -0.28196275
000190 be 4d 42 3f f9 ad 26 3f d7 61 c7 3e a7 ca 6b 3f
       0.75899875 0.6510921 0.38941833 0.921061
0001a0 73 07 3d 3e b2 99 7b 3f df 45 b0 3d cc 0c 7f 3f
       0.18459873 0.98281395 0.08607077 0.996289
0001b0 db cb 23 3d 94 cb 7f 3f 3e 16 98 3c b4 f4 7f 3f
       0.039989334 0.9992001 0.018565293 0.9998276
0001c0 f8 30 0d 3c 91 fd 7f 3f 57 12 83 3b 7a ff 7f 3f
       0.008617632 0.99996287 0.003999989 0.999992
0001d0 54 5a f3 3a e3 ff 7f 3f a9 e8 61 3a fa ff 7f 3f
       0.0018566349 0.9999983 0.0008617738 0.99999964
0001e0 10 7c 75 bf 2c 3c 91 3e 0a 50 3b 3f cb 7f 2e bf
       -0.9589243 0.2836622 0.73169005 -0.68163747
0001f0 cf 71 61 3f 63 93 f2 3e 43 77 f5 3e 40 a9 60 3f
       0.88064283 0.47378072 0.47942552 0.87758255
000200 93 85 6b 3e ff 22 79 3f 0e 30 dc 3d 21 84 7e 3f
       0.23000173 0.97319025 0.10751353 0.9942036
000210 f4 b6 4c 3d 19 ae 7f 3f 3c 1a be 3c 5a ee 7f 3f
       0.049979165 0.99875027 0.023205869 0.9997307
000220 e6 7c 30 3c 33 fc 7f 3f dd d6 a3 3b 2e ff 7f 3f
       0.010771966 0.999942 0.004999979 0.9999875
000230 71 18 18 3b d3 ff 7f 3f 69 31 8d 3a f6 ff 7f 3f
       0.0023207928 0.9999973 0.0010772172 0.9999994
000240 8c 0f 8f be b8 cd 75 3f c6 c0 b2 3e 2d e4 6f bf
       -0.2794155 0.96017027 0.349127 -0.93707544
000250 63 29 76 3f 8f 93 8c 3e 68 8c 10 3f 32 49 53 3f
       0.961569 0.27456328 0.5646424 0.8253356
000260 e9 c0 8c 3e e9 22 76 3f 09 00 04 3e 38 dd 7d 3f
       0.2749093 0.9614702 0.12890638 0.9916568
000270 d1 9c 75 3d 12 8a 7f 3f 2b 1d e4 3c 96 e6 7f 3f
       0.059964005 0.99820054 0.02784594 0.9996122
000280 9d c8 53 3c 86 fa 7f 3f 58 9b c4 3b d2 fe 7f 3f
       0.012926248 0.99991643 0.0059999637 0.999982
000290 b7 83 36 3b bf ff 7f 3f 7d 6e a9 3a f2 ff 7f 3f
       0.0027849504 0.9999961 0.0012926605 0.99999917
0002a0 46 30 28 3f bd ff 40 3f 9f c6 db bd 8d 85 7e bf
       0.6569866 0.75390226 -0.10731243 -0.9942253
0002b0 41 7f 7f 3f 23 4f 80 3d 72 eb 24 3f b3 cc 43 3f
       0.9980355 0.06265094 0.6442176 0.7648422
0002c0 6a 71 a3 3e 18 9b 72 3f 5d d8 19 3e 25 18 7d 3f
       0.31922466 0.94767904 0.15023942 0.98864967
0002d0 32 3e 8f 3d 81 5f 7f 3f 6e 0f 05 3d 69 dd 7f 3f
       0.06994285 0.997551 0.032485418 0.9994722
0002e0 15 14 77 3c 8c f8 7f 3f c5 5f e5 3b 65 fe 7f 3f
       0.0150804715 0.9998863 0.006999942 0.9999755
0002f0 f8 ee 54 3b a8 ff 7f 3f 91 ab c5 3a ed ff 7f 3f
       0.003249107 0.99999475 0.0015081038 0.99999887
000300 95 46 7d 3f f6 fd 14 be e3 81 0a bf 62 4b 57 bf
       0.98935825 -0.14550003 -0.5410444 -0.840994
000310 e9 04 7d 3f 59 cf 1b be a5 a4 37 3f 5f 5b 32 3f
       0.9883562 -0.15215816 0.717356 0.6967067
000320 cb c7 b9 3e 80 8d 6e 3f 69 9e 2f 3e ff 34 7c 3f
       0.36285242 0.9318466 0.17150272 0.98518366
000330 50 aa a3 3d 65 2e 7f 3f 89 0f 18 3d d3 d2 7f 3f
       0.07991469 0.9968017 0.03712419 0.9993107
000340 a1 2f 8d 3c 44 f6 7f 3f 12 12 03 3c e7 fd 7f 3f
       0.017234625 0.99985147 0.007999914 0.999968
000350 38 5a 73 3b 8c ff 7f 3f a4 e8 e1 3a e7 ff 7f 3f
       0.0037132632 0.9999931 0.001723547 0.9999985
000360 32 01 d3 3e d5 3f 69 bf f1 3b 5c bf 9f 82 02 bf
       0.4121185 -0.91113025 -0.86028963 -0.5098056
000370 af d7 6e 3f 01 49 b8 be 1c 88 48 3f d5 21 1f 3f
       0.9329786 -0.35993198 0.78332686 0.62161
000380 ba b7 cf 3e 5c fc 69 3f 97 4f 45 3e e1 33 7b 3f
       0.4056986 0.91400695 0.19268642 0.98126036
000390 3e 12 b8 3d c2 f6 7e 3f cd 0e 2b 3d d3 c6 7f 3f
       0.089878544 0.9959527 0.041762162 0.99912757
0003a0 0c d5 9e 3c ae f3 7f 3f 3a 74 13 3c 59 fd 7f 3f
       0.019388698 0.999812 0.008999879 0.9999595
0003b0 ba e2 88 3b 6e ff 7f 3f b6 25 fe 3a e1 ff 7f 3f
       0.0041774185 0.9999913 0.0019389901 0.99999815
0003c0 f8 44 0b bf 64 cd 56 bf d1 5b 7f bf 7e e0 90 bd
       -0.5440211 -0.8390715 -0.99749476 -0.070740685
0003d0 61 9f 55 3f 82 12 0d bf a4 6a 57 3f 41 51 0a 3f
       0.8344632 -0.55106366 0.84147096 0.54030234
0003e0 1e 35 e5 3e 30 ea 64 3f 53 e9 5a 3e eb 14 7a 3f
       0.44767088 0.8941984 0.21378069 0.9768817
0003f0 76 75 cc 3d 98 b8 7e 3f 21 0d 3e 3d 6a b9 7f 3f
       0.099833414 0.9950042 0.04639924 0.99892294

r_cell.w_qs.weight f4 [24, 24]
000000 34 3d c6 be 57 1f 93 be 03 4d 38 be 3f 89 fc be
       -0.3871857 -0.28734848 -0.17998128 -0.4932346
000010 c1 4e a7 3e 73 d0 26 3f bc 2a 3e 3e 89 55 3a bf
       0.32677272 0.6516182 0.1857099 -0.72786766
000020 11 05 2d 3f df 04 2d 3f 79 0a aa bd 17 e4 3b be
       0.67585856 0.6758556 -0.08302779 -0.18348728
000030 a8 2d 51 bf 88 a6 bc bd a7 9e 31 3c 9d b7 d0 3e
       -0.8171029 -0.09211451 0.010841048 0.40765086
000040 11 a4 93 3e 60 07 8b bf 2a ec 96 3e d5 1f 89 3e
       0.2883611 -1.0861626 0.29477054 0.26782098
000050 4d 39 90 3f 2e 24 0b bf 2f 79 a4 3e 1a ce b2 be
       1.1267487 -0.5435208 0.32123706 -0.34922868
000060 30 b5 51 3d f6 1e 3b bf b6 6e 70 3e e4 a3 99 be
       0.051198184 -0.7309412 0.23479733 -0.3000785
000070 15 97 27 bf 28 53 84 bf 27 43 4e bf 0c 99 00 3d
       -0.6546491 -1.0337877 -0.80571216 0.031395957
000080 34 7e db bf 97 88 b4 be e5 6a b2 be cd 55 97 3d
       -1.7147889 -0.3526046 -0.3484718 0.07389412
000090 58 4b dd be 90 cf 6e 3e 9d 6d bd 3e 99 bf 34 bc
       -0.43221545 0.23321366 0.3699769 -0.011032009
0000a0 fc d7 88 3f 38 e0 98 bf 57 59 5d bb c9 53 02 3d
       1.0690913 -1.1943426 -0.0033775175 0.031818185
0000b0 28 af 97 be b6 97 0c bf cd fe 40 be 3e 2f a2 be
       -0.2962582 -0.5491899 -0.18847199 -0.31676668
0000c0 4f 8e 75 bd f8 b2 68 bf 48 15 b5 be 40 e7 60 bf
       -0.05995017 -0.90898085 -0.353678 -0.8785286
0000d0 55 a1 66 3f 67 fb 06 3c 1d 0d 62 3f 00 a2 c8 be
       0.90089923 0.00823865 0.8830126 -0.39186096
0000e0 9b 2b 74 3e 0f cd 1d 3f 99 57 c4 bd 3c f5 60 bf
       0.23844759 0.6164102 -0.095870204 -0.878742
0000f0 c9 29 0b bf c8 18 0d bf e8 54 8a bf 27 1c 52 be
       -0.54360634 -0.5511594 -1.0807161 -0.20518552
000100 b1 ca 95 be 42 01 22 3f 56 ea f9 3c 25 13 a6 3e
       -0.29256204 0.6328317 0.030507248 0.3243648
000110 24 86 91 3f b5 f1 da 3e e4 bf 50 bd 4b cb d8 3e
       1.1369061 0.42762533 -0.05096425 0.423426
000120 50 53 76 3f ad f3 09 3e 78 90 3e bf e9 a2 18 bf
       0.96220875 0.13471861 -0.7443919 -0.5962358
000130 a4 5a c2 3c 6a 0f 27 bf 84 d9 22 3f 7c 91 c2 3d
       0.023724861 -0.65257895 0.6361315 0.09500405
000140 30 0a 6f 3e d5 7f 7f 3f 37 1b af bd 4c 6c fc 3c
       0.2334373 0.9980443 -0.08550113 0.030813359
000150 e5 fe 21 bf 57 a0 cc 3e 6f e9 ea be dd 53 42 3f
       -0.63279563 0.3996608 -0.4588122 0.75909215
000160 5f 57 b6 bd 05 d2 e5 be e0 6e 81 bf 0c 35 0d bf
       -0.089033835 -0.44886795 -1.0111961 -0.5515907
000170 42 32 39 bf 60 ff a0 be 1b be 52 3f e0 86 60 3d
       -0.7234231 -0.31444836 0.8232133 0.054816127
000180 52 6d 74 bd 8b 92 88 3e 88 17 56 bf 22 6e 6a be
       -0.05967457 0.26674303 -0.83629656 -0.22893575
000190 b8 41 ff 3e 2c 60 14 3e 98 db 38 3e c9 40 2f 3d
       0.49854827 0.14489812 0.18052518 0.042786393
0001a0 5f 92 db 3d 61 55 b2 3f ac 3c ac 3e e2 65 8a bf
       0.107212774 1.3932306 0.3364004 -1.0812342
0001b0 4d 48 1a bf 55 fe 38 bf b5 d1 f7 3e eb 08 05 bf
       -0.6026657 -0.7226308 0.4840218 -0.5196673
0001c0 80 2a 0a 3f bf ed b2 bf b6 bd 55 bf 15 6a 21 3f
       0.539711 -1.3978804 -0.834926 0.63052493
0001d0 b6 8f 9a bf 53 76 c7 3e 45 0e c0 bd 59 df 84 be
       -1.2075107 0.38957462 -0.09377722 -0.2595165
0001e0 a4 82 d4 bd 34 a9 b9 be f1 f6 c0 3d 2e ee 09 3f
       -0.1037648 -0.36261904 0.094221 0.5387906
0001f0 e7 57 2c 3e 35 e6 32 3f 3b c0 11 bf 42 a4 b9 be
       0.16830407 0.6988252 -0.56933945 -0.3625813
000200 25 f2 e8 3e d5 13 9e be 95 8c 9e be 07 04 d0 be
       0.45497242 -0.30874506 -0.3096663 -0.40628073
000210 d6 8c 17 bf 3e c5 a1 3e d4 06 1b bf 0b 2f a6 bd
       -0.59199274 0.31595796 -0.60557294 -0.081144415
000220 77 73 e3 be 27 96 80 be 08 63 dc 3e e5 15 79 3e
       -0.4442403 -0.25114557 0.43044305 0.24324758
000230 66 ee e9 3e 65 e5 8c 3f 87 b8 81 bf 49 d8 4d be
       0.45689696 1.1007506 -1.0134438 -0.20102037
000240 f3 a1 7a be a7 7f 43 bd 8e 52 ab 3d 7e 17 95 bf
       -0.24475841 -0.04772916 0.083653554 -1.1647794
000250 ee 41 7a be b1 0b 92 be f5 72 1a 3e 8e 3c c0 3e
       -0.24439213 -0.28524545 0.15082915 0.375462
000260 ba 60 0a be 29 1a 0f be 59 ed 8c 3e f7 64 aa be
       -0.13513461 -0.13974823 0.27524832 -0.33280155
000270 b9 4f 4c be 34 bf 32 3f bf ff ee be 60 33 af be
       -0.19952287 0.69823 -0.46679494 -0.34218884
000280 af f1 59 be 77 a7 4d be ee 27 ea be 87 d9 94 3e
       -0.21283601 -0.20083414 -0.4573359 0.2907221
000290 94 3e 05 bf 92 28 fe 3e 7e ea d8 bc fd 2b 2e 3c
       -0.5204861 0.49640328 -0.026479002 0.010630605
0002a0 46 d2 40 bf f6 81 0d 3e 22 d6 7d 3f 58 b9 15 3e
       -0.7532085 0.13819107 0.99154866 0.14621484
0002b0 34 61 d3 3d 9f 92 ba 3d 3e 71 14 3f 0d 9b ad bf
       0.103212744 0.09109997 0.57985294 -1.3562943
0002c0 18 5b b1 3e 2b c4 52 bf d4 39 9b be f3 17 8e bc
       0.34639812 -0.8233058 -0.30317557 -0.017345404
0002d0 51 39 67 bf e7 57 93 3c 57 d6 43 bf 48 b2 f3 be
       -0.9032183 0.017986251 -0.7649893 -0.47596955
0002e0 cd 60 02 3f b0 53 5a 3f 82 91 aa 3d d3 e3 80 be
       0.50928956 0.85283947 0.08328535 -0.25173816
0002f0 ae d6 d9 3e 7a 83 f6 3d e1 ee c3 3d 53 d3 96 be
       0.425466 0.12036796 0.09567047 -0.29458103
000300 27 4f 91 3f fe 52 3d bf 30 e7 8d 3e 49 9d ed 3e
       1.135228 -0.7395476 0.27715445 0.46409062
000310 bb 3f 19 bf 9e a8 4c bf 1e b2 b6 bf 3d ae 57 3f
       -0.5986287 -0.7994479 -1.4273107 0.8425024
000320 20 b7 f0 bd 5e 0c 4c 3e 9c 54 06 3f 62 6a c4 3a
       -0.11753678 0.19926593 0.52472854 0.0014985318
000330 f7 c3 90 3e fd dc 80 3d 6f dd f5 3e 52 28 97 3e
       0.2827451 0.0629215 0.48020503 0.2952295
000340 67 f6 b4 3e b0 f9 1f bf 09 18 43 be 62 05 61 3d
       0.3534424 -0.6249037 -0.19052137 0.054936774
000350 00 1d 76 3e e5 b7 7e bf d3 55 14 be 2d 37 90 be
       0.240345 -0.9949935 -0.14485864 -0.28167096
000360 ae cf be 3d 98 f3 9a 3e 69 df ab 3f 0d bf 21 3e
       0.093169555 0.30263972 1.3427554 0.15795536
000370 a9 14 8b bf 6a db 2d 3c 33 8d 01 bf 5a b8 af 3e
       -1.086568 0.010611394 -0.5060608 0.34320337
000380 fd b3 06 bf 07 eb 1b bf c5 14 9a be ae 8e 24 bf
       -0.5261839 -0.609055 -0.3009397 -0.6428021
000390 67 6b 7f 3b 4f 9e b4 bf f7 5a 21 3e dc 78 5e 3e
       0.003897393 -1.4110812 0.15757357 0.21725792
0003a0 96 22 84 bf e0 e4 1f bf 80 ae b3 be 0b 82 bb 3e
       -1.0323055 -0.6245861 -0.3509407 0.36622652
0003b0 1f ab 0a 3e c2 9c 30 3f ea bf fd be d8 99 2f be
       0.1354184 0.68989193 -0.4956048 -0.1714853
0003c0 3b 33 d3 be bd 84 07 bd 01 fb 14 3f d4 1d 3d 3e
       -0.41250023 -0.033085573 0.581955 0.1846841
0003d0 fc 44 36 3f a0 1a 73 3f e1 9f 29 3e 0e cb 11 bf
       0.7119901 0.949625 0.16564895 -0.5695046
0003e0 2e 64 80 3f df b8 ea bd 77 1e d4 3d 93 6d a1 3d
       1.0030572 -0.114610426 0.10357373 0.07882228
0003f0 b0 8e 8e be 14 7b 04 bf 8d 0a c5 bc 5c a1 39 bf
       -0.27843237 -0.517503 -0.024052883 -0.7251184

r_cell.w_qs.bias f4 [24]
000000 b9 30 aa 3f 77 1a 1f bf 96 c0 87 3e 47 71 96 3f
       1.3296119 -0.6214976 0.2651412 1.175332
000010 74 8d 2f bf 28 c4 ee 3e 66 2b 52 bf 98 f6 b6 3f
       -0.68575215 0.4663403 -0.8209747 1.4294004
000020 6d 2c e0 be 3c 4b eb be 50 be d8 3e 9f 27 9b 3e
       -0.43783894 -0.45955837 0.42332697 0.30303666
000030 12 f4 ad be fe f1 90 bf bb 52 97 3f a8 d3 82 3f
       -0.33975273 -1.132385 1.1822122 1.0220842
000040 6e 25 5d 3e c4 22 e3 be 6c ba 06 3f 7d 83 90 3f
       0.2159631 -0.44362462 0.5262821 1.1290127
000050 35 bb c7 3f 09 7a e3 be 72 36 a5 3f 0c 37 de bf
       1.5604006 -0.44429043 1.290724 -1.7360549

r_cell.w_ks.weight f4 [24, 24]
000000 0b 38 09 3f ca 30 a8 3e 9a 18 1a bf 80 64 55 3f
       0.5360114 0.32849723 -0.6019379 0.83356476
000010 90 35 39 be d0 b6 0e bf d4 f8 a1 3d 04 7f 1e bf
       -0.18086839 -0.557477 0.07908788 -0.6191256
000020 f1 63 6f be b4 b4 f4 3e 4f 42 be bd 22 95 0c 3e
       -0.23377968 0.47794116 -0.09289991 0.13728765
000030 2c d5 85 3f 7e eb 91 bc e9 65 e7 3e 6b 9e be be
       1.045568 -0.017812487 0.4519494 -0.37230238
000040 64 92 c5 3e 30 31 15 3e 71 d8 69 3e 29 e9 fe 3e
       0.3858825 0.14569545 0.22836472 0.49787262
000050 35 db 9a bf 91 d1 29 3f ab 26 0a 3e 12 97 ef 3d
       -1.2098147 0.663354 0.13491313 0.11698736
000060 fa ff aa 3e 7e 52 d5 bd a2 28 c6 3f 7f 59 73 bf
       0.3339842 -0.10416125 1.548115 -0.95058435
000070 ce ac 87 3e bc 8d 26 3d 80 22 6c bf 95 cb 65 bf
       0.26499027 0.040662512 -0.9224014 -0.89763767
000080 4d 44 a0 3d b0 22 5b 3e 0f 5a 93 bf b2 fa 8d bf
       0.07825527 0.21399951 -1.1511859 -1.1092131
000090 4f 2d 13 c0 39 2e 31 bf 2a 71 01 bf 10 08 04 be
       -2.2996404 -0.69211155 -0.505633 -0.128937
0000a0 22 40 e9 3e f4 4a 90 be 8f e9 1e 3f 9e ed e8 be
       0.45556742 -0.28182185 0.6207513 -0.45493788
0000b0 23 c3 03 bd bc f5 96 be 78 d8 39 be cf 76 12 3f
       -0.03216852 -0.29484355 -0.18148983 0.5721254
0000c0 0e a2 13 be 29 8c a2 3d 9b 0f 99 bf 11 44 2a 3f
       -0.14417288 0.0793689 -1.1957887 0.6651011
0000d0 fe d3 e2 bd 24 e6 08 be 9f c6 b9 3e 57 06 fe 3e
       -0.110755906 -0.13369042 0.36284348 0.49614212
0000e0 c8 28 e3 bc 5c ee ed 3d 2b 6b 67 bf aa 15 db 3d
       -0.027729407 0.11617729 -0.903979 0.106974915
0000f0 8c 98 b6 3f 9a 7d 03 3f cf ac 42 be 1b 69 9a 3e
       1.4265304 0.5136353 -0.19011234 0.30158314
000100 50 e6 30 3f 19 2a 1d 3e 46 ff 84 3e 4c 97 77 bd
       0.6910143 0.1534809 0.25976008 -0.060447022
000110 30 d7 ac bd c6 a2 05 bf 07 0f 97 3e df a3 fb be
       -0.08439481 -0.522015 0.29503652 -0.4914846
000120 6c 1c 84 3d 40 91 cd bc 8d ae a7 3c c6 61 87 3e
       0.064507335 -0.025093675 0.020468974 0.26441783
000130 c2 de ef be 99 15 cc 3d 05 db d7 bd ca 04 88 be
       -0.46849638 0.09965057 -0.105398215 -0.26566154
000140 5d b5 07 3f f8 c8 79 bf 13 43 13 3e e1 b2 75 3f
       0.53011113 -0.9757228 0.14381056 0.9597607
000150 83 f0 33 be 7d 9c 58 3f 1c 26 a6 bf db 62 04 be
       -0.17572217 0.8461378 -1.298038 -0.12928335
000160 fa 9d 26 bd fa a9 02 3f f5 42 15 bf 92 71 c8 3f
       -0.040678002 0.51040614 -0.58305293 1.5659659
000170 ac 78 1d be 6d bc 74 3f ae 38 a1 3e d4 3f ca be
       -0.15378064 0.95600015 0.31488556 -0.39501822
000180 47 a6 c4 3f 4e 20 a9 bf d9 41 0e bd 23 bb e7 be
       1.5363244 -1.3212984 -0.034730766 -0.4525996
000190 75 ed 88 bf 14 cd 38 3e 3f 15 43 bf db 59 05 bf
       -1.0697466 0.18046981 -0.76204294 -0.52090234
0001a0 e0 b2 72 3f a0 75 4f bf 6b b1 3d 3e a7 c5 9b 3e
       0.9480419 -0.81038857 0.18524711 0.30424234
0001b0 f3 64 2f 3f 72 c4 2b ba e4 91 16 bf c6 0c 11 3f
       0.6851341 -0.0006552405 -0.5881636 0.56660116
0001c0 a6 cb 55 3e 97 eb 2f bd 27 97 2b bf 3b a2 ee 3d
       0.20878467 -0.042949285 -0.67027515 0.11652037
0001d0 b0 40 3b 3f 9b c8 f7 3e c4 5d 2c 3f 3a 2b 2e bf
       0.7314558 0.48395237 0.67330575 -0.6803471
0001e0 33 5e c7 bb b1 63 74 3e 56 76 1d be 57 c5 a2 be
       -0.0060842275 0.23866154 -0.15377173 -0.31791183
0001f0 c8 d3 d9 3d 77 e1 20 be e7 9c 81 be 2f ef a0 3f
       0.10636097 -0.15711008 -0.2531502 1.2572993
000200 09 34 e4 be 08 bc 39 3f 6d 92 7e be 6c 6a 93 bf
       -0.4457095 0.7255254 -0.24860545 -1.1516852
000210 3d 3c 33 be 92 1c ac be f7 eb f3 3e dc 74 5e bf
       -0.17503448 -0.33615547 0.47640964 -0.86897063
000220 38 ca 29 3d a3 5e d9 3e b6 d7 03 bf c9 e3 83 3d
       0.041452616 0.42455015 -0.51501024 0.06439931
000230 48 db 50 3f 23 e5 34 bf cd 4f 26 bf ba 9f d2 3e
       0.81584597 -0.70662135 -0.64965516 0.41137487
000240 90 22 d8 be 1d d1 39 bf 3f 45 6c bf 31 85 fe be
       -0.4221387 -0.72584707 -0.9229316 -0.49710992
000250 93 a5 6d 3e ed 97 d2 3f 20 c6 80 bd 50 f7 8f 3e
       0.23207693 1.6452614 -0.06287789 0.28118372
000260 8d 3b 75 3f 00 36 e6 3d f3 da 19 3f c6 84 1d 3f
       0.9579399 0.112407684 0.60099715 0.6153072
000270 a6 66 69 bf 77 45 a9 be 99 24 0b 3e 26 53 b0 be
       -0.91172254 -0.3306081 0.1358818 -0.34438437
000280 01 b2 71 bf fc 77 4b 3e 1d 01 43 bf ba 18 5b bd
       -0.9441224 0.19869989 -0.76173574 -0.053490378
000290 a8 c3 04 bf 54 8b 89 be ef fd ad 3e 45 4d 83 3d
       -0.5186105 -0.2686411 0.33982798 0.06411222
0002a0 fb 52 90 3d 44 0d 6d bd 48 36 01 3e 39 91 07 3f
       0.07047077 -0.05787398 0.12618363 0.5295597
0002b0 98 8f 97 be 7b e9 59 bf df 01 cf 3e eb 6a da be
       -0.2960174 -0.8512189 0.40431115 -0.42659697
0002c0 44 17 0a bf 71 bc df be 10 35 a7 3f 44 48 4a 3b
       -0.5394175 -0.43698457 1.3063068 0.0030865828
0002d0 32 07 91 3d 5e 08 5c 3f d9 36 75 bf 04 e1 59 3e
       0.070814505 0.8595027 -0.95786816 0.21277243
0002e0 01 55 10 bf 1f 45 84 3f b2 70 b9 be 69 24 db 3e
       -0.56379706 1.0333594 -0.36218792 0.42801216
0002f0 82 02 71 be a5 80 28 bf 6e 62 2f 3f 96 8c 0f bd
       -0.23536113 -0.65821296 0.68509567 -0.035046183
000300 28 c2 ad be ff 2f 1f 3e 2d c6 86 3d 41 37 c1 be
       -0.33937192 0.15545653 0.06580768 -0.37737468
000310 30 b3 03 bf ac ec 29 3f 49 b9 a3 bd 9a 90 5c 3c
       -0.51445293 0.6637676 -0.07994325 0.01346221
000320 52 b6 8b 3b f6 ad bc be d8 90 85 bf c6 3f 41 3f
       0.0042636776 -0.36851472 -1.0434828 0.75487936
000330 7e c8 b2 be e3 41 6b be dd cd 0c 3e 1a 02 32 3f
       -0.34918588 -0.22974353 0.13750406 0.69534457
000340 40 bd 4f 3f 68 9e bb bf c5 3a 08 bf de b6 be bf
       0.8114815 -1.4657717 -0.53214675 -1.4899557
000350 c0 73 8a be d5 68 fb 3e fa c0 49 bf 25 bf 9e be
       -0.27041435 0.49103418 -0.78810084 -0.31005207
000360 90 eb 03 bf ed 84 56 3f 86 e7 53 3e 54 eb a4 3f
       -0.51531315 0.8379658 0.20693788 1.2884316
000370 3e f5 32 3f fd f7 85 3e ea b3 1a 3f 74 fd 2f bf
       0.6990546 0.26165763 0.6043078 -0.68746114
000380 e2 5d c5 be f3 89 db 3c ba dc cb 3e 16 3d 55 3f
       -0.3854819 0.026799178 0.39816839 0.83296335
000390 e2 f8 d5 3f 0a 0d 18 bf c9 a0 bc bf 26 5c 06 bf
       1.6716578 -0.59394896 -1.4736568 -0.5248436
0003a0 54 36 7e 3f f4 c8 96 be 47 a4 a4 3c 62 a4 12 bf
       0.9930165 -0.2945019 0.020097865 -0.5728208
0003b0 ac 11 4e 3f a6 75 25 be 21 35 d9 be ff cf a6 3e
       0.80495715 -0.1615816 -0.42423347 0.32580563
0003c0 93 3d 80 3f 98 33 85 3e bb 47 79 3e a1 5d 82 bf
       1.0018791 0.26015925 0.24343769 -1.0184823
0003d0 6b 5e 89 3f f9 52 93 be b3 92 7a 3d 4d d1 04 bf
       1.0731939 -0.2877424 0.06117506 -0.5188187
0003e0 98 6b b9 3e 17 8c 88 3e 74 a4 ce 3e ca e4 2d bf
       0.362149 0.2666938 0.40359843 -0.6792723
0003f0 bf d3 2e bf d3 c5 df 3e 0b 95 48 3e f1 6f 2a 3b
       -0.6829185 0.43705615 0.19588105 0.0026006664

r_cell.w_ks.bias f4 [24]
000000 9d 5f 9a 3e eb b2 56 be e0 4b 6c be 36 ae 14 bc
       0.30151072 -0.2096669 -0.23075819 -0.009074738
000010 e1 9e 48 bd ff ce c2 3d 1b 92 ed bd 44 98 a3 3e
       -0.048979644 0.095121376 -0.11600133 0.31952107
000020 3f 12 a1 be f1 f0 3f bc dd 9f a6 3d c7 1f 5f 3f
       -0.31459233 -0.01171516 0.0813596 0.87157863
000030 5c 84 e5 bd 3f 8c c4 be 93 2d d5 3c 0d 37 01 3e
       -0.11206886 -0.3838825 0.026022708 0.12618656
000040 9f a6 67 be 32 35 7d 3e b2 37 2b be f9 b7 0a 3c
       -0.22622155 0.24727324 -0.16720465 0.008466714
000050 2f 5b 00 be 6b 2d da bd b2 70 c3 bd 9e 0e 94 be
       -0.12534784 -0.10653194 -0.09542979 -0.28917402

r_cell.w_vs.weight f4 [24, 24]
000000 4f fd 1d 3f 89 4a f7 3d 2a d2 4f 3e 50 a6 97 bb
       0.61714643 0.12074763 0.20295015 -0.0046279803
000010 59 d3 c3 bd 07 d6 0a 3e cf c8 51 3f a6 ea ef 3e
       -0.09561796 0.13558207 0.81947035 0.4685871
000020 2f c7 ac 3e ed da 2a bf 75 24 f4 be fc 95 44 bf
       0.33745715 -0.66740304 -0.47684065 -0.7679136
000030 5a 6c 9d 3e e6 ee 82 3f ea b2 ff 3e 63 7f 60 be
       0.30746728 1.0229156 0.49941188 -0.21923594
000040 a9 41 6b 3e bd 1d 8c 3d 15 be 18 bd 13 ff f4 bd
       0.22974266 0.068416096 -0.03729065 -0.11962714
000050 fd 86 48 3f 93 3e 94 3d 40 43 dc bd 4f 20 0f bf
       0.78330976 0.072384976 -0.107550144 -0.55908674
000060 dd 69 7d bd d7 ca 0f bf 8c 56 3f 3e c3 a1 37 be
       -0.061868537 -0.56168884 0.18685359 -0.17932801
000070 44 d1 6f 3e 56 d3 12 bf 7f 6f 21 be c1 5c 24 bf
       0.23419672 -0.57353723 -0.15765189 -0.6420403
000080 78 a1 20 bf e1 7b 9f 3f fb 17 64 3f eb d7 62 3f
       -0.6274638 1.245968 0.8909909 0.88610715
000090 3b a0 b7 3d 60 b4 94 bf 17 c0 c8 3e 24 a4 8f 3e
       0.089661084 -1.1617546 0.39209053 0.28054917
0000a0 b9 d0 c4 3e 9c 93 a4 3e 59 cb 89 3d d3 99 d0 be
       0.38440493 0.32143867 0.067282386 -0.4074236
0000b0 98 45 64 be 6f ec 39 bf ac 0d 52 3f e4 0a 80 3f
       -0.22292173 -0.72626394 0.8205211 1.0003324
0000c0 25 9a fc be 7b f6 a3 3e 04 03 ed 3e f1 cb 23 3e
       -0.49336353 0.32023987 0.46291363 0.15995766
0000d0 8a 05 75 bc 4a 86 e4 be de 22 89 bd 11 e7 86 be
       -0.014954934 -0.44633704 -0.066961035 -0.26348165
0000e0 19 50 16 bf 3e e6 6a 3f 4e fb 47 3f b3 22 3b 3f
       -0.5871597 0.9175757 0.78117836 0.7309982
0000f0 26 19 d3 3d 39 03 c0 be 45 ef 2c bd dc 14 9b bd
       0.10307531 -0.3750246 -0.042220373 -0.07572338
000100 71 6a db 3e d7 b2 6e 3e 53 50 9c 3e 36 a3 a4 be
       0.42854646 0.2331041 0.30530033 -0.3215577
000110 40 19 c0 be 5e b2 43 bc 08 51 43 3e 1a 12 2d 3f
       -0.37519264 -0.0119443815 0.1907388 0.67605746
000120 1d 19 48 bf 60 54 86 3e 53 39 12 3f 3e ed 3b bf
       -0.7816332 0.26236248 0.5711872 -0.7340888
000130 10 b4 00 3d c8 0b 41 bf c8 b1 49 3e f3 a7 83 3e
       0.03142172 -0.754086 0.19696724 0.25714073
000140 2c 7d 06 bf c8 07 2b 3f 0f b2 96 bb 0d 0b f7 be
       -0.5253475 0.6680875 -0.004598863 -0.4825062
000150 17 01 88 bd 57 57 d4 3e d7 b7 f4 3e 35 a0 5f be
       -0.06640833 0.41472885 0.4779651 -0.21838458
000160 db f7 ab be bc de 7d be ba 1e b0 bd 0c 6a 81 bd
       -0.33587536 -0.24791998 -0.085996106 -0.06319055
000170 fc 9b 8b bf 46 00 da 3d ce a0 4c bf 85 19 2f bf
       -1.0906978 0.106445834 -0.7993287 -0.68398315
000180 59 d0 95 3d 9b 5b 41 bf 65 3c 36 3e cc e0 09 bf
       0.0731513 -0.75530404 0.17796476 -0.5385864
000190 d9 0b 6b be c7 50 04 3d 9b 16 32 3f 7f bd 95 bf
       -0.22953738 0.032303598 0.69565743 -1.1698455
0001a0 75 b6 07 bf 37 f7 02 3f cb 3e 43 3f b8 34 d7 bd
       -0.5301278 0.5115847 0.7626769 -0.10508102
0001b0 cd 2d fc be 46 78 2f 3f 4d 7e 94 3f 79 ff 3b 3f
       -0.49253693 0.685429 1.1601044 0.73436695
0001c0 e4 e0 80 bd 7f 33 9e bd b1 b9 62 3f 92 f8 83 be
       -0.062928945 -0.07724666 0.8856459 -0.25775582
0001d0 02 aa dd be 98 60 c4 be 96 24 89 bf 7e 9e 6f be
       -0.43293768 -0.38354945 -1.071429 -0.23400304
0001e0 ac 9f ad be 6b bc f0 3d a4 c0 c4 3d ca 66 74 bf
       -0.33910882 0.11754688 0.09607056 -0.95469344
0001f0 25 91 96 3d 3f 46 95 be 3d 21 91 3d 90 98 79 be
       0.07351903 -0.29155156 0.07086418 -0.24374604
000200 d7 1f 03 3f 2b 13 de be 2e 39 16 3e d7 68 68 3d
       0.5122046 -0.43374 0.1467025 0.056740608
000210 0f 2b 60 bf 79 60 2f bf 53 bf bd bf 12 e2 cd bf
       -0.875657 -0.6850658 -1.4824013 -1.6084616
000220 b1 1c 17 bf 1b 83 5b 3e 9c f3 99 bf 58 47 5b bf
       -0.59028155 0.21436732 -1.2027469 -0.85655737
000230 9e 04 f8 be 61 e5 17 3f e8 5a dc be 54 10 0f 3d
       -0.48441023 0.5933438 -0.43038106 0.03492768
000240 44 82 94 bd 71 2a 63 3f ed 37 fe be 24 ea d6 be
       -0.07251409 0.88736635 -0.49652043 -0.4197551
000250 d3 55 78 3e 2d 60 61 3f 39 10 35 bf 61 f7 c2 3e
       0.2425149 0.8803738 -0.7072788 0.3807936
000260 38 7c 2a 3f 0e 54 9d 3f a9 98 88 bf 17 e3 1b 3f
       0.6659579 1.2291276 -1.0671588 0.60893387
000270 1e 72 a6 3e 3f 69 7f bf c7 6a 5e 3f de ef 59 be
       0.3250894 -0.9976997 0.8688168 -0.21282908
000280 a2 b8 20 3d fd 68 71 be cc 7b 67 bf 95 2e 0b 3f
       0.03923858 -0.23575206 -0.90423274 0.54367954
000290 c1 07 3e bf 81 21 91 be e5 06 53 3f 58 27 99 3f
       -0.7423058 -0.28345874 0.82432395 1.1965132
0002a0 56 d8 bb bd ad 45 ce 3e d3 1f 32 bf 8e b0 59 bf
       -0.09172122 0.40287533 -0.6957981 -0.85035026
0002b0 41 8e 40 3f 54 a1 dc bd 85 bd 39 bf d9 84 bb 3e
       0.7521706 -0.107729584 -0.7255481 0.36624792
0002c0 56 42 ac 3e 22 99 aa 3f 7c 4f 3b bf a7 fb 83 3e
       0.3364436 1.3327982 -0.7316816 0.25777933
0002d0 33 7b 62 bf 7a 70 fa bf 18 a5 b3 3f cc 03 d4 be
       -0.8846924 -1.9565575 1.4034758 -0.41409147
0002e0 0c 0c a4 3d d9 21 68 3e 26 6c 50 bf 12 78 db be
       0.0801011 0.22669162 -0.8141502 -0.42865044
0002f0 d8 70 8f bf 32 b7 6e 3c 1b f8 b9 3d 22 07 41 be
       -1.1206312 0.014570044 0.090805255 -0.18850377
000300 61 bd 7f be da 98 cd 3e 41 da 22 bf d5 8b bd bf
       -0.24974586 0.4015568 -0.6361428 -1.4808298
000310 03 91 a8 3f 94 ab a6 3c 17 8d b8 bd 6b 35 c1 be
       1.3169254 0.020345487 -0.09011286 -0.37736067
000320 27 35 eb be 51 be 8c 3f ae 7e bd be b2 27 7e bf
       -0.4593899 1.099558 -0.3701071 -0.9927932
000330 6f 5a 18 bf 0a 24 b5 be a2 f8 82 3f 50 94 97 bf
       -0.5951299 -0.35379058 1.0232127 -1.1842136
000340 18 a1 c0 be 73 72 15 bd 36 5b 47 bf d5 0b 00 bf
       -0.37622905 -0.0364861 -0.7787355 -0.50018054
000350 e9 f1 95 bf 6e 31 83 bf 91 5a 91 bf 0f c2 48 bf
       -1.171445 -1.024946 -1.1355764 -0.7842111
000360 0d b3 4d 3f 7a e7 8d 3e 9b 77 02 be 03 c7 cf be
       0.80351335 0.27715665 -0.12740938 -0.4058152
000370 bd 0a 2c bf 1f ba a3 3e 16 98 c4 bf fe 23 b0 be
       -0.67203885 0.31977937 -1.5358913 -0.3440246
000380 49 5e f0 be a4 fa c5 3b 5b 37 d5 3e 6b 14 1a bc
       -0.46946934 0.0060418416 0.41643795 -0.009404282
000390 5d 12 95 be 04 b9 13 bf fe 06 d9 3d a1 ae d4 3d
       -0.29115573 -0.57704186 0.10597037 0.1038487
0003a0 0d 22 2a be 77 18 02 3f b0 7d 0e bf 29 11 b1 be
       -0.16614552 0.5081858 -0.55660534 -0.34583405
0003b0 f3 f5 09 3f 79 e2 f1 be ea 3d 96 3e ac 67 31 be
       0.53890914 -0.47243097 0.29344112 -0.17324704
0003c0 f1 3e a0 3e 99 f4 b3 be ab 45 db be 7b 90 1d 3f
       0.3129802 -0.3514755 -0.4282659 0.61548585
0003d0 6f 4a ba bf b2 db 95 bc 0f 52 29 bf 13 99 27 bf
       -1.4553965 -0.018293235 -0.66140836 -0.6546795
0003e0 a3 5d 61 be d4 8a b8 3f 1a 4e a0 be ac aa e4 3e
       -0.22008376 1.4417367 -0.31309587 0.44661462
0003f0 73 48 0c bf a6 ca e9 be c5 e0 dc 3e 58 51 11 3f
       -0.5479805 -0.4566242 0.43140236 0.56764746

r_cell.w_vs.bias f4 [24]
000000 65 d7 4f 3f 1a 8b 91 bf 57 3c 6a bf 5a b3 75 3b
       0.8118804 -1.1370575 -0.9149832 0.0037490935
000010 d7 36 39 3f 14 3d 7d be 9d 99 b0 3e a2 57 18 3f
       0.72349304 -0.2473033 0.34492198 0.5950872
000020 20 a5 be 3e dc 69 54 bd 00 7c c8 be 36 5d 1f bf
       0.37235355 -0.051858768 -0.39157104 -0.62251604
000030 e8 ad a5 3d a9 ed ee 3e 34 2d 19 3f c4 cd 8a be
       0.080898106 0.46665695 0.598346 -0.27110112
000040 d5 41 1c bf 8a 9a f9 3e fb 2b 15 be a2 e5 e5 be
       -0.6103795 0.48750716 -0.14567558 -0.44901758
000050 65 cb f9 be cb dd d9 be 9b b7 78 be ac ee 05 3e
       -0.4878799 -0.42552027 -0.2428879 0.13079327

r_cell.layer_norm.weight f4 [24]
000000 32 66 93 be 13 4f 1a 3f 20 8b 2b 3f 86 e0 60 40
       -0.28788906 0.6027691 0.6700916 3.5137038
000010 d0 cc a3 3f 41 e7 d8 3f 0f 7e 18 40 4c dd 1c 3e
       1.2796879 1.6945573 2.382694 0.15318793
000020 40 c0 b3 be 81 d4 15 3e 39 93 c2 3f eb 49 38 40
       -0.35107613 0.14631845 1.5201179 2.8795116
000030 c6 c1 45 3f 1c dd 06 3d 30 89 2b 3e fc db e1 3e
       0.772488 0.03292571 0.16751552 0.44113147
000040 49 ed 75 3e c5 3a ef 3e e7 23 fb 3e 4a 6a 11 40
       0.24016298 0.46724525 0.4905083 2.2721124
000050 ae 2b 24 40 9b 61 de 3e 2e 66 32 3f 7d ce 10 40
       2.565166 0.43433842 0.69687164 2.262603

r_cell.layer_norm.bias f4 [24]
000000 98 08 19 bf 70 eb e3 3c 23 9d 1f 3f 0f ff 56 bf
       -0.5977874 0.027822226 0.62349147 -0.8398294
000010 c4 42 ed bd d9 7a 8c 3f 72 8e 4a bf b1 0a 06 3f
       -0.11585 1.097499 -0.79123604 0.52360064
000020 c1 3b 40 be a0 85 87 3f 0a b2 7e 3f 81 5d 5e bf
       -0.18772794 1.0587654 0.99490416 -0.86861426
000030 e3 59 c4 be b6 39 56 3f e0 45 67 3f 61 2a 4a 3f
       -0.38349828 0.8368181 0.90340996 0.78970915
000040 f6 ce 69 3f 59 49 27 3f 48 1c c2 be 85 8f 6f bf
       0.9133142 0.65346295 -0.37912202 -0.9357837
000050 30 68 73 3f d5 c9 54 be 15 7d 31 3f 9e c5 63 bf
       0.9508085 -0.20780118 0.69331485 -0.88973415

r_cell.fc.weight f4 [24, 24]
000000 2b f2 01 3d 75 1e 38 bf 18 f3 57 be 26 62 41 3f
       0.03172509 -0.71921474 -0.21088827 0.7554039
000010 ad c8 45 3f 65 89 9d be 33 a5 00 3f a6 58 48 be
       0.7725933 -0.30768886 0.50252074 -0.19565067
000020 a2 33 23 bf 44 7c f6 3e f1 80 a3 3e 0c a2 84 3e
       -0.6375066 0.48141682 0.31934312 0.25904882
000030 e6 1d 1f be 35 1d 69 3e 29 2b 10 3f 5f 59 8d be
       -0.15538749 0.22765048 0.5631586 -0.27607247
000040 69 e5 f6 3d 0c e5 1d 3f 44 d2 4d bf 23 e3 11 bf
       0.12055475 0.6167762 -0.80398965 -0.5698721
000050 a9 3a 6a be 89 9c 6d 3d e2 e9 28 bf e6 6b 8c 3e
       -0.2287394 0.05801061 -0.65981877 0.2742607
000060 70 99 44 be 48 0a 2f bf 61 df 8a be 75 50 2f bf
       -0.19199157 -0.6837506 -0.2712355 -0.6848214
000070 a6 1b 21 3f 5f cf 59 bf 1d fe 48 3f 79 64 09 bf
       0.62932813 -0.8508205 0.78512746 -0.53668934
000080 89 2b df bf e0 00 6d 3f 66 96 f9 3f b5 8c d9 3f
       -1.7435161 0.9257946 1.9499023 1.6996065
000090 a8 8b 09 3e 54 05 22 3e 8e 8b 9a be b6 6f a8 bf
       0.13432181 0.15822345 -0.30184597 -1.3159091
0000a0 3a a6 86 be 19 57 a3 3e 4e f6 c0 bc 13 2c ae 3e
       -0.26298696 0.31902388 -0.023554947 0.34018
0000b0 0a 98 72 3e c8 71 c3 be bf b1 9f bf b4 74 3f 3e
       0.23690811 -0.38172746 -1.2476119 0.18696862
0000c0 bc 9c e6 3d ad 2a b7 bf 3c 08 bd be f1 68 d4 3e
       0.112603635 -1.4309899 -0.36920345 0.41486314
0000d0 63 e8 92 3f 27 0b 76 bf bb 5c 60 3f 24 17 ce 3e
       1.1477169 -0.9611077 0.87641495 0.4025203
0000e0 93 c3 7b 3d 3c 9c 16 3f 40 20 0a 3e e5 65 85 be
       0.06146581 0.58832145 0.13488865 -0.26054302
0000f0 74 10 48 be 8f 20 3c 3f 88 ec a4 3e 30 54 a8 be
       -0.19537526 0.7348718 0.3221171 -0.3287673
000100 fb 7c 06 bd c3 06 fd 3e ef 89 13 3d 7a 83 48 bf
       -0.032834034 0.4941922 0.036020216 -0.7832562
000110 3f 90 07 bf 90 0b 25 bf c5 ae 5e bf 86 40 c5 3e
       -0.5295448 -0.6447077 -0.8698543 0.3852579
000120 e3 4a df be 20 b7 96 3f 10 7e 84 3e e9 a8 74 3c
       -0.43611822 1.1774635 0.25877428 0.014932849
000130 74 a8 b4 bf 98 86 7e 3f 3e 88 85 bf bc b0 25 bf
       -1.4113908 0.99424124 -1.0432203 -0.647228
000140 bb b7 04 bf ae db 0a bf f9 83 15 3f 60 25 a2 3e
       -0.5184285 -0.54241455 0.584045 0.3166914
000150 da bf 8c be 67 b4 24 bf ea 92 2f bf 17 91 85 3a
       -0.2749012 -0.6433777 -0.6858355 0.0010190335
000160 d0 5c a6 be 74 0d b5 be 5d 77 33 3f 1a 60 07 3f
       -0.32492685 -0.35361826 0.7010401 0.52881014
000170 7e a5 5e 3f 78 79 b9 3f 35 01 12 3e f8 63 f9 bd
       0.8697127 1.4490194 0.14258273 -0.12177271
000180 15 5a 87 3d 8f 88 92 3d 70 5f 36 bf 0a a5 52 3f
       0.06608979 0.07154953 -0.71239376 0.8228308
000190 d8 f1 b7 3d d5 31 36 3d 0f 99 49 bf 67 59 c6 bd
       0.08981675 0.044481117 -0.78749174 -0.09685021
0001a0 32 29 95 3e 55 68 f8 be 3d c0 2e bf b4 fe bb bf
       0.29132992 -0.485171 -0.6826208 -1.4687104
0001b0 57 17 94 bf 6e ff 85 3c da 14 87 3f 74 5e 2a 3e
       -1.1569623 0.01635715 1.0553238 0.16637594
0001c0 50 39 ee 3e 5c d9 c5 be db f5 21 3f 6d 8f 2e be
       0.465281 -0.38642395 0.6326577 -0.170469
0001d0 ca bb 96 3d 72 34 2a 3f ce 43 cd bb ea c7 94 3e
       0.07360037 0.66486275 -0.0062641865 0.29058772
0001e0 b5 19 d7 3d 24 12 a8 bf 4a 83 0b bf 48 88 d6 be
       0.1050295 -1.3130536 -0.54497206 -0.4190085
0001f0 c8 89 72 3f 67 74 9e bf e1 fe 5a 3f 66 10 f1 3e
       0.9474149 -1.2379273 0.85545164 0.47082824
000200 75 23 24 3e 7f 39 36 3f c1 fa d0 be b2 3f de be
       0.16029151 0.7118148 -0.4081631 -0.4340797
000210 9f 3e 56 be e8 3f 13 3f 16 8e 41 3f 9c 29 6b be
       -0.20922326 0.5751939 0.7560743 -0.22965091
000220 be 05 6f 3e 61 69 e7 3d 9e 3b 2d 3e b0 72 1e bf
       0.23342034 0.11299396 0.16917273 -0.6189375
000230 78 47 84 be d5 df 90 bf 2f 78 e2 be 53 74 97 3e
       -0.25835776 -1.1318308 -0.44232318 0.29580936
000240 6d 7f 39 be f7 6f aa 3f 5e 8e f1 3e 1a bd 18 3e
       -0.18115015 1.3315419 0.4717893 0.14915887
000250 04 b8 b3 bf dc d3 49 3f 93 a1 8f bf 6d 58 04 bf
       -1.4040532 0.78838897 -1.1221184 -0.5169743
000260 b6 ef 76 3c 6c 5c dc be fb e1 de 3e 1b 3b db bd
       0.0150718 -0.43039262 0.43531784 -0.10704633
000270 f2 8b 02 bf c4 e2 cc be c8 1b 05 bf 0f 13 0e 3c
       -0.5099479 -0.40016758 -0.51995516 0.008671536
000280 c6 fb 32 be e8 a5 01 bf 61 d8 a3 3e 85 8f 39 3f
       -0.17478856 -0.5064378 0.32001022 0.7248462
000290 0f d0 38 3f 47 8f 83 3f a6 d1 0d 3f ad 38 1b bf
       0.7219247 1.02781 0.55398023 -0.60633355
0002a0 0d e9 57 3e f7 b4 11 bf 79 75 5c 3d 53 a1 d3 3f
       0.21084996 -0.56916755 0.05382297 1.6533607
0002b0 07 2d 01 3f a6 bc 0e 3f f9 16 f6 be 0f 06 b9 3e
       0.5045933 0.55756605 -0.48064402 0.36137435
0002c0 ec d7 92 3f 9b ac 80 bf f5 d4 33 c0 1d 3f 83 c0
       1.1472144 -1.0052675 -2.8098729 -4.1014543
0002d0 cd 80 5b bf 2b a1 bb 3e 80 41 70 3f a6 0c 94 3f
       -0.8574341 0.366464 0.93849945 1.156636
0002e0 68 79 37 3f 25 18 85 be 23 df c2 3e 2d a8 5b bf
       0.71669626 -0.25994983 0.38060865 -0.8580349
0002f0 d6 88 b1 be c0 ca 75 3c ec f3 1f 3f e0 3e 8a 3f
       -0.3467471 0.015001953 0.6248157 1.0800438
000300 cc a0 9b 3e 12 a2 87 be 1c 89 fc bd 8b 41 7b be
       0.30396116 -0.26490837 -0.12330839 -0.24536721
000310 95 4e 5a 3d 48 1e a2 bb 46 1f 93 3f c2 60 73 3e
       0.053297598 -0.0049474575 1.1493919 0.23767379
000320 70 5d 09 3e 9b ef f1 3e c6 e3 a4 3f 16 27 b5 3f
       0.1341455 0.47253117 1.2882011 1.4152553
000330 d0 b3 b2 3f c3 5f d1 3e 41 df 23 bf 1c 02 47 bd
       1.3961124 0.40893373 -0.64012533 -0.048585996
000340 3e b1 87 bf 87 74 85 3f 29 90 c4 bf 28 a2 e1 be
       -1.0600965 1.0426186 -1.5356494 -0.44069028
000350 50 5e 67 bf 92 38 a6 be 78 c2 c7 bb da 60 18 be
       -0.90378284 -0.32465035 -0.0060961805 -0.14880696
000360 0e af d5 ba cc 15 d0 be 38 5d b8 be c9 b3 8b 3f
       -0.0016302781 -0.4064163 -0.3600862 1.0914241
000370 f9 11 63 3d 9a 0e e3 3e 4f 6a bf 3d e1 08 48 3f
       0.055437062 0.44347078 0.09346449 0.7813855
000380 88 10 c0 3f 8f e1 34 bf ed 6a de bf 31 63 4b c0
       1.5005045 -0.70656675 -1.7376381 -3.1779292
000390 c8 96 b5 3e db ad 8e 3e ae a9 13 3e aa e6 a8 3f
       0.354666 0.27867016 0.14420196 1.3195393
0003a0 6f 1f 9d be ca a5 96 3e e1 0e 7b bf 3c be a7 bf
       -0.30688044 0.29423362 -0.9806958 -1.310493
0003b0 66 0d 53 bf d7 7f 30 bd 2f 5d 0f 3f 08 fa 4a 3f
       -0.8244232 -0.043090668 0.5600156 0.7928777
0003c0 61 2b 9d 3e 41 92 b8 bf 76 1d 21 bf 1a a6 20 be
       0.30697158 -1.4419633 -0.6293558 -0.15688363
0003d0 9b cd 95 3f 39 eb 88 bf 13 a0 6e 3f e0 88 70 3e
       1.1703371 -1.0696784 0.93213004 0.23489714
0003e0 d7 e8 90 3d 62 24 a2 3e ea 68 9c be 7d 10 ae 3c
       0.07075661 0.31668383 -0.30548793 0.021248097
0003f0 5d fb 2a 3e 3e 5d f1 3e d9 de 2f 3f 74 d4 1b be
       0.1669745 0.4714145 0.68699414 -0.15217763

r_cell.fc.bias f4 [24]
000000 6d c1 1a be 5a 22 17 bf df bf 90 3e 74 ae f6 be
       -0.15112849 -0.5903679 0.28271386 -0.48179972
000010 b0 5c be be 88 88 f3 3e 3b 76 f4 be f6 ca 71 3e
       -0.3718009 0.47565103 -0.47746453 0.2361258
000020 9b 91 f7 3d 4b 63 74 3f cc 5d 8e 3e 88 d6 29 bf
       0.12088319 0.9546401 0.27805936 -0.66342974
000030 79 ec 37 be c7 23 1d 3f 55 95 51 be 98 5e 6c be
       -0.17961301 0.61382717 -0.20467122 -0.2308296
000040 7d cf 0d 3e 01 85 ec 3d 67 bc 62 3e a5 d6 14 bf
       0.13848682 0.11548806 0.22142182 -0.5814002
000050 f3 f3 81 3e 6f 24 a1 bf dd 8f c3 3d b3 ee 3a bf
       0.2538143 -1.2589244 0.09548924 -0.73020476

fc1.0.bias f4 [24]
000000 47 4c 0c 3e ee 81 41 3d d8 8e 74 be 0f 0c 0c 3c
       0.13700972 0.04724305 -0.23882616 0.008547797
000010 75 33 b1 be 9b 71 cc 3d 1e 38 0c be 39 1c 98 be
       -0.3460957 0.09982606 -0.13693282 -0.29709032
000020 18 c1 9d bd ab 9a 01 3e 66 89 6c bc bb 64 10 3c
       -0.07702845 0.12656657 -0.014437055 0.0088130785
000030 0e 8f 80 3d 96 24 12 3e a2 cf 82 be 1a 3b 0a bd
       0.062772855 0.14271769 -0.25549036 -0.03374777
000040 2d 1b 65 be d5 fc 07 be 7f 16 24 bc 45 c8 8c bd
       -0.22373648 -0.13280042 -0.010015129 -0.06874136
000050 30 e9 a9 bd d7 b9 af be 5a 2a 6f be 03 f2 16 bd
       -0.0829643 -0.34321472 -0.23356 -0.036851894

fc1.0.weight_orig f4 [24, 6]
000000 b1 35 28 3f 5a 02 67 3d b3 3e b6 3f 81 38 28 3d
       0.65706927 0.056398727 1.4237884 0.04106951
000010 6b a0 54 3f c6 9b 6c bf c1 08 01 3e 1b 21 92 3e
       0.8305728 -0.9242519 0.12600996 0.28540882
000020 d1 6b 94 3f 30 49 7d 3e 57 24 38 3e 5c a7 32 bf
       1.1595403 0.2473495 0.17982613 -0.6978662
000030 78 21 ea 3e ab 14 cd 3e aa 8e 9f bd 0f 7e 77 3e
       0.4572866 0.4005483 -0.07790883 0.24169181
000040 42 ac e2 3e 24 ff b4 bf f5 9b de 3e 7f f5 18 bd
       0.44272047 -1.4140363 0.4347836 -0.0373435
000050 3c 65 61 3f af e1 d3 bd b9 c1 f6 3e 70 a7 3f 3f
       0.88045096 -0.1034578 0.48194674 0.74864864
000060 94 df 01 3d 6e da 1f bc 0c 29 14 bf eb 54 57 bd
       0.03170736 -0.009756668 -0.5787513 -0.05257122
000070 de 04 16 bd 7a 63 d4 be 09 6d 53 bd c5 e2 1d 3f
       -0.036625735 -0.41482145 -0.051617656 0.6167415
000080 6f 57 a0 3e 72 f2 1b 3f 13 57 7e 3e a3 a6 60 3f
       0.31316707 0.6091682 0.24837904 0.8775427
000090 bf 15 aa be 56 2f e7 3e 0b 5b 33 3e 8f 00 c5 3e
       -0.33219716 0.45153302 0.17515199 0.3847699
0000a0 10 00 1a be 5f ea 11 3f 6c e0 3c 3d 38 8b cc 3d
       -0.15039086 0.56998247 0.046112463 0.09987491
0000b0 ff 31 42 3e e4 c0 70 3e 22 02 b6 3c 8d a3 83 bf
       0.18964384 0.23511082 0.022217814 -1.0284287
0000c0 8f c1 0b be 01 6a 42 3e 3f 5f 79 3e bd 92 44 3e
       -0.13648055 0.1898575 0.2435274 0.19196601
0000d0 19 66 f6 bd ad 02 a8 3f 72 d8 89 3d 3a f1 ab 3e
       -0.12031192 1.3125817 0.06730737 0.3358248
0000e0 61 37 5a 3f 25 99 a7 3e e3 a0 5a 3d c8 47 8d 3f
       0.8524075 0.32734028 0.05337609 1.1037531
0000f0 c3 b1 45 3f 10 f6 1c bc 85 c2 46 3f 7c 6c 40 3d
       0.7722437 -0.00958015 0.77640563 0.04697846
000100 e3 2f 4c 3f e5 6d 13 bf f2 09 e8 3e 08 ab a5 3d
       0.7976057 -0.5758956 0.45320088 0.08089262
000110 a1 7d 68 3f 0a dd 11 bb 2e 6b 25 3f a8 ed 86 bf
       0.90816694 -0.0022256994 0.6461667 -1.0541277
000120 2e 4f 80 3f 23 34 a7 3e fa 1c 93 bd 63 2d b5 3e
       1.0024164 0.32656965 -0.07183261 0.3538619
000130 2e 2f 52 3f 7e d5 81 be a4 46 ee 3e f3 2b c3 3e
       0.8210324 -0.25358194 0.4653827 0.38119468
000140 67 94 0f 3f 83 b2 9a 3e 03 e4 fa 3e 9d 00 8b 3f
       0.5608582 0.3021432 0.49002084 1.0859562
000150 cf 9d 44 be e5 a1 e0 be bb 73 e7 3e 3f d8 93 be
       -0.19200824 -0.43873516 0.45205483 -0.2887592
000160 a1 d6 8c be a8 fe e6 3e 3e 05 8b bd 62 00 c7 bd
       -0.275075 0.45116162 -0.06788109 -0.0971687
000170 a0 3e 25 3d 39 89 d1 bc ae ef c7 bd 23 ca 56 3f
       0.040342927 -0.025578128 -0.09762512 0.83902186
000180 75 42 39 be fa 63 6f 3e 26 01 39 3f 55 18 2e 3e
       -0.18091758 0.23377982 0.7226738 0.1700147
000190 ce d3 9a 3d 13 be 88 bf b9 3a 61 be 24 1b 4f bd
       0.0755993 -1.0683006 -0.21995057 -0.050562993
0001a0 36 1b 65 3f f4 23 b4 3d 97 8c 0a bc cd 78 63 3f
       0.89494646 0.0879592 -0.008456371 0.888562
0001b0 d1 37 b5 3e a4 f5 c6 3e 96 17 83 3f c1 df bd 3e
       0.35394147 0.38859284 1.0241573 0.37084773
0001c0 ee 76 b7 3e 57 7f b9 bf 84 00 07 3f bd 57 41 be
       0.35832924 -1.4491986 0.5273516 -0.18881126
0001d0 e2 3d 0d 3f 22 25 88 be 8b c6 b8 3e b9 c3 8f 3e
       0.5517255 -0.2659083 0.36088976 0.28079012
0001e0 8f 75 c6 3d 6a 48 15 3e 3a 1a dd 3e 53 40 07 3e
       0.09690391 0.14578405 0.43184072 0.13208131
0001f0 d5 59 e2 3d 4a 02 ce 3f c7 c5 cf bd 93 6d 0f be
       0.1105229 1.6094449 -0.10145145 -0.14006643
000200 60 c8 3d be 34 b2 b4 bd 14 b7 17 be fd 23 72 bf
       -0.18533468 -0.08823052 -0.14815933 -0.94586164
000210 eb 76 da 3e 83 22 5a 3e cf 90 f2 3a 68 64 04 3e
       0.42668852 0.21302228 0.0018506291 0.12928927
000220 7d e4 a0 3e 91 a9 da bf 65 7d 22 3f ef 05 93 bd
       0.31424323 -1.7082998 0.63472587 -0.07178866
000230 f2 4f 23 3f f5 d0 3b bd 9f 6a 2e 3f c7 2f d7 bc
       0.6379386 -0.045853574 0.6813144 -0.0262679

fc1.0.weight_u f4 [24]
000000 b7 31 92 be 4a e9 3f be 98 72 9d be 44 6b 97 3d
       -0.28553554 -0.18741336 -0.3075149 0.07393506
000010 ce bb 6e bd d4 5d 0c 3e 79 52 ec 3d 29 66 52 be
       -0.058284573 0.13707668 0.11539168 -0.20546784
000020 cb 33 7d 3e 6a 6c 2d 3e 63 fa 4d be c6 78 8d be
       0.24726789 0.16935888 -0.20115046 -0.27631205
000030 f3 eb 02 be 37 7b 0f 3e e5 07 c4 3d eb e6 28 3e
       -0.1278532 0.14011846 0.09571818 0.16494338
000040 42 e4 65 be a8 ea 16 3e 78 ef af be 32 9c aa 39
       -0.22450355 0.14737952 -0.34362388 0.000325413
000050 46 60 8e 3e a5 93 23 be 68 77 b6 be 41 e3 a5 bd
       0.27807826 -0.1597429 -0.35637975 -0.08099986

fc1.0.weight_v f4 [6]
000000 4a 49 57 be 2b b5 47 bd 99 28 2a be 7f 2e ea bc
       -0.21024051 -0.04875676 -0.1661705 -0.028586624
000010 21 17 58 be 4a 36 70 3f
       -0.21102573 0.9383284

fc1.1.weight f4 [24, 24]
000000 a2 73 52 bf ea 98 e3 be 0e 04 86 3f 41 02 81 3f
       -0.8220769 -0.44452602 1.0469987 1.0078813
000010 6c 27 27 40 b7 ed e1 bf 2e 61 ff 3f 35 2f be 3c
       2.6117811 -1.765067 1.9951532 0.02321587
000020 19 a5 1a 3f cd 6b 3b bf 95 ce 96 bf 65 a9 a7 3f
       0.6040817 -0.73211366 -1.1781794 1.309857
000030 71 b6 52 be 29 38 cb bd c1 89 73 bf 21 e2 13 c0
       -0.20577408 -0.09922821 -0.9513207 -2.3106768
000040 d5 4e 84 3e 2a f1 74 bf d5 b0 5d bf ad a4 91 3f
       0.25841394 -0.9568049 -0.8659795 1.137838
000050 cf 32 a0 3e 05 c6 b4 3f b2 67 94 bf 34 c9 64 3f
       0.31288764 1.4122931 -1.1594145 0.8936951
000060 7d e7 4c be 3f bd 70 3f d6 c5 a9 3d 93 3f a8 bf
       -0.20010181 0.94038767 0.08289687 -1.3144401
000070 dc 03 6c 3f 8a 9f 88 3e 5b af 4a 3f 62 66 d9 3f
       0.9219339 0.2668422 0.7917382 1.698437
000080 3b 23 ad 3f 8c aa ac bf 7b e7 23 bf 57 29 02 c0
       1.3526376 -1.3489547 -0.64025086 -2.0337732
000090 44 aa 8c bf ad 85 d3 3f 1a e0 9d be 92 cf 18 be
       -1.0989461 1.652517 -0.30835038 -0.14922932
0000a0 7e c1 b9 3e b3 bf d0 3d 6c f9 41 3f 7e 9f 3c 3f
       0.36280435 0.10192814 0.7577121 0.73680866
0000b0 15 82 b6 be 22 ba c7 3c 4f b0 5f bf 4e 45 5b 3f
       -0.3564612 0.024380747 -0.873784 0.85652626
0000c0 e5 4a 0d 3f f3 39 e4 3f 1b 2b 08 40 9a f3 47 bf
       0.55192405 1.7830185 2.127631 -0.7810608
0000d0 96 bf f0 3e b6 92 48 3f c5 7e 96 be 91 89 20 3f
       0.47021168 0.78348863 -0.29393592 0.6270991
0000e0 10 1e 4a bf e9 26 73 bf a3 c4 56 bf 27 fc 35 3e
       -0.7895212 -0.9498125 -0.83893794 0.1777197
0000f0 dc ad 6b 3f 61 5c e7 3e 28 b5 89 bc a9 43 fc bf
       0.92062163 0.45187667 -0.016810015 -1.9708148
000100 b3 58 4e bf 79 88 c5 3f 40 93 d4 3f b7 f8 a0 bf
       -0.80604094 1.5432273 1.6607437 -1.2575902
000110 06 c2 62 bf 28 f7 d8 3f 39 1e 6e 3f 5c 76 30 3f
       -0.88577306 1.6950426 0.93014866 0.689306
000120 90 43 ff 3e 9a 4c c8 3d 04 8f c6 3f e0 b4 aa bf
       0.49856234 0.097802356 1.5512395 -1.3336449
000130 7f 0c 44 3f ef a0 19 bf bd e1 bc 3d 44 f5 13 3f
       0.7658157 -0.6001119 0.09222744 0.5779612
000140 24 2b 97 be 8f 94 83 bf e6 ea a5 bf 9c 46 e8 be
       -0.295251 -1.0279711 -1.296231 -0.4536637
000150 ca 7a 31 3e c0 a8 1a 3f ee 06 9b 3f 3d d4 de be
       0.17331997 0.6041374 1.211149 -0.435213
000160 f6 f4 f4 bf f2 d5 2a 3f 92 9c 8f 3f 22 11 c1 bf
       -1.9137256 0.66732705 1.1219656 -1.5083354
000170 51 2e 94 be 68 10 bc 3f 40 eb 0b 3f f3 27 11 c0
       -0.28941587 1.4692507 0.5465584 -2.2680633
000180 1a 18 df 3f fe bb 08 40 98 f1 c8 3f 6b f9 88 be
       1.742923 2.1364741 1.5698729 -0.2675279
000190 c2 ee c1 3f e6 a4 a7 3f f2 d4 dc be 91 a3 fd 3d
       1.5150988 1.3097198 -0.43131214 0.123847134
0001a0 40 48 df be 8a 94 31 be 78 08 1c 3f 4a 82 1a 3f
       -0.4360981 -0.1734182 0.6095042 0.60355055
0001b0 41 49 8f be 8b 4d 8a 3e e5 0f 7d bd dd 1f f3 bf
       -0.27985576 0.27012286 -0.061782736 -1.8994099
0001c0 41 8d d5 bf dd 15 e6 3e ce 11 c1 be 33 00 32 c0
       -1.6683732 0.44938555 -0.37708896 -2.7812622
0001d0 ad fb bb bf 73 b9 f1 3e 42 23 4c 3f 6e ac bd 3f
       -1.468618 0.472118 0.797413 1.4818246
0001e0 d4 a9 cd 3e 83 4c dc 3f 0d 56 97 3f 6e 3b c7 3e
       0.4016863 1.721085 1.1823136 0.3891253
0001f0 4a f2 13 3f 89 b2 b2 bf 5e 70 9c 3e 00 d1 81 3f
       0.5779158 -1.3960735 0.3055448 1.0141907
000200 10 cf 61 bf ef 0b 91 be b4 f2 41 bf f8 b5 2e 3f
       -0.8820658 -0.28329417 -0.7576096 0.6824641
000210 63 5e 4c 3e d0 1b 46 bf 75 10 a5 3e 4b 3e bf 3f
       0.1995788 -0.7738619 0.32239118 1.4940885
000220 37 74 c9 3f ec 4d 9a be fd f9 97 bf 7b ba d0 3d
       1.5738591 -0.30137575 -1.1873165 0.10191818
000230 db db 6f be a3 6c 92 bf c1 5b 68 bf 46 be 7d 3f
       -0.23423712 -1.1439403 -0.90765005 0.9911846
000240 ab 92 99 3f 25 ad a2 3e 8c fc 7c 3e 8b 74 ba bf
       1.1997885 0.31772724 0.24705714 -1.4566816
000250 35 45 54 3f ae 99 1c 3f 4f 41 83 3d e7 7d 96 3e
       0.829181 0.61171997 0.06408941 0.2939293
000260 c5 6c 15 bf 72 05 81 be 4e f1 e2 bd 71 01 2c 40
       -0.58369094 -0.25199467 -0.110811815 2.687588
000270 85 76 47 bf ab 41 88 3f 65 2a fa 3f db a8 93 c0
       -0.7791522 1.064504 1.9544188 -4.6143622
000280 db b7 95 bf 37 b0 1d 40 ca 3b 0f 3f 6b 0e af bc
       -1.1696733 2.4638803 0.55950606 -0.02136918
000290 fd 61 81 bf f8 a4 ea 3f 66 df 35 3d de c8 4c 3f
       -1.0108029 1.8331594 0.044402502 0.79994
0002a0 ff 85 4b bf 69 4d 05 3f 57 bb 5a bf 3f 9b 72 be
       -0.79501337 0.52071244 -0.8544211 -0.23692034
0002b0 47 fd 91 3f 5a 85 15 40 4e 96 2b bf 05 94 41 3f
       1.1405419 2.3362641 -0.6702622 0.75616485
0002c0 72 9d 1c be 23 c2 16 bf f8 d7 ce bc aa 63 82 3e
       -0.15294436 -0.5888998 -0.025249466 0.25466663
0002d0 10 ca fa bf ec df 99 bd 73 08 32 3f 3b e2 c1 bc
       -1.9592915 -0.07513413 0.6954414 -0.023667445
0002e0 d4 a8 2a bf 36 98 27 bf 3d dd fa 3e 16 92 fd 3e
       -0.6666386 -0.6546663 0.48996916 0.49525517
0002f0 ec e8 f4 bf 41 b4 9a be ed ba cd be 14 2f 9f 3f
       -1.9133582 -0.30215648 -0.40181676 1.2436242
000300 99 45 a2 bc d0 6a 00 bf 76 3b 35 3e d6 52 3e bd
       -0.019808577 -0.5016298 0.17698464 -0.046465717
000310 ed 38 6b 3f 42 12 99 3f 0d 19 22 bf 34 72 eb be
       0.91883737 1.1958697 -0.63319474 -0.45985568
000320 6b f2 c0 bf 87 2a ce bf 7d 4b 75 3f 1d 33 9c 3e
       -1.507398 -1.6106728 0.9581831 0.30507746
000330 d9 10 13 3e 0c f0 03 40 43 e7 21 be 5d 69 90 bf
       0.14361896 2.0615263 -0.15810876 -1.1282154
000340 f2 42 a0 bf 89 65 d4 3f 7e 8f 2a be 50 6c 35 bf
       -1.252043 1.6593486 -0.166563 -0.70868397
000350 c9 83 74 be 1c 29 c3 3c e5 66 ea be d5 9f 83 bf
       -0.23878397 0.023823313 -0.45781627 -1.0283152
000360 19 51 be 3f c0 b6 49 3e 11 51 56 3f bf 50 7c bf
       1.4868499 0.1969862 0.8371745 -0.9856071
000370 a3 5b 01 40 e3 c1 0e 3f 19 82 0c bf bc 1e 11 bf
       2.021218 0.557646 -0.54886013 -0.5668752
000380 f4 01 dc bf 60 14 ad 3e 53 e2 6b 3f 0a d4 a6 bf
       -1.7188096 0.33804607 0.9214222 -1.3033459
000390 6d 79 00 3e b8 85 c8 bf 07 93 03 3f 6c 98 da bf
       0.1254632 -1.5665808 0.5139622 -1.7077765
0003a0 d7 bd c8 bf b5 15 0c 40 97 0e 5b bc 8e 5e 24 bf
       -1.5682935 2.188825 -0.013370178 -0.6420678
0003b0 83 c3 06 be 27 19 61 40 f0 f4 23 3e 0a 83 b9 be
       -0.1316052 3.5171602 0.16011405 -0.36232787
0003c0 db 50 19 bf ec b5 85 be 86 f6 9c 3f b1 d7 40 bf
       -0.59889 -0.26115358 1.2262733 -0.7532912
0003d0 5d e4 82 3f b5 29 71 3f 72 50 99 3f 44 6b ba 3f
       1.0225941 0.94204265 1.1977675 1.4563985
0003e0 d2 48 40 bf 9b 87 6a 3d 20 e6 e0 bf ae 5e 67 3f
       -0.75111115 0.05725823 -1.7570229 0.90378845
0003f0 d8 81 f1 3d cc e3 01 40 ea 58 c0 be a0 59 a0 bf
       0.11792344 2.0295286 -0.37567836 -1.2527351
