models/17_05_2021/stock_self_attn_MSE_hinge_10000_64_24_6_24_5/3500_embedder.pth (torch, 60914 bytes, 43 tensors)

position.pe f4 [1, 24, 24]
000000 00 00 00 00 00 00 80 3f 00 00 00 00 00 00 80 3f
       0.0 1.0 0.0 1.0
000010 00 00 00 00 00 00 80 3f 00 00 00 00 00 00 80 3f
       0.0 1.0 0.0 1.0
000020 00 00 00 00 00 00 80 3f 00 00 00 00 00 00 80 3f
       0.0 1.0 0.0 1.0
000030 00 00 00 00 00 00 80 3f 00 00 00 00 00 00 80 3f
       0.0 1.0 0.0 1.0
000040 00 00 00 00 00 00 80 3f 00 00 00 00 00 00 80 3f
       0.0 1.0 0.0 1.0
000050 00 00 00 00 00 00 80 3f 00 00 00 00 00 00 80 3f
       0.0 1.0 0.0 1.0
000060 a4 6a 57 3f 41 51 0a 3f 1d 35 e5 3e 30 ea 64 3f
       0.84147096 0.54030234 0.44767085 0.8941984
000070 52 e9 5a 3e eb 14 7a 3f 76 75 cc 3d 98 b8 7e 3f
       0.21378067 0.9768817 0.099833414 0.9950042
000080 1e 0d 3e 3d 6a b9 7f 3f 47 7a b0 3c ca f0 7f 3f
       0.04639923 0.99892294 0.021542681 0.9997679
000090 57 d6 23 3c b9 fc 7f 3f 57 18 98 3b 4b ff 7f 3f
       0.009999833 0.99995 0.0046415734 0.9999892
0000a0 64 31 0d 3b d9 ff 7f 3f 6d 12 83 3a f8 ff 7f 3f
       0.0021544332 0.9999977 0.0009999998 0.9999995
0000b0 5c 5a f3 39 fe ff 7f 3f ab e8 61 39 00 00 80 3f
       0.00046415895 0.9999999 0.00021544348 1.0
0000c0 b7 c7 68 3f 33 11 d5 be fb f4 4c 3f f8 63 19 3f
       0.9092974 -0.41614684 0.8006131 0.59918165
0000d0 be d9 d5 3e b9 99 68 3f f8 6f 4b 3e a5 e5 7a 3f
       0.41767687 0.9085956 0.19866931 0.9800666
0000e0 b7 d8 bd 3d d1 e5 7e 3f cb 6f 30 3d 2c c3 7f 3f
       0.09269851 0.9956942 0.043075364 0.99907184
0000f0 3e d4 a3 3c e5 f2 7f 3f ec 17 18 3c 2d fd 7f 3f
       0.019998666 0.9998 0.009283047 0.9999569
000100 4e 31 8d 3b 64 ff 7f 3f 68 12 03 3b df ff 7f 3f
       0.004308856 0.9999907 0.0019999985 0.99999803
000110 5b 5a 73 3a f9 ff 7f 3f ab e8 e1 39 ff ff 7f 3f
       0.00092831784 0.9999996 0.00043088695 0.99999994
000120 c3 81 10 3e 26 70 7d bf ce f0 7b 3f 16 a2 35 3e
       0.14112 -0.9899925 0.98414314 0.17737612
000130 c8 2d 1a 3f 56 5d 4c 3f 6c 4e 97 3e ef 90 74 3f
       0.60226107 0.7982992 0.2955202 0.9553365
000140 17 21 0e 3e a8 85 7d 3f bd 46 84 3d 29 77 7f 3f
       0.1387981 0.9903207 0.06458805 0.997912
000150 1f b9 f5 3c 83 e2 7f 3f d5 22 64 3c a6 f9 7f 3f
       0.0299955 0.99955004 0.01392432 0.9999031
000160 bf c9 d3 3b a2 fe 7f 3f 92 9b 44 3b b5 ff 7f 3f
       0.006463259 0.99997914 0.0029999954 0.9999955
000170 c2 83 b6 3a f0 ff 7f 3f 7f 6e 29 3a fd ff 7f 3f
       0.0013924765 0.99999905 0.00064633036 0.9999998
000180 cf bd 41 bf 30 55 27 bf e7 9c 75 3f 6c 5d 90 be
       -0.7568025 -0.6536436 0.9594254 -0.28196275
000190 be 4d 42 3f f9 ad 26 3f d7 61 c7 3e a7 ca 6b 3f
       0.75899875 0.6510921 0.38941833 0.921061
0001a0 73 07 3d 3e b2 99 7b 3f df 45 b0 3d cc 0c 7f 3f
       0.18459873 0.98281395 0.08607077 0.996289
0001b0 db cb 23 3d 94 cb 7f 3f 3e 16 98 3c b4 f4 7f 3f
       0.039989334 0.9992001 0.018565293 0.9998276
0001c0 f8 30 0d 3c 91 fd 7f 3f 57 12 83 3b 7a ff 7f 3f
       0.008617632 0.99996287 0.003999989 0.999992
0001d0 54 5a f3 3a e3 ff 7f 3f a9 e8 61 3a fa ff 7f 3f
       0.0018566349 0.9999983 0.0008617738 0.99999964
0001e0 10 7c 75 bf 2c 3c 91 3e 0a 50 3b 3f cb 7f 2e bf
       -0.9589243 0.2836622 0.73169005 -0.68163747
0001f0 cf 71 61 3f 63 93 f2 3e 43 77 f5 3e 40 a9 60 3f
       0.88064283 0.47378072 0.47942552 0.87758255
000200 93 85 6b 3e ff 22 79 3f 0e 30 dc 3d 21 84 7e 3f
       0.23000173 0.97319025 0.10751353 0.9942036
000210 f4 b6 4c 3d 19 ae 7f 3f 3c 1a be 3c 5a ee 7f 3f
       0.049979165 0.99875027 0.023205869 0.9997307
000220 e6 7c 30 3c 33 fc 7f 3f dd d6 a3 3b 2e ff 7f 3f
       0.010771966 0.999942 0.004999979 0.9999875
000230 71 18 18 3b d3 ff 7f 3f 69 31 8d 3a f6 ff 7f 3f
       0.0023207928 0.9999973 0.0010772172 0.9999994
000240 8c 0f 8f be b8 cd 75 3f c6 c0 b2 3e 2d e4 6f bf
       -0.2794155 0.96017027 0.349127 -0.93707544
000250 63 29 76 3f 8f 93 8c 3e 68 8c 10 3f 32 49 53 3f
       0.961569 0.27456328 0.5646424 0.8253356
000260 e9 c0 8c 3e e9 22 76 3f 09 00 04 3e 38 dd 7d 3f
       0.2749093 0.9614702 0.12890638 0.9916568
000270 d1 9c 75 3d 12 8a 7f 3f 2b 1d e4 3c 96 e6 7f 3f
       0.059964005 0.99820054 0.02784594 0.9996122
000280 9d c8 53 3c 86 fa 7f 3f 58 9b c4 3b d2 fe 7f 3f
       0.012926248 0.99991643 0.0059999637 0.999982
000290 b7 83 36 3b bf ff 7f 3f 7d 6e a9 3a f2 ff 7f 3f
       0.0027849504 0.9999961 0.0012926605 0.99999917
0002a0 46 30 28 3f bd ff 40 3f 9f c6 db bd 8d 85 7e bf
       0.6569866 0.75390226 -0.10731243 -0.9942253
0002b0 41 7f 7f 3f 23 4f 80 3d 72 eb 24 3f b3 cc 43 3f
       0.9980355 0.06265094 0.6442176 0.7648422
0002c0 6a 71 a3 3e 18 9b 72 3f 5d d8 19 3e 25 18 7d 3f
       0.31922466 0.94767904 0.15023942 0.98864967
0002d0 32 3e 8f 3d 81 5f 7f 3f 6e 0f 05 3d 69 dd 7f 3f
       0.06994285 0.997551 0.032485418 0.9994722
0002e0 15 14 77 3c 8c f8 7f 3f c5 5f e5 3b 65 fe 7f 3f
       0.0150804715 0.9998863 0.006999942 0.9999755
0002f0 f8 ee 54 3b a8 ff 7f 3f 91 ab c5 3a ed ff 7f 3f
       0.003249107 0.99999475 0.0015081038 0.99999887
000300 95 46 7d 3f f6 fd 14 be e3 81 0a bf 62 4b 57 bf
       0.98935825 -0.14550003 -0.5410444 -0.840994
000310 e9 04 7d 3f 59 cf 1b be a5 a4 37 3f 5f 5b 32 3f
       0.9883562 -0.15215816 0.717356 0.6967067
000320 cb c7 b9 3e 80 8d 6e 3f 69 9e 2f 3e ff 34 7c 3f
       0.36285242 0.9318466 0.17150272 0.98518366
000330 50 aa a3 3d 65 2e 7f 3f 89 0f 18 3d d3 d2 7f 3f
       0.07991469 0.9968017 0.03712419 0.9993107
000340 a1 2f 8d 3c 44 f6 7f 3f 12 12 03 3c e7 fd 7f 3f
       0.017234625 0.99985147 0.007999914 0.999968
000350 38 5a 73 3b 8c ff 7f 3f a4 e8 e1 3a e7 ff 7f 3f
       0.0037132632 0.9999931 0.001723547 0.9999985
000360 32 01 d3 3e d5 3f 69 bf f1 3b 5c bf 9f 82 02 bf
       0.4121185 -0.91113025 -0.86028963 -0.5098056
000370 af d7 6e 3f 01 49 b8 be 1c 88 48 3f d5 21 1f 3f
       0.9329786 -0.35993198 0.78332686 0.62161
000380 ba b7 cf 3e 5c fc 69 3f 97 4f 45 3e e1 33 7b 3f
       0.4056986 0.91400695 0.19268642 0.98126036
000390 3e 12 b8 3d c2 f6 7e 3f cd 0e 2b 3d d3 c6 7f 3f
       0.089878544 0.9959527 0.041762162 0.99912757
0003a0 0c d5 9e 3c ae f3 7f 3f 3a 74 13 3c 59 fd 7f 3f
       0.019388698 0.999812 0.008999879 0.9999595
0003b0 ba e2 88 3b 6e ff 7f 3f b6 25 fe 3a e1 ff 7f 3f
       0.0041774185 0.9999913 0.0019389901 0.99999815
0003c0 f8 44 0b bf 64 cd 56 bf d1 5b 7f bf 7e e0 90 bd
       -0.5440211 -0.8390715 -0.99749476 -0.070740685
0003d0 61 9f 55 3f 82 12 0d bf a4 6a 57 3f 41 51 0a 3f
       0.8344632 -0.55106366 0.84147096 0.54030234
0003e0 1e 35 e5 3e 30 ea 64 3f 53 e9 5a 3e eb 14 7a 3f
       0.44767088 0.8941984 0.21378069 0.9768817
0003f0 76 75 cc 3d 98 b8 7e 3f 21 0d 3e 3d 6a b9 7f 3f
       0.099833414 0.9950042 0.04639924 0.99892294

r_cell.w_qs.weight f4 [24, 24]
000000 17 5c 3f 3e 43 66 fb 3d dc fd 92 be b0 a9 78 3c
       0.18687473 0.12275364 -0.28709304 0.015177175
000010 5d 6d 20 3e d7 49 d6 be 13 b1 6e 3f e8 0f 96 be
       0.15666719 -0.4185321 0.93238944 -0.2930901
000020 36 5c cd bd 8e 69 ec 3e ce f0 b7 3d af 22 bd 3e
       -0.100273535 0.46174282 0.08981477 0.36940524
000030 68 32 9b 3e c8 11 f0 3e 47 58 20 3f 71 b6 05 bf
       0.30311894 0.46888566 0.626347 -0.5223151
000040 98 da dc 3c a6 6f 46 3e 56 b8 13 be c0 c3 99 3e
       0.026959702 0.19378528 -0.14425787 0.30032158
000050 6c 26 86 bd a9 40 a8 39 1d c2 86 bd 5a d6 81 3d
       -0.06550297 0.00032091633 -0.06579993 0.063397124
000060 ac c0 85 3e 68 26 42 3e c7 c4 2d bf d2 ba d8 3e
       0.2612356 0.18959963 -0.67878383 0.42330033
000070 65 db d2 bd 37 ee 48 bf b5 56 3f bf 26 aa 20 be
       -0.102957524 -0.78488487 -0.7474168 -0.15689906
000080 58 a4 47 3f b6 71 1c 3e a2 e6 bf 3d 98 9c 81 bd
       0.77985144 0.15277752 0.093701616 -0.06328696
000090 86 f8 fb be a4 3e fe 3d 9f 8b a3 3e 1e 20 3a 3e
       -0.49213046 0.124142915 0.3194246 0.18176314
0000a0 13 d7 f9 be dc b2 bd 3d 35 a9 0d bf 65 26 5d 3e
       -0.487969 0.0926263 -0.55336314 0.21596678
0000b0 3d 4a 8e 3d a5 27 ba 3e 93 38 94 ba e9 dc dd 3e
       0.069477536 0.3635837 -0.0011308364 0.43332604
0000c0 fe ff 5c 3e d6 33 d4 bd 9f b3 51 3e bf 7b 24 bc
       0.21582028 -0.103614494 0.20478676 -0.010039269
0000d0 06 44 b0 bd 52 43 be 3d e5 cb 64 3f 61 0e 4e 3e
       -0.086067244 0.09290184 0.8937362 0.20122673
0000e0 91 bc b2 3e ee ff 39 be d4 aa f6 be 44 fa 53 3e
       0.3490949 -0.18164036 -0.48177207 0.20700938
0000f0 f4 43 ce be e9 9c 23 3e e7 11 ab 3c a2 70 0d bf
       -0.4028622 0.15977825 0.02088256 -0.5524999
000100 05 72 fa 3e fa b1 f4 be 71 1c 93 3d 00 fc 06 3e
       0.48915115 -0.47792035 0.07183159 0.13182068
000110 58 60 31 bf 26 37 49 be ab 18 d5 be d8 5b 9b 3c
       -0.69287634 -0.19649944 -0.41620383 0.018964693
000120 33 79 8a be 46 84 09 3f 94 1d 23 be 8d 9e 29 be
       -0.27045593 0.5371746 -0.15929252 -0.16564389
000130 27 2f 26 be e1 50 08 bf e9 94 bc be 73 2c 4f bc
       -0.16228925 -0.5324841 -0.3683236 -0.012644875
000140 a4 e7 9f 3e b7 9f 4f bf 02 1e 90 3d 82 97 e3 3c
       0.31231415 -0.8110308 0.070369735 0.027782205
000150 1c 2d 57 bd 01 5c 35 be 90 27 f4 bd e0 56 56 be
       -0.052533254 -0.17710878 -0.119216084 -0.20931578
000160 92 cd 14 be 5f 2a 9e be 83 27 1b be fe a5 a4 be
       -0.14531544 -0.30891702 -0.15151791 -0.32157892
000170 4a bf 54 be 2b b4 b5 be f0 c1 a3 3e 73 9d 51 3e
       -0.20776096 -0.3548902 0.319839 0.20470218
000180 50 86 c4 bc b3 28 ee 3e d4 21 27 3d 83 03 49 bf
       -0.023989826 0.46515426 0.040803745 -0.78520983
000190 35 d3 8f 3d 7c 20 f6 3e f9 4f 02 3f 17 e3 8e 3e
       0.070227064 0.4807166 0.5090328 0.2790763
0001a0 df 4b 9f bd e6 4a f5 3e 24 ae ed bc 5c 03 93 be
       -0.07778143 0.47908705 -0.0290137 -0.287135
0001b0 69 7c bd bd a3 5b 24 3e 8f aa 77 3f 23 5d 42 3d
       -0.09252245 0.16050582 0.96744627 0.047452103
0001c0 f6 fe 68 be 6c 9e be 3e bf 5e a7 3e 29 43 6a bc
       -0.2275351 0.3723024 0.32689473 -0.014298239
0001d0 c1 4e 63 3e 30 1e 8d 3e 60 41 c4 be 9c 83 ec bd
       0.22198011 0.27562094 -0.38331127 -0.1154854
0001e0 6c c1 33 3f 85 51 05 bf a2 ac f3 3e 8a 03 89 be
       0.70217013 -0.52077514 0.47592646 -0.26760513
0001f0 34 4a 83 be 26 cd 19 bf 2e 06 a5 3e 91 c2 c4 3e
       -0.2564255 -0.60078657 0.32231277 0.38429692
000200 15 ed 03 3e bf bd e9 be a0 7e 13 bf 29 89 bd 3d
       0.12883408 -0.45652577 -0.5761509 0.09254677
000210 fa 07 61 be 2c 4b 1d 3f 22 0f 20 bf 0b 9d 27 3f
       -0.21975699 0.6144283 -0.6252309 0.65474004
000220 2b 1c 11 3f ed ad d8 be 0e b5 60 bf a0 fe 31 3f
       0.56683606 -0.42320195 -0.8777627 0.6952915
000230 97 3e 0c bf ea 48 89 be 93 b3 0e bb 25 e2 e9 be
       -0.54783005 -0.26813442 -0.0021774515 -0.45680347
000240 03 29 83 3e 2c e9 0b be 5b df a1 bd 84 bc 3c 3e
       0.25617227 -0.13663167 -0.0790393 0.18431288
000250 38 87 9e be f0 ed ab be d5 7c 09 bf a8 87 4c bf
       -0.3096254 -0.3357997 -0.53706104 -0.79894495
000260 49 49 00 3f 52 d2 0d 3f 02 f6 c2 3e 4a 14 cb 3e
       0.50111824 0.5539905 0.38078314 0.39663917
000270 59 a3 2a bf fe 6c e3 3e 28 c1 52 be 92 26 6b be
       -0.666555 0.44419092 -0.20581496 -0.22963932
000280 49 b6 d5 3e 20 1a 8b be 94 2a 3b 3e ac 13 2c be
       0.41740635 -0.2716837 0.18277961 -0.16804379
000290 a7 28 27 3f 64 ec 59 3f 09 41 59 3e 23 b6 13 be
       0.65296406 0.8512633 0.21216215 -0.14424948
0002a0 fd 9d 33 be c3 38 11 be 6f bb 10 bd c6 f2 7e bf
       -0.17540736 -0.14181809 -0.035335 -0.9958919
0002b0 9b 69 ad 3d 74 85 b0 be fa 0e b9 bc 71 ca f2 3e
       0.08467408 -0.34476817 -0.02259015 0.47420076
0002c0 6a b7 e3 be 78 d4 44 be ca 0e c9 3d 07 be 8f 3e
       -0.4447587 -0.19221675 0.09817274 0.28074667
0002d0 bd c3 b7 bd f7 5a 1e bf 87 54 ee 3e 47 c0 94 3e
       -0.08972881 -0.6185755 0.46548864 0.29052946
0002e0 d7 0a 0f 3f 74 c9 38 bd 2b 4f 12 3f eb a9 a5 3e
       0.55875915 -0.045113996 0.5715205 0.323562
0002f0 5e ef 80 be 0d 4e f1 3d 88 fc fc 3e 1a 97 34 be
       -0.25182623 0.11782465 0.49411416 -0.17635766
000300 f6 bd 6f bd 1a 72 ec 3e 3b 6b ba bd f7 56 11 3f
       -0.05853077 0.46180803 -0.09102484 0.5677332
000310 f9 a3 0f 3d 57 92 01 3f aa 12 c3 bd 6c 2d f6 be
       0.035068486 0.5061392 -0.09525044 -0.4808153
000320 87 18 87 3e 2a 05 c0 be 56 40 c5 3e 3b a5 76 3d
       0.263859 -0.3750394 0.38525647 0.06021617
000330 e3 3d e5 bd 81 30 2b 3d 11 39 89 3e 3b 6c fc bc
       -0.111934446 0.041794304 0.2680135 -0.030813327
000340 69 2c 17 be 3b 01 ec 3b 8a b3 34 bf 4f dc 51 bd
       -0.14763035 0.007202295 -0.70586455 -0.051235493
000350 bf fe 36 be 9c bf c9 3d 36 b5 b6 3e 1f e3 f0 bd
       -0.17870615 0.09851 0.35685128 -0.1176207
000360 37 0e d1 bd 16 b8 d6 be 1c 87 d5 3e 44 48 28 be
       -0.102077894 -0.4193732 0.41704643 -0.16433817
000370 6c 53 07 3f eb 8b 96 3e 35 af ef be 45 87 48 bd
       0.52861667 0.29403624 -0.4681336 -0.048957128
000380 e6 82 8d 3e 2e a2 18 3e 8a 5a 3f be 8a d1 a9 3e
       0.2763893 0.14905617 -0.18686882 0.33167678
000390 72 b3 db bd 2c 5d f1 bd 19 19 8f be 1d ee 80 3d
       -0.10727586 -0.11785349 -0.27948835 0.062954165
0003a0 54 4a 69 bf a8 4e 00 be 3d 79 49 be c4 34 87 3e
       -0.9112904 -0.12530005 -0.19675155 0.26407444
0003b0 cd 60 40 3f b2 1f 8a be 5c 50 a5 be 7f 9f 86 bd
       0.75147706 -0.26977307 -0.32287872 -0.0657339
0003c0 bd 27 74 be a0 b1 bb 3e 33 70 b2 be bc c9 45 3e
       -0.23843284 0.36658955 -0.34851226 0.19315237
0003d0 da c1 3b be 14 b1 27 bd 35 ff 11 bf 12 54 17 3d
       -0.18335667 -0.04094036 -0.5703004 0.03694541
0003e0 ca 0b a7 3e 42 11 c2 3e 3f cb 38 be b6 c3 29 3d
       0.32626182 0.37903792 -0.18046282 0.04144641
0003f0 d4 c2 3a be 08 f5 97 be 6b 42 46 bd 2a 46 8e be
       -0.18238384 -0.29679132 -0.048403185 -0.27787906

r_cell.w_qs.bias f4 [24]
000000 fa 68 27 3e d1 2c 1a bc 23 32 ae be 24 db ff bd
       0.16348639 -0.009410099 -0.34022626 -0.1249297
000010 ce b4 52 3e 62 59 df be 1c 9b ef be b0 96 f0 bd
       0.20576784 -0.4362288 -0.46798027 -0.11747491
000020 a0 da 1e bc bb 39 b2 bd 51 b9 80 bd 77 88 94 be
       -0.009695679 -0.087024175 -0.06285346 -0.29010364
000030 ed 8a d4 3d 0f 1c 2a 3e 5e 15 c4 be 9e 18 52 be
       0.103780605 0.16612266 -0.38297552 -0.20517203
000040 a6 fd ae bd 2f a7 f1 ba 18 b8 dc bd fb 9c a5 be
       -0.08544473 -0.0018436665 -0.107773006 -0.3234633
000050 ee 3e c2 3d 3e 89 bb 3e d3 f5 40 be a1 7c 1f 3f
       0.09484659 0.36628145 -0.18843774 0.62299544

r_cell.w_ks.weight f4 [24, 24]
000000 af f2 a1 3e aa 8a bc 3e b0 df 02 3e 84 c0 3d 3f
       0.31630465 0.36824542 0.12780643 0.7412188
000010 5e 65 d2 3e 03 e2 69 be 9c 99 41 be 01 4d e0 3e
       0.41092962 -0.22840123 -0.18906254 0.4380875
000020 d5 49 1d bf 60 28 0e 3f 90 0d cd 3e a1 2e 7e bd
       -0.61440784 0.5553036 0.4004941 -0.062056188
000030 eb c7 22 bf 2d 6c 3c 3e 71 2b b2 be f8 b4 40 bc
       -0.635863 0.18400641 -0.34798768 -0.011761896
000040 68 ce b2 3d d8 1b 8a bd 44 93 ca be 5e 55 93 be
       0.08730775 -0.06743592 -0.3956548 -0.28776067
000050 01 2d e0 3d 10 cc 88 3e 3d 74 10 bf 3a 47 e3 3d
       0.10946084 0.26718187 -0.56427366 0.1109757
000060 df 60 7e be 58 d9 2d be f5 e4 b4 be 85 9a 90 3e
       -0.24841641 -0.16977441 -0.3533093 0.2824289
000070 ec 04 22 3e 2c 3a cb be e3 6a 55 bf c5 e0 e6 3e
       0.1582219 -0.3969282 -0.8336622 0.4509336
000080 bf 34 f2 3b e7 f0 41 3e c1 4a e2 be 51 39 3b 3e
       0.0073915417 0.18939553 -0.44197658 0.18283583
000090 8f 02 ff be 71 9b 33 be 02 c3 9a 3c 9e 97 a4 be
       -0.4980664 -0.17539765 0.018891815 -0.32146925
0000a0 3c 95 2d bf ee a8 ed be 82 ba 97 3e 1a 07 91 3d
       -0.6780584 -0.46417946 0.29634482 0.07081433
0000b0 e4 e2 78 3e 63 f3 20 3e 05 b5 d7 bd 3a 48 76 3e
       0.24305302 0.15717845 -0.105325736 0.2405099
0000c0 7f 3e 34 3d be d7 97 3e 9a 50 08 be 11 d8 08 3f
       0.044004913 0.29656786 -0.13311997 0.5345469
0000d0 04 5e 67 bc eb 29 04 3e b0 01 b3 3d 68 fb 21 be
       -0.014121536 0.12906615 0.08740556 -0.1581856
0000e0 06 62 b9 3d dd 97 6a be f5 c2 7c 3e 7b b7 05 bf
       0.090518996 -0.22909494 0.24683745 -0.52233094
0000f0 3e f3 4b 3e 49 d2 2c 3f 30 95 3d 3f 0a 73 01 3b
       0.19917008 0.6750837 0.7405577 0.0019752407
000100 06 f5 9c bd a9 f5 ec 3e c2 70 8f 3e ac 99 d0 3d
       -0.07663922 0.46281174 0.28015715 0.101855606
000110 00 cc bb 3c 7c 58 e1 3d 13 77 64 3f a1 6c 9e 3e
       0.022924423 0.11003205 0.8924419 0.30942252
000120 0e 27 f6 be 58 0e 61 3e 95 26 11 3e 86 b5 40 3e
       -0.4807667 0.21978128 0.14174874 0.18819246
000130 2f d4 f0 3e 8d 32 99 3c 6f 80 25 3f 47 f6 df 3d
       0.47036883 0.018700862 0.646491 0.109356456
000140 2f 1c 52 3f 44 d9 9a be 82 f2 af bc cc 9b 86 3d
       0.82074255 -0.30243886 -0.021477941 0.06572685
000150 3b 56 42 3a c4 e7 45 bf 03 a0 cc 3d cd ed ce 3d
       0.0007413362 -0.7730677 0.09991457 0.10103951
000160 fb 8d 24 bf 74 6a a2 be b6 b1 8c be 97 d6 87 bd
       -0.64279145 -0.31721842 -0.27479333 -0.06632727
000170 15 55 1f bf 7c 8e 95 be 9c 0d 17 3f 95 b1 af 3e
       -0.622392 -0.2921027 0.5900514 0.34315172
000180 56 f4 f4 3e b9 4d 8c bc a2 9c 5f be b6 97 d5 bd
       0.47842664 -0.017126905 -0.21837094 -0.10429327
000190 67 3f f6 be 89 48 bd 3e f7 56 0f be ae b9 cb 3e
       -0.48095247 0.36969402 -0.13998018 0.397901
0001a0 3c 51 e4 be 7f e3 a9 3d 78 eb f3 bd 72 20 ca be
       -0.44593227 0.082953446 -0.119101465 -0.3947788
0001b0 a1 1e 84 be 86 f6 28 3d 92 c1 df bc bc 84 ab 3e
       -0.25804618 0.041250728 -0.027313981 0.33499706
0001c0 64 21 51 bf aa d8 e5 3c 47 49 b5 3e 48 1c 33 be
       -0.81691575 0.028057415 0.3540747 -0.17491257
0001d0 b8 a2 48 3e 4a 26 d5 3e ae 09 bc bd d1 a5 8b be
       0.19593322 0.41630775 -0.09181534 -0.27274945
0001e0 17 34 50 be 0c 81 79 3e c7 71 b5 3d 5f 6e 6f 3e
       -0.2033237 0.24365634 0.08859592 0.23381947
0001f0 7a d5 dc bd d0 0c 81 3d 47 17 bf 3e 56 45 1e 3e
       -0.10782905 0.06301272 0.37322447 0.15456137
000200 39 97 a5 3e 0b 2e 42 3d d6 43 19 3f fe 98 5b 3d
       0.32341936 0.04740719 0.59869134 0.0536127
000210 7c 49 37 3f cc fa 65 3e b5 0d a3 3f 5f 3a 2a bf
       0.71596503 0.22458953 1.2738558 -0.6649532
000220 a5 b6 76 bd db 9e 43 be fb 5b 72 bf 77 cb 45 3f
       -0.060232777 -0.19103567 -0.946716 0.7726359
000230 67 fd fb 3c 1f 77 0c bd 18 a4 05 3f da e7 09 3d
       0.03076048 -0.03429329 0.5220351 0.033668377
000240 ec 30 ef be 36 94 84 be ba 07 71 bd d7 2e 19 3e
       -0.46717012 -0.25894326 -0.05884526 0.14959274
000250 5b fe ff 3e 9d 35 5c bf bf 7c 2b bd 34 a7 36 bf
       0.49998745 -0.8601931 -0.041867014 -0.7134888
000260 a0 f0 fe 3c e0 1f d9 3e 17 09 08 be 0e d3 84 3f
       0.031120598 0.4240713 -0.13284718 1.0376909
000270 3b b3 f0 3e ca d7 8e 3f c5 66 6b be 4b 8e 2d be
       0.47011742 1.1159604 -0.22988422 -0.16948812
000280 57 72 ca 3d 73 a7 17 ba 20 de 86 be 9a 9f 38 be
       0.0988509 -0.0005785145 -0.26341343 -0.18029633
000290 87 66 d4 be ed d4 aa be 78 d2 0a bf 65 00 f8 3e
       -0.41484472 -0.33365574 -0.542274 0.484378
0002a0 3f d4 72 3d 4c 24 d7 bd 42 8b 2a bf 26 9e 83 be
       0.059284445 -0.1050497 -0.6661874 -0.25706595
0002b0 f4 4b 88 3d 34 2b ef 3e bd 84 9f be 93 0f 7d 3f
       0.06655112 0.4671265 -0.3115596 0.9885189
0002c0 88 8c ae 3d 49 90 0a 3e c7 f8 ae bd 64 66 f9 3e
       0.08522898 0.13531603 -0.08543544 0.4871093
0002d0 98 64 c9 3d b3 43 45 3e 49 2a 6f 3e 66 ba df 3e
       0.0983364 0.19264106 0.23355974 0.43696898
0002e0 cf c8 dc 3d 85 a2 df 3e 50 a8 bb be cf 5c 92 3e
       0.10780489 0.4367868 -0.3665185 0.28586432
0002f0 59 23 53 3d 77 af c0 bc 3f fe 01 be 25 b1 28 bf
       0.051547382 -0.023521168 -0.12694643 -0.658953
000300 7c 86 8f be d4 43 71 3e 11 4c 32 3f e4 42 4a 3d
       -0.2803229 0.2356103 0.6964732 0.049380198
000310 57 3b 2c 3e f3 c2 7d be 33 db c9 3e 37 c3 1c bf
       0.16819511 -0.24781398 0.39425048 -0.61235374
000320 f0 d6 05 3f ce c0 3f be 7f e1 0e be 02 b3 15 bf
       0.52281094 -0.18725893 -0.13953207 -0.5847627
000330 02 83 7f be 57 de 3f 3d 40 4a 00 be d8 8f b7 be
       -0.2495232 0.0468429 -0.12528324 -0.35851932
000340 b5 0e de be 08 f8 fb be 98 f8 16 bf 3c ba f1 bd
       -0.43370596 -0.4921267 -0.58973074 -0.118030995
000350 0c 81 83 3e 1a a6 b1 be be f0 85 be 07 62 3b 3f
       0.25684392 -0.34697038 -0.26160234 0.7319645
000360 70 4d 35 3e 59 af d6 bd 6a ee 06 be 39 69 11 bc
       0.17705321 -0.10482664 -0.13176885 -0.008875185
000370 0e e6 29 3f 0e cc ea 3d 68 41 c2 be 8a 34 35 3e
       0.6636666 0.114647016 -0.37940526 0.17695823
000380 2e 36 11 bf 06 0a 12 3f f3 78 a4 bd f2 ec 61 be
       -0.56723297 0.57046545 -0.08030882 -0.22063044
000390 a2 1c 98 3e ea cf 0b bf 39 b8 30 3f f5 6e 90 3e
       0.29709345 -0.54614127 0.690311 0.28209653
0003a0 34 f0 16 bf 49 dd 63 3e ca 93 28 3e 46 93 cb be
       -0.5896027 0.22252382 0.16462627 -0.39760798
0003b0 2a 0d e0 bd a9 1e ab be 86 66 f9 be b8 85 b7 3e
       -0.10940011 -0.3342183 -0.48711032 0.35844207
0003c0 50 4a 44 3e 5e e4 1c 3f 19 09 b8 3e 69 00 bb be
       0.19168973 0.6128596 0.3594444 -0.3652375
0003d0 0e 36 d3 be ed 39 0f bf f2 e4 19 bf d1 af 29 be
       -0.41252178 -0.5594776 -0.6011497 -0.16570975
0003e0 87 d6 9e 3e 58 fe f0 3d b2 ca 62 be 99 9e 3f 3d
       0.31023046 0.11767262 -0.22147635 0.04678211
0003f0 74 d6 0f 3f 01 d7 69 be 4b bc a6 bc 0e df 11 3f
       0.56186604 -0.22835924 -0.020353457 0.5698098

r_cell.w_ks.bias f4 [24]
000000 cb 48 85 be 3c 05 79 be c4 a6 11 be 9f b8 30 3d
       -0.260321 -0.24318403 -0.14223772 0.04314482
000010 67 a2 59 3e 2b 7c ed 3d cf 3b 7e 3d a0 fa cb bd
       0.21253358 0.11595949 0.062068757 -0.09959912
000020 91 ab ed bd 17 66 3c 3d 31 71 83 3e 2f 02 36 3e
       -0.11604989 0.045995798 0.25672296 0.1777427
000030 79 6e 44 3d d8 ac d3 bd 76 c7 be 3c a2 07 21 3d
       0.047956917 -0.10335702 0.02328847 0.03931392
000040 11 d8 6b bd 89 1c fd bc a6 ba fe 3d a4 48 22 be
       -0.057579104 -0.030897396 0.12437944 -0.15848023
000050 cf 99 55 bd 54 54 8b bd 1b 96 df bd 08 45 52 be
       -0.052148636 -0.06803194 -0.10917302 -0.20534146

r_cell.w_vs.weight f4 [24, 24]
000000 39 ef 00 bf 53 f1 71 be 26 41 49 3d 49 ee 44 3e
       -0.50365025 -0.23627214 0.049134396 0.19231524
000010 b4 a4 17 bd 93 45 e5 be 20 86 52 be 6c b7 c2 3e
       -0.037022308 -0.44779643 -0.20558977 0.38030565
000020 84 35 01 3e 44 99 f6 3d fc 4a 06 3e ef 27 3c be
       0.12618071 0.12040952 0.13114542 -0.18374608
000030 11 85 46 3e 79 27 b6 3e bb c0 39 bd 19 d9 95 3e
       0.19386698 0.3557699 -0.045349818 0.29267195
000040 f2 91 c8 3e 91 fc 0b 3e e5 7b d0 3d 1c 67 2b 3e
       0.39173847 0.13670565 0.10179881 0.16738552
000050 c0 5b a1 3e bb 62 57 3e 04 a1 3b be 13 a5 79 3e
       0.31515312 0.21033756 -0.18323141 0.24379377
000060 21 15 6a bd 40 f9 7f 3c 2b f1 02 bd 4d b0 a7 3d
       -0.057149056 0.015623391 -0.031968277 0.081879236
000070 b6 da e7 3e d8 a9 b4 be 31 3a 9d bd 0a 1b 25 3e
       0.4528405 -0.3528583 -0.07677115 0.16123596
000080 f9 51 4b 3c a8 01 00 3f ae a0 58 be 7a a2 c7 3d
       0.0124096805 0.5000253 -0.21155044 0.09747787
000090 19 cc 31 be ce 85 19 bc 33 58 34 bd 8c 12 9a 3c
       -0.17363013 -0.00937028 -0.044029426 0.018807672
0000a0 82 ae c3 3e 10 20 a7 3d 20 e2 ef 3e 36 09 95 3e
       0.38219076 0.08160412 0.46852207 0.2910859
0000b0 52 5e 95 3e 39 2e a9 3e 85 ec 28 be 42 8c 7b be
       0.29173523 0.33043078 -0.16496475 -0.24565223
0000c0 0d ca 77 be 65 e2 91 3c 77 31 c4 3e 67 6b 06 bd
       -0.2419817 0.017808149 0.3831899 -0.03281727
0000d0 44 d0 ea bc f2 17 8c 3c b5 cd a5 be 20 ee 1b 3e
       -0.028663762 0.017101262 -0.32383505 0.15227556
0000e0 95 98 b0 3d 7e 6f 18 be 62 4b f5 3d 8b 02 37 bd
       0.08622853 -0.14886281 0.11977269 -0.04468016
0000f0 5c e8 0b ba 58 00 8e 3e a9 8a fe bd 7a ae 34 3d
       -0.00053370534 0.27734637 -0.12428791 0.044111706
000100 26 ff 06 be 70 cb 0f 3e 90 4a 98 3e f2 0d 09 3e
       -0.13183269 0.14042449 0.29744387 0.13384226
000110 7e f5 47 be cb 57 65 be 13 90 1f 3c 6f e0 4b be
       -0.19527242 -0.22396772 0.00973894 -0.19909833
000120 f4 ed 4b bd 27 96 e0 3d 92 84 f3 3d 5f 54 c0 be
       -0.049787477 0.10966139 0.1189052 -0.3756437
000130 d4 65 38 3e d1 27 e1 be 10 39 79 3d 61 0b df 3c
       0.18007594 -0.4397569 0.060845435 0.027227106
000140 0c 6c d0 3d b6 6e bf bd 67 03 33 3e 25 bc cc 3d
       0.10176858 -0.09347288 0.17481767 0.09996823
000150 34 a1 1d 3e 3d 18 7b bc 54 dd 34 3f 8a a7 70 be
       0.15393525 -0.015325603 0.7065022 -0.23501411
000160 4f f6 bd 3d d7 2e 22 3e d4 7a d7 be 78 76 7e 3e
       0.09275495 0.1583818 -0.42085898 0.2484988
000170 93 a2 b3 be d5 52 0e 3e 58 70 9c bd 0b 4a 70 be
       -0.35084972 0.13898785 -0.07638615 -0.23465745
000180 23 ef a8 bd 1b e2 93 bd 35 01 84 3d c1 70 5e bc
       -0.08248737 -0.072208606 0.06445543 -0.013576687
000190 2d ad 75 bd 1f 79 f2 3d f5 cd 83 bd 9b 58 b8 3e
       -0.059979606 0.11839508 -0.064357676 0.360051
0001a0 e2 b4 7b 3e aa d9 5b 3e d8 c0 6b 3e 7f 3e 3a be
       0.2458072 0.21469751 0.23022783 -0.18187903
0001b0 44 20 2e 3e e1 d0 5c bd 59 e3 56 3e 29 bd e9 be
       0.17004496 -0.05391014 0.20985164 -0.4565213
0001c0 f6 b1 74 3e 00 82 87 bd 63 c6 08 3f 0a b4 b7 bd
       0.23896012 -0.066165924 0.53427714 -0.089698866
0001d0 bb 60 fc bc 38 82 95 bd a3 27 a4 3e 9b 84 f6 3d
       -0.030807843 -0.07300228 0.3206149 0.12037011
0001e0 b0 09 13 be 62 37 ee bd fe 42 ac be d2 93 69 3e
       -0.14359164 -0.11631657 -0.3364486 0.22810295
0001f0 fa 2f 00 3f 5c 7a 1a 3e 55 3c c8 be e7 52 66 be
       0.50073206 0.15085739 -0.3910853 -0.22492562
000200 31 92 3f bc 88 d7 f4 3e 67 b4 31 bd 3d 3c 9f be
       -0.01169257 0.47820687 -0.043384936 -0.31100646
000210 8c a6 bb be ec cc 70 bd 1c df 66 be 2a 09 02 3f
       -0.36650503 -0.05878918 -0.22546047 0.50795233
000220 a5 cd 45 3e 2e d3 8d be 47 50 48 3e 38 ba c4 3e
       0.19316728 -0.2770018 0.19561873 0.38423324
000230 74 f2 8b 3d c9 a4 7e 3e dc 04 71 3e 03 0d 89 3e
       0.06833354 0.24867548 0.2353701 0.2676774
000240 f8 53 8d be da 0c 00 3c 04 5a a4 bd 83 6b 9f be
       -0.27603126 0.007815564 -0.080249816 -0.31136712
000250 3a dd 9b 3d c3 31 55 3e 57 ca 03 3b 2c 7a b8 3e
       0.07610555 0.20819764 0.0020109618 0.3603071
000260 de 22 94 3e 8d de 80 3d b8 7b 02 3f 00 16 71 3e
       0.28932852 0.06292448 0.5097003 0.23543549
000270 67 bb 06 3f 22 98 99 3e c7 c2 58 be b6 fa 48 3e
       0.52629703 0.2999888 -0.21168052 0.19626889
000280 53 0f 99 be 5d ba 19 3f 79 7e ba 3e 14 20 27 3e
       -0.29894504 0.6004999 0.36424616 0.1632083
000290 52 2c a1 3e 9e d4 92 3d d7 b8 16 3e 0e dd c8 3d
       0.31479126 0.0716946 0.14718948 0.09807788
0002a0 3f bb 86 3e 97 14 5c bd 6c ba 80 be d8 96 e7 3d
       0.26314732 -0.053730574 -0.2514223 0.11308068
0002b0 ba b3 9c be fa f7 cd bc 82 5d 76 3d d0 9c db be
       -0.3060587 -0.025142659 0.06014777 -0.42893076
0002c0 36 1f 44 bc b2 f3 2c be 1e 95 26 3c 59 fc 2b bd
       -0.011970332 -0.16889837 0.010167388 -0.041988704
0002d0 d0 5d f9 bd 56 e9 01 be 67 d4 04 3d 4f 64 89 be
       -0.121760964 -0.12686667 0.032429125 -0.26834342
0002e0 24 38 1d bc 90 f6 03 be a2 1a 3e bd c9 f8 f5 be
       -0.0095959045 -0.12887025 -0.046412118 -0.4804137
0002f0 09 18 ba bd e8 aa 28 be df 9d af 3c af 0a d3 3d
       -0.090866156 -0.16471446 0.021437583 0.10304772
000300 ca 9f 50 3d 69 e3 ad bd a5 6f ae 3e 17 f2 7e be
       0.050933637 -0.08490641 0.34069553 -0.24897037
000310 9c 1e d4 3e 81 88 8e bd f5 f7 e2 3d 25 d5 47 be
       0.41429603 -0.0695963 0.1108245 -0.19514902
000320 cb ce 4c 3d db 8e 04 be 08 50 7f be 2d 74 95 3c
       0.0500019 -0.1294512 -0.24932873 0.018243873
000330 10 79 1b 3e 6a ae ec bd 9d 24 50 3e e1 db 0f 3e
       0.151829 -0.11556704 0.20326467 0.14048721
000340 15 c1 1c be 6c d5 93 3d b9 17 35 3f 2f 6f b9 bc
       -0.1530803 0.07218441 0.7073932 -0.022636024
000350 09 4e 53 3c 39 7f b5 3e 24 fd b2 3c 38 77 b5 bd
       0.012897023 0.35448626 0.021849222 -0.0886063
000360 4f 2d 4b 3e cd a2 fb bc bc 6c 4d be ef 9d 01 3c
       0.19841503 -0.030717278 -0.2006101 0.007911189
000370 db ac 9f 3e 22 b2 75 3e be 51 99 3d 68 3a 0a 3e
       0.31186566 0.23993734 0.07486294 0.13498843
000380 72 a3 8b bc 61 93 51 be 40 f5 80 3e 0a e6 8b 3c
       -0.01704571 -0.20466377 0.2518711 0.017077465
000390 c4 4c 09 3d e1 48 90 3e f5 01 96 3e ff eb 01 be
       0.033520475 0.28180602 0.29298368 -0.12687682
0003a0 df 88 b6 3e 7d 0e de bd b8 e1 b8 be c2 d7 4e 3e
       0.356513 -0.10842607 -0.3610971 0.20199493
0003b0 04 3e 53 bd 33 46 82 be 9a b8 fa bd 6b ee 50 be
       -0.051572815 -0.25444183 -0.12242241 -0.20403449
0003c0 a3 8e 63 3d 68 67 e3 bc f1 d6 b7 3d 45 d8 bc bd
       0.05555595 -0.027759269 0.08976544 -0.09220938
0003d0 39 ae 5d bc 02 d1 0c be 55 d7 69 be c3 f9 b8 3e
       -0.013530307 -0.13751605 -0.22836049 0.36128053
0003e0 ea d9 ae be 11 03 62 bd d8 6d fd be 78 53 b9 3e
       -0.3415063 -0.055178706 -0.49497867 0.36196494
0003f0 57 c8 07 3f 61 a1 82 bd 98 10 b4 3d 16 58 a6 bc
       0.5304007 -0.06378437 0.087922275 -0.020305675

r_cell.w_vs.bias f4 [24]
000000 9a 01 ca bd 9e c4 c3 3d a5 1f 6d be c4 96 2a be
       -0.09863587 0.09558986 -0.23156603 -0.16659075
000010 c2 b6 1d bd 07 6d 34 bd 70 de 63 bc ee 85 d3 bc
       -0.03850437 -0.04404929 -0.013908014 -0.025820699
000020 e9 d0 1d be 2b 8c 1e 3d 44 3d 51 bd 40 63 00 3e
       -0.15411724 0.038707893 -0.051083818 0.12537861
000030 e0 ec cb bc 3e 40 2d bd 21 0c b1 ba ae 87 9b bd
       -0.024893224 -0.042297594 -0.0013507643 -0.07594238
000040 55 21 17 be fb 71 3a 3d c3 61 0e 3e 04 9c 1b be
       -0.14758809 0.045518856 0.1390448 -0.15196234
000050 0b 6c 90 bb ff 97 79 bd 0a 39 71 3d e0 5a 0d be
       -0.004407411 -0.06093597 0.058892287 -0.13804197

r_cell.layer_norm.weight f4 [24]
000000 38 21 8b 3f 14 e3 82 3f 26 9a 8c 3f a7 d8 82 3f
       1.0869513 1.0225549 1.0984542 1.0222367
000010 63 e5 80 3f 9d 3d 89 3f 3d 6e 8d 3f 54 51 7d 3f
       1.0070003 1.0721928 1.1049267 0.9895222
000020 cf 16 8b 3f e3 f0 52 3f c3 ca 9b 3f b4 ba 5c 3f
       1.0866336 0.82398814 1.2171253 0.86222386
000030 1b 90 84 3f c1 76 99 3f c2 02 83 3f 23 ea 88 3f
       1.0356477 1.1989366 1.0235217 1.0696453
000040 db 5e 81 3f d7 6e 68 3f dd 99 90 3f 26 6f 63 3f
       1.0107073 0.9079413 1.1296955 0.88841474
000050 bf 1a 7d 3f f5 40 84 3f 44 a8 84 3f b2 75 7d 3f
       0.98868936 1.0332323 1.036385 0.99007714

r_cell.layer_norm.bias f4 [24]
000000 2f b1 82 bd 89 94 a3 bd dd e5 f5 3d 30 21 cb bc
       -0.06381451 -0.07987315 0.120067336 -0.024796098
000010 9c ce 8e 3d 4d f4 25 be 97 de 32 bd 63 f2 ee bc
       0.06973001 -0.16206475 -0.04366931 -0.029168313
000020 10 f2 a2 3c 08 e0 cd bd 80 17 46 bd 8d 01 87 bd
       0.019890815 -0.10052496 -0.048362255 -0.06592093
000030 05 68 99 3b c6 27 d3 3c f9 ad e2 bb 48 ba 68 bd
       0.0046815895 0.025775801 -0.006917712 -0.056818277
000040 f3 0e 4a 3d 8b a9 11 be db 08 c4 3c 79 9d 1c bd
       0.049330663 -0.14224832 0.023930004 -0.038236115
000050 01 2e 6a bd 43 8c a0 bd 94 a1 d8 bd 8e 71 46 3d
       -0.05717278 -0.07839253 -0.105776936 0.048448138

r_cell.fc.weight f4 [24, 24]
000000 2f 35 ee 3c 92 c5 c0 3e cb 8e 25 3e 54 2a a8 3d
       0.029078094 0.37650734 0.16167752 0.082111984
000010 62 04 3b 3d b1 1e 0a 3d 6f 3a d7 bd 27 e0 50 3e
       0.045658477 0.033720676 -0.10509192 0.20398007
000020 88 fc e5 3d 30 f1 2e 3e 6d 53 7d be 8a 84 23 3c
       0.11229807 0.17084193 -0.24738856 0.00998033
000030 a4 df f6 3d a2 89 79 3e f5 8c 15 3e 2d 1c ec bd
       0.12054375 0.24368909 0.14604552 -0.115288116
000040 1e 4f 25 be a0 8a 58 3e 43 f4 0c 3d b0 f8 8f 3e
       -0.16143462 0.21146631 0.034412634 0.2811942
000050 fc 70 0b 3e 64 1a 08 3c ee 3a 94 be 5b 09 5b be
       0.13617319 0.008307073 -0.2895121 -0.21390288
000060 d5 bd 9f bd f0 ce 84 bb 18 c5 7c bb d6 fc 29 ba
       -0.077998795 -0.004052989 -0.0038569625 -0.0006484514
000070 ef eb d9 bb 8f e1 9f 3e 10 d0 ec 3d 6a 91 1d bd
       -0.00665044 0.31226775 0.11563122 -0.038468756
000080 75 6d a0 3e 28 e1 3b be c4 6e 35 be da 3d 58 bb
       0.3133351 -0.18347609 -0.17718035 -0.003299585
000090 db a3 bf 3d 96 d6 37 bd a7 bb 14 3e ff 70 11 bd
       0.09357425 -0.04488238 0.14524709 -0.035508152
0000a0 94 39 a5 be 78 8a e6 bd 8a b5 4c 3d 7c d2 83 bd
       -0.3227049 -0.112568796 0.049977817 -0.06436631
0000b0 ef b9 f6 3c 46 66 81 3e 8e 90 77 3e b9 3b f3 3e
       0.030117957 0.2527334 0.24176237 0.47506502
0000c0 4c 9a 7d b8 f3 02 ee 3c df aa 27 3e 11 8c ad 3d
       -6.04636e-05 0.02905414 0.16373776 0.08473981
0000d0 67 2d 3f 3d 1d 21 5b bd db 8f a9 3c 56 bf f4 3d
       0.04667416 -0.053498376 0.020698478 0.11950557
0000e0 2e d3 af 3d d1 89 33 bd 7b 55 2b be be 3e ef bd
       0.08585201 -0.043832604 -0.16731827 -0.11681889
0000f0 65 14 cc bd 46 f9 e1 3d 9e 58 99 bd 92 77 11 be
       -0.099648274 0.11033873 -0.074876055 -0.14205769
000100 ba cd fa bd 2b 29 83 be 3d 6c cd 3d b2 27 00 bd
       -0.122462705 -0.25617346 0.100304104 -0.031287856
000110 f5 84 c6 bd bf 90 2a be 53 0a 78 bd 64 5e fb ba
       -0.09693328 -0.16656779 -0.06055672 -0.0019177911
000120 0a fd 27 be 4c 50 9a 3d 82 e6 86 bd 01 38 89 bd
       -0.1640512 0.07534847 -0.065869346 -0.06700135
000130 57 86 d9 bd bb 0e 68 3e be 49 b4 3e 9e 61 c0 3d
       -0.106213264 0.22661869 0.3521251 0.09393619
000140 f8 08 15 3e f7 1d 0a 3e b2 2c 0e bd bc bb d3 3d
       0.14554203 0.13487993 -0.034710594 0.10338542
000150 a4 c1 3f 3c 1f 92 42 3e 4a 04 67 be 60 47 bc 3d
       0.011703882 0.19001053 -0.2256023 0.09193301
000160 25 49 7c bc 3e 66 69 be 7c 49 c8 bc e0 18 9b 3b
       -0.015398298 -0.22792909 -0.024449103 0.00473319
000170 12 25 44 bd a9 d1 41 3d 86 fb 90 be 9a 5d b1 be
       -0.047886916 0.047319088 -0.28316897 -0.34641725
000180 23 f5 29 3e 7e 7c 57 3d 00 cc 9f be 33 38 25 be
       0.16597418 0.05260896 -0.31210327 -0.1613472
000190 aa 2b e7 bc a4 7b 87 3e b1 80 a2 3e 98 4e 30 be
       -0.028219063 0.26461518 0.3173881 -0.17217481
0001a0 5e fe 3e be ce 30 13 3e c8 86 b0 3d bd 60 80 bd
       -0.18651721 0.14374086 0.086194575 -0.06268451
0001b0 a6 af 91 3d bb 1d 4a 3e dc 59 0f 3d 1c 6f 59 3e
       0.071135804 0.19737904 0.034997806 0.21233791
0001c0 3a 83 1e bc 61 13 99 3c bc c3 09 bc c9 be 91 be
       -0.009674842 0.018685998 -0.008408483 -0.2846587
0001d0 d4 f3 9a 3d dc fb 93 3d 7d 7b 5c be 9d 18 36 3e
       0.07566038 0.07225773 -0.21531482 0.17782827
0001e0 f0 e2 80 bd 2f 70 00 be ce 6f 25 bd b4 ea 11 bd
       -0.06293285 -0.12542795 -0.04038983 -0.03562422
0001f0 df 6b 16 be e6 c2 8c be 4f 1f 6f be 96 fc 82 3e
       -0.14689587 -0.27492446 -0.23351787 0.25583333
000200 75 5b 89 bd 3e e4 9d bd 80 30 8c 3e db 66 9e bd
       -0.06706897 -0.07709549 0.27380753 -0.07734462
000210 62 f6 85 3d c9 a1 55 be 8f 3c cf 3e 87 50 01 bf
       0.065411344 -0.20862497 0.4047589 -0.505135
000220 7a 20 04 be 05 97 ff 3d 0c 85 c4 3d 86 d2 16 3e
       -0.12903014 0.124799766 0.09595689 0.14728746
000230 00 c1 dd 3d ab cf e8 3c 56 c0 ff 3d cb 6c c8 3d
       0.108278275 0.028419336 0.12487857 0.097863756
000240 b3 5d 23 bc 52 f3 92 3d 19 1a 74 bd 2a 8a b5 be
       -0.00997107 0.07175316 -0.0595952 -0.35456973
000250 ee 19 89 bd d5 73 31 be 3b 4b 6f bd a5 d8 0d bc
       -0.06694399 -0.17329343 -0.058421355 -0.008657609
000260 ef a0 0b 3d 67 27 e9 3d 81 07 be 3e 22 22 5a bd
       0.034089025 0.113844685 0.371151 -0.053255208
000270 18 4c 7a bd 81 d0 a8 3d fc 3d 2f 3d f8 1c 91 3d
       -0.061107725 0.08242894 0.042783722 0.070856035
000280 6f 0c 73 3d a7 c0 74 3e 21 3a 36 be b9 82 a4 3d
       0.05933803 0.23901616 -0.17795612 0.08032746
000290 0b 47 4e 3d db d2 84 3e 5e b1 41 3e 95 3e 38 3c
       0.05036072 0.2594212 0.18915316 0.0112453895
0002a0 39 1e d1 bd 56 00 a3 3e 3f b3 42 3e 06 ed f7 3d
       -0.10210843 0.31836194 0.1901369 0.121057555
0002b0 7b 8a 95 bd e1 2a 14 bd d6 91 65 3d d7 8a 1a 3d
       -0.07301804 -0.036173705 0.056047283 0.037730064
0002c0 88 ed 0d 3e b3 22 46 be 0d 57 08 3c 4d 00 86 3e
       0.13860142 -0.19349174 0.008321536 0.26172104
0002d0 87 e0 55 b9 60 8d 37 3e 23 94 03 3d 59 ff bd 3d
       -0.00020396906 0.17925024 0.032123696 0.09277219
0002e0 56 59 94 bd a8 07 86 be fa 3f 8d 3e 95 89 b3 3e
       -0.07243602 -0.26177716 0.27587873 0.35065904
0002f0 b4 ab 12 3e e4 67 43 3d 98 97 46 be c1 c4 06 bd
       0.14323312 0.0477065 -0.19393766 -0.032902483
000300 e3 74 91 3d ed 8c ad 3e 0a 2d 1d 3e d5 04 e1 bd
       0.071023725 0.3389658 0.15349212 -0.1098725
000310 67 c8 63 3e ad 99 2b be b9 67 c6 be ec 83 fd 3d
       0.22244416 -0.16757841 -0.3875101 0.12378678
000320 00 94 49 3d 1b 87 a4 bc 39 a7 18 3c f5 51 1a bd
       0.04921341 -0.020083955 0.009317213 -0.037675817
000330 ce 7b 0a bd c1 bf ac 3e ab 0b 86 3c 16 74 96 be
       -0.033809476 0.33740047 0.016362986 -0.29385442
000340 ce a4 d8 bc 4c 79 e7 bd f3 87 9a 3d ac 2c bc 3d
       -0.026445772 -0.113024324 0.075454615 0.09188208
000350 c8 97 f0 bd aa 10 fe 3d 8f b5 ce bd ab 3c 9a bd
       -0.117477 0.12405522 -0.10093223 -0.07531103
000360 c4 94 0c 3e 45 67 24 be 06 5e 00 bf 2f 91 2f be
       0.13728625 -0.16055019 -0.5014347 -0.17145227
000370 df d1 a7 bd ee f5 08 bd df 10 3f 3e 44 8b 72 bd
       -0.081943266 -0.03343766 0.1865878 -0.059214845
000380 a5 4d 35 be 43 fe e3 bc 0b 3d 6d 3e 77 aa 1a 3d
       -0.177054 -0.027831202 0.23167817 0.037760224
000390 0e d9 ac bc e3 73 5b bd 31 bd 8b be 72 db fe bd
       -0.021099593 -0.053577315 -0.2729278 -0.124441996
0003a0 c6 09 14 be 7d 1e df 3d 4d bc df 3d 71 6e 3f 3d
       -0.14456853 0.10894487 0.109245874 0.046736185
0003b0 af a7 cf 3c ba c6 ab be 88 e8 1e bf c9 60 e0 be
       0.025348512 -0.33550054 -0.62073565 -0.4382384
0003c0 d4 8d cf 3c 1b 24 44 be 22 06 c1 be e4 aa 8e 3c
       0.025336184 -0.19154398 -0.3769999 0.017415471
0003d0 cf ee 00 be de aa b6 bc 47 bb 24 3e 68 48 8d 3d
       -0.12591098 -0.022298273 0.16087066 0.06898576
0003e0 62 85 85 3d 28 72 ee 3d 6c 93 c9 bd 95 54 5e bd
       0.065195814 0.11642867 -0.098425716 -0.054279882
0003f0 eb ea 87 be cd ea 58 3e 11 ec a4 bd 0c 5e 5d 3d
       -0.26546416 0.2118332 -0.080528386 0.05404477

r_cell.fc.bias f4 [24]
000000 2d 0c 56 3c 03 96 96 3c ae f7 94 3d 2f 2a d9 bd
       0.013064426 0.018382078 0.07273804 -0.10603749
000010 d1 c3 b0 3c 47 c9 8a bd a1 26 f8 bd 7a a3 91 3c
       0.021577748 -0.06776672 -0.12116743 0.017778147
000020 9c ca 54 3d 41 b2 e2 bd 32 0a 68 bd 25 f7 9c bc
       0.051951036 -0.110691555 -0.056650348 -0.019160816
000030 d1 09 08 bd 92 77 ed 3d eb 35 a4 3d 19 96 a0 bc
       -0.033212487 0.11595072 0.080180965 -0.019602822
000040 1b 82 3c 3d 2e ff 9c 3d f6 61 dc 3d 49 42 ba bd
       0.046022516 0.07665859 0.10760872 -0.09094674
000050 c1 fa 8a bd 46 cb 10 be 7e 1c c5 bd 65 76 49 3c
       -0.06786109 -0.14140043 -0.09624575 0.012296294

fc1.0.bias f4 [24]
000000 bb 62 53 be 8f 04 10 3e 29 ff 87 be 6a 20 ec ba
       -0.20643131 0.14064239 -0.2656186 -0.0018015031
000010 4f bd a8 3d 26 dd 96 3e 8f 1f a9 3d c2 74 2e be
       0.08239233 0.29465598 0.082579724 -0.17036727
000020 ae 2e 89 3e b1 b4 93 be 37 33 93 3c 2e 94 2a 3e
       0.26793426 -0.28848794 0.017968757 0.16658089
000030 af b4 17 3e d8 77 70 be 43 62 f3 bc d4 88 97 be
       0.14815019 -0.23483217 -0.02970994 -0.2959658
000040 21 66 1e 3e d4 9d 28 3e 0c 0b d0 bd 51 5c 0f 3e
       0.15468647 0.16466457 -0.10158357 0.1400006
000050 b6 1a b8 3d 78 98 0b 3e ee b4 de bd 21 43 80 3e
       0.0898947 0.13632381 -0.10874353 0.25051215

fc1.0.weight_orig f4 [24, 6]
000000 db 88 12 bd 8b d9 82 bd 11 3d 64 be a1 50 ad be
       -0.035775047 -0.06389149 -0.2228892 -0.33850577
000010 80 54 dd 3e c2 7a 00 3f 0c aa a1 3e 6b 87 cc 3b
       0.4322853 0.50187314 0.31575048 0.006241729
000020 5e 58 31 3e fd aa d4 3e c5 ba 0d 3e a5 88 05 bf
       0.17318866 0.41536704 0.13840778 -0.5216163
000030 d5 83 38 be 2f 2b 1b bd 96 2d fa 3d 44 cf 69 be
       -0.1801904 -0.03788298 0.12215726 -0.22832972
000040 20 8f 96 3e c7 84 76 be b2 d1 53 3e c9 90 b2 be
       0.2940607 -0.24074088 0.20685461 -0.34876087
000050 30 2c c4 3c 0b 51 6d 3e 4d 1b 9f bb 59 b8 f8 3e
       0.023946851 0.23175447 -0.0048555494 0.48578146
000060 d2 ce ff 3e 58 d2 0a 3f 5b 6e 49 be 47 a2 9a be
       0.4996248 0.5422721 -0.19671004 -0.30201933
000070 e9 96 a4 3e e6 4f 62 bd 4d dd 72 be 74 e5 8c 3e
       0.32146385 -0.05525198 -0.23717232 0.2751881
000080 ca a8 dd 3e 32 50 60 be ee 5e 99 3e 7a 28 11 3f
       0.43292838 -0.21905592 0.29955238 0.5670239
000090 db 44 56 be 89 91 df 3d 63 3a f7 3e 9a 8c 1b 3e
       -0.20924704 0.109164305 0.48286733 0.15190354
0000a0 49 cc d5 3d e2 9e c5 bd 4a c2 bd bd 22 a2 7c be
       0.10439355 -0.09649445 -0.09265573 -0.24671224
0000b0 53 a6 6c bd 19 ff 17 3e 43 c3 e7 3e 85 b9 27 3e
       -0.057775807 0.14843406 0.4526616 0.16379364
0000c0 e7 b7 18 3c ca 30 a2 3e 3d ce 1f 3c 63 40 50 be
       0.0093211895 0.31677848 0.009753761 -0.20337062
0000d0 f7 88 c9 3e bd c2 02 3f 2e e0 86 be 61 a5 d6 3e
       0.39362308 0.510784 -0.2634291 0.4192305
0000e0 16 79 ec bc d1 07 90 bd bb f1 90 be ed 14 45 bc
       -0.028866332 -0.07032741 -0.28309426 -0.012028915
0000f0 db 3b c0 ba 9f 6b 98 3e b5 11 2d 3e 3c 63 c4 3a
       -0.0014666276 0.29769608 0.16901286 0.0014983187
000100 56 70 e1 3d eb 70 d6 be 92 2b 73 3e 59 31 2b be
       0.110077545 -0.41883025 0.2374709 -0.16718043
000110 4c 3c 55 3e fa 29 9e be e3 54 0a 3f 1f fe c7 3e
       0.20823783 -0.308914 0.54035777 0.39061067
000120 ec f1 03 3e 80 a2 9f bd d7 99 1a 3f 78 f7 09 3e
       0.12885255 -0.07794666 0.6039099 0.13473308
000130 15 cd 37 3e e0 58 16 bd 9e d2 b3 bd 7e a1 63 3e
       0.17949326 -0.03670585 -0.087804064 0.22229573
000140 4d e5 be bd 48 17 93 3e 8d 05 71 be e3 94 15 3e
       -0.093210794 0.287287 -0.23537274 0.14607577
000150 20 20 10 be 80 e6 61 3e eb f8 02 3e 1e 16 cf 3d
       -0.14074755 0.22060585 0.12790267 0.101116404
000160 5a 73 78 be 57 b7 db 3e 40 1a 81 3e 46 66 0d 3d
       -0.24262753 0.42913315 0.2521534 0.034521364
000170 4f ce db bc 2f 90 5e be f2 72 b7 be 89 f4 42 3d
       -0.026831774 -0.21734689 -0.35829884 0.04759649
000180 67 dd d8 3d ff 88 8d be 01 86 93 bd 38 68 57 3e
       0.10589104 -0.27643582 -0.072032936 0.2103585
000190 20 63 06 3f a1 f7 84 3e ce 21 79 be 84 f1 09 3e
       0.52495 0.25970176 -0.24329302 0.13471037
0001a0 f0 bc 23 3e f0 c0 e2 3e 82 40 5c 3e f6 a9 b6 be
       0.15990043 0.44287825 0.21508983 -0.35676545
0001b0 a0 12 d0 3e 79 61 03 be aa f3 9a be 4a 1e 0c 3e
       0.4063921 -0.12830152 -0.30264026 0.1368343
0001c0 78 ff 1f be 3a 1a 4d be 94 74 22 be d5 3b 97 3e
       -0.15624797 -0.20029536 -0.15864784 0.29537836
0001d0 37 f2 81 3e 3f 63 f9 3e 7e 19 59 bd e4 d0 a9 3d
       0.25380108 0.4870853 -0.053002827 0.08291796
0001e0 0e 3b f3 bd 70 a3 a7 3e c9 7f ba 3e b9 db f1 3e
       -0.11876498 0.3274188 0.36425617 0.47237948
0001f0 3d 45 62 be 21 97 db 3e 4b 88 03 3f 07 6d ef 3e
       -0.22096725 0.4288874 0.5137984 0.4676287
000200 e0 c8 95 bd 38 86 b3 be d0 ab f9 3d 02 fe c9 bd
       -0.073137045 -0.35063338 0.12190974 -0.09862901
000210 78 17 82 be 3b 66 5e be 70 bf 86 bd 30 df ed 3e
       -0.2540853 -0.21718685 -0.065794826 0.4645934
000220 84 51 28 bd b9 7a e4 be 5d 27 96 3e d6 76 1c 3e
       -0.041093364 -0.4462488 0.29326907 0.15279707
000230 7d 80 88 be de b8 ee 3e 5f 52 94 3e 73 ef 66 3e
       -0.2666053 0.46625417 0.28969094 0.2255228

fc1.0.weight_u f4 [24]
000000 cc b3 ca be b0 21 82 3e 56 d5 a4 bc bb 26 0b be
       -0.395903 0.25416327 -0.020121258 -0.13588993
000010 80 71 55 be 55 ea b1 be aa 1c 8e 3d 8c fe ff bd
       -0.20844078 -0.34749094 0.06939061 -0.12499723
000020 d3 b8 be be bb 55 84 3d 37 82 03 3e f8 6e c6 be
       -0.37250385 0.06461664 0.12842642 -0.38756537
000030 c2 7f 48 3a 9b 70 98 3d 44 fa a0 bd a7 6b f8 bb
       0.0007648432 0.07443353 -0.078602344 -0.0075811925
000040 7f ba 3a be f8 25 61 3e 74 09 fb 3d 02 5a e3 3d
       -0.18235205 0.2198714 0.122576624 0.11101152
000050 60 81 05 3c 9e fd 18 be 45 9c ae 3e 7f 03 a0 bd
       0.008148521 -0.14940497 0.341036 -0.07813167

fc1.0.weight_v f4 [6]
000000 6b 14 25 be 58 55 9e bd f7 e6 81 3c 26 0b f2 3e
       -0.1612107 -0.07731122 0.015857203 0.4727413
000010 ba 03 ef be 60 bb 39 bf
       -0.4668253 -0.72551537
