models/17_05_2021/stock_self_attn_MSE_hinge_10000_64_24_6_24_5/4000_generator.pth (torch, 54798 bytes, 39 tensors)

position.pe f4 [1, 24, 24]
0	0x00000000	0.0
1	0x3f800000	1.0
2	0x00000000	0.0
3	0x3f800000	1.0
4	0x00000000	0.0
5	0x3f800000	1.0
6	0x00000000	0.0
7	0x3f800000	1.0
8	0x00000000	0.0
9	0x3f800000	1.0
10	0x00000000	0.0
11	0x3f800000	1.0
12	0x00000000	0.0
13	0x3f800000	1.0
14	0x00000000	0.0
15	0x3f800000	1.0
16	0x00000000	0.0
17	0x3f800000	1.0
18	0x00000000	0.0
19	0x3f800000	1.0
20	0x00000000	0.0
21	0x3f800000	1.0
22	0x00000000	0.0
23	0x3f800000	1.0
24	0x3f576aa4	0.84147096
25	0x3f0a5141	0.54030234
26	0x3ee5351d	0.44767085
27	0x3f64ea30	0.8941984
28	0x3e5ae952	0.21378067
29	0x3f7a14eb	0.9768817
30	0x3dcc7576	0.099833414
31	0x3f7eb898	0.9950042
32	0x3d3e0d1e	0.04639923
33	0x3f7fb96a	0.99892294
34	0x3cb07a47	0.021542681
35	0x3f7ff0ca	0.9997679
36	0x3c23d657	0.009999833
37	0x3f7ffcb9	0.99995
38	0x3b981857	0.0046415734
39	0x3f7fff4b	0.9999892
40	0x3b0d3164	0.0021544332
41	0x3f7fffd9	0.9999977
42	0x3a83126d	0.0009999998
43	0x3f7ffff8	0.9999995
44	0x39f35a5c	0.00046415895
45	0x3f7ffffe	0.9999999
46	0x3961e8ab	0.00021544348
47	0x3f800000	1.0
48	0x3f68c7b7	0.9092974
49	0xbed51133	-0.41614684
50	0x3f4cf4fb	0.8006131
51	0x3f1963f8	0.59918165
52	0x3ed5d9be	0.41767687
53	0x3f6899b9	0.9085956
54	0x3e4b6ff8	0.19866931
55	0x3f7ae5a5	0.9800666
56	0x3dbdd8b7	0.09269851
57	0x3f7ee5d1	0.9956942
58	0x3d306fcb	0.043075364
59	0x3f7fc32c	0.99907184
60	0x3ca3d43e	0.019998666
61	0x3f7ff2e5	0.9998
62	0x3c1817ec	0.009283047
63	0x3f7ffd2d	0.9999569
64	0x3b8d314e	0.004308856
65	0x3f7fff64	0.9999907
66	0x3b031268	0.0019999985
67	0x3f7fffdf	0.99999803
68	0x3a735a5b	0.00092831784
69	0x3f7ffff9	0.9999996
70	0x39e1e8ab	0.00043088695
71	0x3f7fffff	0.99999994
72	0x3e1081c3	0.14112
73	0xbf7d7026	-0.9899925
74	0x3f7bf0ce	0.98414314
75	0x3e35a216	0.17737612
76	0x3f1a2dc8	0.60226107
77	0x3f4c5d56	0.7982992
78	0x3e974e6c	0.2955202
79	0x3f7490ef	0.9553365
80	0x3e0e2117	0.1387981
81	0x3f7d85a8	0.9903207
82	0x3d8446bd	0.06458805
83	0x3f7f7729	0.997912
84	0x3cf5b91f	0.0299955
85	0x3f7fe283	0.99955004
86	0x3c6422d5	0.01392432
87	0x3f7ff9a6	0.9999031
88	0x3bd3c9bf	0.006463259
89	0x3f7ffea2	0.99997914
90	0x3b449b92	0.0029999954
91	0x3f7fffb5	0.9999955
92	0x3ab683c2	0.0013924765
93	0x3f7ffff0	0.99999905
94	0x3a296e7f	0.00064633036
95	0x3f7ffffd	0.9999998
96	0xbf41bdcf	-0.7568025
97	0xbf275530	-0.6536436
98	0x3f759ce7	0.9594254
99	0xbe905d6c	-0.28196275
100	0x3f424dbe	0.75899875
101	0x3f26adf9	0.6510921
102	0x3ec761d7	0.38941833
103	0x3f6bcaa7	0.921061
104	0x3e3d0773	0.18459873
105	0x3f7b99b2	0.98281395
106	0x3db045df	0.08607077
107	0x3f7f0ccc	0.996289
108	0x3d23cbdb	0.039989334
109	0x3f7fcb94	0.9992001
110	0x3c98163e	0.018565293
111	0x3f7ff4b4	0.9998276
112	0x3c0d30f8	0.008617632
113	0x3f7ffd91	0.99996287
114	0x3b831257	0.003999989
115	0x3f7fff7a	0.999992
116	0x3af35a54	0.0018566349
117	0x3f7fffe3	0.9999983
118	0x3a61e8a9	0.0008617738
119	0x3f7ffffa	0.99999964
120	0xbf757c10	-0.9589243
121	0x3e913c2c	0.2836622
122	0x3f3b500a	0.73169005
123	0xbf2e7fcb	-0.68163747
124	0x3f6171cf	0.88064283
125	0x3ef29363	0.47378072
126	0x3ef57743	0.47942552
127	0x3f60a940	0.87758255
128	0x3e6b8593	0.23000173
129	0x3f7922ff	0.97319025
130	0x3ddc300e	0.10751353
131	0x3f7e8421	0.9942036
132	0x3d4cb6f4	0.049979165
133	0x3f7fae19	0.99875027
134	0x3cbe1a3c	0.023205869
135	0x3f7fee5a	0.9997307
136	0x3c307ce6	0.010771966
137	0x3f7ffc33	0.999942
138	0x3ba3d6dd	0.004999979
139	0x3f7fff2e	0.9999875
140	0x3b181871	0.0023207928
141	0x3f7fffd3	0.9999973
142	0x3a8d3169	0.0010772172
143	0x3f7ffff6	0.9999994
144	0xbe8f0f8c	-0.2794155
145	0x3f75cdb8	0.96017027
146	0x3eb2c0c6	0.349127
147	0xbf6fe42d	-0.93707544
148	0x3f762963	0.961569
149	0x3e8c938f	0.27456328
150	0x3f108c68	0.5646424
151	0x3f534932	0.8253356
152	0x3e8cc0e9	0.2749093
153	0x3f7622e9	0.9614702
154	0x3e040009	0.12890638
155	0x3f7ddd38	0.9916568
156	0x3d759cd1	0.059964005
157	0x3f7f8a12	0.99820054
158	0x3ce41d2b	0.02784594
159	0x3f7fe696	0.9996122
160	0x3c53c89d	0.012926248
161	0x3f7ffa86	0.99991643
162	0x3bc49b58	0.0059999637
163	0x3f7ffed2	0.999982
164	0x3b3683b7	0.0027849504
165	0x3f7fffbf	0.9999961
166	0x3aa96e7d	0.0012926605
167	0x3f7ffff2	0.99999917
168	0x3f283046	0.6569866
169	0x3f40ffbd	0.75390226
170	0xbddbc69f	-0.10731243
171	0xbf7e858d	-0.9942253
172	0x3f7f7f41	0.9980355
173	0x3d804f23	0.06265094
174	0x3f24eb72	0.6442176
175	0x3f43ccb3	0.7648422
176	0x3ea3716a	0.31922466
177	0x3f729b18	0.94767904
178	0x3e19d85d	0.15023942
179	0x3f7d1825	0.98864967
180	0x3d8f3e32	0.06994285
181	0x3f7f5f81	0.997551
182	0x3d050f6e	0.032485418
183	0x3f7fdd69	0.9994722
184	0x3c771415	0.0150804715
185	0x3f7ff88c	0.9998863
186	0x3be55fc5	0.006999942
187	0x3f7ffe65	0.9999755
188	0x3b54eef8	0.003249107
189	0x3f7fffa8	0.99999475
190	0x3ac5ab91	0.0015081038
191	0x3f7fffed	0.99999887
192	0x3f7d4695	0.98935825
193	0xbe14fdf6	-0.14550003
194	0xbf0a81e3	-0.5410444
195	0xbf574b62	-0.840994
196	0x3f7d04e9	0.9883562
197	0xbe1bcf59	-0.15215816
198	0x3f37a4a5	0.717356
199	0x3f325b5f	0.6967067
200	0x3eb9c7cb	0.36285242
201	0x3f6e8d80	0.9318466
202	0x3e2f9e69	0.17150272
203	0x3f7c34ff	0.98518366
204	0x3da3aa50	0.07991469
205	0x3f7f2e65	0.9968017
206	0x3d180f89	0.03712419
207	0x3f7fd2d3	0.9993107
208	0x3c8d2fa1	0.017234625
209	0x3f7ff644	0.99985147
210	0x3c031212	0.007999914
211	0x3f7ffde7	0.999968
212	0x3b735a38	0.0037132632
213	0x3f7fff8c	0.9999931
214	0x3ae1e8a4	0.001723547
215	0x3f7fffe7	0.9999985
216	0x3ed30132	0.4121185
217	0xbf693fd5	-0.91113025
218	0xbf5c3bf1	-0.86028963
219	0xbf02829f	-0.5098056
220	0x3f6ed7af	0.9329786
221	0xbeb84901	-0.35993198
222	0x3f48881c	0.78332686
223	0x3f1f21d5	0.62161
224	0x3ecfb7ba	0.4056986
225	0x3f69fc5c	0.91400695
226	0x3e454f97	0.19268642
227	0x3f7b33e1	0.98126036
228	0x3db8123e	0.089878544
229	0x3f7ef6c2	0.9959527
230	0x3d2b0ecd	0.041762162
231	0x3f7fc6d3	0.99912757
232	0x3c9ed50c	0.019388698
233	0x3f7ff3ae	0.999812
234	0x3c13743a	0.008999879
235	0x3f7ffd59	0.9999595
236	0x3b88e2ba	0.0041774185
237	0x3f7fff6e	0.9999913
238	0x3afe25b6	0.0019389901
239	0x3f7fffe1	0.99999815
240	0xbf0b44f8	-0.5440211
241	0xbf56cd64	-0.8390715
242	0xbf7f5bd1	-0.99749476
243	0xbd90e07e	-0.070740685
244	0x3f559f61	0.8344632
245	0xbf0d1282	-0.55106366
246	0x3f576aa4	0.84147096
247	0x3f0a5141	0.54030234
248	0x3ee5351e	0.44767088
249	0x3f64ea30	0.8941984
250	0x3e5ae953	0.21378069
251	0x3f7a14eb	0.9768817
252	0x3dcc7576	0.099833414
253	0x3f7eb898	0.9950042
254	0x3d3e0d21	0.04639924
255	0x3f7fb96a	0.99892294

r_cell.w_qs.weight f4 [24, 24]
0	0xbe87cc8b	-0.2652324
1	0x3e16e3d6	0.1473535
2	0x3e3ae79d	0.18252416
3	0x3ee8e982	0.45490652
4	0xbbe81d61	-0.0070835804
5	0xbdd3bb9c	-0.10338518
6	0xbddccaa0	-0.10780835
7	0x3ee080db	0.4384831
8	0x3ee77c3b	0.45211968
9	0x3c8f50d2	0.017494593
10	0x3e15776c	0.14596337
11	0xbdde3532	-0.1084999
12	0x3f015bb9	0.5053058
13	0xbe81e019	-0.25366285
14	0xbd7b928d	-0.06141906
15	0xbe77f2d9	-0.24213733
16	0x3e643723	0.22286658
17	0xbe2668a5	-0.16250856
18	0xbd9d5e84	-0.07684043
19	0x3e988625	0.29789844
20	0xbd163d57	-0.036679592
21	0x3dd0e04b	0.101990305
22	0x3eccf501	0.40030673
23	0xbed2548d	-0.41080132
24	0x3cab83d4	0.020936884
25	0xbdf50910	-0.11964619
26	0x3df6a741	0.1204362
27	0x3b34ee77	0.0027607956
28	0xbe4555ec	-0.19271058
29	0xbe01cdd2	-0.1267617
30	0x3ef1bb6c	0.47213304
31	0xbe984dca	-0.29746848
32	0x3e8528ee	0.2600779
33	0x3e10690f	0.14102577
34	0xbd8b8fa9	-0.068145104
35	0x3cf0e23b	0.02940475
36	0x3ddb421e	0.1070597
37	0x3ea6511f	0.32483765
38	0xbf04c457	-0.5186209
39	0xbe1059a9	-0.14096703
40	0x3e8d5e6b	0.27611098
41	0x3e80ead2	0.25179154
42	0xbbe15f42	-0.0068778107
43	0x3eae5fd9	0.340575
44	0x3e47d9b3	0.1951664
45	0x3dcd3f96	0.10021894
46	0x3e71771f	0.23580597
47	0xbba3c6fc	-0.004998086
48	0xbccc4df8	-0.024939522
49	0xbe2ea2af	-0.17054246
50	0xbd8ce83a	-0.06880231
51	0x3e5fa3c4	0.21839815
52	0xbe84482d	-0.25836316
53	0x3e8699c3	0.26289186
54	0x3c478a39	0.012178951
55	0x3e8c5099	0.2740524
56	0xbe985f6f	-0.2976031
57	0xbe9a72bf	-0.3016567
58	0x3df04932	0.11732711
59	0x3f0d81bc	0.55276084
60	0x3eb9d81f	0.362977
61	0x3d4c5898	0.049889177
62	0x3e44e076	0.1922625
63	0x3d8ea131	0.069643386
64	0xbd38cd73	-0.045117807
65	0xbe41f9a6	-0.1894289
66	0xbefc3c69	-0.4926484
67	0xbeeb34c8	-0.45938706
68	0xbd8d8598	-0.069102466
69	0xbd8b1f0c	-0.06793031
70	0xbdf1a30f	-0.11798679
71	0xbe055f97	-0.13024746
72	0x3dac7c9d	0.084222056
73	0xbb0f7baa	-0.0021893778
74	0xbcbecbd9	-0.023290562
75	0x3ed9fc59	0.42575338
76	0xbe56fd2a	-0.20995012
77	0x3ceb162f	0.028697101
78	0xbea58c45	-0.3233358
79	0x3e17d370	0.14826751
80	0x3eeda997	0.4641845
81	0xbea63873	-0.32464942
82	0xba03b77e	-0.0005024596
83	0xbd2fe878	-0.04294631
84	0x3e78a73e	0.24282548
85	0xbec511ba	-0.38490087
86	0xbe3c8329	-0.18409409
87	0x3eab34e7	0.334388
88	0xbe4b3b69	-0.19846882
89	0xbc93c7de	-0.01803964
90	0xbe043397	-0.12910305
91	0x3ec25eae	0.3796286
92	0x3e6baa3a	0.23014155
93	0x3e2a1b87	0.16612063
94	0xbdfbc9a9	-0.12294323
95	0xbe8d3481	-0.2757912
96	0x3e608be2	0.21928361
97	0x3ea5c860	0.32379436
98	0x3e30a2fb	0.17249672
99	0xbe11b721	-0.14230014
100	0x3ee9ae95	0.45641008
101	0x3d04cb46	0.03242042
102	0x3bda833d	0.006668477
103	0xbe983c7d	-0.2973365
104	0x3dc63b74	0.096793085
105	0x3ef9b31a	0.48769456
106	0xbe2ea11e	-0.17053649
107	0xbe5c1d84	-0.21495634
108	0xbf23adcb	-0.6393706
109	0xbf25fe6b	-0.64841336
110	0x3c167377	0.009182802
111	0xbdc75bd4	-0.09734312
112	0xbe5d5bc4	-0.21617037
113	0x3dbe5b2e	0.09294735
114	0x3bfcf0ad	0.0077191205
115	0xbe82e72c	-0.25566995
116	0xbc662ac6	-0.014048284
117	0x3e51a4dd	0.20473047
118	0xbcd0bbbb	-0.025480142
119	0x3cb476b7	0.022029264
120	0x3e5b2592	0.2140105
121	0x3cee4a4c	0.029088162
122	0xbce520f3	-0.027969813
123	0xbdbd15e5	-0.09232692
124	0xbe880ecf	-0.26573798
125	0x3dfaf091	0.12252916
126	0x3e361f90	0.17785478
127	0xbd03a0aa	-0.032135643
128	0x3e1a0d39	0.15044107
129	0x3ec32501	0.3811417
130	0xbf294436	-0.66119707
131	0xbeba3779	-0.36370447
132	0x3f086f08	0.5329442
133	0x3d97fa41	0.07420779
134	0xbe02f0c8	-0.12787163
135	0x3d249609	0.040182147
136	0xbd00344b	-0.03129987
137	0xbd1de3fd	-0.038547505
138	0x3eab7619	0.3348854
139	0x3e11d2df	0.14240597
140	0xbee4dd5d	-0.44700137
141	0x3ea39665	0.3195068
142	0x3dd1c777	0.10243123
143	0xbdcab545	-0.09897856
144	0xbec97139	-0.39344195
145	0xbe834010	-0.25634813
146	0xbf0be3cc	-0.54644465
147	0x3db9702e	0.090546
148	0xbee14239	-0.43995836
149	0xbe00c3a5	-0.12574632
150	0xbdb6bcdf	-0.08922743
151	0xbe04fdf0	-0.12987494
152	0x3dd32dab	0.10311445
153	0x3e32bcce	0.17454836
154	0x3eea8010	0.4580083
155	0x3e7e109c	0.24811023
156	0xbe3bb760	-0.18331671
157	0xbe52ec9c	-0.20598072
158	0x3f02318a	0.5085684
159	0xbea4294b	-0.32062754
160	0xbec2a191	-0.3801389
161	0x3d2e1f7d	0.0425105
162	0xbe7d375d	-0.2472815
163	0x3ee4a1e8	0.44654775
164	0xbd6dcf16	-0.05805882
165	0xbe3694fa	-0.17830268
166	0x3ee46349	0.44607
167	0x3ebfe089	0.37475994
168	0x3df6f40f	0.12058269
169	0x3e218cdf	0.15776394
170	0x3e36b731	0.1784332
171	0xbd695aac	-0.056971237
172	0xbe9f3433	-0.31094512
173	0x3eafe848	0.34356904
174	0x3e723156	0.23651633
175	0x3ea6c045	0.32568565
176	0x3d8255aa	0.063639954
177	0x3db1903b	0.08670088
178	0x3f225c71	0.63422304
179	0xbec4ae7c	-0.3841437
180	0xbdcf0f61	-0.10110355
181	0xbed860de	-0.42261404
182	0x3d0fd77f	0.035117622
183	0x3dce9f1c	0.100889415
184	0x3f050daa	0.51973975
185	0x3c995320	0.018716395
186	0xbc6dc893	-0.014513153
187	0x3e627551	0.22115065
188	0x3f6c70f6	0.92359865
189	0x3e609e74	0.21935445
190	0x3dc93f44	0.0982652
191	0xbe258475	-0.1616381
192	0x3dd42d10	0.103601575
193	0x3e093238	0.13398063
194	0x3ebb27f9	0.36553934
195	0x3db37470	0.08762443
196	0x3e19bd3e	0.15013596
197	0xbcf16673	-0.029467797
198	0xbe1faabd	-0.15592475
199	0x3e122447	0.14271651
200	0x3e71b28d	0.23603268
201	0xbf2df558	-0.6795249
202	0xbe731a6e	-0.23740551
203	0xbe1006f4	-0.14065152
204	0xbcf68d4e	-0.030096676
205	0xbe55a91b	-0.2086529
206	0xbd043cd0	-0.032284558
207	0x3f519da6	0.8188118
208	0x3e6137ea	0.21993986
209	0x3c04e012	0.008110063
210	0xbd51267f	-0.051062103
211	0x3ee6bef3	0.45067558
212	0x3dd01728	0.10160667
213	0x3e3e43a8	0.18580496
214	0xbedfa02b	-0.43676886
215	0xbe610da3	-0.21977858
216	0x3e5fe536	0.21864781
217	0xbd8f7f62	-0.07006718
218	0xbe29df72	-0.16589144
219	0xbe23e6c3	-0.16005997
220	0xbeef69b2	-0.46760327
221	0xbe2b13ad	-0.16706724
222	0xbe43efcb	-0.19134443
223	0xbcedbc91	-0.02902058
224	0x3cb96163	0.022629445
225	0x3e0ec6fd	0.13943096
226	0x3e86fef4	0.2636639
227	0x3f4199d0	0.75625324
228	0x3e610782	0.2197552
229	0xbe3bd6f9	-0.18343724
230	0xbe821e9a	-0.25413972
231	0xbde3e5e4	-0.111278325
232	0x3e9897a7	0.29803202
233	0xbc8e9617	-0.017405553
234	0xbe4c68f4	-0.19961911
235	0x3db1245a	0.08649512
236	0xbec5b90a	-0.38617736
237	0xbec4c4e1	-0.38431457
238	0xbe43c21a	-0.19117013
239	0x3e0d4a6e	0.13797924
240	0x3e19546b	0.14973609
241	0x3ba44702	0.0050133476
242	0x3e695b11	0.22788645
243	0x3e12ab45	0.14323147
244	0x3d59f29b	0.053209882
245	0xbe4a5eff	-0.197628
246	0x3d3202b2	0.0434596
247	0x3ee182d7	0.44045135
248	0x3c8a8611	0.016909631
249	0x3ca44c40	0.02005589
250	0xbd85f3aa	-0.06540616
251	0xbebb92aa	-0.36635333
252	0xbeacb1e9	-0.33729485
253	0x3da5ee48	0.08102089
254	0x3ef5ac37	0.47982952
255	0x3f2ef08d	0.683358

r_cell.w_qs.bias f4 [24]
0	0x3e0431a1	0.12909557
1	0x3e21bc10	0.15794396
2	0xbd603b1d	-0.054743875
3	0x3d17eb02	0.037089355
4	0xbe091018	-0.13385046
5	0x3d840348	0.06445938
6	0x3e9c0006	0.30468768
7	0xbe54fbe1	-0.20799209
8	0xbe687d72	-0.22704104
9	0xbdfcbc42	-0.12340595
10	0x3dd27b71	0.10277451
11	0xbe1effc2	-0.15527251
12	0x3dcdb4a7	0.10044222
13	0x3d9b22f9	0.0757503
14	0x3e39ae00	0.18132782
15	0x3e256c51	0.161546
16	0x3e2a5367	0.16633378
17	0xbdd12528	-0.10212165
18	0xbc857f36	-0.01629601
19	0xbc74e8ce	-0.014948083
20	0x3dc1e8d2	0.09468235
21	0x3de7893a	0.11305471
22	0xb9a7f3b6	-0.000320343
23	0xbe43e42a	-0.19130006

r_cell.w_ks.weight f4 [24, 24]
0	0x3eb88601	0.36039737
1	0xbe8539b1	-0.26020578
2	0x3e32d83c	0.174653
3	0x3eaff5a3	0.34367093
4	0x3e7c4fa2	0.24639753
5	0x3e1d75cd	0.15376969
6	0x3e92434f	0.28566977
7	0xbe216ded	-0.1576459
8	0xbe7e8e7f	-0.24859045
9	0xbc615929	-0.013754168
10	0x3b20776c	0.0024485243
11	0xbef56e14	-0.47935545
12	0x3d182639	0.037145827
13	0xbebf2078	-0.3732946
14	0xbdb81331	-0.089880355
15	0xbef759fa	-0.48310834
16	0xbed726b9	-0.4202173
17	0x3e96890f	0.29401442
18	0x3e8b7115	0.27234712
19	0xbecd744a	-0.40127784
20	0x3d0b03a5	0.033939023
21	0x3f06c0b9	0.5263782
22	0x3ed2c28e	0.41164058
23	0xbeb2655e	-0.34842962
24	0xbe5fe9a7	-0.21866475
25	0xbda21e55	-0.079159416
26	0x3ebbfe02	0.3671723
27	0x3ec5c071	0.38623384
28	0xbe50fec7	-0.2040969
29	0xbeb42d3b	-0.35190758
30	0xbd1fa7ee	-0.03897851
31	0xbd1f019f	-0.038819905
32	0x3eb487c7	0.3525984
33	0x3eac0c36	0.33603066
34	0x3e18b336	0.14912114
35	0x3cba971c	0.022777133
36	0xbf2097e9	-0.62731797
37	0x3f0574f2	0.5213157
38	0x3e6eec31	0.23332287
39	0x3ea64fb5	0.32482687
40	0x3e82e7b8	0.25567412
41	0x3ebb9846	0.36639613
42	0xbd0714bc	-0.03297876
43	0xbcd9090a	-0.026493568
44	0xbe788eb6	-0.2427319
45	0xbee20dd4	-0.44151175
46	0xbe6706be	-0.22561166
47	0x3cf067e5	0.029346416
48	0xbece351a	-0.40274888
49	0x3ee7907f	0.4522743
50	0x3c0f7ab7	0.008757285
51	0xbe6f921d	-0.23395582
52	0xbd180e49	-0.037123
53	0xbeb74a00	-0.35798645
54	0xbe4af76e	-0.1982095
55	0xbddca9ba	-0.1077456
56	0x3c915c7f	0.0177443
57	0xbed4e1a3	-0.41578397
58	0x3ed0447b	0.40677246
59	0x3ea02c26	0.31283683
60	0xbe1c84b4	-0.15284997
61	0xbe18a7cb	-0.14907758
62	0x3b979432	0.0046258206
63	0xbeb145a4	-0.34623444
64	0x3e4fa550	0.20277905
65	0xbf25a6e8	-0.64707804
66	0xbdd5690a	-0.10420425
67	0x3db9d2a0	0.09073377
68	0xbdac90f8	-0.08426088
69	0x3e5f7da8	0.21825278
70	0xbdc36088	-0.09539896
71	0x3f621433	0.8831207
72	0x3da1a4bd	0.078927495
73	0xbf01d547	-0.5071606
74	0x3dfbeca9	0.12300999
75	0xbd231211	-0.03981215
76	0xbe81184d	-0.25213853
77	0x3d66ab0f	0.056315478
78	0xbdcd620c	-0.100284666
79	0xbe85d3df	-0.26138207
80	0xbe76e7c4	-0.24111849
81	0xbe568e3d	-0.20952697
82	0x3eafd7ac	0.34344232
83	0x3e429710	0.19002938
84	0x3ea01fdc	0.31274307
85	0x3e0d6563	0.13808207
86	0x3cc3ba6f	0.02389261
87	0xbd8e901a	-0.06961079
88	0xbef17985	-0.47163025
89	0xbe488965	-0.19583662
90	0x3ce8a025	0.028396675
91	0xbc0ee9fa	-0.008722777
92	0xbe7f2f33	-0.24920349
93	0x3d443c88	0.04790929
94	0x3e72a8e6	0.23697242
95	0x3f5ea634	0.86972356
96	0xbe097b84	-0.13426024
97	0x3e22391b	0.15842097
98	0xbed293c5	-0.41128364
99	0x3e594d26	0.21220836
100	0xbe0d901a	-0.13824502
101	0x3eb03737	0.34417126
102	0xbe3a7218	-0.18207586
103	0xbcf67127	-0.030083252
104	0x3eaf2aac	0.34212244
105	0x3ecf4a8e	0.40486568
106	0xbe479d89	-0.19493689
107	0x3e829c0c	0.2550968
108	0xbeec4331	-0.46145013
109	0xbe693baa	-0.22776666
110	0xbc08501a	-0.008319879
111	0xbe3908ee	-0.18069813
112	0xbef0b0ae	-0.47009796
113	0x3ed0685d	0.40704623
114	0xbe330fc9	-0.1748649
115	0xbe13e8a3	-0.14444213
116	0xbe98f242	-0.29872328
117	0xbe5994db	-0.2124819
118	0xbd420380	-0.04736662
119	0xbe235222	-0.159493
120	0xbcea7487	-0.028620018
121	0x3eae6917	0.34064552
122	0xbe3ddc0f	-0.18540977
123	0xbeb301d1	-0.34962323
124	0x3f096a41	0.53677756
125	0xbe5f87a2	-0.21829084
126	0x3e9fbcb8	0.31198668
127	0x3e809d46	0.2511999
128	0xbe279951	-0.1636708
129	0xbe06de21	-0.13170673
130	0x3abeae86	0.0014547862
131	0xbbe2a345	-0.006916436
132	0xbd5324b9	-0.051548693
133	0xbe93f097	-0.28894493
134	0x3e88e4f3	0.26737174
135	0x3dda7963	0.10667684
136	0xbdc8e0be	-0.09808491
137	0x3ed0fbd8	0.40817142
138	0xbe8b6937	-0.2722871
139	0xbd618148	-0.055054933
140	0xbe30d121	-0.17267276
141	0xbe22800a	-0.15869156
142	0x3e1ea3ce	0.15492174
143	0x3d6577e7	0.05602255
144	0xbce2ae57	-0.027671022
145	0xbdb9a3f3	-0.09064474
146	0xbe83fa08	-0.25776696
147	0x3eaac7df	0.33355615
148	0xbea0e8d0	-0.31427622
149	0x3e290967	0.16507493
150	0xbc4b7ea3	-0.012420329
151	0xbe4906f0	-0.19631553
152	0x3d32ad3a	0.043622233
153	0xbf1bf325	-0.60917884
154	0xba020b59	-0.00049607974
155	0xbd94e38f	-0.07269966
156	0xbec8471a	-0.39116746
157	0xbc88d900	-0.016705036
158	0x3e93b86a	0.28851634
159	0xbed82f87	-0.4222376
160	0xbe045d25	-0.12926157
161	0x3f3fab79	0.7487102
162	0xbe35fa18	-0.17771184
163	0xbe172659	-0.14760722
164	0xbea3adb9	-0.31968477
165	0xbe72047c	-0.23634523
166	0xbe28c2f0	-0.16480613
167	0xbe954bf3	-0.29159507
168	0x3d9d454f	0.07679235
169	0xbe64100a	-0.22271743
170	0x3f1c6f89	0.6110769
171	0x3e027311	0.12739207
172	0x3d4f6a33	0.05063839
173	0x3ef607b1	0.48052743
174	0x3e0ab0fb	0.13544075
175	0xbf0b2c0e	-0.543641
176	0xbddd1ba9	-0.107962914
177	0xbe5b0006	-0.21386728
178	0xbe8ac5af	-0.27103946
179	0x3d496a98	0.04917392
180	0x3eaf2b2e	0.3421263
181	0x3e1e56e5	0.15462835
182	0x3e7ab11b	0.24481623
183	0xbe9d732c	-0.30751932
184	0xbea66473	-0.32498512
185	0xbf089f07	-0.53367656
186	0xbbf09a42	-0.0073426077
187	0xbd9dc4af	-0.0770353
188	0x3e25b77e	0.16183278
189	0xbdee38a0	-0.11631894
190	0xbe69649d	-0.22792287
191	0xbd5de756	-0.054175697
192	0x3e269aba	0.16269961
193	0x3e4b31fa	0.19843283
194	0x3e7b3060	0.24530172
195	0xbe2e0201	-0.16992952
196	0x3eeabc19	0.45846632
197	0xbda043ef	-0.07825457
198	0xbf1cd4fd	-0.61262494
199	0xbe5df634	-0.2167595
200	0xbe325c12	-0.17417935
201	0xbdb2efd4	-0.0873715
202	0x3e9b968b	0.30388293
203	0xbdcec85e	-0.10096811
204	0x3d20f08a	0.039291896
205	0x3cc3aef8	0.023887143
206	0x3e828864	0.25494683
207	0xbde1e328	-0.11029655
208	0x3dc03d6d	0.09386716
209	0xbe15ea51	-0.14640166
210	0x3e152491	0.1456473
211	0xbeb84d74	-0.35996592
212	0x3f0f133b	0.5588872
213	0xbec252ec	-0.3795389
214	0xbe668110	-0.22510171
215	0x3f01f004	0.5075686
216	0xbe53470a	-0.20632568
217	0x3e72907b	0.23687927
218	0xbe237360	-0.15961981
219	0x3da35bf3	0.07976522
220	0x3e2dd7c0	0.16976833
221	0x3e432ed4	0.19060832
222	0x3d951263	0.072788976
223	0x3e41525e	0.18879077
224	0x3e9ee6af	0.31035373
225	0x3dd59704	0.104291946
226	0x3ec12c3c	0.3772906
227	0x3eaf77c8	0.34271073
228	0xbe25b2f0	-0.1618154
229	0xbf051f98	-0.52001333
230	0x3e82379a	0.25433046
231	0x3e80a2db	0.2512425
232	0xbee82d14	-0.45346892
233	0xbebf8cd2	-0.37412125
234	0xbc86fab9	-0.016476976
235	0xbf21d96e	-0.63222396
236	0xbe715f65	-0.23571546
237	0x3e877db9	0.26463106
238	0x3e9e5e76	0.30931443
239	0xbe8552a8	-0.26039624
240	0x3e0ca17b	0.13733475
241	0x3d2dbb3c	0.04241489
242	0x3e096ca9	0.13420357
243	0x3d582c5f	0.05277669
244	0x3ea4d72c	0.32195413
245	0x3e6e11f4	0.23249036
246	0xbea53caa	-0.32272846
247	0xbe81f34a	-0.25380927
248	0xbdb1ed42	-0.086878315
249	0x3ed4d6c6	0.4157011
250	0x3e9d72bf	0.30751607
251	0x3e00aada	0.12565175
252	0x3e51ba7a	0.20481291
253	0xbce2705a	-0.027641464
254	0x3f118024	0.5683615
255	0xbd9b81ec	-0.0759314

r_cell.w_ks.bias f4 [24]
0	0x3cc5a38d	0.024125839
1	0x3e33a34c	0.17542762
2	0x3d7b66a7	0.061377194
3	0x3d0ec09b	0.03485165
4	0x3e6c4f46	0.23077115
5	0x3e770a89	0.24125113
6	0x3e4fa668	0.20278323
7	0xbdd4a8d6	-0.103837654
8	0xbe6afad4	-0.22947246
9	0xbd6b3343	-0.057421934
10	0xbb388760	-0.0028156862
11	0xbdb7784a	-0.0895849
12	0x3c6289e7	0.013826824
13	0x3e065cee	0.13121387
14	0xbd531d05	-0.051541347
15	0x3e8740bb	0.26416573
16	0x3dd0a2e3	0.10187318
17	0x3da06750	0.07832205
18	0xbe5be415	-0.21473725
19	0xbbc6e102	-0.0060693035
20	0xbe294543	-0.16530327
21	0x3ce92f31	0.028464885
22	0xbd9222d2	-0.07135548
23	0x3befe839	0.0073213843

r_cell.w_vs.weight f4 [24, 24]
0	0xbda63037	-0.08114665
1	0x3f024608	0.5088811
2	0x3c556460	0.01302442
3	0x3e75281b	0.2394108
4	0x3ec5b143	0.38611802
5	0x3edf9c19	0.4367378
6	0x3e882a15	0.26594606
7	0x3ef9d47d	0.48794928
8	0x3eb03aa2	0.34419733
9	0x3e159f71	0.14611603
10	0x3df16107	0.117860846
11	0xbed12bc4	-0.40853703
12	0xbe9c353d	-0.30509368
13	0xbefb70ce	-0.491095
14	0xbdc21a9d	-0.09477732
15	0xbd8219af	-0.06352555
16	0x3eee2a6b	0.46516737
17	0xbe1c326a	-0.15253606
18	0x3e3cc347	0.18433867
19	0x3e6028d6	0.21890578
20	0xbe2eede6	-0.17082939
21	0x3d31a2e4	0.043368235
22	0xbeecb076	-0.4622838
23	0xbdcefafc	-0.10106465
24	0xbeb2ec6e	-0.34946007
25	0xbeccf8f7	-0.40033695
26	0xbe8f8926	-0.28034323
27	0xbda36c73	-0.079796694
28	0x3d9c17fc	0.07621762
29	0x3dcde5c6	0.100535914
30	0x3e407c9f	0.18797539
31	0x3fb71ba7	1.4305314
32	0x3ebdde12	0.3708349
33	0xbe613abe	-0.21995065
34	0x3e87e62d	0.26542798
35	0xbf2acd0c	-0.66719127
36	0x3e0539b6	0.13010296
37	0x3f3457ee	0.7044667
38	0x3e7210ad	0.23639174
39	0x3e6b186b	0.22958533
40	0x3b838235	0.0040133246
41	0x3d831c8d	0.0640193
42	0xbebb373f	-0.36565587
43	0xbe931314	-0.28725493
44	0x3ec01787	0.3751795
45	0xbeaa9968	-0.33320165
46	0xbea23a81	-0.3168526
47	0x3e266d2f	0.16252588
48	0xbf3fd91f	-0.74940675
49	0xbd9465e0	-0.072459936
50	0xbd00f79e	-0.031486146
51	0xbf1d6e31	-0.61496264
52	0xbdd1b338	-0.102392614
53	0x3f1103cf	0.56646436
54	0xbf43d826	-0.7650169
55	0xbe96dc89	-0.2946513
56	0xbf0a7509	-0.5408483
57	0xbcc53e0d	-0.02407744
58	0xbe39dba6	-0.18150195
59	0xbeae5b7b	-0.3405417
60	0xbdd4dce9	-0.10393698
61	0xbed02642	-0.40654188
62	0xbe8fdae4	-0.28096688
63	0x3ee7194a	0.45136482
64	0xbe10c5a4	-0.14137894
65	0xbdd39835	-0.103317656
66	0xbd834458	-0.0640952
67	0xbe6f6959	-0.2338003
68	0xbe92f1be	-0.2870006
69	0x3e8fe82e	0.28106827
70	0xbd40544b	-0.046955388
71	0x3e95dee9	0.2927163
72	0x3f2ec6ac	0.682719
73	0xbe40de6d	-0.18834849
74	0x3cc1c7f4	0.023654915
75	0xbe819b97	-0.25314018
76	0x3ee711cd	0.45130768
77	0xbe9757a5	-0.29559055
78	0xbf0175dd	-0.5057047
79	0x3e15c5dd	0.1462626
80	0x3ec8289b	0.3909348
81	0xbe66ee46	-0.22551832
82	0x3e8fe541	0.28104594
83	0x3e451c4e	0.19249079
84	0x3e48854d	0.195821
85	0xbcbe688d	-0.023243213
86	0x3f930cbe	1.1488264
87	0x3e349af2	0.17637232
88	0x3d1d241d	0.03836452
89	0x3e4d081d	0.20022626
90	0x3e829b98	0.25509334
91	0xbcc0553e	-0.023478147
92	0x3ed9d9c7	0.42548963
93	0x3ea2de43	0.31810197
94	0x3e41cdbc	0.18926138
95	0x3df878fc	0.12132451
96	0xbe6ef269	-0.2333466
97	0xbe2e2591	-0.17006518
98	0x3f041e5f	0.5160884
99	0xbe4e98bf	-0.20175456
100	0xbf0252c1	-0.5090752
101	0xbe8d3aa1	-0.27583793
102	0x3ea7f247	0.3280203
103	0xbf43a748	-0.76427126
104	0x3e61f048	0.22064316
105	0xbd34078e	-0.043952517
106	0x3e92b910	0.28656816
107	0x3f04280b	0.516236
108	0xbdeb5c0e	-0.114921674
109	0x3efa6ccb	0.48911127
110	0xbe68812a	-0.22705522
111	0x3ea27c2f	0.3173537
112	0x3d958a88	0.07301813
113	0xbe2d8fb6	-0.16949353
114	0x3e35916f	0.1773126
115	0x3e0d5306	0.13801202
116	0x3ec959b0	0.3932624
117	0xbe6b686a	-0.2298905
118	0xbe8cb1d3	-0.2747942
119	0xbed19f21	-0.40941718
120	0x3e1dda0c	0.1541521
121	0x3ec02528	0.37528348
122	0x3ed2fb1b	0.41207203
123	0x3ba1add3	0.0049340515
124	0x3efe0d4c	0.4961952
125	0xbf4fbdc5	-0.8114894
126	0xbed16c58	-0.40902972
127	0xbf2a93d7	-0.66631836
128	0xbf001117	-0.5002608
129	0xbeb5e201	-0.3552399
130	0xbd21507f	-0.039383408
131	0xbe16e780	-0.14736748
132	0xbec5167e	-0.38493723
133	0xbe7f055d	-0.2490439
134	0x3c600139	0.0136721665
135	0xbdcd89f9	-0.10036082
136	0x3e275f41	0.1634493
137	0xbdb957e5	-0.09049968
138	0xbea2cbd6	-0.3179614
139	0x3e623b93	0.22093038
140	0xbccf4e1a	-0.025305796
141	0xbeea3d5b	-0.45749936
142	0x3f2bd45d	0.67120916
143	0xbe6cdb45	-0.2313052
144	0x3e86689a	0.2625168
145	0xbe8e51eb	-0.27796873
146	0xbf6c410e	-0.92286766
147	0x3e0e8f44	0.13921839
148	0xbe898557	-0.26859543
149	0xbf148608	-0.58017015
150	0xbd5894d0	-0.052876294
151	0x3f25896c	0.64662814
152	0x3d41272d	0.0471565
153	0xbdd0512d	-0.10171733
154	0xbd3e4bd3	-0.04645903
155	0x3d04e6e2	0.03244675
156	0xbd8c9800	-0.06864929
157	0x3e6c0a30	0.23050761
158	0x3f468de1	0.7756024
159	0xbc9f384d	-0.019436026
160	0x3f0c35d9	0.54769665
161	0xbead2b0e	-0.3382191
162	0x3ca3674f	0.019946722
163	0xbeca250f	-0.39481398
164	0x3f899366	1.0748107
165	0x3e8e14b2	0.27750164
166	0x3e1a0c09	0.15043654
167	0x3e940e15	0.28916994
168	0x3eab0fa3	0.33410367
169	0x3dab861e	0.0837519
170	0x3e978508	0.29593682
171	0x3e2193f0	0.1577909
172	0xbe87f906	-0.26557177
173	0x3e038e8d	0.12847348
174	0x3e645b72	0.22300509
175	0x3f146de3	0.57980174
176	0xbd83ec00	-0.06441498
177	0xbea88d73	-0.32920417
178	0x3e96adad	0.2942938
179	0xbcd2e2a0	-0.025742829
180	0xbebb8de5	-0.36631694
181	0xbe68fce0	-0.22752714
182	0x3f223918	0.6336837
183	0xbdc9ad6a	-0.09847529
184	0xbdaf9000	-0.08572388
185	0x3c512f03	0.012767556
186	0xbed37b13	-0.41304836
187	0xbf20a305	-0.6274875
188	0xbee1e3c6	-0.4411909
189	0x3e382fc6	0.17986974
190	0xbeb0e489	-0.34549358
191	0x3e6a8aab	0.2290446
192	0x3e00af74	0.1256693
193	0xbdc9505e	-0.09829782
194	0x3e955e86	0.29173678
195	0x3d92853a	0.07154317
196	0x3e98fe98	0.2988174
197	0xbebc4cca	-0.36777335
198	0x3c943f3a	0.018096555
199	0x3eba74f8	0.36417365
200	0x3d8180ec	0.06323418
201	0xbda3e377	-0.0800237
202	0x3e6f3164	0.23358685
203	0x3e6c9d63	0.23106913
204	0xbddc727a	-0.10764022
205	0xbcf4b6c0	-0.029872298
206	0x3f288fb6	0.65844285
207	0x3f30fc22	0.69134724
208	0xbe57e4c9	-0.21083368
209	0xbdc9e90e	-0.09858905
210	0xbd3be411	-0.045871798
211	0x3f0bfa4e	0.5467881
212	0x3eb2d7a4	0.34930146
213	0x3e83966b	0.25700697
214	0x3ea28874	0.3174473
215	0x3e38213d	0.1798143
216	0xbbf82356	-0.0075725717
217	0xbeb5e2fa	-0.35524732
218	0xbded2598	-0.11579436
219	0xbd3da209	-0.046297107
220	0xbcbe6f30	-0.023246378
221	0xbee03f4b	-0.4379829
222	0x3e805630	0.25065756
223	0xbf673b9e	-0.90325344
224	0xbeab74b9	-0.3348749
225	0xbb3f293c	-0.0029168865
226	0x3eab26f0	0.33428144
227	0xbde0223c	-0.1094403
228	0x3c883f57	0.016631765
229	0x3e2b5c17	0.16734348
230	0xbe128ebf	-0.14312266
231	0x3f15ed28	0.58564997
232	0x3eb32fb3	0.3499733
233	0xbecac5fb	-0.39604172
234	0xbe8a7123	-0.2703944
235	0xbceea0b4	-0.029129364
236	0x3f1f1bab	0.6215159
237	0xbda70490	-0.08155167
238	0x3ef2317f	0.47303388
239	0xbe1594a9	-0.1460749
240	0x3e6c6d1e	0.230885
241	0xbe62422f	-0.2209556
242	0x3e86bb84	0.26314938
243	0xbecf4938	-0.4048555
244	0x3ea5a6e7	0.323539
245	0xbf492944	-0.7857859
246	0xbeaac947	-0.33356687
247	0xbed8c25c	-0.42335784
248	0x3d804fa1	0.06265188
249	0xbe88f9cd	-0.26753083
250	0x3e2b6fae	0.16741821
251	0x3eb6a192	0.35670143
252	0x3d897da6	0.06713419
253	0xbf516aed	-0.8180378
254	0x3e17dac8	0.14829552
255	0x3e8ea9ae	0.2786383

r_cell.w_vs.bias f4 [24]
0	0xbd9863ea	-0.07440932
1	0x3df4a092	0.11944689
2	0x3e076f14	0.13225967
3	0x3e9d8efa	0.30773145
4	0x3e7b7997	0.24558102
5	0xbe05ee5f	-0.13079213
6	0x3e5146ab	0.20437114
7	0x3dc8280b	0.097732626
8	0x3dc3aaf3	0.0955409
9	0xbd78c766	-0.060737036
10	0x3e1f4882	0.15555003
11	0x3e8f78c4	0.28021824
12	0xbe25b0dd	-0.16180749
13	0x3a576d65	0.00082179
14	0xbda74700	-0.08167839
15	0x3cb69c8d	0.022291446
16	0xbe5e6884	-0.21719557
17	0x3d51a1c2	0.051179655
18	0xbe61c8b3	-0.22049217
19	0xbe116f5e	-0.1420264
20	0xbd2df1a2	-0.042466767
21	0xbc6c5263	-0.014423939
22	0xbdbe0252	-0.09277786
23	0xbdf70c39	-0.12062878

r_cell.layer_norm.weight f4 [24]
0	0x3f528d59	0.8224693
1	0x3f7ce0ab	0.98780316
2	0x3f6c08fd	0.92201215
3	0x3f7202e8	0.94535685
4	0x3f730b9b	0.94939584
5	0x3f4f6a05	0.8102115
6	0x3fad9692	1.3561575
7	0x3f85a4de	1.0440938
8	0x3f54fc6d	0.8319767
9	0x3f94ea5f	1.1634024
10	0x3f9837af	1.1891993
11	0x3fa3da83	1.280106
12	0x3f89b710	1.0758991
13	0x3f99ab04	1.2005315
14	0x3f9bae03	1.2162479
15	0x3f8a4015	1.0800806
16	0x3fae379f	1.3610724
17	0x3f6dcd65	0.9289153
18	0x3f982e67	1.1889161
19	0x3f807aab	1.0037435
20	0x3f804c2f	1.0023249
21	0x3f873ee2	1.0566065
22	0x3f8d2a0e	1.1028459
23	0x3f818ea1	1.0121652

r_cell.layer_norm.bias f4 [24]
0	0xbc5ac377	-0.0133522665
1	0xbe24d152	-0.16095474
2	0x3d025831	0.031822387
3	0xbbca6018	-0.006176006
4	0xbc25b541	-0.010114015
5	0x3e12cbe8	0.14335597
6	0xbe112cb8	-0.14177215
7	0xbc72e725	-0.014825617
8	0x3e2d8daa	0.16948572
9	0x3df70809	0.120620795
10	0xbd33a70c	-0.04386048
11	0xbcdd8580	-0.027041197
12	0xbc8ba466	-0.017046165
13	0x3d35e818	0.044410795
14	0x3d0ded0b	0.03464989
15	0xbd809cb2	-0.06279887
16	0xbbf32b98	-0.0074209683
17	0x3e1a9ae8	0.15098155
18	0xbd42f4a5	-0.047596592
19	0x3d758b59	0.059947345
20	0x3d05021f	0.032472726
21	0xbdb53bff	-0.08849334
22	0x3e088849	0.13333239
23	0x3df994b6	0.121865675

r_cell.fc.weight f4 [24, 24]
0	0x3c6abaa6	0.014326727
1	0xbec0f726	-0.3768856
2	0xbdb58a0a	-0.088642195
3	0xbe4a879a	-0.1977829
4	0x3dc63f63	0.09680059
5	0x3d073fe0	0.0330199
6	0xbf2f0943	-0.6837351
7	0xbe2983c4	-0.16554171
8	0xbecdbaab	-0.4018148
9	0x3f0d435a	0.55180895
10	0x3e7ceab6	0.2469891
11	0xbedd4f00	-0.43224335
12	0xbf4c682a	-0.7984644
13	0xbedf2124	-0.43579972
14	0xbd2c3f59	-0.0420526
15	0x3b086ff5	0.0020818685
16	0x3e62e190	0.22156358
17	0x3e035876	0.12826714
18	0x3f08330c	0.5320289
19	0x3f02ad7e	0.5104598
20	0xbece55d5	-0.4029986
21	0x3f18223a	0.59427226
22	0xbe454678	-0.19265163
23	0x3d81fe36	0.06347315
24	0x3ee23681	0.44182208
25	0xbe57c111	-0.21069743
26	0xbb6c7302	-0.0036079292
27	0xbf17bb86	-0.59270513
28	0xbd5a1142	-0.053239115
29	0x3f35c885	0.71009094
30	0xbeb8b165	-0.3607284
31	0xbddc06da	-0.10743494
32	0xbe9fcde0	-0.31211758
33	0x3e0b5d9a	0.13609925
34	0xbe5868a3	-0.21133666
35	0xbf01e012	-0.5073253
36	0xbe8d8476	-0.27640122
37	0x3d9d43ad	0.07678924
38	0xbede3bef	-0.434051
39	0x3cb76aee	0.022389855
40	0x3e82beb5	0.25536123
41	0x3e93dcba	0.28879339
42	0x3df74508	0.120737135
43	0x3e967066	0.29382628
44	0xbf5db308	-0.86601305
45	0x3daf36e7	0.08555394
46	0xbee5712e	-0.44812912
47	0x3e50cf64	0.20391613
48	0xbe7b0b67	-0.24516068
49	0xbe7c2ae1	-0.24625732
50	0x3cd704b2	0.026247356
51	0x3edc6186	0.43043154
52	0x3e56adb8	0.20964706
53	0xbe69f8ef	-0.22848867
54	0x3de6fc5f	0.11278605
55	0xbdebd5a7	-0.1151536
56	0x3ef9d8f6	0.4879834
57	0x3db81a08	0.0898934
58	0x3f436c48	0.763371
59	0x3f008e41	0.5021706
60	0x3ec1d263	0.37855825
61	0x3e8b727b	0.2723578
62	0xbe074ac7	-0.13212119
63	0xbe32b9ed	-0.17453738
64	0xbdb953f1	-0.09049214
65	0xbf8e0c22	-1.1097453
66	0xbd0eeca2	-0.03489364
67	0xbc8a0cac	-0.016851746
68	0x3f3613a5	0.71123725
69	0xbe0c6013	-0.13708524
70	0x3de42636	0.11140101
71	0x3ecff4cd	0.40616456
72	0xbe53c154	-0.20679218
73	0x3e10eb5d	0.14152284
74	0xbe3d1e87	-0.18468677
75	0x3e9265b3	0.28593215
76	0xbdb50f50	-0.08840811
77	0x3e33a5c0	0.17543697
78	0x3f051e4b	0.5199935
79	0xbe987df7	-0.29783604
80	0x3e41b4f2	0.18916681
81	0x3d3d20c5	0.04617383
82	0x3e1fc690	0.1560309
83	0x3eab5782	0.334652
84	0xbe4d9c6c	-0.20079201
85	0xbd6648ed	-0.05622189
86	0x3f217def	0.63082784
87	0x3cff2674	0.031146266
88	0xbebb4845	-0.36578575
89	0x3d7e8888	0.062141925
90	0xbd01fd5b	-0.03173576
91	0xbf003b01	-0.5009003
92	0x3dc3142d	0.095253326
93	0x3ea2f6d2	0.31828934
94	0xbe87edb4	-0.2654854
95	0xbd58a560	-0.05289209
96	0xbe74158e	-0.23836347
97	0xbe7f708b	-0.24945275
98	0xbeaecaa0	-0.34138966
99	0x3ee2d5f6	0.44303864
100	0xbe9c5f69	-0.30541542
101	0x3f5bd1c3	0.85866946
102	0xbe9fddd5	-0.31223932
103	0xbdbe9430	-0.09305608
104	0x3e3b4908	0.18289578
105	0x3e1e1ea0	0.1544137
106	0x3ef60e96	0.48058003
107	0x3ea26e29	0.3172467
108	0xbeb4eccd	-0.35336915
109	0xbf0223b8	-0.5083575
110	0xbe685eb5	-0.22692378
111	0x3e615f88	0.22009099
112	0xbeb83dc1	-0.35984614
113	0xbeadf1d3	-0.3397356
114	0xbd32f84c	-0.043693826
115	0xbeeec79c	-0.46636665
116	0x3de8687a	0.11348052
117	0x3eb0ad94	0.3450743
118	0xbe9231e5	-0.28553692
119	0x3ee08802	0.43853766
120	0x3ce9b6fa	0.028529633
121	0x3e46f017	0.19427525
122	0xbda3c1bf	-0.079959385
123	0x3e43455f	0.19069432
124	0xbdc3fa94	-0.09569278
125	0xbe839455	-0.25699106
126	0x3f873e5c	1.0565906
127	0x3ed53942	0.41645247
128	0x3e2760af	0.16345476
129	0xbdd83d21	-0.105585344
130	0xbe2be22f	-0.16785501
131	0x3f41e0a6	0.7573341
132	0x3f075c9b	0.5287568
133	0xbe745407	-0.23860179
134	0x3f0b1b3c	0.5433843
135	0x3d5d34a5	0.054005284
136	0xbeec31c2	-0.46131712
137	0x3eb1fc80	0.34762955
138	0xbeea95d0	-0.45817423
139	0xbea71db5	-0.32639852
140	0x3e368fb0	0.1782825
141	0x3db6af24	0.08920124
142	0x3e6f0732	0.23342589
143	0xbe8036c4	-0.25041783
144	0x3e749bc5	0.23887546
145	0xbe6e9ae2	-0.2330127
146	0x3cbd0e7a	0.023078192
147	0xbe90dece	-0.28294986
148	0x3e948af9	0.29012278
149	0x3f168a59	0.5880485
150	0x3d8df147	0.069307856
151	0x3e6b130b	0.22956483
152	0xbd98ab4a	-0.07454546
153	0x3e0a4c9e	0.1350579
154	0xbd63a785	-0.05557968
155	0x3dc75090	0.09732163
156	0xbe1ac381	-0.15113641
157	0xbeae75d9	-0.34074286
158	0x3e819a33	0.25312957
159	0x3e368a70	0.17826247
160	0x3e1b187a	0.15146056
161	0x3e0c349a	0.13691941
162	0xbdf5726e	-0.11984716
163	0x3ebfa631	0.3743148
164	0xbecc3927	-0.39887354
165	0x3e33d8b0	0.17563128
166	0x3e138fb3	0.14410286
167	0x3f09b1cf	0.5378694
168	0x3eaa68f8	0.3328321
169	0x3ec852f8	0.391258
170	0x3e9253d8	0.28579593
171	0xbcb24cf1	-0.021765204
172	0xbe8e1243	-0.27748308
173	0xbed4a8e4	-0.41535103
174	0xbe21f0f9	-0.1581458
175	0xbdb53c56	-0.08849399
176	0x3e9ae2b1	0.30251077
177	0xbeb59beb	-0.35470518
178	0xbc016a61	-0.007898898
179	0xbdf6161a	-0.12015934
180	0x3ed6388f	0.41840026
181	0x3e2410df	0.16022061
182	0xbe36c9b0	-0.17850375
183	0x3eb4e09f	0.35327622
184	0x3d2d602c	0.042328045
185	0x3ee7c205	0.45265213
186	0xbd909ffe	-0.07061766
187	0xbd5e7d35	-0.054318625
188	0xbe1506df	-0.14553402
189	0xbe3a02e8	-0.18165171
190	0xbf0499db	-0.51797265
191	0xbedf40de	-0.43604177
192	0x3ed9c740	0.42534828
193	0x3ec926e5	0.39287487
194	0xbf0a50da	-0.5402962
195	0x3ebae40f	0.3650212
196	0xbd6137b3	-0.05498476
197	0xbf13530d	-0.575486
198	0x3f2ce3cc	0.6753509
199	0xbc427e3d	-0.011870918
200	0x3f006347	0.50151485
201	0xbe95d858	-0.2926662
202	0xbed71fdb	-0.4201649
203	0x3eb40f93	0.35168132
204	0x3eb488fd	0.35260764
205	0xbe2ed433	-0.17073135
206	0x3e503ad8	0.20334947
207	0x3e53b8ae	0.20675918
208	0xbcc37a24	-0.023861952
209	0x3d67f377	0.05662867
210	0xbf276c44	-0.65399575
211	0x3cff7813	0.031185186
212	0xbed22f2a	-0.41051608
213	0xbea86dce	-0.32896274
214	0x3c60cfa8	0.013721384
215	0x3e95c844	0.29254353
216	0x3ebb1b5e	0.36544317
217	0x3f26c5e5	0.65145713
218	0xbe3d9a37	-0.1851586
219	0x3ea1a1c9	0.31568745
220	0xbe0f670b	-0.14004152
221	0xbe88ec1b	-0.26742634
222	0x3ec4ccb2	0.3843742
223	0x3d96e372	0.073676005
224	0xbe35c960	-0.177526
225	0x3de33f33	0.11096039
226	0xbd885c56	-0.06658237
227	0x3ee29d7d	0.4426078
228	0xbe4e74d3	-0.20161752
229	0xbd50d103	-0.05098058
230	0x3dacae9a	0.0843174
231	0xbd1df868	-0.038566977
232	0x3dd75720	0.10514665
233	0x3e825eb3	0.25462875
234	0x3e013a58	0.12619913
235	0x3c53eabb	0.012934382
236	0xbf2f10ec	-0.68385196
237	0x3e8b7b73	0.27242622
238	0x3eb82497	0.35965416
239	0x3e698d66	0.22807845
240	0xbe00b976	-0.12570748
241	0x3e9dfc05	0.30856338
242	0x3e6828eb	0.22671859
243	0xbcad6d69	-0.021170335
244	0xbcbc229a	-0.022965718
245	0x3c39a526	0.011330878
246	0x3e85f42d	0.26162854
247	0xbe2c80d3	-0.16846018
248	0x3e01e6c1	0.12685682
249	0x3e2ec741	0.17068197
250	0x3e811ac7	0.25215742
251	0x3e980290	0.29689455
252	0x3de917b6	0.113814756
253	0xbdd53843	-0.10411122
254	0xbe1e39f6	-0.15451798
255	0xbece14e1	-0.40250304

r_cell.fc.bias f4 [24]
0	0xbdd281ba	-0.1027865
1	0xbdef6bb6	-0.11690466
2	0x3d3288f6	0.043587647
3	0x3e11cad0	0.14237523
4	0x3dea85c8	0.11451298
5	0x3ddc3bcd	0.107535936
6	0x3e7bd4a3	0.24592833
7	0xbe83b52a	-0.25724155
8	0x3bfc36ef	0.0076969783
9	0x3e2d20b4	0.16907007
10	0xbdcf8d5f	-0.10134386
11	0xbe050236	-0.12989125
12	0xbe00657b	-0.12538712
13	0xbd9ec20a	-0.07751854
14	0xbd9d25d9	-0.076732345
15	0xbe2abdb9	-0.16673936
16	0x3e1e56fb	0.15462868
17	0xbd6f8d29	-0.05848423
18	0xbd368360	-0.044558883
19	0x3dc2a6db	0.095044814
20	0xbd09f510	-0.033680975
21	0xbe22f5e9	-0.1591412
22	0x3e055f1b	0.13024561
23	0x3eaf0c42	0.3418904

fc1.0.bias f4 [24]
0	0x3da1fb62	0.079092756
1	0xbd0e9c35	-0.03481694
2	0x3de50488	0.11182505
3	0x3d35ca57	0.04438242
4	0xbc90e0c9	-0.01768531
5	0xbdf1b1ed	-0.11801515
6	0xbcafeabb	-0.021474233
7	0x3d18d97a	0.037316777
8	0x3d5f102a	0.054458775
9	0x3c6d0a7c	0.014467832
10	0xbcf39d1c	-0.029738002
11	0x3e0d80d6	0.13818678
12	0x3d59f604	0.053213134
13	0x3e0f4c0a	0.1399385
14	0xbd4ef752	-0.05052883
15	0xbdd6a312	-0.10480322
16	0x3d8d7697	0.06907385
17	0xbdfaf83d	-0.12254379
18	0xbd4b5ab8	-0.049647063
19	0x3d2a6828	0.041603237
20	0x3d09e4f6	0.03366562
21	0x3d179af6	0.037013017
22	0x3d70fc20	0.058834195
23	0xbc03849d	-0.008027223

fc1.0.weight_orig f4 [24, 6]
0	0x3df51fb6	0.11968939
1	0xbcb27a1e	-0.021786746
2	0x3db0bfe7	0.086303525
3	0xbdb5706f	-0.08859336
4	0x3dc04f55	0.093901314
5	0x3e89eb2d	0.26937237
6	0xbe3104e8	-0.17287028
7	0xbccb8cea	-0.024847466
8	0xbe11d716	-0.14242205
9	0x3cad2d4f	0.021139769
10	0xbe35f205	-0.17768104
11	0xbe752cb2	-0.23942831
12	0xbd009fe2	-0.031402476
13	0xbda0e76c	-0.0785664
14	0xbbace51b	-0.005276335
15	0xbd3d32ef	-0.046191152
16	0xbd45228b	-0.048128646
17	0xbea1e1ed	-0.3161768
18	0x3eaafaf4	0.33394587
19	0x3dd073f4	0.10178366
20	0x3ea8c2a8	0.3296101
21	0x3c2ec224	0.010666404
22	0x3e93fe60	0.2890501
23	0x3cccf83d	0.025020713
24	0x3ec707a0	0.38873005
25	0x3d8ce105	0.068788566
26	0x3ec6cfa1	0.38830283
27	0xbcdf1840	-0.027233243
28	0x3eae02c2	0.3398648
29	0x3e26151a	0.16218987
30	0x3cad9ae1	0.021192016
31	0xbbe41090	-0.006959982
32	0x3e2844ea	0.16432539
33	0x3b18593d	0.002324655
34	0x3c7b8711	0.015352027
35	0xbeb02cfc	-0.3440932
36	0x3dd59036	0.10427897
37	0x3d13a562	0.036046393
38	0x3e21f1b0	0.15814853
39	0xbcbecea4	-0.023291893
40	0x3db2cb50	0.08730185
41	0xbe93165f	-0.28728005
42	0x3e5872b5	0.21137507
43	0x3d3464e8	0.044041544
44	0x3d6d34e4	0.05791177
45	0xbd14eeca	-0.03636054
46	0x3e41b0cc	0.18915099
47	0x3decde62	0.11565854
48	0x3e4b4a61	0.19852592
49	0x3b934fb6	0.0044955863
50	0x3e9997ae	0.29998535
51	0xbdab5a49	-0.0836683
52	0x3e271c15	0.16319306
53	0x3e5c00aa	0.21484628
54	0x3e7cbe58	0.24681985
55	0x3de45788	0.11149508
56	0x3ed99df7	0.4250333
57	0xbab3965f	-0.001370143
58	0x3e7adf31	0.24499203
59	0xbdfdb767	-0.12388497
60	0x3e7e8e65	0.24859007
61	0x3d705467	0.058674242
62	0x3e95cc77	0.29257557
63	0xbcb0737a	-0.021539439
64	0x3e5c2175	0.21497138
65	0xbecf2892	-0.4046064
66	0x3e236dfb	0.15959923
67	0x3e0be051	0.13659789
68	0x3e9de6bf	0.30840108
69	0x3dd16821	0.10224939
70	0x3e163ff6	0.14672837
71	0x3df4da39	0.11955685
72	0xbdd26f6e	-0.1027516
73	0xbcccf1c1	-0.025017621
74	0x3c95b7d8	0.01827614
75	0x3cb13b54	0.021634735
76	0xbdaa77a1	-0.08323599
77	0x3f37f419	0.7185684
78	0x3e0b9560	0.13631201
79	0x3deff0e6	0.117158696
80	0x3d0f71db	0.03502069
81	0x3dae8a40	0.08522463
82	0x3e0e21c0	0.13880062
83	0x3c20d488	0.009816296
84	0x3d86978e	0.065718755
85	0xbccf7434	-0.025323965
86	0x3d48a3c4	0.048984304
87	0xbd7c0856	-0.061531387
88	0x3d48c651	0.049017254
89	0xbf0925c7	-0.5357327
90	0xbd44f9e5	-0.04808988
91	0x3d711e53	0.05886681
92	0xbe3e9bee	-0.1861417
93	0x3d9307e5	0.0717924
94	0xbbdde560	-0.0067717284
95	0xbe9950c0	-0.2994442
96	0xbe203fed	-0.15649386
97	0x3d988073	0.07446375
98	0xbe9a87ee	-0.3018183
99	0x3ddbbee6	0.1072977
100	0xbdb84cab	-0.08998998
101	0xbe3939d5	-0.18088467
102	0xbd879d19	-0.06621761
103	0xbd119155	-0.03553899
104	0xbe02b7b3	-0.12765388
105	0xbcb54fd8	-0.022132799
106	0xbd888aaa	-0.06667073
107	0xbe401e83	-0.1876164
108	0x3d14af79	0.036300156
109	0xbbb0b38f	-0.005392499
110	0xbd8eeec1	-0.069791324
111	0xbce4e048	-0.027938977
112	0x3cffaa98	0.031209275
113	0xbf42dce0	-0.7611828
114	0x3d661c77	0.05617949
115	0x3d85d330	0.065344214
116	0xbe13781e	-0.1440129
117	0x3d8168da	0.06318827
118	0x3d664200	0.056215286
119	0xbe2a27e6	-0.16616783
120	0xbe314a66	-0.17313537
121	0x3d28ca46	0.041208528
122	0xbe9f3560	-0.3109541
123	0x3db9c8a3	0.090714715
124	0xbe08280c	-0.13296527
125	0xbe39cb16	-0.18143877
126	0xbdb36dce	-0.08761178
127	0x3a81aaac	0.0009892783
128	0xbe6ae468	-0.22938693
129	0xbb4882e9	-0.0030595607
130	0xbd33bc2b	-0.043880623
131	0xbc89c7d7	-0.016818924
132	0xbdce739b	-0.10080644
133	0x3cc6ef79	0.024284111
134	0xbd940ba3	-0.07228782
135	0x3d94a0de	0.072572455
136	0xbd865ca7	-0.06560641
137	0x3f1f1058	0.62134314
138	0x3c82af8b	0.015952846
139	0xbbaef2cb	-0.005339002
140	0x3dc32ef7	0.09530442
141	0xbc5bf604	-0.013425354
142	0x3c6c1796	0.01440992
143	0xbe7c1d0a	-0.24620453

fc1.0.weight_u f4 [24]
0	0x3e2cb627	0.1686636
1	0xbe20db79	-0.15708722
2	0xbe42eb61	-0.19035102
3	0x3d3d113f	0.046159025
4	0x3e083fa1	0.13305523
5	0xbe461211	-0.1934283
6	0xbe21c1f4	-0.15796643
7	0x3da041d1	0.078250535
8	0x3e1c817a	0.15283766
9	0xbd1bc168	-0.038026243
10	0xbe5c20e1	-0.21496917
11	0x3dc76bca	0.09737356
12	0x3edac728	0.4273007
13	0x3c51ecbf	0.012812792
14	0xbea1284d	-0.3147606
15	0xbe43f846	-0.19137678
16	0xbe05ff6c	-0.13085717
17	0xbdfb0a19	-0.12257785
18	0xbeea622e	-0.4577803
19	0xbddaa0be	-0.106751904
20	0xbe07f2cd	-0.13276215
21	0xbce07ae0	-0.027402341
22	0x3eba3763	0.36370382
23	0xbe0f6047	-0.1400157

fc1.0.weight_v f4 [6]
0	0x3cbc54fd	0.022989744
1	0x3b88c8d8	0.004174333
2	0x3de76697	0.11298864
3	0x3c236bd0	0.009974435
4	0x3cba87fd	0.022769922
5	0x3f7e35ee	0.9930104

fc1.1.weight f4 [24, 24]
0	0xbf1d4221	-0.6142903
1	0x3f40ce78	0.75315046
2	0x3ec9ce4b	0.39415202
3	0x3f87da19	1.0613433
4	0x3f74ee46	0.95676076
5	0x3f2335ae	0.63753784
6	0x3eaddca7	0.33957407
7	0x3ef144ea	0.4712289
8	0xbf7f289a	-0.9967133
9	0xbf9aff45	-1.2109152
10	0x3f2eaa91	0.68229014
11	0xbf2d9405	-0.67803985
12	0x3e8323cd	0.2561325
13	0x3d5fd0cd	0.054642487
14	0x3eeabf66	0.4584915
15	0xbd8d9143	-0.06912472
16	0x3ef7951c	0.4835595
17	0x3f5de7a8	0.86681604
18	0xbd0a27be	-0.033729307
19	0xbe0c5b1f	-0.13706635
20	0xbf56d87f	-0.83924097
21	0x3e835733	0.25652465
22	0xbea1734a	-0.3153327
23	0xbef2a4a6	-0.47391242
24	0xbf1f22bc	-0.62162375
25	0xbd32d8e7	-0.043663885
26	0xbf390107	-0.7226719
27	0xbdfd1fd7	-0.123595886
28	0xbdc9eeb7	-0.09859984
29	0xbe8f027f	-0.27931592
30	0xbedff036	-0.43737954
31	0x3e2820e3	0.16418795
32	0x3f2e2d89	0.6803823
33	0x3da36c70	0.07979667
34	0x3f249e73	0.64304274
35	0x3e13785a	0.14401379
36	0x3f302796	0.68810403
37	0x3e821f52	0.2541452
38	0xbe1d7d43	-0.15379815
39	0x3f962015	1.1728541
40	0x3efa5d65	0.4889938
41	0xbeb35c74	-0.35031474
42	0xbf357af8	-0.7089076
43	0x3fafa988	1.3723612
44	0x3e92988f	0.28632018
45	0xbf36b7e5	-0.7137435
46	0xbd1cf774	-0.038321927
47	0xbe647cc3	-0.22313218
48	0x3f1364b6	0.5757555
49	0xbeba41ea	-0.36378413
50	0x3e4db57b	0.2008876
51	0xbf8d5662	-1.1041987
52	0xbf4f10b7	-0.8088488
53	0xbee9f56f	-0.45695063
54	0xbe10df31	-0.14147641
55	0xbf1599ef	-0.5843801
56	0x3f030a61	0.5118771
57	0x3f5f40f4	0.87208486
58	0xbf547acf	-0.8299989
59	0xbd4ffad9	-0.050776336
60	0xbf50bf76	-0.81542146
61	0xbe0d2293	-0.1378272
62	0xbf3256e2	-0.6966382
63	0x3f312409	0.6919561
64	0xbda83410	-0.08213055
65	0x3ed8c8b7	0.42340633
66	0x3f835e8b	1.0263227
67	0x3f61ad69	0.8815523
68	0xbe18c7c2	-0.14919952
69	0xbd785868	-0.060631186
70	0x3f09eabf	0.5387382
71	0xbe05c14e	-0.13062021
72	0xbf59af48	-0.8503308
73	0x3f1036b6	0.5633348
74	0xbe0c876d	-0.13723536
75	0x3f8257f5	1.0183092
76	0x3f35d680	0.71030426
77	0x3f1a73ae	0.60332763
78	0x3dfb01b1	0.12256182
79	0x3e44dba7	0.19224416
80	0xbeea1eac	-0.45726526
81	0xbfa2cb4c	-1.2718291
82	0x3f22c297	0.6357817
83	0xbe1c2f87	-0.15252505
84	0x3f836e95	1.0268122
85	0xbee52fcf	-0.44763038
86	0x3f13f256	0.5779165
87	0x3e0e0319	0.13868369
88	0xbc8e35a8	-0.01735957
89	0x3f2548c3	0.6456415
90	0xbf5f5714	-0.87242246
91	0xbfa6e96c	-1.3039985
92	0xbebc0187	-0.36719915
93	0x3e144b8c	0.14481944
94	0xbf8a8e13	-1.0824608
95	0x3e695dc4	0.22789675
96	0x3f3871e9	0.72048813
97	0xbf071d87	-0.5277943
98	0xbf1ab199	-0.6042724
99	0xbfc11b7a	-1.508651
100	0xbf95fa0f	-1.1716937
101	0xbf43e885	-0.7652667
102	0xbf71e45e	-0.94489086
103	0xbf90fe58	-1.132762
104	0x3faf097b	1.3674768
105	0x3fb541fa	1.416076
106	0xbf2bd48b	-0.6712119
107	0x3b8e816f	0.004348926
108	0xbee9a46d	-0.4563326
109	0x3d75b2e4	0.059985057
110	0xbee2c08b	-0.44287524
111	0xbe8b87a7	-0.27251932
112	0x3e8f15d7	0.2794635
113	0xbdb55a22	-0.08855082
114	0xbd984f70	-0.074370265
115	0x3dcb9280	0.09940052
116	0x3f581199	0.8440185
117	0x3e01ba52	0.12668732
118	0x3ef64b23	0.481042
119	0xbee14346	-0.43996638
120	0xbeb2d59f	-0.34928605
121	0xbf4164ef	-0.7554464
122	0xbfb1901a	-1.3872101
123	0xbe938c33	-0.288179
124	0xbde6c6c2	-0.11268379
125	0xbea7a51e	-0.32743162
126	0xbefbedbf	-0.49204823
127	0xbf161084	-0.5861895
128	0x3ee84b25	0.4536983
129	0xbd9861f9	-0.07440562
130	0x3f54ff18	0.8320174
131	0x3f23c74e	0.6397599
132	0x3f2ea7a1	0.6822453
133	0xbe4ea556	-0.20180258
134	0xbd4c4ac4	-0.04987599
135	0x3fb37b19	1.4021941
136	0x3e22c726	0.15896282
137	0x3d827966	0.06370811
138	0xbfa2ae6a	-1.2709477
139	0xbd05d9ca	-0.032678403
140	0x3e9756c6	0.2955839
141	0xbf6bc6bd	-0.92100126
142	0xbef45a57	-0.47725174
143	0xbf949aa6	-1.1609695
144	0x3f49320d	0.78591996
145	0xbf955162	-1.1665461
146	0xbf9ae623	-1.2101482
147	0xbfb07876	-1.3786762
148	0xbf99de4e	-1.2020967
149	0xbf097e13	-0.53708
150	0xbf682b2b	-0.9069087
151	0xbf9f369d	-1.2438542
152	0x3fb75f36	1.4325931
153	0x3fdc9640	1.7233353
154	0xbf3375c9	-0.701016
155	0x3dfdc55e	0.123911604
156	0xbf0c15e6	-0.54720914
157	0xbe944cfe	-0.2896499
158	0xbeca4c11	-0.3951116
159	0x3ed865b4	0.42265093
160	0xbe24be1f	-0.1608815
161	0xbe8782d1	-0.26466992
162	0xbd6211fe	-0.05519294
163	0xbe259afe	-0.16172406
164	0x3facddcf	1.3505191
165	0xbe7ceafe	-0.24699017
166	0x3ea746cb	0.32671198
167	0xbe9f9e34	-0.31175387
168	0xbf0bf22d	-0.54666406
169	0x3e5facfa	0.21843329
170	0xbf37b063	-0.7175352
171	0x3f9841aa	1.1895039
172	0x3f63d1b3	0.8899185
173	0x3f50d634	0.8157685
174	0x3f254c3c	0.6456945
175	0x3eb162de	0.34645742
176	0xbf0855cf	-0.53255934
177	0xbfc75c77	-1.5575093
178	0x3f9f1a6b	1.2429937
179	0xbeed5413	-0.46353206
180	0x3fc2304f	1.5170993
181	0xbf1d9d11	-0.6156779
182	0x3f838889	1.0276042
183	0x3ee6f3e2	0.45107943
184	0xbcf4440a	-0.0298176
185	0x3f43ba95	0.76456577
186	0xbfdcd708	-1.7253122
187	0xbecad33a	-0.39614278
188	0xbeb68ad9	-0.35652807
189	0x3d200adf	0.039072867
190	0xbfb3b162	-1.4038508
191	0x3f0f1788	0.5589528
192	0x3f0a6789	0.5406423
193	0x3e49ea0b	0.19718187
194	0x3ed2f13c	0.41199672
195	0x3ec4b674	0.3842045
196	0x3f6e87b4	0.93175817
197	0x3f98cd0c	1.1937575
198	0x3f1616da	0.5862862
199	0x3d8a98bb	0.06767412
200	0xbebe9391	-0.3722196
201	0xbef307c4	-0.47466862
202	0x3e342d45	0.17595394
203	0xbf55a540	-0.83455276
204	0xbef2f878	-0.47455192
205	0x3ec257a9	0.37957504
206	0x3dbc6f30	0.09200895
207	0xbf92f560	-1.1481133
208	0xbeb3b555	-0.35099283
209	0x3f183457	0.59454864
210	0x3f332bb5	0.69988567
211	0xbf6ce8b0	-0.9254255
212	0xbf0e3f9a	-0.555658
213	0x3f1aa997	0.60415024
214	0xbe48336e	-0.19550869
215	0x3ed61978	0.41816306
216	0x3f220cda	0.6330086
217	0x3f301fe4	0.6879866
218	0xbf019fbf	-0.5063438
219	0x3f0e4c6a	0.5558535
220	0x3f365c2d	0.712344
221	0xbf0c1367	-0.54717106
222	0xbe410f0d	-0.18853398
223	0x3f54e21c	0.83157516
224	0x3c70b4c6	0.014691537
225	0xbf248107	-0.6425938
226	0x3f587348	0.84550905
227	0xbf1ee1d1	-0.6206332
228	0x3f0e6d13	0.55635184
229	0xbda1bbe5	-0.07897166
230	0xbe3af852	-0.18258789
231	0x3f4fe361	0.8120633
232	0xbeccbdca	-0.39988548
233	0xbf4fa2e3	-0.8110792
234	0xbf19277a	-0.5982586
235	0xbf22e463	-0.6362974
236	0xbe8b4eb9	-0.27208498
237	0x3f86cee7	1.0531892
238	0x3d95643a	0.07294507
239	0xbedefa70	-0.43550444
240	0xbe334c94	-0.17509681
241	0xbd15c5fd	-0.03656577
242	0xbf065d0b	-0.5248572
243	0x3e4b03b6	0.19825634
244	0x3dfde923	0.12397983
245	0xbe9eecd6	-0.31040066
246	0xbefffe18	-0.49998546
247	0xbcb5ccc6	-0.02219237
248	0xbe24a404	-0.16078192
249	0xbd6222d8	-0.05520901
250	0x3e9d046c	0.30667436
251	0x3f477941	0.77919394
252	0x3e01bf9c	0.1267075
253	0xbec05ad3	-0.37569293
254	0xbdbee86d	-0.093216754
255	0x3f48f825	0.7850364
