models/17_05_2021/stock_self_attn_MSE_hinge_10000_64_24_6_24_5/4500_recovery.pth (torch, 54734 bytes, 39 tensors)

position.pe f4 [1, 24, 24]
0	0x00000000	0.0
1	0x3f800000	1.0
2	0x00000000	0.0
3	0x3f800000	1.0
4	0x00000000	0.0
5	0x3f800000	1.0
6	0x00000000	0.0
7	0x3f800000	1.0
8	0x00000000	0.0
9	0x3f800000	1.0
10	0x00000000	0.0
11	0x3f800000	1.0
12	0x00000000	0.0
13	0x3f800000	1.0
14	0x00000000	0.0
15	0x3f800000	1.0
16	0x00000000	0.0
17	0x3f800000	1.0
18	0x00000000	0.0
19	0x3f800000	1.0
20	0x00000000	0.0
21	0x3f800000	1.0
22	0x00000000	0.0
23	0x3f800000	1.0
24	0x3f576aa4	0.84147096
25	0x3f0a5141	0.54030234
26	0x3ee5351d	0.44767085
27	0x3f64ea30	0.8941984
28	0x3e5ae952	0.21378067
29	0x3f7a14eb	0.9768817
30	0x3dcc7576	0.099833414
31	0x3f7eb898	0.9950042
32	0x3d3e0d1e	0.04639923
33	0x3f7fb96a	0.99892294
34	0x3cb07a47	0.021542681
35	0x3f7ff0ca	0.9997679
36	0x3c23d657	0.009999833
37	0x3f7ffcb9	0.99995
38	0x3b981857	0.0046415734
39	0x3f7fff4b	0.9999892
40	0x3b0d3164	0.0021544332
41	0x3f7fffd9	0.9999977
42	0x3a83126d	0.0009999998
43	0x3f7ffff8	0.9999995
44	0x39f35a5c	0.00046415895
45	0x3f7ffffe	0.9999999
46	0x3961e8ab	0.00021544348
47	0x3f800000	1.0
48	0x3f68c7b7	0.9092974
49	0xbed51133	-0.41614684
50	0x3f4cf4fb	0.8006131
51	0x3f1963f8	0.59918165
52	0x3ed5d9be	0.41767687
53	0x3f6899b9	0.9085956
54	0x3e4b6ff8	0.19866931
55	0x3f7ae5a5	0.9800666
56	0x3dbdd8b7	0.09269851
57	0x3f7ee5d1	0.9956942
58	0x3d306fcb	0.043075364
59	0x3f7fc32c	0.99907184
60	0x3ca3d43e	0.019998666
61	0x3f7ff2e5	0.9998
62	0x3c1817ec	0.009283047
63	0x3f7ffd2d	0.9999569
64	0x3b8d314e	0.004308856
65	0x3f7fff64	0.9999907
66	0x3b031268	0.0019999985
67	0x3f7fffdf	0.99999803
68	0x3a735a5b	0.00092831784
69	0x3f7ffff9	0.9999996
70	0x39e1e8ab	0.00043088695
71	0x3f7fffff	0.99999994
72	0x3e1081c3	0.14112
73	0xbf7d7026	-0.9899925
74	0x3f7bf0ce	0.98414314
75	0x3e35a216	0.17737612
76	0x3f1a2dc8	0.60226107
77	0x3f4c5d56	0.7982992
78	0x3e974e6c	0.2955202
79	0x3f7490ef	0.9553365
80	0x3e0e2117	0.1387981
81	0x3f7d85a8	0.9903207
82	0x3d8446bd	0.06458805
83	0x3f7f7729	0.997912
84	0x3cf5b91f	0.0299955
85	0x3f7fe283	0.99955004
86	0x3c6422d5	0.01392432
87	0x3f7ff9a6	0.9999031
88	0x3bd3c9bf	0.006463259
89	0x3f7ffea2	0.99997914
90	0x3b449b92	0.0029999954
91	0x3f7fffb5	0.9999955
92	0x3ab683c2	0.0013924765
93	0x3f7ffff0	0.99999905
94	0x3a296e7f	0.00064633036
95	0x3f7ffffd	0.9999998
96	0xbf41bdcf	-0.7568025
97	0xbf275530	-0.6536436
98	0x3f759ce7	0.9594254
99	0xbe905d6c	-0.28196275
100	0x3f424dbe	0.75899875
101	0x3f26adf9	0.6510921
102	0x3ec761d7	0.38941833
103	0x3f6bcaa7	0.921061
104	0x3e3d0773	0.18459873
105	0x3f7b99b2	0.98281395
106	0x3db045df	0.08607077
107	0x3f7f0ccc	0.996289
108	0x3d23cbdb	0.039989334
109	0x3f7fcb94	0.9992001
110	0x3c98163e	0.018565293
111	0x3f7ff4b4	0.9998276
112	0x3c0d30f8	0.008617632
113	0x3f7ffd91	0.99996287
114	0x3b831257	0.003999989
115	0x3f7fff7a	0.999992
116	0x3af35a54	0.0018566349
117	0x3f7fffe3	0.9999983
118	0x3a61e8a9	0.0008617738
119	0x3f7ffffa	0.99999964
120	0xbf757c10	-0.9589243
121	0x3e913c2c	0.2836622
122	0x3f3b500a	0.73169005
123	0xbf2e7fcb	-0.68163747
124	0x3f6171cf	0.88064283
125	0x3ef29363	0.47378072
126	0x3ef57743	0.47942552
127	0x3f60a940	0.87758255
128	0x3e6b8593	0.23000173
129	0x3f7922ff	0.97319025
130	0x3ddc300e	0.10751353
131	0x3f7e8421	0.9942036
132	0x3d4cb6f4	0.049979165
133	0x3f7fae19	0.99875027
134	0x3cbe1a3c	0.023205869
135	0x3f7fee5a	0.9997307
136	0x3c307ce6	0.010771966
137	0x3f7ffc33	0.999942
138	0x3ba3d6dd	0.004999979
139	0x3f7fff2e	0.9999875
140	0x3b181871	0.0023207928
141	0x3f7fffd3	0.9999973
142	0x3a8d3169	0.0010772172
143	0x3f7ffff6	0.9999994
144	0xbe8f0f8c	-0.2794155
145	0x3f75cdb8	0.96017027
146	0x3eb2c0c6	0.349127
147	0xbf6fe42d	-0.93707544
148	0x3f762963	0.961569
149	0x3e8c938f	0.27456328
150	0x3f108c68	0.5646424
151	0x3f534932	0.8253356
152	0x3e8cc0e9	0.2749093
153	0x3f7622e9	0.9614702
154	0x3e040009	0.12890638
155	0x3f7ddd38	0.9916568
156	0x3d759cd1	0.059964005
157	0x3f7f8a12	0.99820054
158	0x3ce41d2b	0.02784594
159	0x3f7fe696	0.9996122
160	0x3c53c89d	0.012926248
161	0x3f7ffa86	0.99991643
162	0x3bc49b58	0.0059999637
163	0x3f7ffed2	0.999982
164	0x3b3683b7	0.0027849504
165	0x3f7fffbf	0.9999961
166	0x3aa96e7d	0.0012926605
167	0x3f7ffff2	0.99999917
168	0x3f283046	0.6569866
169	0x3f40ffbd	0.75390226
170	0xbddbc69f	-0.10731243
171	0xbf7e858d	-0.9942253
172	0x3f7f7f41	0.9980355
173	0x3d804f23	0.06265094
174	0x3f24eb72	0.6442176
175	0x3f43ccb3	0.7648422
176	0x3ea3716a	0.31922466
177	0x3f729b18	0.94767904
178	0x3e19d85d	0.15023942
179	0x3f7d1825	0.98864967
180	0x3d8f3e32	0.06994285
181	0x3f7f5f81	0.997551
182	0x3d050f6e	0.032485418
183	0x3f7fdd69	0.9994722
184	0x3c771415	0.0150804715
185	0x3f7ff88c	0.9998863
186	0x3be55fc5	0.006999942
187	0x3f7ffe65	0.9999755
188	0x3b54eef8	0.003249107
189	0x3f7fffa8	0.99999475
190	0x3ac5ab91	0.0015081038
191	0x3f7fffed	0.99999887
192	0x3f7d4695	0.98935825
193	0xbe14fdf6	-0.14550003
194	0xbf0a81e3	-0.5410444
195	0xbf574b62	-0.840994
196	0x3f7d04e9	0.9883562
197	0xbe1bcf59	-0.15215816
198	0x3f37a4a5	0.717356
199	0x3f325b5f	0.6967067
200	0x3eb9c7cb	0.36285242
201	0x3f6e8d80	0.9318466
202	0x3e2f9e69	0.17150272
203	0x3f7c34ff	0.98518366
204	0x3da3aa50	0.07991469
205	0x3f7f2e65	0.9968017
206	0x3d180f89	0.03712419
207	0x3f7fd2d3	0.9993107
208	0x3c8d2fa1	0.017234625
209	0x3f7ff644	0.99985147
210	0x3c031212	0.007999914
211	0x3f7ffde7	0.999968
212	0x3b735a38	0.0037132632
213	0x3f7fff8c	0.9999931
214	0x3ae1e8a4	0.001723547
215	0x3f7fffe7	0.9999985
216	0x3ed30132	0.4121185
217	0xbf693fd5	-0.91113025
218	0xbf5c3bf1	-0.86028963
219	0xbf02829f	-0.5098056
220	0x3f6ed7af	0.9329786
221	0xbeb84901	-0.35993198
222	0x3f48881c	0.78332686
223	0x3f1f21d5	0.62161
224	0x3ecfb7ba	0.4056986
225	0x3f69fc5c	0.91400695
226	0x3e454f97	0.19268642
227	0x3f7b33e1	0.98126036
228	0x3db8123e	0.089878544
229	0x3f7ef6c2	0.9959527
230	0x3d2b0ecd	0.041762162
231	0x3f7fc6d3	0.99912757
232	0x3c9ed50c	0.019388698
233	0x3f7ff3ae	0.999812
234	0x3c13743a	0.008999879
235	0x3f7ffd59	0.9999595
236	0x3b88e2ba	0.0041774185
237	0x3f7fff6e	0.9999913
238	0x3afe25b6	0.0019389901
239	0x3f7fffe1	0.99999815
240	0xbf0b44f8	-0.5440211
241	0xbf56cd64	-0.8390715
242	0xbf7f5bd1	-0.99749476
243	0xbd90e07e	-0.070740685
244	0x3f559f61	0.8344632
245	0xbf0d1282	-0.55106366
246	0x3f576aa4	0.84147096
247	0x3f0a5141	0.54030234
248	0x3ee5351e	0.44767088
249	0x3f64ea30	0.8941984
250	0x3e5ae953	0.21378069
251	0x3f7a14eb	0.9768817
252	0x3dcc7576	0.099833414
253	0x3f7eb898	0.9950042
254	0x3d3e0d21	0.04639924
255	0x3f7fb96a	0.99892294

r_cell.w_qs.weight f4 [24, 24]
0	0xbdb91bc0	-0.09038496
1	0xbf13f07e	-0.57788837
2	0xbdff3b75	-0.124625124
3	0x3e47b590	0.19502854
4	0xbc283596	-0.010266682
5	0xbf63026a	-0.8867556
6	0xbd40dafc	-0.04708384
7	0x3c706ce1	0.014674396
8	0xbe94efb0	-0.29089117
9	0xbe361f5d	-0.17785402
10	0xbece694b	-0.40314707
11	0xbe0a5bf6	-0.13511643
12	0xbee1c4fa	-0.44095594
13	0xbe74e57e	-0.2391567
14	0xbeffe148	-0.49976563
15	0xbf402f83	-0.750725
16	0xbe33111e	-0.17486998
17	0x3e5a1eef	0.21300863
18	0xbe37eac8	-0.17960656
19	0x3e2b9f5d	0.16760011
20	0xbd11e7b9	-0.03562138
21	0x3de14522	0.10999514
22	0xbf1573d3	-0.5837986
23	0xbc255543	-0.010091129
24	0xbefa4a66	-0.48884887
25	0xbeb65fd0	-0.35619974
26	0xbd313a19	-0.043268297
27	0x3f301373	0.6877968
28	0x3ee657d7	0.4498889
29	0x3f2f9351	0.6858416
30	0x3eebcd94	0.4605528
31	0xbee073d4	-0.4383837
32	0x3da2c6b2	0.079480544
33	0x3dcd5ea8	0.1002782
34	0xbac5b2fa	-0.0015083246
35	0x3f0b20c9	0.543469
36	0xbd435353	-0.047686886
37	0x3f10face	0.566327
38	0xbe4fc5e4	-0.20290333
39	0xbefe564c	-0.49675214
40	0xbcb6a1df	-0.022293983
41	0x3f3d0388	0.73833513
42	0xbb2ceda4	-0.0026386762
43	0x3f603fda	0.8759743
44	0xbe69bc3f	-0.22825716
45	0xbf4b8377	-0.79497474
46	0xbf0017f5	-0.50036556
47	0xbc94252a	-0.018084127
48	0xbe57e3e2	-0.21083024
49	0x3d81882a	0.06324799
50	0xbf357eef	-0.7089681
51	0xbe66f7d0	-0.2255547
52	0xbe8b8ffb	-0.27258286
53	0xbee6e9a3	-0.45100126
54	0xbf44da59	-0.7689567
55	0x3da910e0	0.08255172
56	0x3f9e1516	1.2350185
57	0xbe52ce62	-0.20586541
58	0xbb99ea83	-0.0046971454
59	0xbe1ad956	-0.1512197
60	0xbe766282	-0.24061015
61	0xbc8b2554	-0.016985573
62	0xbe2803d1	-0.16407706
63	0xbe443f9c	-0.1916489
64	0x3e177a8c	0.14792842
65	0xbd11244d	-0.03543501
66	0x3e08091d	0.13284726
67	0xbf33a1fe	-0.70169055
68	0xbf097127	-0.5368828
69	0xbe8b5445	-0.2721273
70	0xbde8482c	-0.11341891
71	0xbbba30fd	-0.0056821094
72	0xbea4bd61	-0.32175735
73	0x3dbaf237	0.0912823
74	0xbdca0792	-0.09864725
75	0xbcd26f00	-0.025687695
76	0x3e98689c	0.2976731
77	0x3e9e5912	0.3092733
78	0xbe0fc2b3	-0.14039116
79	0x3f38e212	0.72219956
80	0x3e7b9b58	0.24570978
81	0xbc8b28a3	-0.01698715
82	0xbf28b3bb	-0.65899247
83	0x3de61db6	0.11236136
84	0xbe4f6d60	-0.20256567
85	0x3e537054	0.20648319
86	0xbd1deef4	-0.03855796
87	0xbd8b8806	-0.06813054
88	0x3ee1a998	0.44074702
89	0xbf076218	-0.52884054
90	0x3f138791	0.5762873
91	0x3d181404	0.037128463
92	0xbda407d8	-0.080093086
93	0xbea55f0f	-0.32299086
94	0xbd5e8eee	-0.054335527
95	0x3e5b65f3	0.2142561
96	0x3f2905e2	0.660246
97	0x3f15ec7e	0.58563983
98	0x3e4ca48a	0.19984642
99	0xbe949911	-0.2902303
100	0x3e428e6b	0.1899964
101	0x3e8ab1b1	0.27088693
102	0x3cfa4598	0.030550763
103	0x3e3c701b	0.1840214
104	0x3e47e77d	0.195219
105	0xbf291d8c	-0.6606071
106	0xbec137f7	-0.3773801
107	0xbca0da80	-0.019635439
108	0x3ed866ea	0.42266017
109	0xbf1f409c	-0.6220796
110	0xbe7c845a	-0.24659863
111	0x3e087ff1	0.13330056
112	0xbca4c235	-0.020112136
113	0xbed54fa8	-0.41662335
114	0xbda4293e	-0.08015679
115	0xbd0f9122	-0.03505052
116	0xbf275f6a	-0.65379965
117	0x3e9a8d71	0.30186036
118	0xbf135486	-0.5755085
119	0xbcf91f30	-0.03041038
120	0xbf22df29	-0.63621765
121	0xbe42643f	-0.18983553
122	0x3e553ac4	0.20823199
123	0xbeea1ffb	-0.45727524
124	0x3ee9cf90	0.4566617
125	0x3d8038e0	0.06260848
126	0x3e510d09	0.20415129
127	0xbf2bd965	-0.6712859
128	0x3ee7906b	0.4522737
129	0x3de9e076	0.11419766
130	0xbe3aaeae	-0.18230698
131	0x3f420afb	0.75798005
132	0xbebedf64	-0.3727981
133	0x3f00760f	0.50180143
134	0x3c8d1319	0.01722102
135	0x3d7b6fb4	0.061385825
136	0x3eb56a07	0.35432455
137	0xbef6c255	-0.4819514
138	0xbe7998fc	-0.24374765
139	0xbf0337f1	-0.51257235
140	0xbeba93ea	-0.36440974
141	0xbe7515a3	-0.23934035
142	0x3e86e03d	0.26342955
143	0x3d88bfd1	0.06677211
144	0xbdfe9299	-0.12430305
145	0x3cfa4052	0.030548248
146	0xbeed2006	-0.46313494
147	0xbe8de1d2	-0.2771135
148	0xbd88ecbe	-0.0668578
149	0x3e27fd23	0.16405158
150	0xbf190cbc	-0.59785056
151	0xbf3fd198	-0.7492919
152	0x3e0abd5a	0.13548794
153	0xbe34f5b6	-0.17671856
154	0xbdb19bff	-0.08672332
155	0x3e8b228c	0.27174795
156	0x3e15968a	0.14608207
157	0xbe8207ba	-0.2539652
158	0x3ea84cb3	0.32871017
159	0x3d6d80dd	0.05798422
160	0x3ea80586	0.32816714
161	0x3e8a1def	0.26975963
162	0xbec92521	-0.3928614
163	0xbe3a5d7b	-0.18199722
164	0x3e93fd69	0.28904274
165	0x3f1aabea	0.6041857
166	0x3e8c142d	0.27359143
167	0xbea6313b	-0.32459435
168	0x3de22a12	0.110431805
169	0xbe80223f	-0.25026128
170	0x3e3c4a5b	0.1838774
171	0x3de14c4c	0.110008806
172	0xbeec35f2	-0.46134907
173	0x3ebe06e7	0.3711464
174	0xbd4dbab8	-0.050226897
175	0x3f1cdd3b	0.6127507
176	0x3d435f01	0.047698025
177	0x3c0db8dc	0.008650031
178	0x3f78ec27	0.9723534
179	0x3e3a891c	0.18216366
180	0x3eb42aa9	0.35188797
181	0xbe802d75	-0.2503468
182	0x3dfeeccf	0.124475114
183	0x3d82406f	0.06359946
184	0x3ed93272	0.424213
185	0xbd3ff9b6	-0.046869002
186	0x3ee80509	0.45316342
187	0x3eb44cc7	0.35214826
188	0x3d004f00	0.03132534
189	0xbdd31669	-0.10307009
190	0xbee33940	-0.44379616
191	0x3f0e2cf1	0.55537325
192	0x3db30a5c	0.0874221
193	0xbf268f97	-0.6506285
194	0x3e4c072c	0.19924611
195	0xbe94ea6a	-0.29085094
196	0xbe175781	-0.14779474
197	0xbe212736	-0.15737614
198	0x3e2fb812	0.17160061
199	0xbf115c3b	-0.5678136
200	0x3ee8f276	0.45497483
201	0xbcc92e05	-0.024558077
202	0x3db4eb89	0.08833987
203	0xbf1c9cfd	-0.61177045
204	0xbeef725c	-0.46766937
205	0xbd548b23	-0.051890504
206	0xbddcdb6d	-0.1078404
207	0xbd3504a0	-0.044193864
208	0x3d204ef3	0.03913779
209	0xbf478e1a	-0.77951205
210	0x3e37d632	0.17952803
211	0xbeae4359	-0.34035757
212	0x3e0331a1	0.128119
213	0xbd36b663	-0.04460753
214	0x3e643b61	0.22288276
215	0xbe149f6e	-0.14513943
216	0x3f187623	0.5955526
217	0x3e365074	0.17804128
218	0x3da86fc4	0.082244426
219	0xbe6bb955	-0.23019917
220	0x3de48f64	0.11160162
221	0x3f10fc3d	0.56634885
222	0xbee50c62	-0.4473601
223	0xbd8587ec	-0.06520066
224	0x3dfc76f3	0.12327375
225	0xbda8e76e	-0.08247267
226	0x3f1b4847	0.6065716
227	0xbe64c16b	-0.22339408
228	0xbb0c10c2	-0.0021372293
229	0xbe985071	-0.29748872
230	0x3e019f96	0.12658533
231	0xbe224b56	-0.15849051
232	0x3ee1559d	0.4401063
233	0x3d58a31b	0.052889924
234	0xbe36b1d8	-0.1784128
235	0x3c90d2e7	0.017678691
236	0xbeb3a310	-0.35085344
237	0x3e07b94e	0.13254282
238	0xbdfd3861	-0.12364269
239	0x3e0ce000	0.13757324
240	0x3f06e732	0.52696526
241	0xbeb0fc63	-0.34567556
242	0xbf0835af	-0.53206915
243	0xbc9114ba	-0.017710079
244	0xbf5e597b	-0.86855286
245	0x3ed0a538	0.40751052
246	0x3e03182e	0.12802193
247	0xbe439adb	-0.19102041
248	0xbcb9f37c	-0.02269911
249	0xbe4c8538	-0.19972694
250	0x3ee7a819	0.45245436
251	0x3ed88d45	0.4229528
252	0x3ecad35e	0.39614385
253	0xbf06bd90	-0.52633
254	0x3ef40a65	0.4766418
255	0xbec68781	-0.38775256

r_cell.w_qs.bias f4 [24]
0	0xbce08aec	-0.027409993
1	0x3e4b07de	0.1982722
2	0x3cdb363c	0.02675926
3	0xbe266d7f	-0.16252707
4	0xbea10c09	-0.31454495
5	0xbe5e3326	-0.21699199
6	0xbe69d9d2	-0.22836998
7	0x3e9cea98	0.3064773
8	0xbf333610	-0.7000437
9	0xbd72ac7a	-0.059246518
10	0xbe46ffe0	-0.19433546
11	0xbee920e1	-0.45532897
12	0xbd27354f	-0.040822323
13	0x3e5e0bd8	0.21684206
14	0x3da676d5	0.08128134
15	0x3d5cb1fb	0.053880673
16	0x3ee2f6e9	0.44329002
17	0xbf094274	-0.53617024
18	0x3cafe847	0.021473063
19	0x3d2e11c8	0.042497426
20	0x3bec657f	0.0072142477
21	0x3e5695de	0.20955607
22	0x3eca14a0	0.3946886
23	0x3f1833d4	0.59454083

r_cell.w_ks.weight f4 [24, 24]
0	0x3d5bf69f	0.053701993
1	0xbd922808	-0.071365416
2	0x3eac870c	0.33696783
3	0xbd7db022	-0.06193555
4	0xbe754267	-0.23951112
5	0x3ec14715	0.37749544
6	0xbeaf5880	-0.34247208
7	0xbc9cda35	-0.019147018
8	0x3e298c1c	0.16557354
9	0xbe29d9bc	-0.16586965
10	0x3c8e46f9	0.017367827
11	0x3f0cbe9e	0.5497836
12	0x3ec2e009	0.3806155
13	0x3f457687	0.77133983
14	0x3ec4302a	0.38317996
15	0xbf95f20c	-1.1714492
16	0xbdb23e2f	-0.08703267
17	0xbe33f523	-0.17573981
18	0xbe809550	-0.25113916
19	0xbd48b682	-0.049002178
20	0x3e1ab25c	0.15107101
21	0x3db838a2	0.08995177
22	0x3f4a8cee	0.7912129
23	0x3eefd8b6	0.46845025
24	0xbde883ba	-0.1135325
25	0xbec4c319	-0.38430098
26	0x3f2e6147	0.68117183
27	0x3da96cce	0.08272706
28	0xbef4a2bd	-0.4778041
29	0xbe8e17d4	-0.27752554
30	0x3f1cafd0	0.6120577
31	0xbf068424	-0.5254538
32	0xbe91019c	-0.2832154
33	0x3ebc937c	0.36831272
34	0x3e841571	0.25797608
35	0x3e1a2a93	0.15055303
36	0xbdda2b4c	-0.106527895
37	0x3e7be568	0.2459923
38	0x3eb93f1f	0.3618097
39	0xbdffcabe	-0.12489842
40	0xbf33ca1c	-0.7023027
41	0xbee75239	-0.45179918
42	0xbf2ab9b7	-0.6668963
43	0x3ecd7197	0.40125725
44	0xbed8b919	-0.42328718
45	0xbf10d141	-0.56569296
46	0xbe169361	-0.14704658
47	0xbe3caf42	-0.1842623
48	0x3f19c8cf	0.60072035
49	0x3efa7412	0.4891668
50	0x3b843268	0.004034329
51	0xbcf15c25	-0.029462883
52	0xbf00d958	-0.5033164
53	0x3e488540	0.19582081
54	0xbe502d0d	-0.20329686
55	0xbea3b57e	-0.31974405
56	0xbd4c7b95	-0.049922545
57	0x3f186751	0.5953265
58	0xbd5292c8	-0.051409513
59	0xbe5ac538	-0.21364295
60	0x3e6cb802	0.23117068
61	0xbf4cf332	-0.80058587
62	0xbdf0a031	-0.11749304
63	0xbe342700	-0.17593002
64	0xbec66583	-0.38749322
65	0xbe52fd53	-0.20604448
66	0xbe328fbd	-0.17437644
67	0xbf10cb66	-0.5656036
68	0x3e1ffea3	0.1562448
69	0x3ec8df3a	0.39232808
70	0x3f3bd47c	0.733711
71	0x3f38c459	0.721746
72	0x3eca6e0c	0.39537084
73	0x3f1a41ed	0.60256845
74	0x3d1205fa	0.03565023
75	0xbde545f3	-0.111949824
76	0x3f0e4c65	0.5558532
77	0x3ef29cc5	0.4738523
78	0xbf1e63d7	-0.61871094
79	0xbe85943d	-0.2608966
80	0x3efe924e	0.49720997
81	0xbf009ae4	-0.50236344
82	0x3eb0f0cd	0.34558716
83	0xbe09058f	-0.13381027
84	0x3d38a4d4	0.045079067
85	0xbd77dbf6	-0.060512505
86	0xbeef01cc	-0.46681058
87	0xbc672453	-0.014107781
88	0x3ec8b2af	0.39198825
89	0x3ee0a96d	0.43879262
90	0x3da31340	0.07962656
91	0xbd34e023	-0.044159066
92	0xbd43d60f	-0.047811564
93	0xbebcd658	-0.3688228
94	0x3ee4169c	0.445485
95	0x3f177beb	0.5917346
96	0x3efb3eff	0.490715
97	0x3f2b327c	0.6687391
98	0x3c8a94d6	0.016916674
99	0xbea87995	-0.3290526
100	0xbe984f42	-0.2974797
101	0xbee8c675	-0.4546391
102	0x3f1894ac	0.59601855
103	0x3cdac4c2	0.02670515
104	0x3f037f32	0.5136596
105	0x3d75170b	0.05983643
106	0xbd9648a7	-0.07338076
107	0x3d686908	0.05674079
108	0x3e8a656b	0.270305
109	0xbe2ecb9a	-0.17069855
110	0xbe6ee567	-0.23329698
111	0x3ecc06b9	0.3984888
112	0x3eca88ef	0.39557597
113	0xbe840739	-0.2578676
114	0x3ef5bc22	0.47995096
115	0xbe7b34f3	-0.24531917
116	0x3e4337fb	0.19064324
117	0x3d842744	0.06452802
118	0x3e0b5f4f	0.13610576
119	0x3e9d2eef	0.3069987
120	0xbcb37395	-0.0219057
121	0x3ec9b44a	0.39395362
122	0xbef5959b	-0.47965702
123	0xbe1696d5	-0.14705975
124	0x3ea6bd45	0.32566276
125	0xbeaa54ae	-0.3326773
126	0xbe351e28	-0.17687285
127	0x3e10d988	0.14145482
128	0x3da8d7d5	0.08244292
129	0x3e91f312	0.2850576
130	0x3e66a7c1	0.2252493
131	0x3f062867	0.524054
132	0x3ec4938a	0.38393813
133	0x3db7b7ad	0.0897058
134	0xbedd6ef4	-0.43248713
135	0x3f0a6e7c	0.54074836
136	0x3eeffc6b	0.46872267
137	0x3e282a3a	0.16422358
138	0xbf4be218	-0.79641867
139	0xbeeb11d8	-0.4591205
140	0xbe00a84b	-0.12564199
141	0x3e6879cd	0.22702713
142	0x3d15a5c4	0.03653504
143	0x3e3c1968	0.18369067
144	0x3f0f8acb	0.56071156
145	0x3e9e0038	0.30859542
146	0x3d0eb084	0.034836307
147	0xbea2996c	-0.31757677
148	0x3cf16184	0.029465444
149	0xbef239a8	-0.47309613
150	0x3dcb2e64	0.09920958
151	0xbe0fb05f	-0.14032124
152	0xbde2efc9	-0.11080892
153	0xbebacce5	-0.36484447
154	0x3ee86f13	0.45397243
155	0x3ec42b62	0.38314348
156	0xbe97c785	-0.2964441
157	0xbe5ecc28	-0.21757567
158	0xbd353521	-0.04424012
159	0xbd4f7421	-0.05064786
160	0xbf28b494	-0.6590054
161	0xbf382b0f	-0.719407
162	0x3c66a2d7	0.01407691
163	0x3dafb216	0.08578889
164	0x3faa8dbb	1.3324503
165	0x3ec42952	0.38312775
166	0x3f16c997	0.5890135
167	0xbeebe9b4	-0.4607674
168	0xbeafd62c	-0.34343088
169	0xbe52bf81	-0.20580865
170	0x3e9df58f	0.3085141
171	0xbec7d398	-0.3902862
172	0xbec2e9c6	-0.3806898
173	0xbe4675b6	-0.1938084
174	0x3d2567d7	0.040382233
175	0x3d7c16d4	0.061545208
176	0x3edca56f	0.43094966
177	0x3e7cf3b9	0.24702348
178	0x3d292c6c	0.04130213
179	0xbed82f6a	-0.42223674
180	0xbe922740	-0.2854557
181	0x3df8014c	0.12109622
182	0xbf1d0a01	-0.6134339
183	0x3e28da69	0.16489567
184	0xbefff2f9	-0.4999006
185	0xbee16a4c	-0.4402641
186	0xbebbbe3b	-0.36668572
187	0x3e4617c2	0.19345
188	0xbf389acf	-0.7211122
189	0xbf9f9cda	-1.2469742
190	0xbf0b9cbd	-0.5453604
191	0xbc97a4a8	-0.018511131
192	0x3cc60032	0.024170015
193	0xbe45a12b	-0.19299762
194	0x3b2d037b	0.002639978
195	0xbe72376d	-0.23653956
196	0xbe921c9b	-0.2853745
197	0xbe722e9b	-0.23650591
198	0xbea321cf	-0.3186173
199	0xbdbf9e09	-0.09356315
200	0xbe0c960d	-0.13729115
201	0xbecd3068	-0.40075994
202	0xbe3cbb72	-0.1843088
203	0x3d216782	0.039405353
204	0xbda07701	-0.07835198
205	0x3d84e15d	0.06488297
206	0xbe89f4e1	-0.2694464
207	0xbea713b7	-0.3263223
208	0x3f4ce940	0.8004341
209	0x3d817913	0.06321921
210	0x3f35e42c	0.7105129
211	0xbf508b98	-0.81463003
212	0xbd94a6a4	-0.07258347
213	0x3eb1a20a	0.34693938
214	0x3d0edd66	0.03487911
215	0xbe8dd7c3	-0.27703676
216	0x3e9b4e3e	0.30333132
217	0x3d17972c	0.037009403
218	0xbe8b231f	-0.27175233
219	0xbed2b769	-0.41155556
220	0x3f29409a	0.661142
221	0xbf0b1e0e	-0.54342735
222	0xbeeea7d8	-0.4661243
223	0xbe1290ab	-0.14312999
224	0x3f509366	0.8147491
225	0x3d97ce83	0.07412436
226	0xbf0c3feb	-0.5478503
227	0x3e611898	0.21982038
228	0x3df2476a	0.118300274
229	0x3ce5821d	0.028016144
230	0xbe125241	-0.1428919
231	0xbeb35fb4	-0.35033953
232	0x3e735604	0.23763281
233	0x3e20f746	0.15719327
234	0x3f20da52	0.6283313
235	0x3dafc0a5	0.08581666
236	0x3f29e62d	0.66366845
237	0x3ef62ba2	0.48080164
238	0x3e5ffa98	0.21872938
239	0x3e96ed79	0.29478052
240	0x3d63e1ee	0.055635385
241	0x3eb6913b	0.35657677
242	0x3ee7d200	0.45277405
243	0xbf20c696	-0.6280302
244	0xbd3f0938	-0.04663965
245	0xbef029bf	-0.4690685
246	0x3f1aa586	0.6040882
247	0x3dfdabe4	0.12386301
248	0xbe180511	-0.14845683
249	0xbe2e8509	-0.17042936
250	0x3e265d56	0.16246542
251	0xbeeb7d24	-0.45993912
252	0xbe8520c1	-0.26001552
253	0x3d80b3a7	0.06284266
254	0xbf84b647	-1.0368127
255	0xbe8ebd2c	-0.27878702

r_cell.w_ks.bias f4 [24]
0	0x3e18130e	0.14851019
1	0x3e264fff	0.16241454
2	0x3cd83c4c	0.02639594
3	0x3e116cdf	0.14201687
4	0x3e396833	0.18106155
5	0x3e9c92a0	0.30580616
6	0xbe031435	-0.12800677
7	0x3d3939f4	0.045221284
8	0x3e3e5bd9	0.18589725
9	0xbd9a6194	-0.07538143
10	0x3e0e7d0f	0.13914894
11	0x3b10f043	0.0022115863
12	0xbd92d1de	-0.07168935
13	0x3e2e68c5	0.17032154
14	0x3e0cf387	0.13764773
15	0xbd9d5995	-0.07683102
16	0xbe2ac5c3	-0.16677003
17	0x3ca910f5	0.020637969
18	0x3deeabb3	0.11653843
19	0x3da098e6	0.07841663
20	0x3d32f95a	0.04369483
21	0xbe11c9ec	-0.14237183
22	0x3e2919a6	0.1651369
23	0xbd4b6533	-0.049657058

r_cell.w_vs.weight f4 [24, 24]
0	0xbd0ddfc9	-0.034637246
1	0xbd15732d	-0.036486793
2	0xbf00ac35	-0.5026277
3	0x3db688d5	0.089128174
4	0xbe86668d	-0.26250115
5	0x3da186e8	0.078870595
6	0x3ea40ec5	0.32042518
7	0x3e1b6434	0.15174943
8	0x3dfb8abd	0.122823216
9	0x3ef458bc	0.4772395
10	0x3d7dd4e9	0.061970625
11	0xbe7c5a26	-0.24643764
12	0xbe842907	-0.2581255
13	0x3ea3327b	0.3187445
14	0xbd515af0	-0.051112115
15	0xbeaf396b	-0.34223494
16	0xbe48b301	-0.19599535
17	0xbcfc63fa	-0.030809391
18	0xbe9ae749	-0.30254582
19	0x3ea95dca	0.33079368
20	0xbe05471a	-0.13015404
21	0x3e176f75	0.14788611
22	0x3e89bd9a	0.26902467
23	0x3f15a906	0.58461034
24	0xbd66ac9a	-0.05631695
25	0x3d3af23e	0.045641176
26	0xbdd96639	-0.106152005
27	0x3e8378b1	0.25678018
28	0xbee6bab9	-0.45064333
29	0x3e05ae81	0.13054849
30	0xbed5478a	-0.41656142
31	0x3f2a531d	0.6653307
32	0x3dd17de1	0.102290876
33	0xbe92fd6a	-0.28708965
34	0x3df04484	0.11731818
35	0xbe2d9c5c	-0.16954178
36	0x3e19decb	0.15026395
37	0x3ef8f543	0.4862462
38	0xbda68500	-0.081308365
39	0x3e67d9b6	0.22641644
40	0x3eb09c65	0.3449432
41	0x3dae53f7	0.08512109
42	0xbea022bb	-0.31276497
43	0x3cbae0d6	0.022812288
44	0x3e2c6774	0.16836339
45	0x3eb605f2	0.3555141
46	0xbed319be	-0.41230577
47	0xbe024a00	-0.12723541
48	0xbe31cc86	-0.17363176
49	0xbd6462eb	-0.055758398
50	0x3f1714cb	0.590161
51	0x3e37e4fc	0.17958444
52	0x3d2a9ca9	0.04165331
53	0xbf518766	-0.81847227
54	0x3b9b1012	0.0047321403
55	0xbde7bc75	-0.11315242
56	0x3aef6afc	0.0018266137
57	0x3e5edff7	0.21765123
58	0x3d7b7436	0.061390124
59	0x3e09a76a	0.1344277
60	0x3e7d79a7	0.24753438
61	0xbded209a	-0.11578484
62	0xbf3876f9	-0.7205654
63	0xbec5882a	-0.38580447
64	0xbf0db255	-0.5535024
65	0xbe1979de	-0.14987895
66	0xbe17ebf0	-0.14836097
67	0x3c1f788e	0.009733332
68	0xbd6ff02f	-0.058578666
69	0xbe11ab97	-0.14225613
70	0xbda0c510	-0.07850087
71	0xbe9bd877	-0.30438587
72	0x3e55525f	0.20832203
73	0xbc9da36b	-0.019242963
74	0xbd8179be	-0.063220486
75	0xbe2130ac	-0.15741223
76	0xbde47179	-0.11154456
77	0x3e896259	0.26832846
78	0xbd89caf4	-0.06728163
79	0xbe892041	-0.2678242
80	0x3eefbb98	0.4682281
81	0xbd2c124e	-0.042009644
82	0x3dc11228	0.09427291
83	0x3f09ee4d	0.53879243
84	0x3e482e3a	0.19548884
85	0xbe9f867e	-0.31157297
86	0x3eba46e9	0.36382225
87	0xbe68c463	-0.22731166
88	0x3e589c6f	0.21153425
89	0xbeb4ef2a	-0.35338718
90	0x3c0cd42e	0.008595509
91	0x3e827186	0.25477237
92	0xbdd67f5f	-0.10473513
93	0xbe9119c6	-0.28339976
94	0x3e07d8b2	0.13266256
95	0xbdea1dc4	-0.114314586
96	0xbf0c2c94	-0.5475552
97	0xbcf82e58	-0.030295536
98	0xbe25613d	-0.16150375
99	0x3e2e2e62	0.17009881
100	0xbdccd0b6	-0.10000746
101	0xbf1a437f	-0.6025924
102	0x3e686f80	0.22698784
103	0x3e793b2b	0.24338977
104	0xbe31ccdc	-0.17363304
105	0xbf2f8707	-0.6856541
106	0xbe37f5c6	-0.17964849
107	0xbf01877d	-0.50597364
108	0xbc9d38dc	-0.019192152
109	0x3e3e15cb	0.18563001
110	0x3cc77687	0.02434851
111	0xbf08e2c5	-0.5347102
112	0xbec8685a	-0.39142114
113	0xbee72f54	-0.45153296
114	0x3e97a453	0.29617557
115	0xbe2e6d9e	-0.17034003
116	0xbd3d124f	-0.04616004
117	0xbebe1702	-0.3712693
118	0x3e8421ee	0.25807136
119	0x3a353d2c	0.00069137174
120	0xbcaec91a	-0.021336127
121	0x3d89098b	0.06691273
122	0x3efa3945	0.48871818
123	0x3ea97399	0.33096007
124	0x3f048452	0.51764405
125	0x3f6f3e7e	0.9345473
126	0xbe494692	-0.19655827
127	0xbc9652a3	-0.018349951
128	0x3f16bc9e	0.58881557
129	0x3e3f478a	0.18679634
130	0x3ea99895	0.33124223
131	0x3cba6f3a	0.022758115
132	0xba975538	-0.0011545783
133	0x3ed7731b	0.42080006
134	0xbc5b634f	-0.013390376
135	0x3ec1ba02	0.37837225
136	0x3ddd278d	0.10798559
137	0x3f2b052e	0.6680478
138	0x3d37c79a	0.04486809
139	0xbeac1980	-0.33613205
140	0x3f55058e	0.832116
141	0x3de03da5	0.10949258
142	0xbdf9ef75	-0.12203876
143	0x3dcdd828	0.10050994
144	0xbd886967	-0.06660729
145	0x3e88ffc6	0.2675764
146	0x3b3226dc	0.0027183807
147	0xbe4bf0bb	-0.1991605
148	0x3d1f4012	0.03887946
149	0x3e0c2637	0.13686453
150	0xbe0383b8	-0.12843215
151	0xbeaec158	-0.34131885
152	0xbed4bd9e	-0.41550916
153	0x3e8afcdf	0.2714605
154	0x3e139efa	0.14416113
155	0x3f179a04	0.59219384
156	0xbe38bbb2	-0.1804035
157	0xbdf1572c	-0.11784205
158	0x3e38242f	0.17982553
159	0xbddfd500	-0.109292984
160	0xbe86a459	-0.26297262
161	0xbf20c994	-0.62807584
162	0xbe860b1e	-0.26180357
163	0xbee5dad4	-0.44893515
164	0xbecf0254	-0.40431464
165	0xbe433bf6	-0.19065842
166	0xbf26b617	-0.651216
167	0x3e4f0f20	0.20220613
168	0xbe8ddd60	-0.27707958
169	0xbebef9f6	-0.3730008
170	0xbf1d7cac	-0.6151836
171	0x3d18bf84	0.03729202
172	0xbe0a24d0	-0.13490605
173	0x3f329a6b	0.69766873
174	0xbc45e5af	-0.012078687
175	0xbebd36a2	-0.36955744
176	0xbd28a27b	-0.04117058
177	0x3e4c50c8	0.1995269
178	0xbe8f7e99	-0.28026274
179	0x3eb1ba3f	0.34712407
180	0xbd8735d1	-0.066020615
181	0xbf09d041	-0.53833395
182	0x3be6cae9	0.0070432317
183	0xbed9f2e4	-0.42568123
184	0xbe1e9ac5	-0.15488727
185	0xbe55bc6d	-0.2087266
186	0x3e8e4fbe	0.27795213
187	0xbf0809fa	-0.53140223
188	0xbe0e2f5d	-0.13885255
189	0xbf24761f	-0.6424274
190	0xbe57c1da	-0.21070042
191	0x3d32b598	0.043630213
192	0xbee77693	-0.45207652
193	0xbe341e20	-0.17589617
194	0xbc810497	-0.015749259
195	0x3e9d1bd2	0.30685288
196	0xbe96eff6	-0.2947995
197	0xbeaba0ba	-0.33521062
198	0xbbf34b83	-0.007424773
199	0x3d2f6830	0.04282397
200	0x3e37f8f5	0.17966063
201	0xbe449ff4	-0.19201642
202	0xbcca62c4	-0.024705298
203	0xbed21a0c	-0.41035497
204	0x3d39c82d	0.045356918
205	0xbe842f41	-0.25817302
206	0xbeb643a7	-0.3559849
207	0xbe4c6073	-0.19958667
208	0x3e8850ad	0.2662405
209	0x3dd257fe	0.102706894
210	0xbca94349	-0.020661967
211	0x3e8cb66e	0.27482933
212	0xbe4d9a75	-0.20078452
213	0x3f0e9e29	0.55710083
214	0xbdd18f15	-0.10232369
215	0xbeab9588	-0.3351252
216	0xbe181f1d	-0.14855619
217	0x3f2b40fc	0.66896033
218	0x3d94cb8c	0.07265386
219	0x3e55fcff	0.20897292
220	0x3eaac7d8	0.33355594
221	0xbe14722c	-0.14496678
222	0x3d5bfec3	0.053709757
223	0x3e567ec7	0.20946799
224	0x3d5d7c90	0.05407387
225	0xbedf43ac	-0.43606317
226	0xbd0d3fac	-0.03448455
227	0xbe42ccf1	-0.19023491
228	0x3ed8c918	0.42340922
229	0xbe252aab	-0.16129558
230	0x3ed9a8a1	0.42511466
231	0x3e021ef3	0.12707119
232	0xbe3c64ac	-0.18397778
233	0x3dfd612c	0.1237205
234	0x3e414844	0.18875223
235	0xbee2b42d	-0.44278088
236	0xbe93727e	-0.28798288
237	0x3ea3253f	0.31864354
238	0xbe91831a	-0.28420335
239	0x3d779ae5	0.060450453
240	0x3e4fa78c	0.20278758
241	0x3e7f1cff	0.24913405
242	0xbe78d1b1	-0.24298741
243	0x3eb19108	0.34680963
244	0xbc3122f1	-0.010811553
245	0xbecc6615	-0.39921632
246	0xbcace07f	-0.021103142
247	0xbdf13bf0	-0.1177901
248	0xbea0a3ca	-0.3137496
249	0xbe079bc0	-0.13243008
250	0x3d8a1c81	0.06743718
251	0xbe5b1831	-0.21395947
252	0x3e9ead6b	0.30991682
253	0xbe9092fd	-0.28237143
254	0x3e1f5286	0.15558824
255	0x3f08b6f0	0.5340414

r_cell.w_vs.bias f4 [24]
0	0x3db321fd	0.08746717
1	0xbe909943	-0.2824193
2	0xbce92369	-0.028459268
3	0x3e9bec42	0.30453688
4	0x3e14d86a	0.1453568
5	0xbd8a6658	-0.06757802
6	0x3d519f95	0.05117758
7	0xbd5d2b84	-0.053996578
8	0xbe262434	-0.16224748
9	0xbd68d78e	-0.056846194
10	0x3e4e7c0c	0.20164508
11	0xb9d0c747	-0.00039821325
12	0xbd229f31	-0.039702598
13	0xbe03ac12	-0.12858608
14	0xbd0d9f12	-0.03457553
15	0xbd2e5318	-0.042559713
16	0x3e10fe9d	0.14159627
17	0xbcec6e22	-0.02886111
18	0xbe2b3ef8	-0.1672324
19	0xbe21a543	-0.15785699
20	0x3e04f5a1	0.12984325
21	0x3e27bdc9	0.16380991
22	0xbdf25bd8	-0.11833924
23	0xbc66b960	-0.014082283

r_cell.layer_norm.weight f4 [24]
0	0x3f804b1d	1.0022923
1	0x3f605259	0.8762565
2	0x3f6c8c1e	0.924013
3	0x3f8e49f4	1.1116319
4	0x3f66a024	0.90088105
5	0x3f88488d	1.0647141
6	0x3fccbe44	1.5995564
7	0x3fcf03f0	1.6173077
8	0x3f9e6946	1.2375877
9	0x3f9eb61f	1.2399329
10	0x3f8a806e	1.0820444
11	0x3faa2c19	1.3294708
12	0x3fad4dc1	1.3539354
13	0x3f9c4e0b	1.2211317
14	0x3f936e5b	1.1518053
15	0x3f616b43	0.88054293
16	0x3faadcf3	1.3348678
17	0x3f740aab	0.9532878
18	0x3fd4c268	1.6621828
19	0x3fabc457	1.3419293
20	0x3f8cf54f	1.1012362
21	0x3f60bc68	0.87787485
22	0x3f8d3e00	1.1034546
23	0x3f92af71	1.145979

r_cell.layer_norm.bias f4 [24]
0	0x3d8c7d4f	0.06859838
1	0xbe7406a7	-0.23830663
2	0xbe0c8956	-0.13724265
3	0xbd84e581	-0.06489087
4	0x3e03d526	0.12874278
5	0xbd6f009b	-0.058350187
6	0xbda0de90	-0.078549504
7	0x3db30a4f	0.087422006
8	0xbd88ba26	-0.0667613
9	0x3d50b469	0.050953303
10	0x3e2d1380	0.1690197
11	0x3d19ffa7	0.037597325
12	0x3d3e93e6	0.046527766
13	0xbc8c4ce7	-0.017126514
14	0x3e589d9e	0.21153876
15	0x3e6e5645	0.23275097
16	0x3bd80b80	0.006593168
17	0xbeb34225	-0.35011402
18	0xbd92040d	-0.07129679
19	0xbda3f8f1	-0.08006466
20	0x3dcd33f9	0.100196786
21	0x3e7018a2	0.23446897
22	0x3e9bb2b3	0.30409774
23	0xbd2213c2	-0.039569624

r_cell.fc.weight f4 [24, 24]
0	0xbeaced0e	-0.33774608
1	0xbe37d7d8	-0.17953432
2	0x3e719cfc	0.23595041
3	0x3e2cbc6e	0.16868755
4	0x3d093f7f	0.03350782
5	0x3e0de9e8	0.1385876
6	0x3e58afeb	0.21160857
7	0xbde4d658	-0.11173695
8	0x3c183885	0.009290819
9	0xbdca3ca1	-0.09874845
10	0xbf0338ec	-0.5125873
11	0x3ef1d7fb	0.47235093
12	0xbe252911	-0.16128947
13	0x3e969e97	0.2941787
14	0x3ec25ccd	0.37961426
15	0xbbd0a6ad	-0.0063675256
16	0xbdce6f84	-0.10079864
17	0xbe47720f	-0.19477104
18	0xbe916784	-0.2839929
19	0x3e8781ea	0.26466304
20	0xbdd7b192	-0.10531916
21	0xbdd52cca	-0.104089335
22	0xbe4a8990	-0.19779038
23	0xbeb95b37	-0.36202404
24	0xbe1c991a	-0.15292779
25	0x3d7b17a5	0.061301846
26	0xbe90fdb6	-0.28318566
27	0xbe01d6d5	-0.12679608
28	0x3e02691a	0.12735406
29	0x3e6cda9b	0.23130266
30	0xbf4f11ab	-0.80886334
31	0xbed00101	-0.40625766
32	0x3f00bbbc	0.5028646
33	0x3e75cfc3	0.24005036
34	0x3df7e81c	0.12104818
35	0x3ebb22ab	0.36549887
36	0x3dafe59a	0.08588715
37	0x3c6d5745	0.014486139
38	0xbe4e02a3	-0.20118193
39	0xbf3373d1	-0.70098597
40	0x3dfe29e9	0.124103375
41	0xbe64cf88	-0.22344792
42	0xbe22abd4	-0.1588586
43	0xbe48a7bc	-0.19595236
44	0x3f7d1785	0.9886401
45	0x3e4bcc45	0.19902141
46	0x3d10a54e	0.035313897
47	0xbe69a05f	-0.22815083
48	0xbdce2e99	-0.100674815
49	0x3e825d9d	0.25462046
50	0xbed4130a	-0.41420776
51	0xbe96da87	-0.29463598
52	0x3ec8574d	0.39129105
53	0xbe284010	-0.16430688
54	0xbecd57c9	-0.40106037
55	0xbeb57a4e	-0.35444874
56	0x3e0b987a	0.13632384
57	0x3dc24a09	0.09486777
58	0xbe856a05	-0.2605745
59	0x3f2e5bd4	0.6810887
60	0xbed0af4d	-0.40758744
61	0x3e342a18	0.17594182
62	0x3e4cefaa	0.200133
63	0x3ea076d3	0.31340656
64	0xbcbc9b4b	-0.023023268
65	0xbe3fe2ac	-0.18738812
66	0xbef0cf31	-0.47033074
67	0xbdf9a952	-0.121904984
68	0x3ebfdba2	0.37472254
69	0x3e98d8c9	0.29852894
70	0xbd883adc	-0.066518515
71	0xbdd62eac	-0.10458121
72	0x3ec0c2fe	0.37648767
73	0xbe210087	-0.15722857
74	0x3ed47b15	0.41500154
75	0xbcc62d8d	-0.024191642
76	0x3e54b9fd	0.20774074
77	0x3ea7b825	0.3275768
78	0x3e113893	0.14181738
79	0x3ee09bf4	0.43868983
80	0xbb0e335a	-0.0021698088
81	0xbcbf48d2	-0.023350153
82	0x3e698339	0.22803964
83	0xbe599146	-0.21246824
84	0xbe05a0e3	-0.13049655
85	0xbd96e3b3	-0.07367649
86	0x3d54c72c	0.051947758
87	0xbec7429e	-0.38918012
88	0x3e6f3beb	0.233627
89	0x3e92ad59	0.2864788
90	0x3d62f0f7	0.055405583
91	0x3dd7e6d9	0.105420776
92	0xbe8c55cc	-0.27409208
93	0xbe52a201	-0.20569612
94	0xbe996be3	-0.29965124
95	0x3f01350f	0.50471586
96	0xbe15c0d8	-0.14624345
97	0xbdfa107f	-0.12210178
98	0x3c0bc12c	0.0085299425
99	0x3e455f24	0.19274575
100	0xbee2961f	-0.44255158
101	0xbd8b789e	-0.06810115
102	0xbccbe936	-0.024891477
103	0x3ecc4e11	0.3990331
104	0xbb7dcae6	-0.0038725673
105	0xbe05b96a	-0.13059011
106	0xbec70560	-0.38871288
107	0x3e4e1690	0.20125794
108	0x3dd14c38	0.10219616
109	0x3e375d73	0.17906742
110	0x3da7c980	0.0819273
111	0x3eebb6f5	0.46038023
112	0xbe964331	-0.29348138
113	0xbe3c1cd4	-0.18370372
114	0x3ef332f2	0.47499806
115	0xbe8f24e1	-0.27957824
116	0xbea5892b	-0.32331213
117	0xbeb6bc89	-0.35690716
118	0x3d991173	0.07474031
119	0xbdb6c21d	-0.08923743
120	0x3e01c258	0.12671793
121	0x3f06d1eb	0.5266406
122	0xbe827eba	-0.2548731
123	0x3ce393dc	0.027780466
124	0xbe0f3ee6	-0.13988838
125	0xbe9155b6	-0.28385705
126	0x3eefa1d1	0.46803144
127	0x3dc5cf58	0.09658688
128	0xbe316753	-0.17324571
129	0xbd37635e	-0.0447725
130	0xbc530aeb	-0.012881021
131	0xbe7924df	-0.24330471
132	0xbd6e37ca	-0.058158673
133	0x3d5cd4ed	0.053914
134	0xbe538847	-0.20657454
135	0xbdf2589c	-0.11833307
136	0xbe77b2cb	-0.24189298
137	0xbd869339	-0.06571049
138	0x3e58e1dd	0.2117991
139	0x3ea8fef7	0.33007023
140	0x3d71250a	0.058873214
141	0x3d43ccd0	0.047802746
142	0xbe67b21b	-0.22626536
143	0x3dcd45ea	0.10023101
144	0x3ceeb818	0.029140517
145	0x3de0477e	0.10951136
146	0x3d8aaa9b	0.06770822
147	0x3e18e8be	0.14932534
148	0xbe677db5	-0.22606547
149	0xbe39e8e0	-0.18155241
150	0x3db2244c	0.08698329
151	0xbdcdfbbf	-0.100577824
152	0x3d6eb72e	0.058280163
153	0x3d971771	0.07377518
154	0xbe8ff616	-0.28117436
155	0xbdfe2a0e	-0.12410365
156	0xbe294664	-0.16530758
157	0xbe1045b0	-0.14089084
158	0x3da8767d	0.08225725
159	0xbdbcc919	-0.09218044
160	0x3cb196bc	0.021678321
161	0xbd5530e8	-0.052048594
162	0xbe10324e	-0.1408169
163	0xbdd7a475	-0.105294146
164	0x3e6b4871	0.22976853
165	0xbdba1084	-0.09085181
166	0x3e8ef7e0	0.2792349
167	0x3e9f7a61	0.31148055
168	0x3dfb2a4c	0.12263927
169	0xbdef26a0	-0.11677289
170	0x3e42b450	0.19014096
171	0x3dfc4283	0.123173736
172	0xbc816e4e	-0.015799668
173	0xbbd73083	-0.0065670623
174	0xbec49b8b	-0.3839992
175	0xbdf91c65	-0.12163619
176	0xbdb770ab	-0.089570366
177	0x3df054ce	0.11734925
178	0x3bb62fc8	0.005559895
179	0x3e81f845	0.25384727
180	0xbd6b5385	-0.057452697
181	0xbd30599b	-0.043054204
182	0xbd588978	-0.052865475
183	0xbdadaeb1	-0.08480585
184	0x3e1d81a0	0.1538148
185	0xbe35b690	-0.17745423
186	0x3eeb21e7	0.45924303
187	0x3c225717	0.009908459
188	0x3dbeee61	0.09322811
189	0x3d237cd6	0.039913975
190	0x3affdd79	0.001952096
191	0x3df295f7	0.1184501
192	0x3dfac287	0.122441344
193	0xbe73d008	-0.23809826
194	0xbd339b9f	-0.043849584
195	0x3c3ba03e	0.011451779
196	0x3df79f6d	0.12090955
197	0x3db2e047	0.08734184
198	0xbd662108	-0.056183845
199	0xbe2dd5b7	-0.16976057
200	0xbf0029e6	-0.5006393
201	0xbdcc637c	-0.09979913
202	0xbdac1238	-0.084019125
203	0x3ec062d8	0.37575412
204	0xbe838249	-0.25685337
205	0xbdba02db	-0.09082576
206	0xbdcae55c	-0.09907028
207	0xbda620d7	-0.081117325
208	0xbe690bf3	-0.22758465
209	0xbd8be6e9	-0.06831152
210	0xbe6782d3	-0.22608499
211	0x3dbb6f6e	0.09152113
212	0xbe9c9de4	-0.3058921
213	0x3d4345a6	0.047673844
214	0x3ddcf16a	0.107882336
215	0xbe6b29de	-0.2296519
216	0xbbb447a8	-0.005501706
217	0xbe0ae1d3	-0.13562708
218	0x3e84c313	0.2593008
219	0xbf3ecdd5	-0.74532825
220	0x3eccbf75	0.3998982
221	0xbba43af9	-0.005011913
222	0xbe5f184e	-0.21786615
223	0xbe91fa7d	-0.2851142
224	0xbdf5ad8d	-0.11995993
225	0x3e8a8d84	0.27061093
226	0x3e97e08f	0.29663512
227	0x3dd34f2f	0.103178374
228	0x3d422e3c	0.047407374
229	0xbde4d55f	-0.1117351
230	0xbcee57ec	-0.029094659
231	0xbc9ba56b	-0.018999776
232	0x3eb470d0	0.3524232
233	0x3e2e54f3	0.17024593
234	0x3d703da9	0.058652554
235	0x3e259f88	0.16174138
236	0x3ea5580f	0.32293746
237	0x3e9b2330	0.30300283
238	0xbe6ff719	-0.23434104
239	0x3e44bae8	0.19211924
240	0x3ea5db45	0.32393852
241	0x3c2342c2	0.009964647
242	0x3d9d91cb	0.076938234
243	0xbe709ef7	-0.2349814
244	0x3e6e3b67	0.23264848
245	0xbd4c4264	-0.049868003
246	0x3d51f385	0.05125763
247	0xbf018b40	-0.50603104
248	0xbdbdf943	-0.092760585
249	0xbde2c387	-0.1107245
250	0x3ead15f3	0.33805808
251	0x3f03305f	0.51245683
252	0xbde3cf91	-0.111235745
253	0xbd4bf701	-0.04979611
254	0x3e583340	0.211133
255	0x3e1f0707	0.15530024

r_cell.fc.bias f4 [24]
0	0xbe2c2099	-0.1680931
1	0xbbbbade1	-0.005727515
2	0x3d2b710b	0.041855853
3	0x3be09b82	0.0068544755
4	0xbde8b665	-0.11362914
5	0x3d36fdcd	0.044675637
6	0x3e30e3cb	0.17274396
7	0x3e03fabb	0.12888615
8	0x3db07082	0.08615209
9	0x3e319762	0.17342904
10	0xbda14d6d	-0.07876096
11	0xbdde6339	-0.10858769
12	0xbdf26ea5	-0.1183751
13	0xbdd73f62	-0.10510136
14	0xbd4c6e4e	-0.049909882
15	0x3d02ffe2	0.03198231
16	0xbea7da62	-0.327838
17	0xbe279c2c	-0.16368169
18	0x3d1a3cc9	0.037655625
19	0xbdb14c4a	-0.08657129
20	0xbd0547be	-0.03253912
21	0xbd8661b0	-0.06561601
22	0xbc33b05f	-0.010967343
23	0x3e4904ac	0.19630688

fc1.0.bias f4 [24]
0	0x3d9142f4	0.070928484
1	0xbdcf0548	-0.10108429
2	0x3dd556b4	0.10416928
3	0xbc4ff034	-0.012691546
4	0x3dbe4f25	0.09292439
5	0x3d0605e3	0.032720458
6	0x3d8e2bae	0.06941925
7	0x3d61d5c7	0.055135515
8	0xbc471c81	-0.012152792
9	0x3bd76b47	0.0065740678
10	0x3d7e0f9f	0.062026616
11	0x3d964504	0.073373824
12	0x3df52e72	0.11971749
13	0x3d705d88	0.05868295
14	0xbd6c12cd	-0.057635117
15	0x3da5aad1	0.08089221
16	0x3bb7b688	0.005606476
17	0xbcb0bd76	-0.021574717
18	0x3a5f3ee4	0.00085161463
19	0x3cf95cb2	0.030439708
20	0xbd83f829	-0.06443817
21	0xbc0558ba	-0.00813883
22	0xbc917f2f	-0.017760841
23	0xbcf85888	-0.030315652

fc1.0.weight_orig f4 [24, 24]
0	0xbc7aae13	-0.015300292
1	0xbed0b029	-0.407594
2	0x3f026161	0.5092984
3	0x3d36c81f	0.044624444
4	0x3ef139f8	0.4711454
5	0x3d69dddf	0.05709636
6	0x3e0b08be	0.13577554
7	0x3c1fbe6f	0.009749993
8	0xbd8fd134	-0.07022324
9	0x3e0992f0	0.13434958
10	0xbd0e29d6	-0.034707867
11	0x3f44b889	0.7684408
12	0x3e7e4ab2	0.24833182
13	0x3e614d50	0.22002149
14	0x3e3a227f	0.18177222
15	0xbecffd01	-0.40622714
16	0xbc9d7741	-0.019221904
17	0x3e2858ae	0.16440079
18	0xbd72459b	-0.059148412
19	0xbe4bc787	-0.19900332
20	0x3e971ffb	0.29516587
21	0xbf16d5ee	-0.5892018
22	0xbeaa2217	-0.33229133
23	0xbc793ae5	-0.015211795
24	0x3f2e4852	0.680791
25	0xbe368f43	-0.17828088
26	0x3d75c7c4	0.060004964
27	0x3e82b97b	0.25532135
28	0xbc1d7ce0	-0.009612292
29	0x3e5bc66a	0.21462408
30	0xbe173abb	-0.14768498
31	0xbd8dcf93	-0.06924357
32	0x3e7229f0	0.2364881
33	0x3d15ab82	0.036540516
34	0xbe92eb9c	-0.2869538
35	0x3e1775ab	0.1479098
36	0xbe7f2fea	-0.24920622
37	0x3d412b3b	0.04716037
38	0xbe8a068b	-0.26958117
39	0x3dbbe98c	0.09175405
40	0x3f0743bc	0.5283773
41	0xbdb7536f	-0.089514606
42	0x3d24e5d3	0.04025824
43	0xbc00e088	-0.007866032
44	0x3dd88115	0.105714954
45	0xbe41a796	-0.18911585
46	0x3ed1b210	0.40956163
47	0xbe9beb8b	-0.30453143
48	0xbf238b95	-0.6388486
49	0x3d0800e6	0.03320398
50	0xbe856956	-0.26056927
51	0xbeaeba37	-0.34126446
52	0x3d8725c9	0.06599004
53	0x3ebe2d5a	0.37143975
54	0xbeb53475	-0.35391584
55	0xbe578af6	-0.21049103
56	0xbe8c6181	-0.2741814
57	0xbcbb2850	-0.022846371
58	0x3e9bf2a0	0.30458546
59	0x3d9356f5	0.0719432
60	0x3f217c14	0.63079953
61	0x3e1dc6c8	0.1540786
62	0xbbadc9c3	-0.005303593
63	0xbeb03406	-0.3441469
64	0xbe467905	-0.19382103
65	0x3e8de97b	0.27717194
66	0xbdd29e33	-0.1028408
67	0x3ef01da4	0.46897614
68	0x3d893a1d	0.06700537
69	0x3e2124ea	0.15736738
70	0xbd97c323	-0.07410266
71	0x3e89e613	0.26933345
72	0x3f204aa1	0.62613875
73	0xbeb35cca	-0.3503173
74	0x3e2f51ef	0.17121099
75	0x3cfbb1af	0.030724375
76	0xbde6c0d6	-0.11267249
77	0x3dee5a8b	0.116383635
78	0x3dfcec65	0.12349776
79	0x3e15790e	0.1459696
80	0x3f112cd3	0.5670902
81	0xbeac26a9	-0.33623245
82	0xbe2d7263	-0.16938166
83	0xbe503cbd	-0.2033567
84	0xbecb1585	-0.39664856
85	0xbe6cd211	-0.23127009
86	0x3ef3b5e5	0.47599712
87	0x3f0c5d58	0.5482993
88	0xbdaf68cb	-0.085649095
89	0x3f06bc90	0.52631474
90	0x3ebad568	0.3649094
91	0xbdc207f8	-0.09474176
92	0x3e2cd14e	0.16876718
93	0xbe5f2cc3	-0.21794419
94	0x3e42392f	0.18967126
95	0xbe907c6f	-0.28219935
96	0x3dc215d9	0.09476823
97	0x3e89320b	0.26795992
98	0xbdcdf17d	-0.10055826
99	0x3ebcac60	0.36850262
100	0xbce5c460	-0.02804774
101	0xbe51d7c2	-0.20492461
102	0xbd16a142	-0.03677488
103	0x3ea15ed1	0.31517652
104	0xbed34bf0	-0.41268873
105	0xbeded17c	-0.435192
106	0x3dd44148	0.10364014
107	0x3e060304	0.13087088
108	0xbd68c279	-0.05682609
109	0xbe99dd0b	-0.30051455
110	0x3e7928e0	0.24331999
111	0xbf0886fc	-0.5333097
112	0xbe42d4c5	-0.19026478
113	0xbee763fa	-0.45193464
114	0xbeb317eb	-0.34979185
115	0x3e156341	0.14588644
116	0xbe90bcfd	-0.28269187
117	0xbd112f0a	-0.03544525
118	0xbeb5d4f9	-0.35514048
119	0xbe1f6a87	-0.1556798
120	0xbe79da7a	-0.24399748
121	0x3f04bd00	0.5185089
122	0xbd56540f	-0.05232626
123	0x3de6efa2	0.11276175
124	0xbe1d4f0d	-0.15362187
125	0xbf0b98ee	-0.5453023
126	0xbf19ebc6	-0.60125387
127	0x3f32e160	0.69875145
128	0xbf3e5794	-0.74352384
129	0xbdbf0af9	-0.09328265
130	0xbe3778e5	-0.17917211
131	0x3cf1f1b3	0.029534196
132	0x3d30509f	0.043045636
133	0x3e64e327	0.22352277
134	0xbe52bf69	-0.2058083
135	0x3f18dea2	0.5971471
136	0xbd379f55	-0.044829685
137	0x3e89f4dc	0.26944625
138	0x3e921047	0.28528044
139	0xbde70f31	-0.112821944
140	0xbd1fa6d4	-0.03897746
141	0x3e7fc2ec	0.249767
142	0xbea9df2a	-0.33178073
143	0xbe5ce14d	-0.2157032
144	0xbc5ffb63	-0.013670775
145	0xbe6aed1d	-0.22942014
146	0xbe3ac2a8	-0.18238318
147	0x3eee8857	0.46588394
148	0x3f06068e	0.5235375
149	0x3d1b1516	0.037861906
150	0x3ea0453b	0.3130282
151	0xbe8a23bb	-0.26980385
152	0x3d7500f9	0.05981538
153	0x3d83b27d	0.06430528
154	0xbe1edf14	-0.15514785
155	0x3e8832ed	0.26601353
156	0x3b928303	0.004471184
157	0xbd9ac4d8	-0.07557076
158	0x3f40a4fe	0.7525176
159	0xbe88faba	-0.2675379
160	0xbc91fcf6	-0.017820816
161	0x3e97e7ae	0.29668945
162	0xbeedf242	-0.4647389
163	0xbe9f0d4e	-0.31064838
164	0x3d44dad7	0.048060264
165	0xbf1c4444	-0.61041665
166	0xbee050fe	-0.43811792
167	0x3e40c92e	0.18826744
168	0x3ddf4789	0.10902316
169	0x3e37d5bd	0.17952628
170	0xbe3226d3	-0.17397623
171	0xbe5668b4	-0.20938379
172	0x3e91ae7c	0.28453434
173	0x3ee0f198	0.4393432
174	0xbdc53d42	-0.096308246
175	0xbdf0a5ab	-0.11750349
176	0xbebf3043	-0.37341508
177	0x3e5ae1c4	0.21375185
178	0x3d5941ec	0.053041384
179	0xbcd4587a	-0.025921095
180	0xbe7fce62	-0.24981073
181	0xbe41e114	-0.18933517
182	0x3b3ee8ee	0.0029130536
183	0xbe0e6997	-0.13907467
184	0x3cc8c809	0.024509447
185	0xbee05f6e	-0.43822807
186	0x3eafe9f1	0.3435817
187	0x3eb68308	0.35646844
188	0xbee93d19	-0.45554426
189	0xbed5f4cc	-0.41788328
190	0xbd989aab	-0.074513756
191	0xbe73b2c2	-0.2379866
192	0xbb9db277	-0.0048125344
193	0x3e7f1d51	0.24913527
194	0x3e7b63e5	0.24549825
195	0x3e5632e5	0.20917852
196	0xbdb1a6d7	-0.086744
197	0xbd2aca93	-0.041697096
198	0x3dd84b40	0.10561228
199	0xbc88e21c	-0.01670938
200	0xbdd4f4b9	-0.1039824
201	0xbef2eb45	-0.4744512
202	0x3d4f541b	0.05061732
203	0x3e139acf	0.14414524
204	0x3edc1df1	0.42991593
205	0xbec6820c	-0.38771093
206	0x3eb9b7dd	0.3627309
207	0xbead6c56	-0.33871716
208	0x3e60891c	0.21927303
209	0xbd0a7945	-0.033807058
210	0xbde65f26	-0.11248617
211	0x3e37bcf0	0.17943168
212	0xbd715bcc	-0.058925435
213	0xbe5ce1e8	-0.21570551
214	0xbe7b738f	-0.24555801
215	0xbe96e707	-0.29473135
216	0xbe7948d5	-0.2434419
217	0x3e019b03	0.12656789
218	0x3eab52f2	0.3346172
219	0x3e787416	0.24263033
220	0xbecb6c77	-0.3973119
221	0x3d54e926	0.05198016
222	0xbf2bcc01	-0.6710816
223	0xbd9186be	-0.07105778
224	0xbe3ca9d7	-0.18424164
225	0xbeab97d8	-0.33514285
226	0xbdad0c46	-0.084496066
227	0xbe6862a2	-0.22693875
228	0x3cfe0bc0	0.031011462
229	0x3eb3d0ed	0.35120335
230	0xbed00243	-0.40626726
231	0x3e520098	0.20508039
232	0x3be5540d	0.006998545
233	0xbe835787	-0.25652716
234	0xbe661198	-0.22467649
235	0x3e33e495	0.17567666
236	0xbda5b8fb	-0.08091923
237	0x3bdab7b3	0.0066747307
238	0x3e9c49c4	0.3052503
239	0xbd5138df	-0.051079627
240	0xbe96cb0d	-0.2945179
241	0x3df1faed	0.118154384
242	0x3deb4236	0.11487238
243	0x3e844812	0.25836235
244	0xbe778e1a	-0.24175301
245	0x3e51fbf6	0.20506272
246	0x3dd73616	0.10508363
247	0x3bfe50b5	0.007761086
248	0xbe23a5d5	-0.15981229
249	0xbdd2adf7	-0.102870874
250	0x3cb14be3	0.02164263
251	0x3d3f1879	0.0466542
252	0xbd659f0e	-0.05605989
253	0x3cac0673	0.020999169
254	0x3e8b646b	0.2722505
255	0xbe139ef3	-0.14416103

fc1.0.weight_u f4 [24]
0	0xbeaf2e84	-0.34215176
1	0xbda9c269	-0.08289034
2	0x3d74c0fd	0.05975436
3	0xbd633c56	-0.055477463
4	0x3d80e239	0.062931485
5	0x3ec9b58f	0.3939633
6	0xbe8c3a91	-0.27388433
7	0x3d93d1eb	0.07217773
8	0xbc4ae089	-0.012382635
9	0x3e1e14a4	0.15437561
10	0xbd8979d6	-0.067126915
11	0xbd1c943e	-0.038227312
12	0xbebadc48	-0.36496186
13	0xbe6b93e2	-0.23005632
14	0x3ecc8ba5	0.3995029
15	0xbe9667f0	-0.29376173
16	0x3e693dee	0.2277753
17	0xbe5fbb68	-0.21848834
18	0xbc02b80b	-0.00797845
19	0x3df49647	0.11942726
20	0x3e0cfac4	0.13767534
21	0xbda8ecdb	-0.082483016
22	0xbdfc1845	-0.123093165
23	0xbdeb3e76	-0.11486523

fc1.0.weight_v f4 [24]
0	0xbddf189e	-0.10893367
1	0x3ea99dd2	0.3312822
2	0xbe66c59a	-0.22536317
3	0xbd8f6b41	-0.07002879
4	0xbdb7b768	-0.08970529
5	0xbe15ad24	-0.14616829
6	0xbef21e5b	-0.47288784
7	0x3e4766ce	0.1947281
8	0xbe4cbdc0	-0.19994259
9	0xbdcb3d4c	-0.09923801
10	0x3d21db7b	0.039515954
11	0xbecb92bb	-0.39760384
12	0xbcc7115f	-0.024300275
13	0xbdcd689e	-0.1002972
14	0xbcf4f48b	-0.029901763
15	0x3e941755	0.2892405
16	0x3e165802	0.1468201
17	0xbd49bcd8	-0.04925236
18	0x3e4a1247	0.19733535
19	0x3e289d85	0.16466339
20	0xbe0f95f9	-0.14022054
21	0x3e905633	0.28190765
22	0xbe328b2e	-0.17435905
23	0xbdb13572	-0.08652772
