models/17_05_2021/stock_self_attn_MSE_hinge_10000_64_24_6_24_5/4500_embedder.pth (torch, 60914 bytes, 43 tensors)

position.pe f4 [1, 24, 24]
0	0x00000000	0.0
1	0x3f800000	1.0
2	0x00000000	0.0
3	0x3f800000	1.0
4	0x00000000	0.0
5	0x3f800000	1.0
6	0x00000000	0.0
7	0x3f800000	1.0
8	0x00000000	0.0
9	0x3f800000	1.0
10	0x00000000	0.0
11	0x3f800000	1.0
12	0x00000000	0.0
13	0x3f800000	1.0
14	0x00000000	0.0
15	0x3f800000	1.0
16	0x00000000	0.0
17	0x3f800000	1.0
18	0x00000000	0.0
19	0x3f800000	1.0
20	0x00000000	0.0
21	0x3f800000	1.0
22	0x00000000	0.0
23	0x3f800000	1.0
24	0x3f576aa4	0.84147096
25	0x3f0a5141	0.54030234
26	0x3ee5351d	0.44767085
27	0x3f64ea30	0.8941984
28	0x3e5ae952	0.21378067
29	0x3f7a14eb	0.9768817
30	0x3dcc7576	0.099833414
31	0x3f7eb898	0.9950042
32	0x3d3e0d1e	0.04639923
33	0x3f7fb96a	0.99892294
34	0x3cb07a47	0.021542681
35	0x3f7ff0ca	0.9997679
36	0x3c23d657	0.009999833
37	0x3f7ffcb9	0.99995
38	0x3b981857	0.0046415734
39	0x3f7fff4b	0.9999892
40	0x3b0d3164	0.0021544332
41	0x3f7fffd9	0.9999977
42	0x3a83126d	0.0009999998
43	0x3f7ffff8	0.9999995
44	0x39f35a5c	0.00046415895
45	0x3f7ffffe	0.9999999
46	0x3961e8ab	0.00021544348
47	0x3f800000	1.0
48	0x3f68c7b7	0.9092974
49	0xbed51133	-0.41614684
50	0x3f4cf4fb	0.8006131
51	0x3f1963f8	0.59918165
52	0x3ed5d9be	0.41767687
53	0x3f6899b9	0.9085956
54	0x3e4b6ff8	0.19866931
55	0x3f7ae5a5	0.9800666
56	0x3dbdd8b7	0.09269851
57	0x3f7ee5d1	0.9956942
58	0x3d306fcb	0.043075364
59	0x3f7fc32c	0.99907184
60	0x3ca3d43e	0.019998666
61	0x3f7ff2e5	0.9998
62	0x3c1817ec	0.009283047
63	0x3f7ffd2d	0.9999569
64	0x3b8d314e	0.004308856
65	0x3f7fff64	0.9999907
66	0x3b031268	0.0019999985
67	0x3f7fffdf	0.99999803
68	0x3a735a5b	0.00092831784
69	0x3f7ffff9	0.9999996
70	0x39e1e8ab	0.00043088695
71	0x3f7fffff	0.99999994
72	0x3e1081c3	0.14112
73	0xbf7d7026	-0.9899925
74	0x3f7bf0ce	0.98414314
75	0x3e35a216	0.17737612
76	0x3f1a2dc8	0.60226107
77	0x3f4c5d56	0.7982992
78	0x3e974e6c	0.2955202
79	0x3f7490ef	0.9553365
80	0x3e0e2117	0.1387981
81	0x3f7d85a8	0.9903207
82	0x3d8446bd	0.06458805
83	0x3f7f7729	0.997912
84	0x3cf5b91f	0.0299955
85	0x3f7fe283	0.99955004
86	0x3c6422d5	0.01392432
87	0x3f7ff9a6	0.9999031
88	0x3bd3c9bf	0.006463259
89	0x3f7ffea2	0.99997914
90	0x3b449b92	0.0029999954
91	0x3f7fffb5	0.9999955
92	0x3ab683c2	0.0013924765
93	0x3f7ffff0	0.99999905
94	0x3a296e7f	0.00064633036
95	0x3f7ffffd	0.9999998
96	0xbf41bdcf	-0.7568025
97	0xbf275530	-0.6536436
98	0x3f759ce7	0.9594254
99	0xbe905d6c	-0.28196275
100	0x3f424dbe	0.75899875
101	0x3f26adf9	0.6510921
102	0x3ec761d7	0.38941833
103	0x3f6bcaa7	0.921061
104	0x3e3d0773	0.18459873
105	0x3f7b99b2	0.98281395
106	0x3db045df	0.08607077
107	0x3f7f0ccc	0.996289
108	0x3d23cbdb	0.039989334
109	0x3f7fcb94	0.9992001
110	0x3c98163e	0.018565293
111	0x3f7ff4b4	0.9998276
112	0x3c0d30f8	0.008617632
113	0x3f7ffd91	0.99996287
114	0x3b831257	0.003999989
115	0x3f7fff7a	0.999992
116	0x3af35a54	0.0018566349
117	0x3f7fffe3	0.9999983
118	0x3a61e8a9	0.0008617738
119	0x3f7ffffa	0.99999964
120	0xbf757c10	-0.9589243
121	0x3e913c2c	0.2836622
122	0x3f3b500a	0.73169005
123	0xbf2e7fcb	-0.68163747
124	0x3f6171cf	0.88064283
125	0x3ef29363	0.47378072
126	0x3ef57743	0.47942552
127	0x3f60a940	0.87758255
128	0x3e6b8593	0.23000173
129	0x3f7922ff	0.97319025
130	0x3ddc300e	0.10751353
131	0x3f7e8421	0.9942036
132	0x3d4cb6f4	0.049979165
133	0x3f7fae19	0.99875027
134	0x3cbe1a3c	0.023205869
135	0x3f7fee5a	0.9997307
136	0x3c307ce6	0.010771966
137	0x3f7ffc33	0.999942
138	0x3ba3d6dd	0.004999979
139	0x3f7fff2e	0.9999875
140	0x3b181871	0.0023207928
141	0x3f7fffd3	0.9999973
142	0x3a8d3169	0.0010772172
143	0x3f7ffff6	0.9999994
144	0xbe8f0f8c	-0.2794155
145	0x3f75cdb8	0.96017027
146	0x3eb2c0c6	0.349127
147	0xbf6fe42d	-0.93707544
148	0x3f762963	0.961569
149	0x3e8c938f	0.27456328
150	0x3f108c68	0.5646424
151	0x3f534932	0.8253356
152	0x3e8cc0e9	0.2749093
153	0x3f7622e9	0.9614702
154	0x3e040009	0.12890638
155	0x3f7ddd38	0.9916568
156	0x3d759cd1	0.059964005
157	0x3f7f8a12	0.99820054
158	0x3ce41d2b	0.02784594
159	0x3f7fe696	0.9996122
160	0x3c53c89d	0.012926248
161	0x3f7ffa86	0.99991643
162	0x3bc49b58	0.0059999637
163	0x3f7ffed2	0.999982
164	0x3b3683b7	0.0027849504
165	0x3f7fffbf	0.9999961
166	0x3aa96e7d	0.0012926605
167	0x3f7ffff2	0.99999917
168	0x3f283046	0.6569866
169	0x3f40ffbd	0.75390226
170	0xbddbc69f	-0.10731243
171	0xbf7e858d	-0.9942253
172	0x3f7f7f41	0.9980355
173	0x3d804f23	0.06265094
174	0x3f24eb72	0.6442176
175	0x3f43ccb3	0.7648422
176	0x3ea3716a	0.31922466
177	0x3f729b18	0.94767904
178	0x3e19d85d	0.15023942
179	0x3f7d1825	0.98864967
180	0x3d8f3e32	0.06994285
181	0x3f7f5f81	0.997551
182	0x3d050f6e	0.032485418
183	0x3f7fdd69	0.9994722
184	0x3c771415	0.0150804715
185	0x3f7ff88c	0.9998863
186	0x3be55fc5	0.006999942
187	0x3f7ffe65	0.9999755
188	0x3b54eef8	0.003249107
189	0x3f7fffa8	0.99999475
190	0x3ac5ab91	0.0015081038
191	0x3f7fffed	0.99999887
192	0x3f7d4695	0.98935825
193	0xbe14fdf6	-0.14550003
194	0xbf0a81e3	-0.5410444
195	0xbf574b62	-0.840994
196	0x3f7d04e9	0.9883562
197	0xbe1bcf59	-0.15215816
198	0x3f37a4a5	0.717356
199	0x3f325b5f	0.6967067
200	0x3eb9c7cb	0.36285242
201	0x3f6e8d80	0.9318466
202	0x3e2f9e69	0.17150272
203	0x3f7c34ff	0.98518366
204	0x3da3aa50	0.07991469
205	0x3f7f2e65	0.9968017
206	0x3d180f89	0.03712419
207	0x3f7fd2d3	0.9993107
208	0x3c8d2fa1	0.017234625
209	0x3f7ff644	0.99985147
210	0x3c031212	0.007999914
211	0x3f7ffde7	0.999968
212	0x3b735a38	0.0037132632
213	0x3f7fff8c	0.9999931
214	0x3ae1e8a4	0.001723547
215	0x3f7fffe7	0.9999985
216	0x3ed30132	0.4121185
217	0xbf693fd5	-0.91113025
218	0xbf5c3bf1	-0.86028963
219	0xbf02829f	-0.5098056
220	0x3f6ed7af	0.9329786
221	0xbeb84901	-0.35993198
222	0x3f48881c	0.78332686
223	0x3f1f21d5	0.62161
224	0x3ecfb7ba	0.4056986
225	0x3f69fc5c	0.91400695
226	0x3e454f97	0.19268642
227	0x3f7b33e1	0.98126036
228	0x3db8123e	0.089878544
229	0x3f7ef6c2	0.9959527
230	0x3d2b0ecd	0.041762162
231	0x3f7fc6d3	0.99912757
232	0x3c9ed50c	0.019388698
233	0x3f7ff3ae	0.999812
234	0x3c13743a	0.008999879
235	0x3f7ffd59	0.9999595
236	0x3b88e2ba	0.0041774185
237	0x3f7fff6e	0.9999913
238	0x3afe25b6	0.0019389901
239	0x3f7fffe1	0.99999815
240	0xbf0b44f8	-0.5440211
241	0xbf56cd64	-0.8390715
242	0xbf7f5bd1	-0.99749476
243	0xbd90e07e	-0.070740685
244	0x3f559f61	0.8344632
245	0xbf0d1282	-0.55106366
246	0x3f576aa4	0.84147096
247	0x3f0a5141	0.54030234
248	0x3ee5351e	0.44767088
249	0x3f64ea30	0.8941984
250	0x3e5ae953	0.21378069
251	0x3f7a14eb	0.9768817
252	0x3dcc7576	0.099833414
253	0x3f7eb898	0.9950042
254	0x3d3e0d21	0.04639924
255	0x3f7fb96a	0.99892294

r_cell.w_qs.weight f4 [24, 24]
0	0x3e53e36e	0.20692226
1	0x3dbfc3ae	0.09363495
2	0xbe897755	-0.26848856
3	0xbbc60a60	-0.0060437173
4	0x3e1db616	0.15401492
5	0xbef5a86a	-0.47980052
6	0x3f75df42	0.9604379
7	0xbe80c08c	-0.25146902
8	0xbdd3f981	-0.103503235
9	0x3ef56081	0.4792519
10	0x3ddf4d29	0.10903389
11	0x3ebac1c6	0.36475962
12	0x3e99dd59	0.30051687
13	0x3f09ca4a	0.53824294
14	0x3f1ada73	0.6048958
15	0xbf01a14a	-0.5063673
16	0x3db38c29	0.08766968
17	0x3e4b8326	0.19874248
18	0xbe10365e	-0.1408324
19	0x3e92cb57	0.2867076
20	0xbdf5bd4f	-0.119989984
21	0x3cce9807	0.025218977
22	0xbdda00a0	-0.106446505
23	0x3d983f5d	0.074339606
24	0x3e95ed10	0.29282427
25	0x3e37058e	0.17873213
26	0xbf3fbfa2	-0.74901783
27	0x3eb44c7a	0.35214597
28	0xbe3b59f3	-0.18296032
29	0xbf4f7242	-0.8103372
30	0xbf40a05d	-0.75244695
31	0xbda4c1cf	-0.080447786
32	0x3f43f39e	0.76543605
33	0x3e685b0d	0.22690983
34	0x3dd7d15c	0.10537979
35	0xbdd96aa7	-0.106160454
36	0xbf090394	-0.53521085
37	0xbcaf07bd	-0.021365995
38	0x3eaac33b	0.33352074
39	0x3e466770	0.19375396
40	0xbeffeeff	-0.49987027
41	0x3dc9f572	0.09861268
42	0xbf09fc08	-0.53900194
43	0x3e6b5024	0.2297979
44	0x3dbbe7c0	0.09175062
45	0x3ebeeb55	0.3728892
46	0x3ceebc41	0.0291425
47	0x3ec36845	0.3816549
48	0x3e2337d3	0.15939264
49	0xbe22628a	-0.15857902
50	0x3e62dbd0	0.22154164
51	0xbcaea6af	-0.021319715
52	0xbd578e1a	-0.052625753
53	0x3d3a31c4	0.045457616
54	0x3f5a8139	0.8535343
55	0x3e485c50	0.19566464
56	0x3ebe9372	0.37221867
57	0xbe5bf2ed	-0.21479388
58	0xbf0e023e	-0.5547217
59	0x3e74b91c	0.23898739
60	0xbed081d8	-0.40724063
61	0x3e3cc0fc	0.18432993
62	0x3d43574e	0.047690682
63	0xbf14c56e	-0.58113754
64	0x3eec4ce3	0.4615241
65	0xbeffb7fa	-0.4994505
66	0x3dccaf6b	0.09994396
67	0x3e122aeb	0.14274184
68	0xbf2a3721	-0.6649037
69	0xbe60d8c0	-0.21957684
70	0xbecbb1fc	-0.3978423
71	0xbbaf871e	-0.0053566834
72	0xbe6a356e	-0.22871944
73	0x3f19249f	0.59821504
74	0xbe809773	-0.25115547
75	0xbe2b4c34	-0.16728288
76	0xbe513a27	-0.2043234
77	0xbf1083e6	-0.5645126
78	0xbebde543	-0.37088975
79	0xbc6df48f	-0.014523639
80	0x3e8b242b	0.2717603
81	0xbf4a8270	-0.7910528
82	0x3e052a23	0.13004355
83	0xbcb83f71	-0.022491189
84	0xbd23209b	-0.039826017
85	0xbe4aa100	-0.19787979
86	0xbe39b221	-0.18134357
87	0xbe227f83	-0.15868954
88	0xbdfdbb0a	-0.123891905
89	0xbe97eb00	-0.29671478
90	0xbe3238c2	-0.17404464
91	0xbe8f43e6	-0.2798149
92	0xbe7e24de	-0.24818751
93	0xbe9665bd	-0.29374495
94	0x3ea8ae7d	0.32945624
95	0x3e29ec6f	0.16594099
96	0xbd7f600b	-0.062347453
97	0x3ed2c19d	0.4116334
98	0x3e07bcdc	0.13255638
99	0xbf5110dc	-0.8166635
100	0x3db09b6f	0.086233966
101	0x3f006043	0.50146884
102	0x3f03d293	0.51493186
103	0x3ea9657c	0.3308524
104	0xbd65a295	-0.056063253
105	0x3ee64581	0.44974902
106	0xbdaee757	-0.08540218
107	0xbe9b3fcc	-0.3032211
108	0xbe18c18d	-0.14917584
109	0x3e0e5aae	0.13901779
110	0x3f84fe93	1.039019
111	0x3adbdcea	0.0016774212
112	0xbe875f65	-0.26439968
113	0x3eb6dc67	0.3571503
114	0x3eb1d043	0.34729204
115	0xbd1a7f08	-0.037718803
116	0x3e8122c4	0.25221837
117	0x3e6a9c46	0.22911176
118	0xbec22ced	-0.379249
119	0xbdd5ebe5	-0.10445384
120	0x3f338b98	0.7013488
121	0xbf1107ee	-0.56652725
122	0x3efe78e8	0.4970162
123	0xbeb27c3e	-0.34860414
124	0xbebbe5d0	-0.3669877
125	0xbf0f965a	-0.56088793
126	0x3e70b4e9	0.23506512
127	0x3eb516b6	0.3536889
128	0x3dd84eb5	0.10561887
129	0xbf07ad08	-0.529984
130	0xbf33e12d	-0.70265466
131	0x3cb32e65	0.021872709
132	0xbe58949e	-0.21150443
133	0x3f0230dc	0.50855803
134	0xbf188a84	-0.5958636
135	0x3f2cef8b	0.67553014
136	0x3f02502d	0.5090359
137	0xbec8aa99	-0.39192656
138	0xbf87e4e5	-1.0616728
139	0x3f4b35a6	0.79378736
140	0xbef20477	-0.4726903
141	0xbe44d67b	-0.19222443
142	0x3d9f14c3	0.07767632
143	0xbf04719a	-0.5173584
144	0x3e814cfb	0.25254044
145	0xbe05e8aa	-0.13077036
146	0xbdb132d2	-0.08652271
147	0x3e2b9b36	0.16758427
148	0xbe9f15c6	-0.310713
149	0xbea198e5	-0.31561962
150	0xbf08d57a	-0.5345074
151	0xbf4a7792	-0.790887
152	0x3f062ce1	0.5241223
153	0x3f192caa	0.59833777
154	0x3ec8b1d6	0.39198178
155	0x3ed54266	0.4165222
156	0xbf2c52dd	-0.6731394
157	0x3ee09657	0.438647
158	0xbe4b083f	-0.19827364
159	0xbe748ffc	-0.2388305
160	0x3ed8de3b	0.42357048
161	0xbe892608	-0.26786828
162	0x3e761652	0.24031952
163	0xbe0b807c	-0.13623232
164	0x3f2850e1	0.6574841
165	0x3f50c2e5	0.81547385
166	0x3e234891	0.1594565
167	0xbe1d0534	-0.15334016
168	0xbe4981ab	-0.1967837
169	0xbe2c56f5	-0.16830046
170	0xbd0bda23	-0.03414358
171	0xbf7ec792	-0.9952327
172	0x3d97a854	0.07405153
173	0xbeb2929a	-0.34877473
174	0xbd3e9716	-0.046530806
175	0x3ef27631	0.47355798
176	0xbeed487d	-0.46344367
177	0xbe4dad52	-0.20085648
178	0x3d916607	0.07099538
179	0x3e88e309	0.26735714
180	0xbdc2a71c	-0.0950453
181	0xbf2191d6	-0.63113153
182	0x3efb9b13	0.4914175
183	0x3e8ef3e8	0.2792046
184	0x3f0c3b5e	0.5477809
185	0xbd436074	-0.047699407
186	0x3f048faa	0.51781714
187	0x3eaa8e74	0.33311808
188	0xbe848dfa	-0.2588957
189	0x3e02553e	0.1272783
190	0x3f0b05c8	0.54305696
191	0xbe3baaab	-0.18326823
192	0xbd49a7e1	-0.049232367
193	0x3ef034a7	0.4691517
194	0xbd8aac94	-0.06771198
195	0x3f0c6993	0.54848593
196	0x3d52e2ad	0.051485706
197	0x3f11a396	0.5689024
198	0xbd6ab3cc	-0.057300374
199	0xbefe6289	-0.4968455
200	0x3e8dfd2a	0.2773221
201	0xbec287c9	-0.3799422
202	0x3ebf9177	0.37415668
203	0x3d9ed7ec	0.077560276
204	0xbdc91da5	-0.09820107
205	0x3d872d56	0.06600444
206	0x3e80826c	0.25099504
207	0xbd085a2e	-0.033289127
208	0xbe11abc4	-0.1422568
209	0xba939ca1	-0.0011261889
210	0xbf350d12	-0.7072307
211	0xbd310b60	-0.04322374
212	0xbe1c54fe	-0.15266797
213	0x3db1d993	0.08684077
214	0x3eaf813e	0.3427829
215	0xbde02b2c	-0.109457344
216	0xbdd7df95	-0.10540692
217	0xbecf72e7	-0.4051735
218	0x3ec3dc65	0.38254085
219	0xbe2a7041	-0.16644384
220	0x3f06edfc	0.52706885
221	0x3e93edec	0.28892457
222	0xbefe053d	-0.49613371
223	0xbd1f4bdb	-0.0388907
224	0x3e80afaf	0.25134036
225	0x3e2bd520	0.1678052
226	0xbe30860a	-0.17238632
227	0x3e9d480e	0.30719036
228	0xbdc93da5	-0.09826211
229	0xbe1a1516	-0.15047106
230	0xbe82619c	-0.25465095
231	0x3d6c02e0	0.05761993
232	0xbf790d0a	-0.9728552
233	0xbde43aa6	-0.11143999
234	0xbe172023	-0.14758353
235	0x3e8d9291	0.27650884
236	0x3f42e235	0.76126415
237	0xbe818978	-0.25300193
238	0xbe92e6ee	-0.2869181
239	0xbda2f978	-0.07957739
240	0xbe663184	-0.22479826
241	0x3eb850c1	0.3599911
242	0xbeb85ee8	-0.36009908
243	0x3e4d76c9	0.20064844
244	0xbe342fdd	-0.17596383
245	0xbd38b86c	-0.045097753
246	0xbf1bc563	-0.60848063
247	0x3d177d0b	0.036984485
248	0x3ea11457	0.3146083
249	0x3ebdc8cf	0.37067267
250	0xbe39f98c	-0.18161601
251	0x3cf7a5f2	0.030230496
252	0xbe33c6f5	-0.17556365
253	0xbea23582	-0.31681448
254	0xbca759ee	-0.020428624
255	0xbe84ebc6	-0.2596113

r_cell.w_qs.bias f4 [24]
0	0x3df568c7	0.11982875
1	0xbce67a4d	-0.02813449
2	0xbeaf381b	-0.34222493
3	0xbe219ba3	-0.15782027
4	0x3e6876c9	0.22701563
5	0xbeca07fc	-0.39459217
6	0xbee87dbf	-0.45408437
7	0xbdfd7087	-0.123749785
8	0xbc2584b5	-0.010102441
9	0xbd934a21	-0.07191873
10	0xbd4d058e	-0.050054125
11	0xbe8e0063	-0.2773467
12	0x3e044bf9	0.12919606
13	0x3e23ee89	0.16008963
14	0xbe9e586c	-0.30926836
15	0xbe302736	-0.17202458
16	0xbcbcf39c	-0.02306538
17	0x3cc70a5d	0.024296934
18	0xbe04fd53	-0.1298726
19	0xbeb03e47	-0.34422514
20	0x3d947b61	0.07250095
21	0x3eb127da	0.34600717
22	0xbe4f13ae	-0.20222351
23	0x3f2340c9	0.6377073

r_cell.w_ks.weight f4 [24, 24]
0	0x3e816ba3	0.25277433
1	0x3eac7efc	0.3369063
2	0x3e57f23b	0.21088497
3	0x3f476305	0.77885467
4	0x3eee10af	0.46497104
5	0xbe438e59	-0.1909727
6	0xbe25152e	-0.1612136
7	0x3ebafdcf	0.36521766
8	0xbf2973fa	-0.6619259
9	0x3f0a5b62	0.5404569
10	0x3ed1a0bd	0.40942946
11	0xbd7e5904	-0.06209661
12	0xbf2357db	-0.6380593
13	0x3e87c207	0.2651522
14	0xbed366df	-0.41289422
15	0xbdb50c53	-0.08840241
16	0x3e090740	0.13381672
17	0xbd71d1a6	-0.059037827
18	0xbee8b668	-0.45451665
19	0xbead35aa	-0.33830005
20	0x3d12c0c9	0.035828386
21	0x3e5d8852	0.21634033
22	0xbf1f067c	-0.6211927
23	0x3de1bbba	0.11022134
24	0xbe898fc9	-0.26867512
25	0xbe44d4fc	-0.19221872
26	0xbeb041a5	-0.34425083
27	0x3e889039	0.26672533
28	0x3e291ef8	0.1651572
29	0xbec99edc	-0.39379013
30	0xbf60f8c2	-0.87879574
31	0x3ed56cb7	0.41684505
32	0xbbbbdc58	-0.005733054
33	0x3e61471a	0.2199978
34	0xbeefa020	-0.46801853
35	0x3e49ed18	0.1971935
36	0xbf0441d5	-0.5166295
37	0xbe3192bf	-0.17341135
38	0x3d2a909a	0.04164181
39	0xbeb9b8bb	-0.3627375
40	0xbf323a07	-0.6961979
41	0xbeddd25c	-0.43324554
42	0x3e7f02d7	0.24903427
43	0x3da60f24	0.081083566
44	0x3e820e48	0.2540152
45	0x3e244f69	0.16045918
46	0xbd77b367	-0.060473826
47	0x3e801f89	0.2502406
48	0x3d94901e	0.07254051
49	0x3e994a1d	0.29939356
50	0xbde8f600	-0.11375046
51	0x3f162c2a	0.5866114
52	0x3be27f22	0.006912128
53	0x3e12731e	0.14301726
54	0x3dd6ef06	0.10494809
55	0xbe11c920	-0.1423688
56	0x3dcb63d0	0.09931147
57	0xbe5a284e	-0.21304438
58	0x3e8504c5	0.259802
59	0xbf0ad0fb	-0.5422513
60	0x3e690309	0.22755064
61	0x3f34930f	0.70536894
62	0x3f305581	0.6888047
63	0x3d054af6	0.03254219
64	0xbd8eb8f6	-0.06968872
65	0x3ee19778	0.44060874
66	0x3e8fd64d	0.28093186
67	0x3db501b8	0.088382185
68	0x3c361969	0.011114457
69	0x3dccc963	0.09999349
70	0x3f585add	0.84513646
71	0x3e9f92a8	0.31166577
72	0xbef93b14	-0.48677886
73	0x3e600118	0.21875417
74	0x3e178a9f	0.14798974
75	0x3e47cd41	0.19511892
76	0x3eeb0704	0.4590379
77	0xbc6ef6f6	-0.014585247
78	0x3f1a009b	0.60157174
79	0x3e0930ae	0.13397476
80	0x3f5a163e	0.8519019
81	0xbe855b45	-0.26046196
82	0xbdab2d69	-0.08358271
83	0x3e1ddb34	0.1541565
84	0x3b9acb72	0.0047239596
85	0xbf4cb905	-0.7996982
86	0x3dfedbcc	0.12444267
87	0x3d72e984	0.05930473
88	0xbf2cc901	-0.6749421
89	0xbe99531c	-0.2994622
90	0xbe92be9a	-0.28661042
91	0xbdbc74d3	-0.0920197
92	0xbf180331	-0.5937987
93	0xbea5fbd4	-0.32418692
94	0x3f175134	0.5910828
95	0x3e98343f	0.2972736
96	0x3ececb28	0.4038937
97	0x3c817f16	0.01580767
98	0xbe8685cc	-0.26273954
99	0xbe64b8f1	-0.22336175
100	0xbf0aff97	-0.5429625
101	0x3ed1d5c1	0.40983394
102	0xbe55ea89	-0.2089025
103	0x3edcab33	0.43099365
104	0xbf1284f8	-0.57234144
105	0x3d7f62a6	0.062349938
106	0xbe562c68	-0.20915377
107	0xbef90aca	-0.48641044
108	0xbe9eb485	-0.309971
109	0xbc1be786	-0.009515649
110	0x3dc19539	0.0945229
111	0x3ea1e2b0	0.3161826
112	0xbf5d3deb	-0.86422604
113	0x3d50450c	0.0508471
114	0x3e9e4504	0.3091203
115	0xbda00bdf	-0.07814764
116	0x3e576c21	0.21037342
117	0x3ede7232	0.434465
118	0xbd973a33	-0.073841475
119	0xbea9b60c	-0.33146703
120	0xbe409f7b	-0.18810837
121	0x3e638f3c	0.22222608
122	0x3dcf04a5	0.10108308
123	0x3e7e39bf	0.24826716
124	0xbdd57f27	-0.10424643
125	0x3d7cb73d	0.061698187
126	0x3ecd46bd	0.40093032
127	0x3e2510d9	0.16119708
128	0x3ebcd2e8	0.3687966
129	0x3d7a2720	0.06107247
130	0x3f23b075	0.6394113
131	0x3d2db51a	0.04240904
132	0x3f39929f	0.7248935
133	0x3e53560e	0.20638296
134	0x3f9c5832	1.2214415
135	0xbf27613a	-0.6538273
136	0xbd983c33	-0.07433357
137	0xbe512b07	-0.2042657
138	0xbf73a9ff	-0.9518127
139	0x3f3fd716	0.7493757
140	0x3d896c76	0.067101404
141	0xbd41355f	-0.04717004
142	0x3f15679a	0.5836121
143	0x3d446ddd	0.047956336
144	0xbef809bb	-0.48444924
145	0xbea455c3	-0.3209668
146	0xbd890831	-0.066910155
147	0x3e139474	0.14412099
148	0x3f01113e	0.50416934
149	0xbf4823f6	-0.7817987
150	0xbd4522e9	-0.048128996
151	0xbf44b48f	-0.7683801
152	0x3caa4ead	0.020789469
153	0x3ee2a878	0.44269156
154	0xbe0bbb1e	-0.13645598
155	0x3f839153	1.0278724
156	0x3ef355bb	0.47526345
157	0x3f8dcea3	1.1078686
158	0xbe5cb9a4	-0.21555191
159	0xbe490123	-0.1962934
160	0x3db056b6	0.08610289
161	0xbc3a1e97	-0.011359832
162	0xbe84768d	-0.25871697
163	0xbe4410d4	-0.19147044
164	0xbeda9fe3	-0.4270011
165	0xbebd6bed	-0.36996403
166	0xbf02f648	-0.51157045
167	0x3f0053d9	0.5012794
168	0x3d5a1802	0.053245552
169	0xbdaad3d0	-0.08341181
170	0xbf2fc205	-0.68655425
171	0xbe710325	-0.23536356
172	0x3d7774dd	0.060414184
173	0x3efa4246	0.48878688
174	0xbeb41cc5	-0.351782
175	0x3f7f720d	0.997834
176	0x3d9dde99	0.07708473
177	0x3e147b9a	0.14500275
178	0xbda2d68e	-0.07951079
179	0x3f00ad68	0.50264597
180	0x3e180a82	0.14847758
181	0x3e41693f	0.18887804
182	0x3e83c388	0.25735116
183	0x3edff8d6	0.43744534
184	0x3dc7956d	0.097452976
185	0x3ee3f8dc	0.44525802
186	0xbeb1a9dc	-0.34699905
187	0x3e8fc12f	0.28077075
188	0x3d2ff880	0.042961597
189	0xbd37a85a	-0.044838287
190	0xbdff7089	-0.12472636
191	0xbf281035	-0.6564973
192	0xbe84c1fe	-0.25929254
193	0x3e797ec1	0.24364759
194	0x3f2cfe66	0.6757568
195	0x3cdda18a	0.027054567
196	0x3e06d242	0.13166144
197	0xbe916175	-0.28394666
198	0x3ed25cdc	0.4108647
199	0xbf1b6781	-0.6070481
200	0x3f07e25c	0.5307977
201	0xbe63d7d9	-0.22250308
202	0xbe17022c	-0.14746922
203	0xbf146cd2	-0.57978547
204	0xbe9e1024	-0.3087169
205	0x3d0dfe65	0.034666438
206	0xbe0a4044	-0.13501078
207	0xbeb285bd	-0.3486766
208	0xbeda23f6	-0.4260556
209	0xbf005145	-0.5012401
210	0xbf247797	-0.6424498
211	0xbdce458b	-0.10071858
212	0x3e8af99c	0.27143562
213	0xbe9bbcb6	-0.30417413
214	0xbe86b2ca	-0.2630828
215	0x3f3589c0	0.70913315
216	0x3e369332	0.17829588
217	0xbde44f7b	-0.11147972
218	0xbdfff0d9	-0.1249711
219	0xbc9414da	-0.018076349
220	0x3f297aaf	0.66202825
221	0x3df9bbe1	0.12194038
222	0xbeb8f9c8	-0.36128068
223	0x3e3f5e05	0.1868821
224	0xbf0b2f23	-0.543688
225	0x3f1262d2	0.5718204
226	0xbd3c912d	-0.046036888
227	0xbe77dbe1	-0.24204971
228	0x3ea7c38f	0.32766387
229	0xbf0e1aca	-0.55509627
230	0x3f38178a	0.7191092
231	0x3e8ccee5	0.27501598
232	0xbf1915c1	-0.5979882
233	0x3e4fa8af	0.20279191
234	0x3e3c303f	0.1837778
235	0xbec8fafd	-0.3925399
236	0xbdc01f67	-0.093809895
237	0xbec7817c	-0.38965976
238	0xbee999ca	-0.45625144
239	0x3eac07c7	0.33599684
240	0x3df4a841	0.119461544
241	0x3f3aa30e	0.7290505
242	0x3eb2a791	0.34893468
243	0xbea313ed	-0.3185114
244	0xbec08eff	-0.37609097
245	0xbf177864	-0.59168077
246	0xbf253d0c	-0.64546275
247	0xbdefbb07	-0.117055945
248	0x3e9c9725	0.30584064
249	0x3df0e59a	0.11762543
250	0xbe321330	-0.17390132
251	0x3e1778c4	0.14792162
252	0x3f036a75	0.51334316
253	0xbe8a7147	-0.2703955
254	0x3da0d88c	0.07853803
255	0x3eeb530c	0.45961797

r_cell.w_ks.bias f4 [24]
0	0xbe884a3c	-0.26619136
1	0xbe7c1eba	-0.24621096
2	0xbe1e009e	-0.15429923
3	0x3d45fddb	0.0483378
4	0x3e613cd2	0.21995857
5	0x3de48dad	0.11159835
6	0x3d818382	0.06323911
7	0xbdd64be1	-0.104636915
8	0xbded2e4d	-0.11581097
9	0x3d1e4f88	0.038650066
10	0x3e7291fc	0.23688501
11	0x3e25462b	0.16140048
12	0x3d4a0a04	0.049325958
13	0xbdb5c221	-0.08874918
14	0x3d481d80	0.04885626
15	0x3d211b34	0.039332584
16	0xbd87068e	-0.06593047
17	0xbcbcd5f9	-0.023051249
18	0x3dff961c	0.12479803
19	0xbe24b92f	-0.16086267
20	0xbd478cdd	-0.048718322
21	0xbd693e3b	-0.056944113
22	0xbdc7126b	-0.0972031
23	0xbe4a2b1e	-0.1974301

r_cell.w_vs.weight f4 [24, 24]
0	0xbf02474a	-0.5089003
1	0xbe6ec1a0	-0.2331605
2	0x3d748e1b	0.059705835
3	0x3e39820b	0.18116014
4	0xbd32147f	-0.043476578
5	0xbee17427	-0.4403393
6	0xbe5fc33d	-0.21851821
7	0x3ebdf7cd	0.3710312
8	0x3dfd23d4	0.12360349
9	0x3e1d70d5	0.15375073
10	0x3de4cd94	0.111720234
11	0xbe3bf73d	-0.18356033
12	0x3e3e5212	0.18585995
13	0x3eaa3be4	0.33248818
14	0xbd3d7199	-0.046250913
15	0x3e8b613e	0.27222627
16	0x3ec761ab	0.38941702
17	0x3e0fa835	0.1402901
18	0x3dbc6cce	0.0920044
19	0x3e2b34e8	0.16719401
20	0x3e995a39	0.29951647
21	0x3e56a8da	0.2096285
22	0xbe3fbb41	-0.18723775
23	0x3e744205	0.2385331
24	0xbd98e320	-0.07465196
25	0x3c0a141d	0.008427647
26	0xbd1631dd	-0.036668647
27	0x3d8fb934	0.070177466
28	0x3ee2ce6b	0.4429811
29	0xbeb63def	-0.35594127
30	0xbd7dbbf3	-0.06194682
31	0x3e315347	0.17316924
32	0x3c4f3825	0.012647663
33	0x3efa089d	0.48834696
34	0xbe589e40	-0.21154118
35	0x3db400fb	0.087892495
36	0xbe399593	-0.18123464
37	0xbc7a5ed4	-0.015281398
38	0xbd37cb72	-0.044871755
39	0x3cd527db	0.026019981
40	0x3ec0d65e	0.3766355
41	0x3d87ee9d	0.06637309
42	0x3ee898b5	0.45429006
43	0x3e8a67f1	0.27032426
44	0x3ea058c3	0.3131772
45	0x3eb34982	0.3501702
46	0xbe2972cb	-0.16547696
47	0xbe815582	-0.2526055
48	0xbe7299ac	-0.23691434
49	0x3c826415	0.015916863
50	0x3eb8e265	0.36110225
51	0xbd0b225a	-0.033968307
52	0xbcc96026	-0.02458198
53	0x3cd7b54b	0.026331564
54	0xbe99d40a	-0.30044585
55	0x3e251656	0.16121802
56	0x3daf9d2f	0.08574902
57	0xbe2717fd	-0.16317745
58	0x3e0c0cac	0.13676709
59	0xbd48fcb8	-0.049069136
60	0xbb4fe48a	-0.0031721913
61	0x3e944ea2	0.28966242
62	0xbdfee443	-0.12445881
63	0x3d7ec156	0.0621961
64	0xbe011e8e	-0.12609312
65	0x3e0d4b6a	0.137983
66	0x3e94a743	0.2903386
67	0x3e058b01	0.13041307
68	0xbe3fc29b	-0.1872658
69	0xbe5ddec8	-0.21667016
70	0x3c51c635	0.012803604
71	0xbe3d4bca	-0.18485942
72	0xbd534cb8	-0.051586837
73	0x3deebd29	0.11657173
74	0x3ddfb933	0.10923996
75	0xbebe0c0e	-0.37118572
76	0x3e3defcf	0.18548511
77	0xbee1d551	-0.4410806
78	0x3d70a055	0.058746655
79	0x3cd4fba9	0.025998907
80	0x3dcd73b9	0.10031838
81	0xbdd11720	-0.10209489
82	0x3e41e468	0.18934786
83	0x3dd96062	0.10614087
84	0x3e19386b	0.14962928
85	0xbc9428f9	-0.018085944
86	0x3f341ee9	0.70359665
87	0xbe699b77	-0.22813211
88	0x3db6424d	0.088993646
89	0x3e1dc2eb	0.15406387
90	0xbed730b6	-0.4202935
91	0x3e7d3e5b	0.24730818
92	0xbeb39a47	-0.35078642
93	0x3e1f9caf	0.15587114
94	0xbdb922a7	-0.090398125
95	0xbe6b8c96	-0.23002848
96	0xbdb1f786	-0.086897895
97	0xbd848fc8	-0.064727366
98	0x3d725564	0.059163466
99	0xbc9870c1	-0.018608453
100	0xbd7a12ed	-0.061053205
101	0x3defc038	0.11706585
102	0xbd726bff	-0.059185024
103	0x3eb184f6	0.34671754
104	0x3e7599ed	0.239845
105	0x3e53ce1d	0.20684095
106	0x3e7cfbce	0.24705431
107	0xbe26e5ab	-0.16298549
108	0x3e2928bd	0.16519447
109	0xbd18c464	-0.037296668
110	0x3e4f9288	0.20270741
111	0xbee4e134	-0.44703066
112	0x3e697fea	0.22802702
113	0xbd98c07d	-0.07458589
114	0x3f0ad10b	0.54225224
115	0xbdcc4a4d	-0.09975109
116	0xbca0a87f	-0.019611595
117	0xbd638642	-0.05554796
118	0x3e9846d9	0.29741552
119	0x3de512f2	0.11185254
120	0xbe17c8b1	-0.14822651
121	0xbdeefcf7	-0.11669343
122	0xbea5f293	-0.32411632
123	0x3e5c80a0	0.21533442
124	0x3efc8145	0.49317375
125	0x3e15162a	0.14559236
126	0xbec258b1	-0.3795829
127	0xbe501fc6	-0.2032462
128	0x3a5cc3e0	0.00084215216
129	0x3ef97b9f	0.48727128
130	0xbd91f84b	-0.07127436
131	0xbe9ea6c6	-0.30986613
132	0xbec140da	-0.3774479
133	0xbd88032d	-0.06641231
134	0xbe5d50d8	-0.2161287
135	0x3f02ff4a	0.5117079
136	0x3e4b1506	0.19832239
137	0xbe90f187	-0.2830927
138	0x3e415b99	0.18882598
139	0x3ec68874	0.3877598
140	0x3d844298	0.06458014
141	0x3e7d308a	0.24725547
142	0x3e677f8e	0.22607252
143	0x3e8e6c20	0.27816868
144	0xbe8ecb71	-0.27889588
145	0xbaa47ff2	-0.0012550338
146	0xbd90b4d0	-0.07065737
147	0xbe974e8d	-0.29552117
148	0x3d9fcc6c	0.07802662
149	0x3e54cc49	0.20781054
150	0x3bc4c060	0.006004378
151	0x3eb5a8e7	0.35480425
152	0x3e93cd49	0.28867558
153	0x3d89fa4b	0.06737193
154	0x3effdccc	0.49973142
155	0x3e6e0a2e	0.2324607
156	0x3f092955	0.5357869
157	0x3e9bf87a	0.3046301
158	0xbe5a85e8	-0.21340144
159	0x3e47a60c	0.19496936
160	0xbe93054a	-0.28714973
161	0x3f1656cd	0.587262
162	0x3ec273bf	0.37978932
163	0x3e2f51e2	0.1712108
164	0x3e9c2764	0.30498803
165	0x3da0161c	0.07816717
166	0x3e0e4910	0.13895059
167	0x3dd7e135	0.10541002
168	0x3e86cd53	0.26328525
169	0xbd8b5261	-0.06802822
170	0xbe84bc6f	-0.25925013
171	0x3e046cdc	0.12932152
172	0xbe9c51cf	-0.30531165
173	0xbc1a5c0e	-0.009421362
174	0x3d8262cd	0.06366501
175	0xbeded950	-0.4352517
176	0xbd0e12e0	-0.03468597
177	0xbe133d76	-0.14378914
178	0x3c5e6f2a	0.013576308
179	0xbd57cfcf	-0.052688416
180	0xbdcca43d	-0.099922635
181	0xbde9ade9	-0.11410124
182	0x3cf52599	0.029925155
183	0xbe87382b	-0.2641004
184	0xbc20e092	-0.009819167
185	0xbdd36716	-0.103223965
186	0xbd87a4f0	-0.06623256
187	0xbeedc61f	-0.46440217
188	0xbdc2afc9	-0.095061846
189	0xbe22e540	-0.15907764
190	0x3cc4bfde	0.02401727
191	0x3dd69f2f	0.104795806
192	0x3d520822	0.051277287
193	0xbda75abc	-0.08171603
194	0x3eb55933	0.35419616
195	0xbe814e86	-0.2525522
196	0x3eda0e4a	0.42589027
197	0xbd86abbe	-0.06575726
198	0x3de8e9af	0.113726966
199	0xbe453648	-0.19258988
200	0x3d470553	0.048589062
201	0xbde29168	-0.1106289
202	0xbe7e37ac	-0.24825925
203	0x3cfab99f	0.03060609
204	0x3e14fbaa	0.14549127
205	0xbde301ee	-0.110843524
206	0x3e42d1d0	0.1902535
207	0x3e0e6be9	0.13908352
208	0xbe146efa	-0.14495459
209	0x3d9fe27a	0.07806869
210	0x3f2ef9cc	0.6834991
211	0xbd02f585	-0.031972427
212	0x3c7ad544	0.015309636
213	0x3eb41a66	0.3517639
214	0x3cbccfe0	0.023048341
215	0xbda3161f	-0.07963204
216	0x3e3dd524	0.18538338
217	0xbd0bb22c	-0.034105465
218	0xbe528cb3	-0.20561485
219	0x3c6e20eb	0.014534215
220	0x3e9a1c3d	0.3009967
221	0x3e6f2ced	0.23356982
222	0x3d85935a	0.06522246
223	0x3e092880	0.13394356
224	0xbca4bbfe	-0.020109173
225	0xbe48dc76	-0.19615349
226	0x3e7d1b14	0.2471736
227	0x3cafe370	0.021470755
228	0x3d1e4831	0.038643066
229	0x3e91cc39	0.28476122
230	0x3e95d508	0.29264092
231	0xbe0e6ee5	-0.1390949
232	0x3eb6ffe7	0.35742113
233	0xbde5aa95	-0.112141766
234	0xbeb25aa5	-0.3483478
235	0x3e5883df	0.21144055
236	0xbd50c9ef	-0.05097383
237	0xbe88b2d4	-0.26698935
238	0xbddf5b95	-0.1090614
239	0xbe59f360	-0.21284246
240	0x3d7ace69	0.061232004
241	0xbcb468f5	-0.022022704
242	0x3dbd9de2	0.092586294
243	0xbdae8335	-0.085211195
244	0xbc58e40d	-0.013237965
245	0xbe0dba3a	-0.13840571
246	0xbe604198	-0.21900022
247	0x3eb8512d	0.35999432
248	0xbeadffbc	-0.33984172
249	0xbd6f494c	-0.05841951
250	0xbefcc6ee	-0.4937052
251	0x3eb0d3cb	0.34536585
252	0x3f083939	0.53212315
253	0xbd7a37ea	-0.06108848
254	0x3db7fb79	0.089835115
255	0xbcad5391	-0.021158012

r_cell.w_vs.bias f4 [24]
0	0xbde06f2c	-0.10958704
1	0x3dbc9809	0.09208686
2	0xbe6b3935	-0.22971042
3	0xbe261c6f	-0.16221784
4	0xbd27e574	-0.040990308
5	0xbd4a5fb9	-0.049407694
6	0xbc88c15d	-0.016693765
7	0xbcddf242	-0.027093057
8	0xbe223179	-0.15839185
9	0x3d10ac49	0.035320554
10	0xbd3dfe1a	-0.04638491
11	0x3dfd81aa	0.12378247
12	0xbcae22f2	-0.021256898
13	0xbd61dd77	-0.055142846
14	0x3c13c04b	0.009018014
15	0xbd9310e8	-0.07180959
16	0xbe0fead8	-0.1405443
17	0x3d5fa937	0.054604735
18	0x3e16ba72	0.1471956
19	0xbe165bba	-0.14683428
20	0x3bcbccf5	0.006219501
21	0xbd4ecd89	-0.050488982
22	0x3d8fbbbb	0.070182286
23	0xbe051145	-0.12994869

r_cell.layer_norm.weight f4 [24]
0	0x3f8c8a5f	1.0979728
1	0x3f81820c	1.0117812
2	0x3f8c7d7a	1.0975792
3	0x3f8145f5	1.0099474
4	0x3f7e0bc4	0.992367
5	0x3f869c84	1.0516515
6	0x3f8e06c4	1.1095815
7	0x3f811dba	1.0087197
8	0x3f8ad427	1.0845994
9	0x3f4bd16d	0.79616433
10	0x3f9ae743	1.2101825
11	0x3f5bbe9b	0.85837716
12	0x3f83a0b2	1.0283415
13	0x3f9817cd	1.1882263
14	0x3f85719d	1.0425297
15	0x3f88a486	1.0675209
16	0x3f81f61d	1.0153233
17	0x3f6c6c08	0.9235234
18	0x3f9150dc	1.1352801
19	0x3f5e5df0	0.8686209
20	0x3f7cecbd	0.98798734
21	0x3f843469	1.0328494
22	0x3f871d2b	1.0555776
23	0x3f7b1f5f	0.98094743

r_cell.layer_norm.bias f4 [24]
0	0xbd38753f	-0.04503369
1	0xbdb56f5d	-0.088591315
2	0x3de077b3	0.10960331
3	0xbcc784be	-0.024355289
4	0x3d8d87ef	0.06910693
5	0xbe2a84d2	-0.1665223
6	0xbd4dfa87	-0.05028775
7	0xbcdfa727	-0.027301384
8	0x3c22d1a4	0.0099376775
9	0xbddc0a24	-0.10744122
10	0xbd780c8b	-0.060558837
11	0xbdbb6999	-0.091510005
12	0x3c344e5b	0.0110050095
13	0x3c61960a	0.013768682
14	0xbb464e66	-0.0030259131
15	0xbd259742	-0.040427454
16	0x3d19fe50	0.037596047
17	0xbde29d79	-0.11065192
18	0x3cc533a8	0.024072483
19	0xbcbae77f	-0.022815464
20	0xbd88c2e7	-0.066778
21	0xbdba876e	-0.091078624
22	0xbded85df	-0.115977995
23	0x3d7734b6	0.060353003

r_cell.fc.weight f4 [24, 24]
0	0x3d5850f1	0.052811567
1	0x3ec16831	0.37774804
2	0x3e2e8420	0.17042589
3	0x3d74f2ff	0.05980205
4	0x3ca833e0	0.020532548
5	0x3d42f0b1	0.047592822
6	0xbdc5a3bd	-0.09650371
7	0x3e3bc22f	0.18335794
8	0x3dc581bb	0.09643885
9	0x3e2eed0a	0.1708261
10	0xbe817433	-0.25283965
11	0x3c9d86aa	0.019229252
12	0x3dcd3a9a	0.10020943
13	0x3e6a3522	0.22871831
14	0x3e10d1e2	0.14142564
15	0xbdf05877	-0.11735623
16	0xbe140e05	-0.14458473
17	0x3e3c8278	0.18409145
18	0x3c9c7c2c	0.019102179
19	0x3e9211a0	0.28529072
20	0x3e0bbf00	0.1364708
21	0x3a87a3ea	0.0010348533
22	0xbe978385	-0.2959253
23	0xbe3eeb13	-0.18644361
24	0xbdbbc9f0	-0.09169376
25	0xbbaa7adb	-0.005202634
26	0xbca6759a	-0.020319749
27	0xbb8ea954	-0.0043536816
28	0x3b729691	0.0037016014
29	0x3ea82193	0.32838115
30	0x3de208ee	0.110368595
31	0xbc3b06ab	-0.011415164
32	0x3ea6b809	0.32562283
33	0xbe3ab756	-0.18234
34	0xbe254cae	-0.16142532
35	0xbc2dbb2b	-0.010603706
36	0x3dcd0b86	0.100119635
37	0xbcdf09e4	-0.027226396
38	0x3e2233fe	0.15840146
39	0xbd06b9ad	-0.032891918
40	0xbea4874c	-0.32134473
41	0xbddfd1d6	-0.10928695
42	0x3d5a1bb8	0.05324909
43	0xbdcad360	-0.09903598
44	0x3d1430a0	0.036179185
45	0x3e7c7cfa	0.2465705
46	0x3e81a780	0.25323105
47	0x3ee84163	0.45362386
48	0x3c10c4ec	0.008836012
49	0x3cfa02fa	0.030518997
50	0x3e141a5f	0.14463185
51	0x3dac7146	0.08420043
52	0x3d4cbf2d	0.049987007
53	0xbd55374b	-0.052054685
54	0x3cb6da0a	0.022320766
55	0x3dd9fc21	0.10643793
56	0x3dc49ecc	0.096006006
57	0xbd454215	-0.048158724
58	0xbe293471	-0.16523911
59	0xbdd54407	-0.10413366
60	0xbdbd71ce	-0.09250222
61	0x3de29e80	0.11065388
62	0xbdc97b08	-0.098379195
63	0xbe0583f9	-0.13038625
64	0xbdec6a20	-0.11543679
65	0xbe7c00d2	-0.24609688
66	0x3da946da	0.08265467
67	0xbd0f9fd5	-0.035064537
68	0xbdc14a3f	-0.094379894
69	0xbe05e075	-0.13073905
70	0xbd7bda77	-0.06148764
71	0xbc2a5f6a	-0.010398725
72	0xbe21d2e5	-0.15803106
73	0x3dbecbb5	0.09316198
74	0xbd745e9a	-0.05966053
75	0xbd94cc01	-0.07265473
76	0xbdc33830	-0.09532201
77	0x3e5d1691	0.2159064
78	0x3eb97c1b	0.36227497
79	0x3ddbed0b	0.10738572
80	0x3e194894	0.14969093
81	0x3e08d023	0.13360648
82	0xbd190f3e	-0.03736805
83	0x3deac75f	0.11463808
84	0xbc03e2f4	-0.008049715
85	0x3e34504c	0.17608756
86	0xbe4ecd9b	-0.2019562
87	0x3db3fdd5	0.08788649
88	0xbce7ffaa	-0.028320152
89	0xbe60cdba	-0.21953478
90	0xbd05b25a	-0.032640792
91	0xbbf16cee	-0.0073677218
92	0xbd3f6141	-0.046723608
93	0x3d1e8742	0.03870321
94	0xbe891f0e	-0.26781505
95	0xbea198fa	-0.31562024
96	0x3e1e5be6	0.15464744
97	0x3d85b585	0.06528763
98	0xbea3c8eb	-0.31989226
99	0xbdfb3cd2	-0.1226746
100	0xbcc41b92	-0.023938928
101	0x3e83d67a	0.2574957
102	0x3e88d88b	0.2672771
103	0xbe454f80	-0.19268608
104	0xbe3601a0	-0.17774057
105	0x3dce4dbb	0.1007342
106	0x3da70b7b	0.081564866
107	0xbd2eebef	-0.042705473
108	0x3d68b502	0.056813248
109	0x3e37030c	0.17872256
110	0x3cf6b6b8	0.030116424
111	0x3e54db88	0.2078687
112	0xbc9a4ed6	-0.01883642
113	0x3d1992b0	0.037493408
114	0xbcd9d9cb	-0.02659311
115	0xbe9939da	-0.2992695
116	0x3d720011	0.059082095
117	0x3dacf90e	0.08445941
118	0xbe629b20	-0.22129488
119	0x3e2d23a5	0.16908129
120	0xbd892ac9	-0.06697614
121	0xbe1716a0	-0.14754725
122	0xbc81b439	-0.015833007
123	0xbd804de9	-0.0626486
124	0xbe13c2b9	-0.1442975
125	0xbe85a385	-0.26101318
126	0xbe5e2d81	-0.21697046
127	0x3e4f853c	0.20265669
128	0xbd67947b	-0.056538086
129	0xbda109f1	-0.07863224
130	0x3e6d5e30	0.23180461
131	0xbd9738dd	-0.07383893
132	0x3d8fb250	0.07016432
133	0xbe44b0f1	-0.19208123
134	0x3ec71821	0.38885596
135	0xbefd98bd	-0.49530593
136	0xbe0fef3b	-0.14056103
137	0x3e17e290	0.1483252
138	0x3db8c685	0.090222396
139	0x3e0c6d86	0.13713655
140	0x3de8a41b	0.11359426
141	0x3b1fcf57	0.0024385059
142	0x3df13ed4	0.11779562
143	0x3dc782da	0.09741755
144	0xbb05500e	-0.0020341906
145	0x3da20ebe	0.07912968
146	0xbd80ec2a	-0.06295045
147	0xbebaf1ac	-0.36512506
148	0xbd82f37e	-0.06394099
149	0xbe35c453	-0.17750673
150	0xbcf9e827	-0.030506207
151	0xbb2478e4	-0.002509647
152	0x3cd4faba	0.025998462
153	0x3df2b4f2	0.11850919
154	0x3eb850ae	0.35999054
155	0xbd3c5d21	-0.045987252
156	0xbd60e63d	-0.054907072
157	0x3d87372a	0.066023186
158	0x3d42533b	0.047442656
159	0x3d95fd12	0.0732366
160	0x3d502ff4	0.05082698
161	0x3e767b52	0.2407048
162	0xbe292a44	-0.1652003
163	0x3daef7f1	0.08543385
164	0x3d63c757	0.055610027
165	0x3e811037	0.25207683
166	0x3e50d4a4	0.20393616
167	0x3c3d7959	0.011564576
168	0xbdf1e809	-0.11811835
169	0x3e9aba7e	0.30220407
170	0x3e2695b0	0.16268039
171	0x3e0146e4	0.12624699
172	0xbdb478b4	-0.08812085
173	0xbcd07d86	-0.02545048
174	0x3d541def	0.05178636
175	0x3d120511	0.035649363
176	0x3de5346b	0.111916386
177	0xbe58d4c1	-0.21174909
178	0xbb91a543	-0.0044447496
179	0x3e8302cc	0.2558807
180	0x3b906cfe	0.004407524
181	0x3e508b7d	0.2036571
182	0x3c490962	0.012270303
183	0x3da88172	0.08227815
184	0xbd746bdf	-0.059673186
185	0xbe7effa2	-0.24902204
186	0x3e842e25	0.25816455
187	0x3eaf3083	0.342167
188	0x3de54461	0.11194683
189	0x3d597b29	0.05309597
190	0xbe30e489	-0.17274679
191	0xbd4a5b4e	-0.04940348
192	0x3d777dc6	0.06042268
193	0x3eab43c5	0.33450142
194	0x3e2584f5	0.16164
195	0xbdc26f6b	-0.094939075
196	0x3e623ca2	0.22093442
197	0xbe450e7a	-0.19243804
198	0xbec276d7	-0.37981293
199	0x3e00b85a	0.12570325
200	0x3d942ed0	0.07235491
201	0xbcb5fbac	-0.022214733
202	0x3cc44039	0.023956405
203	0xbd12d97c	-0.03585194
204	0xbcb65316	-0.022256415
205	0x3ea5aab0	0.32356787
206	0x3c1f831f	0.009735852
207	0xbe91d102	-0.28479773
208	0xbd178242	-0.036989458
209	0xbdca5e59	-0.09881277
210	0x3dabdf37	0.08392184
211	0x3db634c6	0.088967845
212	0xbdd16292	-0.10223879
213	0x3df68304	0.12036708
214	0xbddf201b	-0.108947955
215	0xbdba9642	-0.09110691
216	0x3e058106	0.130375
217	0xbe40d6c6	-0.1883193
218	0xbef15b7d	-0.47140113
219	0xbe498c51	-0.19682433
220	0xbdc235e4	-0.09482935
221	0xbbc2c796	-0.0059442027
222	0x3df7d9b7	0.12102073
223	0xbd4ca0bd	-0.04995798
224	0xbe162a57	-0.14664589
225	0xbc7e119b	-0.015507127
226	0x3e6ec12e	0.2331588
227	0x3d51989f	0.05117094
228	0xbd04393d	-0.03228115
229	0xbd48ab25	-0.04899134
230	0xbe89e8e5	-0.26935497
231	0xbdb7e088	-0.08978373
232	0xbdec21fa	-0.11529918
233	0x3da31f90	0.079650044
234	0x3de73fc6	0.11291461
235	0x3ccbb534	0.024866678
236	0x3d879410	0.066200376
237	0xbea4b66e	-0.32170433
238	0xbf1e693c	-0.61879325
239	0xbed30c23	-0.41220197
240	0x3d005e16	0.031339727
241	0xbe2df8d0	-0.16989446
242	0xbeaffc16	-0.34372014
243	0x3d1ea522	0.0387317
244	0xbdf3e21a	-0.1190836
245	0xbd373327	-0.044726517
246	0x3df52e66	0.119717404
247	0x3d8c99ce	0.068652734
248	0x3da208b3	0.079118155
249	0x3deb8c0f	0.115013234
250	0xbd8151ae	-0.06314407
251	0xbd6a949d	-0.057270635
252	0xbe73292f	-0.23746179
253	0x3e2fcefd	0.17168804
254	0xbdab13af	-0.08353364
255	0x3d1ec080	0.0387578

r_cell.fc.bias f4 [24]
0	0x3c8a53de	0.016885694
1	0x3ceb2373	0.028703427
2	0x3d88b6f0	0.066755176
3	0xbdd7c2a3	-0.10535171
4	0x3c558fea	0.0130348
5	0xbd5bbba6	-0.053645752
6	0xbdeda12d	-0.116030075
7	0x3c9ffe2d	0.01953038
8	0x3d5229d0	0.051309407
9	0xbdcc38e4	-0.099717885
10	0xbd76b7b7	-0.060233798
11	0xbc12e3cc	-0.008965444
12	0xbce16f28	-0.027518824
13	0x3dd9fcc6	0.10643916
14	0x3da26a68	0.07930452
15	0xbc2f87a1	-0.010713489
16	0x3d0d8846	0.03455379
17	0x3db6aedd	0.08920071
18	0x3dcabaa2	0.09898879
19	0xbdc21f3f	-0.09478616
20	0xbd73630b	-0.059420627
21	0xbe002923	-0.12515692
22	0xbdc0a50b	-0.094064794
23	0x3b915924	0.004435675

fc1.0.bias f4 [24]
0	0xbe5f2bc2	-0.21794036
1	0x3e0b6ac5	0.13614948
2	0xbe84cac5	-0.2593595
3	0xbbb35cdf	-0.0054737176
4	0x3db3b05c	0.08773872
5	0x3e96a6f2	0.29424244
6	0x3dbff5b5	0.09373037
7	0xbe2a81bc	-0.16651052
8	0x3e87e696	0.2654311
9	0xbe981c86	-0.29709262
10	0x3cddda16	0.02708153
11	0x3e28032b	0.16407458
12	0x3e16885d	0.14700456
13	0xbe751b01	-0.23936082
14	0xbcaff71d	-0.021480137
15	0xbe9c9695	-0.30583635
16	0x3e14f158	0.1454519
17	0x3e35a2db	0.17737906
18	0xbdd0bc33	-0.10192146
19	0x3e220c0f	0.15824912
20	0x3db3182e	0.08744846
21	0x3e19c208	0.15015423
22	0xbdd593f3	-0.1042861
23	0x3e8912de	0.26772207

fc1.0.weight_orig f4 [24, 6]
0	0xbcc3233e	-0.023820516
1	0xbd4d44ba	-0.05011437
2	0xbe53412b	-0.20630328
3	0xbe9e497b	-0.30915436
4	0x3ee13c9c	0.43991554
5	0x3f0326b4	0.5123093
6	0x3ea27252	0.31727844
7	0x3bdf29e2	0.0068104127
8	0x3e34471a	0.17605248
9	0x3ed403e2	0.41409212
10	0x3e0ee37e	0.13953969
11	0xbf044f50	-0.5168352
12	0xbe297176	-0.16547188
13	0xbcbcd202	-0.023049358
14	0x3e0e20d6	0.13879713
15	0xbe588f09	-0.21148314
16	0x3e9e352b	0.3089994
17	0xbe77f0fd	-0.24213023
18	0x3e649c11	0.2232516
19	0xbea9b864	-0.3314849
20	0x3d30f565	0.043202776
21	0x3e85c98f	0.2613034
22	0x3bffa905	0.007802131
23	0x3effa3c3	0.49929628
24	0x3efeed82	0.4979058
25	0x3f0a7659	0.54086834
26	0xbe48e729	-0.1961943
27	0xbe999687	-0.29997656
28	0x3ea43f8c	0.32079732
29	0xbd480fba	-0.048843123
30	0xbe596b3e	-0.21232316
31	0x3e92b4f5	0.28653684
32	0x3ee83f95	0.4536101
33	0xbe61bb0f	-0.22044013
34	0x3e9844cd	0.2973999
35	0x3f0e98d6	0.5570196
36	0xbe496c0c	-0.19670123
37	0x3df80099	0.12109489
38	0x3efe0bba	0.49618322
39	0x3e254f0a	0.16143432
40	0x3df48573	0.11939516
41	0xbdcfa58c	-0.101389974
42	0xbdb5a6ae	-0.08869682
43	0xbe782325	-0.24232157
44	0xbd518d3c	-0.051160082
45	0x3e21c37c	0.15797228
46	0x3ee97925	0.45600238
47	0x3e35a5ed	0.17739077
48	0x3d0b2d85	0.033978958
49	0x3ea86014	0.32885802
50	0x3ce6c3ff	0.02816963
51	0xbe4f45dd	-0.20241494
52	0x3eca3d19	0.3949974
53	0x3efbef8e	0.49206203
54	0xbe81b96b	-0.25336775
55	0x3edba153	0.42896518
56	0xbc9a205b	-0.018814256
57	0xbd7ba6f2	-0.06143851
58	0xbe8b5cbf	-0.27219197
59	0xbaba5c26	-0.0014218136
60	0x3c720362	0.014771314
61	0x3ea03ffc	0.31298816
62	0x3e3ddfb2	0.18542364
63	0x3c7cf10d	0.01543833
64	0x3dfa6e15	0.12228028
65	0xbec9949e	-0.39371198
66	0x3e8160a0	0.25269032
67	0xbe19a7e7	-0.15005456
68	0x3e6cd876	0.23129448
69	0xbe92a021	-0.28637794
70	0x3f0c446e	0.54791915
71	0x3ecb2640	0.3967762
72	0x3e0a18b4	0.13485986
73	0xbd93c7c7	-0.07215839
74	0x3f1c1975	0.60976344
75	0x3e0f95e3	0.14022021
76	0x3e3d8417	0.1850742
77	0xbcd51608	-0.026011482
78	0xbda5a976	-0.08088963
79	0x3e69fa65	0.22849424
80	0xbdb1079a	-0.08644028
81	0x3e957708	0.29192376
82	0xbe67784f	-0.22604488
83	0x3e3a4d77	0.18193613
84	0xbde7bd1b	-0.11315366
85	0x3e7eea25	0.24894007
86	0x3e1edc9e	0.15513846
87	0x3e069e4f	0.13146327
88	0xbe5ebcd6	-0.21751723
89	0x3ee2c123	0.44287977
90	0x3e86bdec	0.26316774
91	0x3d3a6e2e	0.04551523
92	0xbc7e056f	-0.015504225
93	0xbe52fa0f	-0.20603202
94	0xbeb1d401	-0.3473206
95	0x3d685aea	0.056727327
96	0x3e05d9f0	0.13071418
97	0xbe87d879	-0.26532343
98	0xbd57b51e	-0.05266296
99	0x3e5849c5	0.21121891
100	0x3f069f3c	0.5258672
101	0x3e601d8e	0.21886274
102	0xbe64b9f0	-0.22336555
103	0x3e1d2da2	0.15349439
104	0x3e35e513	0.17763166
105	0x3ee781ae	0.45216125
106	0x3e718394	0.2358535
107	0xbeb93fef	-0.3618159
108	0x3ed994bb	0.42496285
109	0xbdd3c984	-0.103411704
110	0xbe96248f	-0.29324767
111	0x3e17e405	0.14833076
112	0xbe135569	-0.1438805
113	0xbe579631	-0.21053387
114	0xbe1d0d4a	-0.153371
115	0x3e999dda	0.30003244
116	0x3e84e12c	0.25953043
117	0x3efabc5e	0.48971838
118	0xbd412625	-0.047155518
119	0x3dac6d62	0.084193006
120	0xbde968d5	-0.11396948
121	0x3ea71a14	0.32637084
122	0x3ec3906f	0.38196132
123	0x3efa0f18	0.4883964
124	0xbe5192e2	-0.20466188
125	0x3edd6d9e	0.43247694
126	0x3f06ca8e	0.52652824
127	0x3ef6c5a4	0.48197663
128	0xbd66c9dd	-0.056344856
129	0xbea92724	-0.33037674
130	0x3e05d3a2	0.13069013
131	0xbdd633b2	-0.10459079
132	0xbe7040a7	-0.23462163
133	0xbe461d23	-0.19347052
134	0xbd7fd16f	-0.06245559
135	0x3eefb959	0.46821097
136	0xbd1aa3c3	-0.03775383
137	0xbee6d845	-0.45086876
138	0x3e9c40ec	0.3051828
139	0x3e290e99	0.16509475
140	0xbe80d8b1	-0.25165322
141	0x3ef5e26d	0.48024312
142	0x3e99785f	0.29974648
143	0x3e620525	0.22072275

fc1.0.weight_u f4 [24]
0	0xbec75d02	-0.38938147
1	0x3e77789d	0.24167104
2	0xbc938320	-0.018006861
3	0xbe159780	-0.14608574
4	0xbe567999	-0.20944823
5	0xbebd8519	-0.37015608
6	0x3d3fe075	0.04684492
7	0xbe059437	-0.1304482
8	0xbec21853	-0.37909183
9	0x3d591bf1	0.053005163
10	0x3dddf626	0.10837965
11	0xbec97162	-0.39344317
12	0xbcd962ec	-0.026536427
13	0x3d4473af	0.047961887
14	0xbdd55daa	-0.104182556
15	0xbbf3735b	-0.007429523
16	0xbe2f8471	-0.17140366
17	0x3e4d76a4	0.20064789
18	0x3e0a6e6c	0.13518685
19	0x3da7c0e9	0.081910916
20	0xbceda0b5	-0.029007295
21	0xbe157402	-0.14595035
22	0x3eaef67a	0.34172422
23	0xbdb3ad31	-0.08773268

fc1.0.weight_v f4 [6]
0	0xbe25a9da	-0.16178074
1	0xbdec39f6	-0.11534493
2	0xbd305689	-0.043051276
3	0x3eda9ecf	0.42699286
4	0xbef1a20d	-0.47193947
5	0xbf3e7a75	-0.74405605

fc1.1.weight f4 [24, 24]
0	0xbe897279	-0.26845148
1	0x3ddda02f	0.10821568
2	0x3e6f9db3	0.23400001
3	0x3f02b46a	0.5105654
4	0xbe0b9e5f	-0.13634633
5	0x3f9969f7	1.1985463
6	0x3dcfa777	0.10139363
7	0x3e9d108a	0.3067668
8	0xbf60da43	-0.8783304
9	0x3ec654cc	0.3873657
10	0xbe8a38a0	-0.26996326
11	0xbf860a0f	-1.047182
12	0x3dfb0f4b	0.12258776
13	0x3ec87f86	0.39159793
14	0x3e322ac9	0.17399134
15	0x3ef6dcac	0.48215234
16	0xbf07ae94	-0.5300076
17	0xbf015ae6	-0.50529325
18	0x3f10d6fd	0.56578046
19	0x3e7d5bbc	0.24742025
20	0xbe914195	-0.28370348
21	0xbc02d78b	-0.00798596
22	0xbe7510a6	-0.23932132
23	0xbf5b28f6	-0.85609376
24	0x3f0f9214	0.5608227
25	0xbf07a18b	-0.5298087
26	0xbe8da904	-0.2766801
27	0xbe941e4a	-0.2892936
28	0xbfe3a302	-1.7784121
29	0xbfbda0db	-1.4814714
30	0xbd82b7cb	-0.06382712
31	0xbcd97ab4	-0.026547767
32	0x3f83d0c6	1.0298088
33	0x3cb9a2dd	0.022660667
34	0x3ea7134e	0.32631916
35	0x3f3bc75a	0.7335106
36	0xbf1f659a	-0.62264407
37	0x3cbc179f	0.022960482
38	0xbe8c163f	-0.27360722
39	0xbdee1164	-0.11624411
40	0x3f254d6c	0.6457126
41	0xbeb9bee7	-0.3627846
42	0xbe5eccba	-0.21757784
43	0xbf1ca2db	-0.61186
44	0x3e8baaee	0.27278847
45	0xbe302076	-0.17199883
46	0x3e635744	0.22201258
47	0x3f842047	1.032235
48	0x3eebd1d1	0.46058515
49	0xbe70244d	-0.23451348
50	0xbfe5511c	-1.7915378
51	0xbee0a62c	-0.4387678
52	0x3f2d33da	0.67657244
53	0xbfce2000	-1.6103516
54	0xbf0f536a	-0.55986655
55	0x3e85ea36	0.2615525
56	0x3f4a2a53	0.7897083
57	0x3f52b4eb	0.8230731
58	0x3e8ace8c	0.27110708
59	0x40208291	2.5079691
60	0x3f3055b8	0.68880796
61	0x3e8c03d6	0.27346677
62	0xbea1d74f	-0.3160958
63	0x3f5982d2	0.8496524
64	0x3ed13f58	0.4086864
65	0xbf45eacf	-0.77311414
66	0x3e5de66e	0.21669933
67	0xbf80fb68	-1.0076723
68	0xbe0671cf	-0.13129352
69	0xbe9d5652	-0.3072992
70	0xbdb8e31b	-0.09027692
71	0xbfb05239	-1.3775092
72	0x3e19f86e	0.15036175
73	0xbea920c8	-0.33032823
74	0xbe1873dc	-0.14887947
75	0xbe032fd9	-0.12811221
76	0x3ecdc406	0.40188617
77	0xbfd45a82	-1.6590121
78	0xbeef1e7a	-0.4670294
79	0x3e9fe8b5	0.3123223
80	0x3f8a2c23	1.079472
81	0x3f036579	0.5132671
82	0x3e97302c	0.2952894
83	0x3fe4d2d7	1.7876843
84	0x3eb9b614	0.36271727
85	0xbe51916e	-0.20465633
86	0xbe82e47c	-0.25564945
87	0x3e50c104	0.2038613
88	0x3ef2054f	0.47269675
89	0xbf0fe528	-0.5620904
90	0x3eb426e8	0.35185933
91	0x3e481deb	0.19542663
92	0xbe87b4d2	-0.26505142
93	0xbe99ee77	-0.30064747
94	0xbe183922	-0.14865544
95	0xbf33bbb2	-0.70208275
96	0xbf31da13	-0.6947338
97	0x3f0c481c	0.5479753
98	0x3e1f8485	0.15577896
99	0x3ee61f57	0.44945785
100	0xbe6b1c6d	-0.22960062
101	0x3f9c3aa2	1.2205393
102	0x3f1ff114	0.6247723
103	0x3de81c75	0.11333553
104	0xbf8dbe9b	-1.1073793
105	0x3eddcd5e	0.43320745
106	0xbe77bc29	-0.24192871
107	0xbf889286	-1.0669715
108	0xbe7182ea	-0.23585096
109	0x3f40610e	0.75148094
110	0x3e44cd0a	0.19218841
111	0xbf651bf5	-0.89495784
112	0xbee29182	-0.4425164
113	0x3ec91995	0.3927733
114	0xbdf4d843	-0.11955311
115	0xbd83c99f	-0.064349405
116	0x3e16260c	0.14662951
117	0xbe0e4090	-0.13891816
118	0x3dbde335	0.09271852
119	0x3f6e0033	0.92969054
120	0x3f15ada6	0.5846809
121	0xbf34e60a	-0.7066351
122	0xbfb2578c	-1.3932967
123	0xbf7c4e55	-0.98557025
124	0xbe7abd90	-0.24486375
125	0xbfe97bb1	-1.8240873
126	0xbe127efa	-0.1430625
127	0x3ee34b3e	0.44393343
128	0x3f6d3f27	0.9267449
129	0xbf8faea5	-1.1225172
130	0x3e8105b1	0.25199655
131	0x3f48c535	0.78425914
132	0x3e74c40e	0.23902914
133	0xbecd4062	-0.40088183
134	0xbdbb5323	-0.091467164
135	0x3f33bcbf	0.7020988
136	0x3ea6da0b	0.3258823
137	0x3e81f4ea	0.25382167
138	0xbe7a07c2	-0.24417022
139	0xbe3c318d	-0.18378277
140	0x3e46fc5c	0.19432205
141	0xbf5a35ca	-0.85238326
142	0x3e2ee1be	0.17078301
143	0xbea24dce	-0.31699985
144	0xbf0a9e81	-0.5414811
145	0x3e938ad4	0.28816855
146	0x3fb584f4	1.4181199
147	0x3ee5ad8a	0.44858962
148	0x3ecb62b0	0.3972373
149	0x3f9636db	1.173549
150	0xbdadab56	-0.08479945
151	0xbe763657	-0.24044167
152	0xbf835ff9	-1.0263664
153	0x3f808c06	1.0042732
154	0xbe8efc66	-0.2792694
155	0xbf84145a	-1.0318711
156	0xbeb32e96	-0.3499648
157	0x3f0bcd9c	0.5461061
158	0x3e50b8cb	0.20382993
159	0xbfa5595a	-1.2917893
160	0xbef649c0	-0.48103142
161	0xbe986277	-0.29762623
162	0xbe4cf294	-0.20014411
163	0x3ee51901	0.4474564
164	0x3e04c415	0.12965424
165	0xbf06cda4	-0.5265753
166	0x3e0c438b	0.1369764
167	0x3f2befe9	0.6716295
168	0x3ed759c5	0.42060676
169	0xbedc7bd9	-0.43063238
170	0xbf10fd04	-0.5663607
171	0xbf9da093	-1.2314628
172	0x3df3f0e0	0.11911178
173	0xbf80203c	-1.0009837
174	0xbf87eb35	-1.0618654
175	0xbe0f680f	-0.14004539
176	0x3f85f38a	1.0464947
177	0x4006adcf	2.1043584
178	0x3e5b0475	0.21388419
179	0x402c416e	2.6914935
180	0xbea5aae8	-0.32356954
181	0x3e923038	0.28552413
182	0xbe7ca664	-0.24672848
183	0xbf1d0ec4	-0.61350656
184	0x3eba4628	0.3638165
185	0xbdca0c5a	-0.09865637
186	0x3e4c53e7	0.19953881
187	0x3f2f01ab	0.6836192
188	0xbe3b58c1	-0.18295576
189	0x3f437327	0.76347584
190	0xbdc3d2da	-0.09561701
191	0x3f50a01c	0.8149431
192	0x3ec6a871	0.38800386
193	0xbed75970	-0.42060423
194	0x3eb352b5	0.35024038
195	0xbf4718f4	-0.7777245
196	0x3dc4665c	0.09589836
197	0xbfc3249e	-1.524555
198	0xbeafe067	-0.34350893
199	0x3d9d1161	0.076693304
200	0x3f39a746	0.72520864
201	0xbf21b3a2	-0.6316472
202	0x3ea50e56	0.322375
203	0x3fe79e0d	1.8095108
204	0xbedd2f8c	-0.43200338
205	0x3e8429f8	0.2581327
206	0xbe9cb11b	-0.3060387
207	0xbf697d45	-0.9120677
208	0x3ec38847	0.3818991
209	0xbeb2e4c0	-0.34940147
210	0xbe850ecd	-0.25987855
211	0x3f5bba32	0.85830986
212	0x3df54a94	0.11977115
213	0xbf21af04	-0.6315768
214	0x3df11480	0.11771488
215	0xbf88add5	-1.0678049
216	0x3f166621	0.58749586
217	0xbe8c2472	-0.27371556
218	0x3f35ffc7	0.7109341
219	0xbf29b41a	-0.6629044
220	0x3d5d38eb	0.05400936
221	0xbfa9c2b4	-1.3262544
222	0xbf6396d3	-0.88902014
223	0x3de852de	0.11343931
224	0x3f4dc97a	0.80385554
225	0xbd00ddba	-0.031461455
226	0x3e891a12	0.26777703
227	0x4025dd17	2.5916193
228	0x3f08fcbb	0.53510636
229	0xbedaa267	-0.42702028
230	0xbea64985	-0.32477966
231	0x3fac4c7a	1.3460839
232	0x3ebd3c70	0.36960173
233	0xbf783b9f	-0.96965975
234	0x3cedbfc9	0.029022114
235	0xbf69d079	-0.9133373
236	0xbe2de031	-0.16980053
237	0x3e9237c3	0.28558168
238	0xbe16bbb5	-0.14720042
239	0xbf83df19	-1.0302459
240	0xbe9a79f5	-0.3017117
241	0x3f6ef9ed	0.93350106
242	0x3cfa82e9	0.030580001
243	0x3f02ce9e	0.5109652
244	0x3f03283c	0.5123327
245	0x3faf7e7f	1.3710479
246	0xbd259910	-0.040429175
247	0x3f42f601	0.7615662
248	0xbfba89fb	-1.4573358
249	0xbfc025db	-1.5011553
250	0xbe577b42	-0.21043113
251	0xbf501b16	-0.8129133
252	0xbdb1f27b	-0.086888276
253	0xbf163097	-0.5866789
254	0x3e68702f	0.22699045
255	0x3f694b55	0.9113057
