models/17_05_2021/stock_self_attn_MSE_hinge_10000_64_24_6_24_5/5000_generator.pth (torch, 54798 bytes, 39 tensors)

position.pe f4 [1, 24, 24]
0.0 1.0 0.0 1.0 0.0 1.0 0.0 1.0
0.0 1.0 0.0 1.0 0.0 1.0 0.0 1.0
0.0 1.0 0.0 1.0 0.0 1.0 0.0 1.0
0.84147096 0.54030234 0.44767085 0.8941984 0.21378067 0.9768817 0.099833414 0.9950042
0.04639923 0.99892294 0.021542681 0.9997679 0.009999833 0.99995 0.0046415734 0.9999892
0.0021544332 0.9999977 0.0009999998 0.9999995 0.00046415895 0.9999999 0.00021544348 1.0
0.9092974 -0.41614684 0.8006131 0.59918165 0.41767687 0.9085956 0.19866931 0.9800666
0.09269851 0.9956942 0.043075364 0.99907184 0.019998666 0.9998 0.009283047 0.9999569
0.004308856 0.9999907 0.0019999985 0.99999803 0.00092831784 0.9999996 0.00043088695 0.99999994
0.14112 -0.9899925 0.98414314 0.17737612 0.60226107 0.7982992 0.2955202 0.9553365
0.1387981 0.9903207 0.06458805 0.997912 0.0299955 0.99955004 0.01392432 0.9999031
0.006463259 0.99997914 0.0029999954 0.9999955 0.0013924765 0.99999905 0.00064633036 0.9999998
-0.7568025 -0.6536436 0.9594254 -0.28196275 0.75899875 0.6510921 0.38941833 0.921061
0.18459873 0.98281395 0.08607077 0.996289 0.039989334 0.9992001 0.018565293 0.9998276
0.008617632 0.99996287 0.003999989 0.999992 0.0018566349 0.9999983 0.0008617738 0.99999964
-0.9589243 0.2836622 0.73169005 -0.68163747 0.88064283 0.47378072 0.47942552 0.87758255
0.23000173 0.97319025 0.10751353 0.9942036 0.049979165 0.99875027 0.023205869 0.9997307
0.010771966 0.999942 0.004999979 0.9999875 0.0023207928 0.9999973 0.0010772172 0.9999994
-0.2794155 0.96017027 0.349127 -0.93707544 0.961569 0.27456328 0.5646424 0.8253356
0.2749093 0.9614702 0.12890638 0.9916568 0.059964005 0.99820054 0.02784594 0.9996122
0.012926248 0.99991643 0.0059999637 0.999982 0.0027849504 0.9999961 0.0012926605 0.99999917
0.6569866 0.75390226 -0.10731243 -0.9942253 0.9980355 0.06265094 0.6442176 0.7648422
0.31922466 0.94767904 0.15023942 0.98864967 0.06994285 0.997551 0.032485418 0.9994722
0.0150804715 0.9998863 0.006999942 0.9999755 0.003249107 0.99999475 0.0015081038 0.99999887
0.98935825 -0.14550003 -0.5410444 -0.840994 0.9883562 -0.15215816 0.717356 0.6967067
0.36285242 0.9318466 0.17150272 0.98518366 0.07991469 0.9968017 0.03712419 0.9993107
0.017234625 0.99985147 0.007999914 0.999968 0.0037132632 0.9999931 0.001723547 0.9999985
0.4121185 -0.91113025 -0.86028963 -0.5098056 0.9329786 -0.35993198 0.78332686 0.62161
0.4056986 0.91400695 0.19268642 0.98126036 0.089878544 0.9959527 0.041762162 0.99912757
0.019388698 0.999812 0.008999879 0.9999595 0.0041774185 0.9999913 0.0019389901 0.99999815
-0.5440211 -0.8390715 -0.99749476 -0.070740685 0.8344632 -0.55106366 0.84147096 0.54030234
0.44767088 0.8941984 0.21378069 0.9768817 0.099833414 0.9950042 0.04639924 0.99892294
00000000: 0000 0000 0000 803f 0000 0000 0000 803f
00000010: 0000 0000 0000 803f 0000 0000 0000 803f
00000020: 0000 0000 0000 803f 0000 0000 0000 803f
00000030: 0000 0000 0000 803f 0000 0000 0000 803f
00000040: 0000 0000 0000 803f 0000 0000 0000 803f
00000050: 0000 0000 0000 803f 0000 0000 0000 803f
00000060: a46a 573f 4151 0a3f 1d35 e53e 30ea 643f
00000070: 52e9 5a3e eb14 7a3f 7675 cc3d 98b8 7e3f
00000080: 1e0d 3e3d 6ab9 7f3f 477a b03c caf0 7f3f
00000090: 57d6 233c b9fc 7f3f 5718 983b 4bff 7f3f
000000a0: 6431 0d3b d9ff 7f3f 6d12 833a f8ff 7f3f
000000b0: 5c5a f339 feff 7f3f abe8 6139 0000 803f
000000c0: b7c7 683f 3311 d5be fbf4 4c3f f863 193f
000000d0: bed9 d53e b999 683f f86f 4b3e a5e5 7a3f
000000e0: b7d8 bd3d d1e5 7e3f cb6f 303d 2cc3 7f3f
000000f0: 3ed4 a33c e5f2 7f3f ec17 183c 2dfd 7f3f
00000100: 4e31 8d3b 64ff 7f3f 6812 033b dfff 7f3f
00000110: 5b5a 733a f9ff 7f3f abe8 e139 ffff 7f3f
00000120: c381 103e 2670 7dbf cef0 7b3f 16a2 353e
00000130: c82d 1a3f 565d 4c3f 6c4e 973e ef90 743f
00000140: 1721 0e3e a885 7d3f bd46 843d 2977 7f3f
00000150: 1fb9 f53c 83e2 7f3f d522 643c a6f9 7f3f
00000160: bfc9 d33b a2fe 7f3f 929b 443b b5ff 7f3f
00000170: c283 b63a f0ff 7f3f 7f6e 293a fdff 7f3f
00000180: cfbd 41bf 3055 27bf e79c 753f 6c5d 90be
00000190: be4d 423f f9ad 263f d761 c73e a7ca 6b3f
000001a0: 7307 3d3e b299 7b3f df45 b03d cc0c 7f3f
000001b0: dbcb 233d 94cb 7f3f 3e16 983c b4f4 7f3f
000001c0: f830 0d3c 91fd 7f3f 5712 833b 7aff 7f3f
000001d0: 545a f33a e3ff 7f3f a9e8 613a faff 7f3f
000001e0: 107c 75bf 2c3c 913e 0a50 3b3f cb7f 2ebf
000001f0: cf71 613f 6393 f23e 4377 f53e 40a9 603f
00000200: 9385 6b3e ff22 793f 0e30 dc3d 2184 7e3f
00000210: f4b6 4c3d 19ae 7f3f 3c1a be3c 5aee 7f3f
00000220: e67c 303c 33fc 7f3f ddd6 a33b 2eff 7f3f
00000230: 7118 183b d3ff 7f3f 6931 8d3a f6ff 7f3f
00000240: 8c0f 8fbe b8cd 753f c6c0 b23e 2de4 6fbf
00000250: 6329 763f 8f93 8c3e 688c 103f 3249 533f
00000260: e9c0 8c3e e922 763f 0900 043e 38dd 7d3f
00000270: d19c 753d 128a 7f3f 2b1d e43c 96e6 7f3f
00000280: 9dc8 533c 86fa 7f3f 589b c43b d2fe 7f3f
00000290: b783 363b bfff 7f3f 7d6e a93a f2ff 7f3f
000002a0: 4630 283f bdff 403f 9fc6 dbbd 8d85 7ebf
000002b0: 417f 7f3f 234f 803d 72eb 243f b3cc 433f
000002c0: 6a71 a33e 189b 723f 5dd8 193e 2518 7d3f
000002d0: 323e 8f3d 815f 7f3f 6e0f 053d 69dd 7f3f
000002e0: 1514 773c 8cf8 7f3f c55f e53b 65fe 7f3f
000002f0: f8ee 543b a8ff 7f3f 91ab c53a edff 7f3f
00000300: 9546 7d3f f6fd 14be e381 0abf 624b 57bf
00000310: e904 7d3f 59cf 1bbe a5a4 373f 5f5b 323f
00000320: cbc7 b93e 808d 6e3f 699e 2f3e ff34 7c3f
00000330: 50aa a33d 652e 7f3f 890f 183d d3d2 7f3f
00000340: a12f 8d3c 44f6 7f3f 1212 033c e7fd 7f3f
00000350: 385a 733b 8cff 7f3f a4e8 e13a e7ff 7f3f
00000360: 3201 d33e d53f 69bf f13b 5cbf 9f82 02bf
00000370: afd7 6e3f 0149 b8be 1c88 483f d521 1f3f
00000380: bab7 cf3e 5cfc 693f 974f 453e e133 7b3f
00000390: 3e12 b83d c2f6 7e3f cd0e 2b3d d3c6 7f3f
000003a0: 0cd5 9e3c aef3 7f3f 3a74 133c 59fd 7f3f
000003b0: bae2 883b 6eff 7f3f b625 fe3a e1ff 7f3f
000003c0: f844 0bbf 64cd 56bf d15b 7fbf 7ee0 90bd
000003d0: 619f 553f 8212 0dbf a46a 573f 4151 0a3f
000003e0: 1e35 e53e 30ea 643f 53e9 5a3e eb14 7a3f
000003f0: 7675 cc3d 98b8 7e3f 210d 3e3d 6ab9 7f3f

r_cell.w_qs.weight f4 [24, 24]
-0.24398339 0.16564591 0.15289551 0.43879905 -0.0041753077 -0.11523807 -0.12232191 0.48910546
0.4519685 0.032920916 0.16373283 -0.13658553 0.4932341 -0.21412826 -0.090546675 -0.2584971
0.1836193 -0.15381408 -0.10203434 0.33388963 -0.07047952 0.10247819 0.37830943 -0.41429326
0.027617445 -0.09109992 0.12067875 0.020210624 -0.18569244 -0.10945144 0.4891079 -0.2920948
0.252957 0.13331912 -0.063009 0.04567711 0.05713256 0.3072205 -0.52205276 -0.15178803
0.27217725 0.24145605 -0.003348964 0.29060096 0.20768736 0.11010863 0.29472107 0.008661115
-0.04367261 -0.18055058 -0.063671134 0.21544564 -0.26082093 0.26431286 0.0052298573 0.26538175
-0.29796797 -0.30745673 0.12076875 0.5543857 0.34883884 0.03401796 0.17702472 0.07908822
-0.041057978 -0.1895918 -0.4952104 -0.4596605 -0.039951716 -0.066305146 -0.07423403 -0.13491529
0.10271128 0.009735309 -0.016630515 0.42212704 -0.19135444 0.04315329 -0.361405 0.124996416
0.45738283 -0.34740385 -0.029189846 -0.01459667 0.20783456 -0.38179755 -0.17900743 0.3379396
-0.17425382 -0.0128418 -0.13830753 0.39341235 0.23930219 0.16891663 -0.11272244 -0.30781388
0.22319941 0.2896441 0.21061343 -0.11416234 0.492438 0.024275012 0.0023840268 -0.2481337
0.118106574 0.50906444 -0.14615406 -0.20637806 -0.64450485 -0.6353903 -0.012270428 -0.08987316
-0.24331747 0.085510306 0.0096270675 -0.2279973 -0.01985843 0.21482608 0.01762716 0.010416354
0.21548493 0.021171175 -0.010610241 -0.075591914 -0.263557 0.12329996 0.18283647 -0.011554317
0.15415703 0.41463214 -0.6421481 -0.3800419 0.51485527 0.066936195 -0.16620909 0.025435254
-0.04291416 -0.043010443 0.32250983 0.14824928 -0.41472882 0.32763043 0.117660135 -0.10114283
-0.44117996 -0.30606678 -0.5348052 0.08284075 -0.4209184 -0.12997401 -0.0963531 -0.10017061
0.10556181 0.1727611 0.45156407 0.24562651 -0.19219676 -0.20857346 0.49345073 -0.32621264
-0.4247728 0.03875182 -0.26220322 0.49364728 -0.03927794 -0.20477612 0.4475812 0.38220608
0.11412036 0.15969555 0.17746843 -0.02009876 -0.2885058 0.3507383 0.23723501 0.3098733
0.06489496 0.10818782 0.621366 -0.40763795 -0.11256825 -0.4069938 -0.0065459423 0.09422353
0.5191766 0.017690636 -0.009237776 0.23329441 0.8804963 0.22698815 0.07348474 -0.16046719
0.14143628 0.16150236 0.34648705 0.09706349 0.16022152 -0.018908653 -0.1479765 0.13736036
0.22825044 -0.691458 -0.21500789 -0.1288326 -0.041878097 -0.19810729 -0.04901074 0.82972705
0.22089455 0.0022388906 -0.026766365 0.4487032 0.0694453 0.2066519 -0.42822585 -0.22186685
0.1961285 -0.02472403 -0.17432104 -0.12929341 -0.46650067 -0.17518933 -0.19221058 -0.045832798
0.025128534 0.1393761 0.26313916 0.76021266 0.23113634 -0.16864671 -0.24077648 -0.10482337
0.2934124 -0.016613921 -0.20398974 0.05456513 -0.39075318 -0.3891196 -0.18428445 0.15337768
0.15813647 -0.007594362 0.21831168 0.17563172 0.04943548 -0.18651673 0.035664335 0.44121572
0.0086748395 0.016860753 -0.051655028 -0.37688527 -0.32911155 0.110333934 0.46605662 0.6863649
00000000: c8d6 79be 159f 293e a490 1c3e 45aa e03e
00000010: 05d1 88bb f001 ecbd e983 fabd 086c fa3e
00000020: 6a68 e73e 15d8 063d 94a9 273e 14dd 0bbe
00000030: 2e89 fc3e 7044 5bbe 8970 b9bd bb59 84be
00000040: b306 3c3e 7081 1dbe 61f7 d0bd 95f3 aa3e
00000050: 9157 90bd 16e0 d13d c6b1 c13e 3f1e d4be
00000060: fb3d e23c 9892 babd 6c26 f73d c090 a53c
00000070: 2926 3ebe 1428 e0bd 5a6c fa3e 738d 95be
00000080: 9483 813e cf84 083e dd0a 81bd ec17 3b3d
00000090: d503 6a3d 014c 9d3e 40a5 05bf 526e 1bbe
000000a0: d15a 8b3e 4140 773e 4b7a 5bbb a6c9 943e
000000b0: ffab 543e a280 e13d aee5 963e 59e7 0d3c
000000c0: 0de2 32bd 40e2 38be 0366 82bd c89d 5c3e
000000d0: 528a 85be 0454 873e 395f ab3b 1ee0 873e
000000e0: 428f 98be f86a 9dbe 9b55 f73d 39ec 0d3f
000000f0: 019b b23e 6b56 0b3d f845 353e 01f9 a13d
00000100: 692c 28bd 5a24 42be 388c fdbe 9f58 ebbe
00000110: 69a4 23bd feca 87bd 0308 98bd 3c27 0abe
00000120: 4b5a d23d d880 1f3c b83c 88bc 0921 d83e
00000130: 6bf2 43be 81c1 303d 130a b9be 1ffe ff3d
00000140: 152e ea3e ebde b1be 8b1f efbc df26 6fbc
00000150: 95d2 543e f87a c3be b94d 37be 6b06 ad3e
00000160: 986f 32be 6a66 52bc 7da0 0dbe 586d c93e
00000170: a20b 753e 7bf8 2c3e 06db e6bd c899 9dbe
00000180: 638e 643e 3b4c 943e 0cab 573e f2cd e9bd
00000190: d520 fc3e 64dc c63c 553d 1c3b c316 7ebe
000001a0: dce1 f13d 0c52 023f 69a9 15be c554 53be
000001b0: 45fe 24bf f0a8 22bf e809 49bc 6b0f b8bd
000001c0: 3728 79be 0720 af3d d9ba 1d3c 2078 69be
000001d0: 25ae a2bc 5efb 5b3e d566 903c 5ba9 2a3c
000001e0: 15a8 5c3e 2c6f ad3c 94d6 2dbc efcf 9abd
000001f0: f1f0 86be b084 fc3d 7c39 3b3e 514e 3dbc
00000200: 57db 1d3e aa4a d43e d163 24bf da94 c2be
00000210: 8ecd 033f d815 893d b732 2abe 985d d03c
00000220: c2c6 2fbd b82b 30bd 0220 a53e a9ce 173e
00000230: 5657 d4be 2dbf a73e ccf7 f03d f923 cfbd
00000240: 57e2 e1be c9b4 9cbe fee8 08bf 69a8 a93d
00000250: 9e82 d7be e817 05be c654 c5bd 4026 cdbd
00000260: ca30 d83d 49e8 303e 6833 e73e 8485 7b3e
00000270: 3acf 44be 4894 55be 93a5 fc3e 5805 a7be
00000280: d27b d9be 3aba 1e3d 803f 86be 56bf fc3e
00000290: e8e1 20bd d5b0 51be 5d29 e53e 84b0 c33e
000002a0: efb7 e93d 3b87 233e 49ba 353e 28a6 a4bc
000002b0: 08b7 93be f893 b33e bced 723e b7a7 9e3e
000002c0: a6e7 843d 9391 dd3d d811 1f3f ecb5 d0be
000002d0: 2f8a e6bd 7e61 d0be 587f d6bb 44f8 c03d
000002e0: c2e8 043f f4eb 903c 0a5a 17bc bbe4 6e3e
000002f0: 3568 613f 956f 683e 2b7f 963d 8351 24be
00000300: acd4 103e e060 253e c066 b13e 39c9 c63d
00000310: 1c11 243e 52e6 9abc 2787 17be 32a8 0c3e
00000320: 7cba 693e 6403 31bf 072b 5cbe b1ec 03be
00000330: 5e88 2bbd a3dc 4abe 7cbf 48bd fe68 543f
00000340: 2e32 623e 5aba 123b 2345 dbbc 6dbc e53e
00000350: 5639 8e3d 8e9c 533e 6b40 dbbe 1031 63be
00000360: e9d5 483e 0d8a cabc 3781 32be 7e65 04be
00000370: 2dd9 eebe d564 33be dad2 44be 2cbb 3bbd
00000380: 5bda cd3c 9cb8 0e3e 2dba 863e 4c9d 423f
00000390: 01af 6c3e b9b1 2cbe 1c8e 76be a3ad d6bd
000003a0: 263a 963e eb19 88bc b0e2 50be b07f 5f3d
000003b0: cd10 c8be af3a c7be 10b5 3cbe 0a0f 1d3e
000003c0: 87ee 213e 20da f8bb 198d 5f3e cdd8 333e
000003d0: dc7c 4a3d 3efe 3ebe c414 123d 07e7 e13e
000003e0: ea20 0e3c 901f 8a3c 3994 53bd 1bf7 c0be
000003f0: 4f81 a8be c2f6 e13d f99e ee3e 9cb5 2f3f

r_cell.w_qs.bias f4 [24]
0.12099028 0.16462809 -0.057717785 0.031590175 -0.116678566 0.067257985 0.31466863 -0.20138735
-0.22861192 -0.124930225 0.09766749 -0.16702148 0.09350267 0.10059664 0.1709191 0.15824832
0.15375957 -0.112229705 -0.030638918 -0.021984084 0.10741374 0.11911156 0.004241936 -0.19966051
00000000: c0c9 f73d 4494 283e 7c69 6cbd b364 013d
00000010: 2cf5 eebd 8ebe 893d 3f1c a13e 7c38 4ebe
00000020: 3e19 6abe 6bdb ffbd e505 c83d ae07 2bbe
00000030: 547e bf3d 9c05 ce3d 6b05 2f3e d90b 223e
00000040: 2673 1d3e b0d8 e5bd 78fe fabc f717 b4bc
00000050: bcfb db3d c3f0 f33d f0ff 8a3b ce73 4cbe

r_cell.w_ks.weight f4 [24, 24]
0.33108968 -0.25770047 0.15005726 0.3317222 0.23730618 0.16078097 0.2957788 -0.17592235
-0.26865628 -0.043007303 0.022291653 -0.4858063 0.07089621 -0.382392 -0.073257595 -0.46144384
-0.4597488 0.28302932 0.24814889 -0.43146217 0.033544503 0.48637995 0.40963283 -0.361614
-0.24979335 -0.07417025 0.36368313 0.3798051 -0.21731874 -0.34852108 -0.020231314 -0.047125876
0.36934784 0.3250013 0.19793461 0.023280816 -0.5739229 0.49217 0.26572445 0.34936768
0.24956194 0.38494816 -0.069488585 -0.053852864 -0.23480064 -0.49077326 -0.20867379 0.007941496
-0.40303424 0.42735994 -0.00291479 -0.24336517 -0.051741954 -0.3670177 -0.23199277 -0.105681874
-0.0120863505 -0.44323727 0.39132166 0.28966254 -0.1718559 -0.11879628 -0.041728858 -0.33129886
0.19843964 -0.66855496 -0.063908294 0.10463422 -0.090761974 0.22663589 -0.1128927 0.9007749
0.054637764 -0.51645046 0.11271723 -0.04924971 -0.26845342 0.0650032 -0.09879403 -0.2693151
-0.24908935 -0.21892385 0.3361771 0.1880061 0.32457578 0.121164195 0.026743986 -0.061087642
-0.4813311 -0.21245563 0.009335894 -0.036617354 -0.25455981 0.03588924 0.23669328 0.86400056
-0.11756221 0.17129785 -0.4434177 0.20502308 -0.11895884 0.32702202 -0.12858605 -0.04830902
0.3584278 0.42429027 -0.15671338 0.25101 -0.44999593 -0.2658745 0.008629219 -0.22101067
-0.4914805 0.40821725 -0.14976244 -0.12738809 -0.30729482 -0.19799754 -0.02650259 -0.15830617
-0.016476411 0.35580552 -0.17192955 -0.32601473 0.5316135 -0.18779013 0.39804262 0.2590165
-0.1816625 -0.14873004 0.00037986736 -0.00075955 -0.10043103 -0.29667088 0.2710222 0.10361507
-0.07735064 0.38103816 -0.30025494 -0.045879465 -0.1577209 -0.16896994 0.16546969 0.04045645
-0.020496232 -0.09418341 -0.26677608 0.33375606 -0.30856153 0.15603323 -0.048431113 -0.18145905
0.044316776 -0.61578465 -0.010818334 -0.082403295 -0.40747955 -0.027649146 0.27788746 -0.46046716
-0.14301644 0.7568701 -0.17625439 -0.14684427 -0.34319752 -0.24031818 -0.18471228 -0.2960432
0.08886874 -0.23402324 0.6135735 0.14270295 0.06190056 0.4684803 0.13490483 -0.5444775
-0.10116014 -0.19237253 -0.27430052 0.03644325 0.3253656 0.17784648 0.24209292 -0.26592234
-0.30029345 -0.5221555 0.019580692 -0.06548908 0.15022206 -0.10317755 -0.2341006 -0.03999934
0.1645013 0.20619594 0.24350685 -0.15916257 0.4538792 -0.07648918 -0.59049046 -0.19983983
-0.16944651 -0.084945165 0.29763845 -0.09323098 0.041086297 0.0023167334 0.28130153 -0.09637325
0.10661949 -0.15069559 0.13110456 -0.37730992 0.55551374 -0.38177976 -0.22346787 0.513567
-0.21121009 0.22683331 -0.14765619 0.08375162 0.17925312 0.19027413 0.07974949 0.18659574
0.30741453 0.095935985 0.3749582 0.3526929 -0.16481264 -0.5127685 0.25982013 0.2819867
-0.44617617 -0.37989712 -0.010132704 -0.6347175 -0.24653833 0.27221033 0.29684368 -0.2553828
0.13299783 0.0456096 0.1292514 0.052509546 0.30022895 0.23473695 -0.3142124 -0.23872454
-0.09892482 0.39825845 0.30688342 0.12555702 0.20209609 0.022775404 0.5722932 -0.047433574
00000000: 9684 a93e 51f1 83be 9ca8 193e 7ed7 a93e
00000010: 6400 733e c4a3 243e 5270 973e fd24 34be
00000020: 518d 89be 6d28 30bd fc9c b63c 9abb f8be
00000030: 0832 913d e2c8 c3be 1408 96bd 5e42 ecbe
00000040: 3264 ebbe 38e9 903e be1a 7e3e 9ce8 dcbe
00000050: f665 093d cb06 f93e 65bb d13e 7825 b9be
00000060: d4c9 7fbe 92e6 97bd ad34 ba3e d075 c23e
00000070: ce88 5ebe 5b71 b2be 24bc a5bc 1007 41bd
00000080: 291b bd3e 9266 a63e 5faf 4a3e 69b7 be3c
00000090: 9cec 12bf b5fd fb3e 090d 883e 52e0 b23e
000000a0: 2a8d 7f3e ed17 c53e 0850 8ebd d294 5cbd
000000b0: 946f 70be a246 fbbe 95ae 55be 0c1d 023c
000000c0: 815a cebe ecce da3e 1006 3fbb b834 79be
000000d0: 5fef 53bd bee9 bbbe 838f 6dbe bd6f d8bd
000000e0: d405 46bc ffef e2be 505b c83e a64e 943e
000000f0: fefa 2fbe 774b f3bd e1eb 2abd 01a0 a9be
00000100: c333 4b3e 6b26 2bbf 5ae2 82bd 774a d63d
00000110: 6ae1 b9bd 3d13 683e 4a34 e7bd 2f99 663f
00000120: d9cb 5f3d 1936 04bf 4bd8 e63d 10ba 49bd
00000130: ba72 89be 6620 853d 8654 cabd abe3 89be
00000140: 4711 7fbe 932d 60be 681f ac3e ac84 403e
00000150: cc2e a63e ef24 f83d 3416 db3c 0937 7abd
00000160: 0871 f6be f88d 59be 94f5 183c 14fc 15bd
00000170: aa55 82be 9900 133d b95f 723e 242f 5d3f
00000180: 75c4 f0bd b468 2f3e a507 e3be 92f1 513e
00000190: b1a0 f3bd 6e6f a73e 10ac 03be aedf 45bd
000001a0: d983 b73e 933c d93e 7979 20be 6284 803e
000001b0: de65 e6be b420 88be 9161 0d3c 9f50 62be
000001c0: 55a3 fbbe da01 d13e 535b 19be 0672 02be
000001d0: bf55 9dbe debf 4abe f61b d9bc 031b 22be
000001e0: 8af9 86bc 242c b63e 4d0e 30be 67eb a6be
000001f0: d317 083f 0e4c 40be 3ecc cb3e d09d 843e
00000200: bc05 3abe b04c 18be ef28 c739 8a1c 47ba
00000210: c9ae cdbd 3fe5 97be 6cc3 8a3e 2334 d43d
00000220: 036a 9ebd 6f17 c33e 04bb 99be 1bec 3bbd
00000230: 9681 21be 7506 2dbe e370 293e aab5 253d
00000240: b7e7 a7bc 3be3 c0bd e096 88be 13e2 aa3e
00000250: c7fb 9dbe 2dc7 1f3e b45f 46bd 67d0 39be
00000260: 8285 353d 10a4 1dbf 623f 31bc 0fc3 a8bd
00000270: 29a1 d0be 7680 e2bc 4447 8e3e 5ac2 ebbe
00000280: e772 12be 3dc2 413f 087c 34be 585e 16be
00000290: 96b7 afbe f815 76be 3725 3dbe f992 97be
000002a0: d000 b63d caa3 6fbe 2713 1d3f b920 123e
000002b0: 718b 7d3d a6dc ef3e 7e24 0a3e e162 0bbf
000002c0: 0c2d cfbd 4efd 44be 1e71 8cbe 8445 153d
000002d0: 5296 a63e 631d 363e 35e7 773e f926 88be
000002e0: 10c0 99be fcab 05bf b067 a03c 241f 86bd
000002f0: d0d3 193e c04e d3bd 11b8 6fbe 59d6 23bd
00000300: 0773 283e 0725 533e dc59 793e 83fb 22be
00000310: db62 e83e 5ca6 9cbd 622a 17bf d0a2 4cbe
00000320: 6383 2dbe bbf7 adbd 1164 983e e2ef bebd
00000330: 1b4a 283d 56d4 173b c106 903e 575f c5bd
00000340: 525b da3d f24f 1abe 4640 063e c42e c1be
00000350: 2636 0e3f a378 c3be c3d4 64be 2079 033f
00000360: 7547 58be fe46 683e 2f33 17be f885 ab3d
00000370: 218e 373e 39d7 423e b353 a33d f412 3f3e
00000380: 7065 9d3e 167a c43d 85fa bf3e 2a94 b43e
00000390: a5c4 28be cc44 03bf 2507 853e 9060 903e
000003a0: 3471 e4be e081 c2be a403 26bc d97c 22bf
000003b0: 8b74 7cbe 275f 8b3e e5fb 973e 89c1 82be
000003c0: 9530 083e 22d1 3a3d 7b5a 043e 4014 573d
000003d0: 9cb7 993e e25e 703e 73e0 a0be 3574 74be
000003e0: 1999 cabd 88e8 cb3e d31f 9d3e 0592 003e
000003f0: 47f2 4e3e 7c93 ba3c cf81 123f b549 42bd

r_cell.w_ks.bias f4 [24]
0.032744206 0.19090284 0.04464738 0.055291284 0.23702583 0.23336697 0.18527642 -0.10690584
-0.2385853 -0.066141956 0.010869794 -0.070648916 0.015122147 0.1323285 -0.038413838 0.26164487
0.09483943 0.06763845 -0.2099176 0.0058857263 -0.16002725 0.042407103 -0.07804547 0.004550621
00000000: ca1e 063d 097c 433e 2ce0 363d 1d79 623d
00000010: e6b6 723e c0f7 6e3e 1ab9 3d3e 73f1 dabd
00000020: b44f 74be 6f75 87bd 3817 323c 61b0 90bd
00000030: e2c2 773c 1f81 073e d457 1dbd 51f6 853e
00000040: 2d3b c23d 0786 8a3d a4f4 56be 0ddd c03b
00000050: 2fde 23be 12b3 2d3d 4ed6 9fbd 601d 953b

r_cell.w_vs.weight f4 [24, 24]
-0.08115885 0.5093947 -0.0019739824 0.23264688 0.3857606 0.43506646 0.25324824 0.50093174
0.33695894 0.1498541 0.12495084 -0.41355577 -0.29348207 -0.49914455 -0.10779942 -0.04934169
0.4788277 -0.15086395 0.18735747 0.2160183 -0.24049991 0.057108965 -0.48145813 -0.12011366
-0.34509504 -0.3840506 -0.272476 -0.07441771 0.0769789 0.10339026 0.1789014 1.4139367
0.36943388 -0.22530824 0.24642996 -0.65112615 0.12754983 0.69645214 0.25593638 0.20644872
-0.0076152333 0.05905781 -0.3477883 -0.31314126 0.38510382 -0.31751665 -0.32225314 0.16830817
-0.73623896 -0.073376015 -0.029279752 -0.63673425 -0.09633881 0.5696443 -0.7776298 -0.2985786
-0.54189867 -0.022951799 -0.18025506 -0.33963323 -0.10213313 -0.41403252 -0.29960826 0.4556659
-0.13901605 -0.10200235 -0.07794223 -0.23309685 -0.3372781 0.27225766 -0.05995393 0.2984506
0.6828523 -0.17420258 0.023960926 -0.22433092 0.45168328 -0.29374734 -0.49013686 0.1456854
0.39133483 -0.22431989 0.2789295 0.20785466 0.17387593 -0.01500693 1.1646991 0.17139122
0.052306842 0.19646728 0.26751563 -0.042604383 0.47837192 0.32294634 0.19482057 0.12068164
-0.22916336 -0.15238343 0.526846 -0.21260287 -0.49970004 -0.29113024 0.3287391 -0.7590519
0.21964227 -0.03206738 0.26784718 0.5124555 -0.09099493 0.48407766 -0.2325732 0.33287978
0.09609097 -0.16469571 0.18336684 0.15102687 0.3958406 -0.2330382 -0.26522002 -0.4276337
0.15171678 0.3839098 0.44723666 -0.011937533 0.50931835 -0.8087932 -0.40157965 -0.66948336
-0.5031642 -0.36204776 -0.047342002 -0.15607488 -0.37573293 -0.23911457 -0.012276253 -0.096282564
0.16267286 -0.091938324 -0.29934087 0.24234088 -0.03170974 -0.46881485 0.68272775 -0.21875559
0.25732106 -0.25753734 -0.9256986 0.15456234 -0.2662644 -0.58093405 -0.037596315 0.6417455
0.040589046 -0.10991391 -0.04503919 0.04151256 -0.096491046 0.23677333 0.8075598 -0.027951598
0.55134666 -0.34550685 0.029694412 -0.41698736 1.102547 0.28368324 0.15648864 0.2820043
0.38074017 0.09926963 0.26052272 0.15351799 -0.2568202 0.12757449 0.279251 0.5793364
-0.08887553 -0.33563483 0.30914593 0.009949407 -0.37137 -0.24475478 0.6486693 -0.108267635
-0.08210703 -0.00264406 -0.41899642 -0.6270585 -0.4651136 0.18855686 -0.3671752 0.24425226
0.13231826 -0.0632206 0.29078865 0.10859144 0.30091298 -0.36046547 0.03838334 0.36954036
0.055151723 -0.08853277 0.23786971 0.24731445 -0.13272575 -0.020908533 0.69364345 0.6954023
-0.17573895 -0.10737342 -0.026440382 0.5351304 0.38407177 0.26969004 0.310308 0.19437648
-0.0009625359 -0.3618622 -0.10100341 -0.024783898 -0.007131981 -0.439661 0.2583015 -0.9163158
-0.33602622 0.0024262823 0.30796388 -0.113941595 0.017226065 0.17306559 -0.16015293 0.5845391
0.34758556 -0.3971777 -0.24813844 -0.02588719 0.6448076 -0.07891421 0.49369484 -0.15282287
0.23049371 -0.23599158 0.26825556 -0.3750921 0.329776 -0.7766212 -0.32029474 -0.40985835
0.059977297 -0.26491484 0.15650465 0.36215347 0.06504948 -0.80519974 0.14665718 0.26644534
00000000: 9c36 a6bd b167 023f ee5d 01bb fc3a 6e3e
00000010: 6a82 c53e 08c1 de3e c1a9 813e 103d 003f
00000020: e285 ac3e 5a73 193e 3ae6 ff3d 95bd d3be
00000030: 4843 96be e08f ffbe f1c5 dcbd 831a 4abd
00000040: e728 f53e 147c 1abe a3da 3f3e e733 5d3e
00000050: 9c45 76be 17eb 693d ae81 f6be 27fe f5bd
00000060: 4cb0 b0be 48a2 c4be f981 8bbe 5068 98bd
00000070: 1da7 9d3d 46be d33d ee31 373e e1fb b43f
00000080: 7026 bd3e 34b7 66be 2358 7c3e 34b0 26bf
00000090: 6c9c 023e b04a 323f 180a 833e 4b67 533e
000000a0: 3589 f9bb 9ae6 713d 4f11 b2be 0d54 a0be
000000b0: 542c c53e 8b91 a2be 5dfe a4be fa58 2c3e
000000c0: 287a 3cbf 2a46 96bd 17dc efbc 0401 23bf
000000d0: 484d c5bd 35d4 113f bf12 47bf 4bdf 98be
000000e0: dfb9 0abf 6905 bcbc c894 38be 68e4 adbe
000000f0: 2d2b d1bd 12fc d3be 4166 99be 0a4d e93e
00000100: 395a 0ebe 9ce6 d0bd 2da0 9fbd f1b0 6ebe
00000110: b7af acbe 5b65 8b3e 4192 75bd 84ce 983e
00000120: 69cf 2e3f 2962 32be b449 c43c 01b7 65be
00000130: 0843 e73e 0d66 96be 38f3 fabe 8e2e 153e
00000140: 0a5d c83e 1db4 65be d9cf 8e3e dad7 543e
00000150: 880c 323e a0df 75bc dc14 953f 2e81 2f3e
00000160: b33f 563d b82e 493e cff7 883e ef81 2ebd
00000170: 2aed f43e 3959 a53e 0b7f 473e f027 f73d
00000180: cda9 6abe 670a 1cbe 61df 063f 91b4 59be
00000190: afd8 ffbe 060f 95be 7e50 a83e 3a51 42bf
000001a0: e7e9 603e 1659 03bd 4423 893e 4930 033f
000001b0: 8d5b babd 07d9 f73e ab27 6ebe 386f aa3e
000001c0: 58cb c43d fea5 28be 84c4 3b3e caa6 1a3e
000001d0: 9eab ca3e 91a1 6ebe ebca 87be cef2 dabe
000001e0: a55b 1b3e d38f c43e 34fc e43e a495 43bc
000001f0: b062 023f 120d 4fbf d99b cdbe 4363 2bbf
00000200: 5ecf 00bf 535e b9be b0e9 41bd 18d2 1fbe
00000210: 1160 c0be 73da 74be 5622 49bc cb2f c5bd
00000220: b793 263e 294a bcbd 3543 99be 3528 783e
00000230: 13e2 01bd 8008 f0be 3fc7 2e3f 7701 60be
00000240: 96bf 833e efdb 83be 95fa 6cbf 9745 1e3e
00000250: cf53 88be 18b8 14bf 98fe 19bd 6f49 243f
00000260: b340 263d 8b1a e1bd 047b 38bd 1309 2a3d
00000270: 199d c5bd b574 723e 3dbc 4e3f c0fa e4bc
00000280: 0e25 0d3f 46e6 b0be b241 f33c 5e7f d5be
00000290: 4320 8d3f ee3e 913e 8f3e 203e de62 903e
000002a0: 60f0 c23e e04d cb3d 3c63 853e d233 1d3e
000002b0: f07d 83be e3a2 023e fdf9 8e3e 644f 143f
000002c0: 6004 b6bd 54d8 abbe 6048 9e3e d602 233c
000002d0: 3524 bebe ffa0 7abe 310f 263f 6cbb ddbd
000002e0: bb27 a8bd f747 2dbb b386 d6be e886 20bf
000002f0: 5f23 eebe 0d15 413e 63fe bbbe 441d 7a3e
00000300: 707e 073e cd79 81bd 40e2 943e 3065 de3d
00000310: 4411 9a3e ee8e b8be d937 1d3d 6534 bd3e
00000320: c6e6 613d ab50 b5bd 1e94 733e 0040 7d3e
00000330: 42e9 07be 5f48 abbc 9e92 313f e305 323f
00000340: e9f4 33be 98e6 dbbd 8099 d8bc 4efe 083f
00000350: 0ea5 c43e d014 8a3e b1e0 9e3e a10a 473e
00000360: b152 7cba 0146 b9be e0da cebd 9a07 cbbc
00000370: 65b3 e9bb 3f1b e1be 1840 843e ac93 6abf
00000380: a10b acbe 4302 1f3b 71ad 9d3e 365a e9bd
00000390: ad1d 8d3c 1b38 313e 21ff 23be 5ba4 153f
000003a0: bcf6 b13e e05a cbbe 0118 7ebe 5f11 d4bc
000003b0: 1c12 253f c69d a1bd 92c5 fc3e 997d 1cbe
000003c0: 8b06 6c3e c7a7 71be cb58 893e 120c c0be
000003d0: 66d8 a83e a6d0 46bf acfd a3be f4d8 d1be
000003e0: c1aa 753d eba2 87be c142 203e 2e6c b93e
000003f0: a938 853d 9221 4ebf 4d2d 163e 866b 883e

r_cell.w_vs.bias f4 [24]
-0.08128588 0.13557148 0.12669997 0.31444502 0.22952574 -0.12978883 0.21403646 0.09717251
0.10216736 -0.057807337 0.1643226 0.28689453 -0.17133732 0.01760148 -0.0811258 0.014169264
-0.22650103 0.04467563 -0.23224428 -0.14823036 -0.042742655 -0.0184695 -0.108650185 -0.116576605
00000000: 3679 a6bd 40d3 0a3e a3bd 013e f0fe a03e
00000010: cc08 6b3e 5de7 04be 602c 5b3e 6202 c73d
00000020: 1f3d d13d 63c7 6cbd 2f44 283e d7e3 923e
00000030: 0d73 2fbe fb30 903c 4925 a6bd 3326 683c
00000040: e3ef 67be cbfd 363d 72d1 6dbe b3c9 17be
00000050: ec12 2fbd 594d 97bc fd83 debd b7bf eebd

r_cell.layer_norm.weight f4 [24]
0.78643066 0.97707665 0.9303417 0.97221166 0.9632577 0.82504 1.3265939 1.0507463
0.81475145 1.1553862 1.1619112 1.2808384 1.0569184 1.221307 1.2363044 1.087698
1.3724401 0.93438447 1.1953405 0.98244447 0.99459726 1.0510039 1.1269819 1.026369
00000000: 8553 493f b221 7a3f e02a 6e3f dde2 783f
00000010: 0e98 763f d235 533f d4cd a93f db7e 863f
00000020: 8d93 503f b2e3 933f 82b9 943f 83f2 a33f
00000030: 1a49 873f ca53 9c3f 393f 9e3f b039 8b3f
00000040: 1eac af3f d233 6f3f eb00 993f 7b81 7b3f
00000050: ed9d 7e3f 4c87 863f f140 903f 0f60 833f

r_cell.layer_norm.bias f4 [24]
-0.032575052 -0.18216555 0.037567206 0.014521655 -0.0045218244 0.18391125 -0.15847428 -0.029460393
0.20203647 0.153487 -0.032715384 -0.041862547 -0.026453752 0.03458449 0.03571111 -0.07791917
-0.025346287 0.17482491 -0.06922971 0.07850091 0.059121702 -0.107384756 0.14918318 0.15324989
00000000: 6b6d 05bd 9b89 3abe 12e0 193d 3cec 6d3c
00000010: d02b 94bb 3b53 3c3e 1547 22be ec56 f1bc
00000020: a6e2 4e3e b22b 1d3e 9100 06bd 1078 2bbd
00000030: 8ab5 d8bc 77a8 0d3d d045 123d 1694 9fbd
00000040: 04a3 cfbc 4d05 333e 4ec8 8dbd 16c5 a03d
00000050: 9929 723d 8aec dbbd 7ac3 183e 8aed 1c3e

r_cell.fc.weight f4 [24, 24]
-0.018338889 -0.36478987 -0.0674376 -0.20909917 0.090086825 0.052617144 -0.69427043 -0.18824574
-0.3909544 0.5647475 0.2484559 -0.4261623 -0.8122065 -0.42717102 -0.06369575 -0.016836248
0.21327579 0.1259936 0.54790217 0.54816675 -0.40011033 0.57714266 -0.1985425 0.06867867
0.49034294 -0.21394588 0.023808599 -0.6348239 -0.07919828 0.7015117 -0.40794238 -0.10492769
-0.32419646 0.15773341 -0.20002949 -0.5103797 -0.3118942 0.09885425 -0.46524665 0.02741836
0.28079277 0.25617275 0.13974953 0.31092584 -0.8588185 0.079687856 -0.46723065 0.18589026
-0.24828264 -0.27116776 0.013273434 0.43255708 0.21165192 -0.22067608 0.11080299 -0.106872395
0.46723488 0.088204935 0.7672806 0.53007495 0.36849627 0.25359768 -0.10346883 -0.18136267
-0.10016271 -1.1175275 -0.01384407 -0.013377024 0.71801513 -0.13812648 0.116396986 0.43843362
-0.20677193 0.13616906 -0.18956493 0.28360754 -0.09544381 0.1823836 0.5062761 -0.29046747
0.18667515 0.042626962 0.16926548 0.35267237 -0.20435193 -0.07595824 0.6521726 0.0073375097
-0.35600433 0.07297852 -0.044492804 -0.50793743 0.10307493 0.3366728 -0.2556068 -0.013946703
-0.24184138 -0.24994513 -0.32431826 0.44337448 -0.30295593 0.87020147 -0.34021282 -0.10338575
0.18667369 0.16341463 0.48602697 0.33041912 -0.37060145 -0.53253895 -0.21362911 0.19476917
-0.35352185 -0.34942907 -0.037235964 -0.48041552 0.12785982 0.3534321 -0.28403866 0.47457802
0.030293573 0.19312632 -0.12231678 0.20696269 -0.094690464 -0.26109073 1.1078167 0.44321245
0.16396709 -0.13272914 -0.1807452 0.8087906 0.5355437 -0.26924592 0.57511896 0.044648927
-0.47852907 0.37054673 -0.47443238 -0.3563938 0.17048794 0.09951642 0.24313585 -0.2001495
0.23797095 -0.24095385 0.005022978 -0.28616965 0.28798068 0.6084159 0.055843946 0.21748665
-0.08419976 0.13001163 -0.060112476 0.08856969 -0.13649377 -0.34301144 0.2522979 0.18675297
0.1608142 0.1015141 -0.11395665 0.37178063 -0.35118693 0.17595991 0.13757378 0.54786783
0.33015868 0.42418197 0.27994415 -0.020379687 -0.28725657 -0.42129135 -0.14513303 -0.068797395
0.28561446 -0.37110233 -0.03960021 -0.095399745 0.45089453 0.18944502 -0.18531333 0.3443636
0.0153604755 0.49037588 -0.07931357 -0.039361104 -0.1519801 -0.18726751 -0.52821296 -0.46422845
0.45192707 0.37657797 -0.5481858 0.39719045 -0.061868317 -0.59728557 0.7086873 -0.012415077
0.5331535 -0.28617552 -0.43586868 0.35451528 0.34678084 -0.19293405 0.23379816 0.20496352
-0.020428305 0.08058736 -0.68453383 -5.6053606e-05 -0.41606084 -0.31781536 0.017400313 0.31438804
0.3496726 0.63660437 -0.17326736 0.3207811 -0.14494646 -0.26812956 0.39346415 0.076554134
-0.19499871 0.10770033 -0.082680844 0.44906193 -0.21094064 -0.046209 0.0971757 -0.045387696
0.111843325 0.28013474 0.12479183 0.031275444 -0.68463945 0.2628864 0.36289144 0.25555816
-0.16312756 0.2846783 0.23254536 0.006874986 -0.02552516 0.010369949 0.29551503 -0.1773576
0.08825446 0.1683412 0.24683793 0.3111326 0.07567089 -0.09967572 -0.14831173 -0.378756
00000000: 703b 96bc bdc5 babe b91c 8abd 181e 56be
00000010: 717f b83d 1385 573d b5bb 31bf 7ec3 40be
00000020: 2d2b c8be 4b93 103f 396b 7e3e f231 dabe
00000030: c4ec 4fbf 29b6 dabe eb72 82bd 2cec 89bc
00000040: f864 5a3e 7704 013e 5143 0c3f a854 0c3f
00000050: 43db ccbe 9fbf 133f ba4e 4bbe 67a7 8c3d
00000060: 3b0e fb3e a114 5bbe 400a c33c d283 22bf
00000070: b532 a2bd 4596 333f d3dd d0be 54e4 d6bd
00000080: 14fd a5be de84 213e 88d4 4cbe 3ea8 02bf
00000090: 99b0 9fbe 1974 ca3d cf34 eebe 789c e03c
000000a0: 12c4 8f3e 1329 833e 801a 0f3e ac31 9f3e
000000b0: 87db 5bbf 6333 a33d db38 efbe 045a 3e3e
000000c0: ce3d 7ebe 80d6 8abe d178 593c 1f78 dd3e
000000d0: 48bb 583e e9f8 61be aeec e23d eadf dabd
000000e0: 6939 ef3e caa4 b43d 806c 443f feb2 073f
000000f0: 8bab bc3e 8ed7 813e 77e7 d3bd 23b7 39be
00000100: 1b22 cdbd 240b 8fbf 3dd2 62bc 4e2b 5bbc
00000110: d7cf 373f 0771 0dbe 8b61 ee3d 5f7a e03e
00000120: 05bc 53be e76f 0b3e 4f1d 42be 0235 913e
00000130: 0b78 c3bd c4c2 3a3e 4f9b 013f 27b8 94be
00000140: c527 3f3e 9c99 2e3d ee53 2d3e 7991 b43e
00000150: a241 51be fe8f 9bbd c9f4 263f 7e6f f03b
00000160: 3346 b6be c375 953d 163e 36bd 3008 02bf
00000170: f318 d33d 6160 ac3e e5de 82be b680 64bc
00000180: 44a5 77be 9ef1 7fbe 0b0d a6be fb01 e33e
00000190: 0a1d 9bbe 86c5 5e3f 6030 aebe e8bb d3bd
000001a0: 6327 3f3e 2a56 273e 87d8 f83e b22c a93e
000001b0: 79bf bdbe 7954 08bf 97c1 5abe 9271 473e
000001c0: d100 b5be 5ee8 b2be bd84 18bd 06f9 f5be
000001d0: afed 023e 0df5 b43e 846d 91be e4fb f23e
000001e0: 3a2a f83c e8c2 453e 3881 fabd 07ee 533e
000001f0: 13ed c1bd afad 85be f0cc 8d3f beec e23e
00000200: fde6 273e 26ea 07be 4515 39be e70c 4f3f
00000210: 6419 093f 9ada 89be ff3a 133f cbe1 363d
00000220: c301 f5be 4db8 bd3e cde8 f2be 4079 b6be
00000230: 6494 2e3e 44cf cb3d 9bf8 783e fef3 4cbe
00000240: a8ae 733e 9bbc 76be cb97 a43b d484 92be
00000250: 3472 933e 25c1 1b3f 9fbc 643d d2b4 5e3e
00000260: ec70 acbd c521 053e 8038 76bd 0764 b53d
00000270: 06c5 0bbe 329f afbe 312d 813e 2c3c 3f3e
00000280: 7aac 243e a0e6 cf3d 1b62 e9bd 085a be3e
00000290: c6ce b3be d62e 343e 24e0 0c3e 1141 0c3f
000002a0: 8f0a a93e 612e d93e d754 8f3e 4df3 a6bc
000002b0: 4b13 93be 80b3 d7be c19d 14be a6e5 8cbd
000002c0: 0f3c 923e 2001 bebe d433 22bd f160 c3bd
000002d0: a6db e63e e0fd 413e c7c2 3dbe 6d50 b03e
000002e0: 81aa 7b3c 8c12 fb3e 276f a2bd 1c39 21bd
000002f0: aca0 1bbe 0ec3 3fbe f738 07bf 5aaf edbe
00000300: fc62 e73e d4ce c03e e855 0cbf 8c5c cb3e
00000310: a269 7dbd b5e7 18bf 886c 353f 9b68 4bbc
00000320: bf7c 083f 9985 92be 2e2a dfbe 0783 b53e
00000330: 428d b13e 8190 45be c968 6f3e f5e1 513e
00000340: 4359 a7bc fc0a a53d 9c3d 2fbf 1a1b 6bb8
00000350: ed05 d5be b2b8 a2be 1a8b 8e3c 78f7 a03e
00000360: 4908 b33e 81f8 223f 006d 31be 6c3d a43e
00000370: d86c 14be 4748 89be 2274 c93e 6ac8 9c3d
00000380: bead 47be fe91 dc3d 9354 a9bd 72eb e53e
00000390: d300 58be a645 3dbd 0e04 c73d 73e8 39bd
000003a0: 1d0e e53d d26d 8f3e dc92 ff3d ae1a 003d
000003b0: 8844 2fbf 0c99 863e e8cc b93e 85d8 823e
000003c0: e90a 27be 5bc1 913e 5f20 6e3e 9047 e13b
000003d0: 241a d1bc b8e6 293c bf4d 973e 3b9d 35be
000003e0: c1be b43d a361 2c3e 15c3 7c3e c64c 9f3e
000003f0: 57f9 9a3d c922 ccbd 08df 17be 4eec c1be

r_cell.fc.bias f4 [24]
-0.11403368 -0.100333065 0.044015966 0.14175315 0.116524845 0.11379087 0.24356747 -0.25811082
0.015728869 0.1755378 -0.09050633 -0.11443022 -0.12242891 -0.08945804 -0.046192292 -0.16912244
0.16557185 -0.048972607 -0.06091487 0.10052997 -0.021139467 -0.16835955 0.1306804 0.35208184
00000000: 7d8a e9bd 6c7b cdbd 164a 343d bd27 113e
00000010: 94a4 ee3d 300b e93d c069 793e 1a27 84be
00000020: d4d9 803c 2ec0 333e 625b b9bd 645a eabd
00000030: 02bc fabd c735 b7bd 2134 3dbd 6f2e 2dbe
00000040: ab8b 293e 8097 48bd df81 79bd a8e2 cd3d
00000050: ad2c adbc 7266 2cbe 15d1 053e 1244 b43e

fc1.0.bias f4 [24]
0.08254711 -0.034399137 0.113032356 0.040555466 -0.019505061 -0.104511485 -0.0037464157 0.036051687
0.045174208 0.014151376 -0.030218558 0.14513758 0.029778179 0.13322999 -0.036291763 -0.07388804
0.07138917 -0.13307089 -0.025701962 0.054887623 0.054001253 0.03785797 0.054888282 0.0097901225
00000000: 760e a93d 1ce6 0cbd 827d e73d 7d1d 263d
00000010: 14c9 9fbc 1e0a d6bd 6d86 75bb efaa 133d
00000020: 9708 393d 2cdb 673c e98c f7bc f29e 143e
00000030: 5ef1 f33c 716d 083e aca6 14bd 9d52 97bd
00000040: 7c34 923d bc43 08be ec8c d2bc d8d1 603d
00000050: 6b30 5d3d f510 1b3d 89d2 603d c066 203c

fc1.0.weight_orig f4 [24, 6]
0.090187326 -0.0762311 0.07909988 -0.08168421 0.07348555 0.26124832 -0.14357847 0.11326543
-0.12842712 0.14152934 -0.11451126 -0.24007265 -0.05132864 -0.0039477944 -0.024890212 0.030581484
-0.050624643 -0.31712505 0.29202247 -0.06654564 0.27577904 -0.1397306 0.22478521 0.030573577
0.3225865 -0.09748356 0.33195028 -0.16764204 0.2780073 0.20172404 0.05137071 -0.022462979
0.100945726 -0.030932155 0.03778639 -0.31386742 0.10331553 -0.0664278 0.16227488 -0.06472903
0.07315302 -0.28352225 0.1655744 -0.10514838 0.072569445 -0.12244921 0.13210854 0.15160023
0.17433587 -0.13806501 0.24820162 -0.16761002 0.13331626 0.22491577 0.21432418 -0.053237427
0.38380393 -0.14342645 0.19822568 -0.1512095 0.23715372 -0.11736928 0.24790642 -0.16700292
0.19089572 -0.4114649 0.15507385 0.01271432 0.27612343 -0.015443386 0.13389242 0.14032723
-0.033869136 0.040861998 0.010417123 0.04425105 -0.03324448 0.8031911 0.12128191 -0.006384559
0.069725186 -0.03236052 0.11046164 0.020556059 0.034536134 -0.078829624 0.035828136 -0.06685054
0.029335266 -0.55146873 -0.058446463 0.08736486 -0.10737424 0.09723753 -0.029961789 -0.35443637
-0.15298888 0.13861445 -0.21102397 0.14446686 -0.112737514 -0.15623984 -0.046828855 -0.0035472075
-0.12059309 0.007676629 -0.038253285 -0.17078477 -0.0045334357 -0.022683261 -0.044759426 -0.010597595
0.0018324797 -0.82865477 0.04719025 0.09127863 -0.12809567 0.07767655 0.055533007 -0.16924477
-0.16648383 0.12507953 -0.21861729 0.15725996 -0.11971895 -0.18027991 -0.067443654 0.09900856
-0.1846748 0.075963706 -0.015274684 -0.015367055 -0.06119809 0.09965944 -0.047712553 0.09414723
-0.045854364 0.62492245 0.039361525 -0.023030534 0.10655848 -0.02432961 0.019969713 -0.24262722
00000000: 22b4 b83d 0d1f 9cbd 1eff a13d 0d4a a7bd
00000010: 987f 963d 57c2 853e 3c06 13be b5f7 e73d
00000020: 6682 03be 11ed 103e e184 eabd 9bd5 75be
00000030: fb3d 52bd 805c 81bb 8fe6 cbbc 0586 fa3c
00000040: c95b 4fbd 375e a2be f883 953e 1549 88bd
00000050: e932 8d3e 8a15 0fbe 182e 663e 7075 fa3c
00000060: 0f2a a53e 76a5 c7bd 63f5 a93e 5baa 2bbe
00000070: f956 8e3e bf90 4e3e 186a 523d 4804 b8bc
00000080: a2bc ce3d 6e65 fdbc e7c5 1a3d 3bb3 a0be
00000090: 1897 d33d 4c0b 88bd 632b 263e a790 84bd
000000a0: 40d1 953d d429 91be 568c 293e 0958 d7bd
000000b0: 4a9f 943d a7c6 fabd 7647 073e 173d 1b3e
000000c0: 1a85 323e ea60 0dbe 9128 7e3e f6a1 2bbe
000000d0: 0f84 083e 5250 663e cc77 5b3e 7d0f 5abd
000000e0: f381 c43e 62de 12be acfb 4a3e aad6 1abe
000000f0: 6dd8 723e 4e5f f0bd 2edb 7d3e d002 2bbe
00000100: 2b7a 433e 87ab d2be aecb 1e3e b94f 503c
00000110: 0d60 8d3e 4106 7dbc 181b 093e f1b1 0f3e
00000120: 5dba 0abd e95e 273d 95ac 2a3c 9740 353d
00000130: 5d2b 08bd ef9d 4d3f a662 f83d 9035 d1bb
00000140: 14cc 8e3d 778c 04bd b639 e23d 2e65 a83c
00000150: c375 0d3d 6d71 a1bd 86c0 123d f0e8 88bd
00000160: 8350 f03c 0e2d 0dbf 8f65 6fbd 59ec b23d
00000170: 07e7 dbbd 7824 c73d 6d72 f5bc af78 b5be
00000180: 1ea9 1cbe f2f0 0d3e ab16 58be 1fef 133e
00000190: ede2 e6bd 56fd 1fbe 9dcf 3fbd 4478 68bb
000001a0: 83f9 f6bd 3b8c fb3b 7aaf 1cbd 34e2 2ebe
000001b0: 378d 94bb 3fd2 b9bc a955 37bd 89a1 2dbc
000001c0: d12f f03a b822 54bf 904a 413d 4af0 ba3d
000001d0: 832b 03be e214 9f3d 9476 633d 804e 2dbe
000001e0: bd7a 2abe d914 003e 36dd 5fbe c108 213e
000001f0: 352f f5bd 4c9b 38be e61f 8abd 00c5 ca3d
00000200: 641b 3dbe dc92 9b3d ab42 7abc 1ac6 7bbc
00000210: d9aa 7abd 401a cc3d 3d6e 43bd 43d0 c03d
00000220: c9d1 3bbd ebfa 1f3f 8d39 213d 88aa bcbc
00000230: 553b da3d e44e c7bc 8697 a33c 4573 78be

fc1.0.weight_u f4 [24]
0.15617302 -0.1489286 -0.18361825 0.041725088 0.14335597 -0.1717764 -0.14962518 0.096754834
0.14683887 -0.059139565 -0.21217798 0.09800868 0.45500544 0.019869918 -0.30955973 -0.20897372
-0.10504413 -0.10413857 -0.47255924 -0.100377046 -0.11960263 -0.019434556 0.3496827 -0.13165344
00000000: d2eb 1f3e bd80 18be 6c06 3cbe ede7 2a3d
00000010: e8cb 123e 27e6 2fbe 5837 19be 6627 c63d
00000020: ee5c 163e 543c 72bd 2f45 59be c6b8 c83d
00000030: 79f6 e83e 3dc6 a23c 9d7e 9ebe 35fd 55be
00000040: 6021 d7bd 9a46 d5bd 49f3 f1be 7b92 cdbd
00000050: 39f2 f4bd 3835 9fbc 9c09 b33e 29d0 06be

fc1.0.weight_v f4 [6]
0.042410173 0.0004703355 0.07646366 -0.017914642 0.029909965 0.99555963
00000000: 4ab6 2d3d 5d97 f639 fb98 9c3d bac1 92bc
00000010: be05 f53c ffdc 7e3f

fc1.1.weight f4 [24, 24]
-0.60436624 0.6947293 0.38964525 1.0125289 0.93746775 0.6124657 0.35894746 0.4684789
-0.96986806 -1.1901354 0.6779733 -0.6730656 0.3012088 0.059586946 0.50388074 -0.06930533
0.47377297 0.8440846 -0.055781774 -0.12593028 -0.827775 0.2741342 -0.3804759 -0.5327138
-0.6374897 -0.033324283 -0.7562692 -0.086796716 -0.05766705 -0.3011955 -0.46142408 0.15554468
0.7013781 0.073766164 0.6864589 0.13518994 0.84744465 0.2499752 -0.15996175 1.1913749
0.4105119 -0.34783897 -0.84539616 1.39498 0.27566007 -0.6899923 -0.032410733 -0.20376827
0.56354225 -0.3888978 0.19551568 -1.0885973 -0.80286205 -0.45009163 -0.15383002 -0.57354695
0.5187855 0.8707127 -0.83586955 -0.072086 -0.8629795 -0.13521428 -0.72908586 0.69215405
-0.092897676 0.43746692 1.065425 0.9091353 -0.1371546 -0.029499302 0.5612996 -0.13111758
-0.8308346 0.5227252 -0.16254736 0.9510276 0.63885564 0.6176705 0.10946364 0.15220866
-0.3823654 -1.2365788 0.60778093 -0.17017667 1.0835314 -0.43707857 0.5885559 0.1299174
-0.03145989 0.67202044 -0.9349163 -1.3029417 -0.29694083 0.15124193 -1.0997051 0.24002323
0.6959389 -0.59477365 -0.6514158 -1.4954052 -1.1841038 -0.72146165 -0.9636357 -1.1947687
1.4051741 1.4117057 -0.7276704 -0.009697477 -0.47582993 0.07158603 -0.4351794 -0.24443892
0.29671404 -0.055326432 -0.14745657 0.14270855 0.9513069 0.13266434 0.49302554 -0.3922754
-0.35079587 -0.7574507 -1.4207088 -0.27709097 -0.105459064 -0.34497222 -0.4532772 -0.59509593
0.44885248 -0.07502408 0.831013 0.6330315 0.75667864 -0.17805083 -0.04378434 1.4036591
0.1697865 0.06833778 -1.3308161 -0.02680124 0.2850582 -0.8498085 -0.5112182 -1.0983986
0.7738025 -1.1824371 -1.187793 -1.377942 -1.2102422 -0.51160246 -0.9461215 -1.2777392
1.4365976 1.7259566 -0.761059 0.1505679 -0.57972103 -0.29700977 -0.43227008 0.45716292
-0.15533015 -0.255749 -0.01775018 -0.116713114 1.3695352 -0.25626844 0.37201974 -0.3213922
-0.5253292 0.24783634 -0.72025937 1.1369737 0.856044 0.82761264 0.5257235 0.33372188
-0.5002016 -1.4815683 1.1886029 -0.4743211 1.4834429 -0.6446081 0.9608707 0.3623284
-0.06686739 0.7789932 -1.7015682 -0.4501311 -0.35575053 0.07422543 -1.3780891 0.52639633
0.5617844 0.29170296 0.38294506 0.43646824 0.97142255 1.21569 0.62404317 0.14259405
-0.46726337 -0.51846045 0.25193417 -0.8189612 -0.43571022 0.3507253 0.09865059 -1.1422075
-0.4101284 0.67291945 0.6938489 -1.0044222 -0.60938275 0.6432528 -0.2268877 0.37606317
0.66143894 0.66747487 -0.51226807 0.51926655 0.69407797 -0.4803505 -0.17037788 0.81549454
0.10141613 -0.60549814 0.82912123 -0.6196754 0.63578534 -0.07566799 -0.15780185 0.9339171
-0.44271117 -0.8373235 -0.684579 -0.7144079 -0.22825465 1.0936 0.05306611 -0.3554484
-0.14392212 -0.017667213 -0.5457275 0.24201296 0.12840906 -0.31696942 -0.49612936 -0.0024283095
-0.19081177 -0.08900905 0.363308 0.7745653 0.16911554 -0.3828856 -0.091289 0.8256337
00000000: bfb7 1abf c8d9 313f 957f c73e 8c9a 813f
00000010: e3fd 6f3f 8dca 1c3f f6c7 b73e 77dc ef3e
00000020: 4649 78bf 5b56 98bf a88f 2d3f 074e 2cbf
00000030: 0a38 9a3e 7111 743d 54fe 003f f4ef 8dbd
00000040: 5f92 f23e ee15 583f 6e7b 64bd def3 00be
00000050: 10e9 53bf 515b 8c3e bdcd c2be ee5f 08bf
00000060: 8632 23bf 0b7f 08bd dc9a 41bf 7ac2 b1bd
00000070: 4934 6cbd 4c36 9abe c73f ecbe 1b47 1f3e
00000080: 848d 333f b712 973d c5bb 2f3f 3b6f 0a3e
00000090: 22f2 583f 80f9 7f3e 03cd 23be f97e 983f
000000a0: 9e2e d23e f317 b2be e26b 58bf b48e b23f
000000b0: 5123 8d3e 56a3 30bf 1ec1 04bd a1a8 50be
000000c0: 4e44 103f 9d1d c7be 4335 483e 2857 8bbf
000000d0: 5e88 4dbf 6972 e6be 9e85 1dbe f9d3 12bf
000000e0: 20cf 043f 07e7 5e3f 8cfb 55bf d3a1 93bd
000000f0: 39ec 5cbf 9d75 0abe 5fa5 3abf 0231 313f
00000100: 2341 bebd aafb df3e d95f 883f 17bd 683f
00000110: 4172 0cbe 85a8 f1bc 55b1 0f3f b043 06be
00000120: 94b1 54bf 52d1 053f d172 26be 8b76 733f
00000130: 0b8c 233f a71f 1e3f 792e e03d 96dc 1b3e
00000140: 66c5 c3be 3748 9ebf 8897 1b3f cb42 2ebe
00000150: 28b1 8a3f c3c8 dfbe 99ab 163f 1109 053e
00000160: 16dc 00bd 8809 2c3f ad56 6fbf cbc6 a6bf
00000170: a108 98be 2adf 1a3e 23c3 8cbf a6c8 753e
00000180: 0d29 323f 1643 18bf 30c3 26bf 7069 bfbf
00000190: b790 97bf b6b1 38bf d4b0 76bf 2eee 98bf
000001a0: bfdc b33f c6b2 b43f 9b48 3abf 2be2 1ebc
000001b0: fb9f f3be b29b 923d d6cf debe 324e 7abe
000001c0: e7ea 973e f89d 62bd dbfe 16be 3122 123e
000001d0: d988 733f 29d9 073e d86d fc3e 52d8 c8be
000001e0: 849b b3be 4ae8 41bf c9d9 b5bf dede 8dbe
000001f0: ecfa d7bd 33a0 b0be f313 e8be 3558 18bf
00000200: fecf e53e 3aa6 99bd 45bd 543f 5a0e 223f
00000210: b1b5 413f f552 36be 3557 33bd 1aab b33f
00000220: 83dc 2d3e aef4 8b3d 2f58 aabf 468e dbbc
00000230: 26f3 913e 0d8d 59bf 32df 02bf 5398 8cbf
00000240: ec17 463f 195a 97bf 9a09 98bf 6760 b0bf
00000250: 37e9 9abf 61f8 02bf 0535 72bf f58c a3bf
00000260: 6ee2 b73f 25ec dc3f c3d4 42bf 792e 1a3e
00000270: 9968 14bf aa11 98be 8152 ddbe 4211 ea3e
00000280: de0e 1fbe 88f1 82be d368 91bc 4907 efbd
00000290: ee4c af3f 9e35 83be 5f79 be3e 858d a4be
000002a0: f97b 06bf cfc8 7d3e eb62 38bf 5b88 913f
000002b0: b325 5b3f 6cde 533f d195 063f 98dd aa3e
000002c0: 360d 00bf 08a4 bdbf 2424 983f 37da f2be
000002d0: 75e1 bd3f 0905 25bf 9ffb 753f 1c83 b93e
000002e0: c5f1 88bd 196c 473f fdcc d9bf 9577 e6be
000002f0: ef24 b6be 8103 983d 3965 b0bf e9c1 063f
00000300: 1ad1 0f3f 175a 953e 6011 c43e c478 df3e
00000310: 26af 783f bb9b 9b3f 4bc1 1f3f 2d04 123e
00000320: 253d efbe d3b9 04bf 84fd 803e 71a7 51bf
00000330: 6915 dfbe 4492 b33e 5209 ca3d db33 92bf
00000340: 5afc d1be 7344 2c3f 15a0 313f e890 80bf
00000350: 8200 1cbf 37ac 243f 4055 68be 5a8b c03e
00000360: 1054 293f a2df 2a3f 0024 03bf a7ee 043f
00000370: 18af 313f 80f0 f5be 8a77 2ebe 40c4 503f
00000380: 43b3 cf3d ed01 1bbf 4a41 543f 0ca3 1ebf
00000390: d4c2 223f d2f7 9abd cf96 21be 3115 6f3f
000003a0: 0aab e2be d55a 56bf 9240 2fbf 70e3 36bf
000003b0: 96bb 69be 16fb 8b3f d95b 593d 55fd b5be
000003c0: 5260 13be d5ba 90bc ccb4 0bbf 3fd2 773e
000003d0: aa7d 033e d149 a2be ab04 febe 4624 1fbb
000003e0: 2964 43be 604a b6bd 8203 ba3e e949 463f
000003f0: a02c 2d3e 9509 c4be baf5 babd bb5c 533f
