models/17_05_2021/stock_self_attn_MSE_hinge_10000_64_24_6_24_5/5000_Zdiscriminator.pth (torch, 55520 bytes, 40 tensors)

position.pe f4 [1, 24, 24]
0.0 1.0 0.0 1.0 0.0 1.0 0.0 1.0
0.0 1.0 0.0 1.0 0.0 1.0 0.0 1.0
0.0 1.0 0.0 1.0 0.0 1.0 0.0 1.0
0.84147096 0.54030234 0.44767085 0.8941984 0.21378067 0.9768817 0.099833414 0.9950042
0.04639923 0.99892294 0.021542681 0.9997679 0.009999833 0.99995 0.0046415734 0.9999892
0.0021544332 0.9999977 0.0009999998 0.9999995 0.00046415895 0.9999999 0.00021544348 1.0
0.9092974 -0.41614684 0.8006131 0.59918165 0.41767687 0.9085956 0.19866931 0.9800666
0.09269851 0.9956942 0.043075364 0.99907184 0.019998666 0.9998 0.009283047 0.9999569
0.004308856 0.9999907 0.0019999985 0.99999803 0.00092831784 0.9999996 0.00043088695 0.99999994
0.14112 -0.9899925 0.98414314 0.17737612 0.60226107 0.7982992 0.2955202 0.9553365
0.1387981 0.9903207 0.06458805 0.997912 0.0299955 0.99955004 0.01392432 0.9999031
0.006463259 0.99997914 0.0029999954 0.9999955 0.0013924765 0.99999905 0.00064633036 0.9999998
-0.7568025 -0.6536436 0.9594254 -0.28196275 0.75899875 0.6510921 0.38941833 0.921061
0.18459873 0.98281395 0.08607077 0.996289 0.039989334 0.9992001 0.018565293 0.9998276
0.008617632 0.99996287 0.003999989 0.999992 0.0018566349 0.9999983 0.0008617738 0.99999964
-0.9589243 0.2836622 0.73169005 -0.68163747 0.88064283 0.47378072 0.47942552 0.87758255
0.23000173 0.97319025 0.10751353 0.9942036 0.049979165 0.99875027 0.023205869 0.9997307
0.010771966 0.999942 0.004999979 0.9999875 0.0023207928 0.9999973 0.0010772172 0.9999994
-0.2794155 0.96017027 0.349127 -0.93707544 0.961569 0.27456328 0.5646424 0.8253356
0.2749093 0.9614702 0.12890638 0.9916568 0.059964005 0.99820054 0.02784594 0.9996122
0.012926248 0.99991643 0.0059999637 0.999982 0.0027849504 0.9999961 0.0012926605 0.99999917
0.6569866 0.75390226 -0.10731243 -0.9942253 0.9980355 0.06265094 0.6442176 0.7648422
0.31922466 0.94767904 0.15023942 0.98864967 0.06994285 0.997551 0.032485418 0.9994722
0.0150804715 0.9998863 0.006999942 0.9999755 0.003249107 0.99999475 0.0015081038 0.99999887
0.98935825 -0.14550003 -0.5410444 -0.840994 0.9883562 -0.15215816 0.717356 0.6967067
0.36285242 0.9318466 0.17150272 0.98518366 0.07991469 0.9968017 0.03712419 0.9993107
0.017234625 0.99985147 0.007999914 0.999968 0.0037132632 0.9999931 0.001723547 0.9999985
0.4121185 -0.91113025 -0.86028963 -0.5098056 0.9329786 -0.35993198 0.78332686 0.62161
0.4056986 0.91400695 0.19268642 0.98126036 0.089878544 0.9959527 0.041762162 0.99912757
0.019388698 0.999812 0.008999879 0.9999595 0.0041774185 0.9999913 0.0019389901 0.99999815
-0.5440211 -0.8390715 -0.99749476 -0.070740685 0.8344632 -0.55106366 0.84147096 0.54030234
0.44767088 0.8941984 0.21378069 0.9768817 0.099833414 0.9950042 0.04639924 0.99892294
00000000: 0000 0000 0000 803f 0000 0000 0000 803f
00000010: 0000 0000 0000 803f 0000 0000 0000 803f
00000020: 0000 0000 0000 803f 0000 0000 0000 803f
00000030: 0000 0000 0000 803f 0000 0000 0000 803f
00000040: 0000 0000 0000 803f 0000 0000 0000 803f
00000050: 0000 0000 0000 803f 0000 0000 0000 803f
00000060: a46a 573f 4151 0a3f 1d35 e53e 30ea 643f
00000070: 52e9 5a3e eb14 7a3f 7675 cc3d 98b8 7e3f
00000080: 1e0d 3e3d 6ab9 7f3f 477a b03c caf0 7f3f
00000090: 57d6 233c b9fc 7f3f 5718 983b 4bff 7f3f
000000a0: 6431 0d3b d9ff 7f3f 6d12 833a f8ff 7f3f
000000b0: 5c5a f339 feff 7f3f abe8 6139 0000 803f
000000c0: b7c7 683f 3311 d5be fbf4 4c3f f863 193f
000000d0: bed9 d53e b999 683f f86f 4b3e a5e5 7a3f
000000e0: b7d8 bd3d d1e5 7e3f cb6f 303d 2cc3 7f3f
000000f0: 3ed4 a33c e5f2 7f3f ec17 183c 2dfd 7f3f
00000100: 4e31 8d3b 64ff 7f3f 6812 033b dfff 7f3f
00000110: 5b5a 733a f9ff 7f3f abe8 e139 ffff 7f3f
00000120: c381 103e 2670 7dbf cef0 7b3f 16a2 353e
00000130: c82d 1a3f 565d 4c3f 6c4e 973e ef90 743f
00000140: 1721 0e3e a885 7d3f bd46 843d 2977 7f3f
00000150: 1fb9 f53c 83e2 7f3f d522 643c a6f9 7f3f
00000160: bfc9 d33b a2fe 7f3f 929b 443b b5ff 7f3f
00000170: c283 b63a f0ff 7f3f 7f6e 293a fdff 7f3f
00000180: cfbd 41bf 3055 27bf e79c 753f 6c5d 90be
00000190: be4d 423f f9ad 263f d761 c73e a7ca 6b3f
000001a0: 7307 3d3e b299 7b3f df45 b03d cc0c 7f3f
000001b0: dbcb 233d 94cb 7f3f 3e16 983c b4f4 7f3f
000001c0: f830 0d3c 91fd 7f3f 5712 833b 7aff 7f3f
000001d0: 545a f33a e3ff 7f3f a9e8 613a faff 7f3f
000001e0: 107c 75bf 2c3c 913e 0a50 3b3f cb7f 2ebf
000001f0: cf71 613f 6393 f23e 4377 f53e 40a9 603f
00000200: 9385 6b3e ff22 793f 0e30 dc3d 2184 7e3f
00000210: f4b6 4c3d 19ae 7f3f 3c1a be3c 5aee 7f3f
00000220: e67c 303c 33fc 7f3f ddd6 a33b 2eff 7f3f
00000230: 7118 183b d3ff 7f3f 6931 8d3a f6ff 7f3f
00000240: 8c0f 8fbe b8cd 753f c6c0 b23e 2de4 6fbf
00000250: 6329 763f 8f93 8c3e 688c 103f 3249 533f
00000260: e9c0 8c3e e922 763f 0900 043e 38dd 7d3f
00000270: d19c 753d 128a 7f3f 2b1d e43c 96e6 7f3f
00000280: 9dc8 533c 86fa 7f3f 589b c43b d2fe 7f3f
00000290: b783 363b bfff 7f3f 7d6e a93a f2ff 7f3f
000002a0: 4630 283f bdff 403f 9fc6 dbbd 8d85 7ebf
000002b0: 417f 7f3f 234f 803d 72eb 243f b3cc 433f
000002c0: 6a71 a33e 189b 723f 5dd8 193e 2518 7d3f
000002d0: 323e 8f3d 815f 7f3f 6e0f 053d 69dd 7f3f
000002e0: 1514 773c 8cf8 7f3f c55f e53b 65fe 7f3f
000002f0: f8ee 543b a8ff 7f3f 91ab c53a edff 7f3f
00000300: 9546 7d3f f6fd 14be e381 0abf 624b 57bf
00000310: e904 7d3f 59cf 1bbe a5a4 373f 5f5b 323f
00000320: cbc7 b93e 808d 6e3f 699e 2f3e ff34 7c3f
00000330: 50aa a33d 652e 7f3f 890f 183d d3d2 7f3f
00000340: a12f 8d3c 44f6 7f3f 1212 033c e7fd 7f3f
00000350: 385a 733b 8cff 7f3f a4e8 e13a e7ff 7f3f
00000360: 3201 d33e d53f 69bf f13b 5cbf 9f82 02bf
00000370: afd7 6e3f 0149 b8be 1c88 483f d521 1f3f
00000380: bab7 cf3e 5cfc 693f 974f 453e e133 7b3f
00000390: 3e12 b83d c2f6 7e3f cd0e 2b3d d3c6 7f3f
000003a0: 0cd5 9e3c aef3 7f3f 3a74 133c 59fd 7f3f
000003b0: bae2 883b 6eff 7f3f b625 fe3a e1ff 7f3f
000003c0: f844 0bbf 64cd 56bf d15b 7fbf 7ee0 90bd
000003d0: 619f 553f 8212 0dbf a46a 573f 4151 0a3f
000003e0: 1e35 e53e 30ea 643f 53e9 5a3e eb14 7a3f
000003f0: 7675 cc3d 98b8 7e3f 210d 3e3d 6ab9 7f3f

r_cell.w_qs.weight f4 [24, 24]
-0.30099514 -0.41285497 -0.112276256 -0.41262892 0.38248786 0.764002 0.06523045 -0.61942375
0.7120016 0.7765167 -0.046706747 -0.06654095 -0.7978856 -0.07211419 0.062720306 0.36107844
0.26590365 -1.0537922 0.26346263 0.2178463 1.0277554 -0.58399254 0.3254558 -0.28055823
0.1878096 -0.7244648 0.29416332 -0.30812424 -0.5166978 -1.208884 -0.87561727 0.06435637
-1.7067513 -0.26408225 -0.38961336 0.096774794 -0.2595357 0.507781 0.46914813 -0.043244116
1.0052749 -1.2694455 -0.012040965 0.044221606 -0.13850833 -0.62150764 -0.17476971 -0.29515114
-0.010205782 -1.0864555 -0.051564336 -0.9151712 0.80529666 0.16075575 0.7314552 -0.36782923
0.33382216 0.70367795 -0.12545231 -0.90212345 -0.53874516 -0.48077235 -0.97227573 -0.4149698
-0.21757358 0.58887994 -0.0071028178 0.34084472 1.2185585 0.557804 -0.16466048 0.39736962
0.9557114 0.062230784 -0.64611745 -0.51147294 0.084054165 -0.62525016 0.7773386 0.2619226
0.25166732 1.0444022 0.030010935 0.059515554 -0.56606454 0.6472445 -0.58308655 0.6976832
-0.102580376 -0.29349822 -0.73880357 -0.6770926 -0.57067555 -0.2358237 0.73668355 0.16457571
-0.08830388 0.16034731 -0.76852745 -0.1852466 0.58100057 0.09305874 0.2861678 -0.14830443
0.07810775 1.2643104 0.31037492 -1.0537045 -0.48155233 -0.74906254 0.41978136 -0.532305
0.5853158 -1.3736985 -0.68578315 0.6381573 -1.2108818 0.4511714 -0.17625383 -0.34277377
-0.12623432 -0.14588107 0.09999013 0.5208815 0.17570913 0.680564 -0.6390332 -0.14300886
0.46836895 -0.24164471 -0.24680977 -0.44819334 -0.6348403 0.21877174 -0.6476798 0.045601618
-0.44091555 -0.28496766 0.32947162 0.13095191 0.10306494 0.9446652 -0.8859806 -0.20057487
-0.32238454 -0.0854914 0.19940394 -0.8753061 -0.39244333 -0.4022578 0.1421317 0.22338334
0.0011729492 0.0069226814 0.32175645 -0.33379635 -0.22497264 0.4786003 -0.50649065 -0.32082304
-0.22924416 -0.10712829 -0.47977838 0.27227214 -0.5703766 0.360463 0.058605332 -0.017199298
-0.70284253 0.29927337 0.8911834 0.22359394 0.4396861 0.15838644 0.52121305 -1.2131046
0.21291858 -0.7522686 -0.20959955 -0.11737622 -1.1310037 0.041900963 -0.6637522 -0.5532976
0.526367 0.847595 0.12635604 -0.231592 0.41612267 0.101672284 0.30544505 -0.2085226
0.9895436 -0.49232763 0.18391943 0.35097998 -0.76113975 -0.6784346 -1.5621516 0.8272302
0.10379089 0.21002178 0.3729887 0.15402195 0.35834447 0.16143973 0.5815554 0.41954815
0.2966326 -0.6199671 -0.23394975 0.06528174 0.22860894 -0.96802646 -0.28315625 -0.50237334
-0.022377487 0.17672457 1.2385498 0.19578479 -1.042111 0.0068261516 -0.48842928 0.13589872
-0.6047433 -0.60270125 -0.07994718 -0.8133439 0.120081775 -1.3111519 0.2768178 0.074522726
-1.0893672 -0.75778776 -0.08195307 0.47331503 0.26739556 0.6856239 -0.5436968 -0.03435021
-0.30225575 -0.30611083 0.43841204 0.18743134 0.81283975 0.77634305 0.15072963 -0.5524286
1.0475456 -0.12569848 0.11433141 0.07952279 -0.22280326 -0.37703282 0.010623605 -0.6589087
00000000: 091c 9abe ba61 d3be 18f1 e5bd 1944 d3be
00000010: 73d5 c33e a395 433f 8b97 853d 8e92 1ebf
00000020: bd45 363f ccc9 463f 934f 3fbd 9f46 88bd
00000030: 3b42 4cbf 9bb0 93bd 8173 803d 46df b83e
00000040: 8624 883e aae2 86bf 93e4 863e 1a13 5f3e
00000050: 7d8d 833f 8980 15bf 25a2 a63e 54a5 8fbe
00000060: 2951 403e 8676 39bf 939c 963e 76c2 9dbe
00000070: 4f46 04bf b6bc 9abf 7428 60bf 46cd 833d
00000080: d476 dabf ca35 87be 677b c7be dd31 c63d
00000090: dde1 84be f0fd 013f 2f34 f03e be20 31bd
000000a0: d9ac 803f 317d a2bf 7847 45bc b721 353d
000000b0: 21d5 0dbe 201b 1fbf d5f6 32be 0d1e 97be
000000c0: 2736 27bc f910 8bbf 2035 53bd a948 6abf
000000d0: ec27 4e3f 289d 243e a640 3b3f 1d54 bcbe
000000e0: bdea aa3e 3d24 343f 9276 00be 90f1 66bf
000000f0: 34eb 09bf cb27 f6be 10e7 78bf ec76 d4be
00000100: 9ccb 5ebe d6c0 163f c1be e8bb 3383 ae3e
00000110: baf9 9b3f 3ecc 0e3f c29c 28be 0874 cb3e
00000120: 81a9 743f b5e5 7e3d f467 25bf e4ef 02bf
00000130: 9724 ac3d 6510 20bf aaff 463f b81a 863e
00000140: 8ada 803e f9ae 853f 7ed9 f53c 95c6 733d
00000150: 9be9 10bf d1b1 253f 2945 15bf 5e9b 323f
00000160: a915 d2bd 6645 96be 3b22 3dbf f155 2dbf
00000170: cb17 12bf c57b 71be 4b97 3c3f 8986 283e
00000180: aad8 b4bd 1632 243e 37be 44bf 49b1 3dbe
00000190: 74bc 143f 9595 be3d 9684 923e 1edd 17be
000001a0: f5f6 9f3d ecd4 a13f 76e9 9e3e cadf 86bf
000001b0: 078e f6be 90c2 3fbf 95ed d63e 2445 08bf
000001c0: 42d7 153f 5ad5 afbf 7c8f 2fbf 475e 233f
000001d0: 2dfe 9abf f0ff e63e e27b 34be 0b80 afbe
000001e0: 9243 01be d961 15be a0c7 cc3d 7d58 053f
000001f0: 18ed 333e 7139 2e3f ae97 23bf ea70 12be
00000200: 0ece ef3e b671 77be b3bb 7cbe 9979 e5be
00000210: e584 22bf b305 603e 58ce 25bf c3c8 3a3d
00000220: afbf e1be 48e7 91be 81b0 a83e 4218 063e
00000230: b613 d33d 94d5 713f a0cf 62bf 8063 4dbe
00000240: 960f a5be 1d16 afbd 8c30 4c3e 1014 60bf
00000250: 55ee c8be bcf4 cdbe f98a 113e 9abe 643e
00000260: a5bd 993a a9d7 e23b 43bd a43e 5be7 aabe
00000270: 3a5f 66be 190b f53e 5fa9 01bf eb42 a4be
00000280: fbbe 6abe 1466 dbbd 83a5 f5be 4167 8b3e
00000290: 3304 12bf 9b8e b83e 250c 703d 8be5 8cbc
000002a0: 7ded 33bf 5c3a 993e 9824 643f cff5 643e
000002b0: 891e e13e 0e30 223e 386e 053f 0347 9bbf
000002c0: 5407 5a3e ad94 40bf 44a1 56be f262 f0bd
000002d0: bbc4 90bf 58a0 2b3d aaeb 29bf e9a4 0dbf
000002e0: fdbf 063f fcfb 583f 7a63 013e 7426 6dbe
000002f0: 080e d53e 8f39 d03d 4b63 9c3e f386 55be
00000300: bb52 7d3f 5e12 fcbe 6055 3c3e a6b3 b33e
00000310: 0eda 42bf e4ad 2dbf 95f4 c7bf 5cc5 533f
00000320: 5190 d43d f30f 573e 60f8 be3e eeb7 1d3e
00000330: ed78 b73e 7550 253e d1e0 143f 04cf d63e
00000340: 3ae0 973e 2ab6 1ebf 8690 6fbe 6fb2 853d
00000350: 7618 6a3e 95d0 77bf dbf9 90be 8a9b 00bf
00000360: fe50 b7bc 49f7 343e cd88 9e3f cf7b 483e
00000370: e563 85bf e9ad df3b 6713 fabe 0929 0b3e
00000380: 75d0 1abf a14a 1abf 59bb a3bd 4e37 50bf
00000390: 6fed f53d d3d3 a7bf 10bb 8d3e 5f9f 983d
000003a0: 6270 8bbf 61fe 41bf 03d7 a7bd 5956 f23e
000003b0: 12e8 883e 0c85 2f3f b72f 0bbf ceb2 0cbd
000003c0: 44c1 9abe 8fba 9cbe 8b77 e03e 00ee 3f3e
000003d0: 4416 503f 6bbe 463f de58 1a3e f66b 0dbf
000003e0: f915 863f 1ab7 00be 9626 ea3d d8dc a23d
000003f0: 8a26 64be 720a c1be a10e 2e3c 3eae 28bf

r_cell.w_qs.bias f4 [24]
1.3605316 -0.5949854 0.16548502 1.2985358 -0.7425923 0.5285773 -0.7950707 1.5114324
-0.45916873 -0.5374447 0.4479811 0.29728052 -0.27244204 -1.2098478 1.1590208 1.0807221
0.13151659 -0.39782095 0.47300586 1.0904225 1.5308063 -0.41656688 1.2954601 -1.6974459
00000000: e625 ae3f f750 18bf e874 293e 6c36 a63f
00000010: 871a 3ebf d850 073f c189 4bbf 9e76 c13f
00000020: 2a18 ebbe fa95 09bf c75d e53e 2735 983e
00000030: 867d 8bbe 4bdc 9abf cb5a 943f 1a55 8a3f
00000040: 49ac 063e 30af cbbe d32d f23e f792 8b3f
00000050: 76f1 c33f 4148 d5be a3d1 a53f e845 d9bf

r_cell.w_ks.weight f4 [24, 24]
0.5633896 0.20264722 -0.5477482 1.0960158 -0.13517705 -0.6295337 0.24240693 -0.7994464
-0.30747297 0.47672537 -0.07975587 0.09839121 0.9147448 -0.14421058 0.59020364 -0.30839106
0.37184468 -0.048238102 0.14026667 0.24208225 -1.2276112 0.5931905 0.11901405 0.019829314
0.23909914 0.00021010131 1.6338763 -1.0076424 0.23342314 0.09360778 -1.0126815 -0.8625745
0.13585195 0.19509427 -1.176911 -1.0544521 -2.4134262 -0.55137026 -0.4435217 -0.15041454
0.5004913 -0.2833143 0.5604953 -0.37628308 -0.05015506 -0.22452737 -0.28114253 0.5784598
-0.23985901 0.10874685 -1.2466375 0.5516152 -0.049039435 -0.10516671 0.53775346 0.28556198
0.13704176 0.22942822 -0.88913846 0.21091689 1.3992472 0.6237264 -0.29195008 0.40228578
0.7357015 0.12812229 0.34376428 -0.18779787 0.034082852 -0.48896077 0.26030642 -0.44090676
0.11097482 0.01745246 0.08297355 0.3945556 -0.31346446 0.1078946 -0.009507469 -0.22820087
0.44403642 -0.9538198 0.09905452 0.99695766 -0.3167113 0.7532488 -1.1885577 -0.1575874
-0.07510441 0.743375 -0.6520874 1.7605245 -0.07838147 0.93236464 0.34928155 -0.39537475
1.4527575 -1.3710282 -0.09056565 -0.6896896 -1.2135442 0.08648513 -0.87141854 -0.5595726
0.8307028 -0.72402686 0.21018317 0.31723315 0.8770504 0.006747524 -0.62360895 0.60380155
0.23624113 -0.27136374 -0.6700437 0.09409227 0.6645993 0.5394163 0.5256567 -0.58405757
-0.057297822 0.2776369 -0.1709498 -0.17298394 0.03374147 -0.108793564 -0.3957286 1.1542268
-0.28555176 0.635478 -0.23710541 -1.0692705 -0.13886051 -0.35382703 0.43660596 -0.97183245
0.2110462 0.26610145 -0.5883032 0.004652694 0.6788152 -0.5556496 -0.68518054 0.39781836
-0.6433688 -0.63739663 -1.1466413 -0.4625945 0.27258056 1.4194732 -0.1307344 0.15914749
1.0766735 0.17582172 0.5884583 0.7064347 -0.7851384 -0.29871187 0.1558652 -0.33143187
-0.93040824 0.39787593 -0.73690015 -0.17538944 -0.50419617 -0.43930465 0.32118598 0.072051644
0.115644544 -0.016299434 -0.019745836 0.57617486 -0.32676247 -0.62747204 0.36942184 -0.39932448
-0.61508316 -0.48512384 1.2340732 -0.122532085 -0.044603437 0.789826 -0.9533645 0.09897373
-0.6217173 0.9329141 -0.46028697 0.542033 -0.35138163 -0.5183451 0.69525266 -0.052778337
-0.37465134 0.06032516 0.16497397 -0.40919337 -0.3633527 0.5023761 0.029147606 0.0080593815
0.15121566 -0.3574852 -1.0720276 0.9222107 -0.16947675 -0.2128643 0.13581538 0.6129628
0.9059144 -1.444111 -0.6005892 -1.5066108 -0.2872802 0.4381966 -0.749557 -0.23900723
-0.6109261 0.92152786 -0.027296005 1.4192013 0.67127675 0.39439037 0.38008347 -0.6842959
-0.46326908 0.07564702 0.3297347 0.8241464 1.6322554 -0.40324178 -1.4606125 -0.5929263
0.95962477 -0.3689567 0.06295601 -0.49398416 0.7452048 -0.18160127 -0.40174142 0.25505596
0.9463148 0.31282836 0.27039576 -0.9337246 1.0010315 -0.31802985 0.18432274 -0.5396895
0.3197431 0.19465072 0.27522248 -0.5441059 -0.63589436 0.50751865 0.14579904 0.10520985
00000000: 4d3a 103f c182 4f3e 3a39 0cbf 3f4a 8c3f
00000010: da6b 0abe 1f29 21bf 8639 783e 85a8 4cbf
00000020: 196d 9dbe 5915 f43e 0c57 a3bd 5581 c93d
00000030: b72c 6a3f f0ab 13be 9617 173f 6fe5 9dbe
00000040: 6d62 be3e 5195 45bd 11a2 0f3e 69e4 773e
00000050: 5d22 9dbf 55db 173f a3bd f33d 1671 a23c
00000060: 68d6 743e a44e 5c39 dc22 d13f 6dfa 80bf
00000070: 7a06 6f3e 70b5 bf3d 8c9f 81bf afd1 5cbf
00000080: c61c 0b3e cbc6 473e 05a5 96bf 49f8 86bf
00000090: 9375 1ac0 9a26 0dbf 4715 e3be 4506 1abe
000000a0: 3320 003f 920e 91be 9f7c 0f3f 2da8 c0be
000000b0: 646f 4dbd 81ea 65be eaf1 8fbe f115 143f
000000c0: 9a9d 75be abb6 de3d d191 9fbf a736 0d3f
000000d0: 93dd 48bd a561 d7bd 36aa 093f 2e35 923e
000000e0: ad54 0c3e 3bef 6a3e 949e 63bf 99fa 573e
000000f0: 881a b33f 89ac 1f3f 7b7a 95be 67f8 cd3e
00000100: ef56 3c3f 7d32 033e df01 b03e 164e 40be
00000110: 769a 0b3d 1159 fabe e246 853e 88be e1be
00000120: c446 e33d 76f8 8e3c 09ee a93d 3103 ca3e
00000130: 6a7e a0be d8f7 dc3d 37c5 1bbc 7dad 69be
00000140: be58 e33e 892d 74bf 19dd ca3d 9e38 7f3f
00000150: fc27 a2be ead4 403f a922 98bf 975e 21be
00000160: 57d0 99bd d34d 3e3f 33ef 26bf de58 e13f
00000170: 7786 a0bd 73af 6e3f 08d5 b23e 8f6e cabe
00000180: f5f3 b93f da7d afbf 7c7a b9bd 7f8f 30bf
00000190: 6b55 9bbf 1e1f b13d 4915 5fbf 2640 0fbf
000001a0: f0a8 543f d359 39bf 423a 573e 626c a23e
000001b0: 6086 603f 551a dd3b d6a4 1fbf bd92 1a3f
000001c0: 32e9 713e 30f0 8abe fc87 2bbf 73b3 c03d
000001d0: 2e23 2a3f 3017 0a3f 7091 063f cc84 15bf
000001e0: 1fb1 6abd 6c26 8e3e 770d 2fbe b422 31be
000001f0: 7f34 0a3d 29cf debd f09c cabe b4bd 933f
00000200: d733 92be b0ae 223f c3cb 72be dbdd 88bf
00000210: 7331 0ebe d128 b5be d18a df3e 03ca 78bf
00000220: 7f1c 583e 733e 883e 0a9b 16bf a075 983b
00000230: d5c6 2d3f 0d3f 0ebf fe67 2fbf d9ae cb3e
00000240: d1b3 24bf 6d2c 23bf 24c5 92bf 30d9 ecbe
00000250: ae8f 8b3e 4cb1 b53f 3ddf 05be 8ff7 223e
00000260: 70d0 893f 9c0a 343e 34a5 163f e8d8 343f
00000270: d5fe 48bf c3f0 98be 219b 1f3e 70b1 a9be
00000280: 3c2f 6ebf 65b6 cb3e 7da5 3cbf 4a99 33be
00000290: 0013 01bf 8aec e0be 7d72 a43e d08f 933d
000002a0: 0cd7 ec3d 6486 85bc 05c2 a1bc 3280 133f
000002b0: 694d a7be 02a2 20bf dc24 bd3e 4274 ccbe
000002c0: 1776 1dbf 2762 f8be 1cf6 9d3f 1af2 fabd
000002d0: 18b2 36bd 0932 4a3f b20f 74bf bdb2 ca3d
000002e0: dd28 1fbf 75d3 6e3f bcaa ebbe adc2 0a3f
000002f0: 4be8 b3be 44b2 04bf 14fc 313f 192e 58bd
00000300: 4dd2 bfbe 8417 773d f0ee 283e cb81 d1be
00000310: 5d09 babe b89b 003f f6c6 ee3c 7f0b 043c
00000320: 47d8 1a3e 4d08 b7be 3338 89bf 0016 6c3f
00000330: 508b 2dbe 19f9 59be 3013 0b3e 21eb 1c3f
00000340: 02ea 673f a1d8 b8bf 37c0 19bf 9fd8 c0bf
00000350: 6416 93be 4e5b e03e f8e2 3fbf 50be 74be
00000360: a765 1cbf 40e9 6b3f df9b dfbc 63a8 b53f
00000370: cbd8 2b3f 89ed c93e 4d9a c23e 042e 2fbf
00000380: 9b31 edbe d3ec 9a3d fdd2 a83e 42fb 523f
00000390: bfed d03f b575 cebe 5af5 babf 05ca 17bf
000003a0: f8a9 753f e5e7 bcbe 15ef 803d 7eeb fcbe
000003b0: bec5 3e3f aff5 39be 0db1 cdbe b296 823e
000003c0: b041 723f 0a2b a03e 5071 8a3e 9308 6fbf
000003d0: cd21 803f cfd4 a2be 1abf 3c3e 1729 0abf
000003e0: 5eb5 a33e 8552 473e f6e9 8c3e 864a 0bbf
000003f0: f9c9 22bf beec 013f 584c 153e 4378 d73d

r_cell.w_ks.bias f4 [24]
0.3509517 -0.16781822 -0.19835787 0.044277996 -0.025639486 0.06748803 -0.1456509 0.32127053
-0.41019693 -0.0645262 0.07175162 0.81659925 -0.10010107 -0.3017659 0.07435475 0.14375146
-0.23405261 0.22830375 -0.19581638 0.0006939734 -0.19400337 -0.12438411 -0.055125512 -0.2183562
00000000: f1af b33e 8ad8 2bbe 531e 4bbe d85c 353d
00000010: e609 d2bc 2a37 8a3d 8225 15be 927d a43e
00000020: 5505 d2be 5026 84bd 83f2 923d a60c 513f
00000030: ca01 cdbd 0f81 9abe 4e47 983d 9533 133e
00000040: 7dab 6fbe 75c8 693e 1784 48be c4eb 353a
00000050: d2a8 46be 19bd febd 4acb 61bd c598 5fbe

r_cell.w_vs.weight f4 [24, 24]
0.6528306 0.048578393 0.16672735 0.0014903804 -0.07844938 0.070188954 1.1064498 0.40002188
0.44152153 -0.80924207 -0.41297603 -0.80065525 0.3049209 0.9354129 0.6668583 -0.20346607
0.31496987 0.008278821 -0.009393688 -0.116828546 0.67771065 0.09475551 -0.06565368 -0.58351886
-0.11264273 -0.5356669 0.18589835 -0.20658998 0.27095973 -0.45700577 -0.23922127 -0.5830783
-0.66877335 1.2896099 0.88024884 0.92594206 0.06583695 -1.0764664 0.36630562 0.34487063
0.3247494 0.36424673 0.011214531 -0.38059038 -0.28294027 -0.7970025 0.7939916 0.975794
-0.54932547 0.3402467 0.44077316 0.13776167 0.031304423 -0.35356098 -0.17618391 -0.18738684
-0.6211695 0.9794403 0.75800115 0.765604 0.08199624 -0.27308434 -0.07975067 -0.010846278
0.36892617 0.27027556 0.2334289 -0.31978953 -0.4254233 -0.079360664 0.16735792 0.67277837
-0.8257768 0.3368747 0.44486317 -0.5726328 0.18867102 -0.63092643 0.09508139 0.39594236
-0.5471636 0.7673982 0.09778088 -0.5568782 -0.08590714 0.5623725 0.44346088 -0.05866056
-0.2701774 -0.32468498 -0.20668204 -0.090508714 -1.194631 0.09130181 -0.8069678 -0.6896679
0.11152809 -0.681047 0.22620094 -0.5223574 -0.26194957 0.07693241 0.65815103 -1.1609395
-0.46130753 0.5051709 0.7886908 -0.12260296 -0.50161654 0.7156916 1.2144204 0.7985157
-0.04014901 -0.12334917 0.86355025 -0.25974295 -0.4886774 -0.3100974 -1.0613742 -0.26574382
-0.39319065 0.06470199 0.022923134 -0.9549578 0.14736971 -0.30206433 0.101562075 -0.22899054
0.43378428 -0.4104034 0.122137845 0.05739818 -0.86705106 -0.68592244 -1.5428896 -1.6521926
-0.6028031 0.2586727 -1.1937337 -0.85733837 -0.43595037 0.5192233 -0.44254845 0.06346195
-0.0070468336 0.9354723 -0.46689075 -0.47426465 0.20155045 0.8232812 -0.70305526 0.36524868
0.67709523 1.2335775 -1.0858792 0.7104586 0.3265672 -0.952446 0.8630759 -0.285323
0.098427445 -0.18698454 -0.8371008 0.5742155 -0.7156897 -0.21937832 0.84918654 1.2187624
-0.009751507 0.49360898 -0.65736985 -0.9098796 0.72270393 -0.13686912 -0.72424453 0.34977546
0.3734558 1.3637311 -0.6951011 0.34957904 -0.87124413 -1.8618836 1.3672291 -0.4936366
0.15976852 0.26929557 -0.72754985 -0.39183897 -1.1092496 0.07371213 0.09800728 -0.124453574
-0.15988964 0.55892825 -0.6003685 -1.5612533 1.3149645 0.0029265892 -0.082987465 -0.399095
-0.47945505 1.1316742 -0.28923997 -0.9402273 -0.5707179 -0.22154175 0.9257453 -1.1993226
-0.28716126 -0.035247087 -0.74529666 -0.4260056 -1.1990073 -1.0074834 -1.1725872 -0.6593248
0.83392465 0.38602656 -0.08736396 -0.44636732 -0.75272405 0.13961874 -1.5686479 -0.370978
-0.61150986 0.090576924 0.41567072 0.096003704 -0.28643677 -0.68929595 0.07207498 -0.08028189
-0.17815244 0.4302737 -0.6396159 -0.37761405 0.5210766 -0.40063143 0.31257087 -0.17679217
0.4026216 -0.3938764 -0.23438764 0.6638735 -1.538214 -0.024792936 -0.6383989 -0.57258785
-0.115429126 1.4749881 -0.33718672 0.46642312 -0.5235926 -0.4610187 0.5095346 0.5640112
00000000: e81f 273f 23fa 463d 93ba 2a3e de58 c33a
00000010: 12aa a0bd 3abf 8f3d 26a0 8d3f abcf cc3e
00000020: 1c0f e23e 7d2a 4fbf 9871 d3be bef7 4cbf
00000030: 981e 9c3e 3877 6f3f 3ab7 2a3f 6959 50be
00000040: bb43 a13e e4a3 073c fce7 19bc ce43 efbd
00000050: 727e 2d3f 2d0f c23d 7075 86bd 7e61 15bf
00000060: 3bb1 e6bd 7721 09bf 235c 3e3e 538c 53be
00000070: 3cbb 8a3e a9fc e9be 6cf6 74be 9f44 15bf
00000080: bb34 2bbf f011 a53f fd57 613f 8a0a 6d3f
00000090: 86d5 863d a7c9 89bf 698c bb3e e292 b03e
000000a0: 8e45 a63e 8c7e ba3e 27bd 373c bedc c2be
000000b0: 8cdd 90be 5b08 4cbf 0943 4b3f a3cd 793f
000000c0: 98a0 0cbf d134 ae3e 05ad e13e 6511 0d3e
000000d0: 1139 003d f205 b5be 8e69 34be 56e2 3fbe
000000e0: f704 1fbf 99bc 7a3f 5d0c 423f a0fe 433f
000000f0: a5ed a73d b6d1 8bbe 5254 a3bd 96b4 31bc
00000100: e4e3 bc3e 8f61 8a3e fc07 6f3e 74bb a3be
00000110: 15d1 d9be d887 a2bd e05f 2b3e 343b 2c3f
00000120: 1c66 53bf d77a ac3e 1bc5 e33e 1098 12bf
00000130: fa32 413e 6584 21bf 08ba c23d f5b8 ca3e
00000140: ea12 0cbf 3574 443f 5841 c83d 928f 0ebf
00000150: 15f0 afbd a5f7 0f3f 4e0d e33e 0e46 70bd
00000160: b154 8abe 1c3d a6be 75a4 53be a25c b9bd
00000170: abe9 98bf 72fc ba3d 7195 4ebf 138e 30bf
00000180: d768 e43d 1959 2ebf 38a1 673e 37b9 05bf
00000190: 411e 86be bd8e 9d3d 967c 283f aa99 94bf
000001a0: 8030 ecbe e152 013f a4e7 493f 4317 fbbd
000001b0: f169 00bf 9137 373f 2172 9b3f 866b 4c3f
000001c0: 4a73 24bd 7d9e fcbd a111 5d3f 07fd 84be
000001d0: ed33 fabe 16c5 9ebe 1cdb 87bf 930f 88be
000001e0: 4950 c9be 7a82 843d 4cc9 bb3c 1d78 74bf
000001f0: 16e8 163e 2da8 9abe c7ff cf3d 7f7c 6abe
00000200: f918 de3e 6520 d2be 6823 fa3d 5b1a 6b3d
00000210: 0ff7 5dbf 9d98 2fbf 687d c5bf 0c7b d3bf
00000220: 4e51 1abf c070 843e 44cc 98bf 877a 5bbf
00000230: e334 dfbe d1eb 043f b695 e2be 57f8 813d
00000240: 20e9 e6bb 1d7b 6f3f 4e0c efbe d1d2 f2be
00000250: 3e63 4e3e 8fc2 523f 6efb 33bf e001 bb3e
00000260: 1d56 2d3f dee5 9d3f 17fe 8abf 9de0 353f
00000270: d133 a73e 80d3 73bf 8bf2 5c3f db15 92be
00000280: 5494 c93d e078 3fbe 3d4c 56bf c9ff 123f
00000290: 7137 37bf b6a4 60be 4a64 593f 6800 9c3f
000002a0: c9c4 1fbc 51ba fc3e 6449 28bf dfed 68bf
000002b0: 2003 393f 6b27 0cbe 1768 39bf c515 b33e
000002c0: 9935 bf3e be8e ae3f 25f2 31bf 06fc b23e
000002d0: db09 5fbf 3452 eebf 5d01 af3f f0bd fcbe
000002e0: 5c9a 233e 1ce1 893e b540 3abf 1e9f c8be
000002f0: e4fb 8dbf 63f6 963d 0ab8 c83d 84e1 febd
00000300: 1cba 23be ec15 0f3f c0b1 19bf 26d7 c7bf
00000310: c250 a83f 05cc 3f3b 55f5 a9bd 2e56 ccbe
00000320: 227b f5be b3da 903f 4317 94be bdb2 70bf
00000330: 911a 12bf d7db 62be a5fd 6c3f 6783 99bf
00000340: cd06 93be 405f 10bd c3cb 3ebf 681d dabe
00000350: 1279 99bf 37f5 80bf 5617 96bf 83c9 28bf
00000360: 167c 553f 46a5 c53e e0eb b2bd 428a e4be
00000370: 86b2 40bf 37f8 0e3e 74c9 c8bf d4f0 bdbe
00000380: e98b 1cbf 6580 b93d cbd2 d43e 979d c43d
00000390: d7a7 92be b375 30bf 0c9c 933d d56a a4bd
000003a0: 986d 36be d64c dc3e debd 23bf a156 c1be
000003b0: 4765 053f 901f cdbe 4a09 a03e 0209 35be
000003c0: 6b24 ce3e 2baa c9be 5003 70be 9df3 293f
000003d0: 32e4 c4bf 8e1a cbbc 1c6e 23bf 1e95 12bf
000003e0: 1b66 ecbd 69cc bc3f bda3 acbe 03cf ee3e
000003f0: 2a0a 06bf a50a ecbe dc70 023f 0a63 103f

r_cell.w_vs.bias f4 [24]
0.8611349 -1.1621857 -0.9431315 -0.008887297 0.7137075 -0.23988193 0.34812364 0.59750396
0.3609931 -0.077847205 -0.4504722 -0.6738691 0.035451025 0.4947405 0.64095217 -0.2588851
-0.540416 0.4913169 -0.11367986 -0.44635975 -0.46880433 -0.4119764 -0.21514253 0.1289725
00000000: 5673 5c3f 80c2 94bf 1171 71bf 069c 11bc
00000010: 89b5 363f 9ca3 75be 433d b23e 05f6 183f
00000020: 16d4 b83e 5b6e 9fbd 4ba4 e6be af82 2cbf
00000030: 1835 113d a04e fd3e 7115 243f 968c 84be
00000040: b458 0abf e48d fb3e fdd0 e8bd 4489 e4be
00000050: 1f07 f0be 92ee d2be 534e 5cbe 5e11 043e

r_cell.layer_norm.weight f4 [24]
-0.028578442 0.76315445 0.11147648 3.5858662 1.2446107 1.4378251 2.4642298 0.08535875
-0.56356174 0.07703056 1.4071952 2.9807487 0.85257614 0.07129873 0.11061939 0.25225002
0.22460245 0.29955336 0.4983884 2.4209595 2.691872 0.4394767 0.39791736 2.4283495
00000000: 561d eabc 175e 433f c84d e43d d57e 6540
00000010: 674f 9f3f a70a b83f f1b5 1d40 91d0 ae3d
00000020: 9545 10bf 33c2 9d3d f91e b43f 96c4 3e40
00000030: 6e42 5a3f 1205 923d 6b8c e23d ea26 813e
00000040: 2ffe 653e 0f5f 993e c42c ff3e 00f1 1a40
00000050: a147 2c40 1703 e13e d3bb cb3e 146a 1b40

r_cell.layer_norm.bias f4 [24]
-0.7754594 0.14802285 0.6449362 -0.9802333 -0.17660289 1.2259141 -0.9415904 0.6658381
-0.25008246 1.1505997 1.1074411 -0.9966247 -0.4864782 1.0096896 1.0390772 0.62260455
1.0438985 0.8097925 -0.58757806 -1.0100262 1.0910034 -0.3296732 0.8920131 -1.0315485
00000000: 8284 46bf 4d93 173e 8a1a 253f 92f0 7abf
00000010: 63d7 34be c1ea 9c3f 120c 71bf 5e74 2a3f
00000020: cf0a 80be da46 933f a1c0 8d3f cc22 7fbf
00000030: ac13 f9be 823d 813f 7b00 853f 0363 1f3f
00000040: 779e 853f 904e 4f3f 846b 16bf 8a48 81bf
00000050: 00a6 8b3f edca a8be f85a 643f c809 84bf

r_cell.fc.weight f4 [24, 24]
-0.057975076 -0.91781706 -0.32084098 0.87042904 0.5350093 -0.32494605 0.47321537 -0.17139256
-0.68964726 0.6713936 0.35005158 0.46847942 -0.24563284 0.051482886 0.5454987 -0.3241889
0.2164417 0.66554326 -0.9697833 -0.6463354 -0.13430755 -0.26235262 -0.9172924 0.31274092
-0.2998604 -0.7972614 -0.25717843 -0.6580194 0.42665035 -0.6919377 0.783036 -0.4744133
-1.7873516 1.1428949 2.0117424 1.8717881 -0.06561119 0.31110662 -0.41610685 -1.4863081
-0.2038127 0.29306194 -0.0640139 0.31731838 0.20077436 -0.5978305 -1.3474934 0.11301768
-0.14849633 -1.2932724 -0.2887546 0.47592562 1.2245051 -0.96005017 0.8319074 0.44392684
-0.088448524 0.5786449 0.06844434 -0.15926388 -0.17791858 0.8320234 0.3201386 -0.4119671
0.07169929 0.48913723 -0.027693512 -0.71837306 -0.5528692 -0.5558326 -0.8222887 0.4430839
-0.38754097 1.1792045 0.17457944 -0.08189043 -1.3028815 1.0396161 -1.0339228 -0.46462375
-0.48561797 -0.64918935 0.5828648 0.24647944 -0.2360916 -0.538177 -0.5620997 -0.019080281
-0.4423056 -0.37292627 0.66044587 0.44800973 0.82796824 1.481812 0.12703699 -0.16441396
0.18985252 0.14936008 -0.66230124 0.63757163 0.11051023 -0.19146441 -0.59083307 -0.05190308
0.1883765 -0.48390087 -0.4646643 -1.434149 -1.0898645 0.19736189 1.0699325 0.24810149
0.49405906 -0.43605053 0.7418594 -0.030588413 0.10017263 0.6610126 0.042386588 0.25455016
0.061699465 -1.2161206 -0.4813627 -0.33339965 0.9836604 -1.3372805 0.7894799 0.23936519
0.044126764 0.7569113 -0.44925356 -0.3893683 -0.16995169 0.5868112 0.6732095 -0.24555537
0.37481782 0.14448245 0.13887297 -0.5110814 -0.21089756 -1.0775123 -0.39942145 0.3199558
-0.16234401 1.3171778 0.4444313 0.042082142 -1.3178941 0.8456075 -1.098555 -0.4336396
0.023734152 -0.54912186 0.47605562 -0.15808026 -0.54302114 -0.3292634 -0.45128763 0.06900192
-0.25721663 -0.50687736 0.3236124 0.6392487 0.70115083 1.0320171 0.48955876 -0.6252547
0.043930545 -0.5655546 0.1232933 1.7332401 0.5927743 0.3871496 -0.47958702 0.33406574
1.1922041 -1.0317354 -2.9018154 -4.352473 -0.82291937 0.32123956 0.98333114 1.3485188
0.8629803 -0.3057949 0.50485545 -0.77001256 -0.23848863 -0.017011812 0.57756567 1.1118209
0.3092396 -0.42616558 -0.17406084 -0.008630306 -0.19540678 0.11447828 1.3002013 0.35031927
0.2204513 0.6038945 1.1168599 1.6692337 1.2421145 0.27542624 -0.7439982 -0.13486499
-1.1968815 1.2612892 -1.7305402 -0.7360192 -1.0245037 -0.39033046 -0.023171565 -0.044003543
-0.10549471 -0.47722146 -0.30777544 1.3400794 0.012622998 0.39984027 0.14833826 0.70897514
1.6239109 -0.7953609 -1.8985022 -3.2911758 0.4154975 0.31446826 0.03995699 1.6025097
-0.36645034 0.40614793 -1.0228465 -1.3772933 -0.7671488 -0.06036694 0.5471356 0.6856338
0.21948357 -1.3882277 -0.5517602 -0.12114739 1.1163918 -1.0701071 0.8919573 0.16012204
0.009972581 0.4614036 -0.34291074 0.07052113 0.03941558 0.41495702 0.6306673 -0.18397182
00000000: 4677 6dbd 0ff6 6abf 4545 a4be 70d4 5e3f
00000010: 5ff6 083f 545f a6be 4949 f23e 8881 2fbe
00000020: b98c 30bf 73e0 2b3f f639 b33e 89dc ef3e
00000030: 2d87 7bbe b8df 523d cea5 0b3f 16fc a5be
00000040: e5a2 5d3e 0b61 2a3f b843 78bf 3d76 25bf
00000050: eb87 09be 1553 86be add3 6abf 941f a03e
00000060: 4d87 99be 5319 4cbf e4ac 83be f673 28bf
00000070: ea71 da3e d422 31bf 0c75 483f 4de6 f2be
00000080: f0c7 e4bf 614a 923f 63c0 0040 c196 ef3f
00000090: 295f 86bd 5e49 9f3e f50b d5be 583f bebf
000000a0: 47b4 50be 370c 963e b819 83bd 8e77 a23e
000000b0: cb97 4d3e 6b0b 19bf aa7a acbf d075 e73d
000000c0: 6c0f 18be f389 a5bf a5d7 93be 86ac f33e
000000d0: 95bc 9c3f d9c5 75bf e2f7 543f 614a e33e
000000e0: 8024 b5bd 1222 143f 8c2c 8c3d 1216 23be
000000f0: 4a30 36be 7cff 543f 35e9 a33e 5aed d2be
00000100: 14d7 923d 3270 fa3e 81dd e2bc 4ce7 37bf
00000110: d688 0dbf 0c4b 0ebf 8381 52bf e5db e23e
00000120: c56b c6be 2cf0 963f f4c4 323e 2bb6 a7bd
00000130: d2c4 a6bf 2412 853f 9557 84bf 2ae3 edbe
00000140: eba2 f8be 4631 26bf a136 153f 1b65 7c3e
00000150: ffc1 71be f8c5 09bf c4e5 0fbf 404e 9cbc
00000160: e175 e2be 31f0 bebe fb12 293f 8861 e53e
00000170: baf5 533f 04ac bd3f fc15 023e 225c 28be
00000180: b368 423e d9f1 183e 938c 29bf e537 233f
00000190: 3053 e23d 3f0f 44be d640 17bf 5398 54bd
000001a0: c5e5 403e dbc1 f7be 7be8 edbe 3292 b7bf
000001b0: ae80 8bbf 3c19 4a3e 8cf3 883f 510e 7e3e
000001c0: 4ff5 fc3e 0442 dfbe 7fea 3d3f 8d94 fabc
000001d0: 4f27 cd3d 1f38 293f 8f9d 2d3d 6654 823e
000001e0: 94b8 7c3d d7a9 9bbf 2c75 f6be 5cb3 aabe
000001f0: 2bd1 7b3f 022c abbf 5b1b 4a3f 261c 753e
00000200: 44be 343d f0c4 413f 9004 e6be 485b c7be
00000210: d107 2ebe 4239 163f 7557 2c3f de72 7bbe
00000220: 1fe8 bf3e 35f3 133e b734 0e3e 3bd6 02bf
00000230: 88f5 57be eceb 89bf f880 ccbe 3fd1 a33e
00000240: 823d 26be 4899 a83f 808c e33e 535e 2c3d
00000250: c1b0 a8bf bc79 583f 739d 8cbf 0206 debe
00000260: 206e c23c 4093 0cbf 90bd f33e cbdf 21be
00000270: 6f03 0bbf 3695 a8be 2c0f e7be e150 8d3d
00000280: e6b1 83be b7c2 01bf 86b0 a53e cea5 233f
00000290: 9f7e 333f 2319 843f 72a7 fa3e b110 20bf
000002a0: 84f0 333d 30c8 10bf 3381 fc3d d0da dd3f
000002b0: 0ec0 173f 7938 c63e 6e8c f5be aa0a ab3e
000002c0: 259a 983f e80f 84bf 58b7 39c0 7547 8bc0
000002d0: d8aa 52bf 8379 a43e 97bb 7b3f 449c ac3f
000002e0: 47ec 5c3f 2691 9cbe 353e 013f 8b1f 45bf
000002f0: 5d36 74be 5b5c 8bbc 58db 133f 2650 8e3f
00000300: a754 9e3e 6032 dabe 013d 32be 2166 0dbc
00000310: b718 48be 9773 ea3d ff6c a63f 0c5d b33e
00000320: fcbd 613e d498 1a3f 44f5 8e3f 73a9 d53f
00000330: 9cfd 9e3f ab04 8d3e ab76 3ebf 0c1a 0abe
00000340: 6a33 99bf ed71 a13f 5782 ddbf c16b 3cbf
00000350: f022 83bf 65d9 c7be 4bd2 bdbc 0f3d 34bd
00000360: 9c0d d8bd 5f56 f4be be94 9dbe b987 ab3f
00000370: b1d0 4e3c ddb7 cc3e fce5 173e 657f 353f
00000380: 50dc cf3f c69c 4bbf 1f02 f3bf a0a2 52c0
00000390: 17bc d43e fc01 a13e f1a9 233d 0a1f cd3f
000003a0: 619f bbbe 9ff2 cf3e a2ec 82bf 264b b0bf
000003b0: dd63 44bf 5343 77bd 1411 0c3f b285 2f3f
000003c0: 4dc0 603e 72b1 b1bf 2840 0dbf 1f1c f8bd
000003d0: ede5 8e3f 45f9 88bf 5057 643f 08f7 233e
000003e0: 0964 233c 183d ec3e ff91 afbe 626d 903d
000003f0: 3b72 213d 3f75 d43e 6a73 213f 1c63 3cbe

r_cell.fc.bias f4 [24]
-0.2447153 -0.68844134 0.23418108 -0.47877046 -0.42540884 0.4603097 -0.4976025 0.29051876
0.031017048 0.8568077 0.25002116 -0.6334184 -0.30193585 0.4344693 -0.17538495 -0.18556179
0.15493155 0.1556397 0.21100725 -0.48336977 0.22519922 -1.2647148 0.02116134 -0.69943404
00000000: a696 7abe b13d 30bf 2acd 6f3e 6721 f5be
00000010: 30cf d9be b7ad eb3e c1c5 febe e0be 943e
00000020: 7717 fe3c c057 5b3f c602 803e b527 22bf
00000030: 5697 9abe c372 de3e 1d98 33be e903 3ebe
00000040: 60a6 1e3e 0360 1f3e 4912 583e 3e7c f7be
00000050: a09a 663e 2de2 a1bf 8c5a ad3c 1c0e 33bf

fc1.0.bias f4 [24]
0.084093854 0.083321474 -0.19890612 -0.02699212 -0.33640525 0.11602554 -0.036929104 -0.28056094
-0.056592487 0.17849924 0.0055240905 -0.057113595 0.017969208 0.14353295 -0.22496898 -0.0022104636
-0.21501245 -0.083772704 -0.022549318 -0.04287671 -0.058073662 -0.32017976 -0.25355768 -0.05869538
00000000: 6639 ac3d 73a4 aa3d 0cae 4bbe 941e ddbc
00000010: 4f3d acbe cc9e ed3d f942 17bd afa5 8fbe
00000020: 86cd 67bd 81c8 363e 6e03 b53b f2ef 69bd
00000030: 2934 933c 4dfa 123e 455e 66be 6ddd 10bb
00000040: 392c 5cbe 0691 abbd 59b9 b8bc 7d9f 2fbd
00000050: a6de 6dbd 9aee a3be 50d2 81be 916a 70bd

fc1.0.weight_orig f4 [24, 6]
0.837055 -0.08459334 1.3222257 -0.36547083 0.86477154 -0.93635356 0.31979227 0.29227498
1.1310155 0.09552782 0.23569039 -0.67310524 0.5213844 0.19079131 0.09718406 0.117829226
0.50186163 -1.522573 0.4951525 -0.17068641 0.8671421 -0.26559067 0.44783476 0.5785491
-0.032906007 -0.11699817 -0.39341232 -0.16674419 -0.019415628 -0.50140756 -0.015210373 0.57801664
0.25408506 0.514929 0.16383553 0.9307975 -0.38814852 0.44180933 0.27034193 0.40328148
-0.2506576 0.48774996 0.063416004 0.04367349 0.036699757 0.1854032 0.07971807 -1.0837501
-0.051284023 0.060643014 0.058624197 0.042968094 -0.05642087 1.3942701 0.11737733 0.31547925
0.7877232 0.21077499 0.11951701 1.266963 0.7832699 0.046510056 0.70134634 -0.12208065
0.7022904 -0.63264984 0.51464653 -0.124953814 1.0121148 -0.29928052 0.5756395 -1.0954757
1.0517977 -0.026465822 -0.043113977 -0.027445413 0.80566704 -0.23884349 0.5651807 0.22017507
0.4585996 -0.033801418 0.557556 1.2123567 -0.13489668 -0.40919468 0.38592076 -0.3221697
-0.26781738 0.4121151 -0.069034085 0.016405717 -0.05852491 -0.005948683 -0.07264987 0.7879002
-0.12704396 0.12929282 0.6612101 0.07213542 0.048905734 -1.1172247 -0.08674155 -0.019487647
0.8462534 0.074054554 -0.07618093 0.8354002 0.50974697 0.1718412 0.9901379 0.06799257
0.46709213 -1.448488 0.66640615 -0.37554532 0.5704241 -0.4084454 0.37477025 0.3174194
0.1591769 0.041380093 0.4008431 0.016677016 0.14249285 1.579558 -0.1474883 -0.17319812
-0.2072115 -0.13704817 -0.13056009 -0.96536916 0.31787714 0.041502316 0.09589886 0.020687127
0.30020398 -1.8974332 0.71711993 -0.102763414 0.65291244 -0.17880273 0.6477024 -0.123324886
00000000: 3d49 563f 463f adbd b13e a93f fe1e bbbe
00000010: ab61 5d3f deb4 6fbf d0bb a33e 11a5 953e
00000020: 1ec5 903f 17a4 c33d d258 713e a050 2cbf
00000030: 7379 053f cc5e 433e 7008 c73d 7350 f13d
00000040: 017a 003f ace3 c2bf a184 fd3e 6bc8 2ebe
00000050: 06fd 5d3f 80fb 87be 994a e53e cb1b 143f
00000060: 73c8 06bd bd9c efbd 576d c9be fdbe 2abe
00000070: 860d 9fbc 3f5c 00bf ee34 79bc e6f8 133f
00000080: 7017 823e 63d2 033f 80c4 273e bf48 6e3f
00000090: 67bb c6be d534 e23e 426a 8a3e e97a ce3e
000000a0: 3156 80be 5dba f93e 40e0 813d f9e2 323d
000000b0: 7c52 163d 56da 3d3e 3a43 a33d 53b8 8abf
000000c0: 320f 52bd cf64 783d ed1f 703d 50ff 2f3d
000000d0: 9219 67bd 7177 b23f 8763 f03d 7f86 a13e
000000e0: 3aa8 493f 66d5 573e 56c5 f43d d82b a23f
000000f0: 6084 483f 5481 3e3d 6f8b 333f 6b05 fabd
00000100: 4ec9 333f 57f5 21bf e0bf 033f c9e7 ffbd
00000110: fa8c 813f 4c3b 99be 1c5d 133f 8c38 8cbf
00000120: 4fa1 863f dace d8bc 4898 30bd 34d5 e0bc
00000130: 3240 4e3f 6393 74be afaf 103f 9375 613e
00000140: 91cd ea3e 5b73 0abd fdbb 0e3f 812e 9b3f
00000150: 5b22 0abe f781 d1be 6897 c53e 6df3 a4be
00000160: 5c1f 89be c000 d33e be61 8dbd 4865 863c
00000170: d1b7 6fbd 2bed c2bb 74c9 94bd d4b3 493f
00000180: d017 02be 5665 043e 1145 293f bcbb 933d
00000190: 6151 483d 3801 8fbf 8ea5 b1bd 8fa4 9fbc
000001a0: 10a4 583f eaa9 973d bf04 9cbd cadc 553f
000001b0: c77e 023f 24f7 2f3e ad79 7d3f b03f 8b3d
000001c0: b326 ef3e 0e68 b9bf 9899 2a3f 7a47 c0be
000001d0: 5007 123f c11f d1be e3e1 bf3e cc84 a23e
000001e0: 45ff 223e 2c7e 293d 4f3b cd3e 3d9e 883c
000001f0: a5e9 113e f52e ca3f 2c07 17be d95a 31be
00000200: 402f 54be 5b56 0cbe 8bb1 05be 6f22 77bf
00000210: cbc0 a23e 55fe 293d 9f66 c43d 0d78 a93c
00000220: 56b4 993e 17df f2bf 2c95 373f a075 d2bd
00000230: 4525 273f 1018 37be d3cf 253f c291 fcbd

fc1.0.weight_u f4 [24]
-0.29292217 -0.18446028 -0.3161908 0.02713893 -0.074544095 0.15828305 0.10968162 -0.19853406
0.25182676 0.18962066 -0.20303766 -0.28335202 -0.11925179 0.15237208 0.07036888 0.14880672
-0.2199262 0.12431835 -0.33570644 -0.014871289 0.2542662 -0.15490535 -0.36779466 -0.10639774
00000000: e5f9 95be 28e3 3cbe c3e3 a1be 7652 de3c
00000010: 93aa 98bd f414 223e c2a0 e03d 834c 4bbe
00000020: 70ef 803e eb2b 423e 1be9 4fbe 8413 91be
00000030: 483a f4bd 6d07 1c3e 8f1d 903d ca60 183e
00000040: 5534 61be 9e9a fe3d b7e1 abbe b5a6 73bc
00000050: 2e2f 823e 829f 1ebe 954f bcbe 0fe7 d9bd

fc1.0.weight_v f4 [6]
-0.22277148 0.020644367 -0.19874895 0.056678172 -0.21188627 0.9286212
00000000: 351e 64be 601e a93c d884 4bbe 5f27 683d
00000010: b7f8 58be 1eba 6d3f

fc1.1.weight f4 [24, 24]
-0.8189295 -0.46341857 1.2066808 1.1913557 2.5058026 -2.059461 1.8884728 0.05685833
0.49045005 -1.1657366 -1.2005067 1.2417922 -0.2391056 -0.28897926 -0.7355907 -2.5068011
0.20287965 -0.869992 -0.79408664 1.1985316 0.32813498 1.5293902 -1.1509238 1.0391395
0.09319454 1.0327487 0.064162634 -1.1612821 0.79787797 0.35955423 0.70304775 1.6951412
1.569302 -1.1592612 -0.74633807 -2.5046842 -1.0176634 1.9221905 -0.2626898 -0.123250976
0.24811803 0.4246636 0.74152505 1.1374565 -0.31940803 0.1289116 -1.0340762 1.1454561
0.58451927 2.0773413 2.0582764 -0.7104766 0.49371827 0.9972757 -0.32631886 0.7470162
-0.696196 -1.2868564 -0.9094715 0.10159445 1.0410305 0.721768 -0.08363402 -2.0449529
-1.0639303 1.7549473 1.7603701 -1.3232653 -0.98863256 1.556949 0.96178836 0.50692624
0.40456358 0.25573015 1.6080054 -1.3170229 0.7084773 -0.58778 0.4870276 0.6746886
-0.24240603 -1.0100325 -1.2571218 -0.40184858 0.042595528 0.7421527 1.2540466 -0.38799697
-2.0533764 0.48198706 1.0465316 -1.5338204 -0.3142852 1.3972312 0.48148614 -2.0041895
1.4352579 1.9515678 1.496079 -0.303076 1.6517375 1.7488794 -0.5516807 0.32687864
-0.54276305 -0.20863943 0.73910487 0.7841569 -0.3168843 0.89999896 -0.015163697 -2.2122974
-1.7001764 0.074678816 -0.31709635 -3.077732 -1.7084454 0.49376526 0.8292393 1.7971746
0.649591 1.2990025 1.2672675 0.19890264 1.1173384 -1.8238801 0.21735188 1.2615147
-0.80525285 -0.52387375 -0.76926166 0.6835975 0.13063206 -0.7550041 0.28448197 1.6825444
1.3689642 -0.24130328 -1.1475074 0.9009532 -0.26650918 -1.3336511 -0.86246747 1.1002277
1.0897042 0.43369916 0.332395 -1.4183896 0.8684618 0.5395756 0.08497717 0.23365068
-0.6631005 -0.40991756 -0.17325915 2.7048337 -0.82156235 1.104629 1.7730209 -4.7052903
-1.2188696 2.7127435 0.5624764 0.003790633 -1.0471753 1.7907724 0.06986015 0.7896427
-0.8920898 0.475115 -0.73667043 -0.20460029 0.86460185 2.3382719 -0.23645063 0.5922547
-0.08623782 -0.5278189 -0.12941113 0.23320664 -2.0595937 -0.24105811 0.5858204 -0.020958351
-0.591282 -0.583734 0.39425573 0.5486562 -1.8847916 -0.35735804 -0.28015634 1.394768
-0.06790115 -0.291796 0.21597749 -0.070570916 0.6355111 0.97139525 -0.81142336 -0.6333467
-1.025039 -1.739674 1.0046984 0.27678713 0.12781025 2.0821846 -0.10061711 -1.1087104
-1.4481238 1.6498861 -0.17362064 -0.7870702 -0.36124983 0.11590665 -0.71759856 -1.2141461
1.3770579 0.07229398 1.052054 -1.0051172 2.0705614 0.72280407 -0.74892974 -0.4867252
-1.9332199 0.13449024 0.7019113 -1.373159 0.10506166 -1.6799963 0.52760655 -1.5479802
-1.5366352 2.0362446 0.004465693 -0.48825917 -0.14173459 4.2301493 0.099361606 -0.3518599
-0.34059775 -0.40643921 1.513084 -0.8088827 1.4257405 1.1881763 1.2155157 1.8224151
-0.7095481 -0.29300418 -1.4640992 1.104947 0.1050225 2.5481572 -0.34933227 -1.4185537
00000000: 5da5 51bf 3345 edbe 8474 9a3f 587e 983f
00000010: 125f 2040 36ce 03c0 7ab9 f13f 48e4 683d
00000020: 451c fb3e db36 95bf 34aa 99bf 0cf3 9e3f
00000030: 19d8 74be 17f5 93be ac4f 3cbf 6e6f 20c0
00000040: afbf 4f3e ccb7 5ebf 4349 4bbf 7c69 993f
00000050: 4f01 a83e 0fc3 c33f 7951 93bf 8602 853f
00000060: c7dc be3d 1c31 843f b367 833d e4a4 94bf
00000070: bb41 4c3f 7e17 b83e f0fa 333f 63fa d83f
00000080: e3de c83f ac62 94bf 0310 3fbf bf4c 20c0
00000090: cb42 82bf 570a f63f 477f 86be 026b fcbd
000000a0: a712 7e3e 826d d93e 96d4 3d3f 2d98 913f
000000b0: 7389 a3be 6701 043e 9c5c 84bf 4e9e 923f
000000c0: 0ea3 153f 29f3 0440 cdba 0340 cbe1 35bf
000000d0: a4c8 fc3e 764d 7f3f 4413 a7be 743c 3f3f
000000e0: e739 32bf b6b7 a4bf 20d3 68bf c010 d03d
000000f0: 7d40 853f cac5 383f 5048 abbd 82e0 02c0
00000100: de2e 88bf 1da2 e03f cf53 e13f c260 a9bf
00000110: 0617 7dbf 1b4a c73f c337 763f ebc5 013f
00000120: f522 cf3e 10ef 823e 1fd3 cd3f 3594 a8bf
00000130: c55e 353f c078 16bf ae5b f93e 64b8 2c3f
00000140: 4939 78be bf48 81bf 5ee9 a0bf 19bf cdbe
00000150: a678 2e3d b8fd 3d3f 9984 a03f 8aa7 c6be
00000160: 856a 03c0 02c7 f63e bff4 853f 3a54 c4bf
00000170: fde9 a0be 79d8 b23f 5a85 f63e a444 00c0
00000180: 88b6 b73f f9cc f93f 847f bf3f c72c 9bbe
00000190: 226c d33f 48db df3f f23a 0dbf a35c a73e
000001a0: 85f2 0abf 93a5 55be fa35 3d3f 82be 483f
000001b0: a93e a2be 5566 663f 2871 78bc 4896 0dc0
000001c0: 619f d9bf 35f1 983d 745a a2be 90f9 44c0
000001d0: 57ae dabf cdce fc3e 0749 543f d109 e63f
000001e0: 994b 263f b745 a63f d235 a23f 22ad 4b3e
000001f0: f204 8f3f e774 e9bf 7e91 5e3e 5079 a13f
00000200: 0d25 4ebf 971c 06bf 55ee 44bf 3f00 2f3f
00000210: 69c4 053e f347 41bf 9fa7 913e 9d5d d73f
00000220: 383a af3f 3518 77be 86e1 92bf dea4 663f
00000230: e473 88be 14b5 aabf abca 5cbf 43d4 8c3f
00000240: 6d7b 8b3f d10d de3e ad2f aa3e ca8d b5bf
00000250: 8353 5e3f a021 0a3f 8308 ae3d 2042 6f3e
00000260: f4c0 29bf b7e0 d1be d96a 31be ff1b 2d40
00000270: e951 52bf 7c64 8d3f 59f2 e23f bd91 96c0
00000280: eb03 9cbf 979d 2d40 74fe 0f3f 456c 783b
00000290: d709 86bf 0838 e53f d712 8f3d 0626 4a3f
000002a0: ff5f 64bf 4642 f33e 6f96 3cbf bd82 51be
000002b0: 8c56 5d3f 3fa6 1540 1d20 72be 019e 173f
000002c0: 749d b0bd 241f 07bf 5a84 04be b9cd 6e3e
000002d0: 62d0 03c0 f0d7 76be 53f8 153f d9b0 abbc
000002e0: 425e 17bf 976f 15bf e3db c93e bc74 0c3f
000002f0: da40 f1bf a2f7 b6be a770 8fbe c287 b23f
00000300: c20f 8bbd 4966 95be 3429 5d3e 7c87 90bd
00000310: dbb0 223f 5cad 783f 71b9 4fbf 0223 22bf
00000320: 7a34 83bf a3ad debf f599 803f 0bb7 8d3e
00000330: b1e0 023e 8342 0540 5810 cebd 39ea 8dbf
00000340: 1f5c b9bf 782f d33f 9cc9 31be 6f7d 49bf
00000350: bdf5 b8be 7760 ed3d 8ab4 37bf 2469 9bbf
00000360: 6f43 b03f de0e 943d b5a9 863f aea7 80bf
00000370: 1484 0440 b009 393f dcb9 3fbf 0c34 f9be
00000380: c073 f7bf cfb7 093e 75b0 333f adc3 afbf
00000390: 912a d73d 1e0a d7bf 3911 073f 3724 c6bf
000003a0: 76b0 c4bf d551 0240 f354 923b 1bfd f9be
000003b0: df22 11be 625d 8740 197e cb3d fb26 b4be
000003c0: d462 aebe cd18 d0be bdac c13f f012 4fbf
000003d0: aa7e b63f 2916 983f 0596 9b3f e644 e93f
000003e0: f2a4 35bf a504 96be 9a67 bbbf e76e 8d3f
000003f0: 0916 d73d 0215 2340 aedb b2be 2b93 b5bf
