models/17_05_2021/stock_self_attn_MSE_hinge_10000_64_24_6_24_5/5000_recovery.pth (torch, 54734 bytes, 39 tensors)

position.pe f4 [1, 24, 24]
00000000: 0000 0000 0000 803f 0000 0000 0000 803f
00000010: 0000 0000 0000 803f 0000 0000 0000 803f
00000020: 0000 0000 0000 803f 0000 0000 0000 803f
00000030: 0000 0000 0000 803f 0000 0000 0000 803f
00000040: 0000 0000 0000 803f 0000 0000 0000 803f
00000050: 0000 0000 0000 803f 0000 0000 0000 803f
00000060: a46a 573f 4151 0a3f 1d35 e53e 30ea 643f
00000070: 52e9 5a3e eb14 7a3f 7675 cc3d 98b8 7e3f
00000080: 1e0d 3e3d 6ab9 7f3f 477a b03c caf0 7f3f
00000090: 57d6 233c b9fc 7f3f 5718 983b 4bff 7f3f
000000a0: 6431 0d3b d9ff 7f3f 6d12 833a f8ff 7f3f
000000b0: 5c5a f339 feff 7f3f abe8 6139 0000 803f
000000c0: b7c7 683f 3311 d5be fbf4 4c3f f863 193f
000000d0: bed9 d53e b999 683f f86f 4b3e a5e5 7a3f
000000e0: b7d8 bd3d d1e5 7e3f cb6f 303d 2cc3 7f3f
000000f0: 3ed4 a33c e5f2 7f3f ec17 183c 2dfd 7f3f
00000100: 4e31 8d3b 64ff 7f3f 6812 033b dfff 7f3f
00000110: 5b5a 733a f9ff 7f3f abe8 e139 ffff 7f3f
00000120: c381 103e 2670 7dbf cef0 7b3f 16a2 353e
00000130: c82d 1a3f 565d 4c3f 6c4e 973e ef90 743f
00000140: 1721 0e3e a885 7d3f bd46 843d 2977 7f3f
00000150: 1fb9 f53c 83e2 7f3f d522 643c a6f9 7f3f
00000160: bfc9 d33b a2fe 7f3f 929b 443b b5ff 7f3f
00000170: c283 b63a f0ff 7f3f 7f6e 293a fdff 7f3f
00000180: cfbd 41bf 3055 27bf e79c 753f 6c5d 90be
00000190: be4d 423f f9ad 263f d761 c73e a7ca 6b3f
000001a0: 7307 3d3e b299 7b3f df45 b03d cc0c 7f3f
000001b0: dbcb 233d 94cb 7f3f 3e16 983c b4f4 7f3f
000001c0: f830 0d3c 91fd 7f3f 5712 833b 7aff 7f3f
000001d0: 545a f33a e3ff 7f3f a9e8 613a faff 7f3f
000001e0: 107c 75bf 2c3c 913e 0a50 3b3f cb7f 2ebf
000001f0: cf71 613f 6393 f23e 4377 f53e 40a9 603f
00000200: 9385 6b3e ff22 793f 0e30 dc3d 2184 7e3f
00000210: f4b6 4c3d 19ae 7f3f 3c1a be3c 5aee 7f3f
00000220: e67c 303c 33fc 7f3f ddd6 a33b 2eff 7f3f
00000230: 7118 183b d3ff 7f3f 6931 8d3a f6ff 7f3f
00000240: 8c0f 8fbe b8cd 753f c6c0 b23e 2de4 6fbf
00000250: 6329 763f 8f93 8c3e 688c 103f 3249 533f
00000260: e9c0 8c3e e922 763f 0900 043e 38dd 7d3f
00000270: d19c 753d 128a 7f3f 2b1d e43c 96e6 7f3f
00000280: 9dc8 533c 86fa 7f3f 589b c43b d2fe 7f3f
00000290: b783 363b bfff 7f3f 7d6e a93a f2ff 7f3f
000002a0: 4630 283f bdff 403f 9fc6 dbbd 8d85 7ebf
000002b0: 417f 7f3f 234f 803d 72eb 243f b3cc 433f
000002c0: 6a71 a33e 189b 723f 5dd8 193e 2518 7d3f
000002d0: 323e 8f3d 815f 7f3f 6e0f 053d 69dd 7f3f
000002e0: 1514 773c 8cf8 7f3f c55f e53b 65fe 7f3f
000002f0: f8ee 543b a8ff 7f3f 91ab c53a edff 7f3f
00000300: 9546 7d3f f6fd 14be e381 0abf 624b 57bf
00000310: e904 7d3f 59cf 1bbe a5a4 373f 5f5b 323f
00000320: cbc7 b93e 808d 6e3f 699e 2f3e ff34 7c3f
00000330: 50aa a33d 652e 7f3f 890f 183d d3d2 7f3f
00000340: a12f 8d3c 44f6 7f3f 1212 033c e7fd 7f3f
00000350: 385a 733b 8cff 7f3f a4e8 e13a e7ff 7f3f
00000360: 3201 d33e d53f 69bf f13b 5cbf 9f82 02bf
00000370: afd7 6e3f 0149 b8be 1c88 483f d521 1f3f
00000380: bab7 cf3e 5cfc 693f 974f 453e e133 7b3f
00000390: 3e12 b83d c2f6 7e3f cd0e 2b3d d3c6 7f3f
000003a0: 0cd5 9e3c aef3 7f3f 3a74 133c 59fd 7f3f
000003b0: bae2 883b 6eff 7f3f b625 fe3a e1ff 7f3f
000003c0: f844 0bbf 64cd 56bf d15b 7fbf 7ee0 90bd
000003d0: 619f 553f 8212 0dbf a46a 573f 4151 0a3f
000003e0: 1e35 e53e 30ea 643f 53e9 5a3e eb14 7a3f
000003f0: 7675 cc3d 98b8 7e3f 210d 3e3d 6ab9 7f3f
0.0 1.0 0.0 1.0 0.0 1.0 0.0 1.0
0.0 1.0 0.0 1.0 0.0 1.0 0.0 1.0
0.0 1.0 0.0 1.0 0.0 1.0 0.0 1.0
0.84147096 0.54030234 0.44767085 0.8941984 0.21378067 0.9768817 0.099833414 0.9950042
0.04639923 0.99892294 0.021542681 0.9997679 0.009999833 0.99995 0.0046415734 0.9999892
0.0021544332 0.9999977 0.0009999998 0.9999995 0.00046415895 0.9999999 0.00021544348 1.0
0.9092974 -0.41614684 0.8006131 0.59918165 0.41767687 0.9085956 0.19866931 0.9800666
0.09269851 0.9956942 0.043075364 0.99907184 0.019998666 0.9998 0.009283047 0.9999569
0.004308856 0.9999907 0.0019999985 0.99999803 0.00092831784 0.9999996 0.00043088695 0.99999994
0.14112 -0.9899925 0.98414314 0.17737612 0.60226107 0.7982992 0.2955202 0.9553365
0.1387981 0.9903207 0.06458805 0.997912 0.0299955 0.99955004 0.01392432 0.9999031
0.006463259 0.99997914 0.0029999954 0.9999955 0.0013924765 0.99999905 0.00064633036 0.9999998
-0.7568025 -0.6536436 0.9594254 -0.28196275 0.75899875 0.6510921 0.38941833 0.921061
0.18459873 0.98281395 0.08607077 0.996289 0.039989334 0.9992001 0.018565293 0.9998276
0.008617632 0.99996287 0.003999989 0.999992 0.0018566349 0.9999983 0.0008617738 0.99999964
-0.9589243 0.2836622 0.73169005 -0.68163747 0.88064283 0.47378072 0.47942552 0.87758255
0.23000173 0.97319025 0.10751353 0.9942036 0.049979165 0.99875027 0.023205869 0.9997307
0.010771966 0.999942 0.004999979 0.9999875 0.0023207928 0.9999973 0.0010772172 0.9999994
-0.2794155 0.96017027 0.349127 -0.93707544 0.961569 0.27456328 0.5646424 0.8253356
0.2749093 0.9614702 0.12890638 0.9916568 0.059964005 0.99820054 0.02784594 0.9996122
0.012926248 0.99991643 0.0059999637 0.999982 0.0027849504 0.9999961 0.0012926605 0.99999917
0.6569866 0.75390226 -0.10731243 -0.9942253 0.9980355 0.06265094 0.6442176 0.7648422
0.31922466 0.94767904 0.15023942 0.98864967 0.06994285 0.997551 0.032485418 0.9994722
0.0150804715 0.9998863 0.006999942 0.9999755 0.003249107 0.99999475 0.0015081038 0.99999887
0.98935825 -0.14550003 -0.5410444 -0.840994 0.9883562 -0.15215816 0.717356 0.6967067
0.36285242 0.9318466 0.17150272 0.98518366 0.07991469 0.9968017 0.03712419 0.9993107
0.017234625 0.99985147 0.007999914 0.999968 0.0037132632 0.9999931 0.001723547 0.9999985
0.4121185 -0.91113025 -0.86028963 -0.5098056 0.9329786 -0.35993198 0.78332686 0.62161
0.4056986 0.91400695 0.19268642 0.98126036 0.089878544 0.9959527 0.041762162 0.99912757
0.019388698 0.999812 0.008999879 0.9999595 0.0041774185 0.9999913 0.0019389901 0.99999815
-0.5440211 -0.8390715 -0.99749476 -0.070740685 0.8344632 -0.55106366 0.84147096 0.54030234
0.44767088 0.8941984 0.21378069 0.9768817 0.099833414 0.9950042 0.04639924 0.99892294

r_cell.w_qs.weight f4 [24, 24]
00000000: 33db c5bd 5282 16bf c12e f6bd f7bc 3f3e
00000010: 9191 8ebc 1ba2 62bf 7e0d 0dbd 6f86 3c3d
00000020: 5042 94be 91ac 43be 562c dfbe d619 18be
00000030: 0d92 eabe 3b10 79be c8ba 01bf a794 3fbf
00000040: ac53 3ebe 41f7 4f3e 9b10 43be 603f 2f3e
00000050: a28a 24bd 64ec f83d 7dc5 12bf de52 1cbc
00000060: 2f12 f5be ecc0 b1be b721 42bd 65f8 323f
00000070: cfdb ec3e 40cd 313f 9bea ec3e e22d eabe
00000080: c04b a03d aaa5 043e 6207 b93c ae86 0d3f
00000090: 2abb 10bd 04ec 0d3f 7e1c 45be 78e4 fcbe
000000a0: 6717 a4bc 66c2 3e3f dba4 953a 0b0b 633f
000000b0: 3c8d 5ebe d9b1 4dbf 23af 02bf e7ce 85bc
000000c0: 484c 6ebe 7e6e 813d 222d 35bf 0c19 79be
000000d0: c690 94be 35b1 ebbe e9d6 4cbf f1fc 8b3d
000000e0: 6fd4 9f3f 8f85 4fbe a561 c43c 9b3d 1cbe
000000f0: db0e 78be 07fc a6bc 4303 01be 2e6b 41be
00000100: 1974 333e 418b 91bc afb0 133e 9d0b 30bf
00000110: 3b18 02bf 6276 92be 66e5 e1bd 0655 9c3c
00000120: 0d91 9ebe 0522 bd3d 61a1 bfbd 1e78 1bbd
00000130: 1241 8d3e c2fb 933e 91bf 08be 11eb 393f
00000140: dfa0 813e 8a1e 0cbc 7e90 26bf f707 db3d
00000150: 9a7e 53be 7d4b 4e3e e821 c1bc 8eab 95bd
00000160: dcd2 e63e 0039 07bf 29c0 143f af43 2e3d
00000170: 771b a2bd 05d5 a7be 2001 3cbd aedb 583e
00000180: 6393 333f ae68 183f 5244 513e e3fe 99be
00000190: 94ca 313e 0ce1 6f3e 9254 123d 3045 2d3e
000001a0: be5b 593e 83c7 2cbf 8662 babe ca46 9c3b
000001b0: cdbf de3e fcb6 1ebf 5427 77be 6ea3 ef3d
000001c0: 9b95 96bc 526f d6be 35fe 88bd 2006 2dbd
000001d0: d6ac 29bf c187 963e 9b39 12bf b01e 09bd
000001e0: 52d9 21bf f3a7 3dbe 8c36 2b3e edc0 eebe
000001f0: de2b e73e e945 543d d845 4c3e af86 32bf
00000200: 3f28 ec3e e203 ed3d a09b 40be b53b 423f
00000210: dfd0 b9be d4bd 013f 358c 2d3d ba26 523d
00000220: e8c2 b83e 064e f8be 0ae1 80be 787f 03bf
00000230: 08c0 c0be 120c 6dbe 7b8d 8c3e 99d8 953d
00000240: 4071 e7bd 975f 683d f6ae e3be a774 8cbe
00000250: 55b2 8ebd 8817 193e 4169 19bf 0b74 41bf
00000260: a989 f53d d4ff 41be 9de9 99bd 1bf5 8e3e
00000270: 1501 123e 9524 80be 4d65 9d3e 26fd 663d
00000280: 4fc5 a93e 914d 893e 27d0 c2be 8af5 38be
00000290: 9f41 903e 347e 1b3f beee 903e 75c0 9dbe
000002a0: 69d8 fd3d 986d 62be f220 413e 2c16 cb3d
000002b0: 3bc8 eabe 9413 bc3e fe14 22bd 0a39 1b3f
000002c0: 1ff2 493d 82b1 743c 21a5 783f 50f8 333e
000002d0: ba76 ae3e 6992 85be 83a5 043e c75b 8b3d
000002e0: 6dc1 d83e e1c9 5cbd 8a3e f83e cc3a b53e
000002f0: ca9f 033c b144 d5bd 6313 e2be b75a 0e3f
00000300: 348c a73d b7c9 2dbf 6d21 5d3e 3e6f 96be
00000310: 6e26 24be cc37 4ebe e02d 263e 4f5d 0abf
00000320: a613 f23e cadb 15bd 57ac a93d eddb 1dbf
00000330: be6f f1be 5eb9 8ebd 7e0c 23be e60d ffbc
00000340: b5cf c6bc 8099 4cbf 4589 3f3e c9c1 bbbe
00000350: d8e4 d73d d375 54bd fde8 403e e255 1dbe
00000360: 77c3 1a3f 8e7b 2c3e 6302 db3d eb8c 79be
00000370: 442d ee3d 9f20 053f 4cfc eebe 7f42 33bd
00000380: 0e3d fd3d 591d 99bd 2188 203f 9630 7dbe
00000390: 0ce3 c0bc b8eb 9fbe 94ee d23d 66cd 15be
000003a0: 52b3 c53e b26e 273d c52b 38be 8f79 82bc
000003b0: ea51 bbbe 3092 0c3e a228 07be 50f2 1f3e
000003c0: 26b4 053f 137d b1be a834 09bf ac15 ebbc
000003d0: e106 64bf d844 ba3e 4cc8 e03d 42f3 5dbe
000003e0: 3a0f 21bd 1987 4ebe 416c f03e fc66 d63e
000003f0: a62e c43e 82d2 09bf fffd f53e 6681 d5be
-0.096609496 -0.58792603 -0.12020636 0.18724428 -0.017403396 -0.88528603 -0.034436695 0.046026643
-0.28956842 -0.19108798 -0.43588513 -0.14853606 -0.45814553 -0.24322598 -0.5067563 -0.748362
-0.18586606 0.20309164 -0.19049303 0.1711402 -0.040171273 0.12154463 -0.57332593 -0.009541241
-0.47865435 -0.347175 -0.047395434 0.6991027 0.4626145 0.6945381 0.4627274 -0.4573813
0.07826948 0.12953821 0.022586528 0.5528363 -0.035334744 0.55438256 -0.1924915 -0.49393058
-0.02003069 0.7451538 0.0011416929 0.88688725 -0.21733564 -0.803495 -0.5104849 -0.01633401
-0.23271286 0.06319903 -0.7077199 -0.24325961 -0.29016703 -0.46033636 -0.80015427 0.06835354
1.2486705 -0.20265792 0.023972342 -0.15257876 -0.24224417 -0.020383848 -0.125989 -0.18888542
0.17524756 -0.017766597 0.14422868 -0.6876772 -0.5081822 -0.28605944 -0.110300824 0.019083511
-0.3097004 0.09235004 -0.093569525 -0.03795635 0.27588707 0.28903013 -0.13354327 0.7262431
0.25318047 -0.008552203 -0.6506423 0.106948785 -0.20653763 0.20145984 -0.023575738 -0.07308112
0.45082748 -0.5282135 0.58105713 0.042545017 -0.07915395 -0.32779709 -0.04589951 0.21177551
0.7014677 0.5953473 0.20436218 -0.30077276 0.17362434 0.23425692 0.035725184 0.16920924
0.21226403 -0.6749193 -0.36403292 0.004769181 0.43505707 -0.6199796 -0.24136096 0.117010936
-0.018381884 -0.41881806 -0.06689111 -0.04224217 -0.6627935 0.29400447 -0.5711915 -0.03347653
-0.6322223 -0.18521099 0.16720027 -0.46631566 0.45150656 0.051824484 0.19948518 -0.6973676
0.46124455 0.11573006 -0.18809366 0.75872356 -0.36292168 0.5068028 0.04237004 0.051306464
0.36086202 -0.48497027 -0.2517169 -0.51366377 -0.37646508 -0.23149136 0.2745169 0.07316703
-0.113008976 0.056731787 -0.44469422 -0.2743275 -0.06967608 0.14950383 -0.5992623 -0.7556769
0.11989147 -0.18945247 -0.07515261 0.27921376 0.14258225 -0.2502791 0.3074135 0.056393765
0.33158347 0.2681699 -0.38049433 -0.18062416 0.28175065 0.60739446 0.28307146 -0.30810896
0.123947926 -0.22112119 0.18860224 0.09916338 -0.4585589 0.36733687 -0.0395708 0.6063391
0.04930317 0.014934899 0.97126967 0.17575192 0.34074956 -0.26088265 0.12953763 0.068046145
0.42335072 -0.053903464 0.48485214 0.3539642 0.008033702 -0.104134925 -0.44155416 0.5560717
0.081810385 -0.6788592 0.21594782 -0.29381746 -0.16030285 -0.20138472 0.16228437 -0.5404863
0.47280616 -0.03658656 0.08284824 -0.61663705 -0.47155565 -0.0696895 -0.15922734 -0.031134557
-0.024268964 -0.7992172 0.18704708 -0.36671284 0.10541695 -0.05187018 0.18838878 -0.15364793
0.60454506 0.16844007 0.106938146 -0.24370162 0.116297275 0.520029 -0.46676862 -0.043764587
0.12365161 -0.07476301 0.62707716 -0.24725565 -0.023545764 -0.31234527 0.102994114 -0.14629135
0.38613373 0.04087705 -0.17985447 -0.015927104 -0.36585933 0.13727641 -0.13199094 0.15619779
0.5222801 -0.34665737 -0.5359597 -0.028696857 -0.89072996 0.3638065 0.109757036 -0.21674827
-0.03932116 -0.20168723 0.4695759 0.41875446 0.3831684 -0.53836834 0.48045346 -0.41700286

r_cell.w_qs.bias f4 [24]
00000000: a7c6 08bd ca44 4b3e 2e38 063d 3f69 26be
00000010: 7527 9dbe 323b 61be 6653 60be 3ee1 9a3e
00000020: acb0 32bf 8bab 83bd a6f3 41be b784 e2be
00000030: fd86 1cbd 6daa 603e 4964 913d b598 473d
00000040: 4f09 e03e 1bae 06bf a791 b93c 1d6d 443d
00000050: adf0 da3b fec5 543e 98fe c73e 5e98 213f
-0.033392575 0.1985046 0.03276842 -0.16251086 -0.30694166 -0.21995237 -0.21906814 0.3024997
-0.6980083 -0.064292036 -0.18940601 -0.44241878 -0.038214672 0.21940012 0.07099206 0.048729617
0.43757102 -0.52609414 0.02265246 0.04795562 0.006681523 0.20778653 0.39061427 0.6312312

r_cell.w_ks.weight f4 [24, 24]
00000000: 75c5 633d 01bc e2bc 89ff 973e a0a7 2dbd
00000010: 34d2 66be 2f95 cd3e e6af aebe af15 24bd
00000020: 7115 2f3e 1646 37be 7283 fc3a 1f91 113f
00000030: 2ea2 cb3e 3a03 4b3f 05f0 cb3e 5959 98bf
00000040: 61a4 8fbd 8b8e 3bbe ecb9 79be 7f3d ddbd
00000050: b095 0d3e 21b9 763d d192 4e3f 380e e53e
00000060: 7af7 ccbd 9f62 b7be d9f7 273f c5f6 a13d
00000070: edf8 e7be 0b2d 86be e869 243f dd68 06bf
00000080: 89c7 8dbe 26b9 bd3e d87b 6f3e 1977 253e
00000090: 396e b6bd 21c2 713e dcf6 b03e 33e2 edbd
000000a0: 2510 34bf f50c f1be 21af 2fbf a6c6 cd3e
000000b0: c244 dbbe 6509 10bf 0e38 13be 3a2f 44be
000000c0: 18e0 163f 3383 f63e fdcc f1bb 9a3f 11bd
000000d0: 1c87 fabe f26a 403e aadd 5bbe f365 a0be
000000e0: 2441 c3bc 2f92 183f c187 6dbd ae72 44be
000000f0: df92 753e d9ce 4dbf 1785 03be f952 33be
00000100: 2574 cabe fb10 46be c9cf 1bbe 78aa 10bf
00000110: b7f4 0c3e 8535 c93e ee48 3c3f b500 3e3f
00000120: b886 c33e 8cf6 183f ddb7 493d 55b6 75bd
00000130: bd47 163f d10c f63e d6ac 18bf 1ddd 81be
00000140: f5dc f73e c866 f7be 8cd8 ab3e 5813 1fbe
00000150: 9358 0b3d 86ce 6bbd b458 f9be fc0f 0ebc
00000160: b030 c53e 19ac dd3e bbbe 873d 8682 c1bc
00000170: a5e4 26bd aef2 b3be 50d7 eb3e 870b 153f
00000180: fa8e 073f c8bc 2d3f 40e9 003d 8bc9 adbe
00000190: 3dee 9dbe 57c8 fbbe 573e 1a3f dfa5 393d
000001a0: 335d 0b3f 921d bd3d dfda 3abd 61ac 773d
000001b0: eef7 843e bc51 5abe 7f55 6cbe 4ade d63e
000001c0: e288 c43e 3b48 93be 3c71 f23e 869a 7bbe
000001d0: 0ce2 5d3e 9ee0 c63d 14f7 113e 691e a33e
000001e0: fc86 acbc 5e23 da3e 64c7 f2be 0546 18be
000001f0: 7e1c a03e 9915 b6be a0e0 23be 7ff8 153e
00000200: a9ca 7e3d 5e33 a23e 7312 873e 75d8 073f
00000210: 6980 c73e a3ba ff3c f78e e0be 7dc8 0f3f
00000220: 7de2 e93e 3a8a 353e c30a 50bf 4c6c f1be
00000230: cb8a 03be 77ec 6f3e fd76 053d 2e40 453e
00000240: dc54 0c3f 1447 983e 6dba 013d 2094 9ebe
00000250: 44bf a1ba 32fc f0be 024f a03d 1c46 0abe
00000260: d1ce e1bd b754 bbbe f7c8 e33e 26b7 c53e
00000270: 6441 93be 74f2 5bbe 16db b1bc e777 70bd
00000280: dacf 27bf e951 2cbf 773f adbb 64d3 0d3e
00000290: bb37 b33f 7ec9 ce3e 32a8 153f de3a e9be
000002a0: 492f abbe ee04 64be 9aca 9c3e f71a c8be
000002b0: 2a14 babe d03e 49be 19b7 723d 203e 723d
000002c0: 55ca d73e e7bd 803e c598 473d 86dd d2be
000002d0: 167d 92be ed41 023e 8e28 23bf e630 2f3e
000002e0: 4ad2 03bf 81f9 f3be e3b2 b4be 83f5 2e3e
000002f0: 02d9 48bf 3554 a2bf 709c 0ebf 0b59 85bc
00000300: 4a5b ee3c 7dee 3fbe 675d b83b 64a1 79be
00000310: 645c 92be 8dbd 75be c430 a6be a1af ccbd
00000320: b33c 0fbe 89a7 d1be 7cb9 3cbe 9506 1d3d
00000330: 4a2a a4bd 06f4 353d aa47 90be 77b9 aabe
00000340: 5e6d 4c3f 554f 6a3d 6383 373f 8847 53bf
00000350: 5015 cebd 0286 aa3e 5d97 e43c c963 8cbe
00000360: 3e14 a43e 07d3 5b3d 4f96 87be c0a6 d3be
00000370: d71f 273f ad1c 05bf 9e23 f9be f6d8 efbd
00000380: 856a 5d3f 4bba a53d 27a6 08bf 9978 5d3e
00000390: dbf0 bf3d 6202 0b3d b1fd d8bd bb45 a9be
000003a0: d1d5 733e dd53 233e 4818 2a3f 4fc4 883d
000003b0: e73e 263f ad3c ef3e 9664 673e aa8d a83e
000003c0: d833 293d fdf5 a33e ae80 ec3e 72e0 1dbf
000003d0: 206b 4abc 5988 f4be 1b13 1b3f 5dc7 f53d
000003e0: 014a 2ebe 7af9 40be 7621 343e 87a0 eebe
000003f0: 2536 88be c5e1 733d 6db8 8abf 69f5 93be
0.05560823 -0.027677538 0.29687145 -0.042396188 -0.22541124 0.4015288 -0.34118575 -0.04005974
0.17098023 -0.1789783 0.0019265248 0.5686206 0.3977217 0.793018 0.39831558 -1.1902267
-0.07013775 -0.18316095 -0.2438733 -0.10802745 0.13826632 0.060235146 0.80692774 0.4473741
-0.1000814 -0.3581743 0.6561256 0.07908396 -0.45307103 -0.2620624 0.642241 -0.5250376
-0.27691296 0.3705532 0.23387086 0.16158713 -0.08907742 0.2360921 0.3456334 -0.1161541
-0.70337135 -0.47080198 -0.686266 0.4019062 -0.42825896 -0.56264335 -0.14376852 -0.1915864
0.5893569 0.48146972 -0.007379173 -0.035461046 -0.48931205 0.18790796 -0.21471277 -0.3132778
-0.023834772 0.5959806 -0.057990793 -0.19184372 0.23981808 -0.8039375 -0.12843738 -0.1751212
-0.39541736 -0.19342415 -0.15215982 -0.56510115 0.13765226 0.39298645 0.7354878 0.7421983
0.3818872 0.597512 0.04924761 -0.05998834 0.58703214 0.48056653 -0.59638727 -0.2536401
0.48410764 -0.48320603 0.3356365 -0.15534723 0.034020018 -0.057570003 -0.48700488 -0.008670803
0.38513708 0.43295363 0.06628176 -0.023621809 -0.040745396 -0.35146087 0.46062708 0.58220714
0.5295254 0.6786618 0.031472445 -0.33942828 -0.30845824 -0.49176285 0.60251373 0.045324203
0.54439086 0.09234156 -0.045618888 0.060467128 0.25970405 -0.21320242 -0.23079489 0.41966468
0.38385683 -0.28766045 0.47352016 -0.24570665 0.21668261 0.09710811 0.14254409 0.3185914
-0.02106046 0.42605108 -0.47417748 -0.1487046 0.31271738 -0.35563353 -0.16003656 0.14645575
0.06220499 0.31679815 0.26381263 0.5306466 0.38965157 0.031216925 -0.43859074 0.56165296
0.4568061 0.1772851 -0.8126642 -0.47152936 -0.12845914 0.23430048 0.03258418 0.19262764
0.54816985 0.29741728 0.03167193 -0.30972385 -0.0012340327 -0.4706741 0.078275695 -0.13503307
-0.11025775 -0.3658807 0.44489262 0.38616294 -0.28760827 -0.21479207 -0.021710914 -0.058708098
-0.6555153 -0.67312485 -0.0052871066 0.1385017 1.4001383 0.403881 0.5845977 -0.45552725
-0.33434513 -0.22267506 0.30623323 -0.39083073 -0.3634351 -0.19652867 0.059256647 0.05914128
0.42146555 0.25144884 0.048729677 -0.41184634 -0.28611058 0.12720461 -0.63733757 0.17108497
-0.5149275 -0.47651294 -0.3529273 0.17085843 -0.7845613 -1.2681948 -0.55707455 -0.01627781
0.029096264 -0.1874332 0.005626369 -0.24377972 -0.28586113 -0.23998089 -0.3245908 -0.09994436
-0.13987999 -0.40948132 -0.18430132 0.038336355 -0.080158785 0.044422172 -0.28179675 -0.33344623
0.7985438 0.057204563 0.71684855 -0.82531023 -0.10062659 0.33305365 0.027904207 -0.2741988
0.32046694 0.05366805 -0.26481864 -0.41338158 0.6528296 -0.5199688 -0.48659986 -0.11711304
0.8649066 0.08092173 -0.5337853 0.21628036 0.093721114 0.03393782 -0.10595263 -0.33061013
0.23812033 0.1594996 0.664433 0.06678068 0.6493973 0.4672598 0.22596964 0.3292058
0.041309208 0.32023612 0.46191925 -0.616706 -0.012354642 -0.47760275 0.6057603 0.12000916
-0.17020418 -0.18845168 0.1759089 -0.46606848 -0.2660381 0.059541482 -1.0837532 -0.2889817

r_cell.w_ks.bias f4 [24]
00000000: 534d 0a3e 2f74 323e 7fb9 bb3c ce51 223e
00000010: a6cb 213e 584d ac3e 6bd2 f6bd a3fe 0c3d
00000020: 530a 3f3e 809c 93bd 5434 073e 1469 81bb
00000030: 029d 63bd 3d41 403e 6379 ee3d b6b2 8abd
00000040: 5bcb 36be d86d a53c ff0c e53d c09e a83d
00000050: 3e34 403d b4cd 1dbe d38a 1c3e b3e1 4ebd
0.1350606 0.17427133 0.0229156 0.15851519 0.15800342 0.3365276 -0.12051853 0.034422528
0.18656282 -0.072075844 0.13203555 -0.003949294 -0.055569656 0.18774886 0.116442464 -0.06772368
-0.17851011 0.02019398 0.111841194 0.08233404 0.046924822 -0.15410501 0.15287332 -0.050508212

r_cell.w_vs.weight f4 [24, 24]
00000000: c438 10bd 3c2e 07bd 5a66 fdbe 1e8d b83d
00000010: 6d48 7abe f144 c73d 9e07 a63e 9a7c 1d3e
00000020: b307 053e 637a fe3e d6bd 9c3d beb7 7cbe
00000030: 85b6 85be b154 9c3e dca9 33bd e00e a6be
00000040: 21a7 4cbe e141 2bbd ac5a 9cbe 4120 b03e
00000050: 51e8 edbd c0cd 2a3e 5121 8e3e 646f 173f
00000060: 9b27 8bbd 3575 4e3d c376 dfbd 7466 833e
00000070: 431a edbe a99f 083e 4a62 d4be 1d01 2c3f
00000080: 224a c93d a4f4 8dbe a6ee ff3d dfc4 2cbe
00000090: bb3f 0f3e 4f5d f93e ff87 a7bd efc9 633e
000000a0: cbc8 b33e 665a b63d 4ad5 a5be b372 b83c
000000b0: d497 353e 4696 b33e 11a5 d0be 4e61 f7bd
000000c0: 3f11 30be cbbe 76bd de17 183f f487 3c3e
000000d0: f2c6 553d 456d 4dbf 1bc9 343c 2c7e e9bd
000000e0: 3137 feb9 1165 623e fbb3 613d d773 0a3e
000000f0: e21d 833e 68b9 f3bd 040b 38bf d8d4 c2be
00000100: 7517 0dbf 7520 19be a24b 19be d9e6 4d3c
00000110: dd0a 7bbd bec9 0bbe 87cd 95bd e405 9ebe
00000120: f668 5b3e 1828 94bc 94ce 80bd 2d71 29be
00000130: 374d 08be a910 8f3e dcaa 8abd 8e8c 83be
00000140: 7e41 f63e ed45 13bd 4363 bf3d a672 093f
00000150: 1bbc 3c3e 3666 9ebe 5642 b13e 64fb 73be
00000160: f53b 513e bc84 b9be 1e5b 013c 4183 813e
00000170: 109f e5bd 761d 8fbe 9184 073e 6b60 c3bd
00000180: 1897 0abf e2c6 c4bc e713 22be ddc7 243e
00000190: 522f b1bd 7f29 1dbf e8bf 5e3e ba9c 763e
000001a0: e53c 2fbe 4756 2ebf 1653 27be 4ccc 03bf
000001b0: 83aa a4bc 2841 363e 4a21 f73c e7ee 07bf
000001c0: 69a4 c6be ebfc e7be a0de 983e c276 37be
000001d0: f906 26bd 66a8 bfbe 111f 873e 6e77 ca3b
000001e0: bca8 adbc 4639 773d e4fa fc3e e7bf ad3e
000001f0: d9d4 043f a023 6b3f 8514 45be 8033 afbc
00000200: 5979 133f 8d63 393e 770e a83e 6b34 d03c
00000210: 6f44 c63b 8e31 d63e 4bc4 a7bc 5cf7 c63e
00000220: 4e1f df3d 955a 2b3f 9a04 4a3d 9886 b2be
00000230: 178b 523f bf93 da3d 1b6f 04be be76 b93d
00000240: 0879 7bbd 84c5 8c3e 54d4 443b ff41 58be
00000250: 8e3f 103d e05c 1b3e 2b42 06be 2deb adbe
00000260: 6a5f d4be a9ce 8e3e 5288 173e ec1d 163f
00000270: 6797 42be 7f68 f1bd e064 3c3e 9bbe f8bd
00000280: 9039 81be 0e1f 20bf 2acc 87be a0cf e3be
00000290: ce7a ccbe 03eb 40be faf3 23bf 6fa4 583e
000002a0: 80b5 8bbe bad7 bbbe fd62 1fbf e4e2 ea3c
000002b0: 4189 06be 5642 343f 1291 91bc 7b24 bfbe
000002c0: 9601 18bd 01ef 4a3e 49e5 90be 2b02 ae3e
000002d0: fc67 91bd 7f80 0abf 8932 033c 33dd d8be
000002e0: e088 21be c0ac 5bbe c9bd 953e 8ae5 07bf
000002f0: 2902 0abe 7fe3 24bf e5f6 5cbe 21f1 4a3d
00000300: 326f eabe 4ccb 39be c63f 2ebc bcdd 9f3e
00000310: 6573 9dbe a588 b3be d1c2 9fba a0ac 4b3d
00000320: ccdc 343e aef2 3ebe ee74 d6bc 807c d0be
00000330: f741 453d b9ec 84be fa0d b7be 4747 55be
00000340: 1482 873e 8522 ce3d cd27 20bd f3b0 8e3e
00000350: 0829 4dbe c91c 103f 2e2b c7bd 508f adbe
00000360: daad 1ebe 229d 2a3f f300 973d 3316 613e
00000370: e9bc a93e 6a6e 1dbe 2cfb 883d dc23 523e
00000380: 3444 363d 5bc4 dfbe 9f22 f6bc 37dd 3cbe
00000390: 3da4 d83e 3320 23be 9299 da3e e9b0 0f3e
000003a0: 0775 3ebe e331 023e a3dd 3b3e b838 e5be
000003b0: 419d 93be 3f68 a33e b4e7 92be 6f5f 533d
000003c0: 824f 553e 3ff2 863e 1c6a 81be 37fb b33e
000003d0: c257 bf3b 7b94 cdbe 0cb7 d4bc 9b2e 0cbe
000003e0: 866c a5be 5107 19be bcf4 863d 1d8a 4fbe
000003f0: 61f5 a03e c826 91be 2d38 1f3e b251 103f
-0.035210386 -0.033003077 -0.4949215 0.09011291 -0.2444169 0.097299464 0.32427686 0.15379563
0.12991218 0.4970275 0.07653396 -0.24679467 -0.26115814 0.30533364 -0.043863162 -0.32433224
-0.1998563 -0.041810874 -0.30537927 0.34399608 -0.116165765 0.1668005 0.27759793 0.59154344
-0.067946635 0.050404746 -0.10911324 0.25664103 -0.463091 0.13342156 -0.4148124 0.671892
0.09828593 -0.27725708 0.124966905 -0.16871975 0.13989155 0.48704 -0.08180236 0.22245
0.3511413 0.08903961 -0.3238929 0.02251563 0.17733699 0.35075587 -0.40750936 -0.12079106
-0.17194079 -0.060240548 0.5941142 0.18411237 0.052191682 -0.8024486 0.011034275 -0.114010185
-0.00048487776 0.22108866 0.055103283 0.13520752 0.25608736 -0.11900598 -0.7189181 -0.38053012
-0.5511392 -0.14953788 -0.14970258 0.012567245 -0.061289657 -0.13651177 -0.07314592 -0.3086387
0.21426758 -0.018085524 -0.06289402 -0.1654708 -0.13310705 0.27942398 -0.0677087 -0.25693172
0.48096842 -0.03595536 0.093451045 0.53690565 0.18431132 -0.30937356 0.34620923 -0.23826367
0.20433028 -0.3623408 0.007895259 0.2529545 -0.112119794 -0.27952164 0.13234164 -0.09539875
-0.541368 -0.024020616 -0.15827905 0.16091867 -0.08651604 -0.61391443 0.21752894 0.24083224
-0.17113073 -0.681004 -0.16340289 -0.5148361 -0.020100838 0.17798293 0.03016724 -0.5309891
-0.3879731 -0.4531015 0.2985735 -0.17916396 -0.040533993 -0.37433165 0.2639089 0.006178788
-0.021198623 0.060357355 0.49410164 0.33935472 0.5188728 0.91851234 -0.19246109 -0.021386862
0.57607037 0.18104382 0.32823536 0.02541562 0.0060506384 0.41834682 -0.020479342 0.38860595
0.10894643 0.6693509 0.049320795 -0.34868312 0.82243484 0.106727116 -0.12933008 0.090558514
-0.06139472 0.27494442 0.0030033784 -0.21118926 0.03521686 0.15172148 -0.13111179 -0.33968487
-0.41479045 0.27892044 0.14798096 0.5863941 -0.19003068 -0.11787509 0.18397856 -0.1214573
-0.2523923 -0.62547386 -0.26522952 -0.44494343 -0.39937443 -0.1883965 -0.64044154 0.21156476
-0.2728691 -0.36688024 -0.6226042 0.028672643 -0.13138296 0.7041372 -0.01776937 -0.3733252
-0.037110887 0.19817735 -0.2829993 0.3398603 -0.070999116 -0.5410232 0.008007654 -0.42356262
-0.1577487 -0.21452618 0.29246357 -0.53084624 -0.13477387 -0.6440963 -0.21578558 0.049546365
-0.4578796 -0.18143958 -0.010635322 0.31223857 -0.30752102 -0.3506519 -0.0012188797 0.049725175
0.17662352 -0.18647262 -0.026178803 -0.40719986 0.048158612 -0.25961855 -0.3575285 -0.20827971
0.2646643 0.10065178 -0.039100457 0.27869377 -0.20035183 0.5629392 -0.09725033 -0.338984
-0.15496007 0.66646016 0.07373228 0.21981125 0.3315194 -0.15374151 0.06688532 0.20521492
0.044498637 -0.43704495 -0.030045805 -0.18443762 0.42312804 -0.15930252 0.4269529 0.1403233
-0.1859933 0.12714343 0.18346266 -0.44769835 -0.28830913 0.3191547 -0.286924 0.051604684
0.20831111 0.26356694 -0.25276268 0.351526 0.005839319 -0.40152344 -0.02596619 -0.13689654
-0.3230936 -0.14944197 0.06589648 -0.2026753 0.3143721 -0.283499 0.15548773 0.5637466

r_cell.w_vs.bias f4 [24]
00000000: d4d0 923d 1420 8fbe c65c 06bd 68f1 9b3e
00000010: 30ad 193e 71a3 84bd 0b03 4e3d 60ad 65bd
00000020: 0e1e 28be 01ae 6dbd 80b7 573e a3ce 473a
00000030: 16a2 f7bc 3f83 f7bd 6faa 62bd 1578 23bd
00000040: b63e 183e c76b fbbc 2704 2bbe d529 1fbe
00000050: 3d3f 013e 11e3 2f3e fcd6 f4bd 8ed2 59bc
0.07168737 -0.2795416 -0.03280332 0.30457616 0.15007472 -0.064764865 0.05029587 -0.056073546
-0.16417715 -0.05802727 0.21066093 0.0007622039 -0.030228656 -0.1208558 -0.05533832 -0.03990944
0.14867672 -0.03069104 -0.16700803 -0.15543301 0.1262178 0.17176463 -0.119550675 -0.013294829

r_cell.layer_norm.weight f4 [24]
00000000: 7e88 7e3f 6faf 5c3f beb5 6d3f 9b23 8e3f
00000010: 694e 6a3f fa7d 873f 2ccd cd3f e15b d13f
00000020: 31bf 9e3f 806f 9e3f 855b 893f 3c41 aa3f
00000030: 8823 ac3f 7b64 9b3f 7c8d 963f f33d 683f
00000040: a652 a73f 2211 743f 49ad d43f 9776 ad3f
00000050: 5266 8b3f fccb 5e3f f1d5 8d3f 1c64 933f
0.9942702 0.8620519 0.9285544 1.1104616 0.91525894 1.058532 1.6078238 1.6356164
1.2402097 1.2377777 1.0731055 1.3301158 1.3448343 1.2140039 1.1761928 0.90719527
1.3072097 0.9533864 1.6615382 1.3551816 1.0890601 0.87030005 1.1080915 1.1514926

r_cell.layer_norm.bias f4 [24]
00000000: 91ad 853d b659 7abe f3db 11be a491 76bd
00000010: 7ab9 fd3d 1201 80bd d57b 9abd 8609 a03d
00000020: 12fd 8cbd 330c 343d 9d12 2d3e 8b84 313d
00000030: a66e 4c3d 70bf 57bc 5e98 6c3e c5c3 733e
00000040: f066 1f3c 87f1 bbbe f381 abbd ada2 bcbd
00000050: 897a d43d 95aa 753e d418 aa3e c1e0 31bd
0.06527246 -0.24448285 -0.1424406 -0.060197487 0.123888925 -0.06250204 -0.0754315 0.078143165
-0.06884207 0.043956947 0.16901632 0.043339293 0.04991021 -0.013168201 0.23104998 0.23805149
0.009729132 -0.36707708 -0.08374395 -0.092107154 0.10374934 0.23990853 0.33222067 -0.043427233

r_cell.fc.weight f4 [24, 24]
00000000: e07f b6be 4a8d 2abe b6dd 573e cd8e 313e
00000010: 44e8 393d a332 183e ca19 3c3e 5669 dabd
00000020: 826b 263c 5477 d8bd b554 05bf b822 f23e
00000030: aa14 29be efd2 943e a8df bc3e 4fa5 c3ba
00000040: 46fd e1bd 36cc 46be 7d3a 92be 71be 853e
00000050: aca6 ddbd 0b5a e3bd 6935 50be 01cc b9be
00000060: 9e64 26be ebfc 5d3d 12ad 92be cb0f 15be
00000070: bc45 0b3e 0d95 6b3e b0c3 50bf c884 cfbe
00000080: 3a80 ff3e 3c78 813e 5d18 f33d 71e6 b53e
00000090: 7c43 8b3d 7103 833c 49cb 37be 4e0e 3abf
000000a0: f519 f83d f64b 73be a60d 3dbe ae4c 44be
000000b0: 2f10 7e3f a2dd 4c3e 38c8 043d 66bb 73be
000000c0: bc43 e5bd ee79 793e 8ba5 debe 7b51 98be
000000d0: b6a6 cf3e 4ad8 16be aa32 c8be 761a b9be
000000e0: 5dee 013e 44ff dd3d da9a 81be 49a8 2d3f
000000f0: 9d6d cebe e5e8 353e d278 543e e2d3 9d3e
00000100: 3d29 c7bc b077 32be 3667 f7be b302 06be
00000110: 4ebb bd3e d552 8d3e 17c5 84bd fee3 b7bd
00000120: 3274 ca3e 7815 1dbe 5ace cb3e 69fa 33bc
00000130: 31d4 433e 8038 a33e 16be 163e a9cf db3e
00000140: 3a70 65bb f865 e1bc 2f82 733e 1aea 6abe
00000150: 3c3f dcbd 27ab 94bd b7f5 593d 3cf9 c0be
00000160: d213 773e 9b2b 883e c6a8 563d 66c3 dc3d
00000170: 00a5 88be d670 5fbe c7bd a2be 3551 023f
00000180: 5d1d 0dbe 1e6d c4bd 3fc6 963c 1748 393e
00000190: 6a84 dfbe 9e44 b9bd 57bd 23bd 0d3a cd3e
000001a0: 82d8 a83c 937b 15be d3ba c9be 7793 663e
000001b0: c37f c83d 2070 343e b55b ad3d 86b0 ed3e
000001c0: 782e 92be af02 4bbe 5d73 ea3e 6a95 93be
000001d0: ee99 a6be 34e5 b9be 8a47 883d cf25 ccbd
000001e0: 9d91 123e 1bce 063f ea08 81be 625a 073d
000001f0: 69b5 11be cc08 94be 89d2 f13e 861f b13d
00000200: 6ace 26be 2912 30bd 5d0a aabc 3ebc 76be
00000210: 3045 51bd 0166 803d 5c75 5cbe ce01 f8bd
00000220: 11b5 5dbe 39d0 3fbd 1a62 4c3e e161 a13e
00000230: 54d0 813d 80e6 193d 2a1e 72be b670 ea3d
00000240: 3824 493c 3ab4 e73d 1066 913d 5981 1b3e
00000250: 1a6f 5ebe fcbb 3dbe e25c ca3d 2be4 c2bd
00000260: bd9c 813d b142 8a3d 4b9a 88be 83ad 05be
00000270: b5c4 42be ac85 04be 1a9c 7e3d 538a b7bd
00000280: f1cc 233c 6a9f 6dbd 5aa5 06be 30c2 debd
00000290: f94f 5e3e f53b a1bd e78b 8c3e 00de 933e
000002a0: c8c0 003e 212b e1bd 63c7 4c3e 94f6 d43d
000002b0: b7fb 59bc 85b9 6ebc aac2 b4be 3efa fcbd
000002c0: 5c73 95bd e2cc dd3d 5240 8039 6089 7a3e
000002d0: 1959 64bd e912 38bd d6f8 74bd 4d3e 85bd
000002e0: 3de9 163e 733b 38be fbed e83e 3524 883b
000002f0: ead4 a53d be4d 613d 4edc 383c 903f dd3d
00000300: 1f5c e43d 9ded 6dbe ef33 5cbd ce95 973c
00000310: d7f0 003e 562a c53d abd7 83bd 4495 28be
00000320: a425 febe 3a34 d4bd 18cd b2bd 26b5 bc3e
00000330: 2e39 86be 7a01 c2bd d8e8 c9bd 1af5 a8bd
00000340: 3fa7 6fbe 07f2 79bd 9523 64be bd43 ba3d
00000350: 2e5b a1be 46c3 363d 15d8 e03d 1f24 6ebe
00000360: f5e6 93bb bda7 0cbe 7985 853e db8a 40bf
00000370: da15 c13e 0842 98bb 7a3a 30be fa73 8fbe
00000380: de05 dbbd 92ec 923e 77b8 9e3e ca9f f33d
00000390: e15b 973d 7d1c f9bd 4733 15bd 2a02 40bc
000003a0: d6d2 b53e c7a6 393e 432a a93d e27f 283e
000003b0: 13db 9e3e afbc a53e c953 60be 3318 643e
000003c0: 128f 9c3e 525e 843b b3b7 b03d 612a 7cbe
000003d0: eadd 683e 5c3e 22bd 4777 673d 9476 02bf
000003e0: 3707 b7bd e426 a7bd 2741 b13e b953 063f
000003f0: 6e89 eebd 4661 70bd 7324 6d3e 1cf1 1f3e
-0.35644436 -0.1665546 0.2108067 0.1733963 0.04538752 0.14863066 0.18369213 -0.106646225
0.010157468 -0.10569635 -0.5208238 0.47292113 -0.16511789 0.2906718 0.36889386 -0.0014926585
-0.11034636 -0.19413838 -0.28560248 0.26121858 -0.10822806 -0.11101159 -0.20332874 -0.36288455
-0.1624932 0.05419628 -0.28647667 -0.14556806 0.1360082 0.23006077 -0.81548595 -0.40530992
0.49902517 0.25287044 0.11869881 0.35527375 0.06799981 0.015992852 -0.17948641 -0.7267808
0.12114326 -0.23759446 -0.18462238 -0.19169876 0.99243444 0.20006421 0.032417506 -0.23801956
-0.1119456 0.24362919 -0.43485674 -0.29749665 0.40556878 -0.14730945 -0.39101154 -0.36153
0.12688585 0.10839704 -0.25313455 0.6783491 -0.40318003 0.17764623 0.20749214 0.30825716
-0.024311656 -0.1742847 -0.4832093 -0.13086967 0.37056965 0.27602258 -0.064829044 -0.08979033
0.39541775 -0.15340221 0.3980587 -0.010984995 0.19123913 0.31879044 0.1472095 0.4293187
-0.003500952 -0.027514443 0.2378013 -0.22940865 -0.107542485 -0.07259207 0.053212848 -0.3769015
0.24128655 0.26595768 0.05240705 0.10779457 -0.26688385 -0.21820387 -0.31785414 0.5090516
-0.13780732 -0.09591125 0.018405078 0.18093906 -0.4365571 -0.09046291 -0.03997549 0.40083352
0.020611051 -0.14597921 -0.39400348 0.22517191 0.097899936 0.17620897 0.08464757 0.4642374
-0.28551078 -0.19825242 0.4579114 -0.2882493 -0.32539314 -0.3630768 0.0665427 -0.09968149
0.1431336 0.5265824 -0.25202113 0.03304518 -0.14229359 -0.2891296 0.47230938 0.08648591
-0.16289678 -0.04298607 -0.020756895 -0.24095246 -0.051091373 0.06269456 -0.21529144 -0.12109719
-0.21651103 -0.046829436 0.19959298 0.31519988 0.063385636 0.037573338 -0.23644319 0.11447279
0.012276702 0.11313672 0.07099545 0.15186061 -0.2172207 -0.18528742 0.09880997 -0.09516176
0.063287236 0.067510016 -0.26680216 -0.1305447 -0.1902035 -0.12941617 0.06216059 -0.0896193
0.009997592 -0.058013357 -0.13149014 -0.10876882 0.21710195 -0.07872764 0.27450487 0.2888031
0.1257354 -0.10994554 0.19997935 0.103985935 -0.013304642 -0.0145705985 -0.35304767 -0.123524174
-0.07297394 0.10830094 0.00024461985 0.24466467 -0.055749033 -0.04493991 -0.05980762 -0.065060236
0.14737411 -0.17991428 0.45494065 0.004154707 0.08097251 0.05500578 0.0112829935 0.10803139
0.11150383 -0.23235174 -0.053760465 0.01850405 0.12591873 0.096272156 -0.0643762 -0.1646319
-0.49638093 -0.10361524 -0.08730525 0.36856955 -0.262155 -0.09472938 -0.098588645 -0.082498744
-0.23403643 -0.06102183 -0.22279198 0.09094951 -0.31514877 0.04461982 0.109787144 -0.23255967
-0.004513616 -0.13735862 0.26078394 -0.75211877 0.37711984 -0.0046465434 -0.17209807 -0.2801817
-0.106944785 0.28696114 0.3100011 0.11895712 0.073905714 -0.12163637 -0.036425855 -0.011719266
0.35512418 0.18130027 0.08260014 0.16455033 0.31026515 0.32370517 -0.21906962 0.22274856
0.30577904 0.004039564 0.08628788 -0.24625541 0.22740903 -0.03961025 0.056510236 -0.50962186
-0.08936923 -0.08161715 0.3462002 0.524715 -0.116473064 -0.058686517 0.23158436 0.1561932

r_cell.fc.bias f4 [24]
00000000: d194 29be 5f38 edbb 8f53 333d 310d 4f3b
00000010: 0dc7 f5bd e25d 2f3d 73b1 2b3e 5586 f53d
00000020: edc0 ae3d 47b3 323e a005 b9bd 03f5 dbbd
00000030: 74b6 f1bd b8ce d9bd 3eaa 19bd 6c61 d73c
00000040: 7be8 a3be 54c5 2cbe 3aab fc3c 303b aebd
00000050: 6b45 e4bc 6f08 86bd c577 0cbb 562d 513e
-0.16560675 -0.007239386 0.04378086 0.0031593556 -0.120008565 0.042814143 0.1676691 0.119885124
0.085328914 0.17451201 -0.09034276 -0.10740092 -0.11802378 -0.106351316 -0.03751587 0.026291572
-0.32013306 -0.1687215 0.030843366 -0.08507383 -0.027865132 -0.06544577 -0.0021433693 0.2042745

fc1.0.bias f4 [24]
00000000: 74fb a33d 09d8 d3bd 0943 cd3d f9f2 51bc
00000010: 4a81 b43d 4cee cc3c 3724 8a3d ff7b 7a3d
00000020: 0ec1 7ebc 7973 c539 a2a0 733d d2be a73d
00000030: 330d 013e 8157 903d 48ad 6abd be2d 9e3d
00000040: 62da 393b 37dc aebc 5ba6 793b 0f06 e33c
00000050: 2019 8ebd b8c0 c8bb 4798 0abc d887 f0bc
0.08006945 -0.1034394 0.100225516 -0.012814277 0.088137224 0.025015973 0.06745189 0.06115341
-0.0155489575 0.00037660802 0.059479363 0.08190693 0.12602691 0.0704794 -0.05729416 0.077235684
0.0028358926 -0.021345241 0.003809354 0.02771285 -0.06938386 -0.0061264895 -0.008459157 -0.02936165

fc1.0.weight_orig f4 [24, 24]
00000000: ed68 24bc a706 d1be db93 073f 7571 543d
00000010: 5f5b ee3e 20ff 1c3d b9c8 143e 3eb8 133c
00000020: bf23 91bd f1e3 003e f46a 1cbd 6c9e 443f
00000030: 92d8 7d3e 0eed 593e 6bf8 423e 6674 ddbe
00000040: 64d8 82bc 61b4 083e 538c 78bd 0003 4cbe
00000050: 94dc 953e da69 16bf bd6f b3be a8d1 c2bc
00000060: b9f5 2e3f b63e 39be ae2f a03d 16ad 723e
00000070: edc1 28bc b9ee 5f3e 56b8 17be 90db 90bd
00000080: d2ee 773e 5d5f 643d bfee 90be 3063 113e
00000090: 8914 80be 8bf2 6a3d 52ca 85be b6f5 ba3d
000000a0: 16c8 053f 2312 d9bd 4e47 e23c 4ec6 0cbc
000000b0: 6916 d03d c93c 4bbe 1824 d13e de90 a0be
000000c0: 3b84 22bf 3ab8 fb3c 3bff 86be 2e36 aabe
000000d0: 5d6f 863d 0fff bb3e 1a41 babe 5549 5cbe
000000e0: 6177 8bbe 7566 04bd 3188 9b3e a2a2 8b3d
000000f0: 4fcf 223f d5ce 123e edcc 2abc 7975 b0be
00000100: e227 40be 42c4 8c3e bc62 babd f3d9 f13e
00000110: 6947 863d 04d7 233e 0960 b8bd a593 8c3e
00000120: 0fe3 1d3f f61e b0be 53ba 433e 2483 9c3c
00000130: d278 e8bd 7adf 033e 98ad ff3d 038a 183e
00000140: 4cd8 113f a38c adbe cd63 26be bca0 55be
00000150: a05c cbbe 29ac 62be 8b0b f03e bcd4 0a3f
00000160: 0ffa babd 78a8 033f a4d2 c63e 9cd2 bfbd
00000170: 39e5 283e a950 56be 8240 3a3e 581d 9abe
00000180: 5cad c43d 7c72 863e a367 d6bd e6a9 ba3e
00000190: 60f1 97bc 3f7f 3bbe 2be3 cfbc 7aa6 a33e
000001a0: 57f1 cdbe 520c e9be 3990 e23d cb0f 123e
000001b0: 4a53 16bd d032 9dbe 8ae7 763e 7f96 09bf
000001c0: 966f 42be f4ae debe b4f3 afbe 0ca3 0a3e
000001d0: 77f8 94be 7cdf bebc cd95 bcbe 169f 1fbe
000001e0: a1ff 83be 5450 043f 1ac8 4abd 09cc d13d
000001f0: bb78 10be 058d 0abf ad89 1ebf ed72 323f
00000200: d274 3ebf 7797 a9bd 706d 2bbe 76df d93c
00000210: c126 543d 6f6b 653e 3498 5bbe d8fe 193f
00000220: 9a43 65bd e134 8b3e e7f5 973e a7f4 d6bd
00000230: d202 39bd 7d0d 803e 5719 adbe 0402 5cbe
00000240: 3e1c e6bb ecf2 70be d649 30be 79c2 ef3e
00000250: fbb8 083f 662c 163d 8a5e a23e d36e 8ebe
00000260: 819a 9f3d b3e2 663d d998 19be 3131 8c3e
00000270: 7f07 ed3c 6436 a5bd b667 3f3f 0808 8bbe
00000280: 8734 76bc 0bd3 993e 2c1d edbe 9c1d a2be
00000290: d415 173d e0b7 18bf c170 e0be 9db8 413e
000002a0: ee28 f43d 5d3a 323e d9f7 34be 2aa9 50be
000002b0: 8f3a 963e d8b3 e03e ba12 d6bd 0ca6 f2bd
000002c0: 42aa babe bbcb 4b3e d8b3 5d3d affa a5bc
000002d0: 7cdc 75be b6fb 53be 90cf 9138 bc5c 04be
000002e0: 9b4c ec3c fa75 d8be 2c77 ba3e 5c8f b73e
000002f0: 8bde eebe 0318 d0be 31da 70bd 2cd0 7bbe
00000300: 47f1 98bb 8400 753e 8fa8 803e a916 613e
00000310: 4119 a7bd 03c1 52bd 3600 c63d 7ab8 5bbc
00000320: bd4c c5bd 6308 f3be 753a 593d dc25 1a3e
00000330: 2c25 e13e f89e cbbe e0d5 ab3e 8fc8 adbe
00000340: 5db3 543e a801 07bd e2e9 edbd f8db 313e
00000350: 2d33 72bd f11b 51be d3d1 61be e96c 95be
00000360: 3a66 7cbe 387c 0d3e 3b2f ae3e 831e 6b3e
00000370: c6a9 ccbe e619 5c3d ebd5 2bbf 8d51 7dbd
00000380: 1f88 46be 67de a3be ed38 abbd ae60 60be
00000390: f1d3 e53c eef7 bb3e 47ea d2be cbec 4b3e
000003a0: b5d4 efba 917b 88be 9303 62be 182f 323e
000003b0: 7b6a afbd 383f beba a36e 9a3e 9e09 4cbd
000003c0: 44df 95be 9697 dc3d a515 fc3d 698f 8e3e
000003d0: f28c 76be 3866 543e eb73 c63d 7aa6 633c
000003e0: ad51 28be 8c9f d7bd 5fa7 033c 66c2 3a3d
000003f0: 1f30 6bbd 8bea ee3c 0ed5 863e d158 17be
-0.010034782 -0.40825388 0.52959985 0.051866014 0.46554086 0.038329244 0.14529695 0.009016095
-0.07086896 0.12586953 -0.038187936 0.7680423 0.24789646 0.21281835 0.19040076 -0.43252867
-0.015972324 0.13350059 -0.0606807 -0.1992302 0.2926985 -0.58755267 -0.35046187 -0.023781613
0.68343693 -0.18090329 0.07821594 0.2369884 -0.010300142 0.21868409 -0.14816412 -0.07073128
0.24212196 0.055755008 -0.2830715 0.14197993 -0.25015667 0.057360213 -0.2613092 0.09128897
0.5225843 -0.105991624 0.027621891 -0.008592201 0.101605244 -0.19847406 0.4084785 -0.31360525
-0.6348302 0.030727495 -0.263666 -0.3324446 0.065642096 0.36718032 -0.36377794 -0.21512349
-0.27239516 -0.032324273 0.30377343 0.06818129 0.6359758 0.14336713 -0.010424835 -0.34464625
-0.18765214 0.27493483 -0.09100863 0.47236595 0.06556589 0.1599999 -0.09002692 0.27456394
0.6167459 -0.3439862 0.19114046 0.019105501 -0.1135117 0.12878218 0.12484282 0.14896397
0.5697067 -0.3389636 -0.16249008 -0.20862097 -0.39719105 -0.22135986 0.46883807 0.54230857
-0.09129726 0.5142894 0.3883258 -0.093663424 0.16493692 -0.20929207 0.1818867 -0.30100513
0.09603378 0.2625922 -0.10468986 0.36457747 -0.018547714 -0.1831026 -0.025376877 0.3196295
-0.4022319 -0.45517212 0.110626645 0.14263837 -0.036700524 -0.3070283 0.24111763 -0.53745264
-0.18987879 -0.43492854 -0.34365618 0.1353876 -0.29095814 -0.023299925 -0.3683304 -0.1558803
-0.25780967 0.5168507 -0.049507238 0.10243995 -0.14108555 -0.5412143 -0.61928827 0.6970661
-0.74397004 -0.08280843 -0.16740966 0.026595812 0.05179477 0.22404264 -0.2144478 0.60154486
-0.055972673 0.2718878 0.29679796 -0.104958825 -0.045168705 0.2501029 -0.33808395 -0.21485144
-0.0070224097 -0.23530167 -0.17215666 0.46828058 0.5340726 0.036663435 0.31712753 -0.27818927
0.07793141 0.05636854 -0.14999713 0.2738128 0.028934238 -0.08067015 0.74767625 -0.27154565
-0.015027172 0.30043826 -0.4631132 -0.31663215 0.03688605 -0.5965557 -0.43836024 0.1891808
0.11921869 0.17405076 -0.17672671 -0.20377031 0.29341552 0.4388721 -0.104527906 -0.11848077
-0.3645802 0.19901936 0.05412659 -0.020261137 -0.2400989 -0.20701489 6.9528e-05 -0.12926
0.028845122 -0.4227751 0.36419046 0.35851562 -0.46654162 -0.4064332 -0.058801834 -0.2459113
-0.0046674344 0.23925978 0.251286 0.219813 -0.08159114 -0.0514536 0.09668009 -0.013410682
-0.09633777 -0.47467336 0.053034265 0.15053505 0.43973672 -0.3976972 0.3356161 -0.33942077
0.20771547 -0.032960564 -0.11616875 0.17369068 -0.059130836 -0.20420815 -0.22052698 -0.29184654
-0.24648371 0.13816917 0.3402041 0.22960858 -0.39973277 0.053735636 -0.6712329 -0.06184535
-0.19387864 -0.32005617 -0.08360467 -0.2191188 0.028055163 0.36712593 -0.41194364 0.19914548
-0.0018297645 -0.26656774 -0.22071676 0.17400777 -0.085652314 -0.001451469 0.30162534 -0.04981386
-0.292719 0.107711 0.12308816 0.27843788 -0.24077204 0.20742118 0.09690078 0.013894672
-0.16437407 -0.10528478 0.00803551 0.04559555 -0.05741894 0.029164573 0.26334423 -0.14779975

fc1.0.weight_u f4 [24]
00000000: b30a b0be 8b85 b4bd d10f 993d a157 37bd
00000010: d07f 393d b640 cb3e 9b44 90be 81ac 923d
00000020: 0de3 9abc d0cd 1a3e ef6d 91bd 2d35 30bd
00000030: 365c b3be 41e7 73be 0043 c93e 36aa 94be
00000040: 5b26 623e b2d3 5fbe bd95 70bc 6490 183e
00000050: 9867 043e 8b85 b4bd 0f3b f5bd 39d5 01be
-0.34383163 -0.08814534 0.0747372 -0.044761304 0.045287907 0.39697808 -0.28177342 0.07161809
-0.018907094 0.15117574 -0.07101046 -0.043019462 -0.3503129 -0.23818685 0.3930893 -0.2903611
0.22084944 -0.21858099 -0.014684138 0.1489883 0.12930143 -0.08814534 -0.11974155 -0.12678994

fc1.0.weight_v f4 [24]
00000000: 7d72 f2bd fbef a73e 8e7d 68be cfe3 b2bd
00000010: aa37 b4bd 2cba febd 4f1b f4be de9f 493e
00000020: 077c 43be 2dbe d4bd 198b 0f3d f0f5 c8be
00000030: 8bbf 06bc e895 d2bd 9e60 0fbd 6a41 983e
00000040: 0022 0e3e c029 87bc f28b 5b3e a609 243e
00000050: b531 13be 5c1b 943e 24cc 21be d9db a6bd
-0.11838243 0.32800278 -0.22704145 -0.08734857 -0.087996796 -0.12437853 -0.47677085 0.1968989
-0.19090281 -0.10387836 0.035044763 -0.39250135 -0.008224378 -0.102824986 -0.03500425 0.29737407
0.13880157 -0.0164994 0.21440104 0.16019306 -0.1437443 0.28927124 -0.1580053 -0.08147401

fc1.1.weight f4 [24, 24]
00000000: fb69 3a3f 8b64 01bf 6cf0 ef3d a5c6 843e
00000010: 6731 043f 2e7c 033e 1f30 933f 4a0a d2be
00000020: a0d9 00bf 4f55 12bf 1c06 8cbe a4ae b7be
00000030: 14d2 2ebf 646d f23e 1297 283f 29ea 26be
00000040: ad4b cd3c 8893 8ebf 41cb 01bf c6ca a0bf
00000050: 4306 f53e a2fc 24bf fd93 afbe 0878 27bf
00000060: cb0d cdbf e620 803e 6093 19bf 4bca 8cbf
00000070: 98a7 20bf 5de2 ab3e 7298 1cbf 724c 3abe
00000080: 055f 8c3e 609a a23f 45bb ac3e 727a bfbe
00000090: a126 173f 1f7c 2cbf 1195 5ebf 1dd3 00be
000000a0: 6218 463f bfbe e63e 4698 c53e 01d8 a33f
000000b0: 50c8 efbe 9cc2 633e d434 f33e aa75 723f
000000c0: 67aa 16be 1c1a d53e 01e7 d2be 08ca 8bbf
000000d0: bbd2 20bf 4b81 20bf 5b94 cfbd d326 4b3f
000000e0: b9af b73e 76f4 6dbf 7e4c 54bf b1bc 583f
000000f0: 6397 e13e c182 5abf 12a9 8e3e 16a3 773c
00000100: 6890 74be 6f50 25bf 11bc a23e b80f 2d3f
00000110: 14d6 b0be 015d 0abf 9b0b 92be 4ea4 7ebf
00000120: 63ac 673f 0b2b 5bbf a985 7d3f a6cf 3cbf
00000130: 9ef8 28bf 8d99 0ebf 5b1a e63d 002a 7bbf
00000140: 6535 903e b2fd 2dbf 3e47 dfbe 2c02 0ebf
00000150: 95c6 a73e 0fe5 82bf 046b 113f 713d a9be
00000160: 34f3 bd3e ffe7 ffbe 9c85 9a3e 3d0f 903f
00000170: 43d2 b9be d3ab e4be 8624 ebbe 6a47 2cbf
00000180: 3f7a 723f 6086 a3bf a38a 1e3f 3c67 663f
00000190: bf8f 033f bebf 763f fa39 e5be e496 26bf
000001a0: cb79 d0be ae85 183f 4e2f 653f 8b9d c6be
000001b0: b70c ffbe c6f5 ea3e db42 43bf d8c6 843e
000001c0: 89ef 4a3f faed aebe c29c c6be 17a0 a5be
000001d0: d014 063f 38bb c23d 4c64 6a3e 8dfe 1e3e
000001e0: 25d9 be3e 0218 723f bf13 f2be 6d70 60bf
000001f0: 378f 88bf 8e1d 893f 03c2 a5be 3a3a 5e3f
00000200: ee85 243f 2c21 153f 2f60 483e 9244 8d3f
00000210: bbdc fdbe 81fc 18be 5fd6 d03d 8552 d4bf
00000220: 3e87 8abf 6a13 23bf fafe ed3e 7d47 9a3f
00000230: c9ea 36bf bb28 ed3e 74f4 7d3e 3c80 6abe
00000240: 2a4f f73e d657 94bf 629f b13f fb7b a53f
00000250: 1aef 013f 3d7e 463f b8c3 cc3d 07f7 39bf
00000260: 88f4 02bf a127 f83d 29fe ae3f 7447 84bf
00000270: 819a c6be 82a0 033f 1258 fdbe 1a3c 7d3f
00000280: 7efc b73f 2ec6 2abf 50c9 efbe 6248 1b3e
00000290: 6545 003f 982b 2cbe 5116 0d3f f3a1 65bf
000002a0: c531 7bbf 6e37 dd3d ff40 cabe c97c 3fbf
000002b0: f9dc b6bf f551 5abf 370e 323f 75b2 bbbf
000002c0: 7976 2b3f 32b6 733e d299 0cbf d5ae 89be
000002d0: f781 e73e 9cd0 74bf 427d 69be 4913 933f
000002e0: bd80 823f 73e0 543f 6c70 093f 1a46 633f
000002f0: c92b e0be 3fbd ac3e c703 c7be 8629 bc3d
00000300: a878 51bf e91e 1d3f ca63 9abd 7058 f0be
00000310: 4205 78bf eac9 253f c643 2e3f fa16 2b3f
00000320: d2cd d73e b774 4a3f 76d9 9c3e aed8 113f
00000330: 5367 e03e ed38 52bf ef42 41bf b92a 533f
00000340: 720c d13e 7dca 533f de00 c03e ff9d 703f
00000350: 8c49 c1be 9181 ee3e ed84 043f 0bfa 21bf
00000360: 81ff f6be 6022 2f3f a880 7bbf b4bb 04bf
00000370: 5a16 b9bf 7228 37bf f49f 29bf 6dc9 353d
00000380: c4a0 9c3e 3932 d03d 2922 2dbf e1d3 0b3f
00000390: ba35 813e 237d 06bf 16cf 043f 0a68 21bf
000003a0: c773 4bbf fe60 bcbd 2e69 793e 0910 343f
000003b0: bad5 5cbe 142a 3b3e d38a f6be 0fc1 81bf
000003c0: 4a7d d13e e2e2 cc3e 4cf5 483f e072 ab3e
000003d0: 41e4 b53f baa9 bb3f d648 87bf cf4f 7a3f
000003e0: 320f 1bbf 6b4b 203f a173 e23f d1bc 163e
000003f0: 3b8c 1bbf d7ca b93f fa31 4a3e 518d 96bf
0.72817963 -0.5054404 0.11715779 0.25932804 0.5163788 0.1284034 1.149906 -0.41023475
-0.5033207 -0.5716142 -0.2734841 -0.35875428 -0.68289304 0.47349083 0.65855515 -0.16300263
0.0250605 -1.1138773 -0.50700766 -1.2561882 0.4785634 -0.6444799 -0.34292594 -0.6541753
-1.6019834 0.250251 -0.599905 -1.0999235 -0.6275573 0.3357114 -0.61170113 -0.18193224
0.27416244 1.2703362 0.33736625 -0.37398106 0.5904332 -0.67376894 -0.8694621 -0.12580533
0.77380955 0.45067403 0.38592738 1.2800294 -0.46832514 0.22242206 0.47501242 0.9471079
-0.14713441 0.41621482 -0.41191867 -1.092103 -0.6282155 -0.62697285 -0.101357184 0.79356116
0.35876253 -0.9295114 -0.8292922 0.8466292 0.4406081 -0.85355765 0.27863365 0.015114566
-0.23883212 -0.64575857 0.31784108 0.6760211 -0.3453833 -0.5404816 -0.2852448 -0.9946946
0.90497416 -0.85612553 0.99032074 -0.73754346 -0.6600436 -0.5570305 0.11235496 -0.9811096
0.28165737 -0.67965233 -0.4360904 -0.55472064 0.32768694 -1.0226153 0.5680392 -0.3305469
0.37099612 -0.49981686 0.3018006 1.125465 -0.3629323 -0.4466234 -0.45926303 -0.6729647
0.9471778 -1.2775383 0.6193029 0.90001273 0.51391214 0.96386325 -0.44770795 -0.6507399
-0.4071792 0.5957898 0.89525306 -0.3879207 -0.49814388 0.45890635 -0.7627389 0.25932956
0.7927175 -0.34165937 -0.38791472 -0.323487 0.5237551 0.095083654 0.22889823 0.15526791
0.37275043 0.94567883 -0.4728069 -0.8767155 -1.0668706 1.0712144 -0.32374582 0.86807597
0.6426686 0.5825374 0.19567941 1.1036551 -0.49582466 -0.14940073 0.10197138 -1.6587683
-1.0822523 -0.637015 0.46483594 1.2053066 -0.71452004 0.46320137 0.24800283 -0.2290048
0.48302585 -1.1589305 1.3876765 1.2928461 0.50755465 0.77536374 0.09998268 -0.7264256
-0.51154375 0.121169336 1.3671314 -1.0334306 -0.38789752 0.5141679 -0.49481255 0.9891983
1.437393 -0.6670865 -0.46833277 0.1516433 0.5010589 -0.16813505 0.5511218 -0.8970024
-0.9812282 0.10801588 -0.39502713 -0.7479978 -1.4286186 -0.85281307 0.6955294 -1.4663836
0.6697765 0.23799971 -0.5492221 -0.268912 0.45216343 -0.9563081 -0.22801688 1.149026
1.0195538 0.8315498 0.5368717 0.8877884 -0.43783405 0.33738133 -0.3887007 0.091876075
-0.8182473 0.6137529 -0.075385645 -0.46942472 -0.9688302 0.6476122 0.68072164 0.66831934
0.42149216 0.7908434 0.3063466 0.5697125 0.4382883 -0.8211811 -0.7549276 0.82487065
0.40829808 0.8273085 0.37500662 0.9399108 -0.37751424 0.46583226 0.5176533 -0.6327216
-0.4824181 0.6841183 -0.9824319 -0.5184891 -1.4459946 -0.7154609 -0.66259694 0.044381548
0.30591404 0.10165829 -0.6763025 0.54620177 0.25236303 -0.52534693 0.5187849 -0.63049376
-0.7947354 -0.09198187 0.24356529 0.7033697 -0.21565905 0.1827777 -0.4815279 -1.0137042
0.409159 0.40016848 0.78499293 0.3348608 1.4210283 1.4661171 -1.0569103 0.9777803
-0.6057006 0.6261508 1.7691537 0.14720465 -0.6076085 1.4515027 0.19745627 -1.1761876
