models/17_05_2021/stock_self_attn_MSE_hinge_10000_64_24_6_24_5/6500_generator.pth (torch, 54798 bytes, 39 tensors)

position.pe f4 [1, 24, 24]
0	0x00000000	0.0
1	0x3f800000	1.0
2	0x00000000	0.0
3	0x3f800000	1.0
4	0x00000000	0.0
5	0x3f800000	1.0
6	0x00000000	0.0
7	0x3f800000	1.0
8	0x00000000	0.0
9	0x3f800000	1.0
10	0x00000000	0.0
11	0x3f800000	1.0
12	0x00000000	0.0
13	0x3f800000	1.0
14	0x00000000	0.0
15	0x3f800000	1.0
16	0x00000000	0.0
17	0x3f800000	1.0
18	0x00000000	0.0
19	0x3f800000	1.0
20	0x00000000	0.0
21	0x3f800000	1.0
22	0x00000000	0.0
23	0x3f800000	1.0
24	0x3f576aa4	0.84147096
25	0x3f0a5141	0.54030234
26	0x3ee5351d	0.44767085
27	0x3f64ea30	0.8941984
28	0x3e5ae952	0.21378067
29	0x3f7a14eb	0.9768817
30	0x3dcc7576	0.099833414
31	0x3f7eb898	0.9950042
32	0x3d3e0d1e	0.04639923
33	0x3f7fb96a	0.99892294
34	0x3cb07a47	0.021542681
35	0x3f7ff0ca	0.9997679
36	0x3c23d657	0.009999833
37	0x3f7ffcb9	0.99995
38	0x3b981857	0.0046415734
39	0x3f7fff4b	0.9999892
40	0x3b0d3164	0.0021544332
41	0x3f7fffd9	0.9999977
42	0x3a83126d	0.0009999998
43	0x3f7ffff8	0.9999995
44	0x39f35a5c	0.00046415895
45	0x3f7ffffe	0.9999999
46	0x3961e8ab	0.00021544348
47	0x3f800000	1.0
48	0x3f68c7b7	0.9092974
49	0xbed51133	-0.41614684
50	0x3f4cf4fb	0.8006131
51	0x3f1963f8	0.59918165
52	0x3ed5d9be	0.41767687
53	0x3f6899b9	0.9085956
54	0x3e4b6ff8	0.19866931
55	0x3f7ae5a5	0.9800666
56	0x3dbdd8b7	0.09269851
57	0x3f7ee5d1	0.9956942
58	0x3d306fcb	0.043075364
59	0x3f7fc32c	0.99907184
60	0x3ca3d43e	0.019998666
61	0x3f7ff2e5	0.9998
62	0x3c1817ec	0.009283047
63	0x3f7ffd2d	0.9999569
64	0x3b8d314e	0.004308856
65	0x3f7fff64	0.9999907
66	0x3b031268	0.0019999985
67	0x3f7fffdf	0.99999803
68	0x3a735a5b	0.00092831784
69	0x3f7ffff9	0.9999996
70	0x39e1e8ab	0.00043088695
71	0x3f7fffff	0.99999994
72	0x3e1081c3	0.14112
73	0xbf7d7026	-0.9899925
74	0x3f7bf0ce	0.98414314
75	0x3e35a216	0.17737612
76	0x3f1a2dc8	0.60226107
77	0x3f4c5d56	0.7982992
78	0x3e974e6c	0.2955202
79	0x3f7490ef	0.9553365
80	0x3e0e2117	0.1387981
81	0x3f7d85a8	0.9903207
82	0x3d8446bd	0.06458805
83	0x3f7f7729	0.997912
84	0x3cf5b91f	0.0299955
85	0x3f7fe283	0.99955004
86	0x3c6422d5	0.01392432
87	0x3f7ff9a6	0.9999031
88	0x3bd3c9bf	0.006463259
89	0x3f7ffea2	0.99997914
90	0x3b449b92	0.0029999954
91	0x3f7fffb5	0.9999955
92	0x3ab683c2	0.0013924765
93	0x3f7ffff0	0.99999905
94	0x3a296e7f	0.00064633036
95	0x3f7ffffd	0.9999998
96	0xbf41bdcf	-0.7568025
97	0xbf275530	-0.6536436
98	0x3f759ce7	0.9594254
99	0xbe905d6c	-0.28196275
100	0x3f424dbe	0.75899875
101	0x3f26adf9	0.6510921
102	0x3ec761d7	0.38941833
103	0x3f6bcaa7	0.921061
104	0x3e3d0773	0.18459873
105	0x3f7b99b2	0.98281395
106	0x3db045df	0.08607077
107	0x3f7f0ccc	0.996289
108	0x3d23cbdb	0.039989334
109	0x3f7fcb94	0.9992001
110	0x3c98163e	0.018565293
111	0x3f7ff4b4	0.9998276
112	0x3c0d30f8	0.008617632
113	0x3f7ffd91	0.99996287
114	0x3b831257	0.003999989
115	0x3f7fff7a	0.999992
116	0x3af35a54	0.0018566349
117	0x3f7fffe3	0.9999983
118	0x3a61e8a9	0.0008617738
119	0x3f7ffffa	0.99999964
120	0xbf757c10	-0.9589243
121	0x3e913c2c	0.2836622
122	0x3f3b500a	0.73169005
123	0xbf2e7fcb	-0.68163747
124	0x3f6171cf	0.88064283
125	0x3ef29363	0.47378072
126	0x3ef57743	0.47942552
127	0x3f60a940	0.87758255
128	0x3e6b8593	0.23000173
129	0x3f7922ff	0.97319025
130	0x3ddc300e	0.10751353
131	0x3f7e8421	0.9942036
132	0x3d4cb6f4	0.049979165
133	0x3f7fae19	0.99875027
134	0x3cbe1a3c	0.023205869
135	0x3f7fee5a	0.9997307
136	0x3c307ce6	0.010771966
137	0x3f7ffc33	0.999942
138	0x3ba3d6dd	0.004999979
139	0x3f7fff2e	0.9999875
140	0x3b181871	0.0023207928
141	0x3f7fffd3	0.9999973
142	0x3a8d3169	0.0010772172
143	0x3f7ffff6	0.9999994
144	0xbe8f0f8c	-0.2794155
145	0x3f75cdb8	0.96017027
146	0x3eb2c0c6	0.349127
147	0xbf6fe42d	-0.93707544
148	0x3f762963	0.961569
149	0x3e8c938f	0.27456328
150	0x3f108c68	0.5646424
151	0x3f534932	0.8253356
152	0x3e8cc0e9	0.2749093
153	0x3f7622e9	0.9614702
154	0x3e040009	0.12890638
155	0x3f7ddd38	0.9916568
156	0x3d759cd1	0.059964005
157	0x3f7f8a12	0.99820054
158	0x3ce41d2b	0.02784594
159	0x3f7fe696	0.9996122
160	0x3c53c89d	0.012926248
161	0x3f7ffa86	0.99991643
162	0x3bc49b58	0.0059999637
163	0x3f7ffed2	0.999982
164	0x3b3683b7	0.0027849504
165	0x3f7fffbf	0.9999961
166	0x3aa96e7d	0.0012926605
167	0x3f7ffff2	0.99999917
168	0x3f283046	0.6569866
169	0x3f40ffbd	0.75390226
170	0xbddbc69f	-0.10731243
171	0xbf7e858d	-0.9942253
172	0x3f7f7f41	0.9980355
173	0x3d804f23	0.06265094
174	0x3f24eb72	0.6442176
175	0x3f43ccb3	0.7648422
176	0x3ea3716a	0.31922466
177	0x3f729b18	0.94767904
178	0x3e19d85d	0.15023942
179	0x3f7d1825	0.98864967
180	0x3d8f3e32	0.06994285
181	0x3f7f5f81	0.997551
182	0x3d050f6e	0.032485418
183	0x3f7fdd69	0.9994722
184	0x3c771415	0.0150804715
185	0x3f7ff88c	0.9998863
186	0x3be55fc5	0.006999942
187	0x3f7ffe65	0.9999755
188	0x3b54eef8	0.003249107
189	0x3f7fffa8	0.99999475
190	0x3ac5ab91	0.0015081038
191	0x3f7fffed	0.99999887
192	0x3f7d4695	0.98935825
193	0xbe14fdf6	-0.14550003
194	0xbf0a81e3	-0.5410444
195	0xbf574b62	-0.840994
196	0x3f7d04e9	0.9883562
197	0xbe1bcf59	-0.15215816
198	0x3f37a4a5	0.717356
199	0x3f325b5f	0.6967067
200	0x3eb9c7cb	0.36285242
201	0x3f6e8d80	0.9318466
202	0x3e2f9e69	0.17150272
203	0x3f7c34ff	0.98518366
204	0x3da3aa50	0.07991469
205	0x3f7f2e65	0.9968017
206	0x3d180f89	0.03712419
207	0x3f7fd2d3	0.9993107
208	0x3c8d2fa1	0.017234625
209	0x3f7ff644	0.99985147
210	0x3c031212	0.007999914
211	0x3f7ffde7	0.999968
212	0x3b735a38	0.0037132632
213	0x3f7fff8c	0.9999931
214	0x3ae1e8a4	0.001723547
215	0x3f7fffe7	0.9999985
216	0x3ed30132	0.4121185
217	0xbf693fd5	-0.91113025
218	0xbf5c3bf1	-0.86028963
219	0xbf02829f	-0.5098056
220	0x3f6ed7af	0.9329786
221	0xbeb84901	-0.35993198
222	0x3f48881c	0.78332686
223	0x3f1f21d5	0.62161
224	0x3ecfb7ba	0.4056986
225	0x3f69fc5c	0.91400695
226	0x3e454f97	0.19268642
227	0x3f7b33e1	0.98126036
228	0x3db8123e	0.089878544
229	0x3f7ef6c2	0.9959527
230	0x3d2b0ecd	0.041762162
231	0x3f7fc6d3	0.99912757
232	0x3c9ed50c	0.019388698
233	0x3f7ff3ae	0.999812
234	0x3c13743a	0.008999879
235	0x3f7ffd59	0.9999595
236	0x3b88e2ba	0.0041774185
237	0x3f7fff6e	0.9999913
238	0x3afe25b6	0.0019389901
239	0x3f7fffe1	0.99999815
240	0xbf0b44f8	-0.5440211
241	0xbf56cd64	-0.8390715
242	0xbf7f5bd1	-0.99749476
243	0xbd90e07e	-0.070740685
244	0x3f559f61	0.8344632
245	0xbf0d1282	-0.55106366
246	0x3f576aa4	0.84147096
247	0x3f0a5141	0.54030234
248	0x3ee5351e	0.44767088
249	0x3f64ea30	0.8941984
250	0x3e5ae953	0.21378069
251	0x3f7a14eb	0.9768817
252	0x3dcc7576	0.099833414
253	0x3f7eb898	0.9950042
254	0x3d3e0d21	0.04639924
255	0x3f7fb96a	0.99892294

r_cell.w_qs.weight f4 [24, 24]
0	0xbe7f1277	-0.24909388
1	0x3e2a273b	0.16616528
2	0x3e03cec1	0.12871839
3	0x3ecd7f8d	0.40136376
4	0xbcfbb8a9	-0.030727701
5	0xbe0cfc16	-0.13768038
6	0xbe0bc3a1	-0.13648845
7	0x3ef6e3a0	0.4822054
8	0x3ee7b556	0.45255536
9	0x3d94a66c	0.07258305
10	0x3e216207	0.1576005
11	0xbe557dd6	-0.20848784
12	0x3efa81dd	0.48927203
13	0xbe3bf0c1	-0.18353559
14	0xbdd09548	-0.10184723
15	0xbe815f29	-0.25267914
16	0x3e387b79	0.18015851
17	0xbe107b96	-0.14109644
18	0xbe02d2d4	-0.12775737
19	0x3eb8bd19	0.3608177
20	0xbdcc9940	-0.099901676
21	0x3dd707a7	0.104995064
22	0x3ea122fa	0.31471997
23	0xbecd7946	-0.40131587
24	0x3d128686	0.035772823
25	0xbd9ce650	-0.07661116
26	0x3dd230ef	0.102632396
27	0x3d45ac36	0.048259936
28	0xbe321f8a	-0.17394844
29	0xbdc6e55b	-0.09711715
30	0x3f009dd5	0.5024083
31	0xbe898536	-0.26859444
32	0x3e7c264f	0.24623989
33	0x3def15de	0.11674093
34	0xbd549c48	-0.051906854
35	0x3d8b6a32	0.068073645
36	0x3d1c7185	0.0381942
37	0x3e9380c4	0.28809178
38	0xbf08a23c	-0.5337255
39	0xbe2a11ee	-0.16608402
40	0x3e8616cb	0.26189265
41	0x3e6b5648	0.22982132
42	0xbb02e34a	-0.00199719
43	0x3e83d1ee	0.257461
44	0x3e4d2c3d	0.20036407
45	0x3deaffec	0.114745945
46	0x3ead87cd	0.3389267
47	0x3c949464	0.018137164
48	0xbd3bce5b	-0.045851093
49	0xbe4912dd	-0.19636102
50	0xbd984a0b	-0.074359976
51	0x3e615ea1	0.22008754
52	0xbe82aff2	-0.2552486
53	0x3e886940	0.266428
54	0x3bf151cb	0.007364487
55	0x3e8cd1bf	0.27503774
56	0xbe9a376f	-0.30120417
57	0xbea23df7	-0.316879
58	0x3e00baf5	0.12571318
59	0x3f126bd6	0.57195795
60	0x3eacb9a8	0.33735394
61	0x3cbc1321	0.02295834
62	0x3e28cfd5	0.16485532
63	0x3d9e3058	0.077240646
64	0xbd346ebb	-0.044050913
65	0xbe48c98e	-0.19608137
66	0xbefde11d	-0.4958581
67	0xbee2dec5	-0.44310585
68	0xbc920a93	-0.017827308
69	0xbda8fe20	-0.082515955
70	0xbd448d9c	-0.04798661
71	0xbe08c4d9	-0.13356341
72	0x3dda4e12	0.10659422
73	0x3c4272d6	0.011868199
74	0xbc8f00f9	-0.017456518
75	0x3edd4208	0.4321444
76	0xbe3b4341	-0.18287374
77	0x3d65448b	0.05597357
78	0xbeb34400	-0.35012817
79	0x3de35ca5	0.11101655
80	0x3ee718c5	0.45136085
81	0xbeb14320	-0.34621525
82	0xbd57712f	-0.052598175
83	0x3c58c8ce	0.013231469
84	0x3e416b46	0.18888578
85	0xbec4ac2e	-0.38412613
86	0xbe385de8	-0.18004572
87	0x3eb42941	0.35187724
88	0xbe2fd653	-0.17171602
89	0xbbef577a	-0.007304129
90	0xbe19ff1d	-0.15038724
91	0x3ec3ada0	0.38218403
92	0x3e7d4266	0.2473236
93	0x3e2f103b	0.17096035
94	0xbe14373b	-0.14474194
95	0xbe97fb93	-0.29684123
96	0x3e610c6d	0.21977396
97	0x3e9f4614	0.31108153
98	0x3e6ad6a3	0.2293344
99	0xbdb2ea58	-0.08736104
100	0x3f018b41	0.5060311
101	0x3c571fd7	0.01313015
102	0x3c939bff	0.01801872
103	0xbe80a365	-0.2512466
104	0x3e05bfb8	0.13061416
105	0x3f0206b8	0.507915
106	0xbe052039	-0.13000573
107	0xbe41830d	-0.18897648
108	0xbf2371b4	-0.6384537
109	0xbf26bb05	-0.6512912
110	0x3cab21b9	0.020890104
111	0xbdae652c	-0.08515391
112	0xbe820073	-0.25390968
113	0x3d9dff0e	0.077146634
114	0x3b8af05e	0.00424008
115	0xbe80ae83	-0.25133142
116	0xbc9045c1	-0.017611386
117	0x3e5bb7ac	0.21456784
118	0x3d1725c1	0.03690124
119	0x3aa347be	0.0012457294
120	0x3e5cb792	0.21554402
121	0x3c245f16	0.010032436
122	0xbcc8dfba	-0.024520744
123	0xbdac7196	-0.08420102
124	0xbe8b428c	-0.2719921
125	0x3dde24fd	0.10846899
126	0x3e318369	0.17335285
127	0xbb872f1a	-0.004125488
128	0x3e2bee70	0.16790175
129	0x3ed68d94	0.4190489
130	0xbf239ee7	-0.6391434
131	0xbecf3575	-0.40470472
132	0x3f07ae02	0.5299989
133	0x3d4bc51e	0.049748532
134	0xbe30ba70	-0.1725862
135	0x3d0c17c1	0.03420234
136	0xbd3a08c7	-0.045418527
137	0xbd13815d	-0.036012042
138	0x3e96ebd1	0.2947679
139	0x3e129451	0.1431439
140	0xbed2d221	-0.4117594
141	0x3ea6cee2	0.32579714
142	0x3df6ab69	0.12044413
143	0xbdf117ab	-0.117720924
144	0xbeef909b	-0.46790013
145	0xbea38562	-0.319377
146	0xbf04f6ae	-0.51938903
147	0x3dc9dca6	0.098565385
148	0xbed31f92	-0.41235024
149	0xbe0dc7cd	-0.13845749
150	0xbdc725ed	-0.09724031
151	0xbdab1938	-0.083544195
152	0x3de5807b	0.11206146
153	0x3e35e0de	0.17761561
154	0x3ee1f376	0.44131058
155	0x3e8808ad	0.2656912
156	0xbe4e782f	-0.20163034
157	0xbe5ca178	-0.2154597
158	0x3efd55ac	0.49479425
159	0xbea908bf	-0.33014485
160	0xbee2f0a2	-0.44324213
161	0x3d2c14f3	0.042012166
162	0xbe8b8087	-0.27246496
163	0x3f06a53b	0.5259587
164	0xbc868150	-0.016419083
165	0xbe730e61	-0.23735954
166	0x3ee72ae5	0.45149913
167	0x3ebff664	0.3749267
168	0x3dd77ec1	0.10522223
169	0x3e32ac2f	0.17448495
170	0x3e405ae5	0.18784674
171	0x3c545b44	0.012961213
172	0xbe9247dc	-0.2857045
173	0x3eb58c11	0.35458425
174	0x3e6ba016	0.23010287
175	0x3e915086	0.28381747
176	0x3d8bc13c	0.06823966
177	0x3e10298a	0.14078346
178	0x3f18fc01	0.5975953
179	0xbede57d0	-0.4342637
180	0xbdeba470	-0.11505973
181	0xbec7ad1e	-0.38999265
182	0xbcd0b5bf	-0.025477288
183	0x3dbfb1ec	0.09360108
184	0x3f064894	0.52454495
185	0x3cd0946c	0.025461398
186	0xbc078fe8	-0.008274056
187	0x3e74c0c4	0.23901659
188	0x3f58c3ac	0.8467357
189	0x3e696972	0.2279413
190	0x3d65f876	0.056145154
191	0xbe2a6026	-0.1663824
192	0x3e367f8d	0.17822094
193	0x3e328aee	0.1743581
194	0x3ea9abdf	0.3313894
195	0x3dcbc6eb	0.0995005
196	0x3e25ad9c	0.16179508
197	0xbd0ad05f	-0.033890124
198	0xbe18d167	-0.1492363
199	0x3e0db270	0.138376
200	0x3e75ded0	0.24010777
201	0xbf2f97ca	-0.68590987
202	0xbe569d82	-0.20958522
203	0xbe1bc9de	-0.15213725
204	0xbd29e713	-0.041480135
205	0xbe5079bb	-0.20358936
206	0xbd83317e	-0.06405924
207	0x3f5593ff	0.8342895
208	0x3e6eb6db	0.23311941
209	0x3c3bb4f5	0.011456718
210	0xbcac30f5	-0.021019438
211	0x3edc752c	0.43058145
212	0x3d795e87	0.060881164
213	0x3e661df7	0.22472368
214	0xbed89073	-0.42297706
215	0xbe5f88e2	-0.2182956
216	0x3e4ac2fb	0.19800942
217	0xbc40f1e2	-0.011776419
218	0xbe3cd3c7	-0.18440162
219	0xbde8fdb9	-0.11376519
220	0xbeee78b0	-0.46576452
221	0xbe3661a3	-0.17810683
222	0xbe47e191	-0.1951964
223	0xbd8889d5	-0.066669144
224	0x3cf6b3d8	0.030115053
225	0x3e0fe80b	0.14053361
226	0x3e83b211	0.2572179
227	0x3f41abdf	0.7565288
228	0x3e750b11	0.23930003
229	0xbe13b38e	-0.14423963
230	0xbe794ba2	-0.24345258
231	0xbdc62aac	-0.09676108
232	0x3e95a3d3	0.2922655
233	0xbc618312	-0.01376416
234	0xbe50e446	-0.2039958
235	0x3d2fdd54	0.042935684
236	0xbecb4b9e	-0.3970613
237	0xbec45181	-0.38343433
238	0xbe3464e2	-0.17616609
239	0x3e1e4bb6	0.15458569
240	0x3e289536	0.1646317
241	0xbd0af6d1	-0.03392679
242	0x3e5033ac	0.20332211
243	0x3e462989	0.19351782
244	0x3d3bacf9	0.045819256
245	0xbe4278d3	-0.18991403
246	0x3c92f784	0.01794029
247	0x3eef08c2	0.4668637
248	0x3c4b37d4	0.012403447
249	0x3ca9be8b	0.02072074
250	0xbd7a02e8	-0.061037928
251	0xbecbcf12	-0.3980642
252	0xbea4a6ee	-0.32158607
253	0x3e192683	0.14956097
254	0x3ee3f9d0	0.4452653
255	0x3f2fc77c	0.68663764

r_cell.w_qs.bias f4 [24]
0	0x3dcc9371	0.0998906
1	0x3e335e15	0.17516358
2	0xbd56ecf9	-0.05247209
3	0x3ce2116d	0.0275962
4	0xbddf6949	-0.109087534
5	0x3d682f6c	0.05668585
6	0x3ea158c9	0.3151305
7	0xbe52738c	-0.2055189
8	0xbe7687be	-0.24075219
9	0xbe0372f1	-0.12836815
10	0x3db96a3e	0.09053467
11	0xbe33d1aa	-0.17560449
12	0x3de1449e	0.10999416
13	0x3ddd1708	0.107954085
14	0x3e2868b5	0.16446193
15	0x3e268c50	0.16264462
16	0x3e1885d6	0.14894804
17	0xbe0242aa	-0.12720743
18	0xbbfe7a1f	-0.007766023
19	0xbcd38f03	-0.02582503
20	0x3dd64ca6	0.10463838
21	0x3de72cc4	0.11287835
22	0x3c4421ac	0.011970919
23	0xbe5c9513	-0.21541242

r_cell.w_ks.weight f4 [24, 24]
0	0x3e9eecb8	0.31039977
1	0xbe830b84	-0.25594723
2	0x3e170baa	0.14750543
3	0x3ead3621	0.3383036
4	0x3e67665c	0.22597641
5	0x3e2758d8	0.16342485
6	0x3e9bbe59	0.3041866
7	0xbe420c34	-0.18949968
8	0xbe83a3de	-0.25710958
9	0xbd44f21b	-0.048082452
10	0x3d312a21	0.043253068
11	0xbef092db	-0.46987042
12	0x3dda14c1	0.1064849
13	0xbecb0389	-0.39651135
14	0xbd5fefc9	-0.054672036
15	0xbeeaf8a7	-0.45892832
16	0xbee7dc80	-0.45285416
17	0x3e954211	0.29151967
18	0x3e81cdb6	0.25352257
19	0xbee3a4b9	-0.4446161
20	0x3cfbb09a	0.030723859
21	0x3ef8792e	0.48529953
22	0x3ecee87d	0.4041175
23	0xbeb8f07f	-0.36120984
24	0xbe83afca	-0.25720054
25	0xbd898588	-0.06714922
26	0x3eb10363	0.34572896
27	0x3ec07c44	0.37594807
28	0xbe664ee7	-0.22491036
29	0xbea5670a	-0.32305175
30	0x3c8f5c47	0.017500056
31	0xbd396654	-0.045263603
32	0x3eae64b8	0.34061217
33	0x3ea70657	0.32622024
34	0x3e6e93fe	0.23298642
35	0x3b30c284	0.002697141
36	0xbf0d7554	-0.55257154
37	0x3ee9d876	0.4567296
38	0x3e860635	0.2617661
39	0x3eb494ab	0.35269675
40	0x3e753c6a	0.23948827
41	0x3eb530c7	0.35388777
42	0xbdbf5ac7	-0.09343486
43	0xbd69c9e6	-0.05707731
44	0xbe5479f5	-0.20749648
45	0xbf069c23	-0.52581996
46	0xbe3e7b1a	-0.18601647
47	0xbcde8214	-0.027161635
48	0xbed4fe83	-0.41600427
49	0x3ece21c6	0.40260142
50	0x3c4437e4	0.011976216
51	0xbe81f2b9	-0.25380495
52	0xbd7e6854	-0.062111214
53	0xbecb6f6a	-0.3973344
54	0xbe8913ef	-0.2677302
55	0xbde1e993	-0.11030879
56	0xba4373b4	-0.0007455901
57	0xbeeee331	-0.46657708
58	0x3ec30810	0.3809209
59	0x3e91a2b6	0.2844445
60	0xbe3356f5	-0.1751364
61	0xbdcc1e78	-0.09966749
62	0xbd5726c7	-0.052527215
63	0xbe94a14d	-0.29029313
64	0x3e5465da	0.20741978
65	0xbf27ccfd	-0.6554716
66	0xbd09fbb7	-0.03368732
67	0x3dddc0a6	0.108277604
68	0xbddb05b1	-0.10694445
69	0x3e71eb32	0.23624876
70	0xbe02b4ff	-0.12764357
71	0x3f6b7d15	0.91987735
72	0x3d78c61a	0.0607358
73	0xbf013902	-0.5047761
74	0x3df0e6b2	0.11762752
75	0xbd547d47	-0.051877286
76	0xbe8511f1	-0.2599025
77	0x3d8ea3af	0.06964814
78	0xbda0e8cb	-0.07856902
79	0xbe832feb	-0.25622496
80	0xbe7e08c1	-0.24808027
81	0xbe67eb91	-0.22648455
82	0x3ea56604	0.32304394
83	0x3e4bfe6c	0.19921273
84	0x3ea40efe	0.32042688
85	0x3decee34	0.11568871
86	0x3d07321a	0.033006765
87	0xbd7ee504	-0.062230125
88	0xbef4b8d0	-0.4779725
89	0xbe5cfd58	-0.21581018
90	0xbb1ba628	-0.002375016
91	0xbd28f4fd	-0.041249264
92	0xbe84cee1	-0.25939086
93	0x3cde6798	0.027149007
94	0x3e71d8d4	0.2361787
95	0x3f5c1288	0.85965776
96	0xbddc764b	-0.1076475
97	0x3e370e54	0.1787656
98	0xbef5e443	-0.48025712
99	0x3e4042e6	0.1877552
100	0xbde1311c	-0.10995695
101	0x3eab2efc	0.33434284
102	0xbdd695ce	-0.10477792
103	0xbd79aab3	-0.060953807
104	0x3eb98c4d	0.36239854
105	0x3ee543e3	0.44778356
106	0xbe010874	-0.12600881
107	0x3e72d89b	0.23715441
108	0xbee2c6da	-0.44292337
109	0xbe917af3	-0.28414115
110	0x3c1f074c	0.00970633
111	0xbe6764b8	-0.22597015
112	0xbf002e63	-0.5007078
113	0x3ed097bd	0.40740767
114	0xbe0dc926	-0.13846263
115	0xbdf2239b	-0.118231975
116	0xbe9cd010	-0.3062749
117	0xbe4dc5e2	-0.20095018
118	0xbc7bd5bc	-0.015370782
119	0xbe2551cd	-0.16144486
120	0x3c25754e	0.010098768
121	0x3ec0cfa5	0.3765842
122	0xbe1a470b	-0.15066163
123	0xbe952bd0	-0.2913499
124	0x3f0da02b	0.5532252
125	0xbe207dd7	-0.15673004
126	0x3ee1bc81	0.4408913
127	0x3e8982ce	0.2685761
128	0xbe3e9129	-0.18610062
129	0xbe127b7d	-0.1430492
130	0x3b9f2d55	0.004857699
131	0x3c14b8b3	0.009077239
132	0xbe1bcd55	-0.15215047
133	0xbe8e7cf4	-0.27829707
134	0x3e8f250f	0.2795796
135	0x3dde496e	0.10853849
136	0xbd19c28a	-0.037539043
137	0x3ebc0e79	0.36729792
138	0xbe92fe46	-0.2870962
139	0xbc268b11	-0.010164992
140	0xbe0d862e	-0.13820717
141	0xbe1cfe53	-0.15331392
142	0x3e3df192	0.18549183
143	0x3d15a11c	0.0365306
144	0xbc45e5f5	-0.012078752
145	0xbdbb18df	-0.09135603
146	0xbe861d1f	-0.26194093
147	0x3eb3fcdc	0.35153854
148	0xbe981cc2	-0.2970944
149	0x3e0f0be8	0.13969386
150	0xbd75e124	-0.060029164
151	0xbe3866ad	-0.18007918
152	0x3d4d7735	0.050162513
153	0xbf1c626e	-0.6108769
154	0xbceab463	-0.028650468
155	0xbdb6eb72	-0.089316264
156	0xbed6ba8b	-0.41939196
157	0xbcde6625	-0.027148316
158	0x3e85330f	0.26015517
159	0xbeeee96a	-0.46662456
160	0xbe14a35a	-0.14515439
161	0x3f44d6a2	0.76890004
162	0xbe177d39	-0.14793862
163	0xbe0ad9a2	-0.13559583
164	0xbebd21d7	-0.3693988
165	0xbe70b3ae	-0.23506042
166	0xbe4a0609	-0.19728865
167	0xbe9a10c0	-0.30090904
168	0x3db5baa4	0.088734895
169	0xbe73cc4a	-0.23808399
170	0x3f12497e	0.5714339
171	0x3e127bc8	0.14305031
172	0x3d520f18	0.051283926
173	0x3eee6297	0.46559593
174	0x3e0a7ee9	0.13524975
175	0xbf0add32	-0.5424377
176	0xbdcf11f1	-0.10110844
177	0xbe38d1dc	-0.18048805
178	0xbe91c141	-0.28467754
179	0x3cba3f1c	0.022735171
180	0x3ea3bb52	0.31978852
181	0x3e3fe6a5	0.18740328
182	0x3e70625f	0.23475026
183	0xbe86cbea	-0.2632745
184	0xbe9592d4	-0.29213583
185	0xbf05545c	-0.5208185
186	0x3ce8784a	0.02837767
187	0xbd9e67df	-0.077346556
188	0x3e1abf2b	0.15111987
189	0xbdd54b8f	-0.10414802
190	0xbe771fc4	-0.24133211
191	0xbcffaf1e	-0.031211432
192	0x3e271944	0.16318232
193	0x3e509d94	0.20372611
194	0x3e6e961b	0.23299448
195	0xbe25a569	-0.1617638
196	0x3ee43bb8	0.44576812
197	0xbd997893	-0.07493701
198	0xbf18e5ac	-0.5972545
199	0xbe21bf7d	-0.15795703
200	0xbe29b185	-0.16571625
201	0xbdc1ff86	-0.09472565
202	0x3e9b201c	0.30297935
203	0xbdac81b2	-0.08423175
204	0x3d4b9964	0.04970683
205	0xbb821740	-0.003970057
206	0x3e9c9a5e	0.30586523
207	0xbdbbaaa4	-0.091634065
208	0x3ddacf98	0.106841266
209	0xbe1ed3d3	-0.15510492
210	0x3df625b5	0.12018911
211	0xbec9b67f	-0.39397046
212	0x3f0d63a7	0.5523018
213	0xbec6ea4e	-0.38850635
214	0xbe64ef8c	-0.22357005
215	0x3f04762b	0.5174281
216	0xbe460311	-0.19337107
217	0x3e66df0a	0.2254602
218	0xbe11f6d4	-0.14254314
219	0x3da464ad	0.08027015
220	0x3e3c9d84	0.18419462
221	0x3e409160	0.18805456
222	0x3da40c83	0.08010199
223	0x3e34ae66	0.17644653
224	0x3e9d290e	0.30695385
225	0x3daa536b	0.08316692
226	0x3eb605bc	0.3555125
227	0x3eb6e756	0.3572337
228	0xbe2ff2e3	-0.17182498
229	0xbf00de4a	-0.50339186
230	0x3e862dc8	0.26206803
231	0x3e9664e1	0.2937384
232	0xbee5978b	-0.4484218
233	0xbec44925	-0.38337055
234	0xbb85c5b2	-0.004082405
235	0xbf20a790	-0.6275568
236	0xbe856ea4	-0.26060975
237	0x3e8da885	0.27667633
238	0x3e952efe	0.29137415
239	0xbe815ab8	-0.25264525
240	0x3e0c75c1	0.13716795
241	0x3d7cd2a7	0.06172433
242	0x3df8f755	0.1215655
243	0x3d4607bc	0.04834722
244	0x3e962e5d	0.29332247
245	0x3e74db45	0.2391177
246	0xbe9fa434	-0.31179965
247	0xbe4d9959	-0.20078029
248	0xbdcfc03d	-0.101440884
249	0x3ec3d40c	0.38247716
250	0x3e9d1003	0.30676278
251	0x3e067bac	0.13133115
252	0x3e470902	0.1943703
253	0x3d7ad05b	0.06123386
254	0x3f1528f2	0.582656
255	0xbd400b08	-0.04688552

r_cell.w_ks.bias f4 [24]
0	0x3cee3844	0.029079564
1	0x3e3f3e88	0.18676198
2	0x3d420068	0.04736367
3	0x3d5aeaa2	0.05344642
4	0x3e717e80	0.23583412
5	0x3e67aad3	0.22623758
6	0x3e37df63	0.17956309
7	0xbdd6effa	-0.10494991
8	0xbe6a38f3	-0.22873287
9	0xbd8ec706	-0.069715545
10	0x3bb5eb91	0.0055517633
11	0xbd8c0568	-0.06836969
12	0x3cac1eb0	0.021010727
13	0x3e064c93	0.13115148
14	0xbd6329bf	-0.055459734
15	0x3e8b0f38	0.27160048
16	0x3db229d0	0.08699381
17	0x3d86573c	0.065596074
18	0xbe4e154b	-0.2012531
19	0x3bdb72f4	0.006697053
20	0xbe210d5a	-0.1572775
21	0x3d0d5100	0.034501076
22	0xbd92a356	-0.0716006
23	0xba81faa3	-0.0009916615

r_cell.w_vs.weight f4 [24, 24]
0	0xbdbc3b68	-0.09191018
1	0x3f0485b9	0.51766545
2	0xbccac41b	-0.024751713
3	0x3e77ec63	0.24211268
4	0x3ec61fe1	0.38696197
5	0x3ee3d21b	0.44496235
6	0x3e815a63	0.25264272
7	0x3f00c3a3	0.5029852
8	0x3ea9f8b5	0.3319756
9	0x3e1ff1a4	0.15619522
10	0x3e084991	0.13309313
11	0xbecf5995	-0.40498033
12	0xbe966552	-0.29374176
13	0xbef8e0b4	-0.48608935
14	0xbdcbf03f	-0.09957933
15	0xbcd8f6fc	-0.026484959
16	0x3efa730b	0.48915896
17	0xbe1acd27	-0.15117322
18	0x3e3b4009	0.18286146
19	0x3e764906	0.24051294
20	0xbe912004	-0.28344738
21	0x3d6afde7	0.057371046
22	0xbf004387	-0.5010304
23	0xbe09e357	-0.1346563
24	0xbea54773	-0.32281074
25	0xbec4bfb1	-0.384275
26	0xbe8a28e6	-0.26984328
27	0xbd8f40fe	-0.06994818
28	0x3d9a9b05	0.07549099
29	0x3dcbd5ac	0.09952864
30	0x3e30b9da	0.17258397
31	0x3fb35123	1.4009136
32	0x3ebdb6f5	0.37053648
33	0xbe6acf15	-0.22930558
34	0x3e7fc8d4	0.24978954
35	0xbf26f780	-0.65221405
36	0x3dfcd289	0.12344844
37	0x3f2f9895	0.68592197
38	0x3e7b5040	0.24542332
39	0x3e456933	0.19278412
40	0x37a4d157	1.9647805e-05
41	0x3d732dba	0.05936978
42	0xbea973f0	-0.33096266
43	0xbea455bd	-0.32096663
44	0x3ec9d9e4	0.3942405
45	0xbe9ae78c	-0.3025478
46	0xbea6d9e2	-0.32588106
47	0x3e43c21e	0.19117019
48	0xbf3c310e	-0.7351235
49	0xbdae4e9b	-0.085110866
50	0xbd16594e	-0.03670626
51	0xbf23d029	-0.639895
52	0xbdc38821	-0.09547449
53	0x3f115a10	0.5677805
54	0xbf498d4f	-0.78731245
55	0xbe9ecefe	-0.31017298
56	0xbf0b856c	-0.5450046
57	0xbcc17f18	-0.023620173
58	0xbe3696bf	-0.17830943
59	0xbeaa10b5	-0.3321587
60	0xbdceec47	-0.1010366
61	0xbede52af	-0.43422458
62	0xbea16b4a	-0.31527168
63	0x3eea1dfc	0.45726
64	0xbe19d2c8	-0.15021813
65	0xbdd3222b	-0.103092514
66	0xbda1678c	-0.07881078
67	0xbe727f06	-0.23681268
68	0xbeb51970	-0.3537097
69	0x3e83ef2e	0.25768417
70	0xbd98cb79	-0.07460684
71	0x3e9deebb	0.308462
72	0x3f2b682e	0.6695584
73	0xbe15067c	-0.14553255
74	0x3cee63c1	0.0291003
75	0xbe600125	-0.21875437
76	0x3ee5863b	0.44828972
77	0xbe9688f0	-0.2940135
78	0xbefa028c	-0.48830068
79	0x3e1a7315	0.15082963
80	0x3ec9f39c	0.39443672
81	0xbe6504ca	-0.22365108
82	0x3e8f3a86	0.27974337
83	0x3e547f55	0.20751698
84	0x3e363050	0.17791867
85	0xbc3cc50a	-0.011521587
86	0x3f97d2e0	1.1861229
87	0x3e2a0b37	0.1660584
88	0x3d994527	0.07483893
89	0x3e4b4254	0.19849521
90	0x3e86981e	0.2628793
91	0xbd78ad86	-0.06071236
92	0x3ef73540	0.48282814
93	0x3ea939a2	0.33051783
94	0x3e5818da	0.2110323
95	0x3df4dc42	0.11956073
96	0xbe736b43	-0.23771386
97	0xbe140d1f	-0.1445813
98	0x3f06dd8d	0.5268181
99	0xbe56f891	-0.20993258
100	0xbef48c67	-0.47763368
101	0xbe9c0075	-0.304691
102	0x3ea74b20	0.32674503
103	0xbf410043	-0.75391024
104	0x3e584b30	0.21122432
105	0xbcffcd61	-0.031225862
106	0x3e7e679e	0.24844214
107	0x3f013dd1	0.5048495
108	0xbdad5acb	-0.08464583
109	0x3ef5a937	0.47980663
110	0xbe61230d	-0.21986027
111	0x3eb202fc	0.34767902
112	0x3dbddb84	0.09270385
113	0xbe2e505d	-0.17022844
114	0x3e412c4b	0.18864553
115	0x3e247fdb	0.16064398
116	0x3ec4e1c5	0.38453498
117	0xbe706dd1	-0.23479392
118	0xbe84fde6	-0.2597496
119	0xbee07c99	-0.4384506
120	0x3e0dccf3	0.13847713
121	0x3ecd71d1	0.40125898
122	0x3ef26577	0.47343037
123	0xbc3f2bab	-0.011668126
124	0x3f058365	0.5215362
125	0xbf4fed16	-0.8122114
126	0xbec3d226	-0.38246268
127	0xbf30f10a	-0.69117796
128	0xbf00fa78	-0.50382185
129	0xbeb90581	-0.36137012
130	0xbd8905a3	-0.06690528
131	0xbe282903	-0.16421895
132	0xbea993d3	-0.33120593
133	0xbe7606e5	-0.24026068
134	0xbbe2e6cf	-0.006924487
135	0xbdbd4ff9	-0.09243769
136	0x3e1bee77	0.15227686
137	0xbdcb21b5	-0.099185385
138	0xbe939c17	-0.28830025
139	0x3e7605fe	0.24025723
140	0xbd6af52d	-0.057362724
141	0xbeec9898	-0.4621017
142	0x3f2e68a0	0.68128395
143	0xbe46f665	-0.1942993
144	0x3e82a57a	0.25516874
145	0xbe68ef9c	-0.22747654
146	0xbf6b28a1	-0.9185887
147	0x3e203f66	0.15649185
148	0xbe86a530	-0.26297903
149	0xbf14a970	-0.5807104
150	0xbd101a8b	-0.035181563
151	0x3f22617b	0.63429993
152	0x3d2660ff	0.040619846
153	0xbde8f481	-0.113747604
154	0xbd34db9e	-0.044154756
155	0x3d112616	0.035436712
156	0xbdc8040a	-0.097663954
157	0x3e753d4f	0.23949169
158	0x3f55a82c	0.83459735
159	0xbd172f3e	-0.036910288
160	0x3f11fe72	0.5702888
161	0xbeb179f5	-0.34663358
162	0x3d074978	0.03302905
163	0xbedf57d5	-0.43621698
164	0x3f8e8d6f	1.1136912
165	0x3e982156	0.29712933
166	0x3e2bedfd	0.16790004
167	0x3e8d1365	0.2755386
168	0x3ec0c505	0.37650314
169	0x3dbfbf5f	0.09362673
170	0x3e72de0c	0.23717517
171	0x3e24e857	0.16104256
172	0xbe8518ea	-0.2599557
173	0x3e11ecc1	0.1425047
174	0x3e9cda42	0.30635267
175	0x3f14e029	0.5815454
176	0xbdd0b21d	-0.101902224
177	0xbeb10e3a	-0.34581167
178	0x3e9d74e1	0.30753234
179	0x3d84c5b7	0.064830236
180	0xbec54f79	-0.38537195
181	0xbe7896f5	-0.24276336
182	0x3f2b9eea	0.6703936
183	0xbdc8e28d	-0.09808836
184	0xbd980948	-0.07423645
185	0xbc1d1778	-0.009588115
186	0xbed15ab1	-0.40889505
187	0xbf173906	-0.59071386
188	0xbef0f590	-0.4706235
189	0x3e442f18	0.1915859
190	0xbec6897e	-0.38776773
191	0x3e7cc229	0.24683441
192	0x3e091641	0.13387395
193	0xbc9e769a	-0.019343663
194	0x3e944d07	0.28965017
195	0x3df5ecd4	0.12008062
196	0x3e9e16ff	0.3087692
197	0xbeb5c012	-0.354981
198	0x3d3ce5c2	0.04611755
199	0x3ec4fdde	0.38474935
200	0x3d4fab69	0.05070058
201	0xbdc9eb00	-0.09859276
202	0x3e81c0a1	0.25342277
203	0x3e7ddd32	0.2479141
204	0xbe10d06c	-0.14142007
205	0xbc8de9e2	-0.017323438
206	0x3f34d3eb	0.7063586
207	0x3f312d49	0.69209725
208	0xbe21ef27	-0.15813886
209	0xbde3b1ee	-0.11117922
210	0xbcc21965	-0.02369375
211	0x3f065b22	0.5248281
212	0x3ec82fa2	0.3909884
213	0x3e90a0e8	0.28247762
214	0x3ea290d4	0.3175112
215	0x3e491617	0.19637333
216	0xbb03fa8e	-0.0020138356
217	0xbeba62d1	-0.36403516
218	0xbda9816f	-0.082766406
219	0xbcb2acae	-0.021810856
220	0x3c161d04	0.009162191
221	0xbee3df36	-0.44506234
222	0x3e88b47d	0.26700202
223	0xbf6a1efa	-0.91453516
224	0xbea93fb0	-0.33056402
225	0x3c612de3	0.01374385
226	0x3e8ff4a2	0.28116328
227	0xbdf926e0	-0.12165618
228	0x3c84a92a	0.016193945
229	0x3e2eac87	0.17058001
230	0xbe1ca203	-0.15296178
231	0x3f161a13	0.58633536
232	0x3eae8d20	0.34092045
233	0xbecad216	-0.39613408
234	0xbe760563	-0.24025492
235	0xbcf021ec	-0.02931305
236	0x3f22bace	0.6356629
237	0xbd8af705	-0.067853965
238	0x3f02b4b8	0.51057005
239	0xbe1844ae	-0.14869949
240	0x3e610d94	0.21977836
241	0xbe83bf8e	-0.25732082
242	0x3e904bba	0.28182775
243	0xbebf82f9	-0.37404612
244	0x3eaa54fb	0.3326796
245	0xbf4619b4	-0.7738297
246	0xbea5c909	-0.3237994
247	0xbec576b4	-0.38567126
248	0x3d824e5e	0.063626036
249	0xbe868f97	-0.26281425
250	0x3e176573	0.14784794
251	0x3ebbd8be	0.366888
252	0x3d7c5bc4	0.061610952
253	0xbf4a9db5	-0.7914689
254	0x3e19a207	0.15003215
255	0x3e83dc63	0.2575408

r_cell.w_vs.bias f4 [24]
0	0xbdabe619	-0.08393497
1	0x3e129c63	0.1431747
2	0x3e02501a	0.12725869
3	0x3e9f5b5b	0.31124386
4	0x3e64962a	0.22322908
5	0xbe011dde	-0.1260905
6	0x3e5c4f0f	0.21514533
7	0x3dcf2023	0.101135515
8	0x3dd8e88c	0.1059123
9	0xbd67ff45	-0.05663993
10	0x3e2ac506	0.16676721
11	0x3e915317	0.28383705
12	0xbe34d8f7	-0.1766089
13	0x3cc78ae1	0.024358215
14	0xbda21b9d	-0.07915423
15	0x3c3e3c11	0.011611001
16	0xbe689adb	-0.22715323
17	0x3d357bc1	0.044307474
18	0xbe7339d1	-0.23752524
19	0xbe181a5a	-0.14853802
20	0xbd3bf4c2	-0.045887716
21	0xbc9e446e	-0.01931974
22	0xbde183e4	-0.11011484
23	0xbdf4f8c1	-0.119615085

r_cell.layer_norm.weight f4 [24]
0	0x3f41bac0	0.7567558
1	0x3f76fd23	0.96480006
2	0x3f703773	0.9383461
3	0x3f7cba5d	0.9872187
4	0x3f76b23b	0.9636571
5	0x3f534efb	0.8254239
6	0x3fa71a5a	1.3054917
7	0x3f87f9e5	1.0623137
8	0x3f4e9ee4	0.807112
9	0x3f93f849	1.1560146
10	0x3f945717	1.1589078
11	0x3fa2fc6b	1.2733282
12	0x3f85515e	1.0415456
13	0x3f9a46d1	1.2052861
14	0x3fa02431	1.2511045
15	0x3f8a1e0a	1.0790417
16	0x3faf2161	1.3682061
17	0x3f708ce9	0.9396501
18	0x3f9b0ff3	1.2114242
19	0x3f7485a3	0.95516413
20	0x3f7a9b99	0.97893673
21	0x3f84ed5e	1.0384939
22	0x3f91366f	1.1344737
23	0x3f836660	1.0265617

r_cell.layer_norm.bias f4 [24]
0	0xbd42978a	-0.0475078
1	0xbe39cca1	-0.18144466
2	0x3d17f879	0.037102196
3	0x3ce680a6	0.028137516
4	0xba9f549a	-0.001215595
5	0x3e587abf	0.21140574
6	0xbe3a10d8	-0.18170488
7	0xbca268c4	-0.019825347
8	0x3e6e762a	0.23287264
9	0x3e3566b0	0.17714953
10	0xbcc30194	-0.023804463
11	0xbd31aae2	-0.043375857
12	0xbc93c776	-0.018039446
13	0x3d29123e	0.041277163
14	0x3d2c3f4b	0.04205255
15	0xbd91d579	-0.07120795
16	0xbcfdf5fd	-0.031001085
17	0x3e3b5e22	0.18297628
18	0xbda77966	-0.08177452
19	0x3dc350e7	0.09536915
20	0x3d8ea85a	0.06965704
21	0xbdf166e0	-0.117872
22	0x3e1ca8f0	0.1529882
23	0x3e282713	0.16421156

r_cell.fc.weight f4 [24, 24]
0	0xbd61e1ef	-0.055147108
1	0xbeb96d32	-0.36216122
2	0xbd62cad5	-0.055369217
3	0xbe5b6535	-0.21425326
4	0x3dab007b	0.08349701
5	0x3d93f488	0.07224375
6	0xbf3633d2	-0.7117282
7	0xbe569f21	-0.2095914
8	0xbec9abfa	-0.3938902
9	0x3f0d4226	0.5517906
10	0x3e818971	0.25300172
11	0xbed2e3a8	-0.41189313
12	0xbf519cda	-0.8187996
13	0xbed9a621	-0.4250956
14	0xbd97a20c	-0.07403955
15	0xbce90703	-0.028445726
16	0x3e5aecd4	0.21379405
17	0x3e12d6af	0.14339708
18	0x3f1061bb	0.56399125
19	0x3f0ea88c	0.5572593
20	0xbecb6c74	-0.3973118
21	0x3f12b4f2	0.5730735
22	0xbe52ed03	-0.20598225
23	0x3d902eac	0.07040152
24	0x3f0a8f47	0.54124874
25	0xbe57080b	-0.20999162
26	0x3d2e53e9	0.04256049
27	0xbf2a1cc2	-0.6645013
28	0xbdc123eb	-0.09430679
29	0x3f305214	0.6887524
30	0xbee80e15	-0.45323244
31	0xbdc6e0c3	-0.09710839
32	0xbeab41f2	-0.3344875
33	0x3e313ad3	0.17307596
34	0xbe3c8214	-0.18408996
35	0xbf037ec8	-0.5136533
36	0xbea8817b	-0.32911286
37	0x3df2c62a	0.11854203
38	0xbefe5025	-0.4967052
39	0x3d1529fe	0.036417
40	0x3e987e26	0.29783744
41	0x3e6a3b26	0.22874126
42	0x3e253a04	0.16135412
43	0x3ea63c50	0.3246789
44	0xbf56a086	-0.8383869
45	0x3d815ab6	0.0631613
46	0xbef9d457	-0.48794815
47	0x3e489c51	0.1959088
48	0xbe8fbeed	-0.28075352
49	0xbe916bf5	-0.28402677
50	0x3bd46b73	0.0064825355
51	0x3eeb5894	0.45966017
52	0x3e629d8e	0.22130415
53	0xbe554e47	-0.20830642
54	0x3df06e0f	0.11739742
55	0xbded5375	-0.11588184
56	0x3ef43d01	0.47702792
57	0x3db5c03b	0.08874556
58	0x3f45b27b	0.77225465
59	0x3f09d4f1	0.5384055
60	0x3ec14c6d	0.3775362
61	0x3e848dad	0.2588934
62	0xbdbf48a7	-0.09340029
63	0xbe39521a	-0.18097726
64	0xbdcf8b65	-0.10134009
65	0xbf8f6478	-1.1202536
66	0xbbc499ce	-0.0059997803
67	0xbb382f95	-0.0028104533
68	0x3f39499f	0.7237796
69	0xbe11eb74	-0.14249974
70	0x3df060a7	0.11737185
71	0x3edfe303	0.43727884
72	0xbe6776e2	-0.22603944
73	0x3def4f77	0.116850786
74	0xbe455fdc	-0.19274849
75	0x3e8f2785	0.27959839
76	0xbdd47196	-0.10373227
77	0x3e3f061b	0.18654673
78	0x3efd4b7a	0.49471647
79	0xbe8fdd72	-0.28098637
80	0x3e32f708	0.17477047
81	0x3d38af68	0.045089155
82	0x3e20ddf7	0.15709673
83	0x3eb1d75c	0.3473462
84	0xbe6157d9	-0.22006167
85	0xbdad4f9a	-0.084624484
86	0x3f2d2ded	0.676482
87	0xba5bc302	-0.00083832454
88	0xbeb589a2	-0.35456568
89	0x3d912e57	0.07088917
90	0xbd0de5b1	-0.03464288
91	0xbf005b7b	-0.5013959
92	0x3dc197d7	0.09452789
93	0x3eae7147	0.340708
94	0xbe7c2d81	-0.24626733
95	0x3c95edf4	0.018301941
96	0xbe82f605	-0.25578323
97	0xbe8ad508	-0.27115655
98	0xbea1faf3	-0.31636772
99	0x3ee156b8	0.44011474
100	0xbe9f564e	-0.31120533
101	0x3f5fa556	0.8736166
102	0xbebc9f2d	-0.3684019
103	0xbdd87e5c	-0.10570976
104	0x3e40a365	0.1881233
105	0x3e324339	0.17408456
106	0x3ef779e7	0.48335192
107	0x3ea7b5de	0.3275594
108	0xbecb41d0	-0.39698648
109	0xbf0b855a	-0.54500353
110	0xbe476de3	-0.19475512
111	0x3e3deef6	0.18548188
112	0xbeb4418e	-0.35206264
113	0xbebde82d	-0.370912
114	0xbc942e72	-0.018088553
115	0xbef49f6e	-0.47777885
116	0x3e0a9fe8	0.13537562
117	0x3eb45a52	0.3522516
118	0xbe918fc4	-0.28429997
119	0x3efaead0	0.49007273
120	0x3ccaee95	0.024771968
121	0x3e3a0c09	0.18168654
122	0xbe126950	-0.14297986
123	0x3e674ddd	0.22588296
124	0xbdc7bac4	-0.097524196
125	0xbe8ad379	-0.27114466
126	0x3f92b133	1.1460327
127	0x3eea071b	0.45708546
128	0x3e2d5b64	0.16929394
129	0xbe1f04df	-0.15529202
130	0xbe5f13d6	-0.2178491
131	0x3f555397	0.8333067
132	0x3f09c93f	0.538227
133	0xbe9add58	-0.30246997
134	0x3f1bbc1c	0.6083391
135	0x3d24f616	0.04027375
136	0xbef9008c	-0.4863323
137	0x3ec2083e	0.37896913
138	0xbefca646	-0.49345607
139	0xbec3fc74	-0.38278544
140	0x3e18ee88	0.14934742
141	0x3de00136	0.10937731
142	0x3e838af1	0.2569194
143	0xbe39da72	-0.18149737
144	0x3e7636d1	0.24044348
145	0xbe877c9f	-0.26462266
146	0xbcdcf4b1	-0.026972147
147	0xbe8e0a63	-0.277423
148	0x3e8e81e1	0.27833465
149	0x3f1a36a7	0.6023964
150	0x3d0fe3b4	0.035129264
151	0x3e595e77	0.21227442
152	0xbd581c5b	-0.052761417
153	0x3df723a4	0.12067345
154	0xbd8ae8a7	-0.06782656
155	0x3d90aaa3	0.07063796
156	0xbe097941	-0.13425161
157	0xbeb81efa	-0.35961133
158	0x3e7a576a	0.24447408
159	0x3e2ede2e	0.17076942
160	0x3e238144	0.1596728
161	0x3cea3d9c	0.02859383
162	0xbdf7b7be	-0.12095593
163	0x3ebd7e16	0.37010258
164	0xbea0771d	-0.31340876
165	0x3e508bc6	0.2036582
166	0x3e1c99e2	0.15293077
167	0x3f0d2917	0.55140823
168	0x3ea756b7	0.32683346
169	0x3ef019c3	0.46894655
170	0x3e89e969	0.2693589
171	0xbc17aa57	-0.009256921
172	0xbe8f96da	-0.28044778
173	0xbeda705c	-0.42663848
174	0xbdf61a92	-0.12016787
175	0xbd57a462	-0.052647002
176	0x3e8eb08e	0.27869076
177	0xbec8b69c	-0.3920182
178	0xbda4a6e9	-0.08039648
179	0xbd601142	-0.05470396
180	0x3efb4836	0.4907853
181	0x3e57e555	0.21083577
182	0xbe5057df	-0.2034602
183	0x3eb4dd48	0.35325074
184	0xba982697	-0.001160818
185	0x3f0e25ed	0.5552662
186	0xbdad6508	-0.08466536
187	0xbca7d718	-0.020488307
188	0xbe184db5	-0.14873393
189	0xbe4fe24a	-0.20301166
190	0xbf0a6bfa	-0.5407101
191	0xbeed5828	-0.4635632
192	0x3ef5b220	0.4798746
193	0x3eb98d05	0.36240402
194	0xbf13a95b	-0.5768029
195	0x3ede46d9	0.43413427
196	0xbd9ca8fd	-0.076494195
197	0xbf1b98fe	-0.6078032
198	0x3f388817	0.72082657
199	0xbbc60d52	-0.0060440684
200	0x3f0e2b95	0.5553525
201	0xbe96a6f3	-0.29424247
202	0xbef71726	-0.48259848
203	0x3eb6b197	0.35682365
204	0x3eb31839	0.34979418
205	0xbe5b6c80	-0.21428108
206	0x3e82f1fa	0.25575238
207	0x3e4614a5	0.19343813
208	0xbc5f28d0	-0.01362057
209	0x3dc6e695	0.09711949
210	0xbf305147	-0.6887402
211	0xbcb1613c	-0.02165281
212	0xbed852d1	-0.42250684
213	0xbea06fb1	-0.31335214
214	0x3cbc4010	0.022979766
215	0x3ea570f7	0.32312748
216	0x3ea412fb	0.3204573
217	0x3f1e6b43	0.6188242
218	0xbe3392a0	-0.17536402
219	0x3ead18c0	0.33807945
220	0xbe164b12	-0.14677075
221	0xbe84ff58	-0.25976062
222	0x3ecb7392	0.3973661
223	0x3d895d45	0.06707243
224	0xbe56c25b	-0.20972578
225	0x3dcd4dae	0.10024582
226	0xbdea6650	-0.11445296
227	0x3edf523d	0.4361743
228	0xbe51ba37	-0.20481192
229	0xbd66b8e6	-0.056328677
230	0x3ddcea23	0.107868455
231	0xbd786972	-0.060647435
232	0x3df3cec3	0.11904671
233	0x3e95ab7a	0.2923239
234	0x3e0055cd	0.1253273
235	0x3cc7f4e7	0.02440877
236	0xbf330c07	-0.6994023
237	0x3e866e27	0.26255915
238	0x3ebf9498	0.37418056
239	0x3e852339	0.26003435
240	0xbe307bc6	-0.17234716
241	0x3e9594b6	0.2921502
242	0x3e61af5c	0.2203955
243	0x3b1dd2c3	0.0024081923
244	0xbca4ca3b	-0.020115962
245	0x3c97de09	0.018538492
246	0x3e9aaec7	0.3021147
247	0xbe31c7db	-0.17361395
248	0x3d4be19b	0.0497757
249	0x3e347776	0.17623696
250	0x3e85450c	0.2602924
251	0x3ea1eb8f	0.3162503
252	0x3d20fa84	0.03930141
253	0xbdefcf0a	-0.117094114
254	0xbdf781d0	-0.12085307
255	0xbec44ad6	-0.38338345

r_cell.fc.bias f4 [24]
0	0xbdf4faa4	-0.119618684
1	0xbdadd340	-0.08487558
2	0x3d26f408	0.04076007
3	0x3e151402	0.14558414
4	0x3e0233d6	0.12715086
5	0x3df409b0	0.1191591
6	0x3e70a94a	0.23502079
7	0xbe8247e3	-0.2544547
8	0x3caafc7e	0.02087235
9	0x3e2e0826	0.16995296
10	0xbdb47a96	-0.08812444
11	0xbdd6104f	-0.10452329
12	0xbdf313b4	-0.118689924
13	0xbdc36d6f	-0.09542357
14	0xbcf1d9ea	-0.029522855
15	0xbe23b26c	-0.15986031
16	0x3e2ecac0	0.1706953
17	0xbd4e44ab	-0.050358456
18	0xbd8652df	-0.06558775
19	0x3dde06a6	0.10841112
20	0xbcc2df70	-0.023788184
21	0xbe2fc054	-0.17163211
22	0x3df115bb	0.11771723
23	0x3eb3c4db	0.35111126

fc1.0.bias f4 [24]
0	0x3d9d8092	0.076905385
1	0xbd13f076	-0.036117993
2	0x3de49cd2	0.111627236
3	0x3d484b23	0.04889978
4	0x3c211ba5	0.009833251
5	0xbdb963e9	-0.090522595
6	0x3c5083bd	0.012726721
7	0x3d0b7c05	0.03405382
8	0x3d2bb599	0.041921232
9	0x3ca2131d	0.019784505
10	0xbce73b74	-0.028226592
11	0x3df99f45	0.121885814
12	0x3d0be244	0.03415133
13	0x3e01a0e7	0.12659036
14	0xbd2033b5	-0.03911181
15	0xbd75e0e0	-0.06002891
16	0x3d89607a	0.067078546
17	0xbdf6498b	-0.12025746
18	0xbcaf9432	-0.02143297
19	0x3d80a34a	0.06281145
20	0x3d8b9c18	0.06816882
21	0x3cb3c4a4	0.021944351
22	0x3d5d33e3	0.05400456
23	0x3c8067ce	0.015674498

fc1.0.weight_orig f4 [24, 6]
0	0x3da04eb2	0.0782751
1	0xbd9790c6	-0.0740066
2	0x3d8df9d2	0.06932415
3	0xbd0aa932	-0.033852763
4	0x3d79e229	0.0610067
5	0x3e8d3126	0.2757656
6	0xbe006aec	-0.12540787
7	0x3e1ace0c	0.15117663
8	0xbdcf564b	-0.10123881
9	0x3e09c07d	0.13452335
10	0xbda403d7	-0.08008545
11	0xbe7bd0d0	-0.24591374
12	0xbd6bd62a	-0.05757729
13	0x3d3dd27d	0.046343315
14	0xbd4264e4	-0.047459498
15	0x3d1fb266	0.038988493
16	0xbd395fca	-0.045257367
17	0xbeb10003	-0.3457032
18	0x3e833656	0.25627393
19	0xbe1f8a0c	-0.15580004
20	0x3e7d2ba0	0.24723673
21	0xbdeb3f92	-0.114867344
22	0x3e40ee93	0.18841009
23	0x3d241fdf	0.040069457
24	0x3e94444c	0.28958356
25	0xbe391345	-0.18073757
26	0x3e9c5fad	0.30541745
27	0xbdfad4eb	-0.12247642
28	0x3e6f50df	0.23370694
29	0x3e62b4b2	0.22139242
30	0x3d80c90f	0.06288349
31	0xbd1a499b	-0.037667852
32	0x3d90c3f0	0.07068622
33	0xbd10ca44	-0.035349146
34	0x3d2d5a87	0.04232266
35	0xbe950dba	-0.29112035
36	0x3de748fe	0.11293219
37	0xbd9d9b85	-0.076956786
38	0x3e277f87	0.16357242
39	0xbd402d8e	-0.046918444
40	0x3d8a6298	0.067570865
41	0xbe8970a2	-0.26843745
42	0x3e1d93da	0.15388432
43	0xbe11265e	-0.14174792
44	0x3d9c0f15	0.07620064
45	0xbdbb4fc7	-0.09146076
46	0x3dca0a8b	0.09865292
47	0x3e35fdd4	0.17772609
48	0x3e2b2438	0.16713035
49	0xbe454f81	-0.1926861
50	0x3e642634	0.22280198
51	0xbdf60cc2	-0.12014152
52	0x3dec96c4	0.11552194
53	0x3e6ea95a	0.2330679
54	0x3e50c788	0.20388615
55	0xbe133dee	-0.14379093
56	0x3ebc6d85	0.36802307
57	0xbde0c16e	-0.10974394
58	0x3e35c5fc	0.17751306
59	0xbe298270	-0.16553664
60	0x3e655ad8	0.22397935
61	0xbe3cb7be	-0.18429467
62	0x3e80b822	0.25140482
63	0xbe02c051	-0.12768675
64	0x3e3ebd35	0.18626864
65	0xbed6555f	-0.41862008
66	0x3e10d253	0.14142732
67	0xbd1b30b7	-0.037888255
68	0x3e84d0de	0.25940603
69	0xbb2d51d9	-0.002644649
70	0x3df2d1c7	0.11856418
71	0x3e2d7058	0.16937387
72	0xbc4923ff	-0.012276649
73	0x3d06425e	0.032778136
74	0x3b7588d8	0.0037465598
75	0xb9c1284e	-0.00036841858
76	0xbc543256	-0.012951454
77	0x3f5c9bc2	0.8617517
78	0x3df55a9e	0.119801745
79	0xbd5e8261	-0.054323558
80	0x3dab5d24	0.083673745
81	0xbd0c3f96	-0.034240328
82	0x3dd03917	0.10167139
83	0x3c50e169	0.0127490545
84	0x3d0ef036	0.03489705
85	0xbd97a84c	-0.07405147
86	0x3d2a864e	0.04163199
87	0xbd197ede	-0.037474506
88	0x3c9bf926	0.019039702
89	0xbf07f19d	-0.5310305
90	0xbd579d35	-0.05264016
91	0x3dba7865	0.09104995
92	0xbd9b4be1	-0.07582832
93	0x3d7b3a06	0.061334632
94	0xbd0a4483	-0.033756744
95	0xbed010cb	-0.40637812
96	0xbe1f8a6d	-0.15580149
97	0x3e1a04d6	0.15040907
98	0xbe3aa993	-0.1822875
99	0x3d969b23	0.07353809
100	0xbde95911	-0.11393941
101	0xbe1e4eb3	-0.15459709
102	0xbd099827	-0.03359237
103	0xbbd0a653	-0.0063674836
104	0xbdda7eca	-0.10668714
105	0xbbcaf39b	-0.006193591
106	0xbc8a1191	-0.01685408
107	0xbe1b0658	-0.15139139
108	0xbc385944	-0.011251751
109	0xbc70721f	-0.014675646
110	0xbcc8bc45	-0.024503836
111	0x3b85988b	0.0040770224
112	0xbbcd3a06	-0.0062630204
113	0xbf659048	-0.8967328
114	0x3cd5aacc	0.026082419
115	0x3dbef592	0.093241826
116	0xbdea85d7	-0.11451309
117	0x3d754832	0.059883304
118	0x3d52be7e	0.0514512
119	0xbe295fc3	-0.16540436
120	0xbe23f5e2	-0.16011766
121	0x3e23e269	0.16004337
122	0xbe3ec09c	-0.18628162
123	0x3de225ab	0.11042341
124	0xbdebb7f1	-0.115096934
125	0xbe3d3860	-0.18478537
126	0xbd60ec1b	-0.054912668
127	0x3de46600	0.111522675
128	0xbe25560f	-0.1614611
129	0x3d5966d1	0.05307657
130	0xbc72f7d4	-0.014829595
131	0xbcd571dd	-0.02605527
132	0xbd3fc566	-0.046819113
133	0x3dc4230b	0.095769964
134	0xbd540979	-0.051766846
135	0x3d62090a	0.0551844
136	0xbd0272b7	-0.03184768
137	0x3f1f5945	0.6224559
138	0x3d86d70f	0.06583988
139	0xbd00c91b	-0.03144179
140	0x3ddb3c91	0.107049115
141	0xbd0233ab	-0.031787556
142	0x3d11d2aa	0.035601296
143	0xbe731e71	-0.23742081

fc1.0.weight_u f4 [24]
0	0x3e207581	0.15669824
1	0xbe14b1da	-0.1452097
2	0xbe45cdbd	-0.19316764
3	0x3d2b2100	0.041779518
4	0x3e13bcb8	0.14427459
5	0xbe1d2d0b	-0.15349214
6	0xbe0b8791	-0.13625933
7	0x3ddc19de	0.10747121
8	0x3e130d9f	0.14360665
9	0xbd8c13a5	-0.068396844
10	0xbe5588f2	-0.20853022
11	0x3dd8ae63	0.105801366
12	0x3ef035b0	0.4691596
13	0x3c763a88	0.015028603
14	0xbe925e87	-0.28587744
15	0xbe693bb5	-0.22776683
16	0xbdc8f32e	-0.09812008
17	0xbdb148dd	-0.08656476
18	0xbefae12f	-0.48999926
19	0xbdc10411	-0.09424604
20	0xbdec842b	-0.115486465
21	0xbcba0a17	-0.02270989
22	0x3eab2100	0.33423615
23	0xbdfca86f	-0.12336814

fc1.0.weight_v f4 [6]
0	0x3d316d00	0.04331684
1	0xbcc28681	-0.023745777
2	0x3d5de283	0.054171097
3	0xbcceb34a	-0.025231976
4	0x3ce7defa	0.028304566
5	0x3f7f2062	0.9965879

fc1.1.weight f4 [24, 24]
0	0xbf1761c9	-0.59133583
1	0x3f215a56	0.63028467
2	0x3ec67f0b	0.387688
3	0x3f7b1a88	0.9808736
4	0x3f74dc84	0.9564898
5	0x3f15cd55	0.58516437
6	0x3eceb381	0.40371326
7	0x3ef765ae	0.48319763
8	0xbf7b2322	-0.98100483
9	0xbf981dea	-1.1884129
10	0x3f32fb10	0.6991434
11	0xbf364118	-0.71193075
12	0x3ea490c2	0.3214169
13	0x3dac0d10	0.08400929
14	0x3f0767e3	0.52892894
15	0xbd95d5d8	-0.07316178
16	0x3eeb06d6	0.45903653
17	0x3f52cd00	0.82344055
18	0xbd600737	-0.05469438
19	0xbdef0a5c	-0.11671898
20	0xbf571a14	-0.8402417
21	0x3e8f6a8a	0.2801097
22	0xbed3d11f	-0.41370484
23	0xbf0bc7c2	-0.5460168
24	0xbf27adce	-0.6549958
25	0xbccabef4	-0.024749257
26	0xbf499c8a	-0.78754485
27	0xbdb32290	-0.08746827
28	0xbd194652	-0.03742058
29	0xbea40fd5	-0.3204333
30	0xbeef9416	-0.46792668
31	0x3e1e07ad	0.15432616
32	0x3f346c7e	0.70478046
33	0x3daf034c	0.08545551
34	0x3f33c7f3	0.70226973
35	0x3df222e8	0.11823064
36	0x3f7c8d51	0.9865313
37	0x3e7d1b4a	0.24717441
38	0xbe100d9f	-0.14067696
39	0x3f9bb0a5	1.2163283
40	0x3ec1d170	0.378551
41	0xbeade328	-0.3396237
42	0xbf748187	-0.95510143
43	0x3fb38184	1.40239
44	0x3e8b2a8b	0.27180895
45	0xbf2e9939	-0.6820255
46	0xbd470a2d	-0.04859369
47	0xbe0f0c65	-0.13969572
48	0x3f0b9685	0.5452655
49	0xbebb9c82	-0.36642843
50	0x3e4a63c8	0.19764626
51	0xbf86f827	-1.054448
52	0xbf488707	-0.78331035
53	0xbee231d2	-0.44178635
54	0xbe2826eb	-0.16421096
55	0xbf16b692	-0.5887233
56	0x3f02964c	0.51010585
57	0x3f5b8fa6	0.85766065
58	0xbf55fdc8	-0.83590364
59	0xbd9ed968	-0.07756311
60	0xbf63801d	-0.8886736
61	0xbe23127a	-0.15925017
62	0xbf3f6132	-0.74757683
63	0x3f28a262	0.65872777
64	0xbe0d461d	-0.13796277
65	0x3ee3b13d	0.4447116
66	0x3f8b3f76	1.0878742
67	0x3f68bdec	0.909148
68	0xbe12ab29	-0.14323105
69	0x3d112c9d	0.035442937
70	0x3f12b833	0.57312316
71	0xbe1f6bc1	-0.15568449
72	0xbf5626c3	-0.83652896
73	0x3ef6169f	0.48064134
74	0xbe4a4127	-0.19751416
75	0x3f6239dc	0.88369536
76	0x3f0cb4f4	0.5496361
77	0x3f211cae	0.62934387
78	0x3d9fb697	0.07798498
79	0x3dc94b17	0.098287754
80	0xbe9a1624	-0.30095017
81	0xbf998cd8	-1.1996107
82	0x3f1b604f	0.6069383
83	0xbe29107b	-0.16510193
84	0x3f8fb8b6	1.1228244
85	0xbed8a767	-0.42315218
86	0x3f16c47f	0.5889358
87	0x3e204c6e	0.15654156
88	0xbd598358	-0.053103775
89	0x3f2fefb1	0.68725115
90	0xbf8058e7	-1.0027131
91	0xbfa50ee1	-1.2895166
92	0xbe76ce1d	-0.24102063
93	0x3e2a85d8	0.1665262
94	0xbf8e87c2	-1.113518
95	0x3e780368	0.2422005
96	0x3f29937b	0.6624066
97	0xbf23c6d2	-0.6397525
98	0xbf329706	-0.69761693
99	0xbfbfe392	-1.4991324
100	0xbf982155	-1.1885172
101	0xbf2fba04	-0.6864321
102	0xbf75744f	-0.958806
103	0xbf9bdb85	-1.2176367
104	0x3fb57ef4	1.4179368
105	0x3fb50531	1.4142209
106	0xbf3b5abb	-0.7318532
107	0xbbefbbb9	-0.0073160795
108	0xbee2d1f2	-0.443008
109	0x3d9c6560	0.07636523
110	0xbed325d5	-0.412398
111	0xbe60f624	-0.21968895
112	0x3eaa267d	0.3323249
113	0xbd306181	-0.043061737
114	0xbe4cbef7	-0.19994722
115	0x3e22436b	0.1584603
116	0x3f7e3461	0.99298674
117	0x3e0d4b05	0.13798149
118	0x3ef1e4df	0.47244927
119	0xbebe98f3	-0.37226066
120	0xbeb3afba	-0.35095006
121	0xbf420a82	-0.75797284
122	0xbfba5f79	-1.4560386
123	0xbe894da7	-0.26817057
124	0xbdd22b80	-0.10262203
125	0xbeb23a49	-0.34810093
126	0xbed23358	-0.41054797
127	0xbf1cbf8b	-0.6122977
128	0x3ee64ec8	0.4498198
129	0xbdb428db	-0.08796855
130	0x3f56c885	0.8389972
131	0x3f22697e	0.6344222
132	0x3f56308a	0.83667815
133	0xbe31ec7e	-0.17375371
134	0xbca2ba9f	-0.019864378
135	0x3fb47d92	1.4100821
136	0x3e2e013a	0.16992655
137	0x3d83dce1	0.06438614
138	0xbfb04a4a	-1.3772671
139	0xbca38584	-0.019961126
140	0x3e937f2f	0.2880797
141	0xbf4e205d	-0.8051813
142	0xbf1053d1	-0.56377894
143	0xbf8947b5	-1.0725008
144	0x3f3dddfc	0.74166846
145	0xbf99f350	-1.2027378
146	0xbf97885d	-1.183849
147	0xbfb03799	-1.3766967
148	0xbf9970c5	-1.198754
149	0xbef7ea3e	-0.484209
150	0xbf76d883	-0.9642412
151	0xbfa78ddb	-1.3090166
152	0x3fb7f85d	1.437267
153	0x3fdd4973	1.728804
154	0xbf44f733	-0.76939696
155	0x3e2d88d1	0.16946723
156	0xbf096a7b	-0.536781
157	0xbe9c0a38	-0.30476546
158	0xbedac904	-0.42731488
159	0x3f00ccd7	0.5031256
160	0xbe13a274	-0.1441744
161	0xbe7d73e5	-0.24751242
162	0xbc513219	-0.012768292
163	0xbdd3f26a	-0.10348971
164	0x3facbe88	1.3495646
165	0xbe71b093	-0.23602514
166	0x3eb73eed	0.35790196
167	0xbeade242	-0.33961684
168	0xbf087cf6	-0.53315675
169	0x3e5025cc	0.20326918
170	0xbf4116f9	-0.7542568
171	0x3f879424	1.0592084
172	0x3f45acfd	0.77217084
173	0x3f592a36	0.84830034
174	0x3ef6cc61	0.48202804
175	0x3e8c87a6	0.27447242
176	0xbed9e328	-0.4255612
177	0xbfb50add	-1.414394
178	0x3f918dcc	1.1371398
179	0xbed7f6bd	-0.42180434
180	0x3fbbe271	1.467848
181	0xbf21a79c	-0.63146377
182	0x3f64ec2a	0.8942286
183	0x3eb53a07	0.35395834
184	0xbd8ce6f3	-0.068799876
185	0x3f482205	0.7817691
186	0xbfd6b3f7	-1.6773671
187	0xbecf6ff9	-0.40515116
188	0xbe9db50b	-0.30802187
189	0x3d476879	0.048683617
190	0xbfacf490	-1.3512135
191	0x3f075145	0.5285838
192	0x3f0e1ee2	0.55515873
193	0x3eb0294e	0.34406513
194	0x3ebae98c	0.36506307
195	0x3ef991a0	0.48743916
196	0x3f80d5dd	1.0065266
197	0x3fa21400	1.2662354
198	0x3f25677f	0.6461105
199	0x3e43fe91	0.19140078
200	0xbf0853b1	-0.532527
201	0xbf109262	-0.5647336
202	0x3ea087b9	0.31353548
203	0xbf55b8aa	-0.834849
204	0xbec29206	-0.38002032
205	0x3ea8c1dc	0.32960403
206	0x3db553c2	0.08853866
207	0xbf911948	-1.133584
208	0xbeea7163	-0.45789632
209	0x3f321652	0.6956531
210	0x3f294133	0.6611511
211	0xbf8621f8	-1.0479116
212	0xbf2281db	-0.63479394
213	0x3f2f1602	0.68392956
214	0xbe7b4b54	-0.24540454
215	0x3ec4530b	0.38344607
216	0x3f2c1181	0.6721421
217	0x3f275cfe	0.6537627
218	0xbf07f4e6	-0.5310806
219	0x3f02077b	0.50792664
220	0x3f2eb6eb	0.6824786
221	0xbef84bf3	-0.48495445
222	0xbe312df6	-0.17302689
223	0x3f4d8230	0.80276775
224	0x3e1dfe68	0.1542908
225	0xbf1ec373	-0.6201698
226	0x3f5b832b	0.8574702
227	0xbf1ca483	-0.61188525
228	0x3f3cbe47	0.7372784
229	0xbda57578	-0.08079046
230	0xbe1232f6	-0.14277253
231	0x3f7cff13	0.9882671
232	0xbed97d37	-0.42478344
233	0xbf5aa457	-0.8540701
234	0xbf41b1c7	-0.7566189
235	0xbf2f32a8	-0.6843667
236	0xbe4607ea	-0.19338956
237	0x3f900cc5	1.1253897
238	0x3c9ba288	0.0189984
239	0xbead5039	-0.33850268
240	0xbe0ebc5b	-0.1393904
241	0xbc93c6b0	-0.018039078
242	0xbf08b148	-0.5339551
243	0x3e880f4a	0.26574165
244	0x3e0656e8	0.1311909
245	0xbeab11fe	-0.33412164
246	0xbef7b4e3	-0.48380193
247	0xbc41b718	-0.011823438
248	0xbe3699c6	-0.17832097
249	0xbde8674c	-0.11347827
250	0x3ecf285f	0.40460488
251	0x3f44b07e	0.76831806
252	0x3e59efe7	0.21282922
253	0xbece7cd7	-0.4032962
254	0xbdc46125	-0.09588841
255	0x3f69acdf	0.91279405
