models/17_05_2021/stock_self_attn_MSE_hinge_10000_64_24_6_24_5/6500_recovery.pth (torch, 54734 bytes, 39 tensors)

position.pe f4 [1, 24, 24]
000000 00 00 00 00 00 00 80 3f 00 00 00 00 00 00 80 3f
       0.0 1.0 0.0 1.0
000010 00 00 00 00 00 00 80 3f 00 00 00 00 00 00 80 3f
       0.0 1.0 0.0 1.0
000020 00 00 00 00 00 00 80 3f 00 00 00 00 00 00 80 3f
       0.0 1.0 0.0 1.0
000030 00 00 00 00 00 00 80 3f 00 00 00 00 00 00 80 3f
       0.0 1.0 0.0 1.0
000040 00 00 00 00 00 00 80 3f 00 00 00 00 00 00 80 3f
       0.0 1.0 0.0 1.0
000050 00 00 00 00 00 00 80 3f 00 00 00 00 00 00 80 3f
       0.0 1.0 0.0 1.0
000060 a4 6a 57 3f 41 51 0a 3f 1d 35 e5 3e 30 ea 64 3f
       0.84147096 0.54030234 0.44767085 0.8941984
000070 52 e9 5a 3e eb 14 7a 3f 76 75 cc 3d 98 b8 7e 3f
       0.21378067 0.9768817 0.099833414 0.9950042
000080 1e 0d 3e 3d 6a b9 7f 3f 47 7a b0 3c ca f0 7f 3f
       0.04639923 0.99892294 0.021542681 0.9997679
000090 57 d6 23 3c b9 fc 7f 3f 57 18 98 3b 4b ff 7f 3f
       0.009999833 0.99995 0.0046415734 0.9999892
0000a0 64 31 0d 3b d9 ff 7f 3f 6d 12 83 3a f8 ff 7f 3f
       0.0021544332 0.9999977 0.0009999998 0.9999995
0000b0 5c 5a f3 39 fe ff 7f 3f ab e8 61 39 00 00 80 3f
       0.00046415895 0.9999999 0.00021544348 1.0
0000c0 b7 c7 68 3f 33 11 d5 be fb f4 4c 3f f8 63 19 3f
       0.9092974 -0.41614684 0.8006131 0.59918165
0000d0 be d9 d5 3e b9 99 68 3f f8 6f 4b 3e a5 e5 7a 3f
       0.41767687 0.9085956 0.19866931 0.9800666
0000e0 b7 d8 bd 3d d1 e5 7e 3f cb 6f 30 3d 2c c3 7f 3f
       0.09269851 0.9956942 0.043075364 0.99907184
0000f0 3e d4 a3 3c e5 f2 7f 3f ec 17 18 3c 2d fd 7f 3f
       0.019998666 0.9998 0.009283047 0.9999569
000100 4e 31 8d 3b 64 ff 7f 3f 68 12 03 3b df ff 7f 3f
       0.004308856 0.9999907 0.0019999985 0.99999803
000110 5b 5a 73 3a f9 ff 7f 3f ab e8 e1 39 ff ff 7f 3f
       0.00092831784 0.9999996 0.00043088695 0.99999994
000120 c3 81 10 3e 26 70 7d bf ce f0 7b 3f 16 a2 35 3e
       0.14112 -0.9899925 0.98414314 0.17737612
000130 c8 2d 1a 3f 56 5d 4c 3f 6c 4e 97 3e ef 90 74 3f
       0.60226107 0.7982992 0.2955202 0.9553365
000140 17 21 0e 3e a8 85 7d 3f bd 46 84 3d 29 77 7f 3f
       0.1387981 0.9903207 0.06458805 0.997912
000150 1f b9 f5 3c 83 e2 7f 3f d5 22 64 3c a6 f9 7f 3f
       0.0299955 0.99955004 0.01392432 0.9999031
000160 bf c9 d3 3b a2 fe 7f 3f 92 9b 44 3b b5 ff 7f 3f
       0.006463259 0.99997914 0.0029999954 0.9999955
000170 c2 83 b6 3a f0 ff 7f 3f 7f 6e 29 3a fd ff 7f 3f
       0.0013924765 0.99999905 0.00064633036 0.9999998
000180 cf bd 41 bf 30 55 27 bf e7 9c 75 3f 6c 5d 90 be
       -0.7568025 -0.6536436 0.9594254 -0.28196275
000190 be 4d 42 3f f9 ad 26 3f d7 61 c7 3e a7 ca 6b 3f
       0.75899875 0.6510921 0.38941833 0.921061
0001a0 73 07 3d 3e b2 99 7b 3f df 45 b0 3d cc 0c 7f 3f
       0.18459873 0.98281395 0.08607077 0.996289
0001b0 db cb 23 3d 94 cb 7f 3f 3e 16 98 3c b4 f4 7f 3f
       0.039989334 0.9992001 0.018565293 0.9998276
0001c0 f8 30 0d 3c 91 fd 7f 3f 57 12 83 3b 7a ff 7f 3f
       0.008617632 0.99996287 0.003999989 0.999992
0001d0 54 5a f3 3a e3 ff 7f 3f a9 e8 61 3a fa ff 7f 3f
       0.0018566349 0.9999983 0.0008617738 0.99999964
0001e0 10 7c 75 bf 2c 3c 91 3e 0a 50 3b 3f cb 7f 2e bf
       -0.9589243 0.2836622 0.73169005 -0.68163747
0001f0 cf 71 61 3f 63 93 f2 3e 43 77 f5 3e 40 a9 60 3f
       0.88064283 0.47378072 0.47942552 0.87758255
000200 93 85 6b 3e ff 22 79 3f 0e 30 dc 3d 21 84 7e 3f
       0.23000173 0.97319025 0.10751353 0.9942036
000210 f4 b6 4c 3d 19 ae 7f 3f 3c 1a be 3c 5a ee 7f 3f
       0.049979165 0.99875027 0.023205869 0.9997307
000220 e6 7c 30 3c 33 fc 7f 3f dd d6 a3 3b 2e ff 7f 3f
       0.010771966 0.999942 0.004999979 0.9999875
000230 71 18 18 3b d3 ff 7f 3f 69 31 8d 3a f6 ff 7f 3f
       0.0023207928 0.9999973 0.0010772172 0.9999994
000240 8c 0f 8f be b8 cd 75 3f c6 c0 b2 3e 2d e4 6f bf
       -0.2794155 0.96017027 0.349127 -0.93707544
000250 63 29 76 3f 8f 93 8c 3e 68 8c 10 3f 32 49 53 3f
       0.961569 0.27456328 0.5646424 0.8253356
000260 e9 c0 8c 3e e9 22 76 3f 09 00 04 3e 38 dd 7d 3f
       0.2749093 0.9614702 0.12890638 0.9916568
000270 d1 9c 75 3d 12 8a 7f 3f 2b 1d e4 3c 96 e6 7f 3f
       0.059964005 0.99820054 0.02784594 0.9996122
000280 9d c8 53 3c 86 fa 7f 3f 58 9b c4 3b d2 fe 7f 3f
       0.012926248 0.99991643 0.0059999637 0.999982
000290 b7 83 36 3b bf ff 7f 3f 7d 6e a9 3a f2 ff 7f 3f
       0.0027849504 0.9999961 0.0012926605 0.99999917
0002a0 46 30 28 3f bd ff 40 3f 9f c6 db bd 8d 85 7e bf
       0.6569866 0.75390226 -0.10731243 -0.9942253
0002b0 41 7f 7f 3f 23 4f 80 3d 72 eb 24 3f b3 cc 43 3f
       0.9980355 0.06265094 0.6442176 0.7648422
0002c0 6a 71 a3 3e 18 9b 72 3f 5d d8 19 3e 25 18 7d 3f
       0.31922466 0.94767904 0.15023942 0.98864967
0002d0 32 3e 8f 3d 81 5f 7f 3f 6e 0f 05 3d 69 dd 7f 3f
       0.06994285 0.997551 0.032485418 0.9994722
0002e0 15 14 77 3c 8c f8 7f 3f c5 5f e5 3b 65 fe 7f 3f
       0.0150804715 0.9998863 0.006999942 0.9999755
0002f0 f8 ee 54 3b a8 ff 7f 3f 91 ab c5 3a ed ff 7f 3f
       0.003249107 0.99999475 0.0015081038 0.99999887
000300 95 46 7d 3f f6 fd 14 be e3 81 0a bf 62 4b 57 bf
       0.98935825 -0.14550003 -0.5410444 -0.840994
000310 e9 04 7d 3f 59 cf 1b be a5 a4 37 3f 5f 5b 32 3f
       0.9883562 -0.15215816 0.717356 0.6967067
000320 cb c7 b9 3e 80 8d 6e 3f 69 9e 2f 3e ff 34 7c 3f
       0.36285242 0.9318466 0.17150272 0.98518366
000330 50 aa a3 3d 65 2e 7f 3f 89 0f 18 3d d3 d2 7f 3f
       0.07991469 0.9968017 0.03712419 0.9993107
000340 a1 2f 8d 3c 44 f6 7f 3f 12 12 03 3c e7 fd 7f 3f
       0.017234625 0.99985147 0.007999914 0.999968
000350 38 5a 73 3b 8c ff 7f 3f a4 e8 e1 3a e7 ff 7f 3f
       0.0037132632 0.9999931 0.001723547 0.9999985
000360 32 01 d3 3e d5 3f 69 bf f1 3b 5c bf 9f 82 02 bf
       0.4121185 -0.91113025 -0.86028963 -0.5098056
000370 af d7 6e 3f 01 49 b8 be 1c 88 48 3f d5 21 1f 3f
       0.9329786 -0.35993198 0.78332686 0.62161
000380 ba b7 cf 3e 5c fc 69 3f 97 4f 45 3e e1 33 7b 3f
       0.4056986 0.91400695 0.19268642 0.98126036
000390 3e 12 b8 3d c2 f6 7e 3f cd 0e 2b 3d d3 c6 7f 3f
       0.089878544 0.9959527 0.041762162 0.99912757
0003a0 0c d5 9e 3c ae f3 7f 3f 3a 74 13 3c 59 fd 7f 3f
       0.019388698 0.999812 0.008999879 0.9999595
0003b0 ba e2 88 3b 6e ff 7f 3f b6 25 fe 3a e1 ff 7f 3f
       0.0041774185 0.9999913 0.0019389901 0.99999815
0003c0 f8 44 0b bf 64 cd 56 bf d1 5b 7f bf 7e e0 90 bd
       -0.5440211 -0.8390715 -0.99749476 -0.070740685
0003d0 61 9f 55 3f 82 12 0d bf a4 6a 57 3f 41 51 0a 3f
       0.8344632 -0.55106366 0.84147096 0.54030234
0003e0 1e 35 e5 3e 30 ea 64 3f 53 e9 5a 3e eb 14 7a 3f
       0.44767088 0.8941984 0.21378069 0.9768817
0003f0 76 75 cc 3d 98 b8 7e 3f 21 0d 3e 3d 6a b9 7f 3f
       0.099833414 0.9950042 0.04639924 0.99892294

r_cell.w_qs.weight f4 [24, 24]
000000 31 55 d0 bd 6a a8 1c bf da 38 fd bd 34 21 2e 3e
       -0.10172499 -0.6119448 -0.12364359 0.17004853
000010 8d 27 1e bd 9d 43 64 bf 31 24 05 bd c4 bf be 3d
       -0.038611937 -0.8916567 -0.032505218 0.0931392
000020 8c b2 8c be 6e c6 43 be 99 ed fa be d4 da 39 be
       -0.2747997 -0.19118664 -0.49009398 -0.18149883
000030 9d c2 ec be 7b fa 69 be f3 19 f8 be b9 61 4a bf
       -0.46242228 -0.22849457 -0.48457298 -0.7905536
000040 36 89 37 be 2c bb 33 3e d9 91 64 be 5d c6 20 3e
       -0.17923436 0.17551869 -0.22321261 0.1570067
000050 87 64 1d bd 02 b2 0e 3e 73 1f 0b bf 3e 02 96 3b
       -0.03842595 0.13935092 -0.5434486 0.004577904
000060 65 94 e4 be c8 21 9b be 39 51 05 bd 8d f4 34 3f
       -0.44644466 -0.3029921 -0.032548163 0.70685655
000070 24 55 fa 3e 6d e5 37 3f e4 03 f3 3e ac 5f 00 bf
       0.48893082 0.7183445 0.47463906 -0.50145984
000080 0c 4b 98 3d 1e 02 27 3e b1 4a b5 3d 64 c6 11 3f
       0.07436189 0.16309401 0.08852137 0.56943345
000090 02 f7 19 bd 44 d0 05 3f 60 b5 49 be 58 0c e5 be
       -0.03758908 0.52270913 -0.19698095 -0.4473598
0000a0 c0 72 d5 bc ef 5f 46 3f 30 ad e0 3c 32 18 6a 3f
       -0.026055694 0.77490133 0.027426332 0.9144317
0000b0 78 96 51 be 55 6f 51 bf cd 54 08 bf fa a4 14 bc
       -0.20467556 -0.81810504 -0.53254396 -0.009072537
0000c0 a8 f7 9c be 6d e4 85 3c f1 44 39 bf 77 4c 97 be
       -0.30657697 0.016344273 -0.7237082 -0.29550526
0000d0 1b f4 a3 be e9 7f ff be 09 53 45 bf 2b 4c 2b 3d
       -0.32022175 -0.49902275 -0.77079827 0.041820686
0000e0 62 b2 9e 3f a6 b8 4d be 0f 5c 41 3d b7 da 01 be
       1.2398188 -0.20089969 0.047206935 -0.1268109
0000f0 76 68 83 be 18 f8 e3 bd 35 c6 6c bd 6c 31 12 be
       -0.25665635 -0.111313045 -0.057806212 -0.14276665
000100 d8 50 21 3e 51 37 05 bc 66 bd 2f 3e 31 a5 20 bf
       0.15753496 -0.008130864 0.17162094 -0.6275206
000110 68 8c e4 be 96 94 9e be 82 0a 29 be 8e 0e a9 bc
       -0.4463837 -0.30972737 -0.16507915 -0.020636823
000120 59 c8 ae be 7a be 49 3d 39 e0 d6 bd ae 27 e8 bd
       -0.34137228 0.04925392 -0.10491986 -0.11335693
000130 17 ba 80 3e ef 20 85 3e 41 10 b0 bd 14 c3 3d 3f
       0.25141975 0.2600169 -0.0859685 0.7412579
000140 55 56 6d 3e ff cb d4 3c 9f bf 2f bf f4 55 6d 3d
       0.23177464 0.02597618 -0.68651766 0.0579433
000150 51 e7 81 be 54 72 05 3e ac ce 46 bd f3 a2 26 bc
       -0.25371793 0.13031894 -0.04853694 -0.010170686
000160 9a d8 c4 3e e8 41 0a bf e1 50 11 3f f3 87 8e 3c
       0.38446504 -0.54006815 0.56764036 0.01739881
000170 7f 6f 05 be 46 de c6 be 0d 15 d6 bd 74 47 22 3e
       -0.13030814 -0.38841456 -0.10453234 0.1584757
000180 29 4b 43 3f 14 ac 17 3f 21 07 40 3e 83 53 9d be
       0.7628656 0.59246945 0.1875272 -0.30727777
000190 2a 62 29 3e ce 13 5b 3e c3 b6 9b 3d 5e 8c fa 3d
       0.16541353 0.21394274 0.076032184 0.12233804
0001a0 da 83 50 3e 23 79 37 bf 6c 5e b6 be 3d 72 86 3d
       0.20362797 -0.71669215 -0.35618913 0.06564758
0001b0 b1 5f f5 3e 48 fb 1e bf d0 5e 72 be 3a 72 06 3e
       0.4792457 -0.62102175 -0.2366898 0.13129511
0001c0 23 4a 03 bd 58 ee dd be ec 2b 3e bd 88 1f 7f bc
       -0.032053124 -0.43345904 -0.046428606 -0.0155714825
0001d0 e9 79 2a bf 8a 2b 9c 3e 1f 94 13 bf b6 52 92 bd
       -0.6659227 0.30501968 -0.5764789 -0.07144682
0001e0 14 96 27 bf 10 af 49 be 16 38 a5 3d e5 69 fb be
       -0.65463376 -0.19695687 0.08067338 -0.4910423
0001f0 21 61 e0 3e 37 7c b3 3c 8e 0d 49 3e d5 aa 3e bf
       0.43824103 0.021909816 0.19634077 -0.7447942
000200 ee b4 ea 3e 59 0e 06 3e 27 8b 63 be 79 d4 3a 3f
       0.45841163 0.1309141 -0.22221051 0.7298046
000210 c9 c7 b4 be 9a ab f8 3e ad db a9 3d 4b b1 6a 3d
       -0.35308674 0.48568422 0.08293853 0.057297986
000220 0f 44 b4 3e 0a 98 f9 be ac 2f 92 be 5e 16 0e bf
       0.35208175 -0.4874881 -0.28551996 -0.5550288
000230 01 72 ce be ae 5b 67 be 43 76 89 3e 06 26 95 3d
       -0.40321353 -0.22593567 0.2684804 0.07282643
000240 e9 23 a5 bd d9 90 d2 3d 2d 80 cd be 9a 22 89 be
       -0.0806349 0.10281534 -0.40136853 -0.2678421
000250 88 4e 8c bd 0f 96 2a 3e 4d 04 1b bf d4 10 43 bf
       -0.06850916 0.16658805 -0.6055344 -0.7619755
000260 db 26 f9 3d 80 83 3a be 50 0a 99 bc bb ad 97 3e
       0.12165614 -0.18214226 -0.018681675 0.29624733
000270 f0 75 18 3e 59 09 74 be 69 e6 8d 3e ef 88 42 3d
       0.1488874 -0.23831691 0.27714851 0.04749387
000280 14 3e ad 3e 97 ff 8c 3e df 07 b9 be 29 51 46 be
       0.33836424 0.2753875 -0.36138818 -0.19366898
000290 aa 92 8c 3e 53 5a 1a 3f 04 1d a6 3e 0a 6a 85 be
       0.27455646 0.60294074 0.32444012 -0.26057464
0002a0 92 01 2f 3e ad 4b 24 be 53 26 48 3e f3 6d a7 3d
       0.17090443 -0.16044493 0.1954587 0.08175268
0002b0 2c 4a e5 be ea 9b ce 3e a3 e1 87 bd 42 fb 1a 3f
       -0.4478315 0.40353328 -0.06634834 0.6053964
0002c0 33 ea bc 3d 39 b1 cd 3c ce 06 82 3f 31 7d 2b 3e
       0.092243575 0.02510892 1.0158327 0.16746975
0002d0 da 0b a3 3e 02 b0 81 be a0 56 1f 3e e5 f7 3e 3d
       0.3184498 -0.25329596 0.15560389 0.04662313
0002e0 68 7d e1 3e 4c 02 73 bd 7a 60 0a 3f 64 53 9e 3e
       0.4404099 -0.059328362 0.5405346 0.30922997
0002f0 d4 ec fe bc 63 e0 ce bd 21 ef d7 be 5c 62 15 3f
       -0.031118788 -0.10101392 -0.42174628 0.5835321
000300 21 47 8f 3d 0a 35 35 bf 4f 67 77 3e 26 df 99 be
       0.06995989 -0.70784056 0.24160503 -0.3005306
000310 c5 2f 33 be 79 be ac be 57 e0 05 3e 6a 53 09 bf
       -0.17498691 -0.3373907 0.1307386 -0.53642905
000320 c7 55 fe 3e 36 a0 0d be e8 42 4f 3d d4 47 1b bf
       0.49674818 -0.13830647 0.050600916 -0.60656476
000330 23 59 f0 be df 80 a7 bd dd 85 8a be 00 6f 70 bc
       -0.46943006 -0.08178877 -0.27055255 -0.014674902
000340 06 ff d6 bd 00 7f 55 bf 25 b6 56 3e 69 42 cf be
       -0.104978606 -0.8339691 0.2096792 -0.40480354
000350 64 12 f1 3c fc fe 8e bd 27 a4 03 3e d5 b3 39 be
       0.029427715 -0.06982228 0.12855588 -0.18135007
000360 29 a5 1c 3f 27 63 27 3e 6a d7 06 3e 04 a0 85 be
       0.61189514 0.16346417 0.13168111 -0.26098645
000370 00 f2 b1 3d 3c 4a bd 3e eb d0 05 bf a6 21 0e bd
       0.08688736 0.369707 -0.5227191 -0.03470006
000380 14 70 eb 3d b0 a6 be bd e4 2f 23 3f c9 36 8a be
       0.114959866 -0.09309137 0.6374495 -0.26994923
000390 85 31 41 bd be 0e 9e be 4c 26 01 3d cb ca 26 be
       -0.047166366 -0.30870622 0.031530663 -0.16288297
0003a0 ff 64 ab 3e ba f4 2a 3d ca 3e 34 be 29 9a b4 bd
       0.3347549 0.041737296 -0.17602077 -0.08818466
0003b0 65 40 d2 be 98 0b 08 3e fd 4c 17 be 56 f0 50 3e
       -0.41064754 0.13285673 -0.14775462 0.20404181
0003c0 db 73 02 3f f3 30 a9 be 64 8f 13 bf 46 f7 1a bc
       0.5095803 -0.33045158 -0.5764067 -0.009458369
0003d0 7d df 6d bf df a3 a4 3e cd b5 73 3d 30 49 88 be
       -0.9291914 0.32156274 0.05949955 -0.26618338
0003e0 bf 21 97 bd f7 50 5b be ef dd f4 3e be 75 dc 3e
       -0.073794834 -0.21417604 0.47825572 0.4305858
0003f0 70 c4 b0 3e 8a b5 07 bf b5 93 f1 3e 74 fb f3 be
       0.3452487 -0.5301138 0.47183004 -0.4765278

r_cell.w_qs.bias f4 [24]
000000 05 12 73 bd 9e ed 63 3e c1 0b 1c 3d fb e7 3e be
       -0.059343357 0.22258613 0.038097147 -0.18643181
000010 0c a9 95 be e3 e5 7b be 78 a1 53 be 13 b2 92 3e
       -0.29230535 -0.24599414 -0.20667064 0.28651485
000020 58 0d 29 bf e7 36 4c bd db 52 25 be 63 18 db be
       -0.66035986 -0.049857046 -0.16144888 -0.42792043
000030 ed 68 6d bd 4e 89 51 3e 56 1b 64 3d ca 5c 6d 3d
       -0.057961393 0.20462534 0.055690132 0.05794982
000040 30 ff ce 3e e3 8f ef be fc d0 94 3b 8b 21 ee 3c
       0.40429068 -0.46789464 0.0045415144 0.029068729
000050 97 b8 05 3c 7f d3 5e 3e f2 fb c8 3e 43 d7 29 3f
       0.008161685 0.21760367 0.3925472 0.6634409

r_cell.w_ks.weight f4 [24, 24]
000000 98 7c de 3d 2f 2a d9 3d b2 1f 9b 3e 43 c0 8c bd
       0.10863608 0.10603749 0.3029762 -0.068726085
000010 e2 66 11 be b6 6f e3 3e da ca bb be 85 0f 84 bd
       -0.14199403 0.44421166 -0.366782 -0.064482726
000020 ee 4a 6d 3e d1 d2 33 be 58 57 d4 3c 3a 0f 0c 3f
       0.23173115 -0.17560889 0.025920555 0.54710734
000030 63 28 bb 3e 8b 71 4d 3f 40 f8 d5 3e c1 05 99 bf
       0.3655425 0.8025138 0.41790962 -1.1954881
000040 61 53 3e bd 65 af 6a be 08 34 3f be 3d 1d 6d be
       -0.046466235 -0.2291847 -0.18672192 -0.23155685
000050 1b 87 0e 3e 5f 64 06 3d 63 8a 5f 3f b8 63 e6 3e
       0.13918726 0.032810565 0.87320536 0.44997954
000060 3f a5 89 bd e1 75 9b be c3 af 21 3f 15 dd a5 3d
       -0.06720971 -0.30363372 0.63158816 0.08098809
000070 71 36 d4 be 93 c8 69 be 97 1b 38 3f 5f 91 00 bf
       -0.41447785 -0.22830419 0.719171 -0.5022182
000080 29 e5 62 be 4b 26 c7 3e aa 59 4f 3e c9 04 1f 3e
       -0.2215773 0.38896403 0.20249048 0.15529169
000090 6a c2 a1 bd 45 02 58 3e a1 4f 96 3e 4c fa b6 bd
       -0.0789841 0.21094616 0.29357627 -0.08934459
0000a0 5d 88 35 bf 06 00 01 bf 46 72 33 bf 37 a2 d4 3e
       -0.709112 -0.5039066 -0.7009624 0.4153001
0000b0 b7 d9 dd be d6 a9 0d bf 5d a0 19 be cc 22 71 be
       -0.43330166 -0.55337274 -0.1500258 -0.2354843
0000c0 db 59 14 3f c3 ad f7 3e 1d 4c dd bc a0 d8 82 bc
       0.5794961 0.48374757 -0.027013833 -0.015972435
0000d0 e1 59 fb be 24 45 2f 3e 68 78 69 be 84 89 9c be
       -0.4909201 0.17116219 -0.22799838 -0.30573666
0000e0 c7 17 e6 3c de 78 14 3f 61 df ae bd 87 25 2d be
       0.02808751 0.5799693 -0.085387 -0.16908847
0000f0 4f 46 83 3e ea 2c 4c bf 6b ad 15 be bb e5 48 be
       0.2563958 -0.79756033 -0.14616935 -0.19618885
000100 78 91 cc be e1 af 1e be 66 cb d6 bd 0e da 15 bf
       -0.39954734 -0.1549678 -0.10488014 -0.5853585
000110 75 a0 f8 3d 09 f9 bd 3e e2 a2 3f 3f eb 35 44 3f
       0.1213998 0.3710406 0.74857914 0.7664477
000120 6e d6 aa 3e 44 6e 0f 3f 61 8a 2e 3d 0d 26 64 3d
       0.33366722 0.56027627 0.042612437 0.05570035
000130 f7 6f 1a 3f 84 7f 01 3f 1d 7f 17 bf 9c 9c 71 be
       0.60327095 0.505852 -0.59178334 -0.23594898
000140 1b 51 01 3f d2 17 f7 be 68 87 8e 3e 8a 8a 3d be
       0.5051438 -0.4826036 0.27837682 -0.1850988
000150 e4 8e 93 3c 68 c1 a0 bc ed 72 06 bf 06 fa ef bc
       0.018012471 -0.019623473 -0.5251911 -0.029294025
000160 de 50 c6 3e 5f be d5 3e 81 2c c7 3d a1 d8 44 3c
       0.38733572 0.41746804 0.09725285 0.012014539
000170 aa 9f c1 bd 99 87 af be ad ac e7 3e e6 ca 10 3f
       -0.09454282 -0.3428314 0.4524893 0.565596
000180 22 ec 23 3f bc 51 3b 3f 36 6d 73 3d 2f e8 ad be
       0.64032185 0.7317159 0.059430324 -0.33966205
000190 29 8e ac be e1 45 0d bf d3 02 11 3f 24 a4 84 3d
       -0.3370221 -0.5518475 0.56644934 0.0647662
0001a0 53 69 22 3f 8b 09 fd 3d 08 77 4f 3d 00 c2 8e 3d
       0.6344196 0.12355336 0.050650626 0.06970596
0001b0 e6 b7 85 3e c6 d7 7e be 50 39 29 be c4 32 e4 3e
       0.26116866 -0.24886999 -0.16525769 0.4456998
0001c0 71 2d cd 3e 2e c9 be be e4 fb f2 3e 5d 28 8f be
       0.40073732 -0.37262863 0.47457802 -0.27960482
0001d0 2f 82 97 3e 84 de 24 3e ad 9b 3d 3e 7b c0 be 3e
       0.2959151 0.16100508 0.18516417 0.37256226
0001e0 82 e3 32 bd 4c 4c 02 3f 57 70 f6 be df b5 a2 bd
       -0.043674 0.5089767 -0.48132583 -0.079448454
0001f0 e6 9e 81 3e c9 0d a5 be a0 a1 32 be 17 20 0f 3e
       0.25316542 -0.3223708 -0.17444468 0.13977085
000200 76 da 95 3d 64 0a a2 3e dd 36 b1 3e 05 fe 0d 3f
       0.07317059 0.31648552 0.3461217 0.5546573
000210 f4 35 e0 3e 52 75 03 3d d6 76 cc be 63 4e 11 3f
       0.43791163 0.032094307 -0.39934415 0.56760234
000220 d2 de f6 3e 21 27 97 3e 98 dd 4e bf 54 94 04 bf
       0.48216873 0.2952204 -0.80806875 -0.5178883
000230 e0 d3 b2 bd ca 64 9e 3e 92 2e 15 3d 71 70 6d 3e
       -0.08731818 0.3093627 0.036421366 0.23187424
000240 a1 3c 0a 3f c2 e4 8b 3e 8f 39 22 3d 2f bc 97 be
       0.5399876 0.27322966 0.039605673 -0.2963576
000250 32 4a 27 bd 46 8f ec be 22 25 84 3d 8f 8e 02 be
       -0.040842243 -0.4620306 0.06452395 -0.12749694
000260 a5 28 ec bd 52 67 b7 be f2 b3 e7 3e 6b 6e bf 3e
       -0.1153119 -0.35821015 0.45254475 0.3738893
000270 39 7c 92 be 0a 9f 67 be 74 92 0b bc 0b 94 4c bd
       -0.286104 -0.22619262 -0.008518804 -0.049945872
000280 79 fb 28 bf f1 57 16 bf ab f5 a9 bb 73 1c 3e 3e
       -0.66008717 -0.5872794 -0.0051867566 0.1856554
000290 5d 9e bb 3f aa 76 de 3e 43 1e 0b 3f a1 be e8 be
       1.4657704 0.43449908 0.5434305 -0.45457938
0002a0 b5 3e 98 be 73 f0 74 be fe c3 9e 3e 98 b8 d3 be
       -0.29735342 -0.23919849 0.31008905 -0.4135177
0002b0 d0 4f c0 be 66 b8 6e be a3 15 84 3d ce f2 84 3d
       -0.37560892 -0.2331253 0.064494394 0.06491624
0002c0 15 cf e6 3e 10 87 87 3e a1 59 b1 3d 66 44 c8 be
       0.45079866 0.26470232 0.086596735 -0.39114684
0002d0 6e 55 94 be 7d 2d b4 3d bd ae 20 bf 37 bc 30 3e
       -0.28971428 0.08797739 -0.6276663 0.17259298
0002e0 6a 72 0f bf 38 e8 11 bf b0 41 bb be c2 9d db 3d
       -0.56033957 -0.5699496 -0.36573553 0.10723449
0002f0 9c 13 58 bf ce ab a9 bf 9c 86 08 bf b9 d0 c4 3c
       -0.8440492 -1.3255556 -0.533304 0.024025308
000300 75 da 86 3c e8 e7 37 be 61 2e 04 3b 50 f3 81 be
       0.01646159 -0.17959559 0.0020169246 -0.25380945
000310 5d d7 a0 be 0a d0 6e be 74 2f ae be aa 47 f5 bd
       -0.3141431 -0.23321548 -0.3402058 -0.119765595
000320 e5 15 1d be 33 59 dd be b8 71 45 be aa 83 24 3d
       -0.15340383 -0.43232116 -0.19281662 0.040164627
000330 c3 af a6 bd 62 57 07 3d b1 92 93 be 19 9f b8 be
       -0.08138993 0.03304232 -0.28822854 -0.36058882
000340 89 58 4d 3f ed 50 35 3d b0 59 37 3f 6f 7a 54 bf
       0.8021322 0.04426663 0.7162123 -0.8299932
000350 18 96 0f be 5b a9 96 3e a9 68 25 3c fa ae 88 be
       -0.140221 0.29426083 0.010095754 -0.26695997
000360 77 5d aa 3e ec 6e be 3d e6 79 87 be 71 c6 d6 be
       0.33274433 0.092985004 -0.2646019 -0.41948274
000370 be 9e 24 3f cb e2 ea be 15 57 01 bf 70 45 b5 bd
       0.6430472 -0.45876154 -0.505235 -0.08851135
000380 6b c2 64 3f 72 e5 b9 3d 63 7b 05 bf 56 a1 49 3e
       0.8935916 0.09076966 -0.521414 0.19690451
000390 37 fe 0f 3d 03 24 76 3d 99 36 35 bc 42 7d 9e be
       0.035154548 0.060092937 -0.01106038 -0.3095494
0003a0 ea d9 82 3e 23 84 33 3e 7c ad 36 3f c7 b7 14 3d
       0.2555688 0.17530875 0.71358466 0.036308076
0003b0 48 0b 25 3f 35 98 d9 3e 6a 39 85 3e 01 9a c0 3e
       0.6447034 0.42498937 0.26020366 0.37617496
0003c0 90 c0 d6 3c c2 10 8d 3e 24 d1 01 3f d5 21 21 bf
       0.026214868 0.27551848 0.5070975 -0.6294225
0003d0 b4 3b 30 3d 68 c3 03 bf 5b cb 21 3f e2 a2 b8 3d
       0.043025687 -0.5147004 0.6320092 0.090154424
0003e0 00 09 73 be f5 cc 74 be 57 13 47 3e 79 8b f6 be
       -0.23733902 -0.2390631 0.19440971 -0.48153284
0003f0 e1 23 85 be 3d c1 94 3d d5 0e 95 bf 3e e9 b5 be
       -0.26003936 0.0726342 -1.1645151 -0.35529512

r_cell.w_ks.bias f4 [24]
000000 79 9a 1e 3e 6f 65 5a 3e d1 d6 c3 3a ab 4e 1f 3e
       0.15488614 0.21327756 0.001494134 0.15557353
000010 c7 95 21 3e a6 2f cf 3e a2 84 03 be f9 7d ce 3c
       0.15779792 0.4046604 -0.12843564 0.025206553
000020 d6 ed 39 3e 1f d8 72 bd e6 ba 02 3e 77 a0 ae bb
       0.18157133 -0.05928814 0.12766609 -0.0053291875
000030 1c 63 b1 bc 60 14 59 3e d8 88 af 3d 7d fe 47 bd
       -0.021653704 0.21199179 0.08571023 -0.048826683
000040 0e 0b 29 be 27 b6 93 3c 89 42 db 3d 02 05 c2 3d
       -0.16508123 0.018031193 0.1070605 0.094736114
000050 41 1c 2c 3d 1b 31 43 be a9 80 0f 3e d8 e7 e6 bc
       0.042019133 -0.19061701 0.14013924 -0.028186724

r_cell.w_vs.weight f4 [24, 24]
000000 d9 7d 1c bd c1 38 48 3c b3 59 f3 be 58 26 a7 3d
       -0.038205955 0.012220562 -0.47529373 0.0816161
000010 67 31 3c be 9a 33 fb 3d fc 95 9d 3e 2a a6 0a 3e
       -0.1837822 0.122657016 0.30778491 0.13539949
000020 75 df 07 3e 1a 0a 05 3f cf 31 e0 3d 31 5b 7f be
       0.13268836 0.5196854 0.10947 -0.2493713
000030 ed be 8e be 77 8d 8e 3e 2c 5a 01 bd 88 77 91 be
       -0.2788004 0.27842304 -0.031580135 -0.28411508
000040 a3 fa 3b be c2 ea 49 bd e6 93 97 be ee 55 b4 3e
       -0.18357329 -0.049296148 -0.29605025 0.3522181
000050 03 47 cc bd 2d 8a 35 3e ce 00 8f 3e f6 ca 19 3f
       -0.09974482 0.17728491 0.279303 0.6007532
000060 d3 c2 ba bd f6 7d 38 3d d0 99 f2 bd 82 5d 89 3e
       -0.09119191 0.045042 -0.11845744 0.26829153
000070 32 57 01 bf bb 52 00 3e 69 87 cd be 67 0b 2e 3f
       -0.50523674 0.12531559 -0.40142372 0.6798615
000080 cf 74 95 3d 19 c8 80 be e6 3f 07 3e d4 f8 2d be
       0.0729767 -0.25152662 0.13207969 -0.16989452
000090 90 a9 0b 3e ba c7 fe 3e f3 a9 ba bd 33 0e 56 3e
       0.13638902 0.49761754 -0.091144465 0.20903854
0000a0 e6 9f b0 3e 87 a6 bd 3d ba 24 ac be 2e b9 d8 3c
       0.34496993 0.09260278 -0.3362177 0.026455488
0000b0 75 35 3b 3e a7 ed ab 3e 29 f1 ca be 9a 36 fa bd
       0.18282111 0.33579752 -0.39637116 -0.12217446
0000c0 b7 2a 1a be fe c5 03 bd d9 3c 21 3f 39 57 22 3e
       -0.15055357 -0.032171242 0.6298347 0.15853585
0000d0 7f 12 c6 3d 25 01 42 bf 7d bf 3f 3c e2 bb e6 bd
       0.096714966 -0.75782996 0.011703369 -0.112663046
0000e0 43 2d 13 3b f9 d0 6e 3e f1 aa 90 3d df 39 f3 3d
       0.0022457398 0.23321904 0.070638545 0.118762724
0000f0 7d 49 71 3e 85 50 f8 bd a6 bb 37 bf 94 59 b9 be
       0.2356319 -0.12124733 -0.71770704 -0.36201155
000100 3c d5 06 bf 20 f6 0e be 4e 4b 08 be f8 fc b0 bb
       -0.5266912 -0.13961077 -0.13309976 -0.00540125
000110 eb 8c 98 bd 3f 16 07 be 43 0d 8d bd 5c 9e 9e be
       -0.07448753 -0.1319208 -0.06887295 -0.30980194
000120 3d 13 6a 3e 7c aa 19 bd 81 bc 89 bd c5 41 3a be
       0.22858901 -0.037516102 -0.067254074 -0.18189152
000130 9d cc 2c be bf b1 8f 3e 54 20 a3 bd a1 0d 80 be
       -0.16874929 0.28065297 -0.079651505 -0.25010398
000140 ae 72 fa 3e 91 28 07 bd 75 bc d2 3d 57 93 07 3f
       0.4891562 -0.03299767 0.102898516 0.529592
000150 f0 79 32 3e d1 cf 9c be c7 82 ae 3e 48 ba 84 be
       0.17429328 -0.306273 0.3408415 -0.2592337
000160 20 5b 2d 3e e9 e2 c6 be b5 a1 ea 3c 5c 64 73 3e
       0.16929293 -0.38844994 0.028641561 0.23768753
000170 32 38 fb bd 31 89 89 be 85 78 18 3e df fd 98 bd
       -0.12266578 -0.2686248 0.14889725 -0.07470297
000180 3d 92 07 bf 6e d6 bd bc e6 11 22 be 5e 86 24 3e
       -0.52957517 -0.023173537 -0.1582714 0.16066882
000190 88 c0 9a bd 79 b8 2b bf 48 75 5c 3e b8 62 7b 3e
       -0.07556254 -0.6707836 0.21529114 0.24549377
0001a0 e6 59 20 be 5e ff 2c bf 4f 5f 10 be 65 16 05 bf
       -0.15659294 -0.6757716 -0.14098857 -0.51987296
0001b0 f9 e3 42 bc cf 69 1f 3e 33 db 13 3d 2a f1 05 bf
       -0.011895173 0.15567707 0.036097717 -0.5232111
0001c0 65 ff cc be 03 5b f3 be 3a a1 96 3e 72 94 2c be
       -0.400386 -0.47530374 0.2941988 -0.16853502
0001d0 0a 6c b2 bc 4f 6a ba be 83 f0 8d 3e 31 e3 bf 3c
       -0.021780033 -0.36409232 0.27722558 0.023423763
0001e0 e4 55 94 bc 9e bf 74 3d f4 b7 01 3f 14 da a8 3e
       -0.018107362 0.059753053 0.50671315 0.3297888
0001f0 4b 51 0a 3f 43 8d 74 3f 41 8a 42 be 8a fe b0 bc
       0.54030293 0.9552805 -0.18998052 -0.021605749
000200 ac 70 10 3f cf 81 37 3e 7a 6d a7 3e 33 e4 04 3c
       0.56421924 0.17920612 0.3270071 0.008111048
000210 51 88 df bb 2c 7c ce 3e c5 e8 d4 bc 3a af d8 3e
       -0.00682167 0.4032911 -0.0259899 0.42321187
000220 fa b0 ec 3d f4 9c 2b 3f 30 8a 66 3d ea 01 c7 be
       0.11557193 0.67036366 0.05628413 -0.38868648
000230 de d3 4f 3f 75 b2 c5 3d 1b 82 10 be e6 fc 9a 3d
       0.8118266 0.096531786 -0.14112131 0.07567768
000240 4d 24 6a bd 91 f8 8f 3e 04 1c 0e 3c 73 c6 61 be
       -0.057163525 0.2811933 0.008673672 -0.22048359
000250 6b 7d e0 3c e7 ff 20 3e 3c 53 02 be 2e 36 b2 be
       0.027403554 0.15722619 -0.12727064 -0.3480696
000260 d9 d0 df be f4 d7 91 3e b6 bb 23 3e 0c 60 17 3f
       -0.43714026 0.28485072 0.15989575 0.5913093
000270 0f ce 45 be c3 cc e6 bd fd 5d 38 3e c8 14 0f be
       -0.19316886 -0.11269524 0.18004604 -0.13972771
000280 d6 69 74 be f0 99 1e bf 97 f2 82 be 78 b1 e2 be
       -0.23868498 -0.6195364 -0.25575706 -0.44276023
000290 36 ef cb be fd ae 41 be 22 1f 20 bf 22 5d 53 3e
       -0.3983094 -0.18914409 -0.62547505 0.20640996
0002a0 6c 2e 9d be 67 e4 b4 be ec 78 28 bf 95 4b 0e 3d
       -0.3069948 -0.35330507 -0.6580951 0.03474005
0002b0 d1 e8 17 be 4a 8b 32 3f cb 72 3e ba 0c ec c2 be
       -0.14834906 0.6974379 -0.000726503 -0.38070714
0002c0 ac a7 59 bd 8d 65 42 3e 1e d3 a0 be a8 b2 bc 3e
       -0.05313842 0.18984051 -0.3141107 0.36855054
0002d0 89 1f 4d bd 93 57 0f bf 33 19 29 3c 04 a7 d0 be
       -0.050078902 -0.55993 0.010320949 -0.40752423
0002e0 47 c2 35 be 9d cd 6d be a6 88 9f 3e 78 15 01 bf
       -0.17749892 -0.23222966 0.31158942 -0.50423384
0002f0 58 f0 f0 bd ef 54 25 bf 4a 73 6d be 70 6c db 3c
       -0.11764592 -0.64582723 -0.2318851 0.026785105
000300 42 ba e4 be 5b a4 51 be 28 1b 65 3c 8f fc 96 3e
       -0.44673353 -0.20472853 0.013983525 0.29489562
000310 00 7d 95 be 27 41 a8 be bd dd e3 bc 4c 04 a8 3d
       -0.2919693 -0.32862207 -0.027815694 0.082039446
000320 2d 02 4e 3e d1 58 28 be 64 ed 56 bc f3 e3 dc be
       0.20118017 -0.16440131 -0.013118122 -0.4314266
000330 76 f2 16 3d c4 4c 7d be 10 ab b0 be 80 74 74 be
       0.036852323 -0.24736315 -0.3450551 -0.23872566
000340 bd fc 88 3e 67 d9 ca 3d 82 be 80 bd 41 18 82 3e
       0.26755324 0.099047475 -0.062863365 0.2540913
000350 a4 f4 48 be 73 19 15 3f 10 95 73 bd 22 fa a8 be
       -0.19624573 0.5824196 -0.05946833 -0.33003336
000360 4e e3 13 be fb 67 2f 3f 8e f5 c3 3d 68 ea 52 3e
       -0.14442179 0.68518037 0.0956832 0.20597231
000370 17 d4 b0 3e 83 91 0c be a9 22 95 3d b4 a9 59 3e
       0.34536812 -0.13727383 0.072820015 0.21256143
000380 67 2b 2e 3d 44 7d d5 be fc 0d dc bb 60 df 55 be
       0.04252186 -0.41697133 -0.0067155343 -0.20885992
000390 d2 e7 ca 3e 79 e2 25 be cd ec de 3e 32 a8 33 3e
       0.3962999 -0.16199674 0.4354004 0.1754463
0003a0 3e 3b 3c be 4e 86 08 3e c4 52 39 3e ee 1a f8 be
       -0.18381974 0.13332483 0.18097979 -0.48458046
0003b0 26 a1 93 be 8c 98 a0 3e 5a f4 90 be 66 54 39 3d
       -0.28833884 0.31366384 -0.28311425 0.045246504
0003c0 95 6e 51 3e c5 41 97 3e 79 fa 87 be 71 56 b6 3e
       0.2045234 0.29542366 -0.26558283 0.35612825
0003d0 5e 25 87 3c 13 a7 c6 be 49 ea 29 bd 4c 8e 29 be
       0.01649731 -0.38799343 -0.041483197 -0.16558188
0003e0 7c 5e af be 43 a8 3c be 12 ea 56 3d 54 03 31 be
       -0.34251773 -0.18423562 0.05246932 -0.17286426
0003f0 97 58 9b 3e 51 3a a2 be 4f ef 15 3e 73 54 23 3f
       0.30341026 -0.31685117 0.1464207 0.63800734

r_cell.w_vs.bias f4 [24]
000000 aa 90 8b 3d d8 42 8d be c0 09 01 bd 82 6f 94 3e
       0.06814702 -0.2759006 -0.03150344 0.28991324
000010 bd 47 15 3e 00 eb 77 bd 94 5c 64 3d fb 14 82 bd
       0.14578147 -0.060526848 0.055752352 -0.06351658
000020 29 40 36 be 55 3f 72 bd 54 0b 6c 3e 66 57 76 3b
       -0.17797913 -0.05914243 0.23051196 0.0037588715
000030 a6 9f 8c bc 05 60 d8 bd 02 3a 99 bd de 77 2a bd
       -0.01716597 -0.10565189 -0.07481767 -0.04161822
000040 11 05 2b 3e 99 a8 dc bc b8 cd 1f be 07 32 1c be
       0.16701151 -0.026935862 -0.15605819 -0.15253459
000050 f1 ff f9 3d 07 a7 33 3e 10 52 03 be 23 6f 4a bb
       0.1220702 0.17544185 -0.12824273 -0.0030888997

r_cell.layer_norm.weight f4 [24]
000000 ed 88 7a 3f 76 76 50 3f b8 34 6e 3f 94 cf 8d 3f
       0.9786518 0.8143076 0.9304919 1.1078973
000010 36 e8 72 3f 2e 3e 83 3f 23 72 cc 3f eb 5a d4 3f
       0.94885576 1.0253351 1.5972332 1.6590246
000020 f1 88 9c 3f db 8a 9c 3f 84 51 88 3f 5e 94 aa 3f
       1.2229291 1.2229875 1.0649877 1.3326528
000030 7e 3e aa 3f f8 45 99 3f 46 e8 99 3f 8f 6e 71 3f
       1.3300321 1.1974478 1.2024009 0.94309324
000040 c0 47 a1 3f c7 bc 73 3f 02 53 d8 3f 13 06 af 3f
       1.2600021 0.95209926 1.6900332 1.3673729
000050 72 a7 88 3f d2 0f 5e 3f 3c aa 90 3f 7b f2 99 3f
       1.06761 0.8674289 1.1301951 1.2027124

r_cell.layer_norm.bias f4 [24]
000000 cc eb 7d 3d e9 c4 78 be c1 50 1b be ec 9c 56 bd
       0.06199245 -0.24293865 -0.15167524 -0.052395746
000010 68 80 ed 3d 11 8b 82 bd 15 01 7b bd bc fc 9f 3d
       0.11596757 -0.06374181 -0.06128033 0.07811877
000020 9f ad 8b bd 3a b9 22 3d ab 58 32 3e ed a7 4b 3d
       -0.06820225 0.039727427 0.17416637 0.049720693
000030 4f 96 5b 3d e4 69 2b bc 97 1b 85 3e c9 a2 80 3e
       0.053610142 -0.010462258 0.25997612 0.25124195
000040 5e b4 20 ba 69 91 cf be 1c dc d6 bd 39 25 d0 bd
       -0.00061303924 -0.40540627 -0.10491201 -0.1016335
000050 8c 1b ea 3d ba 33 7b 3e a9 81 c4 3e 14 15 90 bd
       0.114310354 0.24531451 0.38380173 -0.0703527

r_cell.fc.weight f4 [24, 24]
000000 76 6b c8 be d1 6e 11 be 40 0d 14 3e 84 81 2c 3e
       -0.39144486 -0.1420243 0.1445818 0.16846281
000010 7b e0 a0 3d 18 1f 21 3e 66 0e 16 3e 49 29 b3 bd
       0.07855316 0.15734518 0.1465393 -0.08748109
000020 92 2c 86 3c aa 0c e5 bd 06 fe 08 bf d9 03 ea 3e
       0.016378675 -0.11184056 -0.5351261 0.4570606
000030 24 86 27 be 65 d5 96 3e 0a bf b1 3e da b9 3e 3c
       -0.16359764 0.29459682 0.34716064 0.01164099
000040 ab da 1b be 34 c9 54 be 66 74 97 be c0 44 81 3e
       -0.15220134 -0.20779878 -0.29580992 0.25247765
000050 fd 20 fe bd bb 7e e3 bd da 50 47 be 30 9d c1 be
       -0.12408636 -0.11108156 -0.19464436 -0.37815237
000060 58 46 19 be 3f c7 af 3d 74 1f 95 be c0 34 4a be
       -0.1496824 0.08582925 -0.2912556 -0.19746685
000070 d0 d2 21 3e ef 48 58 3e 27 5b 4f bf 14 99 cc be
       0.15803075 0.21121572 -0.8099846 -0.3996054
000080 fe 13 06 3f 46 e2 88 3e 3b 73 d1 3d 23 2f bc 3e
       0.52374256 0.26735133 0.102270566 0.36754712
000090 ff 6a e7 3c 99 88 13 3d 69 5e 0d be df bd 3e bf
       0.028249262 0.03601894 -0.13805546 -0.7450847
0000a0 45 e2 c7 3d ae b6 6e be d6 a0 5e be fd e9 49 be
       0.09759954 -0.23311874 -0.21741042 -0.19718166
0000b0 38 49 7a 3f 98 83 73 3e ef 7e 2b 3d b1 0e 80 be
       0.9776797 0.23780668 0.0418691 -0.2501121
0000c0 a8 e9 cb bd 4a bc 83 3e 99 a2 f7 be 55 c9 a7 be
       -0.09956676 0.2572959 -0.4836624 -0.32770792
0000d0 d2 d7 d3 3e b3 71 b5 bd e2 20 d8 be 55 ae cf be
       0.41375595 -0.08859577 -0.42212588 -0.40562692
0000e0 f4 17 16 3e 1b 8f 09 3e 65 69 7a be f1 92 2f 3f
       0.14657575 0.13433497 -0.24454267 0.6858359
0000f0 fe bf c1 be 12 ed 27 3e 8c ac 4d 3e b7 0d 9c 3e
       -0.3784179 0.16399029 0.20085353 0.30479214
000100 05 93 21 bd da 92 3f be 06 bb 00 bf 0c 78 0e be
       -0.03944685 -0.18708363 -0.50285375 -0.13912982
000110 b8 a3 c8 3e 76 2a 73 3e 92 84 8a bd af 4e c1 bd
       0.39187407 0.23746666 -0.06763567 -0.09438836
000120 ff f5 c5 3e ed 7f 21 be 2b bb b6 3e e3 00 33 3d
       0.38664243 -0.15771456 0.35689673 0.043702018
000130 91 7a 39 3e 08 a2 a2 3e 2b e0 2e 3e 05 ff d6 3e
       0.18113162 0.31764245 0.17077701 0.4199144
000140 0b df d4 bc a3 c7 b6 3b fe 61 76 3e 84 3f 78 be
       -0.025985261 0.005577998 0.24060819 -0.2424298
000150 e0 8b d3 bd de 94 93 bd ac 9d 83 3d 5b f4 b4 be
       -0.103294134 -0.072061285 0.06426558 -0.35342678
000160 86 3e 83 3e 38 c8 6e 3e 58 c8 50 3d 1e 21 ee 3d
       0.2563364 0.23318565 0.050972313 0.1162741
000170 c4 fa 74 be a4 91 74 be 9f 06 9e be 01 85 03 3f
       -0.23923784 -0.23883682 -0.30864426 0.5137482
000180 d0 54 f4 bd 9b 56 a7 bd de 40 63 3c 8d 39 20 3e
       -0.11930239 -0.081708156 0.013870446 0.15646954
000190 51 72 e1 be 39 5b e4 bd 6b b0 d7 bc 71 36 cb 3e
       -0.4403253 -0.11150212 -0.02632924 0.39689973
0001a0 bd ef f2 3c d4 46 38 be 9b 7d d5 be 0b 38 8c 3e
       0.029655332 -0.17995769 -0.41697392 0.27386507
0001b0 35 b2 e9 3d 6b fc 2d 3e 1d a6 c0 3d a9 26 f6 3e
       0.114109434 0.16990821 0.094066836 0.4807637
0001c0 f0 b0 8e be 6a f8 4e be 25 4a e6 3e 4c 38 a5 be
       -0.27869368 -0.2021195 0.44978443 -0.32269514
0001d0 cf 6d 9a be 69 21 c1 be 65 92 c3 3c f4 f0 a5 bd
       -0.30161902 -0.37720802 0.023873517 -0.08102599
0001e0 de 88 20 3e 57 94 01 3f 11 02 84 be b7 a0 eb 3c
       0.1567721 0.50616974 -0.25782827 0.028763158
0001f0 7d a6 0b be bf d1 8b be ca 38 07 3f 3b 9f 9f 3d
       -0.13637729 -0.2730846 0.5282103 0.07794043
000200 b4 ee 52 be ec 13 ac bc a1 b6 e3 bc 9f 6f 6c be
       -0.2059887 -0.021005593 -0.027797045 -0.23089455
000210 ad 07 79 bd 12 1f 96 3d 15 58 4d be 90 99 0c be
       -0.060798336 0.07330145 -0.20053132 -0.13730454
000220 ae 83 2f be df 84 80 bc 92 26 16 3e a0 db 8f 3e
       -0.17140076 -0.015688358 0.14663151 0.28097248
000230 73 f3 c3 3d 88 14 c2 3c a0 aa 78 be 6d 4f 1b 3e
       0.09567919 0.02369143 -0.24283838 0.15167017
000240 e3 f2 88 bc f8 fe c9 3d 56 01 a5 3d 28 4d 25 3e
       -0.01671738 0.098630846 0.080568954 0.16142714
000250 5f a9 63 be 56 bc 35 be f2 a6 be 3d 0d e3 bf bd
       -0.22232579 -0.17747626 0.09309186 -0.093694784
000260 7d 8c 71 3d 08 0d 99 3d d1 26 71 be 8f 7c e1 bd
       0.05897187 0.07473189 -0.23549964 -0.11010086
000270 0b 98 69 be 5a 2e f2 bd 9a 51 24 3d 14 60 e3 bd
       -0.22811906 -0.11825247 0.040116884 -0.1110231
000280 4b 8b 27 3d 3e f9 38 bd 0c bc ba bd df 4e ec bd
       0.040904325 -0.04515957 -0.09117898 -0.11538481
000290 6a 32 61 3e 4e 55 8b bd 23 e9 81 3e ee fe 8e 3e
       0.21991888 -0.0680338 0.25373182 0.2792887
0002a0 6b 5a 0d 3e ea 03 03 be 80 be 3a 3e 24 a1 78 3d
       0.13804023 -0.12794462 0.18236732 0.06070055
0002b0 e4 51 b1 bc 31 82 bf ba 79 54 9f be d6 d9 03 be
       -0.021645494 -0.0014610944 -0.31119135 -0.12876067
0002c0 d4 40 9a bd f7 74 fe 3d 4e 09 71 bb 30 7b 5d 3e
       -0.07531896 0.12424653 -0.0036779228 0.21629024
0002d0 75 a5 80 bd 5e 3a 44 bd 5d f0 2f bd a5 42 99 bd
       -0.062815584 -0.047907226 -0.042953838 -0.074834146
0002e0 58 a1 36 3e 59 54 19 be 45 06 e5 3e 7b 05 b8 bb
       0.17834985 -0.14973582 0.44731346 -0.0056158877
0002f0 0c 1f b8 3d 1a 2b 58 3d 79 9c 48 3b be 7f 10 3e
       0.08990297 0.05277548 0.0030610843 0.1411123
000300 ee 00 e6 3d 3e c1 59 be 65 cf 0e bd dc b0 06 3d
       0.11230646 -0.21265122 -0.034865756 0.03288351
000310 82 93 0c 3e 97 db aa 3d 51 4d d1 bd 79 c8 29 be
       0.13728145 0.08342665 -0.10219825 -0.1658038
000320 12 ff ed be 7d c3 fd bd 7e 76 b5 bd 36 2d c2 3e
       -0.46483666 -0.12390802 -0.08860491 0.37925118
000330 07 78 86 be d3 14 c5 bd 05 75 e7 bd 1b 1f a9 bd
       -0.2626345 -0.096231125 -0.113016166 -0.08257886
000340 2f 7c 74 be d7 09 4b bd 51 8e 5e be ed 2b c0 3d
       -0.23875497 -0.04956993 -0.21733977 0.09383378
000350 11 6d ae be de 95 48 3d 7c 8a fb 3d 45 29 86 be
       -0.34067586 0.04897105 0.12282273 -0.2620336
000360 5d 9c b3 3b 7c 05 21 be 9e 1f 8e 3e 8d f0 40 bf
       0.0054812864 -0.15724748 0.27758497 -0.7536705
000370 30 2f 9e 3e b7 95 b4 3c 91 84 0b be 64 30 98 be
       0.30895376 0.022044046 -0.13624789 -0.2972442
000380 0f d3 e1 bd 9f 35 aa 3e 11 dd a8 3e a2 82 b2 3d
       -0.11026584 0.33244035 0.3298116 0.087163225
000390 f1 00 06 3e 03 69 09 be 70 ce 2a bd f5 68 67 3c
       0.13086297 -0.13418965 -0.04170078 0.014124145
0003a0 c8 a9 b8 3e 5b 53 59 3e 47 5c 0e 3e 01 d8 32 3e
       0.36067033 0.21223204 0.13902389 0.17465211
0003b0 82 ea a8 3e 36 fc ad 3e 3f 15 86 be c3 74 98 3e
       0.32991415 0.33981484 -0.26188084 0.29776582
0003c0 8c ab 99 3e cd aa e9 bb 02 06 87 3d 6f 9a 85 be
       0.30013692 -0.0071309567 0.06592943 -0.26094386
0003d0 f5 ce 4d 3e 6a eb 67 bb 38 68 a0 3c 04 24 0b bf
       0.20098479 -0.003538812 0.019580945 -0.5435183
0003e0 e8 fc a1 bd 62 fe 2b bd 85 be a6 3e 09 39 08 3f
       -0.07909566 -0.041990645 0.3256723 0.5321203
0003f0 7d ad da bd e0 c4 af bd 2e f3 73 3e 40 7a 30 3e
       -0.106776215 -0.08582473 0.23823234 0.17234135

r_cell.fc.bias f4 [24]
000000 59 10 2a be ab 25 19 bc 03 e3 83 3c 05 72 ae b9
       -0.16607799 -0.00934736 0.016099459 -0.00033272817
000010 b3 81 05 be 39 92 25 3d 9f ec 26 3e 5c 88 db 3d
       -0.13037758 0.040422652 0.16301201 0.10719368
000020 1d 74 ac 3d 6e 2d 39 3e 32 94 f8 bd e8 b5 cc bd
       0.08420584 0.18083736 -0.12137641 -0.09995633
000030 c6 a4 f5 bd 9a 80 d5 bd f9 0b fd ba ef 71 86 3c
       -0.11994319 -0.104249194 -0.0019305936 0.01641175
000040 36 f9 9f be eb 3a 43 be ff 23 9a 3c c4 7d 98 bd
       -0.3124482 -0.19065444 0.018815992 -0.07445863
000050 19 1b 82 bc 1a a0 84 bd 72 44 c7 ba 79 1b 43 3e
       -0.015882062 -0.064758494 -0.0015202893 0.19053449

fc1.0.bias f4 [24]
000000 0c 3b bb 3d 0c 0a d3 bd 0a 07 9e 3d 2d 29 31 bc
       0.09142122 -0.10304651 0.07716186 -0.01081304
000010 a1 92 a3 3d 08 e4 96 3c fc 80 9e 3d e5 53 8d 3d
       0.079869516 0.01841928 0.077394456 0.06900767
000020 18 74 b4 bc e8 35 b1 bb f2 8f 73 3d b0 4f b0 3d
       -0.022028014 -0.0054080375 0.05946345 0.08608949
000030 95 70 0d 3e 3c 62 dc 3d 11 85 6b bd c4 e1 97 3d
       0.13812478 0.10760924 -0.05749995 0.07416108
000040 0b cf 05 ba 25 ca 95 bc f9 c7 a5 bb 6e 70 91 3c
       -0.0005104399 -0.018284867 -0.005059239 0.017753806
000050 34 fa a4 bd 92 a0 05 3a 50 ee f3 ba d2 2f 6a bc
       -0.08055535 0.0005097474 -0.0018610451 -0.014293628

fc1.0.weight_orig f4 [24, 24]
000000 b0 15 3d 3c 6d 9a cd be 07 da 0a 3f 07 35 65 3d
       0.011540815 -0.4015688 0.54238933 0.055958774
000010 03 ba e3 3e 23 a6 96 3c ba 52 35 3e c3 2e 95 3c
       0.44477853 0.018389767 0.17707339 0.018210774
000020 53 29 9c bd 2d dc da 3d 8d 6d 7c bd 7c 7f 47 3f
       -0.076250695 0.106865264 -0.061627913 0.779289
000030 ad d8 82 3e 4c c7 5d 3e 65 19 46 3e cf db f7 be
       0.25555936 0.21658057 0.19345625 -0.48409888
000040 11 71 47 bc 5f 12 a3 3d df 4e 20 bd 10 37 52 be
       -0.012172953 0.079624884 -0.039137717 -0.20528817
000050 3c 8b 97 3e 7d 6a 18 bf 84 b6 c7 be fc 90 f8 bc
       0.29598415 -0.5953749 -0.39006436 -0.030342571
000060 af 80 2e 3f d3 59 46 be f8 20 d2 3d 05 e3 5c 3e
       0.68165106 -0.19370203 0.102601945 0.21570976
000070 91 b8 d9 bc 94 ac 5b 3e ad 1f 0b be 22 94 85 bd
       -0.026577266 0.21452552 -0.13586302 -0.06522395
000080 5c ae 7f 3e dc 9a a4 3d 8b f7 91 be 75 f4 03 3e
       0.24968857 0.080373496 -0.28509173 0.12886222
000090 02 86 81 be 6c 5e 97 3d bb 31 61 be 34 4c bb 3d
       -0.25297552 0.073910564 -0.21991627 0.09145394
0000a0 38 a4 04 3f c2 af ef bd af 86 2e bb 6a b1 28 bc
       0.5181308 -0.11703445 -0.002663057 -0.010296205
0000b0 76 55 dd 3d c2 14 58 be 13 27 d3 3e 8b b5 a6 be
       0.10807316 -0.21101668 0.4124075 -0.3256038
0000c0 c9 6e 21 bf 34 e1 31 3d 4f 57 98 be 99 92 a1 be
       -0.6305967 0.04342766 -0.2975411 -0.31557158
0000d0 75 8a 8a 3d 56 c5 c2 3e 7e fa c3 be 57 c6 58 be
       0.0676469 0.3804118 -0.38277048 -0.2116941
0000e0 e4 06 8f be 7a f1 31 bd 1c 87 99 3e 27 4d 8e 3d
       -0.27934945 -0.04344318 0.29985893 0.069483094
0000f0 70 fb 27 3f 36 b2 01 3e 58 13 1e bd 79 ad ae be
       0.6561804 0.12665638 -0.038592666 -0.34116724
000100 47 95 47 be 90 87 95 3e b7 45 68 bd 8f 84 f4 3e
       -0.19490539 0.29204988 -0.05670711 0.47757384
000110 69 e1 6e 3d 4c c9 26 3e 62 fd a3 bd 02 73 96 3e
       0.058320437 0.16287726 -0.08007313 0.2938462
000120 59 ae 10 3f f0 26 ad be 0a c6 80 3e 3b 98 52 3c
       0.56516033 -0.3381877 0.25151092 0.012853677
000130 65 c4 02 be 6b af 1a 3e 51 2f a1 3d 40 1c 01 3e
       -0.12770231 0.15105979 0.07870353 0.12608433
000140 76 8b 12 3f e3 98 aa be 19 12 39 be b6 95 59 be
       0.5724405 -0.33319768 -0.1807331 -0.21248516
000150 42 e2 d0 be 87 fb 44 be f8 2e e3 3e b9 39 09 3f
       -0.4079762 -0.19236575 0.44371772 0.536037
000160 88 99 dc bd d4 c4 01 3f b7 9c ce 3e a4 4a 80 bd
       -0.10771471 0.5069096 0.4035394 -0.062642366
000170 3d f3 32 3e 07 81 51 be e9 5c 32 3e f0 28 ae be
       0.174756 -0.20459376 0.17418255 -0.34015608
000180 19 12 d6 3d d9 b2 77 3e ac 81 fa bd f1 d5 c1 3e
       0.104526706 0.24189319 -0.12231764 0.37858537
000190 64 f2 3b bc 9d 3a 29 be 2a ec 7d bc da 1b 9c 3e
       -0.011471365 -0.16526265 -0.0154982 0.3049
0001a0 9b e8 c2 be 7c 4a ec be d5 c9 da 3d 39 71 1b 3e
       -0.3806809 -0.46150577 0.10683028 0.1517991
0001b0 65 d9 15 bc a2 61 9d be 54 76 74 3e 18 11 06 bf
       -0.009146069 -0.3073855 0.23873264 -0.52369833
0001c0 5a ca 2f be 56 1c d8 be 8c 10 b0 be 2f 09 0d 3e
       -0.17167035 -0.4220912 -0.34387624 0.13773035
0001d0 dc f5 90 be 84 06 77 bc 29 05 c0 be 14 02 0c be
       -0.28312576 -0.015077237 -0.37503937 -0.13672668
0001e0 c9 af 8a be a3 2a 05 3f 69 38 cb bc a0 4f 96 3d
       -0.27087238 0.52018183 -0.024807172 0.07339406
0001f0 9f b1 f7 bd ee 29 08 bf 3d a8 25 bf a3 8b 35 3f
       -0.120944254 -0.5318898 -0.64709836 0.70916194
000200 28 a7 3c bf 36 de ab bd 41 86 12 be f1 ea a8 3c
       -0.7369256 -0.08391993 -0.14309026 0.020619841
000210 4d 2d 96 3d 1a f0 52 3e c1 cc 75 be 21 c9 19 3f
       0.07332859 0.20599404 -0.24003889 0.60072523
000220 c5 ca a6 bd 3a 05 8e 3e a7 34 a6 3e e2 c5 d1 bd
       -0.08144144 0.27738363 0.32462046 -0.10242821
000230 0f 32 84 bd 27 d3 85 3e 6a 56 a9 be d1 ad 60 be
       -0.064548604 0.2613766 -0.3307374 -0.21941306
000240 23 4a cb b9 17 cc 7a be a5 58 39 be 32 68 f4 3e
       -0.00038774413 -0.24491917 -0.18100221 0.47735745
000250 bc 1b 07 3f c7 d4 9b 3c 0a 3f a9 3e 57 59 9c be
       0.52776694 0.019022359 0.33055907 -0.3053691
000260 ac 9f ba 3d 79 f8 64 3d bc d7 20 be 9b ea 83 3e
       0.09112486 0.055901024 -0.15707296 0.25764927
000270 bf b7 3e 3d 28 e9 93 bd ca 61 49 3f 4e 15 8a be
       0.046561953 -0.072222054 0.7866484 -0.2696938
000280 0c 1c 34 3b 25 c1 9d 3e 87 49 f6 be 88 fe 9c be
       0.0027482538 0.3081142 -0.48102972 -0.30662942
000290 ee b8 4a 3d 02 d4 18 bf 35 16 e4 be 55 68 51 3e
       0.04949277 -0.596985 -0.44548193 0.20449956
0002a0 da 38 f7 3d 84 57 31 3e c2 a6 48 be 2d 0b 51 be
       0.120713905 0.17318541 -0.19594863 -0.2041442
0002b0 d8 07 99 3e 48 19 ef 3e da 3a ff bd ff 27 0f be
       0.29888797 0.46698976 -0.12462397 -0.13980101
0002c0 c7 d8 b9 be 5f e8 3f 3e 16 b4 57 3d 5a c6 ab bc
       -0.362982 0.18740986 0.052661978 -0.020968605
0002d0 10 de 72 be 0a 8f 58 be ce 3e 16 3b cd b3 dc bd
       -0.23717523 -0.21148315 0.0022925618 -0.10776482
0002e0 7f eb 03 3d d2 1e d2 be 4f 98 c3 3e 79 8f c4 3e
       0.03220701 -0.4103914 0.3820214 0.3839071
0002f0 4c a8 f2 be 2d f2 cb be 20 c6 b7 bd c7 e8 86 be
       -0.47394025 -0.39833203 -0.08973336 -0.2634947
000300 2e b7 dc bc de db 6c 3e 79 26 8a 3e dc 37 6c 3e
       -0.026942816 0.23130748 0.26982477 0.23068184
000310 1b de 9c bd 87 fd 6a bd bb 94 bf 3d 2d 79 84 bc
       -0.07659551 -0.05737069 0.0935454 -0.016171062
000320 bc 1b ba bd 6d 12 ea be 23 89 64 3d e7 7f 29 3e
       -0.09087321 -0.45717183 0.055794846 0.16552697
000330 2d da e9 3e 10 2a ca be d9 56 9c 3e 28 a7 b3 be
       0.45674267 -0.39485216 0.3053501 -0.35088468
000340 60 ce 3c 3e 40 30 47 bd 85 04 0b be 71 fa 2a 3e
       0.18438101 -0.04863 -0.13575943 0.16697098
000350 ba 2a 48 bd 9f c4 44 be 75 f8 4d be f9 25 95 be
       -0.048868872 -0.1921563 -0.2011431 -0.29130533
000360 b8 a5 70 be 2a a8 17 3e fd db b4 3e 14 c8 5f 3e
       -0.23500717 0.14810243 0.35324088 0.21853667
000370 88 40 d2 be 03 26 32 3d c8 68 2d bf 82 b9 29 bd
       -0.41064858 0.043493282 -0.6773801 -0.04143668
000380 63 a2 4a be 0b f0 a4 be ca 2c bd bd 49 6b 44 be
       -0.19788508 -0.32214388 -0.092370585 -0.19181551
000390 ab 77 08 3d 81 46 c4 3e 3a 88 d7 be 2b 9a 37 3e
       0.03331725 0.3833504 -0.4209612 0.17929904
0003a0 d8 58 3b bc 9e ef 86 be 97 56 62 be d2 59 30 3e
       -0.011434756 -0.26354688 -0.22103344 0.17221764
0003b0 1e be b4 bd bc 5c cb 3b ac a1 92 3e f9 b6 1d bd
       -0.088253245 0.006206123 0.2863897 -0.038504574
0003c0 58 f1 8d be 83 cb af 3d 5b c6 35 3e 0f 92 8c 3e
       -0.27723193 0.08583739 0.17751448 0.27455184
0003d0 ae 7b 61 be 1d 35 66 3e d1 ae d7 3d 97 b3 45 3c
       -0.22019836 0.22481199 0.105313905 0.012066743
0003e0 76 c9 11 be c4 27 d7 bd b5 1a 99 3c a2 f2 64 3d
       -0.14237007 -0.105056316 0.018689493 0.055895455
0003f0 2b 4d 3a bd 7d ac ea 3c a3 12 88 3e e3 01 1f be
       -0.04548375 0.028646702 0.2657672 -0.15528063

fc1.0.weight_u f4 [24]
000000 65 25 b1 be 26 d9 cb bd eb fc cc 3d 34 f3 ff bc
       -0.34598842 -0.09953527 0.10009178 -0.031243898
000010 b2 8b ca 3c 06 cd c6 3e a8 47 8f be 7b 1f b2 3d
       0.024724815 0.38828295 -0.27984357 0.08697411
000020 29 4a 04 bd 3b 6e 0c 3e 82 60 a7 bd 40 44 05 bd
       -0.032297287 0.13713925 -0.08172704 -0.03253579
000030 49 ef a4 be 98 8e 83 be 70 08 c4 3e c5 b5 8e be
       -0.3221381 -0.25694728 0.38287687 -0.27873054
000040 a3 9e 63 3e ee 33 6e be d2 97 cf bc 4e 91 42 3e
       0.22228484 -0.23261997 -0.025340948 0.19000742
000050 c9 eb dd 3d 61 1b dd bd 14 e7 fa bd 35 2d 17 be
       0.10835988 -0.10796238 -0.12251106 -0.14763339

fc1.0.weight_v f4 [24]
000000 9e fe 02 be 0c 5d a8 3e c4 8a 6e be 22 de ee bd
       -0.12792441 0.3288349 -0.23295122 -0.11663462
000010 74 c4 9a bd 06 0c 9d bd cd 37 f5 be 6d ca 4e 3e
       -0.07557002 -0.07668309 -0.47894135 0.20194407
000020 6e a5 38 be 46 2e b7 bd cc 3a 0e 3d a3 a6 cd be
       -0.18031856 -0.08944373 0.03472404 -0.40166196
000030 bd 93 bb 3b da b4 f5 bd 49 58 09 bd b9 05 97 3e
       0.005724399 -0.11997385 -0.03353146 0.29496554
000040 d4 fc fe 3d 27 57 a9 3c a1 e3 66 3e da 50 23 3e
       0.12450567 0.02067144 0.22547771 0.15948811
000050 9d 23 19 be 95 ea 90 3e 6a 17 14 be 3a f3 8b bd
       -0.14954992 0.28303972 -0.14462057 -0.06833501
