models/17_05_2021/stock_self_attn_MSE_hinge_10000_64_24_6_24_5/7000_Zdiscriminator.pth (torch, 55520 bytes, 40 tensors)

position.pe f4 [1, 24, 24]
000000 00 00 00 00 00 00 80 3f 00 00 00 00 00 00 80 3f
       0.0 1.0 0.0 1.0
000010 00 00 00 00 00 00 80 3f 00 00 00 00 00 00 80 3f
       0.0 1.0 0.0 1.0
000020 00 00 00 00 00 00 80 3f 00 00 00 00 00 00 80 3f
       0.0 1.0 0.0 1.0
000030 00 00 00 00 00 00 80 3f 00 00 00 00 00 00 80 3f
       0.0 1.0 0.0 1.0
000040 00 00 00 00 00 00 80 3f 00 00 00 00 00 00 80 3f
       0.0 1.0 0.0 1.0
000050 00 00 00 00 00 00 80 3f 00 00 00 00 00 00 80 3f
       0.0 1.0 0.0 1.0
000060 a4 6a 57 3f 41 51 0a 3f 1d 35 e5 3e 30 ea 64 3f
       0.84147096 0.54030234 0.44767085 0.8941984
000070 52 e9 5a 3e eb 14 7a 3f 76 75 cc 3d 98 b8 7e 3f
       0.21378067 0.9768817 0.099833414 0.9950042
000080 1e 0d 3e 3d 6a b9 7f 3f 47 7a b0 3c ca f0 7f 3f
       0.04639923 0.99892294 0.021542681 0.9997679
000090 57 d6 23 3c b9 fc 7f 3f 57 18 98 3b 4b ff 7f 3f
       0.009999833 0.99995 0.0046415734 0.9999892
0000a0 64 31 0d 3b d9 ff 7f 3f 6d 12 83 3a f8 ff 7f 3f
       0.0021544332 0.9999977 0.0009999998 0.9999995
0000b0 5c 5a f3 39 fe ff 7f 3f ab e8 61 39 00 00 80 3f
       0.00046415895 0.9999999 0.00021544348 1.0
0000c0 b7 c7 68 3f 33 11 d5 be fb f4 4c 3f f8 63 19 3f
       0.9092974 -0.41614684 0.8006131 0.59918165
0000d0 be d9 d5 3e b9 99 68 3f f8 6f 4b 3e a5 e5 7a 3f
       0.41767687 0.9085956 0.19866931 0.9800666
0000e0 b7 d8 bd 3d d1 e5 7e 3f cb 6f 30 3d 2c c3 7f 3f
       0.09269851 0.9956942 0.043075364 0.99907184
0000f0 3e d4 a3 3c e5 f2 7f 3f ec 17 18 3c 2d fd 7f 3f
       0.019998666 0.9998 0.009283047 0.9999569
000100 4e 31 8d 3b 64 ff 7f 3f 68 12 03 3b df ff 7f 3f
       0.004308856 0.9999907 0.0019999985 0.99999803
000110 5b 5a 73 3a f9 ff 7f 3f ab e8 e1 39 ff ff 7f 3f
       0.00092831784 0.9999996 0.00043088695 0.99999994
000120 c3 81 10 3e 26 70 7d bf ce f0 7b 3f 16 a2 35 3e
       0.14112 -0.9899925 0.98414314 0.17737612
000130 c8 2d 1a 3f 56 5d 4c 3f 6c 4e 97 3e ef 90 74 3f
       0.60226107 0.7982992 0.2955202 0.9553365
000140 17 21 0e 3e a8 85 7d 3f bd 46 84 3d 29 77 7f 3f
       0.1387981 0.9903207 0.06458805 0.997912
000150 1f b9 f5 3c 83 e2 7f 3f d5 22 64 3c a6 f9 7f 3f
       0.0299955 0.99955004 0.01392432 0.9999031
000160 bf c9 d3 3b a2 fe 7f 3f 92 9b 44 3b b5 ff 7f 3f
       0.006463259 0.99997914 0.0029999954 0.9999955
000170 c2 83 b6 3a f0 ff 7f 3f 7f 6e 29 3a fd ff 7f 3f
       0.0013924765 0.99999905 0.00064633036 0.9999998
000180 cf bd 41 bf 30 55 27 bf e7 9c 75 3f 6c 5d 90 be
       -0.7568025 -0.6536436 0.9594254 -0.28196275
000190 be 4d 42 3f f9 ad 26 3f d7 61 c7 3e a7 ca 6b 3f
       0.75899875 0.6510921 0.38941833 0.921061
0001a0 73 07 3d 3e b2 99 7b 3f df 45 b0 3d cc 0c 7f 3f
       0.18459873 0.98281395 0.08607077 0.996289
0001b0 db cb 23 3d 94 cb 7f 3f 3e 16 98 3c b4 f4 7f 3f
       0.039989334 0.9992001 0.018565293 0.9998276
0001c0 f8 30 0d 3c 91 fd 7f 3f 57 12 83 3b 7a ff 7f 3f
       0.008617632 0.99996287 0.003999989 0.999992
0001d0 54 5a f3 3a e3 ff 7f 3f a9 e8 61 3a fa ff 7f 3f
       0.0018566349 0.9999983 0.0008617738 0.99999964
0001e0 10 7c 75 bf 2c 3c 91 3e 0a 50 3b 3f cb 7f 2e bf
       -0.9589243 0.2836622 0.73169005 -0.68163747
0001f0 cf 71 61 3f 63 93 f2 3e 43 77 f5 3e 40 a9 60 3f
       0.88064283 0.47378072 0.47942552 0.87758255
000200 93 85 6b 3e ff 22 79 3f 0e 30 dc 3d 21 84 7e 3f
       0.23000173 0.97319025 0.10751353 0.9942036
000210 f4 b6 4c 3d 19 ae 7f 3f 3c 1a be 3c 5a ee 7f 3f
       0.049979165 0.99875027 0.023205869 0.9997307
000220 e6 7c 30 3c 33 fc 7f 3f dd d6 a3 3b 2e ff 7f 3f
       0.010771966 0.999942 0.004999979 0.9999875
000230 71 18 18 3b d3 ff 7f 3f 69 31 8d 3a f6 ff 7f 3f
       0.0023207928 0.9999973 0.0010772172 0.9999994
000240 8c 0f 8f be b8 cd 75 3f c6 c0 b2 3e 2d e4 6f bf
       -0.2794155 0.96017027 0.349127 -0.93707544
000250 63 29 76 3f 8f 93 8c 3e 68 8c 10 3f 32 49 53 3f
       0.961569 0.27456328 0.5646424 0.8253356
000260 e9 c0 8c 3e e9 22 76 3f 09 00 04 3e 38 dd 7d 3f
       0.2749093 0.9614702 0.12890638 0.9916568
000270 d1 9c 75 3d 12 8a 7f 3f 2b 1d e4 3c 96 e6 7f 3f
       0.059964005 0.99820054 0.02784594 0.9996122
000280 9d c8 53 3c 86 fa 7f 3f 58 9b c4 3b d2 fe 7f 3f
       0.012926248 0.99991643 0.0059999637 0.999982
000290 b7 83 36 3b bf ff 7f 3f 7d 6e a9 3a f2 ff 7f 3f
       0.0027849504 0.9999961 0.0012926605 0.99999917
0002a0 46 30 28 3f bd ff 40 3f 9f c6 db bd 8d 85 7e bf
       0.6569866 0.75390226 -0.10731243 -0.9942253
0002b0 41 7f 7f 3f 23 4f 80 3d 72 eb 24 3f b3 cc 43 3f
       0.9980355 0.06265094 0.6442176 0.7648422
0002c0 6a 71 a3 3e 18 9b 72 3f 5d d8 19 3e 25 18 7d 3f
       0.31922466 0.94767904 0.15023942 0.98864967
0002d0 32 3e 8f 3d 81 5f 7f 3f 6e 0f 05 3d 69 dd 7f 3f
       0.06994285 0.997551 0.032485418 0.9994722
0002e0 15 14 77 3c 8c f8 7f 3f c5 5f e5 3b 65 fe 7f 3f
       0.0150804715 0.9998863 0.006999942 0.9999755
0002f0 f8 ee 54 3b a8 ff 7f 3f 91 ab c5 3a ed ff 7f 3f
       0.003249107 0.99999475 0.0015081038 0.99999887
000300 95 46 7d 3f f6 fd 14 be e3 81 0a bf 62 4b 57 bf
       0.98935825 -0.14550003 -0.5410444 -0.840994
000310 e9 04 7d 3f 59 cf 1b be a5 a4 37 3f 5f 5b 32 3f
       0.9883562 -0.15215816 0.717356 0.6967067
000320 cb c7 b9 3e 80 8d 6e 3f 69 9e 2f 3e ff 34 7c 3f
       0.36285242 0.9318466 0.17150272 0.98518366
000330 50 aa a3 3d 65 2e 7f 3f 89 0f 18 3d d3 d2 7f 3f
       0.07991469 0.9968017 0.03712419 0.9993107
000340 a1 2f 8d 3c 44 f6 7f 3f 12 12 03 3c e7 fd 7f 3f
       0.017234625 0.99985147 0.007999914 0.999968
000350 38 5a 73 3b 8c ff 7f 3f a4 e8 e1 3a e7 ff 7f 3f
       0.0037132632 0.9999931 0.001723547 0.9999985
000360 32 01 d3 3e d5 3f 69 bf f1 3b 5c bf 9f 82 02 bf
       0.4121185 -0.91113025 -0.86028963 -0.5098056
000370 af d7 6e 3f 01 49 b8 be 1c 88 48 3f d5 21 1f 3f
       0.9329786 -0.35993198 0.78332686 0.62161
000380 ba b7 cf 3e 5c fc 69 3f 97 4f 45 3e e1 33 7b 3f
       0.4056986 0.91400695 0.19268642 0.98126036
000390 3e 12 b8 3d c2 f6 7e 3f cd 0e 2b 3d d3 c6 7f 3f
       0.089878544 0.9959527 0.041762162 0.99912757
0003a0 0c d5 9e 3c ae f3 7f 3f 3a 74 13 3c 59 fd 7f 3f
       0.019388698 0.999812 0.008999879 0.9999595
0003b0 ba e2 88 3b 6e ff 7f 3f b6 25 fe 3a e1 ff 7f 3f
       0.0041774185 0.9999913 0.0019389901 0.99999815
0003c0 f8 44 0b bf 64 cd 56 bf d1 5b 7f bf 7e e0 90 bd
       -0.5440211 -0.8390715 -0.99749476 -0.070740685
0003d0 61 9f 55 3f 82 12 0d bf a4 6a 57 3f 41 51 0a 3f
       0.8344632 -0.55106366 0.84147096 0.54030234
0003e0 1e 35 e5 3e 30 ea 64 3f 53 e9 5a 3e eb 14 7a 3f
       0.44767088 0.8941984 0.21378069 0.9768817
0003f0 76 75 cc 3d 98 b8 7e 3f 21 0d 3e 3d 6a b9 7f 3f
       0.099833414 0.9950042 0.04639924 0.99892294

r_cell.w_qs.weight f4 [24, 24]
000000 06 16 97 be ff bb dc be 3e 2e 72 bd c6 14 a0 be
       -0.2950899 -0.4311218 -0.05912613 -0.3126585
000010 88 c4 ee 3e 6b 9e 2c 3f ec f6 b7 3d 37 1b 21 bf
       0.46634316 0.67429227 0.089826435 -0.6293215
000020 3a 30 37 3f e9 41 49 3f 00 f8 12 bc 47 23 08 be
       0.7155796 0.78616196 -0.008970261 -0.13294707
000030 12 97 53 bf 77 e3 ac bc fa df c6 3d c4 66 c0 3e
       -0.8265239 -0.021104557 0.09710689 0.37578404
000040 08 f1 89 3e 35 18 7e bf a1 71 87 3e 45 bd ce 3d
       0.26941705 -0.99255687 0.2645388 0.10094694
000050 d2 09 7d 3f 52 3d 22 bf 12 dc e6 3e d0 77 ab be
       0.9884311 -0.6337482 0.45089775 -0.33489847
000060 7a 85 30 3e 29 a5 2f bf 87 1c b5 3e 32 ed 97 be
       0.17238417 -0.6861139 0.35373327 -0.29673153
000070 dd 4a 0f bf eb 18 98 bf 9d e4 5f bf b6 7d 22 3e
       -0.5597361 -1.1882604 -0.8745821 0.15868267
000080 21 1d d4 bf dc 60 57 be 05 4b c6 be b8 77 13 3e
       -1.657139 -0.21033043 -0.3872911 0.14401138
000090 2b ee 26 be 14 e9 06 3f 4f 02 05 3f 6a c7 57 bd
       -0.16301791 0.526994 0.5195665 -0.05268041
0000a0 88 f4 75 3f d5 00 ae bf ac f5 70 3d eb be 8f 3d
       0.9607625 -1.3594004 0.05882804 0.070188366
0000b0 82 b3 ab bd 03 db 17 bf 88 c9 33 be 29 95 82 be
       -0.08383848 -0.5931856 -0.17557347 -0.25504425
0000c0 99 30 01 3b c4 00 82 bf a2 8f f4 bd 35 21 6c bf
       0.0019712804 -1.0156484 -0.11941458 -0.9223817
0000d0 4a 9c 48 3f 7b 1d ce 3d 63 f4 36 3f 98 74 eb be
       0.7836348 0.10064217 0.71466655 -0.4598739
0000e0 34 97 a7 3e 34 e3 33 3f b4 66 4d be 11 82 7c bf
       0.32732546 0.7026856 -0.2005871 -0.98635966
0000f0 69 96 0f bf 50 35 03 bf a4 7b 87 bf 6b da f0 be
       -0.5608888 -0.51253223 -1.0584607 -0.4704164
000100 72 7c 78 be dd 02 1d 3f 8d 8d 40 bd 30 b6 c9 3e
       -0.24266222 0.61332494 -0.047009993 0.3939681
000110 58 6f 99 3f 0d 70 20 3f c9 8a 43 be 24 e2 c4 3e
       1.1987104 0.62670976 -0.19095911 0.38453782
000120 17 30 6c 3f 9e 28 30 3b d6 c3 07 bf b0 4f 18 bf
       0.9226088 0.0026879678 -0.53033197 -0.59496593
000130 46 8f 8b 3b 46 c7 30 bf 39 53 55 3f 0b 57 9c 3e
       0.004259023 -0.6905407 0.8333011 0.3053516
000140 01 04 a3 3e 3c 3e 88 3f a2 f2 97 3d e3 d3 d6 bc
       0.31838992 1.0643992 0.074193254 -0.026224082
000150 ae c4 06 bf da d4 2b 3f 97 ac 15 bf c7 19 28 3f
       -0.5264386 0.6712166 -0.58466476 0.65664333
000160 fe c2 17 be 38 de 60 be a5 e6 36 bf 76 a3 21 bf
       -0.14820477 -0.2195977 -0.71445686 -0.63140047
000170 ca 49 ef be 5c a8 91 be c3 51 34 3f 1c 6d 39 3e
       -0.46735984 -0.2844876 0.7043726 0.18108028
000180 47 57 b9 bd eb 43 46 3e 26 c2 2c bf 3f ac 42 be
       -0.0904985 0.19361846 -0.67483747 -0.19011019
000190 90 cf fc 3e ac d4 3a 3e 99 38 bd 3e 42 e6 11 be
       0.49377108 0.1824519 0.36957243 -0.14247993
0001a0 1e c3 1d 3e 49 03 97 3f af e3 a5 3e bd e1 81 bf
       0.15406463 1.1797878 0.3240027 -1.0147015
0001b0 6a 89 d1 be 32 be 42 bf 11 58 90 3e 4e c2 14 bf
       -0.4092515 -0.76071465 0.2819219 -0.58108985
0001c0 b7 08 ea 3e 9e 7a b8 bf d3 52 1d bf bf 26 15 3f
       0.45709774 -1.441242 -0.61454505 0.58262247
0001d0 73 78 a6 bf db be eb 3e 46 2c 87 be 1e 7b 8a be
       -1.3005508 0.4604405 -0.26400965 -0.27047056
0001e0 f0 0e cf bd 60 84 19 be 56 f0 14 3e 1b 49 12 3f
       -0.10110271 -0.14991903 0.14544806 0.571428
0001f0 bd a8 4c 3e af f7 2f 3f 35 44 2c bf 3b f4 3d bd
       0.19986244 0.6873731 -0.67291576 -0.046375494
000200 83 65 d4 3e 10 fe 6d be 2d 7c 59 be 1f 93 e4 be
       0.41483697 -0.23241448 -0.21238776 -0.44643494
000210 73 c9 29 bf 9b 17 b4 3d 5c b4 0c bf 01 89 7b 3d
       -0.6632301 0.08793565 -0.54962707 0.061409954
000220 6d c8 dc be 6c c2 8e be 62 dc 8a 3e 41 f7 41 3e
       -0.43121663 -0.27882707 0.27121264 0.18941976
000230 61 0d 6b 3d 47 bc 5c 3f 79 57 55 bf 48 ca 0d be
       0.057385806 0.8622479 -0.833366 -0.13846695
000240 e4 f6 a5 be fd 45 4c be 9c 0a 2a 3e 2a 99 78 bf
       -0.32414925 -0.19948573 0.1660561 -0.9710871
000250 07 51 b1 be e7 7b ec be ad 57 ac 3d 80 83 30 3e
       -0.3463213 -0.4618828 0.0841516 0.17237663
000260 19 57 0a 3d 57 dc 9e 3d 95 c7 bf 3e c8 be b2 be
       0.03377447 0.0775687 0.37456957 -0.3491118
000270 89 3d 7c be cf 43 0b 3f 00 0e 0e bf 1b 1e 50 be
       -0.24632849 0.5440034 -0.5549011 -0.20323984
000280 65 e9 43 be 22 4f 91 bc 96 98 9c be 3f d0 67 3e
       -0.19132002 -0.017737929 -0.30585164 0.22638033
000290 3a d2 0b bf 15 7a bc 3e 7b d7 e3 3d 1a 27 f4 3c
       -0.54617655 0.3681189 0.11125084 0.029803801
0002a0 76 94 32 bf d8 3f 84 3e 94 c6 6a 3f 17 d7 36 3e
       -0.69757783 0.2582996 0.91709256 0.17855488
0002b0 41 cc fe 3e 27 bd ed 3d 85 bb 1c 3f ae 69 97 bf
       0.49765208 0.116083436 0.6122363 -1.1829126
0002c0 89 59 f7 3d bb 76 23 bf e1 ce c7 bd cf 75 02 be
       0.12077624 -0.63853043 -0.09756256 -0.12740253
0002d0 77 ef 96 bf ff fb 2e 3e e2 4d 20 bf 58 52 10 bf
       -1.1791829 0.17088316 -0.6261884 -0.56375647
0002e0 f1 01 18 3f 16 d8 76 3f a4 fe 14 3e 8d 0a 9f be
       0.5937796 0.9642347 0.14550263 -0.31062737
0002f0 ff c3 fc 3e e4 55 90 3d 62 96 ba 3e d4 6d 83 be
       0.49368283 0.07047632 0.36442858 -0.2566973
000300 da 8f 80 3f ee 7a 0c bf 25 8f 79 3e 37 48 a5 3e
       1.00439 -0.54875076 0.24371012 0.32281658
000310 fe c7 60 bf b8 9a 0e bf 0c 9b d3 bf 6f b8 48 3f
       -0.87805164 -0.5570483 -1.6531692 0.78406423
000320 d2 66 76 3e 2a eb 49 3e 9c 35 90 3e b3 d7 81 3e
       0.2406266 0.19718614 0.281659 0.25359878
000330 7e 96 a1 3e 15 66 70 3d a4 4e ed 3e ae 78 e8 3e
       0.3156013 0.058691103 0.4634906 0.4540457
000340 88 9b 65 3e 53 be 21 bf 41 a8 7f be 84 9e 5e bd
       0.22422612 -0.63181037 -0.24966528 -0.05435039
000350 42 11 2d 3e 2e 1a 6b bf 33 0a a9 be 5e 07 0d bf
       0.16901115 -0.9183682 -0.33015594 -0.55089366
000360 7a c5 53 3d 0f de 67 3e 2f 78 9f 3f b0 68 9b 3d
       0.051702 0.22643302 1.2458552 0.07588327
000370 4c 83 53 bf 5c f6 00 3d 61 31 f9 be af 87 c9 3b
       -0.8262222 0.031484947 -0.48670486 0.006150208
000380 d2 4c 2c bf 75 a0 0d bf a0 0a 33 bd dc 3c 68 bf
       -0.6730472 -0.55322963 -0.043711305 -0.90717864
000390 0e 83 6e 39 44 4d a4 bf 07 79 9c 3e 62 21 6b 3d
       0.0002274627 -1.283608 0.30561087 0.057404883
0003a0 6c 4d 88 bf 44 4c 2f bf 44 09 14 bd 30 6c 12 3f
       -1.0648627 -0.6847575 -0.03614165 0.5719633
0003b0 cd 8a a1 3e 5e 44 56 3f 73 3e 0a bf a9 08 9f bd
       0.3155121 0.8369807 -0.5400154 -0.07765324
0003c0 0f fd a3 be 00 89 a7 be c9 8e f9 3e 6d 2a 28 3e
       -0.32029006 -0.3272171 0.4874175 0.16422434
0003d0 8b de 45 3f 50 2c 64 3f ea 4e 0a 3e c2 41 da be
       0.772927 0.89130116 0.13506666 -0.42628294
0003e0 8c 87 7e 3f 1d 03 1c bd f5 79 8e 3e b3 fb 14 3d
       0.9942558 -0.038088907 0.2782742 0.03637285
0003f0 70 69 8d be 89 aa ef be 5f d6 45 bd 16 b2 40 bf
       -0.27619505 -0.46809795 -0.048300143 -0.7527174

r_cell.w_qs.bias f4 [24]
000000 b8 cd b4 3f f1 5b 29 bf c3 89 1e 3e 0f bb ad 3f
       1.412528 -0.66155916 0.1548224 1.3572711
000010 ab 1b 33 bf 33 f9 01 3f e7 5b 47 bf 1c fd c4 3f
       -0.6996409 0.5077087 -0.77874607 1.5389743
000020 d1 d4 c0 be 75 d0 06 bf fd 8e d6 3e 77 79 90 3e
       -0.37662366 -0.5266183 0.41905966 0.2821767
000030 0e b0 85 be 4f 11 a4 bf d9 c3 97 3f da 7e 8b 3f
       -0.26110882 -1.2817782 1.1856643 1.0898087
000040 a8 75 fe 3d c7 1a da be c3 df f9 3e af 1c 91 3f
       0.12424785 -0.42598554 0.4880353 1.1336879
000050 f5 ae cb 3f 22 96 b6 be d1 93 a3 3f c0 05 d8 bf
       1.5912768 -0.35661417 1.2779485 -1.6876755

r_cell.w_ks.weight f4 [24, 24]
000000 9e 67 19 3f 81 b3 4a 3e 26 23 06 bf e8 49 9a 3f
       0.5992373 0.19795038 -0.5239738 1.2053804
000010 ac 5b 6b be 2c 5b 2c bf d7 30 a5 3e 71 8b 53 bf
       -0.22984189 -0.6732662 0.32263824 -0.82634646
000020 92 90 a1 be 01 e2 f4 3e f4 64 d8 bd 48 8b 14 3e
       -0.3155561 0.47828677 -0.1056613 0.14506257
000030 09 be 57 3f c4 36 3f be e8 3a 18 3f 3a 75 74 be
       0.84274346 -0.18673235 0.59464884 -0.23872843
000040 b6 95 b6 3e b6 2f 7f 3a ab a8 61 3d 05 4e 81 3e
       0.35661095 0.00097345875 0.055092495 0.25254837
000050 ee 68 a8 bf a4 c0 32 3f 6a db f5 3d 32 1e 93 3d
       -1.3157022 0.69825196 0.120047405 0.07183494
000060 7a 12 4a 3e 5b 6a 79 bc 12 dc df 3f 51 54 86 bf
       0.19733611 -0.015223111 1.7489035 -1.0494481
000070 95 a6 9f 3e f2 c2 28 3e 6e de 8f bf a3 ce 56 bf
       0.3118178 0.16480616 -1.1239755 -0.8390905
000080 51 fa 84 3e 28 b9 88 3e e8 fd 8a bf 67 28 7f bf
       0.25972226 0.26703763 -1.0858736 -0.99671024
000090 2c e9 17 c0 8c ad 05 bf 55 3f e8 be fd 35 36 be
       -2.3736067 -0.52217937 -0.45360819 -0.17794032
0000a0 f1 fc 0a 3f 00 ce b1 be 57 d0 19 3f 00 88 b6 be
       0.5429221 -0.34727478 0.60083526 -0.35650635
0000b0 2a b7 7a bd 3e 81 84 be a8 f9 7f be 4d a8 09 3f
       -0.061209835 -0.25879854 -0.2499758 0.5377243
0000c0 3d e3 90 be 47 d0 09 3e 47 dd aa bf 85 b2 14 3f
       -0.2829837 0.13458358 -1.3348778 0.580849
0000d0 a1 dd 7b bc ac ad 75 bd 91 04 13 3f bd 0e 8b 3e
       -0.015372665 -0.05998008 0.5742884 0.27159682
0000e0 0c c9 50 3e 37 24 24 3e 9b bc 62 bf 59 ed 4e 3e
       0.20389193 0.1602944 -0.8856904 0.20207728
0000f0 59 17 bb 3f b2 4c 21 3f a4 4f bc be dc 50 a7 3e
       1.46165 0.6300765 -0.3677951 0.32678878
000100 25 e8 28 3f ee 26 8c 3d 6b fe e4 3e 2a e0 82 be
       0.65979224 0.06843363 0.44725356 -0.2556165
000110 76 d6 b4 3c 99 56 07 bf b4 2b 88 3e 14 ae d0 be
       0.02207492 -0.5286651 0.26595843 -0.4075781
000120 9d c9 2f 3e 74 4a b3 bc 10 dc fe 3d ac ec bc 3e
       0.17166753 -0.021886088 0.12444317 0.36899316
000130 32 73 d0 be 31 bf 26 3e 2d 59 92 3d 59 75 91 be
       -0.40712887 0.16283871 0.07145915 -0.28409842
000140 e4 df 04 3f 76 47 65 bf 6c ac a9 3d 4c d8 87 3f
       0.5190413 -0.89562166 0.0828484 1.0612884
000150 48 c1 c5 be 77 56 51 3f eb cc 99 bf b2 3b 9a be
       -0.38624024 0.8177256 -1.2015661 -0.3012367
000160 8b 88 8d bd 72 dc 37 3f db 58 11 bf b4 2e de 3f
       -0.06910809 0.7182075 -0.5677621 1.7358003
000170 d4 f4 c9 bc e4 84 72 3f 95 d0 ba 3e f9 fe b5 be
       -0.024652876 0.94734025 0.3648726 -0.3554609
000180 fd fe b4 3f c9 17 ac bf 55 d9 1c be 26 7e 20 bf
       1.4140316 -1.3444759 -0.1531728 -0.6269249
000190 32 31 97 bf a8 8e 40 3d b1 a7 60 bf 10 9d 18 bf
       -1.1811888 0.047011048 -0.87755877 -0.5961466
0001a0 96 36 50 3f fd 4d 3b bf ce 36 81 3e 37 f5 77 3e
       0.8133329 -0.73165876 0.25237125 0.24214636
0001b0 d7 0a 5d 3f a6 27 ac bd bf 66 29 bf 15 a4 22 3f
       0.86344665 -0.08406 -0.66172403 0.6353162
0001c0 ae 02 7a 3e 9c 0b 9a be 23 13 37 bf ae 16 b5 3d
       0.24415085 -0.30086982 -0.71513575 0.088422164
0001d0 24 19 1f 3f 2f 7c f9 3e dd 43 f5 3e 2a 29 1e bf
       0.62147737 0.48727557 0.47903338 -0.6178156
0001e0 a7 61 b8 bd 70 05 5e 3e 31 7c 36 be 66 42 04 bc
       -0.09003001 0.21681762 -0.17820813 -0.008072471
0001f0 c5 4e 00 3d 8b 6b 2b be 97 14 c7 be 49 cc 90 3f
       0.03132512 -0.16740243 -0.38882896 1.1312343
000200 e3 0c 08 be 40 0b 13 3f 6d 6a 61 be c8 2e 87 bf
       -0.13286166 0.5743904 -0.22013254 -1.0561152
000210 7b 0e 2a be a3 fa c7 be 83 ca cf 3e 37 55 57 bf
       -0.16607086 -0.39058408 0.40584192 -0.841144
000220 2b da 41 3e 93 13 87 3e e6 31 38 bf 33 16 38 bd
       0.1893088 0.2638212 -0.7195114 -0.044943046
000230 d6 f7 0f 3f 43 3a 13 bf f3 f3 26 bf 81 9f da 3e
       0.5623754 -0.57510775 -0.65215987 0.42699817
000240 79 ef 1c bf a2 00 1b bf 82 cd ab bf 5a 8f 04 bf
       -0.61302906 -0.6054784 -1.3422091 -0.5178124
000250 ea b2 cf 3e dc cb b9 3f bf 48 32 be c4 3c db 3d
       0.40566188 1.4515338 -0.17410563 0.107049495
000260 00 55 92 3f af 67 4c 3e 3a 06 e0 3e 72 8d 30 3f
       1.143219 0.19961427 0.4375475 0.6896583
000270 61 e1 5d bf 27 0a 5a be 4c d8 56 3d 80 26 8d be
       -0.86672026 -0.21292935 0.05245237 -0.27568436
000280 e0 8c 76 bf 8a 33 2b 3f 73 b3 5e bf 0c bb f3 bd
       -0.9630871 0.6687552 -0.8699257 -0.11900911
000290 d5 07 17 bf 1b c8 d6 be 82 db 95 3e 88 db 29 3c
       -0.58996326 -0.41949543 0.29269034 0.010367282
0002a0 34 53 b7 3d 63 5a 20 bd a6 04 31 bd 86 11 14 3f
       0.089514166 -0.0391487 -0.043217324 0.5783924
0002b0 be 55 cc be e7 36 26 bf 08 a8 e7 3e d6 54 c4 be
       -0.39909166 -0.64927524 0.45245385 -0.38345975
0002c0 b1 3e 28 bf f5 b7 09 bf f5 e5 ae 3f a1 30 e6 bd
       -0.6572066 -0.5379632 1.3663927 -0.11239744
0002d0 fa b0 85 bc 19 fe 34 3f db fe 73 bf cc 14 a7 3d
       -0.01631974 0.7070022 -0.95310754 0.081582636
0002e0 7e bf 0c bf b5 ed 2e 3f 22 1b fe be ed c1 0b 3f
       -0.54979694 0.6833146 -0.49630076 0.5459278
0002f0 e8 d3 c4 be f3 88 05 bf 35 8b 2f 3f 90 c4 bb bc
       -0.38442922 -0.5216209 0.6857179 -0.022920877
000300 ac e4 fb be 65 52 2d 3e 26 de 31 3e c8 63 da be
       -0.491979 0.16925962 0.17369899 -0.42654252
000310 97 ae bf be 25 b1 c9 3e d1 ae 37 3c 36 7a 66 bc
       -0.3743789 0.39392963 0.011211113 -0.014067223
000320 a3 86 43 3e 73 a2 be be 4b 9d 91 bf 21 05 68 3f
       0.19094329 -0.37233314 -1.1376127 0.90632826
000330 cb 5f 48 be b9 eb 74 be a0 c5 2e 3e af 92 1b 3f
       -0.19567792 -0.23918046 0.17067575 0.60770696
000340 40 b5 37 3f 3f 4c af bf 2e f8 13 bf c9 01 c4 bf
       0.7176094 -1.3695143 -0.5780057 -1.5313045
000350 43 f4 34 be a1 c5 e2 3e c3 b1 42 bf 91 96 8e be
       -0.17671303 0.44291404 -0.7605249 -0.27849248
000360 e6 ab 17 bf b5 c5 81 3f d7 91 25 be 63 e2 ae 3f
       -0.5924667 1.013846 -0.16168915 1.3662838
000370 ec a3 4a 3f 1a 1f d2 3e aa bb b5 3e 7d c7 27 bf
       0.79156375 0.41039354 0.3549474 -0.6553877
000380 dc 9a ce be c3 7a d7 3b 1e ce a9 3e 6e f8 42 3f
       -0.40352523 0.0065759136 0.33165067 0.76160324
000390 76 5d d3 3f e1 0c 7c be 16 37 bc bf 8e e7 0e bf
       1.6512897 -0.24614288 -1.4704311 -0.55822074
0003a0 81 59 7f 3f 18 d8 c6 be ee 00 d5 bd 55 ba 06 bf
       0.9974595 -0.3883674 -0.10400568 -0.5262807
0003b0 c3 ad 21 3f 63 96 e1 bd 1a a8 ac be 68 68 37 3e
       0.63155764 -0.11015012 -0.33722 0.17910922
0003c0 59 77 67 3f e8 f1 ae 3e 57 9a 29 3e cf 6a 80 bf
       0.90416485 0.34168935 0.16562782 -1.0032595
0003d0 78 38 87 3f 33 e7 c9 be f3 30 6c 3e 8f 6a 00 bf
       1.0564108 -0.39434204 0.23065548 -0.50162596
0003e0 26 58 70 3e ea 92 57 3e b0 35 7e 3e ee 21 06 bf
       0.23471126 0.21052137 0.24825168 -0.5239552
0003f0 23 ed 18 bf e9 06 13 3f 2f 10 77 3d 53 44 5f 3d
       -0.5973684 0.5743242 0.06031817 0.05450852

r_cell.w_ks.bias f4 [24]
000000 8e c6 b3 3e 5d 7d 1d be 8e a6 55 be 4d 43 17 3d
       0.35112423 -0.15379854 -0.20864317 0.036929417
000010 d7 74 c1 bd bd e1 e6 3d d0 a6 13 be 08 bc b5 3e
       -0.094461136 0.11273525 -0.14419103 0.3549502
000020 eb a1 df be 29 1d 30 bd 0c 4d 98 3d 21 94 4d 3f
       -0.4367822 -0.04299656 0.074365705 0.8030415
000030 8d 2f d4 bd e3 da a7 be 35 25 89 3d 98 35 33 3e
       -0.10360632 -0.32784185 0.0669655 0.17500913
000040 a9 ff 59 be 57 88 64 3e f2 16 2b be be 44 3a bc
       -0.21288933 0.22317635 -0.16707972 -0.0113689285
000050 1e 3c 48 be fb fe 13 be 72 f1 6d bd a3 25 6d be
       -0.19554183 -0.14452736 -0.05809159 -0.23158889

r_cell.w_vs.weight f4 [24, 24]
000000 6c 09 0c 3f c8 63 83 3d c3 da 46 bd 0f 8f fc 3d
       0.54701877 0.06415516 -0.04854847 0.12331974
000010 46 c5 67 be c2 9f a3 3e ce 4d 7f 3f f8 ac d1 3e
       -0.22633848 0.31957823 0.99728096 0.40952277
000020 63 51 18 3f 21 3e 3a bf c3 d1 a2 be cd a5 7b bf
       0.59499186 -0.7275105 -0.3180066 -0.98299867
000030 87 78 9c 3e 0a 00 67 3f d2 d1 41 3f f2 d8 9f be
       0.30560705 0.90234435 0.75710785 -0.31220204
000040 68 f8 bd 3e a4 fc 3e 3d 1f 3a 9b 3d 47 af 80 bc
       0.3710358 0.046627656 0.07579445 -0.015708579
000050 85 9a 13 3f f7 61 88 3d 73 fd 0c be b6 ac 2b bf
       0.57657653 0.0665931 -0.13768558 -0.6706041
000060 b2 f5 e4 bd 89 b0 0b bf 80 5f 27 3e 3e f9 4c be
       -0.11179675 -0.54566246 0.16345024 -0.20016953
000070 c8 ab a3 3e 06 a2 d8 be ee bd 5f be 9c 0f 12 bf
       0.31966996 -0.42311114 -0.21849796 -0.5705507
000080 1f 57 2f bf 4e fe a4 3f e0 12 66 3f ef 83 69 3f
       -0.6849231 1.2890108 0.8987255 0.9121694
000090 ee e4 72 3d 63 4b 88 bf 95 4e c1 3e 38 5b c6 3e
       0.059300356 -1.0648006 0.37755266 0.3874147
0000a0 33 fc 9b 3e 3b d9 d2 3e 59 71 99 3c 14 82 b1 be
       0.3046585 0.4118136 0.018730806 -0.34669554
0000b0 97 2d 96 be f1 f3 4b bf 4c 1b 45 3f 9f c1 81 3f
       -0.29331657 -0.796691 0.76994777 1.0137213
0000c0 60 f9 0d bf 07 c0 97 3e 5e 1e d8 3e 71 19 0c 3e
       -0.5545864 0.29638693 0.42210668 0.1368158
0000d0 ba c7 bd 3d 98 41 b3 be 9b 1d 19 be d2 0a 37 be
       0.092666104 -0.35010982 -0.149527 -0.17875221
0000e0 66 a0 23 bf 17 f2 79 3f a0 5c 44 3f 0b d8 41 3f
       -0.63916624 0.97635025 0.76703835 0.7572028
0000f0 46 ce 92 3d 36 f5 80 be 5c 3c 93 bd 04 8f 1f 3d
       0.0716825 -0.2518708 -0.07189247 0.03895475
000100 b6 75 b3 3e 0b 9d 9f 3e 32 06 79 3e 0f 61 9a be
       0.35050744 0.31174502 0.2431877 -0.30152175
000110 d5 cc d7 be 73 7e ab bd cf bc 19 3e 0c 59 38 3f
       -0.42148462 -0.08373728 0.15013431 0.72010875
000120 74 c0 5a bf 90 37 9c 3e ae f1 e6 3e fd 71 1e bf
       -0.8544991 0.3051114 0.45106262 -0.6189268
000130 45 4b 23 3e 66 b4 0b bf 5f 8b e3 3d 1c 4c d8 3e
       0.15946682 -0.5457214 0.11110567 0.42245567
000140 00 4a 13 bf 36 af 58 3f 8d 8a 28 3e 18 9b 13 bf
       -0.5753479 0.8464235 0.16459103 -0.5765853
000150 c0 2e c7 bd c6 97 14 3f 3e 5d ca 3e cd 0b 36 bd
       -0.09725714 0.5804409 0.39524263 -0.044444848
000160 a9 11 52 be fa e6 c1 be 48 f9 61 be 81 84 a8 bd
       -0.2051455 -0.37871534 -0.2206775 -0.08228398
000170 8b 6d 92 bf c6 a7 e7 3d 4f 13 65 bf e7 36 40 bf
       -1.143968 0.11311297 -0.8948259 -0.75083774
000180 4f 91 0b 3e 38 a6 2c bf 43 6b 81 3e 1e bd 00 bf
       0.1362965 -0.6744113 0.25277147 -0.5028857
000190 f8 6d 9f be e4 51 d4 3d 23 cb 2d 3f 44 9f 96 bf
       -0.31138587 0.10367182 0.6788809 -1.1767354
0001a0 14 a1 01 bf 55 d9 de 3e 84 be 3e 3f 5e dc 08 be
       -0.5063641 0.43525186 0.74509454 -0.13365313
0001b0 2c 43 fc be de d9 2e 3f ed bc 9c 3f d3 e7 4f 3f
       -0.49269998 0.6830119 1.2245156 0.8121311
0001c0 4f ae b1 bd 79 46 0c be 84 b1 5e 3f 3e e3 85 be
       -0.08675825 -0.13698758 0.8698962 -0.26149935
0001d0 3f 86 fc be d9 70 9b be c0 23 8b bf d1 a3 8d be
       -0.49321172 -0.30359533 -1.0870285 -0.27664044
0001e0 c5 f6 d6 be 83 fe 60 3d 22 41 fa bb dd b8 7a bf
       -0.41985145 0.05493022 -0.007637159 -0.9793833
0001f0 50 4c 4e 3e 85 7b 9e be 63 24 9e 3d 65 0f 58 be
       0.20146298 -0.30953613 0.07721784 -0.21099623
000200 91 69 f0 3e 80 de a6 be 19 24 34 3e 4c 4b 84 3d
       0.4695554 -0.3259163 0.17591895 0.06459674
000210 64 a2 60 bf 94 3d 27 bf 3d 02 c8 bf 79 88 d4 bf
       -0.8774779 -0.65328336 -1.5625683 -1.6604148
000220 4d 6e 06 bf e3 4a 88 3e 68 22 99 bf 5a 06 58 bf
       -0.52512056 0.26619634 -1.1963625 -0.8438469
000230 46 eb d8 be 05 1e 04 3f 1d 08 dc be 6c ec 80 3d
       -0.42367 0.51608306 -0.4297494 0.06295094
000240 a4 f4 63 3d 65 5f 7a 3f 87 b4 cf be c3 8f fe be
       0.05565323 0.9780181 -0.4056742 -0.49719056
000250 c8 22 0a 3e a2 ca 48 3f 7c 0f 2f bf 8a 8b b8 3e
       0.1348983 0.78434193 -0.68383 0.3604396
000260 5f 0a 25 3f 93 5f a0 3f 0f 4f 8e bf c3 27 3a 3f
       0.6446895 1.2529167 -1.1117877 0.7271692
000270 4e 7e 9b 3e 91 2f 76 bf 44 de 5e 3f 9e 5b 80 be
       0.303698 -0.9616633 0.870579 -0.25069898
000280 77 31 9b 3d d5 75 3b be a7 73 47 bf 08 a9 0e 3f
       0.07577794 -0.18306668 -0.77910846 0.5572667
000290 df 13 36 bf 52 28 5f be a2 34 62 3f 56 21 9b 3f
       -0.7112407 -0.21792725 0.8836156 1.2119548
0002a0 a8 6d d6 3c 8c 42 0a 3f 72 dd 14 bf df 4d 75 bf
       0.026175335 0.5400779 -0.581504 -0.95821947
0002b0 5f 31 27 3f cc 35 1e be 34 73 37 bf 26 af b3 3e
       0.6530971 -0.1545021 -0.7166016 0.35094565
0002c0 ad 47 ab 3e 47 c6 af 3f c6 57 31 bf df f0 b4 3e
       0.33453122 1.3732384 -0.69274557 0.3534002
0002d0 20 81 63 bf 92 39 ef bf 71 4e ac 3f 0c a4 f8 be
       -0.88868904 -1.8689444 1.3461438 -0.48562658
0002e0 ed 2c 3f 3e bd 6d 81 3e c9 01 24 bf 4a 7e c8 be
       0.18669482 0.25279036 -0.64065224 -0.3915885
0002f0 1d 96 8b bf 65 87 a8 3d cb 17 e7 3d 0e ea 03 be
       -1.0905186 0.082289495 0.11283835 -0.12882254
000300 85 c5 33 be f3 a8 18 3f 3b 2d 05 bf 1c cf d2 bf
       -0.17555816 0.59632796 -0.5202214 -1.6469455
000310 1e 7b a0 3f b8 c8 f2 3c a8 0c b6 bd 67 73 c4 be
       1.2537572 0.029636726 -0.08889133 -0.38369295
000320 6b bd 04 bf b6 5e 91 3f 22 35 72 be be 7d 77 bf
       -0.5185153 1.1357028 -0.23653081 -0.9667624
000330 fd c4 18 bf d3 cb 61 be ea 9b 5f 3f be b5 99 bf
       -0.5967558 -0.22050409 0.8734728 -1.2008588
000340 7d 54 6d be 7d 5a 9d bd 14 26 21 bf 74 b9 d5 be
       -0.23176761 -0.07683275 -0.6294873 -0.41743052
000350 e6 bb 94 bf 7f 98 7c bf 61 54 96 bf 53 59 29 bf
       -1.1619842 -0.9867019 -1.17445 -0.6615192
000360 6b bc 60 3f b1 df c4 3e ec fe 1c bd bf b5 02 bf
       0.87787503 0.38451913 -0.03832905 -0.5105857
000370 2f 80 4e bf 65 30 b9 3d fa de c1 bf ae e8 b1 be
       -0.8066434 0.09042434 -1.5146172 -0.34747833
000380 58 db 22 bf 77 5e 51 3e 0b 0b d7 3e f7 10 26 3e
       -0.6361594 0.20446192 0.42000613 0.16217409
000390 fc b4 88 be f1 34 2e bf 86 2a ab 3d 18 80 83 bd
       -0.2670058 -0.6804953 0.0835772 -0.06420916
0003a0 85 37 59 be 66 c2 cd 3e b8 c9 33 bf fd d9 cc be
       -0.21212585 0.40187377 -0.70229673 -0.40010062
0003b0 55 4c 0a 3f 89 b4 c4 be b3 6d a7 3e e6 09 0c be
       0.54022723 -0.38418987 0.3270088 -0.13675651
0003c0 8f d6 e6 3e 0b a6 d4 be 29 18 37 be df eb 28 3f
       0.4508557 -0.4153293 -0.1788031 0.6598491
0003d0 3e 31 c1 bf 75 d3 6e bd 82 2c 22 bf e1 61 1c bf
       -1.5093153 -0.05830713 -0.63349164 -0.6108685
0003e0 38 0b 3f bd c5 5e c0 3f 10 82 b4 be e9 df e5 3e
       -0.04664156 1.5028921 -0.3525548 0.44897392
0003f0 7b b8 02 bf a1 80 dd be 85 d3 13 3f d6 53 19 3f
       -0.51062745 -0.432622 0.5774463 0.5989355

r_cell.w_vs.bias f4 [24]
000000 d2 b1 5f 3f 7c 93 97 bf 5a a9 76 bf 8e 57 6c bd
       0.8738071 -1.1841884 -0.9635216 -0.057700686
000010 44 44 36 3f 23 8f 7a be 86 26 ba 3e 87 24 1a 3f
       0.71197915 -0.24468665 0.36357516 0.60211986
000020 8f 55 b0 3e 24 af 97 bd 6d e2 e0 be 37 d5 28 bf
       0.34440276 -0.07406452 -0.4392275 -0.6595034
000030 82 f8 10 3d bf 46 02 3f 66 79 27 3f 78 be 80 be
       0.035393246 0.508892 0.65419614 -0.25145316
000040 bd 1b 03 bf 60 a0 fb 3e b1 41 d0 bd 5d e3 e3 be
       -0.512142 0.49145794 -0.1016878 -0.44509402
000050 85 81 ea be 42 29 d7 be 92 0b 58 be 02 96 f8 3d
       -0.4580194 -0.42023665 -0.21098164 0.12137987

r_cell.layer_norm.weight f4 [24]
000000 99 04 2f 3d db ff 27 3f 7c 4c ef bd 12 b5 65 40
       0.042728994 0.6562478 -0.1168451 3.5891767
000010 a9 a5 98 3f f5 2d a8 3f 61 7a 1f 40 8e 25 12 3d
       1.1925555 1.3139025 2.4918444 0.035680346
000020 13 8e 17 bf 74 7c 78 3d f3 e2 a1 3f 0f be 3f 40
       -0.59201163 0.060665563 1.2647384 2.9959753
000030 bb 5d 52 3f 6b 2e f4 3a 66 7e 36 3d 30 22 3e 3e
       0.8217427 0.0018629556 0.044554137 0.18567729
000040 0d 7a a7 3d 4a d8 00 3e be 4d c8 3e b8 05 1b 40
       0.08177576 0.12582508 0.39121813 2.422224
000050 11 ef 2d 40 64 03 c8 3e e4 e9 80 3e b3 92 1c 40
       2.7177165 0.39065087 0.25178444 2.4464538

r_cell.layer_norm.bias f4 [24]
000000 13 51 67 bf c9 9b b6 3e 42 ba 29 3f bb 67 84 bf
       -0.90358084 0.3566573 0.6629983 -1.0344156
000010 75 4c 5b be dd 37 a4 3f ab 96 7e bf d5 9c 3f 3f
       -0.21415885 1.2829548 -0.9944865 0.7484868
000020 dd e6 ae be a0 59 9f 3f 5a 23 94 3f 3b fa 85 bf
       -0.3416051 1.2449226 1.1573288 -1.0466989
000030 8c 33 f0 be cb a2 8f 3f cf be 8f 3f 35 24 0f 3f
       -0.46914327 1.1221555 1.1230105 0.5591462
000040 6c bf 8f 3f 14 73 5f 3f 3b 4b 2c bf 39 51 85 bf
       1.1230292 0.8728497 -0.6730229 -1.0415412
000050 f6 28 92 3f 76 4c 94 be 73 24 7a 3f f7 bd 8a bf
       1.141875 -0.28964585 0.9771187 -1.0839223

r_cell.fc.weight f4 [24, 24]
000000 47 2d 20 bd cb 3c 88 bf cd 10 e3 be 4e 8b 61 3f
       -0.03910568 -1.0643553 -0.44348755 0.8810319
000010 7e 7c 0b 3f 45 c2 a7 be f4 a4 fe 3e 98 de 2a be
       0.54486835 -0.32765403 0.49735224 -0.16686475
000020 c4 e8 27 bf 72 05 22 3f 11 50 7d 3e e4 d1 e9 3e
       -0.6558955 0.6328956 0.24737574 0.45667946
000030 e5 cd d3 be 8d a7 cd bd b8 ff f3 3e e1 bd d7 be
       -0.41368023 -0.100417234 0.47656035 -0.42137054
000040 18 b2 d3 3d fb 98 50 3f c4 5e 8a bf 00 56 37 bf
       0.10336703 0.8148343 -1.081017 -0.716156
000050 ea 61 98 bd 45 65 c3 be 6d 8a 87 bf c6 25 a9 3e
       -0.074405506 -0.381632 -1.0589119 0.3303663
000060 8b f7 99 be 5b 2d 4c bf 73 ea 84 be 8b 4f 2f bf
       -0.30071673 -0.79756707 -0.2596012 -0.6848075
000070 a4 8f d9 3e ad 4c 24 bf 07 78 4e 3f a7 ab d3 be
       0.42492402 -0.641795 0.806519 -0.41341898
000080 57 fe dd bf ec b1 97 3f 08 cb f8 3f 72 03 f8 3f
       -1.7343243 1.1851172 1.943696 1.9376051
000090 f6 86 db bd 15 ac 82 3e 21 cc f8 be 13 91 c4 bf
       -0.10719101 0.25521913 -0.48593238 -1.5356773
0000a0 67 64 4f be b7 37 c2 3e 1e 82 85 bd 90 77 a1 3e
       -0.20253144 0.37933132 -0.065189585 0.3153653
0000b0 51 bd 5f 3e 87 7e 1b bf f4 d3 aa bf 6f 85 07 3e
       0.21849562 -0.6073994 -1.3345933 0.13234495
0000c0 c4 ec 14 be 2f 09 b1 bf 28 d2 d2 be 62 82 f4 3e
       -0.14543444 -1.3830928 -0.41175961 0.47755724
0000d0 ed fa 94 3f 07 f8 73 bf ab 85 33 3f ba f6 d9 3e
       1.1639076 -0.95300335 0.70125836 0.4257105
0000e0 6c 21 86 bd 5c 58 13 3f 78 86 bd 3d 55 ab e7 bd
       -0.065493435 0.575567 0.092541635 -0.11311976
0000f0 aa 4c b4 be 6a ef 36 3f 78 d1 ac 3e 68 35 c5 be
       -0.3521474 0.71459067 0.33753562 -0.38517308
000100 fc 7c 5f 3d 63 c9 04 3f ed d1 21 be 26 4d 4f bf
       0.054562554 0.5186979 -0.15802737 -0.80977094
000110 62 01 26 bf 01 e1 47 bf e2 48 65 bf 1f 71 fd 3e
       -0.6484586 -0.78077704 -0.89564335 0.49500367
000120 1a 93 ac be 27 45 95 3f 97 d6 23 3e cb 00 a8 bd
       -0.3370598 1.1661729 0.15999828 -0.08203276
000130 5c 7a a2 bf 5c 44 88 3f 3e 6d 82 bf 04 08 d2 be
       -1.2693591 1.0645862 -1.0189588 -0.4102174
000140 cf f5 00 bf 65 e9 26 bf e4 0c 24 3f 85 38 54 3e
       -0.50375074 -0.6519988 0.6408217 0.20724685
000150 5b 80 65 be 80 5e ec be 4b ef 16 bf 37 82 fb 3c
       -0.22412245 -0.46165848 -0.5895888 0.03070174
000160 97 27 eb be f2 65 cc be 9e f0 24 3f a5 b6 cb 3e
       -0.45928642 -0.39921528 0.6442965 0.39787784
000170 50 e7 4f 3f 67 a5 bb 3f 76 49 0a 3e de d4 50 be
       0.8121233 1.4659852 0.13504586 -0.20393702
000180 ff 6e 9a 3e 05 f2 23 3e 7b 01 12 bf bd 5f 48 3f
       0.30162808 0.16010292 -0.5703351 0.78271085
000190 98 2e 76 3d 2a b5 7b be 1b e2 09 bf 52 b5 a3 bd
       0.06010303 -0.24580827 -0.53860635 -0.079935685
0001a0 bb d8 33 3e 49 3a cc be 1e 01 f2 be bf bb b3 bf
       0.17563145 -0.39888218 -0.47266477 -1.404167
0001b0 79 76 7d bf e3 f7 62 3e 18 dc 80 3f 7e e2 c5 3e
       -0.990089 0.22164874 1.0067167 0.38649362
0001c0 f6 06 e5 3e 1e 3d d6 be 11 56 4e 3f a9 bc 4f bc
       0.44731873 -0.41843504 0.80600077 -0.012679257
0001d0 29 6c 43 3d 9f c8 21 3f b4 a8 0a 3e bd 07 63 3e
       0.04771057 0.6319675 0.13540918 0.2217092
0001e0 74 27 03 3c f4 22 95 bf fb f9 ef be fa fc 9a be
       0.008005012 -1.1651292 -0.46870407 -0.3027113
0001f0 cc bd 7a 3f 16 f2 a9 bf d0 cf 43 3f 7f 67 58 3e
       0.9794586 -1.3277004 0.7648897 0.2113323
000200 9a 38 55 3d 1a 78 3b 3f 16 6d fe be e1 b4 a7 be
       0.052055933 0.73230135 -0.496926 -0.32755187
000210 22 88 5c be ac f4 05 3f 1d bc 34 3f 36 56 78 be
       -0.21536306 0.52326465 0.7059954 -0.24251637
000220 27 b4 c4 3e be 27 1e 3e 21 81 a5 3d 2a 77 ef be
       0.38418695 0.15444848 0.0808127 -0.46770602
000230 2a 8e 51 be 21 64 8d bf fb 57 db be de 2d ab 3e
       -0.20464388 -1.1046182 -0.4284056 0.3343343
000240 9e 40 f1 bd fe 36 a6 3f 9d 5d e9 3e 68 99 a0 3d
       -0.11779903 1.2985532 0.45579234 0.0784176
000250 3e 85 a7 bf e6 32 5b 3f 3b 1c 89 bf 81 1d c4 be
       -1.3087537 0.8562454 -1.071174 -0.3830376
000260 b4 a7 1b 3c 8b b4 15 bf db 2e 05 3f 6d f8 1c be
       0.009500433 -0.5847861 0.5202462 -0.15329142
000270 a6 90 06 bf 47 97 93 be e8 97 f2 be eb 39 05 3e
       -0.52564466 -0.28826353 -0.4738152 0.13010375
000280 17 35 9a be 5a c7 05 bf 58 c0 b7 3e ab c5 21 3f
       -0.3011863 -0.5225731 0.35888934 0.6319224
000290 54 08 32 3f ff 87 86 3f 47 98 06 3f 18 b4 23 bf
       0.6954396 1.0510253 0.52576107 -0.63946676
0002a0 52 73 0e 3d e9 8e 18 bf 9a 27 0d 3e 4d 10 e5 3f
       0.034777947 -0.59593064 0.13784638 1.78956
0002b0 af fe 17 3f 03 ad af 3e bf 7d 0a bf 27 4a 9b 3e
       0.5937299 0.34311685 -0.54098123 0.3033001
0002c0 11 17 93 3f 82 92 82 bf b9 00 3f c0 e3 d3 8e c0
       1.1491414 -1.0200961 -2.984419 -4.463365
0002d0 6f c3 59 bf 12 d1 a2 3e 76 f2 80 3f 91 9f b6 3f
       -0.85063833 0.31800133 1.0073993 1.4267446
0002e0 ae 61 57 3f fa 57 9e be 74 0f d0 3e 54 94 51 bf
       0.8413342 -0.30926496 0.4063679 -0.81866956
0002f0 d4 35 7d be 9f e6 9d bd 3f 61 0e 3f 9a d1 8b 3f
       -0.24727565 -0.07710003 0.55617136 1.092334
000300 a5 b2 99 3e 92 1f cd be ae f0 3b be 0d d1 48 bd
       0.30019107 -0.4006315 -0.18353531 -0.04902749
000310 c2 96 f9 bd bd 70 db 3d 04 f2 99 3f 44 14 a5 3e
       -0.12186958 0.107148625 1.2026982 0.32242024
000320 64 8a 92 3e ae f7 32 3f e9 60 90 3f ae 58 de 3f
       0.2862121 0.6990918 1.1279575 1.7370813
000330 61 43 a1 3f 58 04 82 3e 6a 41 3a bf e3 ff 55 be
       1.2598687 0.2539394 -0.72756064 -0.20898394
000340 d5 29 95 bf d4 2b a3 3f c7 3a df bf 82 21 49 bf
       -1.1653391 1.274775 -1.7439812 -0.78566754
000350 98 f4 86 bf 56 de 86 be fe 74 a5 bc 81 50 08 3d
       -1.0543394 -0.26341504 -0.020197388 0.0332799
000360 73 a9 22 be 2b be fb be 33 d7 95 be 29 7d b1 3f
       -0.15884952 -0.49168524 -0.29265746 1.3866321
000370 e2 27 97 3c 21 db a1 3e 25 1a 86 3d e2 ed 23 3f
       0.018451635 0.31612495 0.065479554 0.64034855
000380 8e 51 d7 3f 4e 2c 3f bf 50 72 f4 bf a1 6c 5c c0
       1.6821764 -0.7467698 -1.9097385 -3.4441302
000390 c1 fb d0 3e 49 47 a2 3e d9 7d 85 3d 59 ea cd 3f
       0.40817073 0.3169501 0.06518144 1.6087142
0003a0 1f 84 96 be bd 23 d2 3e 5d 56 8d bf 4c cf ba bf
       -0.29397675 0.4104289 -1.1041981 -1.4594512
0003b0 36 dc 5b bf a8 23 e2 bc a7 f8 f7 3e f5 44 2f 3f
       -0.8588289 -0.027604893 0.48431894 0.68464595
0003c0 f2 44 1d 3e 08 b0 ae bf 12 17 0a bf ab 1c f5 bd
       0.15358332 -1.364747 -0.5394145 -0.119683586
0003d0 41 52 8e 3f 60 3f 89 bf ff 72 5c 3f f7 74 2d 3e
       1.1118852 -1.0722466 0.8611297 0.1693915
0003e0 d5 30 72 3a bd 2b e6 3e e9 8c ce be 1f cd df 3d
       0.0009238844 0.44955245 -0.4034188 0.109277956
0003f0 8e 24 1c bd 2e 48 a4 3e a1 91 28 3f f9 cf 46 be
       -0.0381208 0.3208632 0.6584721 -0.19415273

r_cell.fc.bias f4 [24]
000000 d6 7a 97 be 1c 66 32 bf 85 50 73 3e 56 6b fc be
       -0.29585904 -0.69687057 0.23761185 -0.4930064
000010 8c 64 03 bf 29 a3 ed 3e e3 d4 fd be ad 75 83 3e
       -0.513253 0.46413544 -0.49576482 0.25675717
000020 51 37 06 3d d0 e3 4a 3f 4a a2 82 3e 15 be 20 bf
       0.032767598 0.79253864 0.25514442 -0.6279004
000030 b0 4a 9e be 7c f4 a7 3e a9 49 6f be c9 43 09 be
       -0.30916357 0.32803714 -0.23367943 -0.13404764
000040 0f e0 3a 3e 7d 54 4b 3e 7a 96 57 3e 3f 75 f8 be
       0.18249534 0.19856448 0.21053496 -0.48526952
000050 b1 b0 60 3e 59 78 9e bf 87 33 cd bd d7 02 32 bf
       0.21942402 -1.2380477 -0.10019594 -0.69535583

fc1.0.bias f4 [24]
000000 9e ce 86 3d e3 91 5d 3d c2 dd 56 be 08 3f 60 bd
       0.06582378 0.054094207 -0.20983031 -0.05474761
000010 2a db ab be a8 3a ef 3d 00 dc 0e bd 68 b0 88 be
       -0.33565646 0.1168111 -0.034877777 -0.26697087
000020 bc 58 4d bc 8f 15 36 3e 46 60 92 3c 32 01 6a bd
       -0.012533363 0.17781661 0.017868172 -0.057130046
000030 d0 f2 70 bb ce 70 ad 3d f8 03 69 be b9 a5 e0 bb
       -0.0036765821 0.084687814 -0.2275542 -0.006855693
000040 61 51 4f be f1 e9 4c bd 32 f3 40 bd 71 3e 51 bd
       -0.20245887 -0.05002779 -0.04710693 -0.05108494
000050 46 8b 5d bd e5 29 a6 be 1b 85 8d be 36 e3 90 bd
       -0.0540879 -0.32453838 -0.27640614 -0.07074587

fc1.0.weight_orig f4 [24, 6]
000000 04 d8 56 3f 14 53 81 be dd f5 a5 3f a3 b5 a1 be
       0.83923364 -0.25258696 1.2965657 -0.3158389
000010 4f 58 5b 3f 4f f7 6a bf 77 ae bd 3e c7 b7 17 3e
       0.85681623 -0.9178361 0.3704717 0.14816199
000020 a2 8b 8c 3f 2c 14 f7 3b 8c 83 8c 3e 07 1e 3a bf
       1.0980113 0.0075402465 0.27444112 -0.7270207
000030 3b 43 01 3f f6 dc 03 3d c3 6f 54 3e 44 a2 6d bc
       0.5049321 0.032193147 0.20745759 -0.014504019
000040 b7 85 05 3f 24 5f bb bf 5e 94 0e 3f c3 1c 9e be
       0.5215716 -1.463841 0.5569514 -0.30881318
000050 33 56 54 3f 26 83 4f be 09 b9 e0 3e f2 e9 08 3f
       0.8294403 -0.20264873 0.4389117 0.5348197
000060 48 40 92 bd ab f6 18 be 9b 41 ce be ac 03 3f bd
       -0.07141167 -0.14937846 -0.40284428 -0.04663436
000070 0b 25 88 bd 06 7c 0a bf 7e 64 12 bb e3 26 14 3f
       -0.066476904 -0.54095495 -0.002233773 0.57871836
000080 5c 4c 6e 3e 27 24 fc 3e 5e 75 01 3e 3b 19 75 3f
       0.23271316 0.49246332 0.12642428 0.95741624
000090 22 de b8 be 4d 3e 32 3f db af 63 3e e6 e3 ac 3e
       -0.36106974 0.69626313 0.22235052 0.33767623
0000a0 bf 7b 57 be 90 7d 16 3f e2 df 92 3d 9d bc e9 3d
       -0.21043299 0.58785343 0.071716085 0.11412928
0000b0 b6 9d b4 bd f7 a3 20 3e 77 a0 d8 3d b8 86 86 bf
       -0.088191435 0.15687548 0.10577481 -1.0509863
0000c0 cf a8 1f bd 5d 57 c8 3c cb f1 08 3d 57 92 f1 3d
       -0.038979348 0.02445572 0.033433717 0.1179549
0000d0 1e ec 06 bd 9a dd b0 3f b0 88 f5 3d cf 2d b6 3e
       -0.032940023 1.3817627 0.11988962 0.35581824
0000e0 ab cb 43 3f 6e ac 51 3e 0b b7 13 3e f8 02 a2 3f
       0.7648265 0.20475933 0.14425294 1.2657156
0000f0 15 30 45 3f e2 df 15 bd 2b 8e 43 3f 38 36 a4 bd
       0.7702649 -0.036590464 0.76388806 -0.08018154
000100 d7 7b 29 3f e9 76 23 bf b1 3b 21 3f 19 fd 6e be
       0.6620459 -0.6385332 0.62981707 -0.23338737
000110 e0 42 83 3f 42 28 9b be 66 c3 1b 3f 97 bf 84 bf
       1.0254784 -0.30304152 0.6084503 -1.0370969
000120 6e c8 6f 3f 1e b0 ce bd f9 31 d5 b9 ec dd 45 be
       0.93665206 -0.100921854 -0.00040663758 -0.19322938
000130 eb 21 57 3f 74 3c 7b be 85 d2 08 3f b5 97 78 3d
       0.8403613 -0.2453478 0.5344623 0.060691554
000140 ab 8f ca 3e 51 ab 60 3c 10 29 1b 3f 46 6f 98 3f
       0.39562735 0.01371272 0.6060953 1.1908958
000150 4c 78 8f bd 8b 4e ee be 61 7a b1 3e 1a 82 d5 be
       -0.07005367 -0.465443 0.3466368 -0.41700822
000160 33 b1 36 be fd 6e cc 3e 89 cb b4 bc c7 0c 6f 3a
       -0.17841034 0.39928427 -0.02206971 0.00091190304
000170 37 5f ef bc 41 17 90 bc 09 68 93 bc 6d 69 37 3f
       -0.029220207 -0.017589213 -0.017993944 0.7164524
000180 b2 a9 29 bd 3d 53 da 3d 57 b3 18 3f 8d 0d bb 3d
       -0.0414216 0.10660408 0.5964865 0.09133444
000190 0b 06 b4 3d f1 0d 8d bf 63 35 07 3d 09 e2 8e 3d
       0.08790215 -1.101988 0.033009898 0.069767065
0001a0 3a 27 53 3f cc e5 93 3c 07 4f 12 bd 06 41 44 3f
       0.8248173 0.018053912 -0.035719898 0.7666172
0001b0 7c 00 0d 3f 28 ea 43 3d 34 f8 62 3f 48 a1 2c 3e
       0.55078864 0.04783073 0.8865998 0.16858399
0001c0 d9 82 fd 3e 3e ec c1 bf 2c 91 2f 3f 66 7a fb be
       0.4951389 -1.515022 0.6858089 -0.4911682
0001d0 35 b6 11 3f fb bc e3 be f1 3b d7 3e 65 18 b0 3e
       0.5691865 -0.44480118 0.4203792 0.34393612
0001e0 81 4c 19 3e 7f 81 86 3d a0 a9 af 3e 38 45 a1 3d
       0.1497059 0.06567668 0.343091 0.078745306
0001f0 46 5b 06 3e bb 1c d8 3f f6 dd 5a be 95 96 1c be
       0.13120756 1.6883768 -0.21373734 -0.15291817
000200 33 93 6c be 72 40 a3 bd 04 79 0f be 77 44 7b bf
       -0.23103027 -0.07971276 -0.14011008 -0.98151344
000210 c0 3d 99 3e a9 b3 0b 3d 3f 91 4d 3e 7e cc 98 bc
       0.29929924 0.034106884 0.20074938 -0.018652197
000220 2d da 83 3e c5 d4 f9 bf d7 78 34 3f c7 95 37 be
       0.25752392 -1.9518057 0.70496887 -0.1792823
000230 3a 81 37 3f 57 b5 b4 be 78 e8 19 3f fd e4 2f be
       0.7168156 -0.352946 0.60120344 -0.17177196

fc1.0.weight_u f4 [24]
000000 ba 87 96 be d7 fc 4a be b1 2e 9d be be 3e 16 3c
       -0.29400426 -0.19823013 -0.30699685 0.009170232
000010 a1 3d 98 bd 99 0e 2b 3e ea f1 06 3e 04 b0 3b be
       -0.0743363 0.16704787 0.1317822 -0.18328863
000020 e5 80 7a 3e 3c c7 3d 3e 17 97 52 be 5a 35 91 be
       0.24463232 0.18533033 -0.20565449 -0.28361017
000030 f5 5c f9 bd e2 ad 13 3e b7 6e 59 3d 7a c3 02 3e
       -0.12175933 0.144218 0.0530841 0.12769881
000040 7f 6c 5d be b7 44 cd 3d b1 6d af be e8 c3 c3 bc
       -0.21623419 0.10022872 -0.34263375 -0.023897126
000050 ba 5d 8a 3e 3d 49 19 be 30 a2 be be dd 12 fb bd
       0.27024633 -0.14969344 -0.37233114 -0.12259457

fc1.0.weight_v f4 [6]
000000 c0 e4 6b be 84 bd 94 3d aa f5 62 be 7e 98 95 3d
       -0.2303648 0.0726271 -0.22164026 0.07304476
000010 46 13 59 be 71 f1 6a 3f
       -0.21198758 0.9177466

fc1.1.weight f4 [24, 24]
000000 b7 67 2f bf 5f 3c fa be 42 9a 9a 3f 76 42 9e 3f
       -0.6851763 -0.48874184 1.2078326 1.2364032
000010 d4 f3 1e 40 2f 3a 07 c0 17 c1 e6 3f 6a b2 29 3e
       2.483632 -2.1129262 1.8027676 0.16571966
000020 de 22 da 3e 3f 45 bf bf 2f b0 7b bf 17 07 9d 3f
       0.42604727 -1.4943007 -0.9831571 1.2267789
000030 c7 97 6b be 6e dc b9 be 9e 8e 13 bf 2b 46 23 c0
       -0.23007117 -0.36300987 -0.5763949 -2.5511577
000040 f1 c7 ad 3e 5a b2 47 bf c8 46 46 bf 4f 5a 9a 3f
       0.33941606 -0.7800652 -0.77451754 1.205881
000050 1f b4 b2 3e c5 89 c4 3f d5 37 8e bf 74 38 88 3f
       0.34903046 1.5354544 -1.1110789 1.0642228
000060 d4 3e 4c 3e 55 86 70 3f 88 e3 4c 3e 07 21 95 bf
       0.19945842 0.93954974 0.20008671 -1.1650704
000070 60 c2 68 3f ad 82 a0 3e 06 25 b0 3e 01 6c dc 3f
       0.9092159 0.31349698 0.34403247 1.722046
000080 7b 73 c7 3f 37 65 aa bf 27 bb 54 bf ad 6f 26 c0
       1.5582117 -1.3312138 -0.8309807 -2.6005661
000090 6a 0c 5a bf 64 a2 08 40 f5 34 5d be 6b 2b f1 bd
       -0.8517519 2.1349115 -0.21602233 -0.117758594
0000a0 22 f4 84 3e 4f d0 0a 3f ab 12 20 3f a4 f2 90 3f
       0.2596751 0.54224104 0.62528485 1.1324048
0000b0 f8 5c 8d be d7 2f 5e 3d e2 2a 95 bf 16 17 97 3f
       -0.27609992 0.054244842 -1.1653712 1.180392
0000c0 df db 14 3f 9c f3 08 40 e5 95 03 40 2a c5 2a bf
       0.58147997 2.1398687 2.0560238 -0.667071
0000d0 92 dc 21 3f c4 d7 5f 3f bd 9d f7 be a2 ec 2c 3f
       0.6322719 0.8743861 -0.48362532 0.67548573
0000e0 4a 29 4e bf 72 06 a0 bf 49 da 7a bf d6 2f 87 3d
       -0.8053175 -1.2501967 -0.97989327 0.06600921
0000f0 a6 07 95 3f d3 de 2a 3f 5b b7 32 be 02 2b ff bf
       1.1642959 0.6674625 -0.17452757 -1.9935
000100 21 43 99 bf e2 2d e4 3f 71 74 d9 3f aa cb b4 bf
       -1.1973611 1.7826502 1.698866 -1.4124653
000110 ff 9c 8f bf 94 bd c7 3f 09 fb 80 3f 25 00 fa 3e
       -1.1219786 1.560473 1.007661 0.48828235
000120 d0 0e ce 3e bb dc 42 3e 3c 3c e1 3f 29 3d 9e bf
       0.40245676 0.19029514 1.7596507 -1.2362415
000130 fe 15 19 3f 5c d9 18 bf a5 24 fa 3e 95 f3 54 3f
       0.5979918 -0.59706664 0.48856083 0.83184177
000140 1e 39 73 be bb bd 93 bf a1 e0 92 bf 2f de e0 be
       -0.23752257 -1.1542276 -1.1474801 -0.43919513
000150 08 59 02 be ce 2e 48 3f 6b 8f a9 3f b7 79 eb be
       -0.12729275 0.7819642 1.3246893 -0.459913
000160 b7 da 04 c0 a5 ed f0 3e bb df 80 3f b0 11 c5 bf
       -2.0758493 0.47056308 1.0068277 -1.5396023
000170 04 8b a9 be 8a aa b6 3f 09 27 1b 3f 00 b9 ee bf
       -0.33113873 1.4270794 0.6060644 -1.8650208
000180 f4 2a c0 3f fa 37 01 40 8b 16 bd 3f 38 d7 8c be
       1.5013108 2.0190415 1.4772505 -0.2750795
000190 ba 6c d6 3f 83 6b de 3f 62 55 3b bf 93 95 6e 3e
       1.6751931 1.737656 -0.7317716 0.23299246
0001a0 0d ee 33 bf c2 5d 09 be c8 e4 3f 3f 88 18 56 3f
       -0.7028511 -0.13414672 0.7495847 0.8363118
0001b0 31 bc d5 be f9 dd 92 3f b8 f6 b4 3d 54 53 1d c0
       -0.4174514 1.1473991 0.0883612 -2.458211
0001c0 51 23 cd bf 4d f8 87 3a 07 8e 86 be 1c fd 4c c0
       -1.6026403 0.0010373682 -0.26280233 -3.2029486
0001d0 2f 53 01 c0 4e 32 f0 3e bd e8 45 3f 12 fa ef 3f
       -2.0207021 0.4691338 0.77308255 1.874819
0001e0 de 59 36 3f 9d 74 91 3f 0e 82 92 3f 90 b7 46 3e
       0.71230876 1.1363713 1.144594 0.19405961
0001f0 db a8 a7 3f 25 38 f2 bf f2 81 89 3e bc 4a 9f 3f
       1.3098406 -1.8923384 0.26856953 1.2444682
000200 aa 1a 3d bf 78 40 f7 be 41 a0 54 bf fe de 2e 3f
       -0.7386881 -0.48291373 -0.8305703 0.6830901
000210 17 d3 0f 3e 81 6b 4a bf 49 cd 82 3e 07 d3 dd 3f
       0.14045368 -0.7907029 0.25547245 1.7330025
000220 38 76 aa 3f ac 15 a6 be a1 21 95 bf a1 8f 89 3f
       1.3317327 -0.3243841 -1.1650888 1.0746957
000230 dc f0 8f be 50 d5 ac bf 25 52 43 bf a6 99 86 3f
       -0.2811345 -1.3502598 -0.7629722 1.051564
000240 4c c6 87 3f 2b f3 e7 3e 71 b0 cc 3e f6 04 a7 bf
       1.060739 0.4530271 0.39978364 -1.3048389
000250 c9 f1 44 3f 79 b6 09 3f 10 8b 6b bd 1e 1c 98 3e
       0.76931435 0.53794056 -0.057505667 0.29708952
000260 d9 0c 2c bf 6f eb 06 bf bc 3e 4a be 16 bb 32 40
       -0.67207104 -0.52702993 -0.19750494 2.7926688
000270 f4 63 48 bf 31 7a 89 3f 04 16 e7 3f 9a 38 94 c0
       -0.78277516 1.0740415 1.8053594 -4.6319094
000280 dd e0 97 bf ee 7e 25 40 14 67 26 3f 87 49 ed bd
       -1.1865498 2.5858722 0.65001035 -0.1158629
000290 83 22 8b bf 25 49 fe 3f f1 09 86 3d 5b 06 3d 3f
       -1.0869907 1.9866072 0.06544865 0.7383782
0002a0 c0 ed 58 bf 3b f0 02 3f d9 cd 30 bf 09 0d 63 3d
       -0.8473778 0.5114781 -0.690641 0.055432353
0002b0 11 40 21 3f 76 f2 04 40 b9 fb b8 be 6f 02 35 3f
       0.6298838 2.0772986 -0.3612955 0.7070684
0002c0 58 92 87 bd f4 64 14 bf 1e 3a 4d be d6 97 17 3e
       -0.0661971 -0.5796654 -0.20041701 0.14804015
0002d0 a6 0d 00 c0 3e 3d 85 be 03 86 0f 3f 64 1e 26 3d
       -2.000833 -0.26023287 0.5606386 0.040556327
0002e0 4d f4 2c bf 34 ab 26 bf ce a2 aa 3e 79 62 0f 3f
       -0.67560273 -0.65104985 0.33327335 0.5600963
0002f0 e4 39 ef bf bc 42 ae be b6 dc 80 be 29 e9 af 3f
       -1.8689542 -0.3403529 -0.2516839 1.374303
000300 a1 55 9e bd 85 58 8f be 27 d6 80 3e 8f e5 4e be
       -0.07731176 -0.27997223 0.25163385 -0.20204757
000310 8a 50 2e 3f f3 64 74 3f 4f 03 35 bf be b2 1a bf
       0.6809164 0.95466536 -0.70708174 -0.6042899
000320 d3 0e 85 bf 34 29 de bf f6 55 6d 3f af 9f 56 3e
       -1.0395149 -1.7356324 0.9270929 0.20959352
000330 bd 8f 26 bd a9 02 01 40 48 98 b9 bd fe 48 83 bf
       -0.040664423 2.0157874 -0.090622485 -1.025665
000340 bc 8f c3 bf 03 9d d9 3f 75 69 2a be 8b 64 50 bf
       -1.5278239 1.7001041 -0.16641791 -0.81403416
000350 f0 d3 c5 be 6a 6a 78 3d 34 22 31 bf 9c fb a9 bf
       -0.38638258 0.06064836 -0.69192815 -1.327991
000360 5e 1f 8c 3f 12 6a 03 3d 13 db 92 3f 53 93 5b bf
       1.0947073 0.03208358 1.1473106 -0.85771674
000370 64 bf 11 40 8b 6a 5e 3f fe da 59 bf 04 c8 d4 be
       2.2773066 0.8688132 -0.8509978 -0.4155885
000380 9a 0f 07 c0 32 9d 02 bd eb 52 2e 3f 55 50 9f bf
       -2.1103272 -0.031888194 0.6809527 -1.244639
000390 2b ac 0f 3e 81 a7 d8 bf a2 87 2f 3f 3c 2e b8 bf
       0.1403052 -1.6926118 0.68566334 -1.438911
0003a0 af e7 c9 bf c2 ad ef 3f 82 35 68 3b 4a 32 b9 be
       -1.5773829 1.8724902 0.0035432284 -0.3617118
0003b0 bd 8c fc bd e1 a3 8a 40 3a 62 f8 3d 82 ce f8 be
       -0.12331531 4.3325047 0.1212811 -0.48595053
0003c0 14 e5 ac be 9b bc d8 be 6a 31 c5 3f de a1 51 bf
       -0.33768523 -0.42331395 1.5405705 -0.81887615
0003d0 d6 9d 95 3f 6f 86 a0 3f 1d 44 98 3f bc 2c fc 3f
       1.1688793 1.2541026 1.1895787 1.9701152
0003e0 db a4 33 bf 40 b1 ad be 64 a8 bd bf 40 40 87 3f
       -0.70173424 -0.33924294 -1.4817014 1.0566483
0003f0 a8 f4 c9 3c 39 69 1c 40 10 2d c3 be ef cb b2 bf
       0.024652794 2.4439223 -0.38120317 -1.3968486
