models/17_05_2021/stock_self_attn_MSE_hinge_10000_64_24_6_24_5/7000_generator.pth (torch, 54798 bytes, 39 tensors)

position.pe f4 [1, 24, 24]
0	0x00000000	0.0
1	0x3f800000	1.0
2	0x00000000	0.0
3	0x3f800000	1.0
4	0x00000000	0.0
5	0x3f800000	1.0
6	0x00000000	0.0
7	0x3f800000	1.0
8	0x00000000	0.0
9	0x3f800000	1.0
10	0x00000000	0.0
11	0x3f800000	1.0
12	0x00000000	0.0
13	0x3f800000	1.0
14	0x00000000	0.0
15	0x3f800000	1.0
16	0x00000000	0.0
17	0x3f800000	1.0
18	0x00000000	0.0
19	0x3f800000	1.0
20	0x00000000	0.0
21	0x3f800000	1.0
22	0x00000000	0.0
23	0x3f800000	1.0
24	0x3f576aa4	0.84147096
25	0x3f0a5141	0.54030234
26	0x3ee5351d	0.44767085
27	0x3f64ea30	0.8941984
28	0x3e5ae952	0.21378067
29	0x3f7a14eb	0.9768817
30	0x3dcc7576	0.099833414
31	0x3f7eb898	0.9950042
32	0x3d3e0d1e	0.04639923
33	0x3f7fb96a	0.99892294
34	0x3cb07a47	0.021542681
35	0x3f7ff0ca	0.9997679
36	0x3c23d657	0.009999833
37	0x3f7ffcb9	0.99995
38	0x3b981857	0.0046415734
39	0x3f7fff4b	0.9999892
40	0x3b0d3164	0.0021544332
41	0x3f7fffd9	0.9999977
42	0x3a83126d	0.0009999998
43	0x3f7ffff8	0.9999995
44	0x39f35a5c	0.00046415895
45	0x3f7ffffe	0.9999999
46	0x3961e8ab	0.00021544348
47	0x3f800000	1.0
48	0x3f68c7b7	0.9092974
49	0xbed51133	-0.41614684
50	0x3f4cf4fb	0.8006131
51	0x3f1963f8	0.59918165
52	0x3ed5d9be	0.41767687
53	0x3f6899b9	0.9085956
54	0x3e4b6ff8	0.19866931
55	0x3f7ae5a5	0.9800666
56	0x3dbdd8b7	0.09269851
57	0x3f7ee5d1	0.9956942
58	0x3d306fcb	0.043075364
59	0x3f7fc32c	0.99907184
60	0x3ca3d43e	0.019998666
61	0x3f7ff2e5	0.9998
62	0x3c1817ec	0.009283047
63	0x3f7ffd2d	0.9999569
64	0x3b8d314e	0.004308856
65	0x3f7fff64	0.9999907
66	0x3b031268	0.0019999985
67	0x3f7fffdf	0.99999803
68	0x3a735a5b	0.00092831784
69	0x3f7ffff9	0.9999996
70	0x39e1e8ab	0.00043088695
71	0x3f7fffff	0.99999994
72	0x3e1081c3	0.14112
73	0xbf7d7026	-0.9899925
74	0x3f7bf0ce	0.98414314
75	0x3e35a216	0.17737612
76	0x3f1a2dc8	0.60226107
77	0x3f4c5d56	0.7982992
78	0x3e974e6c	0.2955202
79	0x3f7490ef	0.9553365
80	0x3e0e2117	0.1387981
81	0x3f7d85a8	0.9903207
82	0x3d8446bd	0.06458805
83	0x3f7f7729	0.997912
84	0x3cf5b91f	0.0299955
85	0x3f7fe283	0.99955004
86	0x3c6422d5	0.01392432
87	0x3f7ff9a6	0.9999031
88	0x3bd3c9bf	0.006463259
89	0x3f7ffea2	0.99997914
90	0x3b449b92	0.0029999954
91	0x3f7fffb5	0.9999955
92	0x3ab683c2	0.0013924765
93	0x3f7ffff0	0.99999905
94	0x3a296e7f	0.00064633036
95	0x3f7ffffd	0.9999998
96	0xbf41bdcf	-0.7568025
97	0xbf275530	-0.6536436
98	0x3f759ce7	0.9594254
99	0xbe905d6c	-0.28196275
100	0x3f424dbe	0.75899875
101	0x3f26adf9	0.6510921
102	0x3ec761d7	0.38941833
103	0x3f6bcaa7	0.921061
104	0x3e3d0773	0.18459873
105	0x3f7b99b2	0.98281395
106	0x3db045df	0.08607077
107	0x3f7f0ccc	0.996289
108	0x3d23cbdb	0.039989334
109	0x3f7fcb94	0.9992001
110	0x3c98163e	0.018565293
111	0x3f7ff4b4	0.9998276
112	0x3c0d30f8	0.008617632
113	0x3f7ffd91	0.99996287
114	0x3b831257	0.003999989
115	0x3f7fff7a	0.999992
116	0x3af35a54	0.0018566349
117	0x3f7fffe3	0.9999983
118	0x3a61e8a9	0.0008617738
119	0x3f7ffffa	0.99999964
120	0xbf757c10	-0.9589243
121	0x3e913c2c	0.2836622
122	0x3f3b500a	0.73169005
123	0xbf2e7fcb	-0.68163747
124	0x3f6171cf	0.88064283
125	0x3ef29363	0.47378072
126	0x3ef57743	0.47942552
127	0x3f60a940	0.87758255
128	0x3e6b8593	0.23000173
129	0x3f7922ff	0.97319025
130	0x3ddc300e	0.10751353
131	0x3f7e8421	0.9942036
132	0x3d4cb6f4	0.049979165
133	0x3f7fae19	0.99875027
134	0x3cbe1a3c	0.023205869
135	0x3f7fee5a	0.9997307
136	0x3c307ce6	0.010771966
137	0x3f7ffc33	0.999942
138	0x3ba3d6dd	0.004999979
139	0x3f7fff2e	0.9999875
140	0x3b181871	0.0023207928
141	0x3f7fffd3	0.9999973
142	0x3a8d3169	0.0010772172
143	0x3f7ffff6	0.9999994
144	0xbe8f0f8c	-0.2794155
145	0x3f75cdb8	0.96017027
146	0x3eb2c0c6	0.349127
147	0xbf6fe42d	-0.93707544
148	0x3f762963	0.961569
149	0x3e8c938f	0.27456328
150	0x3f108c68	0.5646424
151	0x3f534932	0.8253356
152	0x3e8cc0e9	0.2749093
153	0x3f7622e9	0.9614702
154	0x3e040009	0.12890638
155	0x3f7ddd38	0.9916568
156	0x3d759cd1	0.059964005
157	0x3f7f8a12	0.99820054
158	0x3ce41d2b	0.02784594
159	0x3f7fe696	0.9996122
160	0x3c53c89d	0.012926248
161	0x3f7ffa86	0.99991643
162	0x3bc49b58	0.0059999637
163	0x3f7ffed2	0.999982
164	0x3b3683b7	0.0027849504
165	0x3f7fffbf	0.9999961
166	0x3aa96e7d	0.0012926605
167	0x3f7ffff2	0.99999917
168	0x3f283046	0.6569866
169	0x3f40ffbd	0.75390226
170	0xbddbc69f	-0.10731243
171	0xbf7e858d	-0.9942253
172	0x3f7f7f41	0.9980355
173	0x3d804f23	0.06265094
174	0x3f24eb72	0.6442176
175	0x3f43ccb3	0.7648422
176	0x3ea3716a	0.31922466
177	0x3f729b18	0.94767904
178	0x3e19d85d	0.15023942
179	0x3f7d1825	0.98864967
180	0x3d8f3e32	0.06994285
181	0x3f7f5f81	0.997551
182	0x3d050f6e	0.032485418
183	0x3f7fdd69	0.9994722
184	0x3c771415	0.0150804715
185	0x3f7ff88c	0.9998863
186	0x3be55fc5	0.006999942
187	0x3f7ffe65	0.9999755
188	0x3b54eef8	0.003249107
189	0x3f7fffa8	0.99999475
190	0x3ac5ab91	0.0015081038
191	0x3f7fffed	0.99999887
192	0x3f7d4695	0.98935825
193	0xbe14fdf6	-0.14550003
194	0xbf0a81e3	-0.5410444
195	0xbf574b62	-0.840994
196	0x3f7d04e9	0.9883562
197	0xbe1bcf59	-0.15215816
198	0x3f37a4a5	0.717356
199	0x3f325b5f	0.6967067
200	0x3eb9c7cb	0.36285242
201	0x3f6e8d80	0.9318466
202	0x3e2f9e69	0.17150272
203	0x3f7c34ff	0.98518366
204	0x3da3aa50	0.07991469
205	0x3f7f2e65	0.9968017
206	0x3d180f89	0.03712419
207	0x3f7fd2d3	0.9993107
208	0x3c8d2fa1	0.017234625
209	0x3f7ff644	0.99985147
210	0x3c031212	0.007999914
211	0x3f7ffde7	0.999968
212	0x3b735a38	0.0037132632
213	0x3f7fff8c	0.9999931
214	0x3ae1e8a4	0.001723547
215	0x3f7fffe7	0.9999985
216	0x3ed30132	0.4121185
217	0xbf693fd5	-0.91113025
218	0xbf5c3bf1	-0.86028963
219	0xbf02829f	-0.5098056
220	0x3f6ed7af	0.9329786
221	0xbeb84901	-0.35993198
222	0x3f48881c	0.78332686
223	0x3f1f21d5	0.62161
224	0x3ecfb7ba	0.4056986
225	0x3f69fc5c	0.91400695
226	0x3e454f97	0.19268642
227	0x3f7b33e1	0.98126036
228	0x3db8123e	0.089878544
229	0x3f7ef6c2	0.9959527
230	0x3d2b0ecd	0.041762162
231	0x3f7fc6d3	0.99912757
232	0x3c9ed50c	0.019388698
233	0x3f7ff3ae	0.999812
234	0x3c13743a	0.008999879
235	0x3f7ffd59	0.9999595
236	0x3b88e2ba	0.0041774185
237	0x3f7fff6e	0.9999913
238	0x3afe25b6	0.0019389901
239	0x3f7fffe1	0.99999815
240	0xbf0b44f8	-0.5440211
241	0xbf56cd64	-0.8390715
242	0xbf7f5bd1	-0.99749476
243	0xbd90e07e	-0.070740685
244	0x3f559f61	0.8344632
245	0xbf0d1282	-0.55106366
246	0x3f576aa4	0.84147096
247	0x3f0a5141	0.54030234
248	0x3ee5351e	0.44767088
249	0x3f64ea30	0.8941984
250	0x3e5ae953	0.21378069
251	0x3f7a14eb	0.9768817
252	0x3dcc7576	0.099833414
253	0x3f7eb898	0.9950042
254	0x3d3e0d21	0.04639924
255	0x3f7fb96a	0.99892294

r_cell.w_qs.weight f4 [24, 24]
0	0xbe7ed92e	-0.24887535
1	0x3e2d6570	0.16933227
2	0x3e01f350	0.12690473
3	0x3ecae812	0.3963018
4	0xbd07ad1d	-0.033124078
5	0xbe127c8d	-0.14305325
6	0xbe0e1af0	-0.13877463
7	0x3ef36602	0.47538763
8	0x3ee9ef9f	0.4569063
9	0x3da6dbb1	0.081473716
10	0x3e1ef682	0.15523723
11	0xbe59bfac	-0.21264523
12	0x3efa74f7	0.48917362
13	0xbe3d12d6	-0.18464217
14	0xbdcfbbbb	-0.101432286
15	0xbe7fd8e9	-0.24985088
16	0x3e369480	0.17830086
17	0xbe0bce33	-0.13652878
18	0xbe09d4ca	-0.13460079
19	0x3eba6ff7	0.36413547
20	0xbddc0554	-0.10743204
21	0x3dd477f9	0.103744455
22	0x3e9be1b4	0.30445635
23	0xbeca3ee6	-0.39501113
24	0x3d1e789f	0.038689252
25	0xbd99759b	-0.074931346
26	0x3dcabfd6	0.09899871
27	0x3d5657f3	0.05232997
28	0xbe2ec170	-0.17065978
29	0xbdbe4ae6	-0.092916295
30	0x3f015cb1	0.5053206
31	0xbe879e65	-0.26488033
32	0x3e797a6a	0.24363104
33	0x3de63e8d	0.11242399
34	0xbd4b2eb0	-0.04960507
35	0x3d8bb956	0.068224594
36	0x3d1a11fb	0.037614804
37	0x3e928885	0.2861978
38	0xbf098c8c	-0.5373008
39	0xbe2cbaba	-0.16868106
40	0x3e8519f5	0.25996366
41	0x3e67a3df	0.22621106
42	0xb9357de7	-0.00017308407
43	0x3e804fd8	0.25060916
44	0x3e48a122	0.19592717
45	0x3debe181	0.11517621
46	0x3eb01490	0.34390688
47	0x3ca31018	0.019905135
48	0xbd3687b6	-0.044563018
49	0xbe4af4ac	-0.19819897
50	0xbd977ed8	-0.073972404
51	0x3e62c02a	0.22143617
52	0xbe81fe50	-0.25389338
53	0x3e88b431	0.26699975
54	0x3be4f3bd	0.0069870637
55	0x3e8b402f	0.27197406
56	0xbe9a75c0	-0.3016796
57	0xbea38d3c	-0.3194369
58	0x3e004816	0.12527499
59	0x3f12a241	0.5727883
60	0x3ead97a7	0.33904764
61	0x3ca54060	0.020172298
62	0x3e263ed0	0.16234899
63	0x3d9d93b1	0.076941855
64	0xbd3083ab	-0.04309432
65	0xbe49ffd0	-0.19726491
66	0xbefd5c8d	-0.49484673
67	0xbee340d1	-0.44385388
68	0xbc8bae21	-0.017050805
69	0xbdadf940	-0.08494806
70	0xbd2cf178	-0.04222247
71	0xbe0a6431	-0.13514782
72	0x3dd58a33	0.1042675
73	0x3c102e06	0.008800035
74	0xbc82db7e	-0.015973803
75	0x3eddcf97	0.4332244
76	0xbe3af8f4	-0.1825903
77	0x3d672117	0.05642804
78	0xbeb383f8	-0.35061622
79	0x3dd54239	0.104130216
80	0x3ee70ef6	0.45128602
81	0xbeb0ea3d	-0.3455371
82	0xbd6be310	-0.05758959
83	0x3c6b936a	0.014378408
84	0x3e444c37	0.19169699
85	0xbec4d6dc	-0.38445175
86	0xbe3ae32b	-0.1825072
87	0x3eb52982	0.3538323
88	0xbe2f5a94	-0.17124397
89	0xbba447bb	-0.0050134338
90	0xbe19a297	-0.1500343
91	0x3ec2ba60	0.38032818
92	0x3e7c0587	0.24611484
93	0x3e3235d3	0.17403345
94	0xbe1cc64d	-0.1531002
95	0xbe96e76a	-0.2947343
96	0x3e5d8c66	0.21635589
97	0x3ea08f36	0.3135926
98	0x3e6d85fe	0.23195645
99	0xbda8ac9b	-0.08236047
100	0x3f01ae46	0.50656545
101	0x3c3f0654	0.011659224
102	0x3ca32647	0.019915713
103	0xbe81f6fc	-0.25383747
104	0x3e05d680	0.13070107
105	0x3f01d4ef	0.50715536
106	0xbe0408b6	-0.12893948
107	0xbe42ccc6	-0.19023427
108	0xbf22d597	-0.6360716
109	0xbf27b9f3	-0.6551811
110	0x3cca1c3b	0.024671664
111	0xbda8cba9	-0.0824197
112	0xbe82a360	-0.2551527
113	0x3d9c144b	0.07621058
114	0x3b8efa83	0.0043633594
115	0xbe83556f	-0.25651118
116	0xbc8e7b69	-0.01739283
117	0x3e5d94eb	0.21638839
118	0x3d244f7b	0.04011486
119	0x3a171496	0.00057632604
120	0x3e5fcfda	0.21856633
121	0x3c3e91d1	0.011631445
122	0xbcf4bf8c	-0.029876493
123	0xbdb67f46	-0.08910994
124	0xbe8c9cc2	-0.27463347
125	0x3dd80a8f	0.10548889
126	0x3e2e78e9	0.17038311
127	0xbb2951d0	-0.0025836118
128	0x3e2db16e	0.16962215
129	0x3ed7127d	0.42006293
130	0xbf22b2e8	-0.6355424
131	0xbed2597a	-0.4108389
132	0x3f07d63d	0.53061277
133	0x3d453e89	0.04815534
134	0xbe3243d0	-0.17408681
135	0x3d1a4462	0.03766287
136	0xbd384177	-0.044984307
137	0xbd121a27	-0.035669472
138	0x3e92bc51	0.286593
139	0x3e14330b	0.14472596
140	0xbed1fab3	-0.4101158
141	0x3ea62eff	0.3245773
142	0x3df611f8	0.12015146
143	0xbdf6b927	-0.12047034
144	0xbeee6148	-0.46558595
145	0xbea414ea	-0.32047206
146	0xbf045efa	-0.5170742
147	0x3dd6bb66	0.10484962
148	0xbed0fd71	-0.4081836
149	0xbe10088a	-0.14065757
150	0xbdc60047	-0.09668022
151	0xbd9908c6	-0.074723765
152	0x3de7b983	0.113146804
153	0x3e36be37	0.17845999
154	0x3ee132c5	0.43984047
155	0x3e8a3115	0.26990572
156	0xbe4f9622	-0.20272115
157	0xbe5c02c8	-0.21485436
158	0x3efca723	0.49346265
159	0xbea96164	-0.33082116
160	0xbee7336b	-0.45156416
161	0x3d2e6938	0.042580813
162	0xbe8d5125	-0.2760097
163	0x3f07efca	0.53100264
164	0xbc69f911	-0.014280573
165	0xbe75b041	-0.23993017
166	0x3ee63c7a	0.44968015
167	0x3ebfc6e4	0.3745643
168	0x3dd27da6	0.10277872
169	0x3e315d0f	0.17320655
170	0x3e4178a1	0.18893673
171	0x3c96859e	0.01837426
172	0xbe9164c7	-0.283972
173	0x3eb67a00	0.35639954
174	0x3e6b1643	0.22957711
175	0x3e905575	0.281902
176	0x3d8ac14f	0.06775152
177	0x3e14b6d2	0.14522865
178	0x3f187f1c	0.59568954
179	0xbee03fc1	-0.4379864
180	0xbde8ea6c	-0.113728374
181	0xbec6c31b	-0.3882073
182	0xbce73530	-0.028223604
183	0x3dbe2cbd	0.09285877
184	0x3f065929	0.524798
185	0x3cd5c78b	0.026096126
186	0xbc01a441	-0.007912696
187	0x3e764b49	0.24052157
188	0x3f576840	0.8414345
189	0x3e697b11	0.22800852
190	0x3d502085	0.050812263
191	0xbe2aecb5	-0.16691859
192	0x3e3a1710	0.1817286
193	0x3e334a57	0.17508827
194	0x3ea8586b	0.32879958
195	0x3dc4ab49	0.096029826
196	0x3e274791	0.16335894
197	0xbd12766a	-0.03575746
198	0xbe1a2644	-0.1505366
199	0x3e0696bb	0.13143437
200	0x3e776a3e	0.24161622
201	0xbf2fcc74	-0.68671346
202	0xbe5495f9	-0.20760335
203	0xbe1f296f	-0.1554315
204	0xbd1c1920	-0.0381099
205	0xbe52eb27	-0.20597516
206	0xbd85a636	-0.06525843
207	0x3f553be8	0.83294535
208	0x3e713c79	0.23558225
209	0x3c3476d2	0.011014657
210	0xbc8438f4	-0.016140439
211	0x3edcb6d4	0.43108237
212	0x3d6a5146	0.057206415
213	0x3e68315d	0.2267508
214	0xbed7e458	-0.421664
215	0xbe613355	-0.21992238
216	0x3e4bfcb1	0.19920613
217	0xbc1b2cc3	-0.009471121
218	0xbe3e6c1c	-0.18595928
219	0xbded120e	-0.11575709
220	0xbeed65ad	-0.46366635
221	0xbe37056b	-0.1787316
222	0xbe46e5d1	-0.19423606
223	0xbd8fa742	-0.07014324
224	0x3cfe4fce	0.031043913
225	0x3e0fd103	0.14044575
226	0x3e830a9e	0.25594038
227	0x3f4160ec	0.75538516
228	0x3e72b53d	0.2370195
229	0xbe12b256	-0.14325842
230	0xbe7b0116	-0.24512133
231	0xbdc79520	-0.0974524
232	0x3e94f8f6	0.29096192
233	0xbc620172	-0.01379429
234	0xbe4fe1f0	-0.20301032
235	0x3d283332	0.04106445
236	0xbeccc393	-0.3999296
237	0xbec2c866	-0.38043517
238	0xbe31ac08	-0.17350781
239	0x3e20fc9e	0.15721366
240	0x3e291bd9	0.1651453
241	0xbd1e0c20	-0.038585782
242	0x3e4b9fe9	0.1988522
243	0x3e495373	0.1966074
244	0x3d399a54	0.045313194
245	0xbe410922	-0.1885114
246	0x3c818b93	0.015813624
247	0x3ef14a8a	0.4712718
248	0x3c26038f	0.010132684
249	0x3c926d03	0.017874246
250	0xbd754e16	-0.05988892
251	0xbecd861a	-0.40141374
252	0xbea308fa	-0.31842786
253	0x3e2216e9	0.15829052
254	0x3ee2276a	0.44170696
255	0x3f2fa268	0.6860719

r_cell.w_qs.bias f4 [24]
0	0x3dc462ae	0.09589134
1	0x3e36df94	0.17858726
2	0xbd520e0c	-0.051282927
3	0x3cd4def2	0.025985215
4	0xbdde3796	-0.10850446
5	0x3d5f52af	0.054522213
6	0x3ea154dd	0.31510058
7	0xbe52ad55	-0.20573933
8	0xbe762026	-0.24035701
9	0xbe035198	-0.12824094
10	0x3dbb280a	0.09138496
11	0xbe3625c5	-0.17787845
12	0x3de1c4b7	0.110238485
13	0x3dda5465	0.10660628
14	0x3e28701f	0.16449021
15	0x3e27715c	0.16351837
16	0x3e15f6c4	0.14644915
17	0xbe0138b3	-0.12619285
18	0xbb842089	-0.004032199
19	0xbcdde07c	-0.027084582
20	0x3dd26170	0.10272491
21	0x3de0f1de	0.109836325
22	0x3c5d29cc	0.013498735
23	0xbe600e98	-0.21880567

r_cell.w_ks.weight f4 [24, 24]
0	0x3e9cc26c	0.30617082
1	0xbe8459d0	-0.25849771
2	0x3e12d3e0	0.14338636
3	0x3ead5649	0.33854893
4	0x3e642344	0.22279078
5	0x3e27ceb3	0.16387443
6	0x3e9a1a87	0.30098364
7	0xbe45f78b	-0.19332711
8	0xbe830cba	-0.25595647
9	0xbd4bba40	-0.04973817
10	0x3d480f2c	0.048842594
11	0xbef08a67	-0.46980593
12	0x3de9601b	0.11395284
13	0xbecb0ee8	-0.3965981
14	0xbd5f0aaa	-0.05445353
15	0xbee92cd0	-0.45542002
16	0xbee8fff7	-0.45507786
17	0x3e949cc1	0.29025844
18	0x3e8298a1	0.25507072
19	0xbee4b6c5	-0.44670692
20	0x3cfbe695	0.030749599
21	0x3ef8160b	0.48454317
22	0x3ece84a3	0.4033557
23	0xbeb9bc8f	-0.3627667
24	0xbe84c584	-0.25931942
25	0xbd89b998	-0.06724852
26	0x3eafade4	0.34312356
27	0x3ec028f5	0.37531248
28	0xbe6715e8	-0.2256695
29	0xbea3cb62	-0.31991106
30	0x3cb25c92	0.021772657
31	0xbd3e0215	-0.046388704
32	0x3eacf34a	0.33779365
33	0x3ea7a3da	0.32742196
34	0x3e7235d1	0.23653342
35	0x3b0a2254	0.002107759
36	0xbf0cb10e	-0.54957664
37	0x3ee62729	0.44951752
38	0x3e860cbd	0.26181594
39	0x3eb5b816	0.3549201
40	0x3e737ba2	0.23777631
41	0x3eb3b0fb	0.35095963
42	0xbdc3e986	-0.095660254
43	0xbd703ec0	-0.058653593
44	0xbe51068f	-0.20412658
45	0xbf07a265	-0.5298217
46	0xbe3c1e7d	-0.18371005
47	0xbcfa054a	-0.0305201
48	0xbed70c5d	-0.4200162
49	0x3ecb95fe	0.39762872
50	0x3c1d8dae	0.009616299
51	0xbe8310c7	-0.25598738
52	0xbd885689	-0.0665713
53	0xbecc8f80	-0.39953232
54	0xbe8cc2bc	-0.2749232
55	0xbde224ac	-0.11042151
56	0xbb03bb13	-0.0020100519
57	0xbef2189b	-0.47284397
58	0x3ec37f0f	0.38182876
59	0x3e8f2555	0.2795817
60	0xbe32ff3f	-0.17480181
61	0xbdbebab4	-0.093129545
62	0xbd6e5246	-0.05818393
63	0xbe90642c	-0.28201425
64	0x3e56b20c	0.20966357
65	0xbf27f6dc	-0.6561105
66	0xbccdad60	-0.025107086
67	0x3dd976fa	0.10618396
68	0xbdddf936	-0.10838549
69	0x3e6ed26d	0.23322459
70	0xbe05d210	-0.13068414
71	0x3f6b39bf	0.9188499
72	0x3d770974	0.06031175
73	0xbf01624c	-0.50540614
74	0x3df0a083	0.11749365
75	0xbd5861c5	-0.052827615
76	0xbe84e1d9	-0.25953558
77	0x3d8e7230	0.06955373
78	0xbd981352	-0.0742556
79	0xbe8461f4	-0.25855982
80	0xbe7cdd3e	-0.24693772
81	0xbe6ac3f2	-0.2292631
82	0x3ea4afdf	0.3216543
83	0x3e4abe6e	0.19799206
84	0x3ea496d2	0.32146317
85	0x3de703d0	0.11280024
86	0x3d13f371	0.036120836
87	0xbd826ec5	-0.06368784
88	0xbef4dcad	-0.47824612
89	0xbe5d8895	-0.21634133
90	0xbba9ad44	-0.0051781256
91	0xbd385c11	-0.045009676
92	0xbe84fefc	-0.25975788
93	0x3ccc9e1e	0.02497774
94	0x3e7156c3	0.23568253
95	0x3f5bed6a	0.8590914
96	0xbdd7e8b7	-0.10542434
97	0x3e39c6f0	0.18142295
98	0xbef8e5d8	-0.48612857
99	0x3e3e5028	0.18585265
100	0xbddfb7b0	-0.109237075
101	0x3eaa9a5f	0.333209
102	0xbdd009d4	-0.101581246
103	0xbd81d222	-0.06338908
104	0x3eb93b7b	0.36178192
105	0x3ee89d31	0.45432428
106	0xbdf86a71	-0.12129677
107	0x3e71deb0	0.23620105
108	0xbee27990	-0.4423337
109	0xbe94c83d	-0.2905902
110	0x3c16c82e	0.009203
111	0xbe65ccad	-0.22441359
112	0xbf00af71	-0.502677
113	0x3ed06b87	0.40707037
114	0xbe097e2c	-0.13427037
115	0xbdf07d08	-0.11742598
116	0xbe9d6558	-0.30741382
117	0xbe4ecbb4	-0.20194894
118	0xbc578dae	-0.013156338
119	0xbe26edcc	-0.1630165
120	0x3c511255	0.012760718
121	0x3ec21f5a	0.37914544
122	0xbe16645c	-0.14686722
123	0xbe9180c1	-0.28418544
124	0x3f0e5cf8	0.5561061
125	0xbe242363	-0.16029124
126	0x3ee5d6f5	0.44890562
127	0x3e88a8af	0.26691195
128	0xbe3ef540	-0.18648243
129	0xbe1285bc	-0.14308828
130	0x3bc4c574	0.0060049836
131	0x3c3cafb5	0.011516501
132	0xbe1dff5c	-0.15429443
133	0xbe8e7d55	-0.27829996
134	0x3e90542a	0.28189212
135	0x3de0d961	0.10978962
136	0xbcebc249	-0.028779166
137	0x3ebb7f50	0.3662057
138	0xbe90ef76	-0.28307694
139	0xbbe2672c	-0.0069092717
140	0xbe0c43a5	-0.1369768
141	0xbe1a0e9e	-0.15044639
142	0x3e40129a	0.18757096
143	0x3d166aa9	0.036722813
144	0xbbeb10c9	-0.007173632
145	0xbdb134eb	-0.086526714
146	0xbe846b0d	-0.25862923
147	0x3eb75845	0.35809532
148	0xbe954b3f	-0.2915897
149	0x3e0b908b	0.13629358
150	0xbd69731c	-0.056994542
151	0xbe3c1e57	-0.18370949
152	0x3d61a798	0.05509147
153	0xbf1b3d37	-0.6064028
154	0xbd063514	-0.032765463
155	0xbdb908e9	-0.090349026
156	0xbed6810f	-0.4189534
157	0xbcd97b6a	-0.026548106
158	0x3e85274d	0.26006547
159	0xbef0d70a	-0.47039062
160	0xbe10f1ec	-0.14154786
161	0x3f466220	0.77493477
162	0xbe142afb	-0.14469521
163	0xbe095650	-0.13411832
164	0xbebe0058	-0.37109637
165	0xbe6d88d1	-0.23196723
166	0xbe49b377	-0.19697367
167	0xbe996be1	-0.29965118
168	0x3db14daa	0.08657391
169	0xbe775700	-0.24154282
170	0x3f10885c	0.5645807
171	0x3e12f095	0.14349587
172	0x3d43308c	0.04765372
173	0x3eee49cc	0.46540678
174	0x3e089f75	0.13342078
175	0xbf0a8f4f	-0.5412492
176	0xbdd2b700	-0.10288811
177	0xbe38e67a	-0.1805667
178	0xbe925c54	-0.28586066
179	0x3ca301e6	0.019898366
180	0x3ea1a4f6	0.31571168
181	0x3e44eaa9	0.19230141
182	0x3e6b75c9	0.2299415
183	0xbe841aed	-0.25801793
184	0xbe95045f	-0.29104897
185	0xbf05b67f	-0.5223159
186	0x3cfba562	0.03071851
187	0xbd9c3a84	-0.076283485
188	0x3e1be48d	0.15223904
189	0xbdd7c570	-0.10535705
190	0xbe774f99	-0.24151458
191	0xbcfd13f8	-0.03089331
192	0x3e257644	0.16158396
193	0x3e4d7f1d	0.20068021
194	0x3e6ba8f2	0.23013666
195	0xbe262557	-0.16225182
196	0x3ee3150c	0.44351995
197	0xbd9b138e	-0.07572089
198	0xbf19f2d3	-0.60136145
199	0xbe1d85dd	-0.15383096
200	0xbe28a59a	-0.16469422
201	0xbdc724ec	-0.09723839
202	0x3e9b0d9e	0.30283827
203	0xbdad1c0b	-0.084526144
204	0x3d499baa	0.04922072
205	0xbb9250df	-0.004465207
206	0x3e9dbd8b	0.30808672
207	0xbdb371bc	-0.087619275
208	0x3ddc8892	0.10768236
209	0xbe1f7310	-0.15571237
210	0x3df2811a	0.118410304
211	0xbec9f2f4	-0.3944317
212	0x3f0d610f	0.55226225
213	0xbec79f1a	-0.38988572
214	0xbe64c046	-0.22338971
215	0x3f04bca3	0.51850337
216	0xbe413621	-0.18868305
217	0x3e652aa4	0.22379547
218	0xbe12142d	-0.14265509
219	0x3da40c56	0.080101654
220	0x3e3d58c8	0.18490899
221	0x3e4039b6	0.18772015
222	0x3da57b94	0.08080211
223	0x3e30d6d8	0.17269456
224	0x3e9d4460	0.30716228
225	0x3da50fec	0.080596775
226	0x3eb2322c	0.34803903
227	0x3eb59e91	0.3547254
228	0xbe347dd3	-0.17626123
229	0xbf00cc2c	-0.5031154
230	0x3e861d29	0.26194122
231	0x3e979fa7	0.29613993
232	0xbee5ddbb	-0.4489573
233	0xbec4bff1	-0.3842769
234	0xbaec3a8d	-0.0018022821
235	0xbf207d17	-0.6269087
236	0xbe871fda	-0.26391488
237	0x3e8e321b	0.27772602
238	0x3e94456b	0.28959212
239	0xbe80d18c	-0.25159872
240	0x3e0a943b	0.13533108
241	0x3d788358	0.060672134
242	0x3df09df6	0.11748879
243	0x3d3ca179	0.04605243
244	0x3e93e47f	0.28885266
245	0x3e74e386	0.23914918
246	0xbea088e5	-0.31354442
247	0xbe4d16f2	-0.20028284
248	0xbdd28de2	-0.10280968
249	0x3ec152ef	0.37758586
250	0x3e9e2ed0	0.3089509
251	0x3e06bc2f	0.13157724
252	0x3e479865	0.19491728
253	0x3d7d61ce	0.061860852
254	0x3f159a32	0.5843841
255	0xbd3b7ebd	-0.045775164

r_cell.w_ks.bias f4 [24]
0	0x3ce8ca40	0.028416753
1	0x3e3d3069	0.18475498
2	0x3d55977d	0.052146424
3	0x3d56c6b9	0.05243561
4	0x3e6d5f28	0.2318083
5	0x3e653694	0.22384101
6	0x3e3b19ea	0.18271604
7	0xbdd6c4ff	-0.10486793
8	0xbe6be0b9	-0.23034944
9	0xbd8f6550	-0.07001746
10	0x3b2ed8b2	0.0026679453
11	0xbd91ff69	-0.07128794
12	0x3ca42c6f	0.020040719
13	0x3e06a749	0.13149752
14	0xbd6c799e	-0.05773317
15	0x3e8bdee8	0.273185
16	0x3dae880e	0.08522044
17	0x3d817b7b	0.0632238
18	0xbe4b21c9	-0.19837107
19	0x3be7678f	0.0070619057
20	0xbe20f9f7	-0.15720354
21	0x3d1b70a9	0.037949238
22	0xbd9495ce	-0.072551355
23	0xba0987d8	-0.00052463776

r_cell.w_vs.weight f4 [24, 24]
0	0xbdba07cb	-0.09083518
1	0x3f05b778	0.52233076
2	0xbcee18a6	-0.029064488
3	0x3e7d95f3	0.24764232
4	0x3ec7d7b5	0.3903176
5	0x3ee4094d	0.44538346
6	0x3e7f6ddb	0.2494425
7	0x3f01e2f8	0.5073695
8	0x3ea99fac	0.33129632
9	0x3e21aed9	0.15789355
10	0x3e09c890	0.13455415
11	0xbecfd266	-0.4059021
12	0xbe95276b	-0.29131636
13	0xbef6e25b	-0.4821957
14	0xbdcf7442	-0.10129596
15	0xbcbc81e4	-0.023011155
16	0x3efa4652	0.48881775
17	0xbe19ec6c	-0.15031594
18	0x3e3ad831	0.18246533
19	0x3e7a0ccc	0.24418944
20	0xbe93fb1c	-0.2890252
21	0x3d750981	0.059823517
22	0xbf010c37	-0.50409263
23	0xbe0de554	-0.13857013
24	0xbea26247	-0.31715605
25	0xbec3e11a	-0.38257676
26	0xbe8b31dc	-0.27186477
27	0xbd8dadaf	-0.06917893
28	0x3d9dfa11	0.07713712
29	0x3dd179e5	0.10228328
30	0x3e2fcad0	0.1716721
31	0x3fb399ee	1.4031351
32	0x3ebc1f27	0.36742517
33	0xbe6b4543	-0.2297564
34	0x3e7e2b39	0.24821176
35	0xbf27c9b9	-0.6554218
36	0x3df0a06c	0.11749348
37	0x3f2f437b	0.6846234
38	0x3e76b091	0.24090792
39	0x3e43b29c	0.19111103
40	0x3ab42d3b	0.001374639
41	0x3d6fa186	0.05850365
42	0xbea93028	-0.33044553
43	0xbea45446	-0.32095546
44	0x3ec9103e	0.39270204
45	0xbe983895	-0.2973067
46	0xbea6a604	-0.32548535
47	0x3e44b92a	0.1921126
48	0xbf3c8aa5	-0.73649055
49	0xbdaa125e	-0.083042845
50	0xbd20069d	-0.039068807
51	0xbf23654a	-0.6382643
52	0xbdc5563a	-0.09635587
53	0x3f10eb25	0.566088
54	0xbf4a4246	-0.79007375
55	0xbea13769	-0.31487587
56	0xbf0b940b	-0.5452277
57	0xbcc1cd9a	-0.023657609
58	0xbe36e0c6	-0.17859182
59	0xbeaa0f4b	-0.33214793
60	0xbdd0c72f	-0.10194241
61	0xbedda406	-0.43289202
62	0xbea31bc8	-0.31857133
63	0x3eec261e	0.4612283
64	0xbe1f6223	-0.1556478
65	0xbdd25786	-0.102706
66	0xbd9f81e7	-0.07788449
67	0xbe76086b	-0.24026649
68	0xbeb48262	-0.35255724
69	0x3e83467f	0.25639722
70	0xbda16ff8	-0.078826845
71	0x3e9db4d6	0.3080203
72	0x3f2b283b	0.6685826
73	0xbe0f5bf3	-0.1399992
74	0x3cf3fcf7	0.029783709
75	0xbe61ff9b	-0.22070162
76	0x3ee5ad31	0.44858697
77	0xbe957983	-0.2919427
78	0xbef904ee	-0.48636574
79	0x3e1d869f	0.15383385
80	0x3ec96474	0.39334452
81	0xbe65d6ab	-0.2244517
82	0x3e900899	0.2813156
83	0x3e58a669	0.2115723
84	0x3e3374e2	0.17525056
85	0xbc441ebe	-0.01197022
86	0x3f985c83	1.1903232
87	0x3e28fc70	0.16502547
88	0x3da682f8	0.08130449
89	0x3e49d663	0.19710688
90	0x3e86b19b	0.26307377
91	0xbd821b41	-0.063528545
92	0x3ef6c929	0.48200348
93	0x3ea97f80	0.33105087
94	0x3e5c2990	0.2150023
95	0x3df10f48	0.11770493
96	0xbe7516ae	-0.23934433
97	0xbe12386e	-0.14279339
98	0x3f06d8dc	0.5267465
99	0xbe5463f7	-0.20741259
100	0xbef42d33	-0.47690734
101	0xbe9d9ca8	-0.30783582
102	0x3ea6aa2a	0.325517
103	0xbf422323	-0.75834864
104	0x3e5ac765	0.21365125
105	0xbcf4f9d2	-0.02990428
106	0x3e7ecd87	0.2488309
107	0x3f011012	0.50415146
108	0xbda35bee	-0.079765186
109	0x3ef61b3f	0.48067662
110	0xbe5e330f	-0.21699165
111	0x3eb42db0	0.35191107
112	0x3dbbe1a3	0.09173896
113	0xbe2dc41b	-0.1696934
114	0x3e3f6a10	0.18692803
115	0x3e24a4d9	0.1607851
116	0x3ec50609	0.38481167
117	0xbe72eaba	-0.23722354
118	0xbe84c7ff	-0.25933835
119	0xbee13dff	-0.43992612
120	0x3e0a0adb	0.13480704
121	0x3ecf35ea	0.4047082
122	0x3ef45903	0.4772416
123	0xbc809672	-0.015696738
124	0x3f0529ba	0.52016795
125	0xbf504768	-0.8135896
126	0xbec1b52d	-0.3783354
127	0xbf3353d8	-0.7004981
128	0xbf007f9a	-0.50194705
129	0xbeb94117	-0.36182472
130	0xbd89b397	-0.06723707
131	0xbe2756c5	-0.16341694
132	0xbea15b1b	-0.3151482
133	0xbe76da57	-0.24106728
134	0xbb85c458	-0.004082244
135	0xbdbb756d	-0.091532566
136	0x3e1a95b6	0.15096173
137	0xbdccf50c	-0.100076765
138	0xbe934638	-0.2876451
139	0x3e6f8360	0.2338996
140	0xbd7ce295	-0.061739523
141	0xbeee2850	-0.4651513
142	0x3f2e7f79	0.6816326
143	0xbe3e30e8	-0.18573344
144	0x3e83c8ff	0.25739285
145	0xbe626895	-0.22110207
146	0xbf6aa76d	-0.9166172
147	0x3e1ccf74	0.15313512
148	0xbe858430	-0.26077414
149	0xbf142724	-0.57872224
150	0xbd088fd4	-0.03334029
151	0x3f2181a8	0.63088465
152	0x3d251e46	0.040312074
153	0xbde91fad	-0.11382995
154	0xbd32bc5f	-0.043636676
155	0x3d16884e	0.036751084
156	0xbdc9af67	-0.098479085
157	0x3e73e1ba	0.23816577
158	0x3f563355	0.83672076
159	0xbd2e7aed	-0.0425977
160	0x3f136e1f	0.57589906
161	0xbeb2168f	-0.34782836
162	0x3d0d6266	0.03451767
163	0xbee0ec46	-0.43930262
164	0x3f8e812c	1.113317
165	0x3e985b49	0.29757145
166	0x3e2e51a9	0.17023338
167	0x3e8dabae	0.27670044
168	0x3ec283b8	0.37991118
169	0x3dbbbc4e	0.09166776
170	0x3e72d70e	0.2371485
171	0x3e292ed5	0.16521771
172	0xbe863c93	-0.2621809
173	0x3e13efdb	0.14446966
174	0x3e9aa3dd	0.30203143
175	0x3f145f5f	0.57958025
176	0xbdce1c7e	-0.10064028
177	0xbeb0e0f8	-0.34546638
178	0x3e9a7344	0.30166066
179	0x3d9e9359	0.07742948
180	0xbec79537	-0.3898103
181	0xbe790bd0	-0.24320912
182	0x3f2bf6d3	0.671735
183	0xbdc63ead	-0.09679923
184	0xbd8ee555	-0.06977335
185	0xbc11c43e	-0.008896885
186	0xbed02de1	-0.40660003
187	0xbf147af1	-0.58000094
188	0xbef15f2d	-0.47142926
189	0x3e459d86	0.19298372
190	0xbec6b030	-0.38806295
191	0x3e7dce20	0.24785662
192	0x3e0a2870	0.13491988
193	0xbc3e4ece	-0.011615468
194	0x3e944138	0.28956008
195	0x3df4e8d7	0.11958473
196	0x3e9edf61	0.310298
197	0xbeb4d063	-0.35315236
198	0x3d497ec9	0.049193177
199	0x3ec85697	0.39128563
200	0x3d456cfc	0.04819964
201	0xbdd05f6a	-0.10174449
202	0x3e8413c3	0.25796327
203	0x3e817d02	0.25290686
204	0xbe19abe3	-0.15006976
205	0xbc9039a6	-0.017605614
206	0x3f36185b	0.71130913
207	0x3f31b8f5	0.6942285
208	0xbe1b803a	-0.15185633
209	0xbde7c692	-0.11317171
210	0xbcb59890	-0.022167474
211	0x3f068fa9	0.5256296
212	0x3ec9c740	0.39409828
213	0x3e912110	0.28345537
214	0x3ea382ce	0.31935734
215	0x3e44706b	0.19183509
216	0x3a2dd037	0.00066304527
217	0xbeb8f70d	-0.36125985
218	0xbda57b16	-0.080801174
219	0xbcc7b866	-0.02437992
220	0x3c4df76c	0.012571197
221	0xbee3c425	-0.44485584
222	0x3e8ab3a2	0.27090174
223	0xbf6a10de	-0.9143199
224	0xbea8e5fc	-0.32987964
225	0x3c6bc895	0.014391084
226	0x3e8f6674	0.28007853
227	0xbdf96e69	-0.12179262
228	0x3c8642e8	0.016389325
229	0x3e2b6fd0	0.16741872
230	0xbe1ade13	-0.15123777
231	0x3f154409	0.5830694
232	0x3eade4e4	0.33963692
233	0xbecb52bd	-0.39711562
234	0xbe7845a8	-0.24245322
235	0xbcf78313	-0.030213868
236	0x3f2148b0	0.6300154
237	0xbd8b6993	-0.06807246
238	0x3f03bec6	0.5146297
239	0xbe112f23	-0.14178137
240	0x3e605ad1	0.21909644
241	0xbe88e7f5	-0.2673947
242	0x3e90e275	0.28297773
243	0xbec11026	-0.37707633
244	0x3ea9b749	0.33147648
245	0xbf465c14	-0.7748425
246	0xbea47c90	-0.32126284
247	0xbec393f6	-0.38198823
248	0x3d821bcd	0.06352959
249	0xbe8695f1	-0.2628627
250	0x3e19a429	0.15004028
251	0x3ebcba3a	0.3686083
252	0x3d6af383	0.057361137
253	0xbf4b3f48	-0.79393435
254	0x3e1defd6	0.15423521
255	0x3e838790	0.25689363

r_cell.w_vs.bias f4 [24]
0	0xbdae39ba	-0.08507104
1	0x3e13eb7e	0.14445302
2	0x3e01c8cf	0.12674259
3	0x3e9ff49f	0.3124132
4	0x3e6297a9	0.22128166
5	0xbe007789	-0.12545599
6	0x3e5e4246	0.21704969
7	0x3dcee2ad	0.10101829
8	0x3ddc01de	0.10742544
9	0xbd64518a	-0.055741824
10	0x3e2a6329	0.16639389
11	0x3e91b41d	0.28457728
12	0xbe3191c5	-0.17340763
13	0x3cd438c8	0.025905982
14	0xbda2d785	-0.07951263
15	0x3c17ca21	0.0092645
16	0xbe6b7e6f	-0.2299745
17	0x3d3b833a	0.045779444
18	0xbe752dc8	-0.23943245
19	0xbe19fce6	-0.1503788
20	0xbd3ee712	-0.046607085
21	0xbca1b20e	-0.019738223
22	0xbde258d6	-0.110521
23	0xbdf6b158	-0.120455444

r_cell.layer_norm.weight f4 [24]
0	0x3f3fa7a6	0.74865186
1	0x3f74f147	0.9568066
2	0x3f719522	0.94368184
3	0x3f7c9f07	0.98680156
4	0x3f771321	0.96513563
5	0x3f5384bf	0.8262443
6	0x3fa64b18	1.2991667
7	0x3f885a09	1.0652477
8	0x3f4c74af	0.79865545
9	0x3f93be85	1.1542517
10	0x3f93faa7	1.1560868
11	0x3fa2ca34	1.2717957
12	0x3f851af9	1.0398856
13	0x3f9adeca	1.209924
14	0x3fa0428a	1.2520306
15	0x3f8a3cef	1.0799845
16	0x3faec2a8	1.3653154
17	0x3f705d3a	0.9389225
18	0x3f9ae496	1.2101009
19	0x3f73a16a	0.95168173
20	0x3f79a978	0.97524214
21	0x3f8484b5	1.0352999
22	0x3f9188c4	1.1369863
23	0x3f842e91	1.0326711

r_cell.layer_norm.bias f4 [24]
0	0xbd5ac735	-0.053412635
1	0xbe380b89	-0.1797315
2	0x3d0f6b3e	0.035014383
3	0x3d039c47	0.03213146
4	0xba83b8a5	-0.0010049535
5	0x3e610ecb	0.219783
6	0xbe401288	-0.18757069
7	0xbc5b13ce	-0.013371421
8	0x3e78d29e	0.24299094
9	0x3e3d1e40	0.1846857
10	0xbc80a9ec	-0.015706025
11	0xbd2b7787	-0.041862037
12	0xbc9c5402	-0.019083027
13	0x3d3e7497	0.046497907
14	0x3d3e1a9c	0.046412095
15	0xbd881f44	-0.066465884
16	0xbcf16fbb	-0.029472223
17	0x3e3d60eb	0.18494003
18	0xbdb6a586	-0.0891829
19	0x3dd62e35	0.10458032
20	0x3d955ea2	0.072934404
21	0xbdfd73e9	-0.12375624
22	0x3e1efa14	0.15525085
23	0x3e2d52c4	0.16926104

r_cell.fc.weight f4 [24, 24]
0	0xbd86e021	-0.06585718
1	0xbeb7c6d3	-0.35893878
2	0xbd4d27d0	-0.050086796
3	0xbe592516	-0.21205553
4	0x3da409c8	0.08009678
5	0x3d9eea6e	0.07759558
6	0xbf361fc7	-0.7114224
7	0xbe5c2fd0	-0.21502614
8	0xbec8ef35	-0.39245
9	0x3f0ba5b4	0.5454972
10	0x3e83692b	0.25666174
11	0xbece1a6b	-0.4025453
12	0xbf50c466	-0.8154968
13	0xbed5103f	-0.41613957
14	0xbda159dc	-0.078784674
15	0xbcd66fc5	-0.026176343
16	0x3e59909d	0.21246572
17	0x3e11ad28	0.1422621
18	0x3f107e1f	0.56442446
19	0x3f0f7052	0.5603076
20	0xbecc9bab	-0.39962515
21	0x3f12300e	0.57104576
22	0xbe533779	-0.2062663
23	0x3d948535	0.0725197
24	0x3f0af6f7	0.5428309
25	0xbe55b290	-0.20868897
26	0x3d4cd82b	0.05001084
27	0xbf2b2fe9	-0.6686998
28	0xbdcb2520	-0.099191904
29	0x3f2ff850	0.6873827
30	0xbeed0211	-0.4629064
31	0xbdca3e17	-0.09875124
32	0xbeaced54	-0.33774817
33	0x3e30aff8	0.17254627
34	0xbe3b8d31	-0.18315579
35	0xbf0351d7	-0.5129675
36	0xbea98538	-0.3310945
37	0x3dfd7eff	0.12377738
38	0xbf008016	-0.50195444
39	0x3d173b6e	0.03692191
40	0x3e9a206e	0.30102867
41	0x3e68ce73	0.22735004
42	0x3e2a58f5	0.16635497
43	0x3ea4fa08	0.3222201
44	0xbf55f727	-0.8358025
45	0x3d800ac5	0.06252054
46	0xbefbf849	-0.49212864
47	0x3e4b9472	0.19880846
48	0xbe8e8cac	-0.278417
49	0xbe92aef1	-0.28649095
50	0x3b1cc965	0.0023923751
51	0x3eee8a46	0.4658987
52	0x3e671662	0.22567132
53	0xbe51d7cf	-0.2049248
54	0x3df03906	0.11729626
55	0xbdeb6543	-0.114939235
56	0x3ef7463a	0.48295766
57	0x3db9bb18	0.090688884
58	0x3f467754	0.7752583
59	0x3f0a0a10	0.53921604
60	0x3ec3707e	0.38171762
61	0x3e855998	0.26044917
62	0xbdbf4c27	-0.09340697
63	0xbe3c0ccd	-0.18364258
64	0xbdcf7b23	-0.10130908
65	0xbf8fd4c0	-1.1236801
66	0xbb801139	-0.003908303
67	0x39f8e124	0.0004746999
68	0x3f39fe7f	0.72653955
69	0xbe122cd8	-0.14274919
70	0x3df0c3e3	0.117561124
71	0x3edfa0f8	0.43677497
72	0xbe66f3a2	-0.22553876
73	0x3decb805	0.115585364
74	0xbe456fbf	-0.19280909
75	0x3e8da89b	0.27667698
76	0xbdd6f9d2	-0.10496868
77	0x3e404c5e	0.18779132
78	0x3efd769d	0.49504557
79	0xbe8e3663	-0.2777587
80	0x3e2e1ce7	0.17003213
81	0x3d3a622b	0.045503777
82	0x3e21a982	0.15787318
83	0x3eb11ca8	0.34592175
84	0xbe5f61c9	-0.21814646
85	0xbdabb0ef	-0.08383357
86	0x3f2e0441	0.6797524
87	0xbb753b01	-0.0037419202
88	0xbeb628ca	-0.35577995
89	0x3d90a8af	0.07063424
90	0xbd253919	-0.040337656
91	0xbefe0798	-0.4961517
92	0x3dbf6010	0.09344494
93	0x3eaeac46	0.3411581
94	0xbe7815cf	-0.2422707
95	0x3ca260d1	0.019821556
96	0xbe83fb7a	-0.257778
97	0xbe8b78ef	-0.27240703
98	0xbea2c476	-0.31790513
99	0x3edf832f	0.43654773
100	0xbe9f57c4	-0.31121647
101	0x3f60246e	0.8755559
102	0xbebf403a	-0.37353688
103	0xbdd2c205	-0.102909125
104	0x3e3ff710	0.1874659
105	0x3e34f5a9	0.17671837
106	0x3ef9d2a5	0.48793522
107	0x3ea794e1	0.32730773
108	0xbecb3298	-0.39687037
109	0xbf0b07c7	-0.5430874
110	0xbe4996b6	-0.19686398
111	0x3e3b239b	0.18275301
112	0xbeb54a1b	-0.354081
113	0xbec0239d	-0.3752717
114	0xbc999278	-0.0187466
115	0xbef31621	-0.4747782
116	0x3e0efbea	0.13963285
117	0x3eb41a6d	0.3517641
118	0xbe9190ec	-0.2843088
119	0x3efcd485	0.4938089
120	0x3cfd53be	0.03092372
121	0x3e365c77	0.1780871
122	0xbe16fa31	-0.14743878
123	0x3e67c6d7	0.22634445
124	0xbdc775d9	-0.097392745
125	0xbe8c3879	-0.27386835
126	0x3f935c38	1.1512518
127	0x3eec69e7	0.46174547
128	0x3e2e96ec	0.1704976
129	0xbe21b352	-0.15791062
130	0xbe629b84	-0.22129637
131	0x3f554215	0.8330396
132	0x3f0992ae	0.5373944
133	0xbea01a26	-0.3126995
134	0x3f1d5f78	0.614738
135	0x3d1f620f	0.038911875
136	0xbef9de8f	-0.4880261
137	0x3ec20cd4	0.37900412
138	0xbeffbe41	-0.4994984
139	0xbec58120	-0.38575077
140	0x3e15582e	0.14584419
141	0x3de58897	0.11207693
142	0x3e868f4c	0.26281202
143	0xbe39edd0	-0.18157125
144	0x3e725471	0.23665024
145	0xbe89efb0	-0.2694068
146	0xbcaa9294	-0.020821847
147	0xbe8b55bf	-0.27213857
148	0x3e9277b2	0.28606945
149	0x3f1af17d	0.6052473
150	0x3ce8974d	0.028392458
151	0x3e5621d1	0.20911337
152	0xbd4c01ef	-0.04980653
153	0x3e022e7c	0.12713045
154	0xbd8cb752	-0.06870903
155	0x3d91be78	0.07116407
156	0xbe0d0dcd	-0.13774796
157	0xbeb6a503	-0.3567277
158	0x3e7291c7	0.23688422
159	0x3e3f5f7e	0.18688771
160	0x3e19b5ed	0.15010805
161	0x3cbd651d	0.023119504
162	0xbdfe15a6	-0.12406473
163	0x3ebceb02	0.36898047
164	0xbe9e377a	-0.309017
165	0x3e580ce0	0.21098661
166	0x3e1e5f7f	0.15466116
167	0x3f0e5447	0.5559735
168	0x3ea78851	0.3272119
169	0x3ef2b20f	0.47401473
170	0x3e8847f7	0.26617405
171	0xbbdb65b9	-0.006695476
172	0xbe90ca9a	-0.28279573
173	0xbedb9e2c	-0.42894113
174	0xbdedc3f8	-0.11609644
175	0xbd54baf7	-0.051936116
176	0x3e8f93c2	0.28042418
177	0xbecce724	-0.40020096
178	0xbdb207b0	-0.086928725
179	0xbd40d906	-0.04708197
180	0x3efe3e84	0.4965707
181	0x3e57b733	0.21065979
182	0xbe52752a	-0.20552507
183	0x3eb3a1ca	0.35084373
184	0x3b46995d	0.0030303814
185	0x3f0fe988	0.56215715
186	0xbda791ae	-0.08182083
187	0xbc9827b9	-0.018573629
188	0xbe19d524	-0.15022713
189	0xbe55910d	-0.20856114
190	0xbf0ab01a	-0.5417496
191	0xbeee09c9	-0.4649184
192	0x3ef72cb9	0.48276308
193	0x3eb8703b	0.36023125
194	0xbf142aa4	-0.57877564
195	0x3ee0b8b9	0.43890932
196	0xbda30c5a	-0.0796134
197	0xbf1c494f	-0.6104936
198	0x3f38a15e	0.72121227
199	0xbb884b4c	-0.0041593667
200	0x3f0fcec5	0.5617488
201	0xbe978e13	-0.29600582
202	0xbefcde88	-0.49388528
203	0x3eb4fe26	0.3535015
204	0x3eb2301f	0.34802338
205	0xbe59a1f4	-0.21253186
206	0x3e84420f	0.2583165
207	0x3e43e969	0.19132008
208	0xbc48cbd8	-0.012255631
209	0x3ddc3ef3	0.10754194
210	0xbf2f56e8	-0.68491983
211	0xbcd43a3e	-0.025906678
212	0xbed86677	-0.42265674
213	0xbea0aaee	-0.3138041
214	0x3caf23ae	0.021379318
215	0x3ea62bb3	0.32455215
216	0x3ea31dbf	0.31858632
217	0x3f1dd80d	0.6165779
218	0xbe2f4deb	-0.17119567
219	0x3eaea066	0.3410675
220	0xbe15e643	-0.14638619
221	0xbe85a5b8	-0.26102996
222	0x3ecaffe2	0.39648348
223	0x3d85af2a	0.065275505
224	0xbe57f9a7	-0.21091329
225	0x3dc7ad10	0.09749806
226	0xbdfd5e0a	-0.12371452
227	0x3ede2f05	0.43395248
228	0xbe4f6022	-0.20251516
229	0xbd5d0b5a	-0.053965904
230	0x3ddc3f3f	0.10754251
231	0xbd7ada2b	-0.061243217
232	0x3df350a0	0.118806124
233	0x3e96efde	0.2947988
234	0x3e03ef60	0.12884283
235	0x3cadf55a	0.021235157
236	0xbf341cc4	-0.7035639
237	0x3e8545d8	0.2602985
238	0x3ebf44da	0.37357217
239	0x3e83f5ee	0.25773567
240	0xbe34fe8e	-0.1767523
241	0x3e957c4e	0.291964
242	0x3e60007f	0.21875189
243	0xba04c23d	-0.0005064344
244	0xbc37dc05	-0.01122189
245	0x3cb069d2	0.021534834
246	0x3e9972d7	0.29970428
247	0xbe320218	-0.17383611
248	0x3d3d704e	0.04624968
249	0x3e36fa5d	0.17868944
250	0x3e862b0b	0.26204714
251	0x3ea2b2a1	0.31776908
252	0x3d071950	0.032983124
253	0xbdf488e2	-0.11940171
254	0xbdefd097	-0.11709707
255	0xbec42f58	-0.3831737

r_cell.fc.bias f4 [24]
0	0xbdf9e5ff	-0.122020714
1	0xbdabd6c6	-0.08390574
2	0x3d168025	0.036743302
3	0x3e1478d5	0.14499219
4	0x3e02fad9	0.12791003
5	0x3df7f8a5	0.12107972
6	0x3e6f7fbd	0.23388572
7	0xbe811778	-0.25213218
8	0x3cbcf61d	0.023066575
9	0x3e2e3191	0.17011096
10	0xbdb1558d	-0.08658896
11	0xbdd3aa38	-0.10335201
12	0xbdf50196	-0.11963193
13	0xbdc2dcac	-0.09514746
14	0xbcd61dc2	-0.026137237
15	0xbe2096aa	-0.15682474
16	0x3e3053db	0.17219488
17	0xbd4ea99e	-0.05045473
18	0xbd8f9e06	-0.070125625
19	0x3de40e4d	0.1113554
20	0xbcc9675f	-0.024585424
21	0xbe32e942	-0.17471793
22	0x3def91bb	0.11697718
23	0x3eb471ed	0.35243168

fc1.0.bias f4 [24]
0	0x3d971a08	0.07378012
1	0xbd1ad43d	-0.037800062
2	0x3de65e3c	0.112484425
3	0x3d4ece6e	0.050489835
4	0x3c43e1e5	0.011955713
5	0xbdab59f5	-0.08366767
6	0x3c743f63	0.014907691
7	0x3d05f34f	0.03270274
8	0x3d27715f	0.040879603
9	0x3cad1a2c	0.021130644
10	0xbce18fd8	-0.02753441
11	0x3df91718	0.12162608
12	0x3d071a86	0.03298428
13	0x3e04ca86	0.12967882
14	0xbd1d890b	-0.038460772
15	0xbd72821e	-0.05920612
16	0x3d8949ab	0.06703504
17	0xbdf53236	-0.119724676
18	0xbc9fa6e2	-0.019488756
19	0x3d85fcd6	0.06542365
20	0x3d8ef6ed	0.06980691
21	0x3c923c8e	0.01785114
22	0x3d5d380e	0.054008536
23	0x3c3e73d7	0.011624298

fc1.0.weight_orig f4 [24, 6]
0	0x3d981b6a	0.07427104
1	0xbd95d2eb	-0.0731562
2	0x3d755065	0.059891123
3	0xbd0d5a75	-0.034510095
4	0x3d68d160	0.0568403
5	0x3e8e81d7	0.27833435
6	0xbdf260f0	-0.118348956
7	0x3e151618	0.1455921
8	0xbdc2a765	-0.09504584
9	0x3e0712e9	0.13190807
10	0xbd9776f6	-0.07395737
11	0xbe803eb0	-0.25047827
12	0xbd5afecf	-0.05346566
13	0x3d52e503	0.051487934
14	0xbd3d8640	-0.04627061
15	0x3d3578a4	0.044304505
16	0xbd27fe11	-0.04101378
17	0xbeb5400b	-0.35400423
18	0x3e80f4a6	0.25186652
19	0xbe25b0bd	-0.16180702
20	0x3e704bbc	0.2346639
21	0xbdf12654	-0.11774889
22	0x3e3ab359	0.18232478
23	0x3d173d7c	0.03692387
24	0x3e91cce5	0.28476635
25	0xbe3e477f	-0.18581961
26	0x3e93d5b6	0.28873986
27	0xbe075269	-0.1321503
28	0x3e66532d	0.22492667
29	0x3e68f48e	0.2274954
30	0x3d8ac2d4	0.06775442
31	0xbd3019e9	-0.04299346
32	0x3d93d367	0.07218056
33	0xbd299b63	-0.041407954
34	0x3d363617	0.044485178
35	0xbe944b37	-0.28963634
36	0x3dd9ea97	0.106404476
37	0xbd98f804	-0.0746918
38	0x3e20942a	0.1568152
39	0xbd6c515f	-0.05769479
40	0x3d7e34f7	0.06206223
41	0xbe890fbc	-0.26769817
42	0x3e13fcaa	0.14451852
43	0xbe0f1de4	-0.13976246
44	0x3d83f574	0.06443301
45	0xbdd6cc41	-0.10488177
46	0x3db6ff1e	0.089353785
47	0x3e3ada8a	0.18247429
48	0x3e2611b4	0.1621769
49	0xbe48bf40	-0.19604206
50	0x3e592279	0.21204557
51	0xbe0949b1	-0.13407017
52	0x3ddce918	0.107866466
53	0x3e726792	0.23672321
54	0x3e4f823e	0.20264527
55	0xbe2054c8	-0.15657341
56	0x3eb7ab55	0.35872903
57	0xbdefb706	-0.11704831
58	0x3e31ee49	0.17376055
59	0xbe307b70	-0.17234588
60	0x3e61d755	0.22054799
61	0xbe42b9b7	-0.19016157
62	0x3e770522	0.24123052
63	0xbe0b6f21	-0.13616611
64	0x3e380d75	0.17973883
65	0xbed929c8	-0.4241469
66	0x3e112744	0.14175135
67	0xbd321b09	-0.043482814
68	0x3e8377d9	0.25677374
69	0xbbb6a793	-0.0055741756
70	0x3df12654	0.11774889
71	0x3e33b60f	0.17549919
72	0xbc2e54ba	-0.010640318
73	0x3cef3c54	0.029203571
74	0x3c1f50a7	0.009723819
75	0x3a518db3	0.0007993832
76	0xbc294db5	-0.010333468
77	0x3f5f7da3	0.8730108
78	0x3dfa9c93	0.122368954
79	0xbd76f310	-0.060290396
80	0x3dacf68f	0.08445465
81	0xbd1fcca1	-0.03901351
82	0x3dd3afba	0.103362516
83	0x3c2e725e	0.010647384
84	0x3cda1c6c	0.02662488
85	0xbd8c302f	-0.06845128
86	0x3d0483a3	0.0323521
87	0xbd3603a3	-0.044437062
88	0x3c77c0c5	0.015121643
89	0xbf07ef04	-0.53099084
90	0xbd5b4fef	-0.053543027
91	0x3dbc9d6d	0.09209714
92	0xbd90a029	-0.07061798
93	0x3d82484e	0.06361447
94	0xbd0aba46	-0.03386905
95	0xbed48982	-0.4151116
96	0xbe1fe79e	-0.15615699
97	0x3e1be714	0.15224868
98	0xbe2d4354	-0.16920215
99	0x3d9a3866	0.075302884
100	0xbddf4efc	-0.10903737
101	0xbe2346c7	-0.15944968
102	0xbd0d2f42	-0.034468897
103	0xbc430ac9	-0.011904427
104	0xbdd630d4	-0.10458532
105	0xbc1b71ef	-0.009487613
106	0xbc7e136a	-0.015507558
107	0xbe191ba1	-0.14951946
108	0xbc32a3e8	-0.010903336
109	0xbc505ebe	-0.012717901
110	0xbcc6bb9b	-0.02425938
111	0x3b57beb2	0.003292006
112	0xbc0cde9c	-0.008597996
113	0xbf68363f	-0.9070777
114	0x3cbd9366	0.023141574
115	0x3dbc2dce	0.09188424
116	0xbde346e1	-0.110975035
117	0x3d7b982d	0.061424423
118	0x3d4731e7	0.048631575
119	0xbe29d09e	-0.16583487
120	0xbe25688e	-0.16153166
121	0x3e263d1d	0.1623425
122	0xbe35834c	-0.17725867
123	0x3de47322	0.11154772
124	0xbde242bd	-0.110478856
125	0xbe3e971b	-0.1861233
126	0xbd5a0d70	-0.05323547
127	0x3de5d656	0.11222522
128	0xbe1ade78	-0.15123928
129	0x3d6a02b5	0.057131488
130	0xbc6fb6ec	-0.014631014
131	0xbcfedb23	-0.031110352
132	0xbd29ff30	-0.04150313
133	0x3db99129	0.0906089
134	0xbd317387	-0.043323066
135	0x3d75b05a	0.059982635
136	0xbcf12d37	-0.029440505
137	0x3f1fafb9	0.62377506
138	0x3d877818	0.06614703
139	0xbcf86b27	-0.030324532
140	0x3dda36e4	0.10655001
141	0xbd33fa82	-0.043940075
142	0x3d120208	0.03564647
143	0xbe76b67f	-0.24093054

fc1.0.weight_u f4 [24]
0	0x3e1faeea	0.15594068
1	0xbe14fe1b	-0.14550059
2	0xbe482537	-0.19545446
3	0x3d2016d8	0.039084285
4	0x3e14db76	0.14536843
5	0xbe1a67d5	-0.15078671
6	0xbe09e55e	-0.13466403
7	0x3dddeec3	0.10836556
8	0x3e13191a	0.14365044
9	0xbd92b12c	-0.07162699
10	0xbe56a008	-0.20959485
11	0x3ddcd99e	0.10783695
12	0x3ef0e0cd	0.4704651
13	0x3c646da2	0.013942154
14	0xbe90eecf	-0.28307196
15	0xbe6b546f	-0.22981428
16	0xbdcb4202	-0.09924699
17	0xbdaccf4c	-0.08437976
18	0xbefb070a	-0.49028808
19	0xbdbf7c0e	-0.093498334
20	0xbdeac9dc	-0.11464283
21	0xbccc11de	-0.024910863
22	0x3ea9d526	0.33170432
23	0xbdfdbbe7	-0.12389355

fc1.0.weight_v f4 [6]
0	0x3d32431f	0.043521043
1	0xbcda9910	-0.026684314
2	0x3d582959	0.052773807
3	0xbcbc4747	-0.022983206
4	0x3ce1c58e	0.027560022
5	0x3f7f24c8	0.996655

fc1.1.weight f4 [24, 24]
0	0xbf186e84	-0.59543633
1	0x3f1ed09a	0.6203705
2	0x3ec70c38	0.3887651
3	0x3f7a5938	0.97792387
4	0x3f75fcc7	0.9608883
5	0x3f16c4c4	0.5889399
6	0x3ed1c899	0.40973356
7	0x3efa8f1b	0.48937306
8	0xbf7c4e8e	-0.98557365
9	0xbf982a4e	-1.188791
10	0x3f3457b2	0.7044631
11	0xbf375b4a	-0.7162367
12	0x3eaa3261	0.3324156
13	0x3dbcae08	0.09212881
14	0x3f0a64d9	0.5406013
15	0xbd9098ce	-0.07060395
16	0x3eea4234	0.45753634
17	0x3f52259e	0.8208865
18	0xbd62bfaf	-0.055358585
19	0xbdede162	-0.11615254
20	0xbf57c84d	-0.8429001
21	0x3e902575	0.28153577
22	0xbedb74a5	-0.4286243
23	0xbf0e6d6c	-0.55635715
24	0xbf28840a	-0.65826476
25	0xbcd46d5f	-0.025931058
26	0xbf4c03aa	-0.7969309
27	0xbdba00c8	-0.0908218
28	0xbd15ca79	-0.036570046
29	0xbea51c14	-0.32247984
30	0xbef0f423	-0.47061262
31	0x3e1ef312	0.15522411
32	0x3f35a411	0.7095347
33	0x3dba49b6	0.090960905
34	0x3f3394df	0.70149034
35	0x3df0301c	0.11727926
36	0x3f80116b	1.0005316
37	0x3e7dce71	0.24785782
38	0xbe101ff6	-0.14074692
39	0x3f9bfa43	1.2185749
40	0x3ec22356	0.37917584
41	0xbeac81f1	-0.33692887
42	0xbf75d888	-0.96033525
43	0x3fb44550	1.4083652
44	0x3e8c1bd8	0.27364993
45	0xbf2d963c	-0.67807364
46	0xbd43e6a1	-0.047827367
47	0xbe052127	-0.13000928
48	0x3f0b23ff	0.543518
49	0xbeb43baa	-0.3520177
50	0x3e516274	0.20447713
51	0xbf85c89c	-1.0451846
52	0xbf45b6a9	-0.7723184
53	0xbee4057a	-0.44535428
54	0xbe2a5d32	-0.16637114
55	0xbf1468e8	-0.57972574
56	0x3efeeea3	0.4979144
57	0x3f5a345f	0.8523616
58	0xbf55b231	-0.83475024
59	0xbdadf7c6	-0.08494525
60	0xbf63a5a6	-0.88924634
61	0xbe2801de	-0.16406962
62	0xbf4045d7	-0.7510657
63	0x3f260b0f	0.64860624
64	0xbe0f8211	-0.1401446
65	0x3ee8ce00	0.45469666
66	0x3f8b2e97	1.0873593
67	0x3f67c3bd	0.9053305
68	0xbe1d80cb	-0.15381162
69	0x3d3ec888	0.04657796
70	0x3f138a12	0.57632554
71	0xbe22be11	-0.15892817
72	0xbf56970d	-0.83824235
73	0x3ef2493c	0.47321498
74	0xbe515aae	-0.20444748
75	0x3f5c78ed	0.8612202
76	0x3f096ce2	0.53681767
77	0x3f219ac7	0.63126796
78	0x3d92770e	0.07151614
79	0x3dbeacfe	0.093103394
80	0xbe975b08	-0.2956164
81	0xbf987e72	-1.1913588
82	0x3f1aeedd	0.60520726
83	0xbe28783a	-0.16452113
84	0x3f908ce0	1.1292992
85	0xbed7d235	-0.42152563
86	0x3f162619	0.5865188
87	0x3e25da31	0.16196515
88	0xbd5626be	-0.05228304
89	0x3f309809	0.6898199
90	0xbf819874	-1.012465
91	0xbfa4f2eb	-1.2886633
92	0xbe7117d4	-0.23544246
93	0x3e23e027	0.16003476
94	0xbf8ed602	-1.115906
95	0x3e771e6e	0.24132702
96	0x3f26fffc	0.6523435
97	0xbf253073	-0.6452705
98	0xbf34e192	-0.70656693
99	0xbfbfae5e	-1.4975088
100	0xbf982852	-1.1887305
101	0xbf2dc984	-0.67885613
102	0xbf73bafc	-0.9520719
103	0xbf9c159f	-1.2194098
104	0x3fb5aaea	1.4192784
105	0x3fb41c11	1.4071065
106	0xbf394f06	-0.72386205
107	0xbc24fe48	-0.010070391
108	0xbedca254	-0.43092597
109	0x3d9bbde2	0.07604577
110	0xbecf23a6	-0.40456885
111	0xbe5bb825	-0.21456964
112	0x3ead2f89	0.3382533
113	0xbd318921	-0.043343667
114	0xbe5889d7	-0.21146332
115	0x3e238c02	0.15971377
116	0x3f7f534a	0.99736464
117	0x3e0c67bc	0.13711447
118	0x3eed5711	0.4635549
119	0xbebe9e5c	-0.37230194
120	0xbeb1bbbc	-0.34713542
121	0xbf416520	-0.7554493
122	0xbfbb2170	-1.4619579
123	0xbe83ae62	-0.2571898
124	0xbdc2b4b3	-0.09507122
125	0xbeb1757b	-0.34659943
126	0xbeccd4ec	-0.40006196
127	0xbf1b7fc9	-0.6074186
128	0x3ee2b920	0.44281864
129	0xbdcb121f	-0.09915566
130	0x3f585ebf	0.8451957
131	0x3f217057	0.6306204
132	0x3f5a6519	0.8531051
133	0xbe319b48	-0.17344391
134	0xbc64c507	-0.013962991
135	0x3fb4a6ca	1.41134
136	0x3e268f82	0.16265681
137	0x3d838147	0.06421142
138	0xbfb13811	-1.3845235
139	0xbc9ac580	-0.018893003
140	0x3e91eb7c	0.28499973
141	0xbf4b06dc	-0.7930734
142	0xbf140353	-0.5781757
143	0xbf891063	-1.0708126
144	0x3f3ce020	0.7377949
145	0xbf9a003e	-1.2031324
146	0xbf968b88	-1.1761332
147	0xbfafed22	-1.3744242
148	0xbf98c710	-1.1935749
149	0xbef7625d	-0.48317233
150	0xbf77ce62	-0.9679929
151	0xbfa7020e	-1.3047502
152	0x3fb72151	1.4307042
153	0x3fdcfc0a	1.7264416
154	0xbf4571ed	-0.7712696
155	0x3e3029d6	0.17203459
156	0xbf08225a	-0.53177416
157	0xbe9d3f7d	-0.307125
158	0xbedba74e	-0.4290108
159	0x3f037147	0.5134472
160	0xbe13e817	-0.14444004
161	0xbe806ad3	-0.250815
162	0xbbb8b28c	-0.005636519
163	0xbdd46ea9	-0.10372669
164	0x3fab7bc5	1.3397146
165	0xbe6fe3f8	-0.23426807
166	0x3eb7a6ea	0.35869533
167	0xbeaf4f26	-0.34240073
168	0xbf085f1c	-0.53270125
169	0x3e413a1a	0.1886982
170	0xbf434b5b	-0.7628686
171	0x3f859ceb	1.0438513
172	0x3f416371	0.7554236
173	0x3f599f0e	0.85008323
174	0x3ef4e5a7	0.4783146
175	0x3e82dee3	0.25560674
176	0xbecd7ead	-0.40135708
177	0xbfb33604	-1.4000859
178	0x3f908dc5	1.1293265
179	0xbed489e1	-0.41511443
180	0x3fbbd98c	1.4675765
181	0xbf21a663	-0.6314451
182	0x3f626f8f	0.88451475
183	0x3ebad7b7	0.36492702
184	0xbd85bcf4	-0.065301806
185	0x3f47dea7	0.78074116
186	0xbfd6f449	-1.67933
187	0xbec8e6e1	-0.39238647
188	0xbe983016	-0.29724187
189	0x3d350a24	0.044199124
190	0xbfac7897	-1.3474301
191	0x3f0803e6	0.5313095
192	0x3f0d767b	0.5525891
193	0x3eb427d7	0.35186645
194	0x3eba3492	0.36368233
195	0x3ef9c5cf	0.48783728
196	0x3f811d6c	1.0087104
197	0x3fa34659	1.2755843
198	0x3f24d7f3	0.6439201
199	0x3e44a8f1	0.19205071
200	0xbf08d9b2	-0.53457177
201	0xbf11d528	-0.56965876
202	0x3ea2e39e	0.31814283
203	0xbf545dbf	-0.82955545
204	0xbebdeeb9	-0.37096193
205	0x3ea88729	0.3291562
206	0x3db4a2e9	0.08820135
207	0xbf910591	-1.1329824
208	0xbeeca40c	-0.46218908
209	0x3f32a372	0.6978065
210	0x3f2886fd	0.65830976
211	0xbf86c136	-1.0527713
212	0xbf22fb3b	-0.636646
213	0x3f3088da	0.6895882
214	0xbe7d9aeb	-0.24766128
215	0x3ec1ec35	0.37875524
216	0x3f2bce02	0.6711122
217	0x3f266b65	0.6500762
218	0xbf08c569	-0.53426224
219	0x3f00aaf0	0.5026083
220	0x3f2d8d1a	0.6779343
221	0xbefa769a	-0.4891861
222	0xbe37b1f1	-0.17938973
223	0x3f4c8ee2	0.7990552
224	0x3e24016f	0.16016172
225	0xbf1ec95c	-0.62026
226	0x3f5c727d	0.86112195
227	0xbf1ae67e	-0.60507953
228	0x3f40a8e9	0.75257736
229	0xbda2115e	-0.07913469
230	0xbe105890	-0.14096284
231	0x3f7f190b	0.9964759
232	0xbed5ddb6	-0.41770715
233	0xbf5c9ffa	-0.86181605
234	0xbf44ed1c	-0.769243
235	0xbf2cfe0f	-0.6757516
236	0xbe3ff52c	-0.1874587
237	0x3f90927a	1.1294701
238	0x3c685879	0.01418125
239	0xbeaa3250	-0.3324151
240	0xbe0a5f42	-0.135129
241	0xbc9ee90a	-0.019398231
242	0xbf08a4e4	-0.53376603
243	0x3e87b976	0.26508683
244	0x3e00f831	0.12594678
245	0xbead7657	-0.3387935
246	0xbef5a49d	-0.47977152
247	0xbc9163fe	-0.017747875
248	0xbe2e3279	-0.17011441
249	0xbdea2eb0	-0.11434686
250	0x3ed0452f	0.40677783
251	0x3f452196	0.77004373
252	0x3e5d9bfe	0.21641538
253	0xbecfd6e9	-0.4059365
254	0xbdc42c1a	-0.09578724
255	0x3f6e1a4e	0.9300889
