models/17_05_2021/stock_self_attn_MSE_hinge_10000_64_24_6_24_5/7000_embedder.pth (torch, 60914 bytes, 43 tensors)

position.pe f4 [1, 24, 24]
0	0x00000000	0.0
1	0x3f800000	1.0
2	0x00000000	0.0
3	0x3f800000	1.0
4	0x00000000	0.0
5	0x3f800000	1.0
6	0x00000000	0.0
7	0x3f800000	1.0
8	0x00000000	0.0
9	0x3f800000	1.0
10	0x00000000	0.0
11	0x3f800000	1.0
12	0x00000000	0.0
13	0x3f800000	1.0
14	0x00000000	0.0
15	0x3f800000	1.0
16	0x00000000	0.0
17	0x3f800000	1.0
18	0x00000000	0.0
19	0x3f800000	1.0
20	0x00000000	0.0
21	0x3f800000	1.0
22	0x00000000	0.0
23	0x3f800000	1.0
24	0x3f576aa4	0.84147096
25	0x3f0a5141	0.54030234
26	0x3ee5351d	0.44767085
27	0x3f64ea30	0.8941984
28	0x3e5ae952	0.21378067
29	0x3f7a14eb	0.9768817
30	0x3dcc7576	0.099833414
31	0x3f7eb898	0.9950042
32	0x3d3e0d1e	0.04639923
33	0x3f7fb96a	0.99892294
34	0x3cb07a47	0.021542681
35	0x3f7ff0ca	0.9997679
36	0x3c23d657	0.009999833
37	0x3f7ffcb9	0.99995
38	0x3b981857	0.0046415734
39	0x3f7fff4b	0.9999892
40	0x3b0d3164	0.0021544332
41	0x3f7fffd9	0.9999977
42	0x3a83126d	0.0009999998
43	0x3f7ffff8	0.9999995
44	0x39f35a5c	0.00046415895
45	0x3f7ffffe	0.9999999
46	0x3961e8ab	0.00021544348
47	0x3f800000	1.0
48	0x3f68c7b7	0.9092974
49	0xbed51133	-0.41614684
50	0x3f4cf4fb	0.8006131
51	0x3f1963f8	0.59918165
52	0x3ed5d9be	0.41767687
53	0x3f6899b9	0.9085956
54	0x3e4b6ff8	0.19866931
55	0x3f7ae5a5	0.9800666
56	0x3dbdd8b7	0.09269851
57	0x3f7ee5d1	0.9956942
58	0x3d306fcb	0.043075364
59	0x3f7fc32c	0.99907184
60	0x3ca3d43e	0.019998666
61	0x3f7ff2e5	0.9998
62	0x3c1817ec	0.009283047
63	0x3f7ffd2d	0.9999569
64	0x3b8d314e	0.004308856
65	0x3f7fff64	0.9999907
66	0x3b031268	0.0019999985
67	0x3f7fffdf	0.99999803
68	0x3a735a5b	0.00092831784
69	0x3f7ffff9	0.9999996
70	0x39e1e8ab	0.00043088695
71	0x3f7fffff	0.99999994
72	0x3e1081c3	0.14112
73	0xbf7d7026	-0.9899925
74	0x3f7bf0ce	0.98414314
75	0x3e35a216	0.17737612
76	0x3f1a2dc8	0.60226107
77	0x3f4c5d56	0.7982992
78	0x3e974e6c	0.2955202
79	0x3f7490ef	0.9553365
80	0x3e0e2117	0.1387981
81	0x3f7d85a8	0.9903207
82	0x3d8446bd	0.06458805
83	0x3f7f7729	0.997912
84	0x3cf5b91f	0.0299955
85	0x3f7fe283	0.99955004
86	0x3c6422d5	0.01392432
87	0x3f7ff9a6	0.9999031
88	0x3bd3c9bf	0.006463259
89	0x3f7ffea2	0.99997914
90	0x3b449b92	0.0029999954
91	0x3f7fffb5	0.9999955
92	0x3ab683c2	0.0013924765
93	0x3f7ffff0	0.99999905
94	0x3a296e7f	0.00064633036
95	0x3f7ffffd	0.9999998
96	0xbf41bdcf	-0.7568025
97	0xbf275530	-0.6536436
98	0x3f759ce7	0.9594254
99	0xbe905d6c	-0.28196275
100	0x3f424dbe	0.75899875
101	0x3f26adf9	0.6510921
102	0x3ec761d7	0.38941833
103	0x3f6bcaa7	0.921061
104	0x3e3d0773	0.18459873
105	0x3f7b99b2	0.98281395
106	0x3db045df	0.08607077
107	0x3f7f0ccc	0.996289
108	0x3d23cbdb	0.039989334
109	0x3f7fcb94	0.9992001
110	0x3c98163e	0.018565293
111	0x3f7ff4b4	0.9998276
112	0x3c0d30f8	0.008617632
113	0x3f7ffd91	0.99996287
114	0x3b831257	0.003999989
115	0x3f7fff7a	0.999992
116	0x3af35a54	0.0018566349
117	0x3f7fffe3	0.9999983
118	0x3a61e8a9	0.0008617738
119	0x3f7ffffa	0.99999964
120	0xbf757c10	-0.9589243
121	0x3e913c2c	0.2836622
122	0x3f3b500a	0.73169005
123	0xbf2e7fcb	-0.68163747
124	0x3f6171cf	0.88064283
125	0x3ef29363	0.47378072
126	0x3ef57743	0.47942552
127	0x3f60a940	0.87758255
128	0x3e6b8593	0.23000173
129	0x3f7922ff	0.97319025
130	0x3ddc300e	0.10751353
131	0x3f7e8421	0.9942036
132	0x3d4cb6f4	0.049979165
133	0x3f7fae19	0.99875027
134	0x3cbe1a3c	0.023205869
135	0x3f7fee5a	0.9997307
136	0x3c307ce6	0.010771966
137	0x3f7ffc33	0.999942
138	0x3ba3d6dd	0.004999979
139	0x3f7fff2e	0.9999875
140	0x3b181871	0.0023207928
141	0x3f7fffd3	0.9999973
142	0x3a8d3169	0.0010772172
143	0x3f7ffff6	0.9999994
144	0xbe8f0f8c	-0.2794155
145	0x3f75cdb8	0.96017027
146	0x3eb2c0c6	0.349127
147	0xbf6fe42d	-0.93707544
148	0x3f762963	0.961569
149	0x3e8c938f	0.27456328
150	0x3f108c68	0.5646424
151	0x3f534932	0.8253356
152	0x3e8cc0e9	0.2749093
153	0x3f7622e9	0.9614702
154	0x3e040009	0.12890638
155	0x3f7ddd38	0.9916568
156	0x3d759cd1	0.059964005
157	0x3f7f8a12	0.99820054
158	0x3ce41d2b	0.02784594
159	0x3f7fe696	0.9996122
160	0x3c53c89d	0.012926248
161	0x3f7ffa86	0.99991643
162	0x3bc49b58	0.0059999637
163	0x3f7ffed2	0.999982
164	0x3b3683b7	0.0027849504
165	0x3f7fffbf	0.9999961
166	0x3aa96e7d	0.0012926605
167	0x3f7ffff2	0.99999917
168	0x3f283046	0.6569866
169	0x3f40ffbd	0.75390226
170	0xbddbc69f	-0.10731243
171	0xbf7e858d	-0.9942253
172	0x3f7f7f41	0.9980355
173	0x3d804f23	0.06265094
174	0x3f24eb72	0.6442176
175	0x3f43ccb3	0.7648422
176	0x3ea3716a	0.31922466
177	0x3f729b18	0.94767904
178	0x3e19d85d	0.15023942
179	0x3f7d1825	0.98864967
180	0x3d8f3e32	0.06994285
181	0x3f7f5f81	0.997551
182	0x3d050f6e	0.032485418
183	0x3f7fdd69	0.9994722
184	0x3c771415	0.0150804715
185	0x3f7ff88c	0.9998863
186	0x3be55fc5	0.006999942
187	0x3f7ffe65	0.9999755
188	0x3b54eef8	0.003249107
189	0x3f7fffa8	0.99999475
190	0x3ac5ab91	0.0015081038
191	0x3f7fffed	0.99999887
192	0x3f7d4695	0.98935825
193	0xbe14fdf6	-0.14550003
194	0xbf0a81e3	-0.5410444
195	0xbf574b62	-0.840994
196	0x3f7d04e9	0.9883562
197	0xbe1bcf59	-0.15215816
198	0x3f37a4a5	0.717356
199	0x3f325b5f	0.6967067
200	0x3eb9c7cb	0.36285242
201	0x3f6e8d80	0.9318466
202	0x3e2f9e69	0.17150272
203	0x3f7c34ff	0.98518366
204	0x3da3aa50	0.07991469
205	0x3f7f2e65	0.9968017
206	0x3d180f89	0.03712419
207	0x3f7fd2d3	0.9993107
208	0x3c8d2fa1	0.017234625
209	0x3f7ff644	0.99985147
210	0x3c031212	0.007999914
211	0x3f7ffde7	0.999968
212	0x3b735a38	0.0037132632
213	0x3f7fff8c	0.9999931
214	0x3ae1e8a4	0.001723547
215	0x3f7fffe7	0.9999985
216	0x3ed30132	0.4121185
217	0xbf693fd5	-0.91113025
218	0xbf5c3bf1	-0.86028963
219	0xbf02829f	-0.5098056
220	0x3f6ed7af	0.9329786
221	0xbeb84901	-0.35993198
222	0x3f48881c	0.78332686
223	0x3f1f21d5	0.62161
224	0x3ecfb7ba	0.4056986
225	0x3f69fc5c	0.91400695
226	0x3e454f97	0.19268642
227	0x3f7b33e1	0.98126036
228	0x3db8123e	0.089878544
229	0x3f7ef6c2	0.9959527
230	0x3d2b0ecd	0.041762162
231	0x3f7fc6d3	0.99912757
232	0x3c9ed50c	0.019388698
233	0x3f7ff3ae	0.999812
234	0x3c13743a	0.008999879
235	0x3f7ffd59	0.9999595
236	0x3b88e2ba	0.0041774185
237	0x3f7fff6e	0.9999913
238	0x3afe25b6	0.0019389901
239	0x3f7fffe1	0.99999815
240	0xbf0b44f8	-0.5440211
241	0xbf56cd64	-0.8390715
242	0xbf7f5bd1	-0.99749476
243	0xbd90e07e	-0.070740685
244	0x3f559f61	0.8344632
245	0xbf0d1282	-0.55106366
246	0x3f576aa4	0.84147096
247	0x3f0a5141	0.54030234
248	0x3ee5351e	0.44767088
249	0x3f64ea30	0.8941984
250	0x3e5ae953	0.21378069
251	0x3f7a14eb	0.9768817
252	0x3dcc7576	0.099833414
253	0x3f7eb898	0.9950042
254	0x3d3e0d21	0.04639924
255	0x3f7fb96a	0.99892294

r_cell.w_qs.weight f4 [24, 24]
0	0x3e70887b	0.23489563
1	0x3d46e24a	0.04855565
2	0xbe869c19	-0.26290968
3	0xbcbd131e	-0.023080405
4	0x3e17328b	0.14765374
5	0xbf0e2ac1	-0.5553399
6	0x3f7ddc35	0.99164134
7	0xbe587c72	-0.21141222
8	0xbded6082	-0.11590673
9	0x3f063d2c	0.5243709
10	0x3df60a71	0.1201371
11	0x3ecd65b2	0.4011665
12	0x3e832122	0.25611216
13	0x3f155dc7	0.5834622
14	0x3f1801f1	0.5937796
15	0xbef8bfe9	-0.48583916
16	0x3e0c302a	0.13690248
17	0x3e644daa	0.22295251
18	0xbe213a91	-0.15744998
19	0x3e971f04	0.2951585
20	0xbe1f29c7	-0.1554328
21	0x3d4f53c1	0.050616983
22	0xbe2960d2	-0.1654084
23	0x3dc35e52	0.095394745
24	0x3e8937a9	0.26800278
25	0x3e1491c4	0.1450873
26	0xbf3fef5c	-0.7497461
27	0x3e9ee69b	0.31035313
28	0xbe4ad124	-0.19806343
29	0xbf46339e	-0.7742251
30	0xbf44c913	-0.76869315
31	0xbd4f457d	-0.05060338
32	0x3f40e2e4	0.7534621
33	0x3eb335db	0.35002026
34	0x3d801df1	0.06255711
35	0xbe0c49a5	-0.13699968
36	0xbf102f80	-0.5632248
37	0xbdfc561c	-0.123211116
38	0x3ecfa768	0.40557408
39	0x3e246c82	0.16057017
40	0xbf071ecb	-0.5278136
41	0x3e0598cd	0.1304657
42	0xbf104cf6	-0.56367433
43	0x3e8632bb	0.2621058
44	0x3dcada32	0.09904899
45	0x3eb0c0e9	0.3452218
46	0x3d7ee781	0.062232498
47	0x3eb62f53	0.3558298
48	0x3dffc951	0.1248957
49	0xbe55dca7	-0.20884953
50	0x3e714c22	0.23564199
51	0xbd2a39c0	-0.04155898
52	0xbd441b67	-0.047877695
53	0xbcac977b	-0.021068325
54	0x3f56dcea	0.8393084
55	0x3e56e50b	0.2098581
56	0x3ed6933d	0.4190921
57	0xbe9a05b0	-0.30082464
58	0xbf1c0ff4	-0.6096184
59	0x3e9c00f9	0.30469492
60	0xbee22ed0	-0.4417634
61	0x3e3b3979	0.18283643
62	0x3c5899ec	0.013220292
63	0xbf12bdc3	-0.57320803
64	0x3ee00740	0.4375553
65	0xbf102d6c	-0.5631931
66	0x3dc648d0	0.09681857
67	0x3df4093b	0.11915823
68	0xbf1ee359	-0.62065655
69	0xbe8a1ba6	-0.2697422
70	0xbeaf39a3	-0.3422366
71	0xbcabba3e	-0.02096283
72	0xbe4fb51c	-0.20283931
73	0x3f24becf	0.6435365
74	0xbea49c89	-0.32150677
75	0xbe20f22d	-0.15717383
76	0xbe76f781	-0.24117853
77	0xbf180284	-0.5937884
78	0xbeb832b7	-0.35976192
79	0x3b5043e5	0.003177875
80	0x3e7025fc	0.2345199
81	0xbf468cd9	-0.77558666
82	0x3e20b55b	0.15694182
83	0xbd87b544	-0.066263705
84	0x3ab47902	0.0013768973
85	0xbe6170e2	-0.22015718
86	0xbe5055a6	-0.20345172
87	0xbe041c3a	-0.12901393
88	0xbdefdc94	-0.11711994
89	0xbe8e1888	-0.2775309
90	0xbe8021b7	-0.25025722
91	0xbe92c8a1	-0.28668693
92	0xbe75f1c9	-0.24018015
93	0xbe8336e8	-0.25627828
94	0x3ea02872	0.31280857
95	0x3de1fede	0.1103494
96	0xbdbc9e42	-0.09209873
97	0x3eb20354	0.34768164
98	0x3e572aa4	0.2101236
99	0xbf603765	-0.87584525
100	0x3dc73599	0.0972702
101	0x3f0973d8	0.5369239
102	0x3efe2c91	0.49643376
103	0x3eb13169	0.3460801
104	0xbd13b330	-0.03605956
105	0x3ed53e24	0.41648972
106	0xbdf4de1a	-0.11956425
107	0xbe9ab826	-0.3021862
108	0xbe726533	-0.23671417
109	0x3e0c3146	0.13690671
110	0x3f8714ae	1.0553186
111	0xbd12b7e9	-0.03581992
112	0xbe998d4e	-0.2999062
113	0x3eac81c5	0.33692756
114	0x3ec283cf	0.37991187
115	0x3bf0766b	0.0073383353
116	0x3e8dd91a	0.27704698
117	0x3e4f5edb	0.20251028
118	0xbec9980b	-0.39373812
119	0xbdd73654	-0.10508409
120	0x3f2fd5ed	0.686858
121	0xbf1cd39c	-0.6126039
122	0x3f1079bf	0.5643577
123	0xbec91607	-0.39274618
124	0xbecf8da7	-0.4053776
125	0xbefac696	-0.48979634
126	0x3e30ee51	0.1727841
127	0x3e984b31	0.29744866
128	0x3dc49b1d	0.09599898
129	0xbf1fd30f	-0.62431425
130	0xbf4af1fc	-0.7927549
131	0xbbabd8b5	-0.0052443394
132	0xbe43c986	-0.19119844
133	0x3edef753	0.43548068
134	0xbf1fd1f7	-0.62429756
135	0x3f279c57	0.6547293
136	0x3eece94e	0.46271747
137	0xbeca510c	-0.3951496
138	0xbf92a8b0	-1.1457729
139	0x3f5a2a3c	0.85220695
140	0xbed4d403	-0.41568002
141	0xbe23146b	-0.15925758
142	0x3e081bc6	0.13291845
143	0xbf0a4064	-0.540045
144	0x3e58427b	0.2111911
145	0xbe1d1fb4	-0.15344125
146	0xbd7acfad	-0.06123321
147	0x3dfd76b7	0.12376159
148	0xbea7d363	-0.32778463
149	0xbe86ed67	-0.26353
150	0xbf0c4c81	-0.54804236
151	0xbf4a66cf	-0.79063123
152	0x3f0e18a4	0.5550635
153	0x3f37bf75	0.71776515
154	0x3eb6b519	0.35685042
155	0x3edb96e8	0.4288857
156	0xbf2a450a	-0.66511595
157	0x3ed41ab0	0.4142661
158	0xbe2159b8	-0.15756881
159	0xbe840a2c	-0.2578901
160	0x3ecb2b60	0.3968153
161	0xbe815376	-0.25258988
162	0x3e8a92f1	0.27065232
163	0xbd83f7ce	-0.06443749
164	0x3f2e4a69	0.6808229
165	0x3f4848d3	0.7823612
166	0x3dd290d5	0.10281531
167	0xbe2cec9d	-0.16887136
168	0xbe49a518	-0.19691885
169	0xbe135ece	-0.14391634
170	0xbdb4aae7	-0.088216595
171	0xbf7661fa	-0.9624325
172	0x3dc13062	0.094330564
173	0xbecf0e0e	-0.4044041
174	0xbda18937	-0.078875
175	0x3eefb8b0	0.46820593
176	0xbef8dfa9	-0.4860814
177	0xbe54c74b	-0.20779149
178	0x3db683bc	0.08911845
179	0x3e9165f6	0.28398103
180	0xbe0d906c	-0.13824624
181	0xbf2a3ac4	-0.6649592
182	0x3efa25b6	0.48856896
183	0x3e8aa197	0.27076408
184	0x3f0cff49	0.55077034
185	0xbd285d0e	-0.04110437
186	0x3f00166b	0.5003421
187	0x3e95d0bf	0.29260823
188	0xbe8c8277	-0.27443287
189	0x3de8feee	0.11376749
190	0x3f1d3184	0.6140368
191	0xbe31d5bf	-0.17366694
192	0xbd32811f	-0.04358017
193	0x3ee1cccd	0.44101563
194	0xbd587046	-0.052841447
195	0x3f05ed1d	0.5231493
196	0x3d121c8f	0.035671767
197	0x3f1f91e7	0.62332004
198	0xbcc2eae3	-0.023793643
199	0xbeffe784	-0.4998132
200	0x3e8e9b5b	0.27852902
201	0xbebff414	-0.37490904
202	0x3ea8963e	0.32927126
203	0x3d776bc0	0.060405493
204	0xbd8cbbc2	-0.068717495
205	0x3d891fa8	0.06695491
206	0x3e8bf32a	0.27333957
207	0xbce4211b	-0.027847817
208	0xbe27a7bd	-0.16372581
209	0xbad5ef0e	-0.0016321854
210	0xbf380550	-0.71883106
211	0x3c962c7b	0.018331757
212	0xbdf2c295	-0.1185352
213	0x3dd458eb	0.10368522
214	0x3ea8ec69	0.32992867
215	0xbe09f375	-0.13471778
216	0xbdd24b57	-0.10268276
217	0xbec0c048	-0.376467
218	0x3ec92f6d	0.39293995
219	0xbe323ac8	-0.17405236
220	0x3f0eb328	0.5574212
221	0x3e943068	0.2894318
222	0xbf051c0a	-0.5199591
223	0xbd36a27a	-0.044588543
224	0x3e54957a	0.20760146
225	0x3e5c8153	0.21533708
226	0xbe2aa1f5	-0.16663344
227	0x3e939042	0.28820997
228	0xbda6921a	-0.081333354
229	0xbe1b32b9	-0.15156068
230	0xbe75d63e	-0.24007508
231	0x3d542d06	0.05180075
232	0xbf80cc32	-1.0062315
233	0xbda2cb23	-0.079489015
234	0xbdc71862	-0.097214475
235	0x3e8ca3f4	0.27468836
236	0x3f3f4572	0.7471534
237	0xbe583c46	-0.21116742
238	0xbe8f284e	-0.27960438
239	0xbdb42f4f	-0.08798086
240	0xbe4befd7	-0.1991571
241	0x3ebcf3c0	0.36904716
242	0xbeaa4dd9	-0.33262518
243	0x3e4a9d07	0.19786464
244	0xbe1af76a	-0.15133443
245	0xbcceb50f	-0.02523282
246	0xbf280bc6	-0.65642965
247	0x3c9a2ec6	0.018821131
248	0x3e97a042	0.29614455
249	0x3ec5ef96	0.38659352
250	0xbe49b178	-0.19696605
251	0x3d141a07	0.036157634
252	0xbe1f08bd	-0.15530677
253	0xbea3a791	-0.3196378
254	0x3bb76a3a	0.00559738
255	0xbe77aaa7	-0.24186192

r_cell.w_qs.bias f4 [24]
0	0x3db00d8a	0.08596332
1	0xbc2df50c	-0.010617506
2	0xbeb838dc	-0.3598088
3	0xbe434401	-0.1906891
4	0x3e7dc40f	0.24781822
5	0xbeb1510d	-0.3463215
6	0xbee72336	-0.4514405
7	0xbde4168e	-0.111371145
8	0xbcc83c76	-0.024442893
9	0xbd8b77fc	-0.068099946
10	0xbd1c9f81	-0.038238052
11	0xbe80e468	-0.2517426
12	0x3dbb0fa2	0.09133841
13	0x3e358f5d	0.1773047
14	0xbe7a8adc	-0.24467033
15	0xbde759e8	-0.11296445
16	0x3d7ec25c	0.062197074
17	0x3c8130f8	0.01577042
18	0xbdfbe267	-0.12299042
19	0xbebe9344	-0.3722173
20	0x3ddade17	0.106868915
21	0x3eab8ffd	0.33508292
22	0xbe399f16	-0.18127093
23	0x3f222cd6	0.63349664

r_cell.w_ks.weight f4 [24, 24]
0	0x3e31730d	0.17329045
1	0x3eacd002	0.33752447
2	0x3e8ba3d2	0.27273422
3	0x3f519646	0.81869924
4	0x3f00bd7f	0.5028915
5	0xbe4a1e35	-0.19738086
6	0xbe3361b7	-0.17517744
7	0x3e8cde93	0.2751356
8	0xbf364342	-0.7119638
9	0x3f140e52	0.5783435
10	0x3ec05665	0.37565914
11	0xbcc5272e	-0.024066534
12	0xbf32a131	-0.6977721
13	0x3e96e2a4	0.29469788
14	0xbed8f65e	-0.42375463
15	0xbe462bab	-0.19352596
16	0x3e0c0f50	0.13677716
17	0xbc908f91	-0.017646583
18	0xbef346d9	-0.4751499
19	0xbeb4cbaa	-0.35311633
20	0x3bcfd837	0.0063429135
21	0x3e1c9289	0.15290274
22	0xbf40a5e1	-0.7525311
23	0x3da421a0	0.08014226
24	0xbe6c4b9f	-0.23075722
25	0xbe459e5b	-0.19298689
26	0xbebda374	-0.37038767
27	0x3e83f45b	0.25772366
28	0x3e032b11	0.12809397
29	0xbed9985f	-0.42499062
30	0xbf69400c	-0.9111335
31	0x3ee149e3	0.44001684
32	0xbd1c250f	-0.03812128
33	0x3e820faa	0.25402576
34	0xbee1f9e9	-0.4413598
35	0x3e15dbf3	0.14634685
36	0xbf097d21	-0.53706557
37	0xbe4e02b6	-0.20118222
38	0x3d8ff351	0.07028831
39	0xbeb5ec26	-0.3553173
40	0xbf2ca44c	-0.674382
41	0xbed7cef8	-0.42150092
42	0x3e53f1af	0.20697664
43	0x3de38bef	0.111106746
44	0x3e667f58	0.22509515
45	0x3e417044	0.18890482
46	0xbc89142c	-0.016733252
47	0x3e6cd788	0.23129094
48	0x3da27b87	0.07933717
49	0x3e9e7539	0.3094881
50	0xbda94d07	-0.08266645
51	0x3f2861ee	0.6577443
52	0x3d66654b	0.056248944
53	0x3e1f32fd	0.15546794
54	0x3df1f92b	0.11815103
55	0xbdf62fd9	-0.12020845
56	0x3e36c012	0.17846707
57	0xbe4cacb3	-0.19987755
58	0x3e828067	0.25488588
59	0xbf06d497	-0.52668136
60	0x3e8bd3b7	0.27309963
61	0x3f428002	0.75976574
62	0x3f2a6581	0.6656113
63	0x3d02998a	0.031884708
64	0xbd739f92	-0.05947835
65	0x3ed3aa04	0.4134065
66	0x3e9b777c	0.30364597
67	0x3d2ee369	0.042697344
68	0x3a626d09	0.00086374633
69	0x3d64b505	0.055836696
70	0x3f48c405	0.784241
71	0x3eb4b247	0.35292265
72	0xbf003d44	-0.50093484
73	0x3e630e57	0.22173439
74	0x3e2c3447	0.16816817
75	0x3e8a847c	0.27054203
76	0x3ef2096e	0.4727282
77	0xbd3c3859	-0.045952175
78	0x3f1c604c	0.6108444
79	0x3de09a73	0.10966959
80	0x3f54c86a	0.8311831
81	0xbe875f56	-0.26439923
82	0xbe040818	-0.12893713
83	0x3e90710d	0.2821125
84	0x3bdf7989	0.006819908
85	0xbf4655f5	-0.7747491
86	0x3e0e5f82	0.13903621
87	0xbcc5aed9	-0.024131225
88	0xbf2d39b1	-0.67666155
89	0xbe98e697	-0.29863426
90	0xbe9056f1	-0.2819133
91	0xbe10b076	-0.14129815
92	0xbf149c44	-0.5805094
93	0xbec71037	-0.38879558
94	0x3f10c3eb	0.5654895
95	0x3e93c238	0.28859115
96	0x3ea196fd	0.31560507
97	0x3c5ba207	0.01340533
98	0xbe9b83e3	-0.3037406
99	0xbeb65ef9	-0.35619333
100	0xbf163404	-0.5867312
101	0x3ed68635	0.41899267
102	0xbea11a57	-0.31465408
103	0x3efe1910	0.49628496
104	0xbf27ac32	-0.65497124
105	0x3d6f8a96	0.058481775
106	0xbe89fe96	-0.26952046
107	0xbf0a7cea	-0.54096854
108	0xbec85c22	-0.39132792
109	0xbde8b0ca	-0.11361845
110	0x3e82eeb9	0.25572756
111	0x3e961353	0.29311618
112	0xbf6aa975	-0.9166482
113	0x3d7afbf8	0.061275452
114	0x3eaa395e	0.33246893
115	0xbca7cb57	-0.020482702
116	0x3e5bbfa5	0.21459825
117	0x3edd7290	0.43251467
118	0xbda9dbc3	-0.08293869
119	0xbedfb369	-0.43691567
120	0xbe22de7f	-0.15905188
121	0x3e7f15bc	0.24910635
122	0x3d5d4ead	0.05403011
123	0x3e8bb05f	0.27282998
124	0xbddbdb56	-0.107351944
125	0xbcb21418	-0.021738097
126	0x3ec144e7	0.3774788
127	0x3e47f243	0.1952601
128	0x3eca199a	0.39472657
129	0x3d9b0b8e	0.07570563
130	0x3f3587ed	0.7091053
131	0x3d6b2fe8	0.057418734
132	0x3f36aa93	0.71354026
133	0x3e314996	0.17313227
134	0x3f997849	1.1989833
135	0xbf209096	-0.6272062
136	0xbdfda562	-0.1238506
137	0xbe48ea73	-0.19620685
138	0xbf696f2d	-0.91185266
139	0x3f36c733	0.71397704
140	0x3dbb13ad	0.09134612
141	0xbd09e5f6	-0.033666573
142	0x3f23f905	0.6405185
143	0x3d3fb44b	0.0468028
144	0xbf111d7d	-0.5668562
145	0xbeb9ba68	-0.3627503
146	0xbdf01fe3	-0.11724832
147	0x3e03985a	0.12851086
148	0x3f02fb1a	0.511644
149	0xbf2f2ea4	-0.6843054
150	0xbd84848e	-0.06470595
151	0xbf59f494	-0.8513882
152	0x3c62bf86	0.013839608
153	0x3eea90e2	0.45813662
154	0xbdf70f40	-0.120634556
155	0x3f8966ed	1.0734535
156	0x3eea091d	0.45710078
157	0x3f8a2372	1.0792067
158	0xbe60c5ea	-0.21950498
159	0xbe8bb047	-0.27282926
160	0x3d81d31d	0.06339095
161	0xbd27bd1d	-0.040951837
162	0xbe85c0bf	-0.26123616
163	0xbe5244f2	-0.20534113
164	0xbedf7222	-0.43641764
165	0xbef67024	-0.48132432
166	0xbeeece40	-0.4664173
167	0x3eff138c	0.498196
168	0x3b9b10e1	0.0047322367
169	0xbdb2ca5a	-0.08730002
170	0xbf36f643	-0.71469516
171	0xbe62a7c1	-0.22134306
172	0x3d90a129	0.07061989
173	0x3f041960	0.5160122
174	0xbec4098d	-0.38288537
175	0x3f809c4c	1.0047698
176	0x3db987a8	0.090590775
177	0x3e0c88d9	0.13724078
178	0xbda95e23	-0.08269908
179	0x3f0d3e34	0.5517304
180	0x3e15bf7f	0.14623831
181	0x3e2a8f5f	0.16656254
182	0x3e8b913e	0.27259248
183	0x3ecadda2	0.39622217
184	0x3d9183dd	0.07105229
185	0x3edb1302	0.4278794
186	0xbeb0ffb6	-0.34570092
187	0x3e77ceee	0.24200031
188	0x3d1d5472	0.03841061
189	0xbe02c8a8	-0.12771857
190	0xbdd96a15	-0.10615937
191	0xbf2a0b9f	-0.6642398
192	0xbe4b875d	-0.19875856
193	0x3e8637ca	0.2621444
194	0x3f27ce1c	0.6554887
195	0xbb518c33	-0.0031974434
196	0x3d9ad583	0.075602554
197	0xbea2e2fb	-0.31813797
198	0x3ecbb455	0.3978602
199	0xbf18dfb3	-0.5971634
200	0x3f0743a9	0.52837616
201	0xbe6e2530	-0.23256373
202	0xbe31c178	-0.17358959
203	0xbf17962e	-0.5921353
204	0xbebc6576	-0.3679616
205	0x3ce5fabe	0.028073665
206	0xbdead0dd	-0.11465619
207	0xbea199bc	-0.31562603
208	0xbed6bcab	-0.41940817
209	0xbef8cd98	-0.48594356
210	0xbf2ec2f9	-0.68266255
211	0xbd60fb5f	-0.054927226
212	0x3e9a6104	0.30152142
213	0xbe415f8f	-0.18884109
214	0xbe8f0514	-0.27933562
215	0x3f2dad6c	0.67842746
216	0x3e4e3376	0.20136818
217	0xbe00edd3	-0.12590723
218	0xbdf0cb54	-0.11757532
219	0xbd42c9e3	-0.047555815
220	0x3f23f92e	0.64052093
221	0x3deb5701	0.11491204
222	0xbea1bd4b	-0.31589732
223	0x3e77be23	0.24193625
224	0xbef72154	-0.48267615
225	0x3f05daf5	0.52287227
226	0xbc8db2b6	-0.01729713
227	0xbea0aa60	-0.31379986
228	0x3eabacea	0.3353036
229	0xbf175824	-0.59118867
230	0x3f438bab	0.7638499
231	0x3ea05376	0.31313676
232	0xbf1e6ee8	-0.6188798
233	0x3df13661	0.1177795
234	0x3e4825f6	0.19545731
235	0xbebd2dad	-0.3694891
236	0xbd9a90c0	-0.0754714
237	0xbecef8a5	-0.40424076
238	0xbed2c364	-0.41164696
239	0x3eb7b94c	0.35883558
240	0x3d944a94	0.07240787
241	0x3f43be12	0.764619
242	0x3ec6027c	0.3867377
243	0xbea16bd8	-0.3152759
244	0xbeb46005	-0.35229507
245	0xbf13364b	-0.5750472
246	0xbf2af9d3	-0.6678745
247	0xbdb95b94	-0.0905067
248	0x3e92d863	0.28680715
249	0x3d551e52	0.05203087
250	0xbe34e4fb	-0.17665474
251	0x3e0c9534	0.13728791
252	0x3efa58ef	0.48895976
253	0xbe9507eb	-0.29107603
254	0x3e3700b0	0.17871356
255	0x3ed4c494	0.41556227

r_cell.w_ks.bias f4 [24]
0	0xbe889736	-0.26677865
1	0xbe842ecb	-0.2581695
2	0xbe2aa704	-0.16665274
3	0x3d359aee	0.044337206
4	0x3e5b097e	0.2139034
5	0x3dee3cc8	0.11632687
6	0x3d89f61d	0.067363955
7	0xbdcf1d6e	-0.10113035
8	0xbdeb03b6	-0.11475317
9	0x3d061447	0.03273418
10	0x3e736b1c	0.23771328
11	0x3e1e10af	0.15436052
12	0x3d4c6c0f	0.04990774
13	0xbdb0f6ac	-0.08640799
14	0x3d5376a8	0.05162683
15	0x3d301aca	0.042994298
16	0xbd94c244	-0.07263616
17	0xbc947905	-0.018124113
18	0x3e0016eb	0.12508743
19	0xbe296da2	-0.16545728
20	0xbd600ec6	-0.05470159
21	0xbd5cc8ec	-0.05390255
22	0xbdbb9816	-0.091598675
23	0xbe4e1e80	-0.20128822

r_cell.w_vs.weight f4 [24, 24]
0	0xbf056711	-0.5211039
1	0xbe61f69d	-0.22066732
2	0x3d61c7e1	0.05512226
3	0x3e3c7933	0.18405609
4	0xbd50bbdc	-0.050960407
5	0xbedf2950	-0.43586206
6	0xbe6d29dd	-0.23160501
7	0x3eb4bf18	0.35302043
8	0x3dfc79f8	0.12327951
9	0x3e2adfb1	0.16686894
10	0x3ddea4f7	0.10871308
11	0xbe311adf	-0.17295407
12	0x3e39b5a4	0.18135697
13	0x3e9c463c	0.30522335
14	0xbd1d055d	-0.038335193
15	0x3e82b448	0.2552817
16	0x3ec3b0ab	0.38220724
17	0x3e20d63b	0.15706722
18	0x3dbefb81	0.09325314
19	0x3e348cce	0.17631838
20	0x3e93dacd	0.2887787
21	0x3e58e907	0.21182643
22	0xbe40a3bc	-0.1881246
23	0x3e6e8bdb	0.23295538
24	0xbdb20101	-0.08691598
25	0x3b192a5f	0.0023371202
26	0xbd4fb185	-0.050706405
27	0x3d8c37e1	0.068465956
28	0x3edf0f62	0.43566424
29	0xbeb25fe1	-0.34838775
30	0xbd3a75eb	-0.04552261
31	0x3e3d7b70	0.18504119
32	0x3cc0398f	0.023464946
33	0x3ef53fac	0.4790014
34	0xbe5feab7	-0.2186688
35	0x3d94e8b0	0.07270944
36	0xbe3babc2	-0.18327239
37	0xbbc92ac6	-0.006139132
38	0xbd0afc40	-0.03393197
39	0x3d0ee735	0.034888465
40	0x3ebb3244	0.36561787
41	0x3d5cdc3a	0.053920962
42	0x3ee5fd24	0.44919693
43	0x3e61301e	0.21991012
44	0x3e9e41d1	0.3090959
45	0x3ec0c171	0.37647584
46	0xbe28e422	-0.16493276
47	0xbe7ba689	-0.24575247
48	0xbe560728	-0.20901167
49	0x3b07be84	0.0020712921
50	0x3eb2c681	0.3491707
51	0xbd43c092	-0.04779107
52	0xbce663a0	-0.028123677
53	0x3d2aa44f	0.041660603
54	0xbe8fa807	-0.28057882
55	0x3e3a41f6	0.18189225
56	0x3da5d4cb	0.08097228
57	0xbe226866	-0.15860137
58	0x3e1d7ccc	0.15379637
59	0xbd8ee9ed	-0.069782116
60	0xbc185fc3	-0.009300175
61	0x3e9fd9df	0.3122091
62	0xbdee83b2	-0.11646213
63	0x3dbc847d	0.09204958
64	0xbdf4ea1c	-0.11958715
65	0x3e08aabe	0.13346383
66	0x3e92829a	0.28615266
67	0x3deae3f1	0.114692576
68	0xbe3992d6	-0.1812242
69	0xbe5548d5	-0.20828564
70	0x3be2d951	0.006922879
71	0xbe37dd6e	-0.17955562
72	0xbd58b4a9	-0.052906666
73	0x3dfab133	0.12240829
74	0x3debea52	0.115193024
75	0xbebcce01	-0.36875919
76	0x3e403ef0	0.18774009
77	0xbedc30b4	-0.43005908
78	0x3d5a7b20	0.053340077
79	0x3cbe004b	0.0231935
80	0x3dcbb739	0.09947056
81	0xbde3686f	-0.111039035
82	0x3e4a12c0	0.19733715
83	0x3df39410	0.11893475
84	0x3e13e4ff	0.14442824
85	0xbc9891de	-0.018624242
86	0x3f313c54	0.6923268
87	0xbe68058f	-0.2265837
88	0x3db38f69	0.08767588
89	0x3e1782f9	0.14796056
90	0xbed5da63	-0.41768178
91	0x3e789b0c	0.24277896
92	0xbeb48b18	-0.3526237
93	0x3e346bb6	0.17619213
94	0xbddc6698	-0.10761756
95	0xbe5f1d8a	-0.21788612
96	0xbdbd6ea7	-0.09249621
97	0xbd859e65	-0.06524352
98	0x3d6ad449	0.057331357
99	0xbcd82124	-0.02638299
100	0xbd921ff9	-0.071350046
101	0x3df662fe	0.120306
102	0xbd8d2fe9	-0.06893904
103	0x3ea99f7d	0.33129492
104	0x3e66b923	0.22531562
105	0x3e5b1941	0.21396352
106	0x3e87e95f	0.26545236
107	0xbe0e69b9	-0.13907517
108	0x3e1b1bc5	0.15147312
109	0xbc5daf8a	-0.013530621
110	0x3e50c76d	0.20388575
111	0xbedf0cda	-0.43564492
112	0x3e57436d	0.21021815
113	0xbd8ad7fc	-0.06779477
114	0x3f031bec	0.5121448
115	0xbe1289c6	-0.14310369
116	0xbb3b1fdd	-0.0028552928
117	0xbd221010	-0.0395661
118	0x3e90428f	0.2817578
119	0x3dbc1326	0.0918334
120	0xbe20b01b	-0.15692179
121	0xbde89163	-0.11355855
122	0xbe9fa284	-0.31178677
123	0x3e56013b	0.20898907
124	0x3efff628	0.4999249
125	0x3dfe1c88	0.12407786
126	0xbebf149f	-0.3732042
127	0xbe53928e	-0.20661375
128	0x3c768625	0.015046631
129	0x3ef57c96	0.47946614
130	0xbdb304b8	-0.087411344
131	0xbe8f7215	-0.28016725
132	0xbec6c84a	-0.38824683
133	0xbd9e0ebe	-0.077176556
134	0xbe58542a	-0.21125856
135	0x3efe93d9	0.49722174
136	0x3e487908	0.1957742
137	0xbe983de8	-0.2973473
138	0x3e3e1beb	0.18565337
139	0x3ebfd828	0.37469602
140	0x3d5d512c	0.05403249
141	0x3e822219	0.2541664
142	0x3e6df544	0.23238093
143	0x3e9bc682	0.30424887
144	0xbe9214f6	-0.28531617
145	0xbc042c99	-0.008067274
146	0xbd7bf7b8	-0.06151554
147	0xbe8e2ac9	-0.27767017
148	0x3dbb384d	0.09141598
149	0x3e4fa8f8	0.202793
150	0x3c0499d6	0.008093318
151	0x3eb2a2d9	0.34889868
152	0x3e92ecce	0.28696293
153	0x3d810b70	0.0630101
154	0x3efc3c4c	0.49264753
155	0x3e76626a	0.2406098
156	0x3f0ccdc4	0.55001473
157	0x3e9ae594	0.3025328
158	0xbe5b4ecc	-0.21416777
159	0x3e3dcc32	0.18534926
160	0xbe8d8491	-0.27640203
161	0x3f1192d4	0.56864667
162	0x3ecc1b7e	0.39864725
163	0x3e3bd004	0.1834107
164	0x3e973fb7	0.29540798
165	0x3d8b564a	0.06803568
166	0x3e14bb35	0.14524539
167	0x3ddf3dee	0.10900484
168	0x3e8061fa	0.2507475
169	0xbdc9ce5e	-0.098538145
170	0xbe8f0b9f	-0.27938554
171	0x3e15caba	0.14628115
172	0xbe92bb46	-0.28658503
173	0x3baf6756	0.005352895
174	0x3d8c7613	0.06858458
175	0xbedf5e1e	-0.43626493
176	0xbd1e18c5	-0.03859784
177	0xbdecf7a3	-0.115706705
178	0x3c8b94eb	0.017038783
179	0xbd909ce6	-0.07061176
180	0xbd93e9f3	-0.07222357
181	0xbdcd2eae	-0.10018669
182	0x3cd511ff	0.026009558
183	0xbe840236	-0.25782937
184	0xbc9bd837	-0.019023998
185	0xbdb17b2c	-0.08666071
186	0xbdd9c076	-0.10632412
187	0xbee9a101	-0.4563065
188	0xbdb23298	-0.08701056
189	0xbe2cb25c	-0.16864914
190	0x3cfa6af6	0.030568581
191	0x3dc80717	0.09766977
192	0x3d5edf61	0.05441225
193	0xbdac0687	-0.083996825
194	0x3eba738e	0.36416286
195	0xbe7f0450	-0.24903989
196	0x3edfd88f	0.4371991
197	0xbd79bdf3	-0.060972165
198	0x3df92da5	0.12166909
199	0xbe42e8d4	-0.1903413
200	0x3d634387	0.05548432
201	0xbddfb3b8	-0.109229505
202	0xbe79f670	-0.24410415
203	0x3d388c1f	0.045055505
204	0x3e160b94	0.14652854
205	0xbdd08e45	-0.10183386
206	0x3e3355e9	0.17513241
207	0x3e13eef5	0.14446624
208	0xbe0d22f0	-0.13782859
209	0x3d95b944	0.07310727
210	0x3f2a309e	0.66480434
211	0xbd3d9e5f	-0.046293613
212	0x3c3496fe	0.0110223275
213	0x3eb347eb	0.35015807
214	0x3cb0d9b8	0.021588191
215	0xbd8becfd	-0.06832311
216	0x3e27ed1d	0.16399045
217	0xbd16d73c	-0.036826357
218	0xbe5c93b9	-0.21540727
219	0x3cd3b156	0.025841396
220	0x3e967a13	0.2939001
221	0x3e6ac15b	0.22925322
222	0x3d5e428c	0.054262683
223	0x3e0a1134	0.13483125
224	0xbc91ffcf	-0.017822174
225	0xbe428972	-0.18997744
226	0x3e77c9ab	0.24198024
227	0x3c7bf4a0	0.015378147
228	0x3d5e5bf8	0.054286927
229	0x3e916bad	0.28402463
230	0x3e971d41	0.29514506
231	0xbe14d9b0	-0.14536166
232	0x3eb4b61d	0.3529519
233	0xbde91694	-0.113812596
234	0xbeb135bf	-0.34611318
235	0x3e615ef6	0.22008881
236	0xbd4323e3	-0.047641646
237	0xbe8fc7b5	-0.28082052
238	0xbdbd9205	-0.09256367
239	0xbe6b23c7	-0.22962867
240	0x3d3ee3b2	0.046603866
241	0xbc4d67ba	-0.012536937
242	0x3dab2a87	0.08357721
243	0xbdb0014e	-0.08593999
244	0xbc8bb9fd	-0.01705646
245	0xbe195a70	-0.14975905
246	0xbe53ac2f	-0.20671152
247	0x3eb89c5c	0.36056793
248	0xbea92476	-0.3303563
249	0xbd75735c	-0.05992447
250	0xbefb102a	-0.4903577
251	0x3eac384c	0.336367
252	0x3f08f5a2	0.53499806
253	0xbd8aaa87	-0.06770807
254	0x3db712e3	0.08939149
255	0xbcee2680	-0.029071093

r_cell.w_vs.bias f4 [24]
0	0xbde0b571	-0.10972107
1	0x3db615ab	0.088908516
2	0xbe68920b	-0.22711961
3	0xbe1ff955	-0.15622456
4	0xbd22cc87	-0.039745834
5	0xbd5bbd0d	-0.05364709
6	0xbca2d615	-0.019877473
7	0xbcf4bc6b	-0.029875001
8	0xbe2b4500	-0.1672554
9	0x3cf80968	0.030277923
10	0xbd500b05	-0.05079176
11	0x3e0552d4	0.13019878
12	0xbc606bd9	-0.013697588
13	0xbd74c7d8	-0.0597609
14	0x3c7b0cf9	0.015322917
15	0xbd8eed18	-0.06978816
16	0xbe06b4f0	-0.1315496
17	0x3d694780	0.056952953
18	0x3e212ccc	0.15739745
19	0xbe11943d	-0.14216705
20	0x3c82177a	0.015880335
21	0xbd3f68f4	-0.04673095
22	0x3d9c5b41	0.07634593
23	0xbe042fb1	-0.12908818

r_cell.layer_norm.weight f4 [24]
0	0x3f8dfb97	1.1092404
1	0x3f814eb3	1.0102142
2	0x3f8be27a	1.092849
3	0x3f80ed4e	1.007242
4	0x3f7974cf	0.9744386
5	0x3f83fc9e	1.0311468
6	0x3f8f05fe	1.1173704
7	0x3f83ac64	1.0286984
8	0x3f8afba4	1.0858045
9	0x3f45a971	0.7721167
10	0x3f9b787f	1.2146147
11	0x3f528c65	0.82245475
12	0x3f81ceeb	1.0141271
13	0x3f96de0e	1.1786516
14	0x3f87d964	1.0613217
15	0x3f87e8d3	1.0617927
16	0x3f830dff	1.0238646
17	0x3f6aa093	0.91651267
18	0x3f91ae12	1.1381247
19	0x3f5c9624	0.86166596
20	0x3f7c45a4	0.98543763
21	0x3f7f4009	0.99707085
22	0x3f89e2c8	1.0772333
23	0x3f7898af	0.97107977

r_cell.layer_norm.bias f4 [24]
0	0xbd028b65	-0.03187122
1	0xbdaf38a4	-0.08555725
2	0x3dd8d899	0.10588188
3	0xbce02d0c	-0.02736523
4	0x3d87d64c	0.06632671
5	0xbe1e98ad	-0.15487929
6	0xbd7615de	-0.060079448
7	0xbccc504f	-0.024940638
8	0xb9d38434	-0.00040343555
9	0xbdcf3654	-0.10117784
10	0xbd8e2f99	-0.06942672
11	0xbdce43e6	-0.10071544
12	0x3ca0cde2	0.019629423
13	0xbc0ae157	-0.008476577
14	0x37cc9711	2.438904e-05
15	0xbd03d2b0	-0.03218335
16	0x3ccc71c6	0.024956595
17	0xbdaf6a8e	-0.085652456
18	0x3cca8dc1	0.024725797
19	0xbc8c6e0a	-0.017142314
20	0xbd692928	-0.056924015
21	0xbdcbb346	-0.09946303
22	0xbdecd5dd	-0.11564229
23	0x3d6b26cb	0.057410043

r_cell.fc.weight f4 [24, 24]
0	0x3d5249f2	0.05134005
1	0x3ebff27d	0.3748969
2	0x3e34db02	0.1766167
3	0x3d34b21a	0.044115163
4	0x3b5bf56f	0.0033563038
5	0x3d6124d3	0.05496676
6	0xbdcea361	-0.10089756
7	0x3e1d4a5e	0.153604
8	0x3da5b338	0.08090824
9	0x3e2b0550	0.16701245
10	0xbe64cfc1	-0.22344877
11	0x3d12a68b	0.03580336
12	0x3d922c3a	0.07137342
13	0x3e606099	0.21911849
14	0x3e1ceee9	0.15325512
15	0xbe03fc92	-0.12889317
16	0xbe13aded	-0.14421816
17	0x3e239334	0.15974122
18	0x3c6865e5	0.01418445
19	0x3e8e60f5	0.27808347
20	0x3e00d971	0.12582947
21	0xb8886098	-6.502977e-05
22	0xbe953c1b	-0.2914742
23	0xbe2acd48	-0.16679871
24	0xbdd1566a	-0.1022156
25	0xbc71cd11	-0.014758364
26	0xbccdedcb	-0.025137803
27	0x3cdb586f	0.026775567
28	0x3b3387e2	0.0027394225
29	0x3eabb1df	0.33534142
30	0x3db8dea7	0.090268426
31	0x3cc3d417	0.023904843
32	0x3eb101b2	0.34571606
33	0xbe4247d4	-0.18972713
34	0xbdfbb101	-0.1228962
35	0xbcc7e549	-0.024401324
36	0x3dcf2d7b	0.101160966
37	0xbbd84034	-0.0065994505
38	0x3e23f461	0.16011192
39	0xbcac1aa0	-0.02100879
40	0xbe9af47b	-0.3026465
41	0xbddc20b7	-0.10748427
42	0x3d2c92cd	0.042132188
43	0xbe0620ec	-0.13098496
44	0x3d0b0aa2	0.033945687
45	0x3e82ad6f	0.25522944
46	0x3e70150b	0.23445527
47	0x3ee8e188	0.45484567
48	0x3c6365d5	0.013879259
49	0x3d0c0526	0.034184597
50	0x3e074010	0.13208032
51	0x3da6b1a3	0.0813935
52	0x3d496c58	0.04917559
53	0xbd5e353c	-0.054249987
54	0x3cd35b4f	0.025800375
55	0x3dae9f92	0.08526529
56	0x3daf1249	0.085484095
57	0xbd38fc36	-0.045162402
58	0xbe2ed9ff	-0.17075346
59	0xbdb9084a	-0.09034784
60	0xbdb07c45	-0.086174525
61	0x3ddb85b5	0.10718862
62	0xbde5b8b3	-0.11216869
63	0xbde8584e	-0.11344968
64	0xbdddb737	-0.10825961
65	0xbe79d270	-0.24396682
66	0x3d8ace66	0.06777649
67	0xbd0b6910	-0.034035742
68	0xbda8c844	-0.08241323
69	0xbde09f10	-0.10967839
70	0xbd64c523	-0.055852067
71	0xbcc896eb	-0.024486026
72	0xbe19a13e	-0.15002915
73	0x3dd5a42e	0.104317054
74	0xbd3f7d00	-0.04675007
75	0xbd8fb390	-0.07016671
76	0xbda3bb19	-0.079946704
77	0x3e5cbc84	0.21556288
78	0x3ec29833	0.38006744
79	0x3df47c35	0.11937753
80	0x3e28c624	0.16481835
81	0x3e05f7db	0.1308283
82	0xbd17d27f	-0.03706598
83	0x3dfb1e67	0.12261658
84	0xbd1646af	-0.036688503
85	0x3e27affd	0.16375728
86	0xbe3db784	-0.18527037
87	0x3d9eec00	0.07759857
88	0xbc9e29b1	-0.01930699
89	0xbe4ff6a5	-0.20308931
90	0xbd45fe89	-0.048338447
91	0xbc273239	-0.010204845
92	0xbd2cc1c0	-0.042176962
93	0x3d444541	0.04791761
94	0xbe8c2d59	-0.27378348
95	0xbe89dd0b	-0.26926455
96	0x3e0d264f	0.13784145
97	0x3d6ce406	0.057834648
98	0xbea6fb35	-0.3261353
99	0xbd91796f	-0.0710324
100	0xbca155d8	-0.019694254
101	0x3e80a45a	0.2512539
102	0x3e68becb	0.22729032
103	0xbe3397c1	-0.17538358
104	0xbe23f9b6	-0.16013226
105	0x3d9246ff	0.07142448
106	0x3d92b19f	0.07162785
107	0xbcb76cbb	-0.022390714
108	0x3d2d961b	0.04237948
109	0x3e2ac59b	0.16676943
110	0x3c731d79	0.01483857
111	0x3e5cf8e9	0.21579327
112	0xbc462a7c	-0.01209509
113	0x3d9538cc	0.07286224
114	0xbd2a06a2	-0.04151023
115	0xbe9a2ce5	-0.30112377
116	0x3d3d928c	0.046282336
117	0x3de201e5	0.110355176
118	0xbe5ed088	-0.21759236
119	0x3e33b128	0.17548048
120	0xbd8ae335	-0.067816176
121	0xbe1b4e38	-0.15166557
122	0x3a8603f6	0.0010224569
123	0xbd6c0d52	-0.05762989
124	0xbe0b2560	-0.13588476
125	0xbe78dcba	-0.2430295
126	0xbe56fa5c	-0.20993942
127	0x3e1abf3a	0.1511201
128	0xbd95c4fb	-0.07312962
129	0xbd8b3ffd	-0.06799314
130	0x3e4bc378	0.19898784
131	0xbd612769	-0.054969225
132	0x3d92b2ac	0.07162985
133	0xbe4490b5	-0.19195826
134	0x3ebc9539	0.36832598
135	0xbef35f05	-0.47533432
136	0xbe1310df	-0.14361905
137	0x3e1e4584	0.15456206
138	0x3dafe0b8	0.085877836
139	0x3e0dc7bd	0.13845725
140	0x3df835da	0.12119646
141	0xbc1a4c69	-0.009417632
142	0x3dc0c55b	0.094126426
143	0x3d9e57cf	0.07731592
144	0x3ca1fc17	0.019773526
145	0x3dbb28f6	0.09138672
146	0xbd8d7bb6	-0.069083616
147	0xbeb31e3e	-0.3498401
148	0xbd520df5	-0.05128284
149	0xbe3a1313	-0.18171339
150	0x3c0fff2a	0.008788863
151	0xbc2ad9b0	-0.010427877
152	0x3cbac078	0.022796854
153	0x3de1c2f8	0.110235155
154	0x3eb4ce0e	0.35313457
155	0xbccfeb7e	-0.025380846
156	0xbd4e0653	-0.050299
157	0x3d5efda8	0.054441124
158	0x3d6127a8	0.05496946
159	0x3d74b5cf	0.0597437
160	0x3d293a69	0.04131547
161	0x3e7a077b	0.24416916
162	0xbe1eccc2	-0.15507796
163	0x3dc8985b	0.097946845
164	0x3d397041	0.04527307
165	0x3e7bd8c5	0.2459441
166	0x3e61057b	0.21974747
167	0x3c490a6b	0.01227055
168	0xbdfa4649	-0.12220437
169	0x3e8c6a7b	0.27424988
170	0x3e1674a4	0.14692932
171	0x3dfc6b80	0.123251915
172	0xbdcbaa94	-0.099446446
173	0xbd0d0917	-0.034432497
174	0x3d55a38e	0.05215793
175	0x3d21cb1b	0.039500337
176	0x3dce6801	0.10078431
177	0xbe712939	-0.23550881
178	0x3bd8a822	0.00661184
179	0x3e8533b1	0.26016
180	0x3c7b4b59	0.0153377885
181	0x3e6bbfa7	0.23022328
182	0xbb14f76b	-0.002273048
183	0x3d8f2d40	0.06991053
184	0xbd6e1041	-0.05812097
185	0xbe627652	-0.22115448
186	0x3e7a9826	0.24472103
187	0x3e9fd89c	0.31219947
188	0x3db26ecc	0.08712539
189	0x3d4d19d6	0.050073467
190	0xbe2337b3	-0.15939216
191	0xbd6a67a4	-0.057227746
192	0x3d7d5db6	0.061856948
193	0x3ea85cbd	0.32883254
194	0x3e287549	0.1645099
195	0xbdc2e082	-0.09515478
196	0x3e4f258e	0.2022917
197	0xbe52c9bc	-0.20584768
198	0xbeb7d2bb	-0.35902962
199	0x3e0820b1	0.13293721
200	0x3da9d7aa	0.08293088
201	0xbc60f126	-0.013729369
202	0x3bf19167	0.0073720696
203	0xbd06170e	-0.03273683
204	0xbc89768f	-0.016780166
205	0x3e9fb645	0.31193748
206	0x3c034f72	0.008014547
207	0xbe8a4c88	-0.27011514
208	0xbcf5c9ed	-0.030003512
209	0xbda42fe7	-0.08016949
210	0x3db95b7b	0.09050652
211	0x3db44b44	0.08803418
212	0xbdc531fe	-0.09628676
213	0x3dccc342	0.0999818
214	0xbdb28723	-0.087171815
215	0xbda86767	-0.082228474
216	0x3e0b2664	0.13588864
217	0xbe501a15	-0.2032245
218	0xbee2ae95	-0.4427382
219	0xbe45a65b	-0.19301741
220	0xbe06de3d	-0.13170715
221	0x3c1ec638	0.009690814
222	0x3d97c619	0.07410831
223	0xbdc4b6ff	-0.09605216
224	0xbdbdd411	-0.09268964
225	0xbc1045e6	-0.008805728
226	0x3e8a33cf	0.26992652
227	0x3dbe7d83	0.09301283
228	0xbd2d696f	-0.042336877
229	0xbcea1fc1	-0.028579595
230	0xbe92a9a9	-0.28645065
231	0xbde21c5c	-0.11040565
232	0xbdf6f1a8	-0.12057811
233	0x3d481980	0.048852444
234	0x3db1243c	0.08649489
235	0xbcf290bb	-0.029610028
236	0x3dc11db3	0.09429493
237	0xbe9f23c1	-0.31081966
238	0xbf1950f3	-0.59889144
239	0xbec272bf	-0.3797817
240	0x3d1fb0ce	0.038986973
241	0xbe1c3500	-0.15254593
242	0xbea1fc13	-0.3163763
243	0x3d0e3074	0.034714177
244	0xbde1a2f4	-0.11017409
245	0xbd350b96	-0.044200502
246	0x3db8cd54	0.09023538
247	0x3d8375b2	0.06418933
248	0x3db972c0	0.0905509
249	0x3ded893c	0.11598441
250	0xbd718df4	-0.058973268
251	0xbd8877cc	-0.066634744
252	0xbe5c389e	-0.21505973
253	0x3e1153ab	0.14192073
254	0xbdbe61c7	-0.09295993
255	0x3c5449d3	0.012957054

r_cell.fc.bias f4 [24]
0	0x3c46dcd9	0.012137615
1	0x3cba9802	0.022777561
2	0x3d75c0eb	0.059998434
3	0xbde1f1a9	-0.11032421
4	0x3a61de44	0.0008616189
5	0xbd47bf10	-0.048766196
6	0xbdf2084a	-0.11817987
7	0x3cab0ed9	0.020881103
8	0x3d5cf710	0.053946555
9	0xbdbf7350	-0.09348166
10	0xbd6c95d0	-0.05776006
11	0x3a696189	0.00089027785
12	0xbd005f51	-0.0313409
13	0x3dbee93b	0.09321829
14	0x3d9be690	0.07612336
15	0xbb3a6026	-0.0028438657
16	0x3d0015cc	0.031270787
17	0x3db19438	0.086708486
18	0x3dbb64e8	0.09150106
19	0xbdd82487	-0.10553842
20	0xbd6b5c45	-0.057461042
21	0xbde7774e	-0.113020524
22	0xbdba48ff	-0.09095954
23	0x3bab2290	0.005222626

fc1.0.bias f4 [24]
0	0xbe75f71f	-0.2402005
1	0x3e027774	0.1274088
2	0xbe8000c8	-0.25000596
3	0xbc5f9fa4	-0.013648901
4	0x3dbd825a	0.09253378
5	0x3e94cc37	0.29062054
6	0x3dd9dd59	0.10637922
7	0xbe2fb404	-0.17158514
8	0x3e842f8a	0.2581752
9	0xbe9c59b4	-0.30537188
10	0x3d4a0f82	0.049331196
11	0x3e1f54ed	0.1555974
12	0x3e159dde	0.14611003
13	0xbe831de9	-0.25608757
14	0xbc852e4f	-0.016257433
15	0xbea1c38d	-0.31594506
16	0x3e0a11e7	0.13483392
17	0x3e499539	0.1968583
18	0xbdd062c5	-0.10175089
19	0x3e317a3a	0.17331782
20	0x3da85c87	0.08220773
21	0x3e29ba6b	0.16575019
22	0xbdcedaa6	-0.10100298
23	0x3e8eb7af	0.27874514

fc1.0.weight_orig f4 [24, 6]
0	0xbc4d256b	-0.012521128
1	0xbd1c31da	-0.03813348
2	0xbe459c6f	-0.19297956
3	0xbe916f3f	-0.28405187
4	0x3ee51328	0.44741178
5	0x3f07185e	0.52771556
6	0x3e9a6a0b	0.3015903
7	0xbc35d3be	-0.011097847
8	0x3e266429	0.16249146
9	0x3eccb47b	0.39981446
10	0x3e028b5e	0.12748477
11	0xbf058fc6	-0.52172506
12	0xbe1a20c1	-0.15051557
13	0xbc01b419	-0.007916474
14	0x3e1f2f3a	0.15545359
15	0xbe47cda6	-0.19512042
16	0x3ea6113b	0.3243502
17	0xbe811dfa	-0.25218183
18	0x3e6fdee3	0.23424868
19	0xbea41189	-0.32044628
20	0x3d611c6a	0.05495874
21	0x3e8f162f	0.27946612
22	0x3c83ad79	0.01607393
23	0x3f044251	0.5166369
24	0x3efc6060	0.49292278
25	0x3f091554	0.5354817
26	0xbe4cd531	-0.20003201
27	0xbe9bec02	-0.30453497
28	0x3ea2faf1	0.31832078
29	0xbd4de0cc	-0.05026321
30	0xbe45641d	-0.19276471
31	0x3e965a67	0.29365847
32	0x3eedaaba	0.46419317
33	0xbe6a1bd7	-0.22862183
34	0x3e95a5e1	0.29228118
35	0x3f0d47d5	0.5518773
36	0xbe3bc5dd	-0.18337198
37	0x3e09912b	0.13434283
38	0x3f02dc19	0.5111709
39	0x3e31e293	0.17371587
40	0x3e0a0bbf	0.13481043
41	0xbdf7320c	-0.120700926
42	0xbdaf44ea	-0.08558066
43	0xbe74d75c	-0.23910278
44	0xbd3f1059	-0.04664645
45	0x3e27f246	0.16401014
46	0x3eeb2b11	0.45931295
47	0x3e45e3ff	0.19325255
48	0x3d6519a0	0.05593264
49	0x3eacc650	0.3374505
50	0x3d211b27	0.039332535
51	0xbe56ad6e	-0.20964596
52	0x3ec6b2b4	0.38808215
53	0x3ef3dff1	0.4763179
54	0xbe7bc644	-0.24587351
55	0x3edf6515	0.43631807
56	0xbc357ce6	-0.011077141
57	0xbd5e51f3	-0.05427737
58	0xbe875568	-0.26432347
59	0x3c10936f	0.008824213
60	0x3ce8a4d8	0.028398916
61	0x3ea5e8ea	0.32404262
62	0x3e4c44a1	0.19948055
63	0x3cc56411	0.024095567
64	0x3e054a8c	0.13016719
65	0xbeb768b7	-0.3582208
66	0x3e86f142	0.2635594
67	0xbe0f22e8	-0.1397816
68	0x3e7a3369	0.24433674
69	0xbe8bcbda	-0.27303964
70	0x3f0d9bfe	0.5531615
71	0x3ecfc3aa	0.40578967
72	0x3e0e27d7	0.13882385
73	0xbd8cbcff	-0.06871986
74	0x3f1d147f	0.613594
75	0x3e12f601	0.14351656
76	0x3e410197	0.18848263
77	0xbc6ab140	-0.014324486
78	0xbda03a76	-0.078236505
79	0x3e6c9439	0.23103417
80	0xbdaa8a2b	-0.08327135
81	0x3e9718b2	0.2951103
82	0xbe63b7cf	-0.22238086
83	0x3e655fff	0.22399901
84	0xbdbaabcf	-0.09114801
85	0x3e8a1639	0.2697008
86	0x3e312773	0.17300205
87	0x3e1922a1	0.14954616
88	0xbe4f7e88	-0.20263112
89	0x3eefb251	0.46815732
90	0x3e8ac795	0.27105394
91	0x3d5ad5f8	0.053426713
92	0xbbf0ea1f	-0.007352128
93	0xbe4a8f4e	-0.19781229
94	0xbeadba27	-0.33931085
95	0x3d905160	0.07046771
96	0x3e20bf9e	0.15698096
97	0xbe82dbff	-0.2555847
98	0xbd0e639a	-0.034762956
99	0x3e532ac9	0.2062179
100	0x3f0541d1	0.5205355
101	0x3e353258	0.17694986
102	0xbe4fd819	-0.20297278
103	0x3e31ebdb	0.17375128
104	0x3e4a91ab	0.1978213
105	0x3eedd6ec	0.46453035
106	0x3e85882b	0.2608045
107	0xbec4b0fc	-0.38416278
108	0x3ee00dcd	0.4376053
109	0xbda4f926	-0.08055334
110	0xbe94f046	-0.29089564
111	0x3e1e6b6d	0.15470667
112	0xbe0c698c	-0.13712138
113	0xbe5e5c76	-0.21714959
114	0xbe199bc9	-0.15000834
115	0x3e9b4ca1	0.303319
116	0x3e874217	0.2641761
117	0x3efc5f9b	0.4929169
118	0xbd2f0cfa	-0.042736985
119	0x3d9349f7	0.07191842
120	0xbde5b19c	-0.11215517
121	0x3ea34358	0.31887317
122	0x3ecc157c	0.3986014
123	0x3f009fac	0.5024364
124	0xbe430214	-0.19043761
125	0x3ede183c	0.43377864
126	0x3f0a2967	0.53969425
127	0x3efde11f	0.49585816
128	0xbd266f56	-0.040633522
129	0xbe9e6900	-0.30939484
130	0x3e106e96	0.14104685
131	0xbdf81d6d	-0.121149875
132	0xbe5c8e1d	-0.21538587
133	0xbe2b6ecb	-0.16741483
134	0xbd80883c	-0.06275985
135	0x3eefdf8d	0.46850243
136	0xbd1bd8b1	-0.03804845
137	0xbee79e06	-0.4523775
138	0x3ea1634b	0.31521067
139	0x3e334f16	0.17510638
140	0xbe74f44f	-0.23921321
141	0x3efc1aab	0.49239096
142	0x3e9deae4	0.3084327
143	0x3e592c74	0.21208364

fc1.0.weight_u f4 [24]
0	0xbec4b821	-0.3842173
1	0x3e75b9dd	0.23996682
2	0xbc2d99aa	-0.010595718
3	0xbe268a3a	-0.16263667
4	0xbe4beb01	-0.19913866
5	0xbec66169	-0.38746193
6	0x3d0648b9	0.032784197
7	0xbe0ac886	-0.13553056
8	0xbec216c5	-0.37907997
9	0x3d216af3	0.039408635
10	0x3dafd0b4	0.08584729
11	0xbeca652b	-0.3953031
12	0xbd4bc791	-0.04975087
13	0x3c8585ce	0.016299155
14	0xbe0dc27b	-0.1384372
15	0xbc53cf15	-0.01292779
16	0xbe1f7aca	-0.15574184
17	0x3e416592	0.18886402
18	0x3e127770	0.14303374
19	0x3d747ae7	0.05968752
20	0xbd8775f7	-0.06614297
21	0xbe0930f7	-0.13397585
22	0x3eac13d3	0.33608875
23	0xbdc04a0d	-0.09389124

fc1.0.weight_v f4 [6]
0	0xbe217efb	-0.15771095
1	0xbe12d3c0	-0.14338589
2	0xbdbe00e2	-0.09277512
3	0x3ec2fc3f	0.38083073
4	0xbeeb1dff	-0.45921323
5	0xbf44a55e	-0.7681483

fc1.1.weight f4 [24, 24]
0	0xbe8105a2	-0.2519961
1	0xbb035a43	-0.0020042814
2	0x3e3ce814	0.18447906
3	0x3f2deb98	0.6793761
4	0xbe2dd8d5	-0.16977246
5	0x3f973713	1.1813682
6	0x3e13dd24	0.14439827
7	0x3eae2c76	0.34018296
8	0xbf4b5462	-0.7942563
9	0x3ee8c522	0.454629
10	0xbe95df64	-0.29271996
11	0xbf8acedd	-1.084438
12	0x3e154f6b	0.14581077
13	0x3f015fb0	0.5053663
14	0x3e3d5a70	0.1849153
15	0x3f0631b8	0.52419615
16	0xbf052be9	-0.52020127
17	0xbf083b89	-0.53215843
18	0x3f0e8db9	0.55685
19	0x3e08dd90	0.1336577
20	0xbe910800	-0.28326416
21	0xbd2c9028	-0.042129666
22	0xbe7f614f	-0.24939464
23	0xbf626ef8	-0.88450575
24	0x3f0ffbe2	0.5624372
25	0xbf0dd9ec	-0.5541065
26	0xbec2afbb	-0.38024697
27	0xbe763ae3	-0.24045901
28	0xbfdffca2	-1.7498972
29	0xbfe42718	-1.782443
30	0xbda7452a	-0.08167489
31	0xbce80d5b	-0.02832668
32	0x3f8416a1	1.0319406
33	0x3d91b01d	0.07113669
34	0x3ea9d411	0.33169606
35	0x3f569096	0.8381437
36	0xbf2065fa	-0.62655604
37	0x3d07d7c3	0.03316475
38	0xbe8bbe3b	-0.27293572
39	0xbdc0f0d0	-0.09420931
40	0x3f1da517	0.6158003
41	0xbee8a44e	-0.45437855
42	0xbe663409	-0.22480787
43	0xbf103913	-0.5633709
44	0x3e8cf0df	0.2752752
45	0xbe40e75e	-0.1883826
46	0x3e671606	0.22566995
47	0x3f6c0fa2	0.92211354
48	0x3eff4a5e	0.49861425
49	0xbe4752f8	-0.19465244
50	0xbff58413	-1.9180931
51	0xbecc0470	-0.39847136
52	0x3f1ff9c7	0.62490505
53	0xbff1f5ae	-1.89031
54	0xbf1481b7	-0.5801043
55	0x3e637671	0.2221315
56	0x3f42630b	0.7593238
57	0x3f7e5490	0.9934778
58	0x3e8dbca6	0.2768299
59	0x402a0429	2.656504
60	0x3f26d2f5	0.65165645
61	0x3e8e0305	0.2773668
62	0xbe9707a1	-0.29498008
63	0x3f6ad554	0.9173176
64	0x3ec67dd1	0.38767865
65	0xbf566e51	-0.8376208
66	0x3e6853f7	0.2268828
67	0xbf92cf18	-1.146945
68	0xbe077b88	-0.13230717
69	0xbeaa3146	-0.33240718
70	0xbdc6d99b	-0.09709474
71	0xbfd429f3	-1.6575302
72	0x3e1fec88	0.15617573
73	0xbe1932c4	-0.14960772
74	0xbeac9e25	-0.33714405
75	0xbe0c5294	-0.13703376
76	0x3ef05a20	0.4694376
77	0xbff3d805	-1.9050299
78	0xbf0b3124	-0.5437186
79	0x3ea9922a	0.33119327
80	0x3f82abf0	1.0208721
81	0x3f0797a0	0.52965736
82	0x3e9e0e48	0.3087027
83	0x400264b8	2.0373974
84	0x3eba7a30	0.36421347
85	0xbe5bfb11	-0.21482493
86	0xbe83434c	-0.2563728
87	0x3e77849a	0.24171677
88	0x3eebbafd	0.46041098
89	0xbf215c3d	-0.6303137
90	0x3eb3f6d0	0.3514924
91	0x3e78c536	0.2429398
92	0xbe871956	-0.26386517
93	0xbe9e85e7	-0.30961534
94	0xbe230b8a	-0.1592237
95	0xbf35b9bb	-0.7098653
96	0xbf2e72d6	-0.68143976
97	0x3f00296e	0.50063217
98	0x3e4cf2a9	0.20014443
99	0x3ee9bcf9	0.45651987
100	0xbe5a1b9c	-0.21299595
101	0x3f9b279c	1.2121463
102	0x3f3e3de1	0.7431317
103	0x3e66f1c6	0.22553167
104	0xbf8642d5	-1.0489146
105	0x3f223657	0.63364166
106	0xbe7abcfa	-0.24486151
107	0xbf909768	-1.1296206
108	0xbe7b8f46	-0.24566373
109	0x3f556d18	0.8336959
110	0x3e399fd1	0.18127371
111	0xbf83a2f3	-1.0284103
112	0xbedf5f48	-0.4362738
113	0x3ed429cb	0.41438136
114	0xbe01ba81	-0.12668802
115	0xbd1a998e	-0.037744097
116	0x3e08d10c	0.13360995
117	0xbe924e0b	-0.28575167
118	0x3dc18982	0.09450056
119	0x3f86a7d0	1.0519962
120	0x3f0550c5	0.5207637
121	0xbf0a88f8	-0.5411525
122	0xbfbfbba0	-1.4979134
123	0xbf7aa95e	-0.97914684
124	0xbeb87cdd	-0.36032763
125	0xbfebea98	-1.8430967
126	0xbe4d1856	-0.20028815
127	0x3eeba64e	0.46025318
128	0x3f62fe6f	0.88669485
129	0xbf97d9d7	-1.1863354
130	0x3e945c56	0.28976697
131	0x3f5b31b0	0.8562269
132	0x3e86beda	0.26317483
133	0xbed37da5	-0.41306797
134	0xbde76452	-0.112984315
135	0x3f52baee	0.8231648
136	0x3ea6059b	0.32426152
137	0x3e543ae8	0.20725596
138	0xbe6c297d	-0.23062702
139	0xbe8d7f0c	-0.27635992
140	0x3e551521	0.20808841
141	0xbf69374c	-0.911
142	0x3e2d8c57	0.16948067
143	0xbef3b8eb	-0.4760202
144	0xbf038c0e	-0.5138558
145	0x3dda5ea2	0.10662581
146	0x3faf0163	1.3672298
147	0x3edad845	0.42743126
148	0x3f0aa8ed	0.5416401
149	0x3f908824	1.1291547
150	0x3ddbc843	0.10731556
151	0xbe303faa	-0.17211786
152	0xbf796752	-0.9742328
153	0x3f9dbe72	1.2323744
154	0xbe9c7316	-0.30556554
155	0xbf850e1a	-1.0394928
156	0xbecc8f1a	-0.39952928
157	0x3f1d0bb9	0.6134601
158	0x3e4ffafe	0.2031059
159	0xbfba395b	-1.4548753
160	0xbeefbeab	-0.46825156
161	0xbe382339	-0.17982186
162	0xbe36adfe	-0.1783981
163	0x3f00d37a	0.5032269
164	0x3df34a52	0.1187941
165	0xbf2fc041	-0.6865273
166	0x3df8ea88	0.12154108
167	0x3f5a31c6	0.852322
168	0x3ecef080	0.40417862
169	0xbed038fa	-0.4066847
170	0xbf296266	-0.6616577
171	0xbfa3f2dc	-1.280849
172	0x3e191b07	0.14951716
173	0xbf890858	-1.0705671
174	0xbf94fc84	-1.1639562
175	0xbe0dd9b0	-0.13852572
176	0x3f80cceb	1.0062536
177	0x400f6282	2.2403874
178	0x3e597ddc	0.21239418
179	0x4033a961	2.807213
180	0xbeaa2d80	-0.3323784
181	0x3e933ee1	0.2875891
182	0xbe6d14e1	-0.23152496
183	0xbf239e12	-0.6391307
184	0x3eb41b95	0.35177293
185	0xbe080013	-0.13281278
186	0x3e5617ee	0.20907566
187	0x3f1fdadc	0.6244333
188	0xbe396d2b	-0.1810805
189	0x3f445bc7	0.7670254
190	0xbdcdec4b	-0.10054835
191	0x3f521c3b	0.82074326
192	0x3ee3fdc3	0.44529542
193	0xbe9c2186	-0.30494326
194	0x3ebe5eaa	0.37181598
195	0xbf589e36	-0.8461641
196	0x3c3d2a77	0.011545769
197	0xbfb43228	-1.4077806
198	0xbecbbbbd	-0.3979167
199	0x3e1942fd	0.1496696
200	0x3f2f8ee5	0.68577415
201	0xbf36498d	-0.7120598
202	0x3ea3b936	0.31977242
203	0x3ffa2ab6	1.9544284
204	0xbed0dfd0	-0.40795755
205	0x3e973609	0.29533413
206	0xbe8db438	-0.27676558
207	0xbf6516ae	-0.8948773
208	0x3ebef354	0.3729502
209	0xbec52368	-0.38503575
210	0xbe88f0e3	-0.26746282
211	0x3f5de78c	0.8668144
212	0x3e013fdf	0.12622021
213	0xbf2c4427	-0.6729149
214	0x3dfe1b88	0.12407595
215	0xbf9b2def	-1.2123393
216	0x3f0d960f	0.55307096
217	0xbdddedbb	-0.10836359
218	0x3f3603da	0.71099627
219	0xbf2e0dee	-0.67990005
220	0x3de855fc	0.11344525
221	0xbf9fdb83	-1.2488865
222	0xbf8cf16e	-1.1011178
223	0x3e1552c3	0.14582352
224	0x3f421614	0.7581494
225	0xbd0379ad	-0.03209846
226	0x3e8f01f3	0.27931175
227	0x402a7c4c	2.6638365
228	0x3f03c4e5	0.5147231
229	0xbec7e284	-0.39040005
230	0xbe984119	-0.29737166
231	0x3fc26872	1.5188124
232	0x3eb2c35f	0.3491468
233	0xbf8d32fb	-1.1031183
234	0x3d9421b4	0.07232991
235	0xbf84e95c	-1.0383716
236	0xbe2f6829	-0.17129578
237	0x3ecc5b1f	0.3991327
238	0xbe15a555	-0.1461385
239	0xbf984a0f	-1.1897601
240	0xbe8b8442	-0.27249342
241	0x3f3c0222	0.73440754
242	0x3d92a534	0.07160416
243	0x3eeac1f3	0.45851097
244	0x3f03f7e9	0.51550156
245	0x3fc4ccc6	1.5374992
246	0xbd069cd6	-0.032864414
247	0x3f3ef8ba	0.74598277
248	0xbfac86be	-1.347862
249	0xbfc78e7a	-1.5590355
250	0xbe618b01	-0.22025682
251	0xbf5e56d9	-0.8685127
252	0xbd4ee507	-0.050511386
253	0xbef73a18	-0.4828651
254	0x3e64465e	0.22292468
255	0x3f796cd2	0.9743167
