models/17_05_2021/stock_self_attn_MSE_hinge_10000_64_24_6_24_5/7500_embedder.pth (torch, 60914 bytes, 43 tensors)

position.pe f4 [1, 24, 24]
0.0 1.0 0.0 1.0 0.0 1.0 0.0 1.0
0.0 1.0 0.0 1.0 0.0 1.0 0.0 1.0
0.0 1.0 0.0 1.0 0.0 1.0 0.0 1.0
0.84147096 0.54030234 0.44767085 0.8941984 0.21378067 0.9768817 0.099833414 0.9950042
0.04639923 0.99892294 0.021542681 0.9997679 0.009999833 0.99995 0.0046415734 0.9999892
0.0021544332 0.9999977 0.0009999998 0.9999995 0.00046415895 0.9999999 0.00021544348 1.0
0.9092974 -0.41614684 0.8006131 0.59918165 0.41767687 0.9085956 0.19866931 0.9800666
0.09269851 0.9956942 0.043075364 0.99907184 0.019998666 0.9998 0.009283047 0.9999569
0.004308856 0.9999907 0.0019999985 0.99999803 0.00092831784 0.9999996 0.00043088695 0.99999994
0.14112 -0.9899925 0.98414314 0.17737612 0.60226107 0.7982992 0.2955202 0.9553365
0.1387981 0.9903207 0.06458805 0.997912 0.0299955 0.99955004 0.01392432 0.9999031
0.006463259 0.99997914 0.0029999954 0.9999955 0.0013924765 0.99999905 0.00064633036 0.9999998
-0.7568025 -0.6536436 0.9594254 -0.28196275 0.75899875 0.6510921 0.38941833 0.921061
0.18459873 0.98281395 0.08607077 0.996289 0.039989334 0.9992001 0.018565293 0.9998276
0.008617632 0.99996287 0.003999989 0.999992 0.0018566349 0.9999983 0.0008617738 0.99999964
-0.9589243 0.2836622 0.73169005 -0.68163747 0.88064283 0.47378072 0.47942552 0.87758255
0.23000173 0.97319025 0.10751353 0.9942036 0.049979165 0.99875027 0.023205869 0.9997307
0.010771966 0.999942 0.004999979 0.9999875 0.0023207928 0.9999973 0.0010772172 0.9999994
-0.2794155 0.96017027 0.349127 -0.93707544 0.961569 0.27456328 0.5646424 0.8253356
0.2749093 0.9614702 0.12890638 0.9916568 0.059964005 0.99820054 0.02784594 0.9996122
0.012926248 0.99991643 0.0059999637 0.999982 0.0027849504 0.9999961 0.0012926605 0.99999917
0.6569866 0.75390226 -0.10731243 -0.9942253 0.9980355 0.06265094 0.6442176 0.7648422
0.31922466 0.94767904 0.15023942 0.98864967 0.06994285 0.997551 0.032485418 0.9994722
0.0150804715 0.9998863 0.006999942 0.9999755 0.003249107 0.99999475 0.0015081038 0.99999887
0.98935825 -0.14550003 -0.5410444 -0.840994 0.9883562 -0.15215816 0.717356 0.6967067
0.36285242 0.9318466 0.17150272 0.98518366 0.07991469 0.9968017 0.03712419 0.9993107
0.017234625 0.99985147 0.007999914 0.999968 0.0037132632 0.9999931 0.001723547 0.9999985
0.4121185 -0.91113025 -0.86028963 -0.5098056 0.9329786 -0.35993198 0.78332686 0.62161
0.4056986 0.91400695 0.19268642 0.98126036 0.089878544 0.9959527 0.041762162 0.99912757
0.019388698 0.999812 0.008999879 0.9999595 0.0041774185 0.9999913 0.0019389901 0.99999815
-0.5440211 -0.8390715 -0.99749476 -0.070740685 0.8344632 -0.55106366 0.84147096 0.54030234
0.44767088 0.8941984 0.21378069 0.9768817 0.099833414 0.9950042 0.04639924 0.99892294
00000000: 0000 0000 0000 803f 0000 0000 0000 803f
00000010: 0000 0000 0000 803f 0000 0000 0000 803f
00000020: 0000 0000 0000 803f 0000 0000 0000 803f
00000030: 0000 0000 0000 803f 0000 0000 0000 803f
00000040: 0000 0000 0000 803f 0000 0000 0000 803f
00000050: 0000 0000 0000 803f 0000 0000 0000 803f
00000060: a46a 573f 4151 0a3f 1d35 e53e 30ea 643f
00000070: 52e9 5a3e eb14 7a3f 7675 cc3d 98b8 7e3f
00000080: 1e0d 3e3d 6ab9 7f3f 477a b03c caf0 7f3f
00000090: 57d6 233c b9fc 7f3f 5718 983b 4bff 7f3f
000000a0: 6431 0d3b d9ff 7f3f 6d12 833a f8ff 7f3f
000000b0: 5c5a f339 feff 7f3f abe8 6139 0000 803f
000000c0: b7c7 683f 3311 d5be fbf4 4c3f f863 193f
000000d0: bed9 d53e b999 683f f86f 4b3e a5e5 7a3f
000000e0: b7d8 bd3d d1e5 7e3f cb6f 303d 2cc3 7f3f
000000f0: 3ed4 a33c e5f2 7f3f ec17 183c 2dfd 7f3f
00000100: 4e31 8d3b 64ff 7f3f 6812 033b dfff 7f3f
00000110: 5b5a 733a f9ff 7f3f abe8 e139 ffff 7f3f
00000120: c381 103e 2670 7dbf cef0 7b3f 16a2 353e
00000130: c82d 1a3f 565d 4c3f 6c4e 973e ef90 743f
00000140: 1721 0e3e a885 7d3f bd46 843d 2977 7f3f
00000150: 1fb9 f53c 83e2 7f3f d522 643c a6f9 7f3f
00000160: bfc9 d33b a2fe 7f3f 929b 443b b5ff 7f3f
00000170: c283 b63a f0ff 7f3f 7f6e 293a fdff 7f3f
00000180: cfbd 41bf 3055 27bf e79c 753f 6c5d 90be
00000190: be4d 423f f9ad 263f d761 c73e a7ca 6b3f
000001a0: 7307 3d3e b299 7b3f df45 b03d cc0c 7f3f
000001b0: dbcb 233d 94cb 7f3f 3e16 983c b4f4 7f3f
000001c0: f830 0d3c 91fd 7f3f 5712 833b 7aff 7f3f
000001d0: 545a f33a e3ff 7f3f a9e8 613a faff 7f3f
000001e0: 107c 75bf 2c3c 913e 0a50 3b3f cb7f 2ebf
000001f0: cf71 613f 6393 f23e 4377 f53e 40a9 603f
00000200: 9385 6b3e ff22 793f 0e30 dc3d 2184 7e3f
00000210: f4b6 4c3d 19ae 7f3f 3c1a be3c 5aee 7f3f
00000220: e67c 303c 33fc 7f3f ddd6 a33b 2eff 7f3f
00000230: 7118 183b d3ff 7f3f 6931 8d3a f6ff 7f3f
00000240: 8c0f 8fbe b8cd 753f c6c0 b23e 2de4 6fbf
00000250: 6329 763f 8f93 8c3e 688c 103f 3249 533f
00000260: e9c0 8c3e e922 763f 0900 043e 38dd 7d3f
00000270: d19c 753d 128a 7f3f 2b1d e43c 96e6 7f3f
00000280: 9dc8 533c 86fa 7f3f 589b c43b d2fe 7f3f
00000290: b783 363b bfff 7f3f 7d6e a93a f2ff 7f3f
000002a0: 4630 283f bdff 403f 9fc6 dbbd 8d85 7ebf
000002b0: 417f 7f3f 234f 803d 72eb 243f b3cc 433f
000002c0: 6a71 a33e 189b 723f 5dd8 193e 2518 7d3f
000002d0: 323e 8f3d 815f 7f3f 6e0f 053d 69dd 7f3f
000002e0: 1514 773c 8cf8 7f3f c55f e53b 65fe 7f3f
000002f0: f8ee 543b a8ff 7f3f 91ab c53a edff 7f3f
00000300: 9546 7d3f f6fd 14be e381 0abf 624b 57bf
00000310: e904 7d3f 59cf 1bbe a5a4 373f 5f5b 323f
00000320: cbc7 b93e 808d 6e3f 699e 2f3e ff34 7c3f
00000330: 50aa a33d 652e 7f3f 890f 183d d3d2 7f3f
00000340: a12f 8d3c 44f6 7f3f 1212 033c e7fd 7f3f
00000350: 385a 733b 8cff 7f3f a4e8 e13a e7ff 7f3f
00000360: 3201 d33e d53f 69bf f13b 5cbf 9f82 02bf
00000370: afd7 6e3f 0149 b8be 1c88 483f d521 1f3f
00000380: bab7 cf3e 5cfc 693f 974f 453e e133 7b3f
00000390: 3e12 b83d c2f6 7e3f cd0e 2b3d d3c6 7f3f
000003a0: 0cd5 9e3c aef3 7f3f 3a74 133c 59fd 7f3f
000003b0: bae2 883b 6eff 7f3f b625 fe3a e1ff 7f3f
000003c0: f844 0bbf 64cd 56bf d15b 7fbf 7ee0 90bd
000003d0: 619f 553f 8212 0dbf a46a 573f 4151 0a3f
000003e0: 1e35 e53e 30ea 643f 53e9 5a3e eb14 7a3f
000003f0: 7675 cc3d 98b8 7e3f 210d 3e3d 6ab9 7f3f

r_cell.w_qs.weight f4 [24, 24]
0.237045 0.044827547 -0.26316082 -0.021698305 0.14808342 -0.56063 0.9947354 -0.20947821
-0.11951856 0.5304599 0.12305178 0.40540737 0.25036857 0.5857575 0.5933368 -0.4844653
0.14156294 0.22680005 -0.158423 0.29732862 -0.16022626 0.05227061 -0.17158502 0.09842055
0.26514745 0.14094515 -0.7483899 0.3060543 -0.19707187 -0.77151614 -0.7703493 -0.048968732
0.75337154 0.36042985 0.05703335 -0.1372218 -0.56587034 -0.12978067 0.41142094 0.15712662
-0.53023666 0.13446034 -0.5667451 0.26440486 0.10041407 0.3422487 0.06397575 0.35648358
0.122962 -0.20851794 0.23757787 -0.041172974 -0.047458928 -0.023830745 0.8384215 0.21074831
0.4228461 -0.3072059 -0.6105447 0.3112294 -0.44648126 0.18132551 0.0091590285 -0.57269365
0.43686494 -0.5701259 0.09573495 0.114704624 -0.6200154 -0.2770191 -0.3376888 -0.020988783
-0.20005745 0.6445252 -0.3254062 -0.15624873 -0.2433044 -0.59476936 -0.3578835 0.0038918913
0.22985382 -0.77286017 0.15933163 -0.06885192 0.0071667125 -0.2235346 -0.20472112 -0.1275973
-0.11614171 -0.27352118 -0.25673723 -0.28523958 -0.23844466 -0.25304577 0.30860242 0.10730722
-0.094691865 0.3442441 0.214982 -0.8776889 0.09820306 0.54040015 0.4926818 0.34647134
-0.035661135 0.41327924 -0.121399716 -0.3036772 -0.23996653 0.14019445 1.057763 -0.038053952
-0.3015926 0.33576864 0.3842307 0.01131109 0.2769339 0.20128624 -0.39541894 -0.10540828
0.69029343 -0.62228703 0.5731198 -0.3942265 -0.4094867 -0.48347723 0.17289595 0.29618853
0.09459093 -0.6306005 -0.7987285 -0.010076447 -0.18817881 0.43436852 -0.6288223 0.6555568
0.4626638 -0.3988456 -1.1474707 0.85727656 -0.41683227 -0.15578038 0.12975857 -0.54165775
0.2074964 -0.1563403 -0.061772954 0.119494066 -0.33207375 -0.26083806 -0.55178404 -0.79065925
0.55856204 0.72597617 0.3538602 0.42905787 -0.6633605 0.40981779 -0.1515625 -0.25772047
0.3921004 -0.25251234 0.27485225 -0.055346005 0.68172103 0.78214294 0.10158164 -0.17106989
-0.19822279 -0.13910536 -0.0923492 -0.9575919 0.100572415 -0.4081194 -0.080975264 0.4660742
-0.48861346 -0.20557955 0.08916003 0.2876155 -0.14373022 -0.66607696 0.48790428 0.26719826
0.550994 -0.039278325 0.49943054 0.2864769 -0.2741038 0.10979378 0.6189723 -0.17293581
-0.04303224 0.4360838 -0.0519826 0.51957935 0.032772988 0.62872356 -0.021125862 -0.49855658
0.2792148 -0.37513807 0.32493246 0.05731776 -0.065357976 0.064121045 0.27678326 -0.025645927
-0.1651286 -0.0017343467 -0.7218592 0.025183594 -0.11695949 0.106228836 0.33186316 -0.13730448
-0.10151838 -0.37415025 0.39389357 -0.17557281 0.560989 0.29079965 -0.519964 -0.045070056
0.202588 0.21983588 -0.1663266 0.28520173 -0.07824589 -0.14859591 -0.23887202 0.051875003
-1.0056618 -0.076250315 -0.09111651 0.27440012 0.7451008 -0.20617662 -0.28114223 -0.08931861
-0.19602829 0.3685619 -0.32931012 0.19751996 -0.14993608 -0.022059558 -0.6611004 0.015935982
0.29298365 0.38679284 -0.19936693 0.035155848 -0.15084401 -0.31696334 0.008499427 -0.2407697
00000000: edbb 723e 179d 373d 04bd 86be a5c0 b1bc
00000010: 2ea3 173e 7385 0fbf fba6 7e3f 7581 56be
00000020: 26c6 f4bd 38cc 073f 9202 fc3d 8e91 cf3e
00000030: 4f30 803e 34f4 153f ece4 173f d60b f8be
00000040: e0f5 103e 463e 683e a439 22be 753b 983e
00000050: 5a12 24be b519 563d fcb3 2fbe b790 c93d
00000060: 68c1 873e ed53 103e 7b96 3fbf 26b3 9c3e
00000070: 35cd 49be 1582 45bf 9d35 45bf 7093 48bd
00000080: f5dc 403f 438a b83e cd9b 693d df83 0cbe
00000090: e1dc 10bf 39e5 04be c4a5 d23e cde5 203e
000000a0: 97bd 07bf f9af 093e 3516 11bf 1360 873e
000000b0: e4a5 cd3d 393b af3e b805 833d 0485 b63e
000000c0: 80d3 fb3d ba85 55be 9d47 733e fea4 28bd
000000d0: 4b64 42bd b238 c3bc cba2 563f 68ce 573e
000000e0: 497f d83e 174a 9dbe a84c 1cbf 7659 9f3e
000000f0: 3199 e4be 65ad 393e c00f 163c 0d9c 12bf
00000100: c3ac df3e c5f3 11bf af10 c43d 42ea ea3d
00000110: 54b9 1ebf 73d5 8dbe 8ce5 acbe abf0 abbc
00000120: dcdb 4cbe 9aff 243f a49b a6be abff 1fbe
00000130: ca24 79be ce42 18bf 823c b7be 1a0f 7f3b
00000140: cd5e 6b3e 2ada 45bf d527 233e 3c02 8dbd
00000150: bed6 ea3b 41e6 64be 6aa2 51be dea8 02be
00000160: b4db edbd f80a 8cbe 1073 83be ec0a 92be
00000170: d62a 74be 378f 81be 2301 9e3e e3c3 db3d
00000180: cfed c1bd c340 b03e 3e24 5c3e 38b0 60bf
00000190: b01e c93d aa57 0a3f ca40 fc3e b164 b13e
000001a0: 6911 12bd 5699 d33e 6aa0 f8bd 947b 9bbe
000001b0: c9b9 75be 228f 0f3e c764 873f 76de 1bbd
000001c0: 586a 9abe dee9 ab3e e3b9 c43e 2652 393c
000001d0: 48ca 8d3e fb1d 4e3e 5a74 cabe 4ce0 d7bd
000001e0: 12b7 303f 344e 1fbf fbb7 123f 0ed8 c9be
000001f0: 3ea8 d1be 548a f7be a30b 313e 06a6 973e
00000200: e4b8 c13d 096f 21bf 7979 4cbf af17 25bc
00000210: f2b1 40be 8d65 de3e 80fa 20bf 92d2 273f
00000220: 45e2 ec3e 7e35 ccbe 52e0 92bf 7a76 5b3f
00000230: 0a6b d5be e484 1fbe 6edf 043e 15aa 0abf
00000240: f079 543e ac17 20be a305 7dbd 4eb9 f43d
00000250: 9205 aabe 918c 85be b841 0dbf a568 4abf
00000260: ecfd 0e3f 93d9 393f 2a2d b53e 79ad db3e
00000270: fed1 29bf a3d3 d13e 3333 1bbe f0f3 83be
00000280: 62c1 c83e 4c49 81be 6fb9 8c3e 7eb2 62bd
00000290: 4585 2e3f 853a 483f 090a d03d f22c 2fbe
000002a0: eafa 4abe a371 0ebe 9421 bdbd be24 75bf
000002b0: e9f8 cd3d 07f5 d0be 5cd6 a5bd 47a1 ee3e
000002c0: 8b2b fabe 7283 52be 8999 b63d 5742 933e
000002d0: 042e 13be 0584 2abf 97ce f93e 36ce 883e
000002e0: f10d 0d3f 4fe2 20bd 5cb5 ff3e 1aad 923e
000002f0: 5557 8cbe 90db e03d f874 1e3f 1616 31be
00000300: 9342 30bd 6046 df3e b5eb 54bd 2703 053f
00000310: f83c 063d 07f4 203f 2510 adbc cf42 ffbe
00000320: 3ef5 8e3e 1912 c0be 8c5d a63e 07c6 6a3d
00000330: 67da 85bd e551 833d 89b6 8d3e 6817 d2bc
00000340: 7917 29be 0553 e3ba c4cb 38bf d34d ce3c
00000350: 7588 efbd 818e d93d f8e9 a93e 8c99 0cbe
00000360: dee8 cfbd 9f90 bfbe 6bac c93e 5cc9 33be
00000370: fa9c 0f3f b1e3 943e 5c1c 05bf 619b 38bd
00000380: 3b73 4f3e a81c 613e 8551 2abe f605 923e
00000390: 623f a0bd 8729 18be de9a 74be e27a 543d
000003a0: 87b9 80bf 2029 9cbd 4b9b babd 2c7e 8c3e
000003b0: edbe 3e3f f71f 53be e0f1 8fbe adec b6bd
000003c0: a4bb 48be 25b4 bc3e 569b a8be ac42 4a3e
000003d0: d888 19be 3fb6 b4bc e03d 29bf 2d8c 823c
000003e0: f401 963e b609 c63e d826 4cbe 94ff 0f3d
000003f0: da76 1abe 0549 a2be 2e41 0b3c 558c 76be

r_cell.w_qs.bias f4 [24]
0.08525681 -0.008948355 -0.3603828 -0.19229954 0.25118536 -0.34494424 -0.45110625 -0.10976154
-0.026085965 -0.06769811 -0.036567625 -0.24935955 0.08703746 0.17979713 -0.2391496 -0.10995799
0.06898453 0.0141783375 -0.12316061 -0.37532067 0.10989321 0.33448398 -0.17726025 0.631403
00000000: 1f9b ae3d 1f9c 12bc 1884 b8be 2cea 44be
00000010: 5e9b 803e 889c b0be 66f7 e6be a9ca e0bd
00000020: 3cb2 d5bc 4fa5 8abd efc7 15bd 1c58 7fbe
00000030: b240 b23d bd1c 383e a2e3 74be a831 e1bd
00000040: c347 8d3d 424c 683c a13b fcbd 082a c0be
00000050: b10f e13d 7c41 ab3e b683 35be a1a3 213f

r_cell.w_ks.weight f4 [24, 24]
0.16947769 0.33976665 0.27529836 0.8250348 0.50485915 -0.20166363 -0.179497 0.27006346
-0.71737707 0.5812994 0.3730004 -0.02115961 -0.70338976 0.2967554 -0.42233196 -0.19816501
0.1379503 -0.013753012 -0.47186586 -0.3551801 7.994294e-05 0.14901881 -0.76883394 0.07647093
-0.22713883 -0.19313657 -0.37387934 0.25513947 0.123145506 -0.42841992 -0.9135506 0.44273967
-0.042370666 0.2572823 -0.43684727 0.1402424 -0.53948265 -0.2058013 0.07242781 -0.3546551
-0.6731437 -0.42060784 0.20283851 0.11198031 0.22588226 0.19120495 -0.010205499 0.22932056
0.08123526 0.3120821 -0.082016274 0.66283077 0.05963643 0.15517414 0.118207134 -0.11587248
0.18525699 -0.19869949 0.25438154 -0.5256924 0.27790624 0.7629225 0.66610223 0.033179488
-0.05959354 0.41189238 0.30776352 0.04049793 -0.00023809212 0.051725995 0.77587134 0.35631168
-0.49437907 0.22245674 0.17064857 0.2808233 0.47545028 -0.048998628 0.6172577 0.10475413
0.825221 -0.26797342 -0.13105169 0.2881552 0.010717343 -0.7664114 0.1370701 -0.022768123
-0.6716848 -0.2973959 -0.28122923 -0.14216925 -0.58066136 -0.38712198 0.5565416 0.28890145
0.30540842 0.013378251 -0.30705187 -0.36758956 -0.58574754 0.4185262 -0.3246755 0.50067544
-0.6607294 0.059337243 -0.27394226 -0.5409452 -0.40023598 -0.123161346 0.27101174 0.28699932
-0.92307055 0.061846178 0.33886144 -0.017238514 0.21614103 0.42861325 -0.085400306 -0.44560632
-0.15536615 0.25146472 0.049353816 0.27772224 -0.10796942 -0.029227514 0.37583944 0.19875081
0.396867 0.07642873 0.71520376 0.05550803 0.71603215 0.17242691 1.1973193 -0.62157476
-0.1240242 -0.19622721 -0.9079351 0.71214265 0.09113263 -0.02973994 0.6471103 0.04735928
-0.57524514 -0.36212915 -0.123174675 0.12777878 0.5122316 -0.68006045 -0.065045744 -0.8559811
0.010395973 0.45994502 -0.11780103 1.0784844 0.45508608 1.0763618 -0.21837172 -0.28146103
0.062918514 -0.040147845 -0.25857487 -0.2087218 -0.4376144 -0.4911968 -0.465573 0.49713376
-0.0017317536 -0.08876673 -0.71184206 -0.22025445 0.075219706 0.5211781 -0.3816905 1.0019592
0.091898695 0.13470067 -0.08441081 0.5571199 0.14818162 0.16645554 0.2722802 0.3892704
0.07069913 0.4253664 -0.34687588 0.2364583 0.038077805 -0.13784641 -0.10543159 -0.6646357
-0.1947749 0.26158094 0.6528645 -0.0064434335 0.071432844 -0.31848386 0.39401835 -0.5989865
0.5293215 -0.23262359 -0.17714447 -0.5930134 -0.37342545 0.02780554 -0.112107 -0.31306273
-0.41974574 -0.48532295 -0.6874291 -0.049152445 0.30302525 -0.17830278 -0.28078333 0.67601955
0.20232534 -0.12583758 -0.11520295 -0.050444707 0.6385673 0.115289286 -0.31199515 0.24576429
-0.47492716 0.5167116 -0.015791588 -0.31684497 0.3336735 -0.5947299 0.7664384 0.31561536
-0.62110305 0.110006265 0.19408436 -0.36968577 -0.07590951 -0.404039 -0.4060526 0.36068264
0.069498494 0.76837564 0.39291272 -0.31595716 -0.35055333 -0.5707884 -0.6694853 -0.08918665
0.28799957 0.04664734 -0.17770566 0.13673078 0.4866102 -0.29154173 0.18424506 0.41336352
00000000: 8f8b 2d3e e5f5 ad3e e8f3 8c3e 7b35 533f
00000010: 733e 013f e980 4ebe 10ce 37be c245 8a3e
00000020: 06a6 37bf 0ad0 143f e9f9 be3e eb56 adbc
00000030: 5a11 34bf 53f0 973e e53b d8be c5eb 4abe
00000040: d842 0d3e 5054 61bc 6798 f1be 2bda b5be
00000050: 0aa7 a738 6398 183e 4dd2 44bf ca9c 9c3d
00000060: 1597 68be 98c5 45be 1d6d bfbe a4a1 823e
00000070: b633 fc3d db59 dbbe 74de 69bf c6ae e23e
00000080: dd8c 2dbd 81ba 833e 72aa dfbe b49b 0f3e
00000090: 891b 0abf 93bd 52be 0855 943d 5a95 b5be
000000a0: 2553 2cbf e959 d7be e6b4 4f3e ef55 e53d
000000b0: ae4d 673e 3bcb 433e f734 27bc 02d3 6a3e
000000c0: ac5e a63d 3ac9 9f3e 26f8 a7bd 47af 293f
000000d0: 5445 743d f8e5 1e3e 9516 f23d 8d4e edbd
000000e0: 02b4 3d3e e177 4bbe 4c3e 823e c793 06bf
000000f0: ba49 8e3e e44e 433f ad85 2a3f 37e7 073d
00000100: 5b18 74bd 8fe3 d23e 2e93 9d3e 28e1 253d
00000110: 5ea8 79b9 a3de 533d 819f 463f 7c6e b63e
00000120: 411f fdbe b3cb 633e 80be 2e3e 12c8 8f3e
00000130: 386e f33e c9b2 48bd 9a04 1e3f 5589 d63d
00000140: af41 533f d033 89be 6a32 06be 1489 933e
00000150: cb97 2f3c 8a33 44bf 1b5c 0c3e 3784 babc
00000160: 89f3 2bbf 4744 98be 47fd 8fbe d194 11be
00000170: 39a6 14bf da34 c6be 8379 0e3f e4ea 933e
00000180: 7e5e 9c3e 7430 5b3c e735 9dbe b334 bcbe
00000190: 8df3 15bf 1149 d63e de3b a6be 442c 003f
000001a0: 9025 29bf 9c0b 733d 2942 8cbe 627b 0abf
000001b0: bbeb ccbe 043c fcbd 0dc2 8a3e 93f1 923e
000001c0: 5a4e 6cbf 6b52 7d3d 3f7f ad3e c937 8dbc
000001d0: 1354 5d3e 3273 db3e 5be6 aebd 8326 e4be
000001e0: 4e18 1fbe fcbf 803e 3a27 4a3d 9c31 8e3e
000001f0: 121f ddbd 8a6e efbc 076e c03e 5585 4b3e
00000200: 2732 cb3e aa86 9c3d 9817 373f 635c 633d
00000210: e24d 373f ae90 303e c241 993f 861f 1fbf
00000220: 6600 febd c9ef 48be 6f6e 68bf fb4e 363f
00000230: bfa3 ba3d 2da1 f3bc 05a9 253f cefb 413d
00000240: 4443 13bf fe68 b9be 0143 fcbd 71d8 023e
00000250: 9c21 033f 7118 2ebf b436 85bd 9421 5bbf
00000260: df53 2a3c ea7d eb3e ab41 f1bd c70b 8a3f
00000270: 0b01 e93e 39c6 893f d69c 5fbe a91b 90be
00000280: 6cdb 803d 1172 24bd ed63 84be 2bbb 55be
00000290: ff0e e0be 267e fbbe 965f eebe 5188 fe3e
000002a0: 02fc e2ba 55cb b5bd 483b 36bf 628a 61be
000002b0: ca0c 9a3d ee6b 053f f06c c3be 3340 803f
000002c0: 6235 bc3d f9ee 093e 93df acbd 699f 0e3f
000002d0: ecbc 173e 5273 2a3e 4f68 8b3e 734e c73e
000002e0: b5ca 903d a0c9 d93e b799 b1be 2022 723e
000002f0: 79f7 1b3d 9c27 0dbe 84ec d7bd 9125 2abf
00000300: 1273 47be f0ed 853e 2122 273f 7023 d3bb
00000310: 624b 923d 5110 a3be c6bc c93e 2e57 19bf
00000320: 9d81 073f e134 6ebe 5c65 35be bacf 17bf
00000330: 9f31 bfbe 72c8 e33c 5b98 e5bd c249 a0be
00000340: eae8 d6be 407c f8be 5afb 2fbf 1354 49bd
00000350: 2026 9b3e 0195 36be d5c2 8fbe 9e0f 2d3f
00000360: 602e 4f3e 91db 00be 86ef ebbd 1c9f 4ebd
00000370: 2679 233f ca1c ec3d d4bd 9fbe a2a9 7b3e
00000380: a729 f3be 3647 043f 5c5d 81bc 8139 a2be
00000390: 41d7 aa3e 3840 18bf 4f35 443f 5698 a13e
000003a0: 9c00 1fbf f74a e13d 0dbe 463e 7447 bdbe
000003b0: 7276 9bbd 33de cebe 20e6 cfbe 65ab b83e
000003c0: 3a55 8e3d 44b4 443f db2b c93e 23c5 a1be
000003d0: ba7b b3be 301f 12bf 6363 2bbf 7ea7 b6bd
000003e0: ae74 933e 4811 3f3d 79f8 35be 2703 0c3e
000003f0: f924 f93e f544 95be bdaa 3c3e 62a4 d33e

r_cell.w_ks.bias f4 [24]
-0.26549166 -0.25791514 -0.16683543 0.04558835 0.2138222 0.11645079 0.06816905 -0.10256001
-0.115181096 0.030557185 0.23728281 0.1565479 0.049616255 -0.08638984 0.052785892 0.044219177
-0.07264677 -0.018292626 0.12874798 -0.16702154 -0.055843506 -0.053678375 -0.09332663 -0.20248565
00000000: 86ee 87be 740d 84be e8d6 2abe daba 3a3d
00000010: 35f4 5a3e c07d ee3d 379c 8b3d fc0a d2bd
00000020: 11e4 ebbd 1053 fa3c 44fa 723e 184e 203e
00000030: 6a3a 4b3d 28ed b0bd 0536 583d 2b1f 353d
00000040: d4c7 94bd 6bda 95bc 83d6 033e b207 2bbe
00000050: 29bc 64bd dbdd 5bbd 0822 bfbd 6658 4fbe

r_cell.w_vs.weight f4 [24, 24]
-0.520763 -0.21940939 0.05671083 0.18459545 -0.05132131 -0.43398267 -0.23216857 0.35197854
0.122975424 0.16835138 0.10748693 -0.17170498 0.18091838 0.30438793 -0.03690139 0.2555797
0.38255736 0.15847948 0.09358015 0.177889 0.28708494 0.2117996 -0.18856141 0.23269309
-0.08908778 0.0016490163 -0.05287013 0.0691614 0.43559465 -0.34841 -0.04346155 0.18548137
0.023708934 0.47854853 -0.21817894 0.07157709 -0.18291134 -0.0053315563 -0.032700375 0.0347593
0.36526352 0.05381692 0.44988626 0.21732363 0.30811673 0.378932 -0.1647985 -0.24388655
-0.20726912 0.0005185939 0.34666964 -0.048042823 -0.02808625 0.041026827 -0.27880254 0.18278904
0.08037886 -0.15763177 0.15713361 -0.070067964 -0.009938446 0.3137145 -0.11599154 0.09243194
-0.11927069 0.1335487 0.28656557 0.11225924 -0.18098526 -0.20737705 0.004962238 -0.1776752
-0.05140725 0.12275718 0.11595981 -0.36858216 0.18625484 -0.42906407 0.052721415 0.023011252
0.0994601 -0.11200009 0.19727747 0.11989573 0.1439834 -0.019181656 0.6915529 -0.22522712
0.086632796 0.14746033 -0.41748014 0.242507 -0.3523507 0.1795169 -0.1089006 -0.21716206
-0.09345556 -0.06609235 0.054884832 -0.025219308 -0.07285145 0.118985854 -0.06954554 0.33014464
0.22320467 0.21393168 0.2686319 -0.13702212 0.15063798 -0.011497178 0.20495035 -0.43530932
0.20875622 -0.066092566 0.51235026 -0.14465916 -0.0017174681 -0.03753229 0.28051755 0.09168069
-0.15707134 -0.11323985 -0.31079563 0.20868456 0.501021 0.12366899 -0.37226325 -0.20673059
0.01610733 0.47845116 -0.08895509 -0.27865562 -0.38842854 -0.07677162 -0.21034978 0.49708578
0.19584863 -0.2981749 0.18530773 0.37441632 0.052004643 0.25617734 0.23400573 0.30642807
-0.2849403 -0.0076706447 -0.059946746 -0.275871 0.093586735 0.20373149 0.008679795 0.34869382
0.2868899 0.063088514 0.4919938 0.24029365 0.5519788 0.30373412 -0.21451126 0.18547554
-0.27475682 0.567639 0.39909384 0.18352357 0.2939165 0.06704438 0.14632674 0.10950046
0.24928254 -0.10139771 -0.28129607 0.14743991 -0.2851124 0.0051085004 0.06975097 -0.43713602
-0.038549267 -0.11450884 0.018781705 -0.07058571 -0.07158534 -0.100894056 0.024429763 -0.25857353
-0.020592 -0.08627079 -0.10896877 -0.45601332 -0.086478144 -0.17105551 0.030882822 0.09807091
0.053291656 -0.084075324 0.3651746 -0.24965957 0.43817267 -0.059469566 0.123570934 -0.19062892
0.056421977 -0.11018639 -0.24408782 0.04569553 0.14646673 -0.10148269 0.17322487 0.14436267
-0.13648812 0.07175581 0.6632528 -0.045660753 0.010197999 0.34978327 0.022219202 -0.06690938
0.16050544 -0.036588304 -0.21663149 0.026221476 0.29327667 0.22890522 0.05369743 0.13475978
-0.017631333 -0.19001664 0.24125512 0.014235608 0.055333495 0.2833117 0.2954548 -0.1467027
0.3528873 -0.1141684 -0.34615326 0.22137025 -0.047245007 -0.28205872 -0.09142867 -0.23088169
0.044628654 -0.010894332 0.08394016 -0.08638513 -0.017149312 -0.1503817 -0.20633096 0.36051768
-0.3294337 -0.06022922 -0.49017322 0.3360945 0.5350794 -0.06777319 0.08891163 -0.029030383
00000000: b950 05bf dbac 60be 9e49 683d 9706 3d3e
00000010: 4b36 52bd fa32 debe 99bd 6dbe 8836 b43e
00000020: 8ada fb3d 4e64 2c3e 1c22 dc3d 6ed3 2fbe
00000030: ab42 393e bcd8 9b3e e925 17bd 58db 823e
00000040: 8fde c33e 7248 223e f3a6 bf3d 8928 363e
00000050: ccfc 923e ffe1 583e 3e16 41be 1947 6e3e
00000060: a773 b6bd ce23 d83a 598e 58bd 7ea4 8d3d
00000070: 4306 df3e cc62 b2be bd04 32bd d4ee 3d3e
00000080: 3d39 c23c 5004 f53e 4d6a 5fbe 0297 923d
00000090: 1c4d 3bbe 56b4 aebb d4f0 05bd c55f 0e3d
000000a0: d203 bb3e 216f 5c3d 7e57 e63e 168a 5e3e
000000b0: 7ac1 9d3e 6003 c23e f0c0 28be 65bd 79be
000000c0: 5b3e 54be 3ff2 073a af7e b13e 8dc8 44bd
000000d0: 2315 e6bc bf0b 283d 35bf 8ebe 0d2d 3b3e
000000e0: ac9d a43d 396a 21be a2e7 203e cb7f 8fbd
000000f0: ddd4 22bc 309f a03e f98c edbd f54c bd3d
00000100: 3144 f4bd fec0 083e b9b8 923e 2ce8 e53d
00000110: 3354 39be a65a 54be 459a a23b 7df0 35be
00000120: 6990 52bd 1e68 fb3d 567c ed3d cdb6 bcbe
00000130: 97b9 3e3e 49ae dbbe 69f2 573d 1882 bc3c
00000140: bdb1 cb3d 4e60 e5bd 1b03 4a3e e48b f53d
00000150: 6270 133e d922 9dbc 9c09 313f f0a1 66be
00000160: 896c b13d d7ff 163e f5bf d5be c153 783e
00000170: 5067 b4be 47d3 373e 4707 dfbd bb5f 5ebe
00000180: a165 bfbd 6d5b 87bd ebce 603d b998 cebc
00000190: 2433 95bd dbae f33d e46d 8ebd b808 a93e
000001a0: c48f 643e e810 5b3e 1f8a 893e 874f 0cbe
000001b0: d840 1a3e a95e 3cbc 81de 513e dde0 debe
000001c0: 31c4 553e 8a5b 87bd 6329 033f 8821 14be
000001d0: ab1c e1ba 75bb 19bd ff9f 8f3e 16c3 bb3d
000001e0: 4fd7 20be 4bea e7bd 9b20 9fbe 68b1 553e
000001f0: ea42 003f 2b46 fd3d 4a99 bebe 2fb1 53be
00000200: 85f3 833c 8df7 f43e 162e b6bd f3ab 8ebe
00000210: 1be0 c6be 703a 9dbd ef65 57be 0782 fe3e
00000220: 8b8c 483e 61aa 98be 4fc1 3d3e 7fb3 bf3e
00000230: d202 553d ad29 833e 339f 6f3e 24e4 9c3e
00000240: b2e3 91be 085a fbbb b88a 75bd f73e 8dbe
00000250: 67aa bf3d fd9e 503e b335 0e3c ff87 b23e
00000260: 3ce3 923e 8d34 813d 9de6 fb3e 8a0f 763e
00000270: 7c4e 0d3f 0a83 9b3e d7a8 5bbe 4ded 3d3e
00000280: edac 8cbe ca50 113f 0756 cc3e 9aed 3b3e
00000290: 397c 963e 904e 893d add6 153e c741 e03d
000002a0: ec43 7f3e 9aa9 cfbd 0a06 90be 7dfa 163e
000002b0: 41fa 91be 3565 a73b 99d9 8e3d 4bd0 dfbe
000002c0: d6e5 1dbd 9c83 eabd 17dc 993c 3e8f 90bd
000002d0: 569b 92bd 8ba1 cebd ed20 c83c c063 84be
000002e0: 8eb0 a8bc bdae b0bd 052b dfbd 947a e9be
000002f0: 741b b1bd 2d29 2fbe f9fd fc3c 67d9 c83d
00000300: 5a48 5a3d af2f acbd 2af8 ba3e c2a6 7fbe
00000310: 2b58 e03e 5c96 73bd c212 fd3d 3a34 43be
00000320: bb1a 673d 67a9 e1bd 28f2 79be 3c2b 3b3d
00000330: 60fb 153e 28d6 cfbd dc61 313e cfd3 133e
00000340: 8bc3 0bbe b6f4 923d efca 293f c506 3bbd
00000350: 8215 273c cb16 b33e 0b05 b63c c907 89bd
00000360: 8a5b 243e 9edd 15bd a5d4 5dbe 6cce d63c
00000370: 5c28 963e 2166 6a3e d6f1 5b3d 78fe 093e
00000380: 966f 90bc b993 42be 950b 773e 783c 693c
00000390: 60a5 623d 3b0e 913e da45 973e 3c39 16be
000003a0: a5ad b43e 1fd1 e9bd 003b b1be e2ae 623e
000003b0: fb83 41bd 006a 90be f43e bbbd 406c 6cbe
000003c0: 89cc 363d 247e 32bc d2e8 ab3d b0ea b0bd
000003d0: b77c 8cbc a9fd 19be 6c48 53be c695 b83e
000003e0: 89ab a8be eab2 76bd fcf7 fabe 9414 ac3e
000003f0: f7fa 083f accc 8abd 4d17 b63d 20d1 edbc

r_cell.w_vs.bias f4 [24]
-0.1091645 0.089148976 -0.2269746 -0.155815 -0.03893309 -0.05425729 -0.020431206 -0.029845472
-0.16784906 0.030121831 -0.050835203 0.13040128 -0.01282702 -0.059600897 0.015795058 -0.070449926
-0.13098462 0.057348654 0.15836215 -0.14140429 0.016596096 -0.046579935 0.07688278 -0.12962511
00000000: a391 dfbd bd93 b63d 086c 68be f88d 1fbe
00000010: 4e78 1fbd e43c 5ebd 585f a7bc 7e7e f4bc
00000020: a0e0 2bbe 0fc2 f63c 9338 50bd ea87 053e
00000030: 6c28 52bc 1220 74bd a364 813c 0d48 90bd
00000040: d520 06be 6ce6 6a3d b029 223e 49cc 10be
00000050: 89f4 873c 9aca 3ebd b874 9d3d 72bc 04be

r_cell.layer_norm.weight f4 [24]
1.1104681 1.0106568 1.0912555 1.007388 0.9732421 1.0290067 1.1179253 1.0296878
1.0859554 0.76953965 1.2143915 0.82171416 1.0126776 1.1784803 1.0617331 1.0616403
1.0260973 0.9153549 1.1370615 0.8607607 0.9862039 0.9954545 1.0794916 0.9714778
00000000: d223 8e3f 345d 813f 43ae 8b3f 17f2 803f
00000010: 6526 793f 7eb6 833f 2d18 8f3f cfcc 833f
00000020: 9600 8b3f 8d00 453f 2e71 9b3f dc5b 523f
00000030: 6b9f 813f 71d8 963f dfe6 873f d4e3 873f
00000040: 2857 833f b354 6a3f 3b8b 913f d05a 5c3f
00000050: dc77 7c3f 1bd6 7e3f c82c 8a3f c5b2 783f

r_cell.layer_norm.bias f4 [24]
-0.031985693 -0.08365687 0.105933614 -0.027651882 0.06666625 -0.15417567 -0.060904916 -0.024919795
-0.00055237714 -0.1002881 -0.07012058 -0.101557635 0.020238446 -0.011960095 -0.0009352663 -0.032413483
0.024019042 -0.08475646 0.024851399 -0.016227188 -0.055252474 -0.10108167 -0.11450896 0.0572769
00000000: 6e03 03bd 4b54 abbd b9f3 d83d 3386 e2bc
00000010: 5188 883d 3ae0 1dbe 6f77 79bd 9924 ccbc
00000020: 67cd 10ba d963 cdbd 619b 8fbd 73fd cfbd
00000030: 19cb a53c 46f4 43bc a92c 75ba 00c4 04bd
00000040: 95c3 c43c cb94 adbd 2995 cb3c e1ee 84bc
00000050: 6b50 62bd e803 cfbd ac83 eabd 2f9b 6a3d

r_cell.fc.weight f4 [24, 24]
0.050190266 0.37396964 0.17554079 0.044774227 0.002040496 0.05524132 -0.101072595 0.15081322
0.08081912 0.16586192 -0.21964248 0.03632818 0.069738165 0.21930161 0.15257753 -0.13059707
-0.14399594 0.15922862 0.014264967 0.27620664 0.12406954 0.000762908 -0.29003072 -0.16615418
-0.10254412 -0.015227286 -0.024894597 0.03247424 0.0014487602 0.33574268 0.089332104 0.023031488
0.3479114 -0.19024137 -0.12043537 -0.024933044 0.10134371 -0.005424759 0.15826449 -0.020281391
-0.300652 -0.10683373 0.040395018 -0.1324825 0.032432415 0.2572768 0.23269172 0.45700908
0.014411142 0.035236802 0.12953211 0.08226652 0.052904595 -0.05389817 0.02657919 0.086308435
0.082344055 -0.04468747 -0.173378 -0.08919949 -0.086887315 0.10523196 -0.11193494 -0.110823855
-0.10636327 -0.2434302 0.06753212 -0.03169644 -0.0807265 -0.10651044 -0.056195617 -0.02417283
-0.14876577 0.10454472 -0.044934317 -0.06951421 -0.077682495 0.21592917 0.3819328 0.11997199
0.16561124 0.1312313 -0.037247337 0.12390118 -0.038719002 0.16246447 -0.18473497 0.07616957
-0.018349769 -0.20127085 -0.049112666 -0.008458976 -0.042406414 0.050591715 -0.27468938 -0.2644638
0.1368634 0.05810151 -0.32643694 -0.065187536 -0.018251406 0.25180274 0.22634296 -0.17530094
-0.15853083 0.06906738 0.06924561 -0.02115474 0.04053315 0.16639136 0.014414476 0.21708997
-0.010880065 0.07716981 -0.043414786 -0.29881585 0.04462283 0.113550514 -0.21648012 0.17682244
-0.06907585 -0.1504313 -0.00018633566 -0.056101996 -0.13389525 -0.24082124 -0.20940186 0.15072875
-0.075897686 -0.06721215 0.19503634 -0.054569643 0.07175263 -0.19280235 0.3654061 -0.4722019
-0.14462449 0.15642492 0.0854601 0.13787171 0.12212635 -0.01091821 0.09381412 0.07309925
0.022512713 0.09279049 -0.069775976 -0.34695613 -0.04856671 -0.18123867 0.01316625 -0.012180156
0.022158274 0.11016355 0.3528023 -0.022736946 -0.049959235 0.05360058 0.05652504 0.057651486
0.04058508 0.24406104 -0.15442185 0.09979202 0.043493193 0.24592607 0.22119851 0.012029628
-0.1217559 0.27075022 0.14657283 0.121964365 -0.10171126 -0.035090823 0.054342043 0.03919041
0.10013621 -0.23768142 0.009236965 0.25860956 0.017307485 0.23448633 -0.0029967048 0.0686685
-0.058321644 -0.21930332 0.2435472 0.3072804 0.08554641 0.048565965 -0.15729523 -0.05783143
0.062412843 0.3291107 0.16453534 -0.096605785 0.19988109 -0.20626327 -0.35741016 0.13346498
0.08325065 -0.012509057 0.0046108984 -0.032216545 -0.016858945 0.31093788 0.008676488 -0.26857343
-0.028001988 -0.07868071 0.09139601 0.08769684 -0.09580238 0.09827096 -0.08604943 -0.080749
0.1384238 -0.20359954 -0.44043785 -0.19163573 -0.13473992 0.0115558645 0.074322715 -0.10029027
-0.09012631 -0.008263502 0.2712108 0.09686334 -0.043583382 -0.027330454 -0.28877294 -0.11431525
-0.119560555 0.04626897 0.08367431 -0.0336319 0.09574961 -0.30835375 -0.59725237 -0.37644154
0.037997708 -0.15254498 -0.31340712 0.0322968 -0.11175278 -0.044011362 0.08686767 0.062193025
0.09160681 0.1168696 -0.055850517 -0.067071036 -0.21336614 0.14058365 -0.09350103 0.008794574
00000000: 4f94 4d3d f378 bf3e f7c0 333e 2e65 373d
00000010: d8b9 053b b944 623d 26ff cebd c86e 1a3e
00000020: 7f84 a53d b5d7 293e f5e9 60be dccc 143d
00000030: e2d2 8e3d 9a90 603e 493d 1c3e 3dbb 05be
00000040: ac73 13be d40c 233e 9cb7 693c f56a 8d3e
00000050: 2c18 fe3d e4fd 473a e87e 94be 5224 2abe
00000060: a702 d2bd de7b 79bc c1ef cbbc b503 053d
00000070: 53e4 bd3a 77e6 ab3e c0f3 b63d 88ac bc3c
00000080: 7121 b23e a2ce 42be d2a6 f6bd 6240 ccbc
00000090: 4b8d cf3d 2dc2 b1bb 1610 223e 2925 a6bc
000000a0: 0fef 99be a5cb dabd 3f75 253d 7ea9 07be
000000b0: dad7 043d c9b9 833e bd46 6e3e 18fd e93e
000000c0: b61c 6c3c 7754 103d 11a4 043e 597b a83d
000000d0: 7db2 583d 54c4 5cbd 9abc d93c 7ac2 b03d
000000e0: 00a4 a83d 350a 37bd 018a 31be 39ae b6bd
000000f0: faf1 b1bd db83 d73d 253e e5bd 9ef7 e2bd
00000100: fcd4 d9bd c445 79be 484e 8a3d 20d4 01bd
00000110: ef53 a5bd 2522 dabd 602d 66bd 1906 c6bc
00000120: 0e56 18be 8b1b d63d 0c0d 38bd 775d 8ebd
00000130: 0018 9fbd 891c 5d3e b28c c33e e0b3 f53d
00000140: fe95 293e 7f61 063e aa90 18bd e7bf fd3d
00000150: d197 1ebd 165d 263e 2a2b 3dbe cbfe 9b3d
00000160: 4152 96bc f219 4ebe 5d2a 49bd 8497 0abc
00000170: 59b2 2dbd 4239 4f3d 16a4 8cbe cd67 87be
00000180: eb25 0c3e d9fb 6d3d be22 a7be 0b81 85bd
00000190: f983 95bc 4aec 803e 73c6 673e 1782 33be
000001a0: e855 22be 3373 8d3d a4d0 8d3d b54c adbc
000001b0: 1706 263d 7f62 2a3e b22a 6c3c d54c 5e3e
000001c0: 4d42 32bc 350b 9e3d b4d3 31bd 64fe 98be
000001d0: 6ec6 363d 2c8d e83d f7ac 5dbe f110 353e
000001e0: a477 8dbd aa0a 1abe 1963 43b9 35cb 65bd
000001f0: d61b 09be d899 76be 716d 56be a358 1a3e
00000200: 3f70 9bbd 86a6 89bd 9bb7 473e 6b84 5fbd
00000210: 0bf3 923d fb6d 45be 8216 bb3e 73c4 f1be
00000220: 7118 14be db2d 203e b405 af3d 3e2e 0d3e
00000230: 611d fa3d 4be2 32bc 9e21 c03d 0fb5 953d
00000240: 956c b83c f108 be3d b5e6 8ebd 3ca4 b1be
00000250: e3ed 46bd a196 39be 41b7 573c 478f 47bc
00000260: 4585 b53c 6d9d e13d 81a2 b43e d542 babc
00000270: 0ea2 4cbd 488c 5b3d cd86 673d f723 6c3d
00000280: 8a3c 263d 23eb 793e c320 1ebe c25f cc3d
00000290: eb25 323d 0bd4 7b3e dd81 623e eb17 453c
000002a0: 285b f9bd c69f 8a3e 3017 163e 74c8 f93d
000002b0: fe4d d0bd 65bb 0fbd c395 5e3d 2086 203d
000002c0: 3714 cd3d c262 73be a456 173c 7968 843e
000002d0: 6dc8 8d3c 2f1d 703e 5d64 44bb 12a2 8c3d
000002e0: ade2 6ebd 0d91 60be 7064 793e db53 9d3e
000002f0: f532 af3d 1bed 463d 0012 21be a6e0 6cbd
00000300: 9ca4 7f3d 3381 a83e f47b 283e 41d9 c5bd
00000310: a1ad 4c3e ae36 53be 77fe b6be 0bab 083e
00000320: 517f aa3d caf2 4cbc 0517 973b 7ff5 03bd
00000330: c51b 8abc 4033 9f3e d427 0e3c 7582 89be
00000340: 6d64 e5bc 5a23 a1bd d52d bb3d 679a b33d
00000350: 0a34 c4bd 4942 c93d af3a b0bd bb5f a5bd
00000360: f8be 0d3e 667c 50be 1281 e1be 283c 44be
00000370: 43f9 09be cf54 3d3c 8236 983d fc64 cdbd
00000380: 2594 b8bd a463 07bc 24dc 8a3e 4960 c63d
00000390: 7d84 32bd 1ee4 dfbc 0cda 93be 1d1e eabd
000003a0: 2adc f4bd 8884 3d3d 705d ab3d 9ac1 09bd
000003b0: 5f18 c43d 8be0 9dbe 88e5 18bf f2bc c0be
000003c0: 7ca3 1b3d c034 1cbe e676 a0be a649 043d
000003d0: a4de e4bd 4245 34bd ade7 b13d 1dbe 7e3d
000003e0: 5a9c bb3d 5459 ef3d 83c3 64bd 8a5c 89bd
000003f0: a77c 5abe 29f5 0f3e 787d bfbd 1e17 103c

r_cell.fc.bias f4 [24]
0.0116867935 0.021507697 0.059610594 -0.11125356 -0.00018389596 -0.048589498 -0.11818236 0.02116786
0.054926876 -0.09340354 -0.057558943 0.0007288754 -0.031188926 0.09067991 0.07497807 -0.003365734
0.030779475 0.08599985 0.09094453 -0.10589292 -0.05784796 -0.11211846 -0.09048048 0.007060086
00000000: f779 3f3c e930 b03c 3d2a 743d e8d8 e3bd
00000010: 32d4 40b9 c805 47bd 9809 f2bd 3868 ad3c
00000020: 01fb 603d 5b4a bfbd edc2 6bbd 0012 3f3a
00000030: eb7f ffbc 63b6 b93d 1a8e 993d a593 5cbb
00000040: 3d25 fc3c b020 b03d 2041 ba3d 63de d8bd
00000050: fcf1 6cbd 5d9e e5bd d44d b9bd 4b58 e73b

fc1.0.bias f4 [24]
-0.24242686 0.12603588 -0.24902469 -0.014380933 0.092967 0.29011968 0.10737601 -0.17232569
0.2571915 -0.30631894 0.051744405 0.15456319 0.14632979 -0.2575853 -0.016557619 -0.3169108
0.13389432 0.19843133 -0.10157896 0.17445032 0.081571765 0.16685922 -0.10061699 0.2792755
00000000: bf3e 78be 8d0f 013e 5400 7fbe 019e 6bbc
00000010: 7c65 be3d 918a 943e f4e7 db3d 2576 30be
00000020: 9bae 833e d6d5 9cbe f1f1 533d d045 1e3e
00000030: 7ad7 153e 38e2 83be d8a3 87bc 2242 a2be
00000040: 981b 093e 9531 4b3e a108 d0bd 1ba3 323e
00000050: 190f a73d 25dd 2a3e 4810 cebd 33fd 8e3e

fc1.0.weight_orig f4 [24, 6]
-0.011635586 -0.037230145 -0.19201927 -0.28230867 0.4480209 0.52912015 0.29843873 -0.014546524
0.15949549 0.39675087 0.12497564 -0.52224624 -0.14946854 -0.006849362 0.15662734 -0.19399305
0.32544184 -0.25349182 0.2351179 -0.31960186 0.05583123 0.28075063 0.01672326 0.518117
0.4927659 0.53528047 -0.20007648 -0.3047588 0.31828862 -0.05107411 -0.19049697 0.29495203
0.46562454 -0.22869627 0.2923279 0.55157095 -0.18206654 0.1356315 0.51263064 0.17496356
0.13625935 -0.123098284 -0.08522126 -0.23874837 -0.046187975 0.1645769 0.45968235 0.19454496
0.05812917 0.33860934 0.040501487 -0.21004912 0.38777557 0.4753448 -0.24515401 0.43702704
-0.01033666 -0.053574532 -0.26357904 0.009903854 0.029012538 0.32433456 0.20012209 0.024122026
0.13018337 -0.35498866 0.26414824 -0.13932584 0.2448986 -0.27258143 0.5534142 0.40665567
0.13886495 -0.06875652 0.6136132 0.14348161 0.18844685 -0.013504938 -0.078442775 0.23081556
-0.083425105 0.29500648 -0.22252125 0.22715975 -0.0895074 0.27112144 0.17409088 0.15044603
-0.20186725 0.470709 0.27172804 0.05411051 -0.0066594216 -0.1971018 -0.33862096 0.071650125
0.15927534 -0.25477389 -0.03329394 0.20558897 0.5198663 0.17360349 -0.20098753 0.17574425
0.19984943 0.46585032 0.26324514 -0.38674805 0.4386087 -0.07846918 -0.2907315 0.15529977
-0.13648841 -0.21790689 -0.14982449 0.30348897 0.26447126 0.4931397 -0.042510465 0.07002477
-0.112163976 0.31785336 0.39990506 0.5034432 -0.18941167 0.4339469 0.54092556 0.49710187
-0.039249707 -0.30761942 0.14205804 -0.122987635 -0.21372744 -0.16499516 -0.06299725 0.46833634
-0.038258117 -0.4524851 0.3159111 0.17573564 -0.23836671 0.493167 0.30903614 0.21110618
00000000: 2fa3 3ebc a37e 18bd b3a0 44be c38a 90be
00000010: ff62 e53e 6b74 073f f6cc 983e 8b54 6ebc
00000020: c952 233e ee22 cb3e 3af3 ff3d eeb1 05bf
00000030: 480e 19be 9d70 e0bb eb62 203e 1da6 46be
00000040: 50a0 a63e aec9 81be bfc2 703e dba2 a3be
00000050: 4aaf 643d 8cbe 8f3e 38ff 883c 51a3 043f
00000060: d04b fc3e 2408 093f d9e0 4cbe 5809 9cbe
00000070: baf6 a23e 1633 51bd a311 43be f403 973e
00000080: 5766 ee3e 5b2f 6abe 01ac 953e c133 0d3f
00000090: a76f 3abe fce2 0a3e c33b 033f a629 333e
000000a0: 9287 0b3e f41a fcbd 7c88 aebd 747a 74be
000000b0: 9a2f 3dbd d986 283e 7c5b eb3e cb36 473e
000000c0: da18 6e3d 345e ad3e e3e4 253d 1e17 57be
000000d0: 858a c63e 6560 f33e a709 7bbe 02c2 df3e
000000e0: 185b 29bc f870 5bbd d5f3 86be c643 223c
000000f0: b4ab ed3c 2e0f a63e ceec 4c3e 8e9b c53c
00000100: ca4e 053e 13c1 b5be 703e 873e 6fab 0ebe
00000110: b3c6 7a3e cb8f 8bbe 8eac 0d3f 2c35 d03e
00000120: 9d32 0e3e 38d0 8cbd c115 1d3f d8ec 123e
00000130: 36f8 403e d143 5dbc 9ba6 a0bd ea5a 6c3e
00000140: c8da aabd 170b 973e 9cdc 63be 919c 683e
00000150: a84f b7bd 6ed0 8a3e e144 323e 860e 1a3e
00000160: 4ab6 4ebe c500 f13e f01f 8b3e fba2 5d3d
00000170: 4737 dabb 0ed5 49be ba5f adbe 4dbd 923d
00000180: 1319 233e b971 82be 3a5f 08bd ea85 523e
00000190: f515 053f 1dc5 313e adcf 4dbe 4df6 333e
000001a0: 54a5 4c3e ef83 ee3e 11c8 863e d703 c6be
000001b0: 5291 e03e 73b4 a0bd c2da 94be e706 1f3e
000001c0: 9ec3 0bbe fc22 5fbe 976b 19be e862 9b3e
000001d0: c768 873e cf7c fc3e 741f 2ebd 2669 8f3d
000001e0: 3ab6 e5bd adbd a23e 5bc0 cc3e a7e1 003f
000001f0: 22f5 41be 4a2e de3e 197a 0a3f 2384 fe3e
00000200: 4dc4 20bd 4b80 9dbe aa77 113e f1e0 fbbd
00000210: 5edb 5abe 7ef4 28be b404 81bd c8c9 ef3e
00000220: 8bb4 1cbd 21ac e7be 1abf a13e 0bf4 333e
00000230: 6716 74be 6380 fc3e fc39 9e3e 382c 583e

fc1.0.weight_u f4 [24]
-0.38337776 0.24005014 -0.009641856 -0.16440125 -0.19749764 -0.38905144 0.031475343 -0.13610046
-0.37905496 0.03809462 0.083889216 -0.39526546 -0.051941067 0.013525616 -0.14184166 -0.013356757
-0.15453988 0.18750118 0.14359781 0.057648506 -0.06984013 -0.1325882 0.33528668 -0.094628654
00000000: 174a c4be b4cf 753e e0f8 1dbc cd58 28be
00000010: d23c 4abe c031 c7be 4aec 003d eb5d 0bbe
00000020: 7e13 c2be 1b09 1c3d 1cce ab3d 3c60 cabe
00000030: 28c0 54bd 8c9a 5d3c f13e 11be 4dd6 5abc
00000040: b43f 1ebe 4f00 403e 4e0b 133e d720 6c3d
00000050: 5808 8fbd 33c5 07be b2aa ab3e abcc c1bd

fc1.0.weight_v f4 [6]
-0.15737037 -0.14588842 -0.09773173 0.3755276 -0.45792753 -0.770507
00000000: b325 21be c663 15be 9327 c8bd 2745 c03e
00000010: 7a75 eabe f23f 45bf

fc1.1.weight f4 [24, 24]
-0.25267702 -0.015558842 0.18155576 0.6992785 -0.17193307 1.1859514 0.14489484 0.34200016
-0.78989536 0.4613382 -0.29487497 -1.0887935 0.1476286 0.5153361 0.18634178 0.5258231
-0.51891035 -0.5358072 0.555577 0.12571798 -0.28315145 -0.046486817 -0.2505178 -0.8893004
0.56477004 -0.5544303 -0.3837436 -0.23693833 -1.7472928 -1.8057421 -0.082742415 -0.026390288
1.0285652 0.07341211 0.33149117 0.837396 -0.6276171 0.034522217 -0.2731884 -0.09241891
0.6138225 -0.46390766 -0.22530797 -0.56084305 0.2757309 -0.18721232 0.22668907 0.9132549
0.5015958 -0.19360848 -1.9304539 -0.39530653 0.6176712 -1.920906 -0.5803556 0.21830857
0.75702316 1.0112668 0.27700576 2.6735253 0.64752895 0.27715367 -0.29424524 0.92136306
0.3858106 -0.84270406 0.22738813 -1.1581768 -0.13205047 -0.33395374 -0.09745526 -1.6846623
0.15607703 -0.13175371 -0.35119677 -0.13650493 0.47258714 -1.9221547 -0.5498925 0.32711846
1.0173987 0.5350115 0.3098888 2.0623271 0.36337727 -0.21521105 -0.2575209 0.2473649
0.459466 -0.6354668 0.35147673 0.25705197 -0.26362425 -0.3102567 -0.16039288 -0.7153683
-0.67882603 0.4995572 0.19839482 0.45906016 -0.20993477 1.2172137 0.75596553 0.23459391
-1.0459713 0.65674615 -0.2445271 -1.133903 -0.24871907 0.841359 0.18119912 -1.043087
-0.4360359 0.41601506 -0.12830658 -0.03982862 0.13333447 -0.30241746 0.09498046 1.0644034
0.51530856 -0.51557845 -1.5063105 -0.9806966 -0.37201554 -1.8408788 -0.20787567 0.46195528
0.8778497 -1.1905488 0.29260102 0.8612924 0.26472577 -0.41388738 -0.114788696 0.8352202
0.3252121 0.19886184 -0.22791952 -0.28864577 0.20798953 -0.91369575 0.1682769 -0.49525306
-0.50681484 0.08591628 1.3688451 0.42468524 0.54968345 1.1228936 0.1229403 -0.16433878
-0.97036886 1.2561092 -0.30641192 -1.0367427 -0.4025013 0.6231188 0.2035809 -1.472183
-0.463489 -0.16942796 -0.17862594 0.510859 0.11917186 -0.6986099 0.12113176 0.8704998
0.40091607 -0.40393087 -0.67269814 -1.2867752 0.14823101 -1.0791434 -1.1710979 -0.14106217
1.0000134 2.254356 0.21196099 2.822638 -0.33380514 0.28625935 -0.23082912 -0.63799244
0.35030684 -0.134955 0.20953958 0.6191646 -0.18035421 0.7667337 -0.10087878 0.81845945
0.45060223 -0.29962912 0.37283048 -0.85301 0.0017926535 -1.3975965 -0.4037354 0.1474623
0.6824909 -0.71597016 0.32119888 1.9692364 -0.4091341 0.29980096 -0.27222264 -0.89922667
0.37523034 -0.38660842 -0.26778403 0.86536294 0.12686777 -0.6757959 0.12443898 -1.2241083
0.5492052 -0.08953742 0.70736516 -0.6780764 0.1248324 -1.2423462 -1.1153408 0.14805564
0.7582116 -0.030128518 0.28079882 2.6669745 0.51242423 -0.385914 -0.29384437 1.5366988
0.34827515 -1.1156164 0.07475114 -1.0557883 -0.17049782 0.40691528 -0.1455497 -1.20553
-0.2721444 0.72639704 0.07735744 0.45423356 0.51946646 1.5500159 -0.027083682 0.74442613
-1.3424606 -1.5640026 -0.22090977 -0.87970084 -0.04818012 -0.47713983 0.22284046 0.98080236
00000000: e25e 81be 83ea 7ebc c1e9 393e ea03 333f
00000010: 390f 30be 41cd 973f 505f 143e a51a af3e
00000020: 9536 4abf 8534 ec3e daf9 96be 965d 8bbf
00000030: f42b 173e 11ed 033f 61d0 3e3e 589c 063f
00000040: 4fd7 04bf a92a 09bf 4b3a 0e3f 37bc 003e
00000050: 3af9 90be f668 3ebd de43 80be 31a9 63bf
00000060: c594 103f 25ef 0dbf 0b7a c4be f69f 72be
00000070: 4aa7 dfbf 8f22 e7bf db74 a9bd 7230 d8bc
00000080: 06a8 833f 1759 963d 36b9 a93e 965f 563f
00000090: 84ab 20bf 2b67 0d3d 5adf 8bbe 2046 bdbd
000000a0: 7923 1d3f 4e85 edbe 22b7 66be 6993 0fbf
000000b0: 9a2c 8d3e 96b4 3fbe 2e21 683e 13cb 693f
000000c0: 9568 003f 4d41 46be 1d19 f7bf 9e65 cabe
000000d0: b31f 1e3f 3fe0 f5bf 2f92 14bf 488c 5f3e
000000e0: 45cc 413f 3171 813f b3d3 8d3e 0a1b 2b40
000000f0: 75c4 253f 16e7 8d3e 50a7 96be 73de 6b3f
00000100: f888 c53e 74bb 57bf 6fd8 683e 233f 94bf
00000110: 3d38 07be fcfb aabe a096 c7bd 04a3 d7bf
00000120: a8d2 1f3e 72ea 06be 10d0 b3be f3c7 0bbe
00000130: f1f6 f13e 2a09 f6bf c1c5 0cbf 127c a73e
00000140: 1f3a 823f 83f6 083f bfa9 9e3e 2bfd 0340
00000150: 960c ba3e 4960 5cbe c8d9 83be 394d 7d3e
00000160: 213f eb3e f4ad 22bf c2f4 b33e 519c 833e
00000170: c2f9 86be f7d9 9ebe 083e 24be 6022 37bf
00000180: 8bc7 2dbf f6c5 ff3e 0328 4b3e ef09 eb3e
00000190: 24f9 56be a9cd 9b3f f586 413f 6339 703e
000001a0: 63e2 85bf 8420 283f 5065 7abe bc23 91bf
000001b0: 36b0 7ebe 4e63 573f 438c 393e e083 85bf
000001c0: 1940 dfbe edff d43e cd62 03be 5623 23bd
000001d0: d588 083e 76d6 9abe 1e85 c23d 5f3e 883f
000001e0: 43eb 033f f3fc 03bf c8ce c0bf ef0e 7bbf
000001f0: d278 bebe eba1 ebbf 5cdd 54be 6785 ec3e
00000200: c2ba 603f e763 98bf cdcf 953e a97d 5c3f
00000210: 238a 873e 0ce9 d3be 5616 ebbd fed0 553f
00000220: 3382 a63e 70a2 4b3e bc63 69be 61c9 93be
00000230: 35fb 543e f7e7 69bf c850 2c3e cf91 fdbe
00000240: 9ebe 01bf e0f4 af3d 5136 af3f 5870 d93e
00000250: 0eb8 0c3f faba 8f3f 20c8 fb3d 6d48 28be
00000260: 186a 78bf 30c8 a03f 06e2 9cbe fcb3 84bf
00000270: a714 cebe b784 1f3f 8377 503e 7e70 bcbf
00000280: 6e4e edbe 867e 2dbe b8e9 36be a8c7 023f
00000290: 6010 f43d 19d8 32bf ee13 f83d 13d9 5e3f
000002a0: df44 cd3e 07d0 cebe f235 2cbf 0db5 a4bf
000002b0: dfc9 173e 5f21 8abf 89e6 95bf 9a72 10be
000002c0: 7000 803f 5e47 1040 4d0c 593e 1aa6 3440
000002d0: 82e8 aabe 9690 923e 785e 6cbe 7953 23bf
000002e0: 6b5b b33e a531 0abe 8b91 563e 9281 1e3f
000002f0: c6ae 38be a948 443f 8999 cebd 8f86 513f
00000300: 56b5 e63e fd68 99be a3e3 be3e dd5e 5abf
00000310: 78f7 ea3a 71e4 b2bf 68b6 cebe 5b00 173e
00000320: b9b7 2e3f d249 37bf 2e74 a43e f00f fc3f
00000330: 067a d1be 837f 993e c460 8bbe b833 66bf
00000340: 311e c03e 8af1 c5be fd1a 89be 6d88 5d3f
00000350: a0e9 013e f600 2dbf ddd9 fe3d 95af 9cbf
00000360: b698 0c3f 655f b7bd e215 353f 6a96 2dbf
00000370: 21a8 ff3d 3305 9fbf 7dc3 8ebf e69b 173e
00000380: 281a 423f 15d0 f6bc ddc4 8f3e b6af 2a40
00000390: 3c2e 033f 8596 c5be c572 96be 8cb2 c43f
000003a0: 1f51 b23e 85cc 8ebf 2017 993d 1224 87bf
000003b0: fb96 2ebe 3357 d03e fb0a 15be cf4e 9abf
000003c0: 8356 8bbe 28f5 393f 946d 9e3d 4d91 e83e
000003d0: c1fb 043f ec66 c63f 99de ddbc b692 3e3f
000003e0: c0d5 abbf 3d31 c8bf 2c36 62be 1334 61bf
000003f0: 8458 45bd ac4b f4be 4a30 643e dd15 7b3f
