models/17_05_2021/stock_self_attn_MSE_hinge_10000_64_24_6_24_5/8000_embedder.pth (torch, 60914 bytes, 43 tensors)

position.pe f4 [1, 24, 24]
0.0 1.0 0.0 1.0 0.0 1.0 0.0 1.0
0.0 1.0 0.0 1.0 0.0 1.0 0.0 1.0
0.0 1.0 0.0 1.0 0.0 1.0 0.0 1.0
0.84147096 0.54030234 0.44767085 0.8941984 0.21378067 0.9768817 0.099833414 0.9950042
0.04639923 0.99892294 0.021542681 0.9997679 0.009999833 0.99995 0.0046415734 0.9999892
0.0021544332 0.9999977 0.0009999998 0.9999995 0.00046415895 0.9999999 0.00021544348 1.0
0.9092974 -0.41614684 0.8006131 0.59918165 0.41767687 0.9085956 0.19866931 0.9800666
0.09269851 0.9956942 0.043075364 0.99907184 0.019998666 0.9998 0.009283047 0.9999569
0.004308856 0.9999907 0.0019999985 0.99999803 0.00092831784 0.9999996 0.00043088695 0.99999994
0.14112 -0.9899925 0.98414314 0.17737612 0.60226107 0.7982992 0.2955202 0.9553365
0.1387981 0.9903207 0.06458805 0.997912 0.0299955 0.99955004 0.01392432 0.9999031
0.006463259 0.99997914 0.0029999954 0.9999955 0.0013924765 0.99999905 0.00064633036 0.9999998
-0.7568025 -0.6536436 0.9594254 -0.28196275 0.75899875 0.6510921 0.38941833 0.921061
0.18459873 0.98281395 0.08607077 0.996289 0.039989334 0.9992001 0.018565293 0.9998276
0.008617632 0.99996287 0.003999989 0.999992 0.0018566349 0.9999983 0.0008617738 0.99999964
-0.9589243 0.2836622 0.73169005 -0.68163747 0.88064283 0.47378072 0.47942552 0.87758255
0.23000173 0.97319025 0.10751353 0.9942036 0.049979165 0.99875027 0.023205869 0.9997307
0.010771966 0.999942 0.004999979 0.9999875 0.0023207928 0.9999973 0.0010772172 0.9999994
-0.2794155 0.96017027 0.349127 -0.93707544 0.961569 0.27456328 0.5646424 0.8253356
0.2749093 0.9614702 0.12890638 0.9916568 0.059964005 0.99820054 0.02784594 0.9996122
0.012926248 0.99991643 0.0059999637 0.999982 0.0027849504 0.9999961 0.0012926605 0.99999917
0.6569866 0.75390226 -0.10731243 -0.9942253 0.9980355 0.06265094 0.6442176 0.7648422
0.31922466 0.94767904 0.15023942 0.98864967 0.06994285 0.997551 0.032485418 0.9994722
0.0150804715 0.9998863 0.006999942 0.9999755 0.003249107 0.99999475 0.0015081038 0.99999887
0.98935825 -0.14550003 -0.5410444 -0.840994 0.9883562 -0.15215816 0.717356 0.6967067
0.36285242 0.9318466 0.17150272 0.98518366 0.07991469 0.9968017 0.03712419 0.9993107
0.017234625 0.99985147 0.007999914 0.999968 0.0037132632 0.9999931 0.001723547 0.9999985
0.4121185 -0.91113025 -0.86028963 -0.5098056 0.9329786 -0.35993198 0.78332686 0.62161
0.4056986 0.91400695 0.19268642 0.98126036 0.089878544 0.9959527 0.041762162 0.99912757
0.019388698 0.999812 0.008999879 0.9999595 0.0041774185 0.9999913 0.0019389901 0.99999815
-0.5440211 -0.8390715 -0.99749476 -0.070740685 0.8344632 -0.55106366 0.84147096 0.54030234
0.44767088 0.8941984 0.21378069 0.9768817 0.099833414 0.9950042 0.04639924 0.99892294
00000000: 0000 0000 0000 803f 0000 0000 0000 803f
00000010: 0000 0000 0000 803f 0000 0000 0000 803f
00000020: 0000 0000 0000 803f 0000 0000 0000 803f
00000030: 0000 0000 0000 803f 0000 0000 0000 803f
00000040: 0000 0000 0000 803f 0000 0000 0000 803f
00000050: 0000 0000 0000 803f 0000 0000 0000 803f
00000060: a46a 573f 4151 0a3f 1d35 e53e 30ea 643f
00000070: 52e9 5a3e eb14 7a3f 7675 cc3d 98b8 7e3f
00000080: 1e0d 3e3d 6ab9 7f3f 477a b03c caf0 7f3f
00000090: 57d6 233c b9fc 7f3f 5718 983b 4bff 7f3f
000000a0: 6431 0d3b d9ff 7f3f 6d12 833a f8ff 7f3f
000000b0: 5c5a f339 feff 7f3f abe8 6139 0000 803f
000000c0: b7c7 683f 3311 d5be fbf4 4c3f f863 193f
000000d0: bed9 d53e b999 683f f86f 4b3e a5e5 7a3f
000000e0: b7d8 bd3d d1e5 7e3f cb6f 303d 2cc3 7f3f
000000f0: 3ed4 a33c e5f2 7f3f ec17 183c 2dfd 7f3f
00000100: 4e31 8d3b 64ff 7f3f 6812 033b dfff 7f3f
00000110: 5b5a 733a f9ff 7f3f abe8 e139 ffff 7f3f
00000120: c381 103e 2670 7dbf cef0 7b3f 16a2 353e
00000130: c82d 1a3f 565d 4c3f 6c4e 973e ef90 743f
00000140: 1721 0e3e a885 7d3f bd46 843d 2977 7f3f
00000150: 1fb9 f53c 83e2 7f3f d522 643c a6f9 7f3f
00000160: bfc9 d33b a2fe 7f3f 929b 443b b5ff 7f3f
00000170: c283 b63a f0ff 7f3f 7f6e 293a fdff 7f3f
00000180: cfbd 41bf 3055 27bf e79c 753f 6c5d 90be
00000190: be4d 423f f9ad 263f d761 c73e a7ca 6b3f
000001a0: 7307 3d3e b299 7b3f df45 b03d cc0c 7f3f
000001b0: dbcb 233d 94cb 7f3f 3e16 983c b4f4 7f3f
000001c0: f830 0d3c 91fd 7f3f 5712 833b 7aff 7f3f
000001d0: 545a f33a e3ff 7f3f a9e8 613a faff 7f3f
000001e0: 107c 75bf 2c3c 913e 0a50 3b3f cb7f 2ebf
000001f0: cf71 613f 6393 f23e 4377 f53e 40a9 603f
00000200: 9385 6b3e ff22 793f 0e30 dc3d 2184 7e3f
00000210: f4b6 4c3d 19ae 7f3f 3c1a be3c 5aee 7f3f
00000220: e67c 303c 33fc 7f3f ddd6 a33b 2eff 7f3f
00000230: 7118 183b d3ff 7f3f 6931 8d3a f6ff 7f3f
00000240: 8c0f 8fbe b8cd 753f c6c0 b23e 2de4 6fbf
00000250: 6329 763f 8f93 8c3e 688c 103f 3249 533f
00000260: e9c0 8c3e e922 763f 0900 043e 38dd 7d3f
00000270: d19c 753d 128a 7f3f 2b1d e43c 96e6 7f3f
00000280: 9dc8 533c 86fa 7f3f 589b c43b d2fe 7f3f
00000290: b783 363b bfff 7f3f 7d6e a93a f2ff 7f3f
000002a0: 4630 283f bdff 403f 9fc6 dbbd 8d85 7ebf
000002b0: 417f 7f3f 234f 803d 72eb 243f b3cc 433f
000002c0: 6a71 a33e 189b 723f 5dd8 193e 2518 7d3f
000002d0: 323e 8f3d 815f 7f3f 6e0f 053d 69dd 7f3f
000002e0: 1514 773c 8cf8 7f3f c55f e53b 65fe 7f3f
000002f0: f8ee 543b a8ff 7f3f 91ab c53a edff 7f3f
00000300: 9546 7d3f f6fd 14be e381 0abf 624b 57bf
00000310: e904 7d3f 59cf 1bbe a5a4 373f 5f5b 323f
00000320: cbc7 b93e 808d 6e3f 699e 2f3e ff34 7c3f
00000330: 50aa a33d 652e 7f3f 890f 183d d3d2 7f3f
00000340: a12f 8d3c 44f6 7f3f 1212 033c e7fd 7f3f
00000350: 385a 733b 8cff 7f3f a4e8 e13a e7ff 7f3f
00000360: 3201 d33e d53f 69bf f13b 5cbf 9f82 02bf
00000370: afd7 6e3f 0149 b8be 1c88 483f d521 1f3f
00000380: bab7 cf3e 5cfc 693f 974f 453e e133 7b3f
00000390: 3e12 b83d c2f6 7e3f cd0e 2b3d d3c6 7f3f
000003a0: 0cd5 9e3c aef3 7f3f 3a74 133c 59fd 7f3f
000003b0: bae2 883b 6eff 7f3f b625 fe3a e1ff 7f3f
000003c0: f844 0bbf 64cd 56bf d15b 7fbf 7ee0 90bd
000003d0: 619f 553f 8212 0dbf a46a 573f 4151 0a3f
000003e0: 1e35 e53e 30ea 643f 53e9 5a3e eb14 7a3f
000003f0: 7675 cc3d 98b8 7e3f 210d 3e3d 6ab9 7f3f

r_cell.w_qs.weight f4 [24, 24]
0.23854946 0.042726077 -0.2633074 -0.021076184 0.14860843 -0.5647854 0.9974845 -0.20762518
-0.12147578 0.5349684 0.12566486 0.4084424 0.2459823 0.5871896 0.5919234 -0.48311156
0.14558844 0.22903031 -0.1602409 0.29738224 -0.16429493 0.05324432 -0.1748734 0.101586595
0.2632234 0.13775042 -0.7461728 0.30254325 -0.19642444 -0.7691709 -0.770657 -0.047998857
0.754118 0.36782062 0.052707855 -0.13708244 -0.5690752 -0.13311061 0.4146552 0.15461111
-0.53214306 0.13692188 -0.5706374 0.26613405 0.102277555 0.3400202 0.06480263 0.3576968
0.12122832 -0.20739135 0.23729172 -0.040965643 -0.048151467 -0.02599502 0.83688307 0.21163991
0.42460847 -0.3118602 -0.6102754 0.31469232 -0.44881603 0.17774722 0.006911417 -0.57192457
0.4366644 -0.57489616 0.09589909 0.111686155 -0.6206741 -0.28186986 -0.3324789 -0.021744164
-0.19768934 0.64568865 -0.32854074 -0.155725 -0.24599402 -0.5966332 -0.35733846 0.004160219
0.22655305 -0.77141637 0.16166466 -0.07153944 0.011236925 -0.22612885 -0.20486265 -0.12601776
-0.11640978 -0.27059773 -0.26173645 -0.28264046 -0.23632511 -0.25005698 0.3064476 0.10386989
-0.0962191 0.34283853 0.21800306 -0.87763685 0.09893321 0.5434953 0.48967052 0.34731582
-0.03654195 0.41158032 -0.122323394 -0.30557847 -0.24142714 0.14235547 1.0601337 -0.039674725
-0.3018301 0.3360066 0.38915095 0.012919669 0.27528542 0.20072988 -0.39746505 -0.10460397
0.6912274 -0.62950474 0.58230525 -0.39486405 -0.41074693 -0.47840124 0.17458245 0.29514518
0.09468082 -0.6370717 -0.80367863 -0.013842363 -0.18536346 0.43412465 -0.633715 0.6553919
0.46251425 -0.40358424 -1.1495407 0.8594872 -0.4167829 -0.15445398 0.12821355 -0.54209185
0.20429458 -0.15780404 -0.06180312 0.11695614 -0.33478212 -0.25752354 -0.5542699 -0.7920127
0.5602893 0.73259014 0.35208023 0.42847294 -0.6610634 0.40754703 -0.14736278 -0.25816336
0.3890536 -0.2515428 0.2783253 -0.04718357 0.68179935 0.78222066 0.100195736 -0.17223558
-0.1993466 -0.1356003 -0.096695006 -0.9536132 0.10489619 -0.4126003 -0.082523234 0.46517134
-0.49021345 -0.20476063 0.08943048 0.2907236 -0.14857288 -0.6680725 0.48759693 0.26457945
0.55099285 -0.038665522 0.49932098 0.2803028 -0.2737112 0.106597625 0.62269264 -0.17286345
-0.042234644 0.43230638 -0.051770113 0.5159963 0.030078037 0.63249767 -0.020227196 -0.49770877
0.27939513 -0.37448892 0.32177615 0.054480482 -0.06317246 0.060950734 0.27942318 -0.023779755
-0.16723086 -0.0014087168 -0.7244661 0.031496406 -0.11480297 0.108446546 0.3342818 -0.14026377
-0.09999751 -0.3717539 0.39465097 -0.1768913 0.5631551 0.29163077 -0.5204352 -0.04535139
0.19873825 0.22381704 -0.1665954 0.28336808 -0.07666124 -0.1471118 -0.23782279 0.052186266
-1.0061926 -0.07328379 -0.08694969 0.27375114 0.74350756 -0.20174018 -0.28155175 -0.090118736
-0.19339484 0.3686227 -0.32605043 0.19778034 -0.14883251 -0.019775344 -0.66431886 0.013756342
0.29032668 0.38647887 -0.20159936 0.034499098 -0.14784339 -0.3145087 0.01052867 -0.23989092
00000000: 4f46 743e 8a01 2f3d 3ad0 86be f6a7 acbc
00000010: cf2c 183e c795 10bf 255b 7f3f b29b 54be
00000020: 4bc8 f8bd b0f3 083f 4aae 003e 5d1f d13e
00000030: c9e2 7b3e 0f52 163f 4b88 173f 665a f7be
00000040: 2315 153e ec86 6a3e 3116 24be 7c42 983e
00000050: ee3c 28be b716 5a3d 0312 33be a20c d03d
00000060: 38c5 863e 720e 0d3e 2e05 3fbf f3e6 9a3e
00000070: 7d23 49be 62e8 44bf c749 45bf 739a 44bd
00000080: e10d 413f fc52 bc3e 31e4 573d 575f 0cbe
00000090: eaae 11bf 264e 08be b04d d43e 6052 1e3e
000000a0: 873a 08bf 4035 0c3e 4b15 12bf b942 883e
000000b0: e576 d13d 2117 ae3e 3eb7 843d 0924 b73e
000000c0: 8e46 f83d 665e 54be 9afc 723e 97cb 27bd
000000d0: 793a 45bd 82f3 d4bc f83d 563f 22b8 583e
000000e0: 4866 d93e 24ac 9fbe 023b 1cbf 5a1f a13e
000000f0: 37cb e5be 5e03 363e 2b79 e23b a669 12bf
00000100: 7a92 df3e 652c 13bf be66 c43d b6bb e43d
00000110: 7fe4 1ebf 3f51 90be ad3a aabe d120 b2bc
00000120: 136f 4abe da4b 253f 7e36 a8be 6076 1fbe
00000130: dbe5 7bbe f4bc 18bf 11f5 b6be 7252 883b
00000140: 86fd 673e 8b7b 45bf 6c8b 253e 4583 92bd
00000150: 141b 383c 528e 67be 84c7 51be cd0a 01be
00000160: 4068 eebd c98b 8abe 5202 86be 40b6 90be
00000170: 36ff 71be 7807 80be b3e6 9c3e bdb9 d43d
00000180: 850e c5bd 8888 af3e 323c 5f3e cfac 60bf
00000190: 7f9d ca3d 8222 0b3f 18b6 fa3e 61d3 b13e
000001a0: 03ad 15bd a8ba d23e b084 fabd c874 9cbe
000001b0: ad38 77be a2c5 113e 76b2 873f f781 22bd
000001c0: 7a89 9abe 0f09 ac3e cb3e c73e 05ad 533c
000001d0: 36f2 8c3e 228c 4d3e 8a80 cbbe 9b3a d6bd
000001e0: 47f4 303f 3927 21bf f511 153f 9f2b cabe
000001f0: 6c4d d2be 02f1 f4be bec5 323e 451d 973e
00000200: 05e8 c13d 2217 23bf e2bd 4dbf 14cb 62bc
00000210: ebcf 3dbe 9645 de3e 253b 22bf c3c7 273f
00000220: abce ec3e 98a2 cebe 2624 93bf 5a07 5c3f
00000230: 9164 d5be 2f29 1ebe 6a4a 033e 88c6 0abf
00000240: 9932 513e 6297 21be 4525 7dbd b386 ef3d
00000250: 9068 abbe 20da 83be a2e4 0dbf 58c1 4abf
00000260: 1f6f 0f3f 078b 3b3f dc43 b43e ce60 db3e
00000270: 733b 29bf 01aa d03e 45e6 16be fd2d 84be
00000280: 0932 c73e 38ca 80be a780 8e3e 8f43 41bd
00000290: 678a 2e3f 9d3f 483f 6c33 cd3d 865e 30be
000002a0: 8421 4cbe ceda 0abe 0808 c6bd ff1f 74bf
000002b0: d0d3 d63d 5940 d3be f101 a9bd f02a ee3e
000002c0: 42fd fabe c5ac 51be 5427 b73d b9d9 943e
000002d0: 7d23 18be cd06 2bbf 4ea6 f93e f576 873e
000002e0: de0d 0d3f bd5f 1ebd 00a7 ff3e d983 8f3e
000002f0: e023 8cbe db4f da3d c968 1f3f 1e03 31be
00000300: 3cfe 2cbd 4357 dd3e e60c 54bd 5518 043f
00000310: 3766 f63c 5eeb 213f 81b3 a5bc afd3 febe
00000320: e10c 8f3e 03bd bfbe d8bf a43e ed26 5f3d
00000330: 9060 81bd 7aa7 793d 8e10 8f3e c3cd c2bc
00000340: 913e 2bbe b1a4 b8ba 9c76 39bf 6002 013d
00000350: d21d ebbd 3919 de3d fc26 ab3e 4ea1 0fbe
00000360: 7fcb ccbd 8756 bebe b10f ca3e fe22 35be
00000370: ef2a 103f a150 953e 3e3b 05bf 61c2 39bd
00000380: 0a82 4b3e 4b30 653e fc97 2abe 9f15 913e
00000390: 9100 9dbd 7aa4 16be d187 73be 44c1 553d
000003a0: ebca 80bf d015 96bd ae12 b2bd 1c29 8c3e
000003b0: 8356 3e3f fa94 4ebe 8d27 90be 2c90 b8bd
000003c0: 4c09 46be 1dbc bc3e 15f0 a6be ee86 4a3e
000003d0: 8d67 18be e7ff a1bc cd10 2abf 4862 613c
000003e0: b3a5 943e 8fe0 c53e 1070 4ebe ed4e 0d3d
000003f0: 4264 17be 4907 a1be 7180 2c3c f7a5 75be

r_cell.w_qs.bias f4 [24]
0.08430786 -0.007973789 -0.36013138 -0.19376354 0.2556099 -0.34361592 -0.44968268 -0.108923085
-0.027405476 -0.06765123 -0.035429336 -0.24780832 0.08532719 0.17982532 -0.23555887 -0.10731841
0.072966464 0.012936763 -0.12239099 -0.37704518 0.11284972 0.33392507 -0.17384155 0.62954
00000000: 99a9 ac3d 7fa4 02bc 2463 b8be f369 46be
00000010: 4ddf 823e 6dee afbe cf3c e6be 1113 dfbd
00000020: 7381 e0bc ba8c 8abd 5a1e 11bd 77c1 7dbe
00000030: 06c0 ae3d 2124 383e 5836 71be c1c9 dbbd
00000040: 716f 953d b8f4 533c 21a8 fabd 110c c1be
00000050: c11d e73d 3af8 aa3e 8503 32be 8929 213f

r_cell.w_ks.weight f4 [24, 24]
0.16543171 0.34159607 0.27813193 0.8280022 0.5057782 -0.20387736 -0.18225646 0.2676229
-0.7209648 0.584667 0.36956716 -0.020283507 -0.70766556 0.2972092 -0.4207112 -0.20309898
0.13907653 -0.010956425 -0.4703528 -0.3567259 -0.003916671 0.14504582 -0.77990663 0.07344208
-0.22318798 -0.19196646 -0.37738466 0.25271416 0.11738061 -0.43175125 -0.9154478 0.44569787
-0.046079546 0.2599443 -0.4319456 0.13288543 -0.54185116 -0.21082759 0.07359312 -0.35250401
-0.67232424 -0.42009723 0.19978698 0.11389286 0.22564913 0.19392918 -0.0049313735 0.22838917
0.08220966 0.31366292 -0.08094369 0.66635936 0.06303836 0.15539406 0.11769302 -0.11308107
0.1901569 -0.19785397 0.25327176 -0.52355736 0.2810211 0.76549894 0.6665901 0.033350036
-0.060433537 0.41065985 0.31077448 0.038235478 0.0003894546 0.048258558 0.7686652 0.35873088
-0.490483 0.22216195 0.17281379 0.28860882 0.47882083 -0.05024277 0.6229502 0.09971159
0.82213694 -0.27084574 -0.13274167 0.2933546 0.013825358 -0.7592332 0.13526073 -0.023234801
-0.6673147 -0.2974129 -0.28024524 -0.14318353 -0.5816547 -0.38776454 0.5509702 0.2899488
0.2979321 0.013993457 -0.31066233 -0.3760423 -0.58605456 0.4163251 -0.33337808 0.5042773
-0.6649995 0.060274716 -0.27745682 -0.54077893 -0.40764293 -0.13152127 0.28265783 0.28275156
-0.92846555 0.06289094 0.3437194 -0.015086353 0.21746683 0.42667496 -0.0870985 -0.45230427
-0.15301992 0.2524695 0.04574942 0.2809864 -0.10719582 -0.03343493 0.3751833 0.19931293
0.39900982 0.075742885 0.7199924 0.056333106 0.7189116 0.17325877 1.1942464 -0.61886936
-0.12311298 -0.19679779 -0.905163 0.7102053 0.09050774 -0.027598202 0.6525897 0.049066447
-0.5834717 -0.36149552 -0.12707686 0.12604408 0.5121585 -0.6768923 -0.066191666 -0.860759
0.008749348 0.46055636 -0.11735291 1.0826473 0.45310095 1.0733392 -0.21668759 -0.28975597
0.06119516 -0.040693004 -0.25690007 -0.21002941 -0.4366682 -0.49983335 -0.4637223 0.49507177
-0.00696639 -0.09043024 -0.7097801 -0.22020438 0.07768437 0.52535295 -0.38157278 1.0001991
0.09342192 0.13256319 -0.08668459 0.56077194 0.1501623 0.16514142 0.27291533 0.38336545
0.069097936 0.42306653 -0.34840855 0.2328397 0.03940871 -0.14606665 -0.10407238 -0.6656322
-0.19150907 0.260466 0.65177757 -0.008621356 0.0689649 -0.3177185 0.3918429 -0.60081685
0.53009355 -0.23220775 -0.1794362 -0.5939445 -0.37703443 0.028850885 -0.11046946 -0.3111071
-0.41874573 -0.48438218 -0.6916417 -0.0449457 0.30226988 -0.16990612 -0.28292465 0.6748257
0.20444794 -0.12525289 -0.11357585 -0.05171613 0.63742465 0.115842886 -0.30827206 0.24818483
-0.4702514 0.5123935 -0.013797613 -0.31861177 0.33237308 -0.5971741 0.76783407 0.3187959
-0.6223825 0.10574178 0.19289328 -0.36944488 -0.076976486 -0.4028143 -0.40214795 0.3625606
0.069080494 0.7723528 0.39613962 -0.3157719 -0.34979475 -0.56908864 -0.6702 -0.08665142
0.28719836 0.043666515 -0.17686759 0.13636374 0.48371923 -0.2921895 0.1893229 0.41337264
00000000: ee66 293e aee5 ae3e 4f67 8e3e f4f7 533f
00000010: ae7a 013f 3ac5 50be 70a1 3abe de05 893e
00000020: 2691 38bf bdac 153f e837 bd3e 9929 a6bc
00000030: 9229 35bf ce2b 983e 7567 d7be 2ef9 4fbe
00000040: 146a 0e3e 9482 33bc 15d2 f0be c7a4 b6be
00000050: 6b57 80bb e486 143e f6a7 47bf cd68 963d
00000060: 648b 64be db92 44be 9038 c1be c063 813e
00000070: 3f65 f03d 800e ddbe c95a 6abf 8332 e43e
00000080: e8bd 3cbd 6b17 853e f927 ddbe 1e13 083e
00000090: c2b6 0abf 30e3 57be fdb7 963d 687b b4be
000000a0: 711d 2cbf fc16 d7be f594 4c3e a940 e93d
000000b0: 9110 673e 5f95 463e 5c97 a1bb dade 693e
000000c0: 8a5d a83d 6d98 a03e cec5 a5bd 8796 2a3f
000000d0: 411a 813d 9f1f 1f3e 0a09 f13d 0c97 e7bd
000000e0: 7eb8 423e 3b9a 4abe d6ac 813e db07 06bf
000000f0: ffe1 8f3e bdf7 433f a6a5 2a3f 0c9a 083d
00000100: 2889 77bd 0242 d23e d51d 9f3e ce9c 1c3d
00000110: b62f cc39 c4aa 453d 3ec7 443f 93ab b73e
00000120: 9620 fbbe 6c7e 633e 19f6 303e 89c4 933e
00000130: 0128 f53e 5dcb 4dbd aa79 1f3f 9735 cc3d
00000140: 9177 523f 4bac 8abe 6fed 07be 9332 963e
00000150: c183 623c 1b5d 42bf ca81 0a3e e956 bebc
00000160: 23d5 2abf 8146 98be 4e7c 8fbe b49e 12be
00000170: 53e7 14bf 1389 c6be 620c 0d3f 2b74 943e
00000180: 8e8a 983e d044 653c 220f 9fbe 9e88 c0be
00000190: ac07 16bf 9028 d53e 88b0 aabe 5118 013f
000001a0: 683d 2abf 9fe2 763d d20e 8ebe 7d70 0abf
000001b0: 93b6 d0be 83ad 06be 87b8 903e d0c4 903e
000001c0: ebaf 6dbf f7cc 803d fdfb af3e c02c 77bc
000001d0: a0af 5e3e 2475 da3e b360 b2bd 6d94 e7be
000001e0: 41b1 1cbe af43 813e be63 3b3d 73dd 8f3e
000001f0: 7b89 dbbd 11f3 08bd 0718 c03e b018 4c3e
00000200: 044b cc3e 161f 9b3d 6c51 383f 8bbd 663d
00000210: 970a 383f bf6a 313e 11dd 983f 396e 1ebf
00000220: a822 fcbd 5c85 49be c3b8 67bf 04d0 353f
00000230: 1f5c b93d a015 e2bc 1e10 273f e6f9 483d
00000240: 675e 15bf f115 b9be 7020 02be b311 013e
00000250: d21c 033f d048 2dbf 7f8f 87bd b45a 5cbf
00000260: 6d59 0f3c 0bce eb3e b956 f0bd 3094 8a3f
00000270: d9fc e73e 2e63 893f 5ae3 5dbe e55a 94be
00000280: c7a7 7a3d b5ad 26bd 6888 83be f311 57be
00000290: f992 dfbe 28ea ffbe 026d edbe 0c7a fd3e
000002a0: 5146 e4bb 7d33 b9bd 26b4 35bf 427d 61be
000002b0: fc18 9f3d 887d 063f 825d c3be 8606 803f
000002c0: fe53 bf3d a5be 073e b187 b1bd c08e 0f3f
000002d0: 25c4 193e d51a 293e 8fbb 8b3e 7a48 c43e
000002e0: 3883 8d3d 2d9c d83e 9b62 b2be 886d 6e3e
000002f0: 076b 213d 7f92 15be e623 d5bd df66 2abf
00000300: f41a 44be cd5b 853e e5da 263f 9740 0dbc
00000310: 783d 8d3d 00ac a2be a29f c83e 22cf 19bf
00000320: 36b4 073f dec7 6dbe 20be 37be bf0c 18bf
00000330: a80a c1be b158 ec3c d03d e2bd 6e49 9fbe
00000340: d765 d6be f100 f8be 6e0f 31bf fb18 38bd
00000350: 1ec3 9a3e dffb 2dbe 80db 90be 61c1 2c3f
00000360: cd5a 513e 4b42 00be 759a e8bd 4bd4 53bd
00000370: 432e 233f 093f ed3d d6d5 9dbe 2a24 7e3e
00000380: cbc4 f0be 382c 033f 620f 62bc 1521 a3be
00000390: ce2c aa3e 67e0 18bf c690 443f 3739 a33e
000003a0: 7654 1fbf 258f d83d d185 453e e127 bdbe
000003b0: d9a5 9dbd ad3d cebe 56e6 cdbe 8ba1 b93e
000003c0: 137a 8d3d eab8 453f d0d2 ca3e dbac a1be
000003d0: 4c18 b3be cbaf 11bf 3a92 2bbf 4d76 b1bd
000003e0: aa0b 933e a9db 323d c71c 35be f0a2 0b3e
000003f0: 0caa f73e dd99 95be dddd 413e 94a5 d33e

r_cell.w_ks.bias f4 [24]
-0.26435313 -0.25780728 -0.16604367 0.04390351 0.21452379 0.11507705 0.069428355 -0.10297806
-0.116048425 0.030485135 0.2365597 0.15655218 0.050867714 -0.08620628 0.054055896 0.044925913
-0.07291464 -0.018646384 0.12849537 -0.16681929 -0.05550984 -0.053135175 -0.09330159 -0.20127755
00000000: 4b59 87be 51ff 83be 5a07 2abe 2bd4 333d
00000010: 20ac 5b3e 84ad eb3d 7430 8e3d 29e6 d2bd
00000020: ccaa edbd f6bb f93c b53c 723e 374f 203e
00000030: aa5a 503d eb8c b0bd b769 5d3d 3c04 383d
00000040: 4554 95bd 4dc0 98bc 4a94 033e add2 2abe
00000050: 495e 63bd 45a4 59bd e714 bfbd b41b 4ebe

r_cell.w_vs.weight f4 [24, 24]
-0.5212541 -0.21851403 0.05789415 0.18500178 -0.051772982 -0.4332539 -0.23318022 0.35100782
0.12267248 0.16889106 0.10764926 -0.17088321 0.18060616 0.30300125 -0.035805963 0.25495833
0.38247737 0.1587554 0.094551705 0.17926899 0.28632382 0.21205315 -0.1887618 0.23189731
-0.09101443 -2.376712e-06 -0.053801853 0.06900111 0.4355434 -0.34801966 -0.041915655 0.18591821
0.02472243 0.47777465 -0.2184821 0.07100119 -0.18314582 -0.0052673398 -0.031844016 0.034623664
0.36456487 0.052874845 0.45005566 0.2153196 0.30802006 0.38026342 -0.16495976 -0.24254802
-0.20648904 -0.0004928973 0.34498397 -0.04797856 -0.027560491 0.041906666 -0.27765527 0.18312843
0.07996713 -0.1570884 0.15838803 -0.07008858 -0.010309689 0.31502444 -0.1152594 0.09260757
-0.11933217 0.13399287 0.28605688 0.11044806 -0.18064708 -0.20703149 0.0030162039 -0.17664689
-0.050663467 0.12326306 0.116001986 -0.36883208 0.18481408 -0.42828223 0.052273527 0.02320021
0.09911879 -0.11264084 0.19716446 0.12062977 0.14339693 -0.019890016 0.69117945 -0.22450955
0.086057425 0.14682578 -0.41681767 0.24235183 -0.35216376 0.18157125 -0.10987825 -0.21710755
-0.09430652 -0.06704991 0.053380124 -0.024932064 -0.07392655 0.11813113 -0.06995164 0.32945907
0.22183938 0.21380548 0.2703185 -0.13566191 0.14961049 -0.010590309 0.20597607 -0.43485385
0.20709972 -0.064899996 0.51213795 -0.1455812 0.00010790213 -0.036279444 0.27942124 0.09171349
-0.157785 -0.113323845 -0.31034538 0.20817114 0.50141567 0.12311432 -0.37156913 -0.20697765
0.01646861 0.47736967 -0.08973542 -0.2776597 -0.38890225 -0.07688541 -0.209522 0.4963934
0.19558927 -0.2992282 0.18586686 0.3744804 0.051564932 0.25785288 0.2349477 0.3069349
-0.28466848 -0.007775863 -0.059086252 -0.27450463 0.09497214 0.20362721 0.0091832485 0.34844714
0.28666377 0.06289112 0.4920664 0.23990881 0.5532131 0.3043774 -0.21464269 0.18542609
-0.27379104 0.56651115 0.4000686 0.1836086 0.29301473 0.06667159 0.14699446 0.10965954
0.24764912 -0.103531815 -0.28159207 0.14916436 -0.28292924 0.0060322178 0.06999449 -0.43823668
-0.038206168 -0.11344718 0.019526359 -0.07033679 -0.06995768 -0.10110485 0.02311415 -0.25984183
-0.021897633 -0.08562764 -0.11163514 -0.45526698 -0.086432084 -0.1734457 0.03099408 0.09832496
0.05244048 -0.08484238 0.36623567 -0.25033143 0.43923372 -0.058464468 0.12572017 -0.19103324
0.057748433 -0.11182078 -0.2442973 0.046130583 0.1467782 -0.1005648 0.17112982 0.14454931
-0.13478011 0.070633195 0.66146797 -0.04517954 0.009387945 0.34945714 0.022765217 -0.06532992
0.15800655 -0.03734896 -0.21672808 0.026464805 0.29326987 0.2280224 0.053424943 0.13466814
-0.016808435 -0.19048534 0.24030426 0.013934813 0.05610594 0.28303692 0.29552424 -0.14737985
0.3527307 -0.11462185 -0.3466733 0.22204086 -0.046907727 -0.28321832 -0.09069937 -0.23153438
0.0433236 -0.008633192 0.08391525 -0.08625554 -0.017516227 -0.15069643 -0.20646806 0.3603044
-0.3291159 -0.05972522 -0.48879758 0.33539873 0.53544587 -0.06816864 0.08861352 -0.029567635
00000000: e970 05bf 24c2 5fbe 6b22 6d3d 1b71 3d3e
00000010: e80f 54bd 75d3 ddbe ccc6 6ebe 4cb7 b33e
00000020: b63b fb3d c7f1 2c3e 3777 dc3d 02fc 2ebe
00000030: d2f0 383e fb22 9b3e 46a9 12bd e689 823e
00000040: 13d4 c33e c790 223e 53a4 c13d 4a92 373e
00000050: 0999 923e 7624 593e c64a 41be 7d76 6d3e
00000060: c665 babd 9a7f 1fb6 555f 5cbd 7450 8d3d
00000070: 8bff de3e a22f b2be c0af 2bbd 5861 3e3e
00000080: b286 ca3c e19e f43e c6b9 5fbe 1269 913d
00000090: 948a 3bbe a699 acbb df6e 02bd 8bd1 0d3d
000000a0: 3fa8 ba3e 4b93 583d b26d e63e be7c 5c3e
000000b0: ceb4 9d3e e3b1 c23e 36eb 28be 825e 78be
000000c0: dd71 53be c735 01ba bda1 b03e 2b85 44bd
000000d0: 8ac6 e1bc 53a6 2b3d d528 8ebe 0586 3b3e
000000e0: cfc5 a33d c8db 20be 7930 223e 9a8a 8fbd
000000f0: f8e9 28bc e24a a13e 1f0d ecbd 0aa9 bd3d
00000100: 6d64 f4bd 6d35 093e 0c76 923e 9832 e23d
00000110: 8cfb 38be 1000 54be 81ab 453b ece2 34be
00000120: 7f84 4fbd 5871 fc3d 7392 ed3d 8fd7 bcbe
00000130: e73f 3d3e cf47 dbbe c41c 563d 5e0e be3c
00000140: cbfe ca3d 3eb0 e6bd 7be5 493e be0c f73d
00000150: a5d6 123e 63f0 a2bc 23f1 303f d5e5 65be
00000160: e03e b03d 7f59 163e 2069 d5be 142b 783e
00000170: cf4e b4be d0ed 393e d907 e1bd 7151 5ebe
00000180: c723 c1bd 7751 89bd 1ea5 5a3d 543e ccbc
00000190: ce66 97bd bcee f13d ce42 8fbd dcae a83e
000001a0: dd29 633e d3ef 5a3e 3067 8a3e f5ea 0abe
000001b0: 7e33 193e fa82 2dbc 64eb 523e 2aa5 debe
000001c0: f311 543e 4aea 84bd 791b 033f 3d13 15be
000001d0: 8449 e238 c199 14bd 4d10 8f3e 48d4 bb3d
000001e0: 6492 21be 5516 e8bd 97e5 9ebe d12a 553e
000001f0: c75c 003f 5c23 fc3d 4f3e bebe f3f1 53be
00000200: 2ee9 863c cc69 f43e 34c7 b7bd 6a29 8ebe
00000210: 321e c7be 1976 9dbd ef8c 56be 4727 fe3e
00000220: 8e48 483e 7034 99be e253 3e3e e5bb bf3e
00000230: c035 533d 4b05 843e 2196 703e 9226 9d3e
00000240: 11c0 91be abcc febb 6d04 72bd df8b 8cbe
00000250: c180 c23d a783 503e 5675 163c aa67 b23e
00000260: 98c5 923e 0fcd 803d 21f0 fb3e a8aa 753e
00000270: 609f 0d3f 5bd7 9b3e 4bcb 5bbe 56e0 3d3e
00000280: 572e 8cbe e006 113f cbd5 cc3e e503 3c3e
00000290: 0706 963e 1d8b 883d b785 163e 2e95 e03d
000002a0: bb97 7d3e 7d08 d4bd d62c 90be 8bbe 183e
000002b0: 1adc 90be e9a9 c53b 4559 8f3d 8f60 e0be
000002c0: 127e 1cbd ff56 e8bd bef5 9f3c bc0c 90bd
000002d0: f945 8fbd 0f10 cfbd e359 bd3c fd09 85be
000002e0: aa62 b3bc 8b5d afbd f7a0 e4bd c118 e9be
000002f0: 4e03 b1bd c09b 31be 4ce7 fd3c 995e c93d
00000300: d4cb 563d d7c1 adbd 3e83 bb3e 712b 80be
00000310: 3ee3 e03e 7078 6fbd cabc 003e 389e 43be
00000320: 9f89 6c3d 4b02 e5bd 1229 7abe 6cf3 3c3d
00000330: 064d 163e ebf4 cdbd a83c 2f3e bc04 143e
00000340: cc03 0abe 23a8 903d f755 293f 2e0e 39bd
00000350: e5cf 193c 0cec b23e 1f7e ba3c b1cb 85bd
00000360: 78cc 213e 39fb 18bd f7ed 5dbe b8cc d83c
00000370: 7827 963e b47e 693e 1dd4 5a3d 72e6 093e
00000380: d8b1 89bc 970e 43be 5212 763e d84e 643c
00000390: 58cf 653d 37ea 903e f44e 973e beea 16be
000003a0: 1e99 b43e dcbe eabd 2a7f b1be ae5e 633e
000003b0: 5122 40bd fe01 91be 97c0 b9bd 5917 6dbe
000003c0: 1674 313d 3b72 0dbc c2db ab3d bfa6 b0bd
000003d0: 317e 8fbc 2a50 1abe 5d6c 53be d179 b83e
000003e0: e181 a8be 6fa2 74bd ad43 fabe 62b9 ab3e
000003f0: fb12 093f 009c 8bbd 017b b53d d337 f2bc

r_cell.w_vs.bias f4 [24]
-0.10848836 0.08910261 -0.22649936 -0.15570039 -0.03833846 -0.054484837 -0.020641016 -0.029422648
-0.16863118 0.029725814 -0.05041935 0.13085113 -0.0120929675 -0.059574366 0.015800204 -0.07083344
-0.13066201 0.057388615 0.15879174 -0.14106865 0.017056447 -0.046644956 0.07768242 -0.1302847
00000000: 252f debd 6e7b b63d 73ef 67be ec6f 1fbe
00000010: ca08 1dbd 7e2b 5fbd 5917 a9bc c407 f1bc
00000020: a7ad 2cbe 8d83 f33c 8584 4ebd d7fd 053e
00000030: 9521 46bc 4004 74bd 6e6f 813c 1f11 91bd
00000040: 43cc 05be 5310 6b3d 4d9a 223e 4d74 10be
00000050: f6b9 8b3c c80e 3fbd f617 9f3d 5a69 05be

r_cell.layer_norm.weight f4 [24]
1.1103911 1.0110002 1.090818 1.0073655 0.9721769 1.0289695 1.1179473 1.030657
1.0860852 0.76745784 1.2137666 0.8206096 1.0127431 1.178314 1.0619233 1.0609846
1.0277703 0.91428506 1.1368816 0.8606157 0.98623246 0.9932157 1.0814861 0.9718298
00000000: 4c21 8e3f 7468 813f ed9f 8b3f 5af1 803f
00000010: 96e0 783f 46b5 833f e618 8f3f 92ec 833f
00000020: d704 8b3f 1e78 443f b45c 9b3f 7913 523f
00000030: 91a1 813f fed2 963f 1aed 873f 58ce 873f
00000040: fa8d 833f 960e 6a3f 5685 913f 4f51 5c3f
00000050: bb79 7c3f 6243 7e3f 236e 8a3f d6c9 783f

r_cell.layer_norm.bias f4 [24]
-0.03110912 -0.08270752 0.1057192 -0.027842794 0.06701218 -0.15369543 -0.06145563 -0.024688255
-0.00087435567 -0.09959042 -0.07049577 -0.10195935 0.020479623 -0.014470425 -0.0013848018 -0.03212688
0.023496605 -0.0834331 0.0250647 -0.0156739 -0.0542943 -0.10227742 -0.11431749 0.05734964
00000000: 8ed8 febc 8f62 a9bd 4f83 d83d 9216 e4bc
00000010: af3d 893d 5662 1dbe e6b8 7bbd 063f cabc
00000020: 0435 65ba 10f6 cbbd 1660 90bd 10d0 d0bd
00000030: e2c4 a73c 5d15 6dbc 3d82 b5ba 7a97 03bd
00000040: f47b c03c f9de aabd 7c54 cd3c 8d66 80bc
00000050: b363 5ebd d376 d1bd 4a1f eabd 75e7 6a3d

r_cell.fc.weight f4 [24, 24]
0.049076308 0.37275067 0.1754086 0.045101274 3.6603393e-05 0.05459346 -0.10282425 0.14913656
0.08146654 0.16501425 -0.21625085 0.03655575 0.068353705 0.219425 0.15200385 -0.13137946
-0.14288281 0.15917474 0.014311455 0.27432978 0.12327363 0.00047330264 -0.29040638 -0.16609126
-0.10228095 -0.015729839 -0.024763564 0.03655956 0.00076529663 0.33647504 0.089250684 0.022568645
0.34928045 -0.19031654 -0.11993555 -0.025162423 0.10160215 -0.0045293607 0.15689643 -0.01974668
-0.29929933 -0.10656544 0.039245464 -0.13233528 0.030974682 0.25872523 0.232527 0.45992243
0.014157377 0.03530026 0.12717716 0.08193852 0.05344656 -0.053741824 0.028031738 0.08669776
0.081281595 -0.0443353 -0.17476323 -0.088793725 -0.08655102 0.105762884 -0.11189243 -0.109098844
-0.104792625 -0.24192187 0.0671203 -0.030993577 -0.080024965 -0.105955444 -0.05451626 -0.024565186
-0.14822114 0.10493926 -0.043943774 -0.06880624 -0.07617586 0.21579856 0.3832967 0.12091678
0.16662614 0.13105902 -0.03759956 0.124552146 -0.04016503 0.16155039 -0.18438053 0.07553671
-0.017533354 -0.19946685 -0.050316248 -0.007330088 -0.04223228 0.052203782 -0.2756672 -0.2613069
0.13581473 0.059046295 -0.32691985 -0.060516085 -0.016971292 0.2522739 0.22630529 -0.17593797
-0.15696228 0.06679369 0.06664309 -0.020706272 0.03892505 0.16610467 0.013989793 0.21803486
-0.010485005 0.08159983 -0.04610901 -0.29709953 0.04335037 0.11594235 -0.21549731 0.17708382
-0.07101856 -0.14989728 -0.001255044 -0.055274658 -0.1347103 -0.23925334 -0.20800708 0.14918153
-0.07836688 -0.06704743 0.19323523 -0.055534646 0.072208926 -0.19221626 0.36328512 -0.47059458
-0.14522293 0.1579571 0.08426368 0.13732705 0.122174665 -0.011920011 0.093864575 0.07021365
0.024743713 0.09360645 -0.070344396 -0.34566113 -0.046766687 -0.18106037 0.016175326 -0.012344802
0.0220772 0.10964071 0.35218322 -0.021067923 -0.04951452 0.053309698 0.05737059 0.05677792
0.04062276 0.24501655 -0.15354162 0.100523226 0.042783473 0.24585555 0.22138926 0.011236481
-0.12149151 0.26911458 0.14643264 0.12079403 -0.10274771 -0.0353126 0.054445025 0.038975593
0.09845921 -0.2392372 0.010724051 0.25769323 0.017454982 0.23595613 -0.00354445 0.067629874
-0.05825607 -0.21813788 0.2425357 0.3030263 0.084475234 0.048340444 -0.15737957 -0.058000498
0.063087165 0.32916093 0.16460672 -0.09689856 0.19855066 -0.20617867 -0.3553781 0.13292052
0.08337384 -0.011612053 0.0023497825 -0.03183317 -0.016700763 0.31070155 0.009720213 -0.26741174
-0.026916748 -0.07781971 0.09196232 0.08808909 -0.09569249 0.096642606 -0.08312077 -0.07942303
0.14055167 -0.2033 -0.43851468 -0.18979815 -0.13788761 0.012473317 0.07357638 -0.103515394
-0.087407574 -0.007976327 0.27245072 0.10000175 -0.045934226 -0.027257778 -0.29122105 -0.11833505
-0.11777268 0.04471844 0.08099792 -0.03765291 0.09669499 -0.3062224 -0.5974736 -0.3738326
0.038454182 -0.15231365 -0.3106197 0.031162778 -0.11143783 -0.043753956 0.08423567 0.060935654
0.09202485 0.1177716 -0.05311525 -0.06707913 -0.21194665 0.13884419 -0.09383386 0.006124199
00000000: 3d04 493d 2dd9 be3e 509e 333e 1dbc 383d
00000010: 9886 1938 649d 5f3d 8595 d2bd 41b7 183e
00000020: eed7 a63d 7ff9 283e dd70 5dbe 7bbb 153d
00000030: 07fd 8b3d f2b0 603e e6a6 1b3e 5688 06be
00000040: df4f 12be b4fe 223e 987a 6a3c f474 8c3e
00000050: e376 fc3d 9b25 f839 25b0 94be d413 2abe
00000060: ad78 d1bd dddb 80bc f5dc cabc 7abf 153d
00000070: 309e 483a 7546 ac3e 10c9 b63d e1e1 b83c
00000080: e3d4 b23e 57e2 42be c5a0 f5bd 6d21 cebc
00000090: ca14 d03d 086b 94bb 75a9 203e cac3 a1bc
000000a0: c33d 99be fb3e dabd dabf 203d e682 07be
000000b0: 9ebe fd3c a277 843e 8f1b 6e3e f47a eb3e
000000c0: 58f4 673c 0197 103d bb3a 023e 62cf a73d
000000d0: c8ea 5a3d 6320 5cbd d1a2 e53c 988e b13d
000000e0: f776 a63d ee98 35bd 22f5 32be 7cd9 b5bd
000000f0: a941 b1bd 369a d83d dc27 e5bd 376f dfbd
00000100: 849d d6bd 5eba 77be 5e76 893d 3ee6 fdbc
00000110: 21e4 a3bd 2bff d8bd 714c 5fbd ee3c c9bc
00000120: 48c7 17be 65ea d63d 63fe 33bd 49ea 8cbd
00000130: 1702 9cbd 4cfa 5c3e 773f c43e 37a3 f73d
00000140: 0ba0 2a3e 5634 063e ff01 1abd 3215 ff3d
00000150: 1684 24bd 776d 253e 40ce 3cbe feb2 9a3d
00000160: 1ca2 8fbc 0a41 4cbe 6918 4ebd 3c31 f0bb
00000170: c1fb 2cbd a2d3 553d 4024 8dbe 05ca 85be
00000180: 0413 0b3e 87da 713d 0a62 a7be b7df 77bd
00000190: 6107 8bbc 0b2a 813e 93bc 673e 1529 34be
000001a0: b8ba 20be 21cb 883d 2c7c 883d 33a0 a9bc
000001b0: e06f 1f3d 5817 2a3e 7235 653c 8844 5f3e
000001c0: 4cc9 2bbc d01d a73d cddc 3cbd 6e1d 98be
000001d0: 2890 313d 2f73 ed3d 54ab 5cbe 7655 353e
000001e0: 2e72 91bd ac7e 19be 4a80 a4ba ae67 62bd
000001f0: 7ff1 09be d4fe 74be cfff 54be 0bc3 183e
00000200: d17e a0bd 2a50 89bd 75df 453e 4c78 63bd
00000210: 46e2 933d 57d4 44be 8200 ba3e c6f1 f0be
00000220: 52b5 14be 82bf 213e 7092 ac3d 769f 0c3e
00000230: b636 fa3d 264c 43bc 123c c03d 2dcc 8f3d
00000240: 54b3 ca3c bdb4 bf3d b910 90bd 7ffa b0be
00000250: 6d8e 3fbd e467 39be 1e82 843c da41 4abc
00000260: 3edb b43c 4f8b e03d 5c51 b43e a396 acbc
00000270: bdcf 4abd 455b 5a3d 6cfd 6a3d f78f 683d
00000280: 0d64 263d 9ee5 7a3e 043a 1dbe 1fdf cd3d
00000290: b93d 2f3d 8fc1 7b3e deb3 623e 3819 383c
000002a0: 8ad0 f8bd 63c9 893e 70f2 153e dc62 f73d
000002b0: 646d d2bd f2a3 10bd bf01 5f3d dfa4 1f3d
000002c0: fba4 c93d 99fa 74be eeb3 2f3c 5ef0 833e
000002d0: c0fd 8e3c 7c9e 713e 014a 68bb 8881 8a3d
000002e0: eb9d 6ebd 895f 5fbe 475b 783e 4326 9b3e
000002f0: 5a01 ad3d a100 463d 1c28 21be ee91 6dbd
00000300: d833 813d c887 a83e aa8e 283e c172 c6bd
00000310: dd50 4b3e 8020 53be 1ef4 b5be 511c 083e
00000320: e7bf aa3d 7b40 3ebc cffe 193b 8063 02bd
00000330: 0ad0 88bc 4614 9f3e 8741 1f3c 31ea 88be
00000340: 8380 dcbc f15f 9fbd be56 bc3d 0e68 b43d
00000350: 6dfa c3bd 8fec c53d 393b aabd 8ba8 a2bd
00000360: c7ec 0f3e e02d 50be ff84 e0be 725a 42be
00000370: 6932 0dbe e25c 4c3c 37af 963d e1ff d3bd
00000380: be02 b3bd 24af 02bc a97e 8b3e b8cd cc3d
00000390: 8725 3cbd b44b dfbc ed1a 95be a659 f2bd
000003a0: ce32 f1bd af2a 373d 3de2 a53d f039 1abd
000003b0: 0608 c63d 2fc9 9cbe 08f4 18bf fd66 bfbe
000003c0: 2282 1d3d 1cf8 1bbe 8c09 9fbe 1549 ff3c
000003d0: 8439 e4bd 5937 33bd c083 ac3d aa97 793d
000003e0: 8677 bc3d 3d32 f13d 608f 59bd c860 89bd
000003f0: 8b08 59be 2c2d 0e3e f72b c0bd 81ad c83b

r_cell.fc.bias f4 [24]
0.010982599 0.02003852 0.059886377 -0.11169063 -0.0010840208 -0.048088994 -0.11799648 0.021392178
0.05514006 -0.09332952 -0.057860646 0.0011065487 -0.031509344 0.08939878 0.074291855 -0.0037177952
0.03102365 0.085227676 0.09053199 -0.106087245 -0.057604127 -0.11186053 -0.09079702 0.008554334
00000000: 5cf0 333c d327 a43c 6b4b 753d 0fbe e4bd
00000010: b415 8eba f7f8 44bd 23a8 f1bd a63e af3c
00000020: 8bda 613d 8c23 bfbd 49ff 6cbd 9d09 913a
00000030: f10f 01bd b516 b73d 5426 983d 41a6 73bb
00000040: 4f25 fe3c d98b ae3d d668 b93d 4544 d9bd
00000050: 4ef2 6bbd 2217 e5bd caf3 b9bd 7a27 0c3c

fc1.0.bias f4 [24]
-0.24411793 0.1250208 -0.24818534 -0.01495158 0.093236044 0.29001096 0.10823821 -0.1728493
0.25687546 -0.30687627 0.053538848 0.153571 0.14622419 -0.2585205 -0.01661545 -0.31762877
0.13318567 0.19963677 -0.101582795 0.175254 0.08098733 0.16776605 -0.10029745 0.2796722
00000000: 0dfa 79be 7405 003e 4c24 7ebe 79f7 74bc
00000010: 8af2 be3d 517c 943e ffab dd3d 68ff 30be
00000020: 2e85 833e e31e 9dbe 8d4b 5b3d b741 1d3e
00000030: cbbb 153e cd5c 84be 201d 88bc 3da0 a2be
00000040: d361 083e 956d 4c3e a40a d0bd c975 333e
00000050: afdc a53d ddca 2b3e c068 cdbd 3231 8f3e

fc1.0.weight_orig f4 [24, 6]
-0.01095405 -0.036534995 -0.1912947 -0.28110284 0.44850683 0.5302996 0.2960326 -0.017195458
0.15720807 0.39429203 0.12300315 -0.5225579 -0.14873904 -0.006107394 0.15745218 -0.19320942
0.3262048 -0.25444472 0.23581058 -0.31893125 0.056523245 0.2817215 0.01725146 0.5193192
0.4928055 0.5352863 -0.19994205 -0.3048019 0.31839368 -0.051695686 -0.18911125 0.29561886
0.46632916 -0.22915775 0.29213977 0.5511669 -0.18106472 0.1366135 0.5137667 0.17593774
0.13736689 -0.12503584 -0.0849776 -0.23850943 -0.045874845 0.1649036 0.45995504 0.1955904
0.059674222 0.33939296 0.04122514 -0.21051927 0.38739356 0.47411597 -0.24476086 0.43741524
-0.009927558 -0.053181767 -0.26317185 0.010699063 0.029875388 0.32494196 0.20099276 0.024517072
0.13054894 -0.35217875 0.26475856 -0.13881566 0.24549992 -0.2720568 0.55372256 0.40744355
0.13917688 -0.06851543 0.6139146 0.14372078 0.18870048 -0.012693544 -0.07881022 0.2304417
-0.083754465 0.29472402 -0.22284196 0.22950095 -0.08854148 0.2719198 0.17461865 0.15078701
-0.20155615 0.47236267 0.2722593 0.054651376 -0.0061166417 -0.19654322 -0.33807164 0.07265775
0.16119659 -0.25400117 -0.032044724 0.20519388 0.5194519 0.17093144 -0.19935316 0.17737558
0.20153508 0.46697268 0.26520982 -0.3887877 0.43891484 -0.077293426 -0.2910519 0.15535028
-0.13644724 -0.21808307 -0.14952971 0.30376416 0.2648639 0.4934547 -0.042173754 0.068613574
-0.11179581 0.317407 0.40124327 0.5045212 -0.18830179 0.43396506 0.54189026 0.4980663
-0.0381658 -0.30628946 0.1428672 -0.124450885 -0.21268843 -0.1633526 -0.06338131 0.46803877
-0.03862923 -0.4523526 0.31655768 0.17631452 -0.23759829 0.49386388 0.3096064 0.2102404
00000000: 9e78 33bc b8a5 15bd c2e2 43be b6ec 8fbe
00000010: b0a2 e53e b7c1 073f 9691 973e 7ddd 8cbc
00000020: 27fb 203e a5e0 c93e 13e9 fb3d 5bc6 05bf
00000030: 0c4f 18be 8920 c8bb 253b 213e b1d8 45be
00000040: 5104 a73e 9446 82be 5478 713e f54a a3be
00000050: eb84 673d cd3d 903e ef52 8d3c 1af2 043f
00000060: 0151 fc3e 8608 093f 9cbd 4cbe ff0e 9cbe
00000070: 7f04 a33e dbbe 53bd 61a6 41be 5b5b 973e
00000080: b2c2 ee3e 54a8 6abe 5893 953e 4619 0d3f
00000090: 0869 39be 69e4 0b3e 3786 033f 0629 343e
000000a0: e8a9 0c3e 6509 00be bc08 aebd d13b 74be
000000b0: 43e7 3bbd 7ddc 283e 3a7f eb3e da48 483e
000000c0: f56c 743d eac4 ad3e b1db 283d 5d92 57be
000000d0: 7358 c63e 54bf f23e 97a2 7abe e4f4 df3e
000000e0: 32a7 22bc 20d5 59bd 76be 86be 1f4b 2f3c
000000f0: 3bbd f43c cb5e a63e 0cd1 4d3e 07d8 c83c
00000100: 9fae 053e c650 b4be 6f8e 873e b125 0ebe
00000110: 5564 7b3e 074b 8bbe c3c0 0d3f 719c d03e
00000120: 6284 0e3e d151 8cbd 8229 1d3f 8a2b 133e
00000130: b33a 413e 95f8 4fbc 4167 a1bd e9f8 6b3e
00000140: 7687 abbd 11e6 963e af30 64be 4c02 6b3e
00000150: 3c55 b5bd 1239 8b3e 3bcf 323e e967 1a3e
00000160: bc64 4ebe 85d9 f13e 9265 8b3e 1fda 5f3d
00000170: 1c6e c8bb a042 49be ba17 adbe 96cd 943d
00000180: b810 253e 710c 82be 5441 03bd 581e 523e
00000190: cdfa 043f a708 2f3e 3c23 4cbe f2a1 353e
000001a0: 365f 4e3e 0b17 ef3e 95c9 873e 2e0f c7be
000001b0: 72b9 e03e 044c 9ebd c104 95be 2514 1f3e
000001c0: d3b8 0bbe 2b51 5fbe 511e 19be fa86 9b3e
000001d0: 3e9c 873e 18a6 fc3e 63be 2cbd 4685 8c3d
000001e0: 34f5 e4bd 2c83 a23e c26f cd3e 4d28 013f
000001f0: 2fd2 40be ab30 de3e 52b9 0a3f 8c02 ff3e
00000200: be53 1cbd f9d1 9cbe c74b 123e 1be0 febd
00000210: ffca 59be e745 27be 0fce 81bd c7a2 ef3e
00000220: af39 1ebd c39a e7be d913 a23e cb8b 343e
00000230: f74c 73be badb fc3e bb84 9e3e 4249 573e

fc1.0.weight_u f4 [24]
-0.38289326 0.23978083 -0.0091386065 -0.16565938 -0.1968471 -0.3901839 0.030613909 -0.13636184
-0.37911293 0.03709447 0.081817105 -0.39531434 -0.053633407 0.011830403 -0.1439225 -0.013762757
-0.15350834 0.1864512 0.1439225 0.056299888 -0.07243379 -0.13204147 0.33455905 -0.095048256
00000000: 960a c4be 1b89 753e 18ba 15bc 9da2 29be
00000010: 4992 49be 2fc6 c7be 05ca fa3c 70a2 0bbe
00000020: 171b c2be 5ff0 173d ba8f a73d a466 cabe
00000030: b4ae 5bbd 4ed4 413c 6b60 13be 307d 61bc
00000040: 4a31 1dbe 10ed 3e3e 6b60 133e b69a 663d
00000050: 2b58 94bd e135 07be 534b ab3e a9a8 c2bd

fc1.0.weight_v f4 [6]
-0.1576037 -0.14815018 -0.10128772 0.37219864 -0.4575504 -0.7714073
00000000: dd62 21be aeb4 17be f06f cfbd d290 be3e
00000010: 0c44 eabe f37a 45bf

fc1.1.weight f4 [24, 24]
-0.25387794 -0.02677423 0.17963038 0.7161275 -0.1737074 1.187778 0.14579897 0.34322244
-0.78709847 0.46655473 -0.29647693 -1.092274 0.14896904 0.52159446 0.18730071 0.52639794
-0.51857 -0.5382396 0.5546248 0.12017845 -0.2828177 -0.049655072 -0.25134733 -0.89183533
0.5683462 -0.5535272 -0.3862424 -0.23614652 -1.7450147 -1.8246907 -0.08481185 -0.024713455
1.0260481 0.07547292 0.33187202 0.8383937 -0.6279261 0.03638877 -0.27224883 -0.09138172
0.61283803 -0.47342494 -0.22585724 -0.5608272 0.27609304 -0.18642701 0.22737075 0.9071914
0.50371385 -0.19261055 -1.9398208 -0.39350602 0.61302483 -1.9456776 -0.5813011 0.21488845
0.7556899 1.0256681 0.27664137 2.6899128 0.64561826 0.276782 -0.29314595 0.92481947
0.38428748 -0.8462833 0.22834687 -1.1662583 -0.13270059 -0.33528253 -0.09822594 -1.7068557
0.15769278 -0.11781125 -0.36484534 -0.13767038 0.47505394 -1.9361502 -0.5540037 0.32257992
1.013381 0.5394694 0.31097698 2.0844872 0.3630931 -0.21508554 -0.25851133 0.25356644
0.45916042 -0.6396374 0.3510823 0.26714724 -0.26362228 -0.31042677 -0.16126305 -0.72015315
-0.6770675 0.49844176 0.19660872 0.46201906 -0.20808734 1.217651 0.76778287 0.24165812
-1.0434235 0.6754137 -0.24432448 -1.135311 -0.2515771 0.8460195 0.18087004 -1.0529822
-0.43609655 0.41678762 -0.12889817 -0.039987467 0.13287975 -0.3173469 0.09528943 1.0739611
0.5112403 -0.49694324 -1.510239 -0.9820567 -0.38024253 -1.8391018 -0.21272278 0.46362108
0.8728997 -1.193061 0.294133 0.86530817 0.26584944 -0.41426712 -0.11586026 0.8426052
0.32609856 0.19069551 -0.22613329 -0.29876173 0.20862938 -0.9156996 0.16813551 -0.5090997
-0.5016798 0.07353803 1.3704705 0.4234235 0.55562216 1.1182692 0.13728425 -0.16070563
-0.9685639 1.2741215 -0.3076228 -1.0333616 -0.40516296 0.62994975 0.2039106 -1.48122
-0.4614928 -0.16221726 -0.17857882 0.52102965 0.11865323 -0.70834124 0.12071051 0.8835723
0.3983546 -0.4022374 -0.68201494 -1.2926593 0.14666942 -1.0874884 -1.1759254 -0.14146078
0.995679 2.264464 0.21148412 2.83488 -0.3351236 0.2859092 -0.2301599 -0.63799435
0.34988236 -0.13705586 0.21072116 0.6149175 -0.18068415 0.7669615 -0.101756 0.81533724
0.45517647 -0.29737413 0.3726245 -0.85844034 -0.009831959 -1.3911586 -0.40814826 0.14686924
0.67960334 -0.716972 0.32185838 1.976043 -0.4119462 0.30162886 -0.2692317 -0.9053468
0.37711814 -0.38695967 -0.26829016 0.8636444 0.12796265 -0.6757211 0.12524094 -1.2344235
0.54584825 -0.07433757 0.7033109 -0.67589754 0.1326197 -1.2359775 -1.1254642 0.14943771
0.75789404 -0.028228376 0.28112385 2.6685982 0.5109376 -0.38426068 -0.29259974 1.55091
0.3468479 -1.122708 0.07728364 -1.0672586 -0.17074639 0.41208586 -0.14600074 -1.2183566
-0.27150154 0.7191563 0.081988566 0.45013225 0.5222019 1.5608196 -0.023715502 0.7434789
-1.3390245 -1.5681243 -0.22143637 -0.88751423 -0.046804175 -0.47319594 0.22268204 0.9859979
00000000: 4afc 81be a155 dbbc 07f1 373e 2254 373f
00000010: 5ae0 31be 1c09 983f 534c 153e daba af3e
00000020: 497f 49bf 43e0 ee3e d3cb 97be a2cf 8bbf
00000030: 578b 183e 3787 053f c2cb 3f3e 04c2 063f
00000040: 01c1 04bf 12ca 09bf e4fb 0d3f 1f20 f63d
00000050: 7bcd 90be 1e63 4bbd 99b0 80be 524f 64bf
00000060: 237f 113f f5b3 0dbf 90c1 c5be 65d0 71be
00000070: a45c dfbf 778f e9bf d6b1 adbd df73 cabc
00000080: 8b55 833f 8c91 9a3d 21eb a93e f8a0 563f
00000090: c4bf 20bf 640c 153d 3364 8bbe 5726 bbbd
000000a0: f4e2 1c3f c164 f2be 1f47 67be 5f92 0fbf
000000b0: 115c 8d3e b9e6 3ebe e1d3 683e b23d 683f
000000c0: 64f3 003f b33b 45be 0c4c f8bf 9f79 c9be
000000d0: 32ef 1c3f f70b f9bf 26d0 14bf b80b 5c3e
000000e0: e574 413f 1849 833f f0a3 8d3e 8827 2c40
000000f0: 3d47 253f 5fb6 8d3e 3a17 96be f8c0 6c3f
00000100: 54c1 c43e 06a6 58bf c3d3 693e f447 95bf
00000110: aae2 07be 27aa abbe ae2a c9bd 3f7a dabf
00000120: 377a 213e 0647 f1bd 02cd babe 77f9 0cbe
00000130: 453a f33e c5d3 f7bf 30d3 0dbf 3229 a53e
00000140: 78b6 813f ab1a 0a3f 6038 9f3e 3d68 0540
00000150: 57e7 b93e 623f 5cbe 995b 84be 76d3 813e
00000160: 1317 eb3e 47bf 23bf 0fc1 b33e 86c7 883e
00000170: 80f9 86be 42f0 9ebe 2422 25be f55b 38bf
00000180: 4c54 2dbf c233 ff3e cc53 493e c38d ec3e
00000190: d914 55be fddb 9b3f 6b8d 443f 3a75 773e
000001a0: e78e 85bf eae7 2c3f 3230 7abe df51 91bf
000001b0: b7ce 80be bc94 583f ff35 393e 1fc8 86bf
000001c0: 0c48 dfbe 3065 d53e e2fd 03be e6c9 23bd
000001d0: a111 083e 4b7b a2be 1b27 c33d 8f77 893f
000001e0: a5e0 023f 586f febe 834f c1bf 1168 7bbf
000001f0: 26af c2be b067 ebbf 00d4 59be be5f ed3e
00000200: 5b76 5f3f 39b6 98bf 9a98 963e d684 5d3f
00000210: 6b1d 883e d21a d4be 2548 edbd f9b4 573f
00000220: 64f6 a63e af45 433e 7c8f 67be 4cf7 98be
00000230: f1a2 553e 4a6b 6abf b72b 2c3e 5c54 02bf
00000240: 166e 00bf 1b9b 963d 946b af3f f7ca d83e
00000250: 413d 0e3f 7223 8f3f 3e94 0c3e 0490 24be
00000260: cef3 77bf 6a16 a33f bc80 9dbe 3145 84bf
00000270: 8571 cfbe 6344 213f f1cd 503e 9e98 bdbf
00000280: c948 ecbe 481c 26be 5edd 36be 3362 053f
00000290: 7700 f33d da55 35bf 1237 f73d cb31 623f
000002a0: 22f5 cb3e 0ff2 cdbe 8898 2ebf dc75 a5bf
000002b0: 8230 163e d232 8bbf b984 96bf 18db 10be
000002c0: d2e4 7e3f faec 1040 4b8f 583e ad6e 3540
000002d0: 5295 abbe b162 923e 09af 6bbe 9953 23bf
000002e0: c823 b33e 5f58 0cbe 4ac7 573e 3c6b 1d3f
000002f0: 4405 39be 9757 443f 7365 d0bd f1b9 503f
00000300: e40c e93e 6c41 98be a3c8 be3e bfc2 5bbf
00000310: 3a16 21bc 7c11 b2bf cff8 d0be e464 163e
00000320: 7cfa 2d3f 7a8b 37bf 9fca a43e faee fc3f
00000330: 9dea d2be 196f 9a3e bdd8 89be cfc4 67bf
00000340: a115 c13e 941f c6be 545d 89be cd17 5d3f
00000350: a408 033e 0ffc 2cbf 293f 003e 9701 9ebf
00000360: b6bc 0b3f 4c3e 98bd 2f0c 343f 9f07 2dbf
00000370: 75cd 073e 8334 9ebf 360f 90bf 3306 193e
00000380: 5805 423f 323f e7bc 77ef 8f3e 50ca 2a40
00000390: cecc 023f d1bd c4be a2cf 95be 3884 c63f
000003a0: 0c96 b13e e5b4 8fbf e346 9e3d ee9b 88bf
000003b0: 24d8 2ebe ebfc d23e 3881 15be 1cf3 9bbf
000003c0: 4002 8bbe a11a 383f 9fe9 a73d bc77 e63e
000003d0: 06af 053f f0c8 c73f 0347 c2bc a254 3e3f
000003e0: 2865 abbf 4cb8 c8bf 37c0 62be 2234 63bf
000003f0: bcb5 3fbd bd46 f2be c306 643e 5c6a 7c3f
