models/17_05_2021/stock_self_attn_MSE_hinge_10000_64_24_6_24_5/8000_generator.pth (torch, 54798 bytes, 39 tensors)

position.pe f4 [1, 24, 24]
0	0x00000000	0.0
1	0x3f800000	1.0
2	0x00000000	0.0
3	0x3f800000	1.0
4	0x00000000	0.0
5	0x3f800000	1.0
6	0x00000000	0.0
7	0x3f800000	1.0
8	0x00000000	0.0
9	0x3f800000	1.0
10	0x00000000	0.0
11	0x3f800000	1.0
12	0x00000000	0.0
13	0x3f800000	1.0
14	0x00000000	0.0
15	0x3f800000	1.0
16	0x00000000	0.0
17	0x3f800000	1.0
18	0x00000000	0.0
19	0x3f800000	1.0
20	0x00000000	0.0
21	0x3f800000	1.0
22	0x00000000	0.0
23	0x3f800000	1.0
24	0x3f576aa4	0.84147096
25	0x3f0a5141	0.54030234
26	0x3ee5351d	0.44767085
27	0x3f64ea30	0.8941984
28	0x3e5ae952	0.21378067
29	0x3f7a14eb	0.9768817
30	0x3dcc7576	0.099833414
31	0x3f7eb898	0.9950042
32	0x3d3e0d1e	0.04639923
33	0x3f7fb96a	0.99892294
34	0x3cb07a47	0.021542681
35	0x3f7ff0ca	0.9997679
36	0x3c23d657	0.009999833
37	0x3f7ffcb9	0.99995
38	0x3b981857	0.0046415734
39	0x3f7fff4b	0.9999892
40	0x3b0d3164	0.0021544332
41	0x3f7fffd9	0.9999977
42	0x3a83126d	0.0009999998
43	0x3f7ffff8	0.9999995
44	0x39f35a5c	0.00046415895
45	0x3f7ffffe	0.9999999
46	0x3961e8ab	0.00021544348
47	0x3f800000	1.0
48	0x3f68c7b7	0.9092974
49	0xbed51133	-0.41614684
50	0x3f4cf4fb	0.8006131
51	0x3f1963f8	0.59918165
52	0x3ed5d9be	0.41767687
53	0x3f6899b9	0.9085956
54	0x3e4b6ff8	0.19866931
55	0x3f7ae5a5	0.9800666
56	0x3dbdd8b7	0.09269851
57	0x3f7ee5d1	0.9956942
58	0x3d306fcb	0.043075364
59	0x3f7fc32c	0.99907184
60	0x3ca3d43e	0.019998666
61	0x3f7ff2e5	0.9998
62	0x3c1817ec	0.009283047
63	0x3f7ffd2d	0.9999569
64	0x3b8d314e	0.004308856
65	0x3f7fff64	0.9999907
66	0x3b031268	0.0019999985
67	0x3f7fffdf	0.99999803
68	0x3a735a5b	0.00092831784
69	0x3f7ffff9	0.9999996
70	0x39e1e8ab	0.00043088695
71	0x3f7fffff	0.99999994
72	0x3e1081c3	0.14112
73	0xbf7d7026	-0.9899925
74	0x3f7bf0ce	0.98414314
75	0x3e35a216	0.17737612
76	0x3f1a2dc8	0.60226107
77	0x3f4c5d56	0.7982992
78	0x3e974e6c	0.2955202
79	0x3f7490ef	0.9553365
80	0x3e0e2117	0.1387981
81	0x3f7d85a8	0.9903207
82	0x3d8446bd	0.06458805
83	0x3f7f7729	0.997912
84	0x3cf5b91f	0.0299955
85	0x3f7fe283	0.99955004
86	0x3c6422d5	0.01392432
87	0x3f7ff9a6	0.9999031
88	0x3bd3c9bf	0.006463259
89	0x3f7ffea2	0.99997914
90	0x3b449b92	0.0029999954
91	0x3f7fffb5	0.9999955
92	0x3ab683c2	0.0013924765
93	0x3f7ffff0	0.99999905
94	0x3a296e7f	0.00064633036
95	0x3f7ffffd	0.9999998
96	0xbf41bdcf	-0.7568025
97	0xbf275530	-0.6536436
98	0x3f759ce7	0.9594254
99	0xbe905d6c	-0.28196275
100	0x3f424dbe	0.75899875
101	0x3f26adf9	0.6510921
102	0x3ec761d7	0.38941833
103	0x3f6bcaa7	0.921061
104	0x3e3d0773	0.18459873
105	0x3f7b99b2	0.98281395
106	0x3db045df	0.08607077
107	0x3f7f0ccc	0.996289
108	0x3d23cbdb	0.039989334
109	0x3f7fcb94	0.9992001
110	0x3c98163e	0.018565293
111	0x3f7ff4b4	0.9998276
112	0x3c0d30f8	0.008617632
113	0x3f7ffd91	0.99996287
114	0x3b831257	0.003999989
115	0x3f7fff7a	0.999992
116	0x3af35a54	0.0018566349
117	0x3f7fffe3	0.9999983
118	0x3a61e8a9	0.0008617738
119	0x3f7ffffa	0.99999964
120	0xbf757c10	-0.9589243
121	0x3e913c2c	0.2836622
122	0x3f3b500a	0.73169005
123	0xbf2e7fcb	-0.68163747
124	0x3f6171cf	0.88064283
125	0x3ef29363	0.47378072
126	0x3ef57743	0.47942552
127	0x3f60a940	0.87758255
128	0x3e6b8593	0.23000173
129	0x3f7922ff	0.97319025
130	0x3ddc300e	0.10751353
131	0x3f7e8421	0.9942036
132	0x3d4cb6f4	0.049979165
133	0x3f7fae19	0.99875027
134	0x3cbe1a3c	0.023205869
135	0x3f7fee5a	0.9997307
136	0x3c307ce6	0.010771966
137	0x3f7ffc33	0.999942
138	0x3ba3d6dd	0.004999979
139	0x3f7fff2e	0.9999875
140	0x3b181871	0.0023207928
141	0x3f7fffd3	0.9999973
142	0x3a8d3169	0.0010772172
143	0x3f7ffff6	0.9999994
144	0xbe8f0f8c	-0.2794155
145	0x3f75cdb8	0.96017027
146	0x3eb2c0c6	0.349127
147	0xbf6fe42d	-0.93707544
148	0x3f762963	0.961569
149	0x3e8c938f	0.27456328
150	0x3f108c68	0.5646424
151	0x3f534932	0.8253356
152	0x3e8cc0e9	0.2749093
153	0x3f7622e9	0.9614702
154	0x3e040009	0.12890638
155	0x3f7ddd38	0.9916568
156	0x3d759cd1	0.059964005
157	0x3f7f8a12	0.99820054
158	0x3ce41d2b	0.02784594
159	0x3f7fe696	0.9996122
160	0x3c53c89d	0.012926248
161	0x3f7ffa86	0.99991643
162	0x3bc49b58	0.0059999637
163	0x3f7ffed2	0.999982
164	0x3b3683b7	0.0027849504
165	0x3f7fffbf	0.9999961
166	0x3aa96e7d	0.0012926605
167	0x3f7ffff2	0.99999917
168	0x3f283046	0.6569866
169	0x3f40ffbd	0.75390226
170	0xbddbc69f	-0.10731243
171	0xbf7e858d	-0.9942253
172	0x3f7f7f41	0.9980355
173	0x3d804f23	0.06265094
174	0x3f24eb72	0.6442176
175	0x3f43ccb3	0.7648422
176	0x3ea3716a	0.31922466
177	0x3f729b18	0.94767904
178	0x3e19d85d	0.15023942
179	0x3f7d1825	0.98864967
180	0x3d8f3e32	0.06994285
181	0x3f7f5f81	0.997551
182	0x3d050f6e	0.032485418
183	0x3f7fdd69	0.9994722
184	0x3c771415	0.0150804715
185	0x3f7ff88c	0.9998863
186	0x3be55fc5	0.006999942
187	0x3f7ffe65	0.9999755
188	0x3b54eef8	0.003249107
189	0x3f7fffa8	0.99999475
190	0x3ac5ab91	0.0015081038
191	0x3f7fffed	0.99999887
192	0x3f7d4695	0.98935825
193	0xbe14fdf6	-0.14550003
194	0xbf0a81e3	-0.5410444
195	0xbf574b62	-0.840994
196	0x3f7d04e9	0.9883562
197	0xbe1bcf59	-0.15215816
198	0x3f37a4a5	0.717356
199	0x3f325b5f	0.6967067
200	0x3eb9c7cb	0.36285242
201	0x3f6e8d80	0.9318466
202	0x3e2f9e69	0.17150272
203	0x3f7c34ff	0.98518366
204	0x3da3aa50	0.07991469
205	0x3f7f2e65	0.9968017
206	0x3d180f89	0.03712419
207	0x3f7fd2d3	0.9993107
208	0x3c8d2fa1	0.017234625
209	0x3f7ff644	0.99985147
210	0x3c031212	0.007999914
211	0x3f7ffde7	0.999968
212	0x3b735a38	0.0037132632
213	0x3f7fff8c	0.9999931
214	0x3ae1e8a4	0.001723547
215	0x3f7fffe7	0.9999985
216	0x3ed30132	0.4121185
217	0xbf693fd5	-0.91113025
218	0xbf5c3bf1	-0.86028963
219	0xbf02829f	-0.5098056
220	0x3f6ed7af	0.9329786
221	0xbeb84901	-0.35993198
222	0x3f48881c	0.78332686
223	0x3f1f21d5	0.62161
224	0x3ecfb7ba	0.4056986
225	0x3f69fc5c	0.91400695
226	0x3e454f97	0.19268642
227	0x3f7b33e1	0.98126036
228	0x3db8123e	0.089878544
229	0x3f7ef6c2	0.9959527
230	0x3d2b0ecd	0.041762162
231	0x3f7fc6d3	0.99912757
232	0x3c9ed50c	0.019388698
233	0x3f7ff3ae	0.999812
234	0x3c13743a	0.008999879
235	0x3f7ffd59	0.9999595
236	0x3b88e2ba	0.0041774185
237	0x3f7fff6e	0.9999913
238	0x3afe25b6	0.0019389901
239	0x3f7fffe1	0.99999815
240	0xbf0b44f8	-0.5440211
241	0xbf56cd64	-0.8390715
242	0xbf7f5bd1	-0.99749476
243	0xbd90e07e	-0.070740685
244	0x3f559f61	0.8344632
245	0xbf0d1282	-0.55106366
246	0x3f576aa4	0.84147096
247	0x3f0a5141	0.54030234
248	0x3ee5351e	0.44767088
249	0x3f64ea30	0.8941984
250	0x3e5ae953	0.21378069
251	0x3f7a14eb	0.9768817
252	0x3dcc7576	0.099833414
253	0x3f7eb898	0.9950042
254	0x3d3e0d21	0.04639924
255	0x3f7fb96a	0.99892294

r_cell.w_qs.weight f4 [24, 24]
0	0xbe831be3	-0.25607213
1	0x3e3408ea	0.17581525
2	0x3df785cc	0.120860666
3	0x3ec89928	0.3917935
4	0xbd24b7d4	-0.040214375
5	0xbe146eed	-0.1449544
6	0xbe13866f	-0.14406751
7	0x3ef0f695	0.47063127
8	0x3eeb968b	0.46013293
9	0x3db7e932	0.08980025
10	0x3e188172	0.1489313
11	0xbe5ce277	-0.21570764
12	0x3efb1b3c	0.49044216
13	0xbe3497fe	-0.17636105
14	0xbdd32eff	-0.10311698
15	0xbe81dec4	-0.2536527
16	0x3e335442	0.1751261
17	0xbe0760b8	-0.13220489
18	0xbe0ec397	-0.13941799
19	0x3ebe035d	0.3711194
20	0xbde6abb0	-0.112632155
21	0x3dcd2c6d	0.10018239
22	0x3e943d71	0.28953126
23	0xbec6637e	-0.38747782
24	0x3d38f0cd	0.04515152
25	0xbd904d25	-0.07045964
26	0x3dc9283e	0.09822129
27	0x3d78f98d	0.060784865
28	0xbe28ac3d	-0.16471954
29	0xbdb3ec82	-0.08785345
30	0x3f02a349	0.51030403
31	0xbe7ca485	-0.24672134
32	0x3e77d469	0.24202122
33	0x3dda9358	0.10672635
34	0xbd4abe6a	-0.049498
35	0x3d95a13f	0.07306146
36	0x3d01c2a6	0.03167977
37	0x3e90ce1b	0.28282246
38	0xbf0a32cd	-0.53983766
39	0xbe3057d5	-0.17221005
40	0x3e835472	0.25650364
41	0x3e6406fd	0.22268291
42	0x3a97e604	0.0011588936
43	0x3e7534ce	0.23945925
44	0x3e3fd1fe	0.1873245
45	0x3df1eb66	0.11812477
46	0x3eb38d5c	0.35068786
47	0x3c9c76a2	0.019099537
48	0xbd299b7f	-0.04140806
49	0xbe4eb72f	-0.20187066
50	0xbd9959a5	-0.074878015
51	0x3e68154d	0.22664376
52	0xbe7eec07	-0.24894725
53	0x3e89ad9b	0.26890263
54	0x3c1705a7	0.009217656
55	0x3e8e1de4	0.2775718
56	0xbe9b3712	-0.30315453
57	0xbea563c2	-0.32302672
58	0x3e01022b	0.12598483
59	0x3f12b237	0.57303184
60	0x3eab8957	0.3350322
61	0x3c916661	0.017749013
62	0x3e2323f1	0.1593168
63	0x3d9b7bf0	0.075919986
64	0xbd3d5d9f	-0.046231862
65	0xbe4cfe2c	-0.20018834
66	0xbefc8a94	-0.49324477
67	0xbee3ff03	-0.44530496
68	0xbc920063	-0.01782245
69	0xbdac0b7a	-0.084006265
70	0xbd0edf62	-0.034881003
71	0xbe0b2bff	-0.13591002
72	0x3dd23a2c	0.10265002
73	0x3bc193fb	0.005907533
74	0xbc6be5e6	-0.014398074
75	0x3edd8b0a	0.4327014
76	0xbe386f18	-0.18011129
77	0x3d6976d0	0.056998074
78	0xbeb0ca82	-0.345295
79	0x3dc518fa	0.096239045
80	0x3ee5602a	0.4479993
81	0xbeaf71c7	-0.34266493
82	0xbd81182e	-0.0630344
83	0x3c6eea26	0.0145821925
84	0x3e4ac1b2	0.19800451
85	0xbec618a9	-0.3869069
86	0xbe432bbf	-0.19059657
87	0x3eb61266	0.35560912
88	0xbe33c14e	-0.17554209
89	0xbb8d9f82	-0.0043219933
90	0xbe18cbb6	-0.1492146
91	0x3ec27e69	0.37987068
92	0x3e7876b5	0.24264033
93	0x3e3f24ae	0.18666336
94	0xbe2a8240	-0.16651249
95	0xbe911b45	-0.28341118
96	0x3e5b7dec	0.21434754
97	0x3ea25ca0	0.31711292
98	0x3e703e5d	0.2346129
99	0xbd9f334a	-0.077734545
100	0x3f003168	0.5007539
101	0xbb5d2090	-0.0033741333
102	0x3ca008e6	0.019535493
103	0xbe85a9cc	-0.26106107
104	0x3e0ff3a4	0.14057785
105	0x3f03f0b9	0.5153919
106	0xbe0324e7	-0.12807046
107	0xbe520ab3	-0.20511894
108	0xbf230bd0	-0.636899
109	0xbf2ace0d	-0.6672066
110	0x3cc34297	0.023835463
111	0xbda54035	-0.08068887
112	0xbe8137ab	-0.25237784
113	0x3db4aa59	0.08821554
114	0x3b4188dc	0.0029531037
115	0xbe89a11d	-0.26880732
116	0xbc4944ea	-0.012284497
117	0x3e5f144d	0.21785088
118	0x3d270be5	0.040782828
119	0xbaec42de	-0.0018025299
120	0x3e615141	0.22003652
121	0x3c00874b	0.007844756
122	0xbd163f28	-0.036681324
123	0xbdcad005	-0.09902958
124	0xbe913efc	-0.28368366
125	0x3dca7c92	0.09887041
126	0x3e272d7b	0.16325943
127	0x3a98fff5	0.0011672961
128	0x3e35a6fd	0.17739482
129	0x3ed74643	0.42045793
130	0xbf221671	-0.6331549
131	0xbed42b5c	-0.4143933
132	0x3f076ee0	0.52903557
133	0x3d54ae61	0.051924113
134	0xbe307c12	-0.17234829
135	0x3d3deebf	0.046370264
136	0xbd2a5102	-0.04158116
137	0xbcf77bf2	-0.030210469
138	0x3e8bfb0b	0.27339968
139	0x3e1316fd	0.14364238
140	0xbecd657e	-0.40116495
141	0x3ea37833	0.31927642
142	0x3df3b1bb	0.11899134
143	0xbe01de8b	-0.1268255
144	0xbeeeb9ed	-0.46626225
145	0xbea39749	-0.3195136
146	0xbf02dbef	-0.5111684
147	0x3de2188d	0.11039839
148	0xbecfc51b	-0.40580067
149	0xbe129995	-0.143164
150	0xbdc7ef2d	-0.09762416
151	0xbd893135	-0.066988386
152	0x3de8bbd2	0.11363949
153	0x3e363e1a	0.17797127
154	0x3edfc862	0.43707567
155	0x3e8cdfbd	0.2751445
156	0xbe5370ac	-0.2064845
157	0xbe5e1517	-0.21687733
158	0x3efc6eef	0.49303386
159	0xbea847c0	-0.3286724
160	0xbee9c4b7	-0.45657894
161	0x3d32edab	0.04368369
162	0xbe8ec7c5	-0.27886787
163	0x3f0891c8	0.53347445
164	0xbc2fc610	-0.010728374
165	0xbe7a438e	-0.24439833
166	0x3ee44d4e	0.4459023
167	0x3ebf0a83	0.37312707
168	0x3dcf4241	0.10120059
169	0x3e334740	0.17507648
170	0x3e42e64c	0.19033164
171	0x3cb449c2	0.022007827
172	0xbe91045c	-0.28323638
173	0x3eb85ee2	0.3600989
174	0x3e691667	0.22762452
175	0x3e8d5acf	0.27608344
176	0x3d8773f6	0.06613915
177	0x3e1b5cd0	0.15172124
178	0x3f179730	0.5921507
179	0xbee341e6	-0.44386214
180	0xbdf33685	-0.11875633
181	0xbec5253b	-0.38504967
182	0xbd02c71d	-0.03192817
183	0x3dbc3f4a	0.09191759
184	0x3f06e515	0.526933
185	0x3ce14919	0.027500676
186	0xbbe7d433	-0.0070748567
187	0x3e7b0cdc	0.24516624
188	0x3f550e27	0.8322472
189	0x3e683796	0.22677454
190	0x3d39e776	0.045386754
191	0xbe2bd07d	-0.1677875
192	0x3e427ef8	0.18993747
193	0x3e33fc07	0.1757661
194	0x3ea6a2af	0.32545993
195	0x3db87bf6	0.09008019
196	0x3e27b59e	0.16377875
197	0xbd1e18ee	-0.038597994
198	0xbe19bf4c	-0.1501438
199	0x3e032b39	0.12809457
200	0x3e7b3f5b	0.24535887
201	0xbf2f5bf5	-0.6849969
202	0xbe5350bc	-0.20636266
203	0xbe243867	-0.16037141
204	0xbd0c5849	-0.034263883
205	0xbe564ebf	-0.20928477
206	0xbd873294	-0.06601444
207	0x3f553cd0	0.8329592
208	0x3e77ebe4	0.24211079
209	0x3c516c7b	0.012782211
210	0xbc7cf625	-0.015439545
211	0x3edb261f	0.42802522
212	0x3d5e2138	0.0542309
213	0x3e6af01a	0.22943154
214	0xbed70f0e	-0.42003673
215	0xbe63b1d8	-0.22235811
216	0x3e49856e	0.19679806
217	0xbc378bf3	-0.0112028
218	0xbe406d33	-0.18791656
219	0xbdf62f3c	-0.12020728
220	0xbeedf5d6	-0.4647662
221	0xbe3a692c	-0.18204182
222	0xbe48bced	-0.1960332
223	0xbd9668fe	-0.073442444
224	0x3d0d27f7	0.03446194
225	0x3e10f300	0.14155197
226	0x3e81b59b	0.25333866
227	0x3f41661b	0.75546426
228	0x3e73b69a	0.23800126
229	0xbe10d7aa	-0.1414477
230	0xbe7a219e	-0.24426886
231	0xbdc4a8e3	-0.09602525
232	0x3e9573b2	0.2918983
233	0xbc42d284	-0.011891011
234	0xbe51cf75	-0.20489295
235	0x3d139175	0.03602739
236	0xbecd46aa	-0.40092975
237	0xbec47469	-0.38370064
238	0xbe2eeba5	-0.17082079
239	0x3e21c42f	0.15797494
240	0x3e2987c6	0.165557
241	0xbd2f8762	-0.04285372
242	0x3e49e28f	0.19715331
243	0x3e4d2d87	0.20036899
244	0x3d357326	0.044299267
245	0xbe442be0	-0.19157362
246	0x3c370815	0.0111713605
247	0x3ef3a145	0.47583976
248	0x3c6185bf	0.013764798
249	0x3c8f578c	0.0174978
250	0xbd7ce554	-0.06174214
251	0xbecbd007	-0.3980715
252	0xbe9fcc2b	-0.31210455
253	0x3e2e0edf	0.1699786
254	0x3ee2ce4b	0.44298014
255	0x3f2fd74b	0.68687886

r_cell.w_qs.bias f4 [24]
0	0x3dbcd27d	0.09219835
1	0x3e3acf3e	0.18243119
2	0xbd44f420	-0.04808438
3	0x3cd2af99	0.025718497
4	0xbdee9393	-0.11649241
5	0x3d430094	0.047607973
6	0x3ea0c00a	0.31396514
7	0xbe53c12d	-0.2067916
8	0xbe77fb14	-0.24216872
9	0xbe05613a	-0.1302537
10	0x3db88e89	0.090115614
11	0xbe3a38ee	-0.1818578
12	0x3dfad154	0.122469574
13	0x3dd855c6	0.10563235
14	0x3e2a1451	0.16609313
15	0x3e275b94	0.16343528
16	0x3e14f370	0.14545989
17	0xbe03acec	-0.12858933
18	0xbbb322b6	-0.0054667844
19	0xbce8bb1f	-0.028409539
20	0x3dd76218	0.10516757
21	0x3de45225	0.1114848
22	0x3c733864	0.014844988
23	0xbe6394e8	-0.22224772

r_cell.w_ks.weight f4 [24, 24]
0	0x3e9e0440	0.30862617
1	0xbe830437	-0.25589153
2	0x3e13ff25	0.14452799
3	0x3eb01788	0.34392953
4	0x3e66b5d3	0.22530298
5	0x3e278607	0.16359721
6	0x3e9cbceb	0.30612883
7	0xbe46b1bc	-0.19403738
8	0xbe80dbbc	-0.25167644
9	0xbd4fe7ec	-0.050758287
10	0x3d59fe64	0.05322112
11	0xbeeeebce	-0.4666428
12	0x3df141c4	0.11780122
13	0xbecb12d2	-0.39662796
14	0xbd4b14d0	-0.049580395
15	0xbee8f9f2	-0.45503193
16	0xbee46cca	-0.4461425
17	0x3e972e0d	0.2952732
18	0x3e8616f2	0.2618938
19	0xbee6fd58	-0.4511516
20	0x3cff9e83	0.031203514
21	0x3ef99502	0.48746496
22	0x3ecebc9d	0.40378276
23	0xbeb8f478	-0.36124015
24	0xbe840cff	-0.25791165
25	0xbd8125cb	-0.063060366
26	0x3eadf2d8	0.33974338
27	0x3ec0be95	0.37645403
28	0xbe672e96	-0.22576365
29	0xbea08212	-0.31349236
30	0x3ceb2f42	0.028709058
31	0xbd3cf856	-0.04613527
32	0x3eab92d0	0.33510447
33	0x3ea8343e	0.32852358
34	0x3e739158	0.23785913
35	0x3bb78533	0.0056005954
36	0xbf0c805b	-0.54883355
37	0x3ee46199	0.4460571
38	0x3e875f71	0.26440004
39	0x3eb3577a	0.35027677
40	0x3e735e0e	0.23766348
41	0x3eb27e81	0.3486214
42	0xbdcb56f0	-0.099286914
43	0xbd6b65ad	-0.057470012
44	0xbe40d392	-0.18830708
45	0xbf0807f0	-0.5313711
46	0xbe3093e9	-0.17243923
47	0xbd05b56c	-0.03264372
48	0xbed8483a	-0.42242604
49	0x3ec8ab0d	0.39193
50	0x3c2b021b	0.010437514
51	0xbe83cce3	-0.25742254
52	0xbd8a159a	-0.067424014
53	0xbed1896a	-0.4092515
54	0xbe91dee3	-0.28490362
55	0xbde49b35	-0.11162416
56	0xb9463d7a	-0.00018905653
57	0xbef177fe	-0.4716186
58	0x3ec2d697	0.38054344
59	0x3e8b9211	0.27259877
60	0xbe343e4e	-0.17601892
61	0xbdb40550	-0.08790076
62	0xbd88ebea	-0.06685622
63	0xbe8b5ec8	-0.2722075
64	0x3e59bd91	0.2126372
65	0xbf27bfdb	-0.65527123
66	0xbc29489d	-0.010332254
67	0x3de2ac78	0.11068052
68	0xbde85efa	-0.1134624
69	0x3e6f4a24	0.23368126
70	0xbe09c171	-0.13452698
71	0x3f6b2378	0.91850996
72	0x3d7c271a	0.061560728
73	0xbf00eebb	-0.50364274
74	0x3df1005d	0.117676474
75	0xbd5ce347	-0.053927686
76	0xbe840f5a	-0.25792962
77	0x3d8d2f3b	0.06893774
78	0xbd8f3de6	-0.06994228
79	0xbe839cf4	-0.25705683
80	0xbe7b81c4	-0.2456122
81	0xbe6dfb2a	-0.23240343
82	0x3ea44060	0.32080364
83	0x3e4b15d4	0.19832546
84	0x3ea3dc43	0.32003984
85	0x3de5d2f9	0.112218805
86	0x3d264986	0.04059746
87	0xbd820dda	-0.06350298
88	0xbef4de46	-0.4782583
89	0xbe5dff40	-0.21679401
90	0xbbbc8182	-0.005752743
91	0xbd406fa2	-0.04698146
92	0xbe852a55	-0.2600886
93	0x3cb91f8a	0.022598047
94	0x3e71993c	0.2359361
95	0x3f5bd72c	0.858752
96	0xbdd47477	-0.103737764
97	0x3e3a8d9d	0.18218084
98	0xbf013221	-0.50467116
99	0x3e36e339	0.17860116
100	0xbde586c3	-0.112073444
101	0x3eabf2a4	0.33583558
102	0xbddad79f	-0.10685658
103	0xbd8ad1ee	-0.06778322
104	0x3eb89eeb	0.36058745
105	0x3eeca550	0.46219873
106	0xbde3871f	-0.11109757
107	0x3e6e1d6b	0.2325341
108	0xbee10330	-0.43947744
109	0xbe972bcc	-0.29525602
110	0x3c074807	0.008256919
111	0xbe6449b5	-0.22293742
112	0xbf017ff8	-0.5058589
113	0x3ed08981	0.40729907
114	0xbe081fb4	-0.13293344
115	0xbdf4d3ae	-0.11954437
116	0xbe9e3b26	-0.30904502
117	0xbe518c02	-0.20463565
118	0xbc6b6b0f	-0.0143687865
119	0xbe28d1a9	-0.16486229
120	0x3c81b88a	0.015835065
121	0x3ec36b6b	0.3816789
122	0xbe148df7	-0.1450728
123	0xbe8dfca2	-0.27731806
124	0x3f0ea8ee	0.55726516
125	0xbe29bea1	-0.16576625
126	0x3ee83687	0.453541
127	0x3e8677ad	0.2626318
128	0xbe3efe5b	-0.18651716
129	0xbe112fb9	-0.14178361
130	0x3bdb20fd	0.006687282
131	0x3c4ae365	0.012383317
132	0xbe21948c	-0.15779322
133	0xbe8d6e93	-0.27623424
134	0x3e9196eb	0.28435454
135	0x3de58e73	0.11208811
136	0xbc9f0004	-0.019409187
137	0x3ebb5702	0.3658982
138	0xbe8de6f6	-0.27715272
139	0xbb2d4610	-0.0026439466
140	0xbe09de48	-0.134637
141	0xbe167696	-0.14693674
142	0x3e420d1a	0.1895031
143	0x3d23f0d3	0.04002459
144	0xba346b97	-0.0006882487
145	0xbda90f6f	-0.08254897
146	0xbe81fdbb	-0.25388893
147	0x3eb8c2e1	0.3608618
148	0xbe92671b	-0.28594288
149	0x3e0a34dc	0.13496727
150	0xbd624e5f	-0.05525052
151	0xbe3887d5	-0.18020566
152	0x3d664123	0.056214463
153	0xbf1b145e	-0.6057795
154	0xbd1074e1	-0.035267714
155	0xbdb69784	-0.08915618
156	0xbed5cfc1	-0.41760066
157	0xbcbb2e07	-0.022849096
158	0x3e82c100	0.25537872
159	0xbef00a0b	-0.46882662
160	0xbe117090	-0.14203095
161	0x3f47023b	0.7773778
162	0xbe14e41e	-0.14540145
163	0xbdf9e15f	-0.12201189
164	0xbebf0b90	-0.3731351
165	0xbe6b94fe	-0.23006055
166	0xbe48105e	-0.19537494
167	0xbe9aac78	-0.30209708
168	0x3da71d05	0.08159832
169	0xbe7894a7	-0.24275456
170	0x3f0e64de	0.5562266
171	0x3e138674	0.14406759
172	0x3d289cc6	0.041165136
173	0x3eedd959	0.46454886
174	0x3e0ab7fa	0.13546744
175	0xbf0b0587	-0.5430531
176	0xbdd0ff88	-0.10204989
177	0xbe353c5b	-0.17698805
178	0xbe962878	-0.2932775
179	0x3c76d32d	0.015064997
180	0x3ea02d45	0.31284538
181	0x3e3efdad	0.18651457
182	0x3e6bb71c	0.2301907
183	0xbe819983	-0.25312433
184	0xbe91ad17	-0.2845237
185	0xbf052ff9	-0.52026325
186	0x3d036b93	0.032085013
187	0xbdb00074	-0.085938364
188	0x3e1eb8ff	0.15500258
189	0xbddd1a23	-0.10796001
190	0xbe770c02	-0.24125674
191	0xbce7d0f8	-0.028297886
192	0x3e237b98	0.15965116
193	0x3e4cd8fe	0.20004651
194	0x3e69905f	0.2280898
195	0xbe263d4a	-0.16234317
196	0x3ee1f9fb	0.44136032
197	0xbd9bfc93	-0.07616534
198	0xbf1a03aa	-0.6016184
199	0xbe193dcc	-0.1496498
200	0xbe26ddc0	-0.16295528
201	0xbdc9f3f6	-0.09860985
202	0x3e9aa771	0.30205873
203	0xbdae5d1c	-0.08513853
204	0x3d4705fa	0.048589684
205	0xbc4131ca	-0.011791656
206	0x3ea0c039	0.31396654
207	0xbdb614d0	-0.088906884
208	0x3de0ae98	0.10970801
209	0xbe1fb308	-0.15595639
210	0x3df04923	0.117327
211	0xbecf1282	-0.40443808
212	0x3f0d5746	0.55211294
213	0xbec86a6a	-0.39143687
214	0xbe63bbb6	-0.22239575
215	0x3f052c0e	0.5202035
216	0xbe3c956d	-0.18416376
217	0x3e670105	0.22558983
218	0xbe1249ae	-0.14285919
219	0x3d9ed855	0.07756106
220	0x3e3adf25	0.18249185
221	0x3e41065d	0.18850084
222	0x3da8b8c3	0.082383655
223	0x3e2e5e78	0.17028224
224	0x3e9d07e0	0.3067007
225	0x3d99856d	0.07496152
226	0x3eaeffbb	0.34179482
227	0x3eb65583	0.35612115
228	0xbe36fe41	-0.17870428
229	0xbf009ddf	-0.5024089
230	0x3e86a70d	0.26299325
231	0x3e98012f	0.29688403
232	0xbee728d4	-0.45148337
233	0xbec59cfc	-0.38596332
234	0xba6dfcad	-0.0009078484
235	0xbf1ff8d6	-0.6248907
236	0xbe890627	-0.26762506
237	0x3e8dca69	0.2769349
238	0x3e943008	0.28942895
239	0xbe80cb90	-0.25155306
240	0x3e0a20ad	0.13489027
241	0x3d8208f9	0.06349368
242	0x3dee1dac	0.11626753
243	0x3d354ff8	0.044265717
244	0x3e9298fa	0.28632337
245	0x3e7545bc	0.23952383
246	0xbea0e1db	-0.31422314
247	0xbe481437	-0.19538961
248	0xbdd4dcb9	-0.10393662
249	0x3ebf56db	0.37370953
250	0x3ea0137d	0.31264868
251	0x3e091ed2	0.13390663
252	0x3e4673a5	0.19380052
253	0x3d845754	0.06461969
254	0x3f1627d3	0.58654517
255	0xbd419f58	-0.047271103

r_cell.w_ks.bias f4 [24]
0	0x3ce61bcd	0.028089428
1	0x3e3e0ef4	0.18560392
2	0x3d552030	0.05203265
3	0x3d4c8dff	0.049940106
4	0x3e6f132d	0.23347159
5	0x3e67576c	0.22591943
6	0x3e3b78a0	0.18307734
7	0xbdd49738	-0.10380405
8	0xbe6d0c14	-0.23149139
9	0xbd93b0b1	-0.072114356
10	0x3b70305f	0.0036649925
11	0xbd91bb60	-0.07115817
12	0x3cad113c	0.021126382
13	0x3e0106c1	0.12600233
14	0xbd7466db	-0.059668403
15	0x3e8af6d8	0.27141452
16	0x3dadb2b4	0.084813505
17	0x3d7b6d67	0.06138363
18	0xbe4dd9be	-0.20102593
19	0x3bdf8d1c	0.0068222415
20	0xbe1f6034	-0.15564042
21	0x3d186999	0.03721008
22	0xbd90157a	-0.07035346
23	0x3a876994	0.0010331147

r_cell.w_vs.weight f4 [24, 24]
0	0xbdc58904	-0.09645274
1	0x3f064879	0.52454334
2	0xbd07c709	-0.0331488
3	0x3e815611	0.25260976
4	0x3ec83190	0.39100313
5	0x3ee3946d	0.44449177
6	0x3e7c2cf1	0.24626519
7	0x3f02de17	0.5112013
8	0x3ea88c60	0.32919598
9	0x3e21da29	0.15805878
10	0x3e09a6bb	0.13442509
11	0xbecfd0db	-0.40589032
12	0xbe95e35c	-0.29275024
13	0xbef6ac7a	-0.48178464
14	0xbdcdd457	-0.10050266
15	0xbc9e2b91	-0.019307883
16	0x3efa77a8	0.48919415
17	0xbe1961fc	-0.14978784
18	0x3e3c7c63	0.18406825
19	0x3e7e0522	0.24806646
20	0xbe983f9f	-0.2973604
21	0x3d7f0d93	0.062268805
22	0xbf02e499	-0.5113006
23	0xbe11e183	-0.14246182
24	0xbe9d02bb	-0.30666146
25	0xbec7f480	-0.39053726
26	0xbe8f2f2c	-0.27965677
27	0xbd96bc3a	-0.0736012
28	0x3d9a2bb7	0.07527869
29	0x3dd1a0a9	0.102357216
30	0x3e2b791e	0.16745421
31	0x3fb43ab1	1.4080411
32	0x3ebb82b4	0.36623156
33	0xbe68888d	-0.2270834
34	0x3e807ffd	0.25097647
35	0xbf28ad79	-0.658897
36	0x3dd8e353	0.10590234
37	0x3f2e6e06	0.6813663
38	0x3e743ff9	0.23852529
39	0x3e450fa9	0.19244255
40	0x3bc04f85	0.0058688545
41	0x3d7e70a3	0.062119137
42	0xbeaa94bc	-0.333166
43	0xbea36dbb	-0.31919655
44	0x3ecb9336	0.3976075
45	0xbe9961cc	-0.29957426
46	0xbea46a2f	-0.32112262
47	0x3e3f9cac	0.1871211
48	0xbf3d7781	-0.74010473
49	0xbda263c2	-0.079291835
50	0xbd3045ba	-0.043035246
51	0xbf2365e8	-0.6382737
52	0xbdc5798f	-0.09642326
53	0x3f107082	0.56421673
54	0xbf4a52c8	-0.79032564
55	0xbea6cd8e	-0.325787
56	0xbf0be504	-0.54646325
57	0xbcbfff10	-0.023437053
58	0xbe360210	-0.17774224
59	0xbeaa708e	-0.33288997
60	0xbdc9b092	-0.09848131
61	0xbedec021	-0.43505958
62	0xbea3c4a0	-0.3198595
63	0x3eeea72a	0.4661191
64	0xbe2676b9	-0.16256227
65	0xbdd2ac2a	-0.10286744
66	0xbd9e0fef	-0.07717883
67	0xbe7dd65c	-0.24788803
68	0xbeb5b6c9	-0.35491017
69	0x3e81d163	0.25355062
70	0xbdb064ad	-0.086129524
71	0x3e9c98ac	0.3058523
72	0x3f2b92c4	0.6702082
73	0xbe0b35a5	-0.13594683
74	0x3cffdae0	0.031232297
75	0xbe627aa7	-0.221171
76	0x3ee68308	0.45021844
77	0xbe9450d1	-0.28967908
78	0xbef96609	-0.4871066
79	0x3e2268c5	0.15860279
80	0x3ec99b04	0.3937608
81	0xbe65d59e	-0.2244477
82	0x3e902876	0.2815587
83	0x3e5da24e	0.21643946
84	0x3e31e36b	0.1737191
85	0xbc3701f9	-0.011169904
86	0x3f9874a7	1.19106
87	0x3e24b9b2	0.16086462
88	0x3daf82f6	0.08569901
89	0x3e48ef4c	0.19622535
90	0x3e86b07e	0.26306528
91	0xbd87483e	-0.06605576
92	0x3ef69d9c	0.4816712
93	0x3eaa0af5	0.33211485
94	0x3e64518e	0.22296736
95	0x3df1f8f0	0.11815059
96	0xbe7847d8	-0.24246156
97	0xbe0b5dc3	-0.13609986
98	0x3f05cb4a	0.5226332
99	0xbe5495cd	-0.2076027
100	0xbef26e0b	-0.4734958
101	0xbe9ed281	-0.31019977
102	0x3ea817a4	0.32830536
103	0xbf43b639	-0.76449925
104	0x3e5c301f	0.21502732
105	0xbce8a9e0	-0.028401315
106	0x3e80346c	0.25039995
107	0x3efe8d93	0.49717388
108	0xbd82a06e	-0.06378256
109	0x3ef47f30	0.47753286
110	0xbe59feac	-0.21288556
111	0x3eb70410	0.35745287
112	0x3db9f120	0.09079194
113	0xbe2f174b	-0.1709873
114	0x3e3df77e	0.18551442
115	0x3e1e9d99	0.15489806
116	0x3ec5b469	0.38614205
117	0xbe740f39	-0.23833932
118	0xbe868394	-0.2627226
119	0xbee11d8f	-0.43967864
120	0x3e00f2e2	0.12592652
121	0x3ed3155f	0.41227242
122	0x3ef4f312	0.47841698
123	0xbc936623	-0.017993039
124	0x3f04fd0c	0.5194862
125	0xbf4f856c	-0.8106296
126	0xbebd8136	-0.37012643
127	0xbf36b944	-0.7137644
128	0xbefffdba	-0.49998266
129	0xbeba2ed1	-0.36363843
130	0xbd8c8ded	-0.06863008
131	0xbe27137c	-0.16316026
132	0xbe9169a4	-0.2840091
133	0xbe751899	-0.23935165
134	0xba619a3f	-0.00086060533
135	0xbdb6bc8f	-0.089226834
136	0x3e182fc6	0.14861974
137	0xbdd43775	-0.1036214
138	0xbe907690	-0.28215456
139	0x3e630d12	0.22172955
140	0xbd8d7136	-0.06906359
141	0xbeee8531	-0.46585992
142	0x3f2d1399	0.6760803
143	0xbe305f09	-0.17223753
144	0x3e858a2a	0.26081973
145	0xbe5c1952	-0.21494034
146	0xbf6a7784	-0.91588616
147	0x3e17f368	0.14838946
148	0xbe84e4e8	-0.25955892
149	0xbf13c3d0	-0.5772066
150	0xbd080f5f	-0.033217784
151	0x3f20ea30	0.6285734
152	0x3d294bac	0.041331932
153	0xbde75875	-0.11296169
154	0xbd322227	-0.0434896
155	0x3d0e8012	0.034790106
156	0xbdc4591d	-0.095873095
157	0x3e72bc8c	0.23704737
158	0x3f56967e	0.8382338
159	0xbd42ea8c	-0.047586963
160	0x3f157e29	0.5839563
161	0xbeb20956	-0.34772748
162	0x3d05e2ac	0.032686874
163	0xbee24fcc	-0.44201505
164	0x3f8eda3f	1.1160353
165	0x3e98df3d	0.29857817
166	0x3e34587c	0.17611879
167	0x3e8d6323	0.27614698
168	0x3ec14929	0.3775113
169	0x3dc1cee9	0.09463293
170	0x3e74175c	0.23837036
171	0x3e2f799b	0.17136233
172	0xbe8795a2	-0.26481348
173	0x3e16185d	0.14657731
174	0x3e9aad73	0.30210456
175	0x3f14a42b	0.58063
176	0xbdcae9e0	-0.09907889
177	0xbeafc481	-0.34329608
178	0x3e96e855	0.2947413
179	0x3db2a2e3	0.087224744
180	0xbecd2d94	-0.40073836
181	0xbe7bb282	-0.24579814
182	0x3f2c5568	0.6731782
183	0xbdc547c7	-0.09632831
184	0xbd8c2bbc	-0.06844279
185	0xbbd64036	-0.0065384163
186	0xbecfaff1	-0.4056392
187	0xbf104b7b	-0.56365174
188	0xbef5dbf2	-0.48019367
189	0x3e4b96a0	0.19881678
190	0xbec74301	-0.38918307
191	0x3e826854	0.2547022
192	0x3e0d81e9	0.13819088
193	0xbbac908c	-0.005266255
194	0x3e93d475	0.2887303
195	0x3df31272	0.118687525
196	0x3ea0954f	0.31363913
197	0xbeb463b4	-0.35232317
198	0x3d5331ee	0.05156129
199	0x3eca784d	0.39544907
200	0x3d45619d	0.048188794
201	0xbdd1a9af	-0.10237443
202	0x3e85cae8	0.26131368
203	0x3e84275b	0.25811276
204	0xbe1f84bc	-0.15577978
205	0xbc92e803	-0.017932897
206	0x3f36369e	0.7117709
207	0x3f30fac9	0.6913267
208	0xbe182de8	-0.14861262
209	0xbdea344a	-0.114357546
210	0xbcbce879	-0.02306007
211	0x3f0674ab	0.5252177
212	0x3ecac0aa	0.39600116
213	0x3e91b7db	0.28460583
214	0x3ea5dca4	0.32394898
215	0x3e44efaf	0.19232057
216	0xba9912d8	-0.001167859
217	0xbeb98107	-0.36231253
218	0xbda8a222	-0.082340494
219	0xbcd903c2	-0.02649105
220	0x3c72263d	0.0147796245
221	0xbee39fc5	-0.44457832
222	0x3e8c3c88	0.27389932
223	0xbf694ec4	-0.9113581
224	0xbea7d181	-0.32777026
225	0x3c8ad6eb	0.016948184
226	0x3e8f1900	0.2794876
227	0xbdf8ee14	-0.12154785
228	0x3cc16f15	0.023612538
229	0x3e2ae49a	0.16688767
230	0xbe1b88be	-0.15188882
231	0x3f14c912	0.5811931
232	0x3ead1108	0.33802056
233	0xbecb7703	-0.39739236
234	0xbe796c59	-0.24357738
235	0xbd020ca9	-0.031750355
236	0x3f20039e	0.6250552
237	0xbd8a4509	-0.06751449
238	0x3f044e77	0.5168223
239	0xbe0bfc99	-0.13670577
240	0x3e60945b	0.21931593
241	0xbe8d6193	-0.27613506
242	0x3e93513e	0.2877292
243	0xbec219b6	-0.3791024
244	0x3eaa4d2b	0.33262
245	0xbf464f0e	-0.7746438
246	0xbea510a1	-0.3223925
247	0xbec0b3a7	-0.37637064
248	0x3d849f0c	0.06475648
249	0xbe86b7ca	-0.26312095
250	0x3e19fb12	0.15037182
251	0x3ebe8099	0.37207487
252	0x3d6786b8	0.056524962
253	0xbf4a0e71	-0.78928286
254	0x3e1e782b	0.15475528
255	0x3e822255	0.25416818

r_cell.w_vs.bias f4 [24]
0	0xbdaf1c70	-0.08550346
1	0x3e109956	0.14120993
2	0x3e019b31	0.12656857
3	0x3ea0df85	0.31420532
4	0x3e60bf05	0.21947868
5	0xbdfaa80f	-0.12239086
6	0x3e5ea388	0.2174207
7	0x3dcd056d	0.100108005
8	0x3de07dbf	0.10961484
9	0xbd64f866	-0.055900954
10	0x3e2b8899	0.16751327
11	0x3e91d649	0.284838
12	0xbe30652c	-0.17226094
13	0x3cd438f5	0.025906065
14	0xbda377db	-0.07981845
15	0x3bd2d1a0	0.0064336807
16	0xbe6cb8f0	-0.23117423
17	0x3d3c727e	0.046007626
18	0xbe75ab4f	-0.2399113
19	0xbe1cadc1	-0.15300657
20	0xbd371038	-0.0446932
21	0xbc994dc8	-0.018713847
22	0xbde9b1fd	-0.11410902
23	0xbdfb36fe	-0.12266348

r_cell.layer_norm.weight f4 [24]
0	0x3f3f92c7	0.7483334
1	0x3f75937d	0.95928174
2	0x3f73358b	0.95003575
3	0x3f7d2ac9	0.9889341
4	0x3f76d931	0.9642516
5	0x3f5297f3	0.82263106
6	0x3fa672dc	1.3003802
7	0x3f87d160	1.0610771
8	0x3f485d64	0.782675
9	0x3f93a31f	1.1534156
10	0x3f934d3a	1.1507943
11	0x3fa1f404	1.2652593
12	0x3f85be41	1.0448686
13	0x3f9b1c5a	1.2118027
14	0x3f9f76cf	1.2458133
15	0x3f8bdc94	1.092669
16	0x3faf75fd	1.3707882
17	0x3f702dac	0.9381969
18	0x3f9b8291	1.2149221
19	0x3f720eec	0.9455402
20	0x3f78ab6a	0.9713656
21	0x3f83d27c	1.029861
22	0x3f91ff4b	1.1406034
23	0x3f841ad3	1.0320686

r_cell.layer_norm.bias f4 [24]
0	0xbd70141e	-0.058612935
1	0xbe3918e4	-0.18075901
2	0x3d148153	0.036256146
3	0x3d15eebf	0.03660464
4	0xb890db0d	-6.9072565e-05
5	0x3e68de6b	0.22741096
6	0xbe3f67eb	-0.18691985
7	0xbc03fe0a	-0.008056173
8	0x3e80e33d	0.2517337
9	0x3e461ed9	0.19347705
10	0xbc5f1ed7	-0.013618193
11	0xbd2b0754	-0.041755036
12	0xbccd0d09	-0.02503063
13	0x3d484c69	0.048900995
14	0x3d3efc94	0.046627596
15	0xbd81ff6f	-0.06347548
16	0xbcf6e72a	-0.030139524
17	0x3e446c39	0.19181909
18	0xbdc0b376	-0.094092295
19	0x3ddf05ef	0.108898036
20	0x3d9a2c8b	0.07528027
21	0xbe02fea4	-0.1279245
22	0x3e209412	0.15681484
23	0x3e2ce95e	0.16885898

r_cell.fc.weight f4 [24, 24]
0	0xbd99f742	-0.07517864
1	0xbeb77fa5	-0.35839573
2	0xbd1d2897	-0.038368788
3	0xbe624bd1	-0.22099234
4	0x3da2a2b6	0.07941191
5	0x3d9d68d2	0.076860085
6	0xbf384062	-0.7197324
7	0xbe5cd4c2	-0.21565536
8	0xbecbddec	-0.3981775
9	0x3f097ef2	0.5370933
10	0x3e8568c9	0.26056507
11	0xbecc7824	-0.3993541
12	0xbf519b33	-0.8187744
13	0xbed19304	-0.40932477
14	0xbdaa7308	-0.08322722
15	0xbc89ef5a	-0.016837765
16	0x3e582d2d	0.21110983
17	0x3e14b64c	0.14522666
18	0x3f11a1fa	0.5688778
19	0x3f11054d	0.56648713
20	0xbecd16b8	-0.40056396
21	0x3f105684	0.5638201
22	0xbe57353a	-0.21016398
23	0x3d9f47b3	0.077773474
24	0x3f09bf4a	0.5380751
25	0xbe559d77	-0.2086085
26	0x3d75a421	0.05997098
27	0xbf2c40ea	-0.6728655
28	0xbdd30a14	-0.103046566
29	0x3f2f9a47	0.68594784
30	0xbef26772	-0.47344548
31	0xbdcc2da7	-0.09969645
32	0xbeaeebd5	-0.341643
33	0x3e29269c	0.16518635
34	0xbe3acca6	-0.1824213
35	0xbf01b3a1	-0.50664717
36	0xbea99390	-0.33120394
37	0x3e0340b8	0.12817657
38	0xbf01d9a2	-0.50722706
39	0x3d238967	0.03992596
40	0x3e9b949c	0.30386817
41	0x3e6cd5fb	0.23128502
42	0x3e319147	0.17340575
43	0x3ea487fa	0.32134992
44	0xbf555b67	-0.83342594
45	0x3d6bcbb6	0.05756732
46	0xbefe616b	-0.496837
47	0x3e5233b7	0.2052754
48	0xbe8e55c6	-0.27799815
49	0xbe92ad7f	-0.28647992
50	0xbba2834a	-0.0049594985
51	0x3ef53e55	0.47899118
52	0x3e68b119	0.22723807
53	0xbe50926d	-0.20368357
54	0x3e024c79	0.12724485
55	0xbdec5d6b	-0.115412556
56	0x3efca859	0.4934719
57	0x3db90808	0.09034735
58	0x3f4746f5	0.77842647
59	0x3f0b9237	0.5451998
60	0x3ec92de9	0.3929284
61	0x3e851afe	0.25997156
62	0xbdbce6a0	-0.09223676
63	0xbe3fbece	-0.1872513
64	0xbdcf1c2c	-0.10112795
65	0xbf90291d	-1.1262547
66	0xbbe970bb	-0.007124034
67	0x3b37bae7	0.0028034986
68	0x3f3b785c	0.7323053
69	0xbe141876	-0.14462456
70	0x3df132a6	0.117772385
71	0x3ee1fb28	0.4413693
72	0xbe6f3fd1	-0.23364188
73	0x3dec2ba2	0.1153176
74	0xbe491940	-0.19638538
75	0x3e8cd2bc	0.27504528
76	0xbdda1d1b	-0.10650083
77	0x3e40bdb1	0.18822362
78	0x3eff2fe7	0.49841234
79	0xbe8ca1e5	-0.27467266
80	0x3e2d4eae	0.16924545
81	0x3d381638	0.044943064
82	0x3e1cbbfb	0.15306084
83	0x3eb2add9	0.3489826
84	0xbe5d1793	-0.21591024
85	0xbdb2b29d	-0.08725474
86	0x3f2ea1a1	0.68215376
87	0xbbb7d64e	-0.005610264
88	0xbeb661eb	-0.3562158
89	0x3d95cb85	0.07314209
90	0xbd265eec	-0.04061787
91	0xbefd18b2	-0.49432904
92	0x3dc00eab	0.09377798
93	0x3eadb6b9	0.3392847
94	0xbe74a3cf	-0.23890613
95	0x3cb81ecd	0.022475624
96	0xbe88249f	-0.2659044
97	0xbe8b3d5d	-0.27195254
98	0xbea4c537	-0.32181713
99	0x3ee03910	0.43793535
100	0xbe9f5dd2	-0.31126267
101	0x3f60c2d1	0.87797266
102	0xbebc8183	-0.3681756
103	0xbdd3eb37	-0.10347598
104	0x3e40fd39	0.18846597
105	0x3e383eb8	0.17992675
106	0x3efb02ed	0.4902567
107	0x3ea7f61c	0.32804954
108	0xbec92560	-0.39286327
109	0xbf0b9312	-0.54521286
110	0xbe4ca4a8	-0.19984686
111	0x3e383753	0.17989855
112	0xbeb651f2	-0.35609394
113	0xbec212ce	-0.37904972
114	0xbc968dac	-0.018378101
115	0xbef2e37f	-0.4743919
116	0x3e153659	0.14571513
117	0x3eb40061	0.3515654
118	0xbe913028	-0.28357053
119	0x3effe76c	0.49981248
120	0x3d10006b	0.03515665
121	0x3e3450bd	0.17608924
122	0xbe1b8078	-0.15185726
123	0x3e699c06	0.22813424
124	0xbdc8c2bc	-0.09802768
125	0xbe8d9779	-0.27654627
126	0x3f944c57	1.1585797
127	0x3eeea5b1	0.46610788
128	0x3e348665	0.17629392
129	0xbe224cf9	-0.15849675
130	0xbe697bb5	-0.22801097
131	0x3f54a1a3	0.8305914
132	0x3f0941c7	0.53615993
133	0xbea48322	-0.32131296
134	0x3f1eb487	0.6199421
135	0x3d1d3bb9	0.038387034
136	0xbefa33a3	-0.4886752
137	0x3ec391ef	0.38197276
138	0xbf01589c	-0.5052583
139	0xbec676dd	-0.3876256
140	0x3e1249dd	0.14285989
141	0x3dea0216	0.11426179
142	0x3e88df38	0.26732802
143	0xbe3cc9fd	-0.18436427
144	0x3e787d19	0.24266471
145	0xbe8c833a	-0.27443868
146	0xbc4c61db	-0.012474502
147	0xbe8c0449	-0.2734702
148	0x3e9444ee	0.2895884
149	0x3f1a9c07	0.6039433
150	0x3c7bf5e6	0.015378451
151	0x3e5c43a7	0.21510182
152	0xbd477942	-0.048699625
153	0x3e08caf0	0.13358665
154	0xbda9dc8d	-0.0829402
155	0x3d873061	0.066010244
156	0xbe1c1b9d	-0.15244909
157	0xbeb84628	-0.35991025
158	0x3e6d92be	0.23200509
159	0x3e54fdfe	0.20800015
160	0x3e0f07e0	0.13967848
161	0x3c0fdeeb	0.008781175
162	0xbdf601ac	-0.12012038
163	0x3ec1979b	0.37810978
164	0xbe982235	-0.29713598
165	0x3e609b69	0.21934284
166	0x3e15b8e3	0.1462131
167	0x3f0ded5c	0.55440307
168	0x3ea61197	0.32435295
169	0x3ef4631e	0.4773187
170	0x3e85ffa2	0.26171595
171	0x3b36d924	0.0027900422
172	0xbe91d25a	-0.28480798
173	0xbeda28ab	-0.42609152
174	0xbde97c38	-0.11400646
175	0xbd495a1a	-0.049158193
176	0x3e923e5d	0.28563204
177	0xbed2a8f0	-0.41144514
178	0xbdb00b50	-0.08595908
179	0xbcf52fb7	-0.029929979
180	0x3f0171b1	0.50564104
181	0x3e59715b	0.21234648
182	0xbe53bf85	-0.20678528
183	0x3eaee9a9	0.34162644
184	0x3bef4daf	0.007302962
185	0x3f12f1f7	0.5740046
186	0xbda2231d	-0.079168536
187	0xbcb11c39	-0.021619903
188	0xbe1e809d	-0.1547875
189	0xbe59b190	-0.21259141
190	0xbf0a2f17	-0.53978103
191	0xbeeba667	-0.46025392
192	0x3ef80525	0.48441425
193	0x3eb761ac	0.35816705
194	0xbf15c89c	-0.5850923
195	0x3ee3658c	0.44413412
196	0xbdace76a	-0.08442576
197	0xbf1c2f76	-0.6100992
198	0x3f398936	0.7247499
199	0xbb0fa713	-0.0021919652
200	0x3f11dca2	0.56977284
201	0xbe953db0	-0.29148626
202	0xbf013dc0	-0.5048485
203	0x3eb530d7	0.35388824
204	0x3eb1babc	0.3471278
205	0xbe584a11	-0.21122004
206	0x3e85709b	0.26062474
207	0x3e40334c	0.18769568
208	0xbc22d77d	-0.009939072
209	0x3de605f8	0.11231607
210	0xbf2cb074	-0.67456746
211	0xbd094138	-0.033509463
212	0xbed7ab45	-0.42122856
213	0xbea10d10	-0.31455278
214	0x3ca9ea65	0.02074165
215	0x3ea64d32	0.3248077
216	0x3e9f6df6	0.3113858
217	0x3f1d0e8e	0.61350334
218	0xbe259283	-0.16169171
219	0x3eb1c6d4	0.34722006
220	0xbe146bbd	-0.14494224
221	0xbe864d46	-0.2623083
222	0x3ecbddb8	0.39817595
223	0x3d802884	0.06257728
224	0xbe5694fb	-0.20955269
225	0x3dc00e80	0.09377766
226	0xbe08dc7a	-0.13365355
227	0x3edcb64c	0.4310783
228	0xbe488693	-0.19582586
229	0xbd3aa879	-0.045570824
230	0x3dd85eb4	0.10564938
231	0xbd773016	-0.060348593
232	0x3df5b99e	0.11998294
233	0x3e9ba795	0.30401292
234	0x3e075642	0.13216498
235	0x3c86dd36	0.016462903
236	0xbf34feea	-0.7070147
237	0x3e81bdbe	0.25340074
238	0x3ebe30ea	0.37146693
239	0x3e82372e	0.25432724
240	0xbe36ec35	-0.17863543
241	0x3e98b05d	0.29822055
242	0x3e587bfc	0.21141046
243	0x3c4fcbf5	0.0126829045
244	0xb988416a	-0.0002598868
245	0x3d068614	0.03284271
246	0x3e9b7f70	0.30370665
247	0xbe38f309	-0.1806146
248	0x3d2e8a1f	0.04261219
249	0x3e4042fc	0.18775553
250	0x3e861054	0.26184332
251	0x3e9ffce3	0.31247625
252	0x3ceafefe	0.028686043
253	0xbdfb41f7	-0.12268441
254	0xbdd8fb42	-0.105947986
255	0xbec5bfe3	-0.3862296

r_cell.fc.bias f4 [24]
0	0xbdef832c	-0.11694941
1	0xbda46711	-0.08027471
2	0x3d0ea057	0.03482088
3	0x3e164b87	0.14677249
4	0x3e05388c	0.13009852
5	0x3dfa51af	0.12222611
6	0x3e76e409	0.24110426
7	0xbe80aa54	-0.2512995
8	0x3cca9888	0.024730936
9	0x3e2fc52e	0.17165062
10	0xbdbccf80	-0.09219265
11	0xbdd2f6b0	-0.10300958
12	0xbdf85d41	-0.12127162
13	0xbdc6ca0b	-0.097065054
14	0xbce0c191	-0.02743605
15	0xbe1d8256	-0.1538175
16	0x3e30b1f0	0.17255378
17	0xbd46e54e	-0.048558526
18	0xbd92646c	-0.0714806
19	0x3de3ddfe	0.11126326
20	0xbccda526	-0.025103163
21	0xbe32fde6	-0.17479667
22	0x3deee2ef	0.11664378
23	0x3eb2fb4a	0.34957343

fc1.0.bias f4 [24]
0	0x3d857a0b	0.065174185
1	0xbd1cb6a6	-0.038260125
2	0x3de8a1be	0.11358975
3	0x3d55f1da	0.0522326
4	0x3c8bcce1	0.017065467
5	0xbda0364d	-0.07822857
6	0x3c915881	0.017742397
7	0x3d03b658	0.03215632
8	0x3d2a70f0	0.04161161
9	0x3cb1818a	0.021668214
10	0xbcdc5e46	-0.026900422
11	0x3df21a45	0.11821417
12	0x3d06e65a	0.032934524
13	0x3e08510d	0.13312168
14	0xbd1cc1c7	-0.038270738
15	0xbd647fee	-0.055786066
16	0x3d8b3e0c	0.06798944
17	0xbded65c4	-0.11591676
18	0xbc8d91f2	-0.017281506
19	0x3d8c3dba	0.06847711
20	0x3d96b6d3	0.0735909
21	0x3c689935	0.014196684
22	0x3d62bd02	0.055356033
23	0x3ba29819	0.004961979

fc1.0.weight_orig f4 [24, 6]
0	0x3d8dc5df	0.069225065
1	0xbd943997	-0.07237547
2	0x3d41722e	0.04722803
3	0xbd067bb7	-0.032832827
4	0x3d735f39	0.059416983
5	0x3e8df543	0.27726182
6	0xbddb8d19	-0.107202716
7	0x3e0fac03	0.14030461
8	0xbdb1b935	-0.086779036
9	0x3e0121e5	0.12610586
10	0xbd82f0cf	-0.06393587
11	0xbe82a4bf	-0.25516316
12	0xbd3e6b07	-0.046488788
13	0x3d577cf3	0.052609395
14	0xbd397207	-0.04527476
15	0x3d59b4e6	0.053151034
16	0xbd1c175b	-0.03810821
17	0xbebb2af7	-0.36556217
18	0x3e75ab77	0.2399119
19	0xbe2d416b	-0.16919486
20	0x3e5c3e4a	0.21508136
21	0xbdf85c96	-0.12127034
22	0x3e313c00	0.17308044
23	0x3d0bd94c	0.034142777
24	0x3e8c8ad7	0.27449676
25	0xbe40e9c7	-0.18839179
26	0x3e8ae437	0.2712724
27	0xbe137048	-0.143983
28	0x3e5886cb	0.2114517
29	0x3e6d33bb	0.23164265
30	0x3d98bed6	0.07458274
31	0xbd4f0659	-0.050543163
32	0x3d944fe2	0.07241799
33	0xbd38fb44	-0.0451615
34	0x3d3d0d8d	0.0461555
35	0xbe92f6bf	-0.28703877
36	0x3dd1dd6b	0.1024731
37	0xbd92182b	-0.07133516
38	0x3e154dc1	0.14580442
39	0xbd79737c	-0.06090115
40	0x3d62dfcf	0.05538922
41	0xbe8aa019	-0.2707527
42	0x3e06e6d0	0.13173985
43	0xbe091292	-0.1338599
44	0x3d41e120	0.047333837
45	0xbdf786c9	-0.12086255
46	0x3d99dd54	0.07512918
47	0x3e3bf457	0.18354927
48	0x3e1b6fe1	0.15179397
49	0xbe4bc6e9	-0.19900097
50	0x3e480aea	0.19535413
51	0xbe2052fe	-0.15656659
52	0x3dc2cb9f	0.09511494
53	0x3e73cb67	0.2380806
54	0x3e4969d9	0.19669284
55	0xbe2c013d	-0.16797347
56	0x3eb25772	0.3483234
57	0xbe01508c	-0.12628382
58	0x3e2b035a	0.16700497
59	0xbe3caba7	-0.18424855
60	0x3e5609f1	0.2090223
61	0xbe4c8e3d	-0.19976135
62	0x3e67094b	0.22562139
63	0xbe14bd7d	-0.14525409
64	0x3e2d98a0	0.16952753
65	0xbeded28c	-0.4352001
66	0x3e128286	0.14307603
67	0xbd470777	-0.048591103
68	0x3e81f250	0.25380182
69	0xbb02080a	-0.0019841217
70	0x3df7e753	0.121046685
71	0x3e4263b5	0.18983348
72	0xbbb1e0b1	-0.0054283966
73	0x3cc2f8c1	0.023800256
74	0x3c74c505	0.014939551
75	0x3b1e181e	0.0024123262
76	0xbb967b8d	-0.004592365
77	0x3f63c63d	0.8897436
78	0x3e02ec1a	0.12785378
79	0xbd82b9f1	-0.06383122
80	0x3db98cff	0.09060096
81	0xbd2f9a3b	-0.042871695
82	0x3dd903aa	0.10596402
83	0x3bf65195	0.0075170496
84	0x3c986b84	0.018605955
85	0xbd7e6dd3	-0.062116455
86	0x3cc7a953	0.024372732
87	0xbd49acda	-0.04923711
88	0x3be19c15	0.0068850615
89	0xbf07e2fb	-0.5308072
90	0xbd68292f	-0.0566799
91	0x3dbb6d64	0.09151724
92	0xbd6d0a15	-0.057870943
93	0x3d7616dc	0.060080394
94	0xbd18f7ed	-0.037345815
95	0xbeda4a70	-0.42634916
96	0xbe1d6fa8	-0.15374625
97	0x3e1bf9b0	0.15231967
98	0xbe18b54c	-0.1491291
99	0x3d89a191	0.067202695
100	0xbde4562b	-0.11149248
101	0xbe2928fa	-0.16519538
102	0xbd0a9f71	-0.03384346
103	0xbc768eb3	-0.015048671
104	0xbdcd9e75	-0.10039989
105	0xbcaaeee5	-0.020865867
106	0xbcac27cc	-0.02101507
107	0xbe159798	-0.1460861
108	0xbc5b021f	-0.013367205
109	0xbc13aff1	-0.009014116
110	0xbcb1b116	-0.021690886
111	0x3a1c6162	0.0005965439
112	0xbc361da1	-0.0111154625
113	0xbf6bd448	-0.9212079
114	0x3ca4e750	0.02012983
115	0x3db631b7	0.08896201
116	0xbdd1c0e6	-0.102418706
117	0x3d736e7c	0.059431538
118	0x3d4dec1f	0.05027401
119	0xbe2e0ecf	-0.16997837
120	0xbe1ca353	-0.15296678
121	0x3e274199	0.16333617
122	0xbe299b91	-0.1656325
123	0x3df2c964	0.118548185
124	0xbdd516e7	-0.10404759
125	0xbe43e0d7	-0.19128738
126	0xbd4be5f7	-0.04977986
127	0x3de8bec6	0.11364512
128	0xbe108e76	-0.14116845
129	0x3d53871a	0.051642515
130	0xbc84fa5c	-0.016232662
131	0xbd172a6e	-0.0369057
132	0xbd0937e4	-0.033500567
133	0x3daa4d34	0.083155066
134	0xbd03d94a	-0.032189645
135	0x3d78150d	0.06056695
136	0xbcb3e7bd	-0.021961087
137	0x3f20a9a7	0.6275887
138	0x3d87703e	0.066132054
139	0xbcdac4b1	-0.026705118
140	0x3dd32c7f	0.10311221
141	0xbd56074a	-0.052253045
142	0x3d05568b	0.032553237
143	0xbe7a3f65	-0.24438246

fc1.0.weight_u f4 [24]
0	0x3e1c02c7	0.15235434
1	0xbe13e247	-0.14441787
2	0xbe4b0a64	-0.19828182
3	0x3d106b82	0.035258777
4	0x3e12f388	0.14350712
5	0xbe16ae84	-0.1471501
6	0xbe0ab0ed	-0.13544054
7	0x3dd929af	0.10603654
8	0x3e10274b	0.14077489
9	0xbda0ac81	-0.078454025
10	0xbe5b2949	-0.21402468
11	0x3de76b16	0.11299722
12	0x3ef1f181	0.47254565
13	0x3c4682c4	0.012116138
14	0xbe8f1671	-0.2794681
15	0xbe6d47c6	-0.2317191
16	0xbdcbd708	-0.09953123
17	0xbda57857	-0.08079594
18	0xbefb22db	-0.4905003
19	0xbdbf953a	-0.093546346
20	0xbdea596e	-0.114428386
21	0xbcdaa0db	-0.02668803
22	0x3ea8cd01	0.32968906
23	0xbdfebbbc	-0.12438151

fc1.0.weight_v f4 [6]
0	0x3d2bd948	0.041955262
1	0xbce144b6	-0.027498584
2	0x3d3f4c5e	0.04670369
3	0xbca08680	-0.019595385
4	0x3cec312f	0.028832046
5	0x3f7f3df5	0.99703914

fc1.1.weight f4 [24, 24]
0	0xbf168ef2	-0.5881187
1	0x3f1bdcb6	0.60883653
2	0x3ec7fe72	0.39061314
3	0x3f78e05d	0.9721735
4	0x3f77cc9e	0.96796596
5	0x3f138d30	0.5763731
6	0x3ed24953	0.41071567
7	0x3efdef09	0.49596432
8	0xbf7dceef	-0.9914388
9	0xbf97fbb3	-1.1873688
10	0x3f35852c	0.7090633
11	0xbf38c695	-0.7217801
12	0x3eadf1a8	0.33973432
13	0x3dc4aa5a	0.096028045
14	0x3f0b480e	0.5440682
15	0xbd90fd7d	-0.07079599
16	0x3ee9d208	0.45668054
17	0x3f51c024	0.8193381
18	0xbd5d7ba5	-0.054072995
19	0xbded8970	-0.1159848
20	0xbf583973	-0.8446266
21	0x3e90ed3f	0.28306004
22	0xbedf03c9	-0.43557575
23	0xbf0eac57	-0.5573172
24	0xbf298b1c	-0.6622789
25	0xbccfb3ac	-0.025354229
26	0xbf4e8d1f	-0.80684084
27	0xbdc3edd5	-0.09566847
28	0xbd0e13c7	-0.03468683
29	0xbea77cc4	-0.32712376
30	0xbef23a50	-0.47310114
31	0x3e204342	0.15650657
32	0x3f36182c	0.71130633
33	0x3dcd1465	0.100136556
34	0x3f3305d1	0.6993075
35	0x3df0cbbd	0.1175761
36	0x3f8182d9	1.0118057
37	0x3e7f47c1	0.24929716
38	0xbe1070be	-0.14105508
39	0x3f9c58c6	1.2214592
40	0x3ec31860	0.38104534
41	0xbeab0105	-0.33399215
42	0xbf7699c8	-0.963284
43	0x3fb4ff60	1.4140434
44	0x3e8cf308	0.27529168
45	0xbf2b4818	-0.6690688
46	0xbd36416a	-0.044495977
47	0xbdf14e56	-0.117825195
48	0x3f0b2bd4	0.5436375
49	0xbea7fa32	-0.3280807
50	0x3e5d11d6	0.21588835
51	0xbf83e00a	-1.0302746
52	0xbf40b306	-0.7527317
53	0xbee4c6a6	-0.44682807
54	0xbe3484b1	-0.17628743
55	0xbf0f3b97	-0.559503
56	0x3ef48c28	0.4776318
57	0x3f58c0f3	0.8466942
58	0xbf55783b	-0.8338658
59	0xbdc0c4c1	-0.09412528
60	0xbf636deb	-0.88839597
61	0xbe27a164	-0.1637016
62	0xbf413c2c	-0.7548244
63	0x3f21ea81	0.6324845
64	0xbe1ac467	-0.15113984
65	0x3eed65b4	0.46366656
66	0x3f8b1074	1.0864396
67	0x3f65e4d2	0.8980228
68	0xbe2c1198	-0.16803586
69	0x3d90683d	0.07051132
70	0x3f148e48	0.58029604
71	0xbe293cd4	-0.1652711
72	0xbf57b14a	-0.84254897
73	0x3eeba1b8	0.4602182
74	0xbe560560	-0.20900488
75	0x3f55fe55	0.83591205
76	0x3f04cd0f	0.51875395
77	0x3f2251a7	0.6340584
78	0x3d74a781	0.059730057
79	0x3db7ca6b	0.08974155
80	0xbe931920	-0.28730106
81	0xbf97269c	-1.1808658
82	0x3f197422	0.5994283
83	0xbe24d66b	-0.16097419
84	0x3f91925b	1.1372789
85	0xbed67636	-0.41887063
86	0x3f158ea0	0.58420753
87	0x3e2f1b33	0.1710022
88	0xbd4eafee	-0.05046075
89	0x3f30f9da	0.69131243
90	0xbf836c97	-1.0267514
91	0xbfa53547	-1.2906884
92	0xbe6aa1a3	-0.22913222
93	0x3e1b794b	0.15182988
94	0xbf8f32fe	-1.1187437
95	0x3e7df9aa	0.2480227
96	0x3f265faa	0.6498972
97	0xbf28106f	-0.65650076
98	0xbf383841	-0.71960837
99	0xbfbea4a1	-1.4893991
100	0xbf97517c	-1.1821742
101	0xbf2bf956	-0.6717733
102	0xbf7169da	-0.9430214
103	0xbf9c6e2c	-1.2221122
104	0x3fb58792	1.4181998
105	0x3fb253b3	1.3931793
106	0xbf35f4b6	-0.71076524
107	0xbc2790c5	-0.010227387
108	0xbed457c3	-0.41473207
109	0x3d9a6300	0.07538414
110	0xbecadbf7	-0.39620945
111	0xbe518ead	-0.20464583
112	0x3eb06d13	0.34458217
113	0xbd298206	-0.041383766
114	0xbe68c80f	-0.22732566
115	0x3e26649b	0.16249315
116	0x3f7fadcb	0.9987456
117	0x3e0d7fb6	0.13818249
118	0x3ee83d34	0.45359194
119	0xbebb9bef	-0.36642405
120	0xbeb18d87	-0.3467829
121	0xbf40d92f	-0.75331396
122	0xbfbc6973	-1.471968
123	0xbe778363	-0.24171214
124	0xbdaff560	-0.085917234
125	0xbead0db7	-0.33799526
126	0xbec154cf	-0.37760016
127	0xbf1aad55	-0.60420734
128	0x3ede8194	0.43458235
129	0xbdf0f6da	-0.11765833
130	0x3f5b51ca	0.85671675
131	0x3f2096f1	0.6273032
132	0x3f6140d2	0.8798953
133	0xbe335d3d	-0.17516036
134	0xbb0367eb	-0.0020050954
135	0x3fb586a1	1.418171
136	0x3e1d45d9	0.15358676
137	0x3d800fbd	0.06253002
138	0xbfb29daa	-1.3954365
139	0xbc8cfbb8	-0.017209873
140	0x3e902771	0.2815509
141	0xbf4770a2	-0.7790624
142	0xbf1aa241	-0.6040383
143	0xbf89f5b3	-1.0778106
144	0x3f3b8bc6	0.7326015
145	0xbf9a3c4d	-1.2049652
146	0xbf94e392	-1.1631949
147	0xbfaf3fc0	-1.369133
148	0xbf979821	-1.1843301
149	0xbef7ba90	-0.48384523
150	0xbf79093b	-0.9727971
151	0xbfa688e5	-1.3010527
152	0x3fb5fd20	1.4217873
153	0x3fdcb924	1.7244
154	0xbf464405	-0.7744754
155	0x3e3915b5	0.18074687
156	0xbf07448b	-0.52838963
157	0xbe9fb0b3	-0.31189498
158	0xbedcf44a	-0.43155128
159	0x3f070828	0.5274682
160	0xbe145392	-0.14485005
161	0xbe81926d	-0.25307027
162	0x3b4eecfa	0.0031574355
163	0xbdd12ade	-0.102132544
164	0x3fa9c77c	1.3264003
165	0xbe6d3f8c	-0.23168772
166	0x3eb8f215	0.36122194
167	0xbeb01f38	-0.34398818
168	0xbf074fa1	-0.5285588
169	0x3e2551b6	0.16144451
170	0xbf47b13a	-0.780048
171	0x3f824e02	1.0180056
172	0x3f38045b	0.71881646
173	0x3f59980b	0.84997624
174	0x3ef56123	0.47925672
175	0x3e62a206	0.2213212
176	0xbeb88459	-0.36038473
177	0xbfb09319	-1.3794891
178	0x3f8f85c5	1.1212698
179	0xbecf5145	-0.4049169
180	0x3fbca4b3	1.4737762
181	0xbf20d2d6	-0.6282171
182	0x3f63783c	0.8885534
183	0x3ec438b3	0.38324508
184	0xbd65787e	-0.056023113
185	0x3f47c922	0.7804128
186	0xbfd82999	-1.6887695
187	0xbebf4745	-0.37359062
188	0xbe8f7c09	-0.2802432
189	0x3d03d515	0.032185633
190	0xbfaca2ec	-1.348722
191	0x3f08fbd0	0.53509235
192	0x3f0c7c4b	0.54877156
193	0x3eb973cb	0.36221156
194	0x3eb99541	0.36246684
195	0x3efbe314	0.49196684
196	0x3f81616f	1.0107859
197	0x3fa4aaf0	1.2864666
198	0x3f24464e	0.64169776
199	0x3e48abc2	0.1959677
200	0xbf0a66b2	-0.5406295
201	0xbf12e96d	-0.5738743
202	0x3ea6b4cb	0.3255981
203	0xbf535622	-0.82553303
204	0xbeb65239	-0.35609606
205	0x3ea8b32c	0.32949197
206	0x3dac3183	0.08407881
207	0xbf90ccd6	-1.1312511
208	0xbeef806b	-0.46777663
209	0x3f3239b3	0.6961929
210	0x3f2718d9	0.6527229
211	0xbf8764b2	-1.0577605
212	0xbf23b0a5	-0.63941413
213	0x3f331dd2	0.6996738
214	0xbe7d9321	-0.24763156
215	0x3ebd878b	0.37017474
216	0x3f2ac5ce	0.66708076
217	0x3f255817	0.6458754
218	0xbf09dd0d	-0.5385292
219	0x3efe5e8f	0.49681517
220	0x3f2c5830	0.67322063
221	0xbeffb26b	-0.4994081
222	0xbe45fc82	-0.19334605
223	0x3f4afce6	0.7929214
224	0x3e2c7622	0.16841939
225	0xbf1f214c	-0.6216018
226	0x3f5e1e81	0.86765295
227	0xbf187154	-0.59547925
228	0x3f4611bf	0.7737083
229	0xbd9f0d45	-0.07766203
230	0xbe0fdf53	-0.14050035
231	0x3f80df2d	1.0068108
232	0xbed2571b	-0.4108208
233	0xbf5d8a44	-0.865391
234	0xbf48e206	-0.78469884
235	0xbf2bb23c	-0.6706884
236	0xbe380ec7	-0.17974387
237	0x3f90cb46	1.1312034
238	0x3beffb4c	0.007323658
239	0xbea7b4fb	-0.32755265
240	0xbe08c9db	-0.13358252
241	0xbccdbae9	-0.02511354
242	0xbf090437	-0.53522056
243	0x3e86b42c	0.26309335
244	0x3de59970	0.112109065
245	0xbeac29af	-0.33625552
246	0xbeef6022	-0.4675303
247	0xbd0a7cf1	-0.03381056
248	0xbe1cf1af	-0.1532657
249	0xbdf8e3dd	-0.121528365
250	0x3ed726c7	0.42021772
251	0x3f463e8e	0.774392
252	0x3e719abf	0.23594187
253	0xbece67d9	-0.40313604
254	0xbda6bad8	-0.08141106
255	0x3f7632a8	0.96171045
