models/17_05_2021/stock_self_attn_MSE_hinge_10000_64_24_6_24_5/8000_supervisor.pth (torch, 56590 bytes, 39 tensors)

position.pe f4 [1, 24, 24]
000000 00 00 00 00 00 00 80 3f 00 00 00 00 00 00 80 3f
       0.0 1.0 0.0 1.0
000010 00 00 00 00 00 00 80 3f 00 00 00 00 00 00 80 3f
       0.0 1.0 0.0 1.0
000020 00 00 00 00 00 00 80 3f 00 00 00 00 00 00 80 3f
       0.0 1.0 0.0 1.0
000030 00 00 00 00 00 00 80 3f 00 00 00 00 00 00 80 3f
       0.0 1.0 0.0 1.0
000040 00 00 00 00 00 00 80 3f 00 00 00 00 00 00 80 3f
       0.0 1.0 0.0 1.0
000050 00 00 00 00 00 00 80 3f 00 00 00 00 00 00 80 3f
       0.0 1.0 0.0 1.0
000060 a4 6a 57 3f 41 51 0a 3f 1d 35 e5 3e 30 ea 64 3f
       0.84147096 0.54030234 0.44767085 0.8941984
000070 52 e9 5a 3e eb 14 7a 3f 76 75 cc 3d 98 b8 7e 3f
       0.21378067 0.9768817 0.099833414 0.9950042
000080 1e 0d 3e 3d 6a b9 7f 3f 47 7a b0 3c ca f0 7f 3f
       0.04639923 0.99892294 0.021542681 0.9997679
000090 57 d6 23 3c b9 fc 7f 3f 57 18 98 3b 4b ff 7f 3f
       0.009999833 0.99995 0.0046415734 0.9999892
0000a0 64 31 0d 3b d9 ff 7f 3f 6d 12 83 3a f8 ff 7f 3f
       0.0021544332 0.9999977 0.0009999998 0.9999995
0000b0 5c 5a f3 39 fe ff 7f 3f ab e8 61 39 00 00 80 3f
       0.00046415895 0.9999999 0.00021544348 1.0
0000c0 b7 c7 68 3f 33 11 d5 be fb f4 4c 3f f8 63 19 3f
       0.9092974 -0.41614684 0.8006131 0.59918165
0000d0 be d9 d5 3e b9 99 68 3f f8 6f 4b 3e a5 e5 7a 3f
       0.41767687 0.9085956 0.19866931 0.9800666
0000e0 b7 d8 bd 3d d1 e5 7e 3f cb 6f 30 3d 2c c3 7f 3f
       0.09269851 0.9956942 0.043075364 0.99907184
0000f0 3e d4 a3 3c e5 f2 7f 3f ec 17 18 3c 2d fd 7f 3f
       0.019998666 0.9998 0.009283047 0.9999569
000100 4e 31 8d 3b 64 ff 7f 3f 68 12 03 3b df ff 7f 3f
       0.004308856 0.9999907 0.0019999985 0.99999803
000110 5b 5a 73 3a f9 ff 7f 3f ab e8 e1 39 ff ff 7f 3f
       0.00092831784 0.9999996 0.00043088695 0.99999994
000120 c3 81 10 3e 26 70 7d bf ce f0 7b 3f 16 a2 35 3e
       0.14112 -0.9899925 0.98414314 0.17737612
000130 c8 2d 1a 3f 56 5d 4c 3f 6c 4e 97 3e ef 90 74 3f
       0.60226107 0.7982992 0.2955202 0.9553365
000140 17 21 0e 3e a8 85 7d 3f bd 46 84 3d 29 77 7f 3f
       0.1387981 0.9903207 0.06458805 0.997912
000150 1f b9 f5 3c 83 e2 7f 3f d5 22 64 3c a6 f9 7f 3f
       0.0299955 0.99955004 0.01392432 0.9999031
000160 bf c9 d3 3b a2 fe 7f 3f 92 9b 44 3b b5 ff 7f 3f
       0.006463259 0.99997914 0.0029999954 0.9999955
000170 c2 83 b6 3a f0 ff 7f 3f 7f 6e 29 3a fd ff 7f 3f
       0.0013924765 0.99999905 0.00064633036 0.9999998
000180 cf bd 41 bf 30 55 27 bf e7 9c 75 3f 6c 5d 90 be
       -0.7568025 -0.6536436 0.9594254 -0.28196275
000190 be 4d 42 3f f9 ad 26 3f d7 61 c7 3e a7 ca 6b 3f
       0.75899875 0.6510921 0.38941833 0.921061
0001a0 73 07 3d 3e b2 99 7b 3f df 45 b0 3d cc 0c 7f 3f
       0.18459873 0.98281395 0.08607077 0.996289
0001b0 db cb 23 3d 94 cb 7f 3f 3e 16 98 3c b4 f4 7f 3f
       0.039989334 0.9992001 0.018565293 0.9998276
0001c0 f8 30 0d 3c 91 fd 7f 3f 57 12 83 3b 7a ff 7f 3f
       0.008617632 0.99996287 0.003999989 0.999992
0001d0 54 5a f3 3a e3 ff 7f 3f a9 e8 61 3a fa ff 7f 3f
       0.0018566349 0.9999983 0.0008617738 0.99999964
0001e0 10 7c 75 bf 2c 3c 91 3e 0a 50 3b 3f cb 7f 2e bf
       -0.9589243 0.2836622 0.73169005 -0.68163747
0001f0 cf 71 61 3f 63 93 f2 3e 43 77 f5 3e 40 a9 60 3f
       0.88064283 0.47378072 0.47942552 0.87758255
000200 93 85 6b 3e ff 22 79 3f 0e 30 dc 3d 21 84 7e 3f
       0.23000173 0.97319025 0.10751353 0.9942036
000210 f4 b6 4c 3d 19 ae 7f 3f 3c 1a be 3c 5a ee 7f 3f
       0.049979165 0.99875027 0.023205869 0.9997307
000220 e6 7c 30 3c 33 fc 7f 3f dd d6 a3 3b 2e ff 7f 3f
       0.010771966 0.999942 0.004999979 0.9999875
000230 71 18 18 3b d3 ff 7f 3f 69 31 8d 3a f6 ff 7f 3f
       0.0023207928 0.9999973 0.0010772172 0.9999994
000240 8c 0f 8f be b8 cd 75 3f c6 c0 b2 3e 2d e4 6f bf
       -0.2794155 0.96017027 0.349127 -0.93707544
000250 63 29 76 3f 8f 93 8c 3e 68 8c 10 3f 32 49 53 3f
       0.961569 0.27456328 0.5646424 0.8253356
000260 e9 c0 8c 3e e9 22 76 3f 09 00 04 3e 38 dd 7d 3f
       0.2749093 0.9614702 0.12890638 0.9916568
000270 d1 9c 75 3d 12 8a 7f 3f 2b 1d e4 3c 96 e6 7f 3f
       0.059964005 0.99820054 0.02784594 0.9996122
000280 9d c8 53 3c 86 fa 7f 3f 58 9b c4 3b d2 fe 7f 3f
       0.012926248 0.99991643 0.0059999637 0.999982
000290 b7 83 36 3b bf ff 7f 3f 7d 6e a9 3a f2 ff 7f 3f
       0.0027849504 0.9999961 0.0012926605 0.99999917
0002a0 46 30 28 3f bd ff 40 3f 9f c6 db bd 8d 85 7e bf
       0.6569866 0.75390226 -0.10731243 -0.9942253
0002b0 41 7f 7f 3f 23 4f 80 3d 72 eb 24 3f b3 cc 43 3f
       0.9980355 0.06265094 0.6442176 0.7648422
0002c0 6a 71 a3 3e 18 9b 72 3f 5d d8 19 3e 25 18 7d 3f
       0.31922466 0.94767904 0.15023942 0.98864967
0002d0 32 3e 8f 3d 81 5f 7f 3f 6e 0f 05 3d 69 dd 7f 3f
       0.06994285 0.997551 0.032485418 0.9994722
0002e0 15 14 77 3c 8c f8 7f 3f c5 5f e5 3b 65 fe 7f 3f
       0.0150804715 0.9998863 0.006999942 0.9999755
0002f0 f8 ee 54 3b a8 ff 7f 3f 91 ab c5 3a ed ff 7f 3f
       0.003249107 0.99999475 0.0015081038 0.99999887
000300 95 46 7d 3f f6 fd 14 be e3 81 0a bf 62 4b 57 bf
       0.98935825 -0.14550003 -0.5410444 -0.840994
000310 e9 04 7d 3f 59 cf 1b be a5 a4 37 3f 5f 5b 32 3f
       0.9883562 -0.15215816 0.717356 0.6967067
000320 cb c7 b9 3e 80 8d 6e 3f 69 9e 2f 3e ff 34 7c 3f
       0.36285242 0.9318466 0.17150272 0.98518366
000330 50 aa a3 3d 65 2e 7f 3f 89 0f 18 3d d3 d2 7f 3f
       0.07991469 0.9968017 0.03712419 0.9993107
000340 a1 2f 8d 3c 44 f6 7f 3f 12 12 03 3c e7 fd 7f 3f
       0.017234625 0.99985147 0.007999914 0.999968
000350 38 5a 73 3b 8c ff 7f 3f a4 e8 e1 3a e7 ff 7f 3f
       0.0037132632 0.9999931 0.001723547 0.9999985
000360 32 01 d3 3e d5 3f 69 bf f1 3b 5c bf 9f 82 02 bf
       0.4121185 -0.91113025 -0.86028963 -0.5098056
000370 af d7 6e 3f 01 49 b8 be 1c 88 48 3f d5 21 1f 3f
       0.9329786 -0.35993198 0.78332686 0.62161
000380 ba b7 cf 3e 5c fc 69 3f 97 4f 45 3e e1 33 7b 3f
       0.4056986 0.91400695 0.19268642 0.98126036
000390 3e 12 b8 3d c2 f6 7e 3f cd 0e 2b 3d d3 c6 7f 3f
       0.089878544 0.9959527 0.041762162 0.99912757
0003a0 0c d5 9e 3c ae f3 7f 3f 3a 74 13 3c 59 fd 7f 3f
       0.019388698 0.999812 0.008999879 0.9999595
0003b0 ba e2 88 3b 6e ff 7f 3f b6 25 fe 3a e1 ff 7f 3f
       0.0041774185 0.9999913 0.0019389901 0.99999815
0003c0 f8 44 0b bf 64 cd 56 bf d1 5b 7f bf 7e e0 90 bd
       -0.5440211 -0.8390715 -0.99749476 -0.070740685
0003d0 61 9f 55 3f 82 12 0d bf a4 6a 57 3f 41 51 0a 3f
       0.8344632 -0.55106366 0.84147096 0.54030234
0003e0 1e 35 e5 3e 30 ea 64 3f 53 e9 5a 3e eb 14 7a 3f
       0.44767088 0.8941984 0.21378069 0.9768817
0003f0 76 75 cc 3d 98 b8 7e 3f 21 0d 3e 3d 6a b9 7f 3f
       0.099833414 0.9950042 0.04639924 0.99892294

r_cell.w_qs.weight f4 [24, 24]
000000 57 0b ba 3d 01 27 10 3e 64 bc 2a bf c8 9b 75 3d
       0.09084194 0.14077379 -0.6669371 0.059963018
000010 ee a6 db 3d 5a 22 c8 3e b0 f8 4c 3f 3f 5e 82 3e
       0.10725199 0.39088708 0.80066967 0.2546253
000020 b9 96 b1 3e bb 4a cd 3e c7 1a 75 3d 8a 81 cd 3f
       0.34685305 0.40096077 0.05983999 1.6055157
000030 8c b9 1c 3f 2a 88 51 bc c3 cc a7 3e bf ef 68 3d
       0.6122062 -0.012788812 0.32773408 0.056869265
000040 5d df 88 bd 1e 23 55 3f a3 86 d2 3d 4e 2d 8a be
       -0.06683228 0.8325671 0.10279586 -0.2698769
000050 62 5c f0 3d 19 e9 76 bf e2 cd cc 3e a5 a4 0b 3f
       0.117363706 -0.9644943 0.40000826 0.545481
000060 cf 37 f9 3e 95 31 cf 3e 72 9d 26 3f b6 41 34 bc
       0.4867539 0.40467516 0.6508399 -0.011001995
000070 12 0c cd be 8e 73 85 be 99 29 60 bf f5 67 b8 3e
       -0.4004827 -0.26064724 -0.87563473 0.36016813
000080 ef 05 07 3f 0d ed 3c 3f 1b 83 a3 bc 50 64 18 3f
       0.5274343 0.7379921 -0.019959977 0.59528065
000090 bc 8c 10 bc b9 15 44 3f 1c 23 1b 3f 91 2a 83 3d
       -0.008822616 0.76595646 0.6060045 0.06404603
0000a0 e8 68 ae 3e 8c 5d d7 3e 24 3c 13 3f 36 61 5f 3f
       0.34064412 0.42063558 0.5751364 0.8725771
0000b0 a9 e6 64 bd 82 63 cd 3e 7f 70 44 3f c7 87 00 3f
       -0.055884037 0.4011498 0.76734155 0.5020718
0000c0 3b 86 d7 be 5b 32 27 3f 33 2a 5d be ac c1 9d 3e
       -0.42094597 0.6531121 -0.21598129 0.30811822
0000d0 9a 71 00 bf e7 4b da 3d 82 16 6c bd cf 7a 06 3f
       -0.5017334 0.106590085 -0.057638653 0.5253114
0000e0 61 94 fc 3e 26 8e 1a 3e 04 73 48 3e c2 15 ae bf
       0.49331954 0.15093288 0.19575125 -1.360039
0000f0 af b6 ba be a3 9d 43 bd 12 18 8f 3b ad fd 19 3f
       -0.36467502 -0.047757756 0.004366883 0.60152704
000100 35 ec 69 3e 26 15 d5 be 99 fb 8b 3e 0e fe 8c be
       0.22844012 -0.41617697 0.2734039 -0.27537578
000110 7e 19 1e bf b6 28 f3 be ac 2c 26 3f cb 59 c3 be
       -0.6175765 -0.47491997 0.64911914 -0.38154444
000120 b7 ca 0a bf c1 c7 bd bd c1 a4 bc 3d 96 b2 30 bf
       -0.5421557 -0.09266616 0.09211112 -0.690225
000130 7f 0e e7 3d 70 8e 5f 3e 5f 32 e5 bf 15 51 57 bf
       0.11282062 0.2183168 -1.7905997 -0.84108096
000140 64 8e 10 3e 82 53 66 bf 92 05 5d 3e 85 a7 49 3f
       0.14116818 -0.8997117 0.21584156 0.7877124
000150 32 b3 be be a1 d8 53 bf f4 43 ba be 55 f0 d6 3d
       -0.3724609 -0.82752424 -0.3637997 0.104950584
000160 ec f5 0e 3f fc 2e 08 be 75 03 a5 3e 91 9c 1a be
       0.55843997 -0.13299173 0.322292 -0.15098788
000170 f5 c1 bc 3e 7c 47 a9 3e 42 14 b0 bf db 42 cb bd
       0.36866727 0.3306235 -1.3756182 -0.09924861
000180 0f 9e 35 be 31 4b fc 3e 16 e4 25 3f 2d 61 4b bf
       -0.17736076 0.49276116 0.64801157 -0.79445153
000190 f1 09 05 be 3d 03 12 3f f6 2c 0a 3e a4 73 ee be
       -0.12992074 0.5703619 0.13493714 -0.46572602
0001a0 90 d1 8f 3e 27 14 22 3d 81 9f 46 be 11 6a 2f 3e
       0.2808957 0.03957 -0.19396783 0.17130305
0001b0 72 c3 f6 be cb be cb bd 95 f3 8c be 27 72 f0 be
       -0.48195988 -0.099485 -0.27529588 -0.4696209
0001c0 83 b7 03 be 83 0a dd bd d7 81 12 3f 52 a5 89 be
       -0.12862973 -0.107930206 0.5722937 -0.26883942
0001d0 8b 1e b3 3e 08 39 e4 bd 5f bf d5 bf b7 c0 81 be
       0.3498424 -0.1114369 -1.6699027 -0.25342342
0001e0 16 aa 59 bf 94 a5 2a bd a6 ee 37 bf e0 e3 df 3f
       -0.85025156 -0.041661814 -0.71848524 1.7491417
0001f0 1b 8e 4a be f0 51 2e bf 36 9c b9 3c 92 8f 9b 3e
       -0.19780771 -0.68093777 0.022657495 0.30382973
000200 c2 7b ca 3d 5c ca 8d 3e 89 2d 95 3e ab 10 bc 3f
       0.09886886 0.2769345 0.29136303 1.4692587
000210 7f 57 25 3e b9 08 81 3e a3 38 1b bf 80 02 fd 3e
       0.16146658 0.25201967 -0.60633296 0.4941597
000220 d4 8a 8e bd 13 aa 32 3f 43 0d 16 bf 33 57 41 be
       -0.06960073 0.6979076 -0.58613986 -0.1888092
000230 a0 4f 70 3e ac 8f 1b 3e ed 3e a1 be 7a 39 d8 3e
       0.23467875 0.15191525 -0.3149332 0.4223135
000240 0e 3e 66 3f 1f d5 72 bf b7 8f 91 3e 59 ab f5 3e
       0.8993844 -0.94856447 0.28429958 0.4798229
000250 9f 47 05 bf d0 5c c0 3e b9 59 59 be 6a 96 c3 3e
       -0.5206241 0.3757081 -0.21225633 0.38200694
000260 57 48 86 bd f3 be c0 be 9d e6 bc 3e 49 98 0c bf
       -0.065567665 -0.37645683 0.36894694 -0.5491987
000270 f1 7c 5e 3e eb 41 13 bf fb 6c 29 bf df fc 85 3e
       0.21727349 -0.5752246 -0.66181916 0.26169488
000280 13 46 a9 be 1b ef 1f bf 33 34 ba 3e 78 37 e2 3d
       -0.33061275 -0.6247422 0.3636795 0.11045736
000290 e5 de 8e be 46 e9 21 3e 1c a2 af 3d 63 01 98 3e
       -0.2790443 0.15811643 0.08575842 0.29688558
0002a0 b2 56 8a 3d 3f f0 d0 be de 53 ae 3d 2d 7e 1e 3f
       0.06754817 -0.40808293 0.0851209 0.6191128
0002b0 e9 19 0c be 23 23 28 3f 3c 6c bf 3f aa f3 06 be
       -0.13681759 0.65678614 1.4954906 -0.13178888
0002c0 6e 08 81 be 5d 98 2d be 87 4e bf bd 6b 94 bd be
       -0.25201744 -0.16952653 -0.0934115 -0.37027296
0002d0 ce 8c 88 3e 79 11 5e 3d ef e7 d2 3e 26 94 0c bf
       0.26669925 0.054215882 0.41192576 -0.54913557
0002e0 5e e8 0e 3f 84 a5 36 3f c9 40 97 bd 23 31 db 3d
       0.55823314 0.71346307 -0.07385404 0.107027315
0002f0 3e 08 f1 be 10 22 9f bf 90 eb 77 3f f0 cb 21 3f
       -0.470766 -1.243227 0.96843815 0.6320181
000300 4e 6c fb be 25 80 0f 3f 7e a7 b9 bd 0b 8e 27 bf
       -0.49106067 0.5605491 -0.0906515 -0.65451115
000310 bf fb f5 be 04 82 04 3f 83 8c 65 3f 0c 32 7e 3e
       -0.4804363 0.5176089 0.8966753 0.24823779
000320 7e 2f 7f bf 88 67 c6 bd 85 22 c8 3e 3e 33 06 bf
       -0.9968184 -0.09687716 0.39088836 -0.5242194
000330 1c e9 a8 be 9d a0 31 bf 82 b5 74 3f 59 30 d5 3e
       -0.32990348 -0.693857 0.9558946 0.4163845
000340 d7 91 2c 3e 20 89 d9 3d 67 a3 bb be b7 07 18 3e
       0.16852508 0.10621858 -0.36648104 0.14846693
000350 66 17 ca 3d 10 35 8f 3e a4 b5 57 3f 19 0c be 3e
       0.09867744 0.2797017 0.84261537 0.37118605
000360 34 66 fa 3e e4 c0 2c 3f ff 1c 94 be a2 d0 d0 be
       0.489061 0.6748183 -0.28928372 -0.40784174
000370 1c 97 2a be d5 d2 34 3e 8c f6 ce be 71 50 08 3e
       -0.16659206 0.17658551 -0.40422475 0.13311936
000380 92 d4 79 3d e9 4a 39 3f cb 90 09 be 0c 32 b2 3d
       0.06099374 0.7237993 -0.1343414 0.08700952
000390 dd e1 64 bd de 64 e0 3c 4a bf 7e bf 77 26 9f 3e
       -0.055879463 0.027391847 -0.99510634 0.31084034
0003a0 f0 da 43 3f ac 3e 6e bf 22 82 71 bc d6 bb 8e 3e
       0.7650595 -0.9306438 -0.014740499 0.27877682
0003b0 72 78 7f bf 23 7c f5 bd 90 35 cb 3e 5f 2d 70 3f
       -0.9979316 -0.11986568 0.39689302 0.9381923
0003c0 c7 fd 03 bf 34 17 04 3f 23 fb b6 3e f6 b4 94 bd
       -0.5155911 0.51597905 0.35738477 -0.07261078
0003d0 b7 93 14 bf 13 f7 fe bd 7c b1 88 bf 71 39 18 3e
       -0.58037895 -0.124494694 -1.0679164 0.14865662
0003e0 3d 88 41 bf fd 33 e0 3d b7 33 fd bc 61 8e 83 be
       -0.7559851 0.10947416 -0.030908449 -0.25694564
0003f0 da 2c 56 bf 6d 3f c5 be 87 a1 74 bf e6 8c 1b 3e
       -0.8366219 -0.38524953 -0.9555897 0.15190467

r_cell.w_qs.bias f4 [24]
000000 ae bb c2 bd 33 88 68 3c 69 47 79 be e6 47 00 3f
       -0.09508453 0.014192629 -0.24343647 0.5010971
000010 a3 d9 4c be bd c0 27 be 0a 61 8f 3d 59 d4 50 3e
       -0.20004897 -0.16382118 0.070009306 0.20393504
000020 b9 78 92 3e f3 d6 f2 be 03 9f 5e be 16 d5 65 be
       0.2860773 -0.47429618 -0.21740346 -0.22444567
000030 5b e8 15 3e b8 f0 80 be 75 55 93 3d cc c4 61 3e
       0.14639418 -0.25183654 0.07194034 0.22047728
000040 f8 25 07 bf 3a 82 ad be 6c 10 d6 3e e7 7f 68 3e
       -0.5279231 -0.33888417 0.41809404 0.22705041
000050 27 1f d9 bd a1 45 e6 be 59 c5 d7 3c 72 71 91 3e
       -0.10601645 -0.44974998 0.02633922 0.28406864

r_cell.w_ks.weight f4 [24, 24]
000000 03 12 f1 3e d1 12 d7 3e 40 54 49 3e ab ce 3f 3e
       0.47084054 0.42006543 0.19661045 0.18731181
000010 7d ad fc 3e 2e 23 ab 3e 19 51 16 3e 9b e2 92 3e
       0.4935111 0.33425277 0.14679374 0.2868851
000020 bf 5d f2 3d 69 23 0c 3e e5 53 1c bf 4c 25 3c 3f
       0.11834287 0.13685383 -0.6106551 0.7349441
000030 bd 95 1b be c4 89 be 3e 41 f6 0b 3f a3 aa 14 bd
       -0.1519384 0.37214482 0.5467263 -0.036295544
000040 2d 28 00 be 70 43 c3 bf 05 12 d0 3b 16 59 5d 3c
       -0.12515326 -1.5254955 0.0063498043 0.013510009
000050 13 f4 39 3f 74 aa 71 bd 4d 28 1a be 53 5c e5 3d
       0.7263805 -0.059000447 -0.15054436 0.1119925
000060 f3 ed cc be 98 75 be bd e0 c0 19 bf 33 7f 81 be
       -0.4002529 -0.09299773 -0.6005993 -0.25292358
000070 98 21 c3 3e a3 91 ae 3e 59 de a9 3e f9 dd a9 bd
       0.38111567 0.34095487 0.3317745 -0.08294291
000080 5d 07 70 be 1c b6 02 3e d3 45 d3 be e8 47 95 be
       -0.23440309 0.12764782 -0.4126421 -0.29156423
000090 0c e3 0e be b3 53 07 be fd 6d 01 bf 2f 57 6b bf
       -0.13953799 -0.13215522 -0.50558454 -0.91929907
0000a0 af 63 36 bf aa 79 56 be 32 8d 03 3c 33 72 d3 bd
       -0.71245855 -0.20944849 0.008029269 -0.10324516
0000b0 cb cd e2 be ef fd c3 be 2a 7f 45 3e 67 91 18 3f
       -0.44297633 -0.38279673 0.1928679 0.59596866
0000c0 92 e5 a9 bd ff 26 41 3e 4c 1b e5 be 37 89 52 3e
       -0.0829574 0.18862532 -0.44747388 0.20560156
0000d0 52 d9 77 bf a9 b3 36 be c0 1d 21 3f 1d bf 6e 3d
       -0.9681598 -0.17841972 0.6293602 0.05828773
0000e0 2a 03 2d bf f0 c3 a2 3d f6 55 ba 3e b2 01 de be
       -0.6758295 0.07947528 0.36393708 -0.43360668
0000f0 1e 69 d4 be 86 bf 57 be 90 75 9a 3f 49 20 a4 be
       -0.41486448 -0.21069154 1.2067127 -0.32055882
000100 ee 74 34 be 56 b8 81 bd 46 0a 9e bc c5 67 b7 be
       -0.1762273 -0.063339874 -0.019292008 -0.35821357
000110 b7 e2 a9 be 63 7a 0b 3f 2d 00 0b 3f 5c ba 7c 3e
       -0.33180782 0.5448362 0.54297143 0.24680465
000120 ed 32 91 3e 09 c4 db 3d 15 2c cc be 14 28 76 be
       0.28359166 0.1073075 -0.39877382 -0.24038726
000130 e1 b8 a2 be b5 33 ba 3e 75 db 85 bf 97 4d b5 be
       -0.31781676 0.36367574 -1.0457598 -0.3541076
000140 b0 fa 35 3e 53 96 09 bf 6b 15 8d 3e f0 0b b1 3e
       0.17771411 -0.53745 0.27555403 0.3457942
000150 4d 5a 46 be 1c d2 4d 3e e8 24 9c be 32 f0 ea 3d
       -0.19370385 0.20099682 -0.30496907 0.11471595
000160 77 ce e4 be 89 1b 33 bf a2 24 5d be 63 24 3b 3e
       -0.4468877 -0.6996389 -0.21596006 0.18275599
000170 88 f4 af 3e 75 0e a0 3e e4 f6 c1 be 57 35 72 be
       0.3436625 0.3126103 -0.37883675 -0.2365316
000180 65 b0 eb bd 6d af 74 3d 6b 6f 12 bf 88 aa 1b 3e
       -0.11508254 0.05973761 -0.5720126 0.15201771
000190 77 d9 8f 3e cd 40 4d be 36 e7 bf be df 47 31 be
       0.280956 -0.20044251 -0.37481087 -0.17312573
0001a0 f4 82 04 bf 74 a1 ef be 6f e5 a8 3d b6 f7 db 3c
       -0.5176232 -0.46802866 0.08246886 0.026851516
0001b0 66 a7 86 3d 49 cc 9c be df 6c 60 3e 3c 65 90 be
       0.065748975 -0.30624607 0.21916531 -0.28202236
0001c0 b0 c8 5b bf 47 bb 7f bd 5b 9c 5d 3c b6 c1 5f 3e
       -0.858531 -0.06243446 0.013526048 0.21851239
0001d0 dd f4 78 3f e9 01 f4 bd 20 df 81 bf 59 7d 20 be
       0.9724863 -0.11914427 -1.0146217 -0.15672816
0001e0 36 bb 40 3e d6 fc 29 bf 09 7e 49 bf 7a 99 9f 3f
       0.18821415 -0.6640142 -0.7870794 1.2468712
0001f0 13 af 59 be 93 b0 ca 3b 2d 6e a4 be 39 cf b9 bd
       -0.21258192 0.0061856 -0.32115307 -0.09072728
000200 2d cf 8d 3f 10 b9 2e 3f 04 c5 d7 bd 76 97 ea 3e
       1.107885 0.6825113 -0.105356246 0.4581868
000210 d7 74 59 bf 1f b0 1e 3e 15 e2 37 be 8b 81 ed bc
       -0.8494391 0.15496872 -0.17957337 -0.028992435
000220 19 c4 d1 3e d9 c9 0d 3f 8c bc 24 3e 3f 05 87 3e
       0.40969923 0.5538612 0.1608755 0.2637119
000230 c1 6b 18 bf e7 3d d6 be e2 1f 1c bf 83 d6 20 3f
       -0.5953942 -0.41844103 -0.6098615 0.6282732
000240 27 c1 7a be d1 a7 46 be a4 da a2 bd c9 8c 5c 3f
       -0.24487744 -0.19399954 -0.07951859 0.8615232
000250 16 13 17 be 62 85 2e bf 54 93 1c 3f 50 15 c3 be
       -0.14753374 -0.68172276 0.61162305 -0.38102198
000260 41 74 61 be 54 70 64 be 7a b8 ca 3f 3d ce cd bd
       -0.22017004 -0.22308475 1.5837548 -0.100491025
000270 42 31 ba bd 41 84 58 bf 5c 8c 62 bf ef ba 86 3e
       -0.090914264 -0.84576803 -0.8849542 0.26314494
000280 b0 79 ae bd 5e 65 1e bf 0d aa fd 3e 38 fc 0f 3f
       -0.08519304 -0.61873424 0.495438 0.5624423
000290 46 8a c8 3e 23 86 64 3e 74 a6 66 3e 58 77 0e be
       0.39167994 0.22316794 0.22524434 -0.13912714
0002a0 26 78 02 3e ba 3c e5 3e 27 b4 0e 3f cd 36 1d 3f
       0.12741145 0.44772893 0.5574364 0.61411744
0002b0 56 57 ba be 0e d5 ce 3e e2 6c bd 3f 0b e1 bc be
       -0.36394757 0.40396923 1.4798853 -0.36890444
0002c0 59 c3 8a bf f7 12 9b be 29 f8 c8 bf 15 aa 1c 3e
       -1.0840865 -0.30287907 -1.5700732 0.15299256
0002d0 7d ed c0 3e b3 57 65 3f b0 db e6 be 19 ab 28 bf
       0.3768119 0.89586943 -0.45089483 -0.65886074
0002e0 81 fb 7b bd 69 e6 79 3f c0 6f 48 3f 28 c3 01 3f
       -0.06151915 0.97617203 0.78295517 0.5068841
0002f0 cf 39 89 3e ed 28 e1 be 96 39 0a 3f 91 c7 05 bf
       0.26801917 -0.43976536 0.5399412 -0.5225764
000300 75 5b 5d be 9a 78 f5 be a6 7d 1c 3f 12 86 52 bf
       -0.2161692 -0.47943574 0.61129224 -0.82235825
000310 32 d0 f0 be 9e 53 e6 3d 86 cc 64 3f dd 56 3d be
       -0.4703384 0.112464175 0.8937458 -0.18490167
000320 63 b7 22 3e 55 35 8f be 87 f4 c8 be df ba a2 be
       0.15890269 -0.27970377 -0.3924906 -0.31783196
000330 a2 64 f5 bd 19 42 f1 bf 51 7b 58 3d 0a cb ee be
       -0.11982085 -1.8848296 0.05285198 -0.46639282
000340 60 e7 27 3f 34 c1 14 bf bb 82 22 3e 44 96 46 3f
       0.65587425 -0.58107305 0.15870182 0.7757304
000350 38 30 04 3e f4 6f 94 be b8 57 f0 3e 25 3f ab be
       0.12909019 -0.28991663 0.46941924 -0.33446613
000360 6d 9d f0 be 07 82 07 bf cc 5d b8 bf 13 28 16 3e
       -0.46995106 -0.5293278 -1.4403625 0.14663725
000370 4f 0e ee 3d b5 d6 ce bd 2c de d8 be 53 89 fa 3e
       0.11623823 -0.10099546 -0.42357004 0.48932895
000380 88 db 02 bf 6b 5d 32 3f 47 29 e8 3e 3c 2c f6 bb
       -0.5111623 0.69673795 0.45343992 -0.0075125974
000390 fa a1 10 bf bc d1 1c 3f 6b 9e f1 3e 67 73 6d 3f
       -0.56497157 0.6125753 0.47191176 0.92754215
0003a0 16 5a 82 bf 97 6f 1e bf d1 3e b2 3d fd e1 d5 bd
       -1.0183742 -0.6188902 0.087033875 -0.104434945
0003b0 22 4f 8b bf 6c 03 76 3e 86 28 db 3f c0 cb 93 bf
       -1.0883524 0.24024743 1.7121742 -1.1546555
0003c0 f4 2b 82 bf 46 cd 97 3f 0b b6 14 3f e6 d7 0d bf
       -1.0169663 1.185952 0.58090276 -0.5540756
0003d0 7d a3 5f be 83 6d 64 3d 67 01 a6 3e 64 62 db be
       -0.2183971 0.0557685 0.32422945 -0.42848504
0003e0 19 5a 36 bf 19 67 08 be c3 68 38 3e 49 3d 34 bd
       -0.7123123 -0.13320579 0.18008713 -0.04400376
0003f0 68 b7 99 bf 11 a4 1d bf 30 74 14 3f 09 47 b3 bd
       -1.2009096 -0.6157847 0.5798979 -0.08753783

r_cell.w_ks.bias f4 [24]
000000 9d 9b 73 be 0d e5 1d bc 3e a1 9c bd a3 27 97 3d
       -0.2378983 -0.0096371295 -0.07647942 0.07380607
000010 ad 8b d1 bd b2 6f 11 3e 8c b0 6b 3e 07 72 d7 3d
       -0.10231719 0.14202765 0.23016566 0.10519796
000020 e8 c8 44 be df d9 c5 bd f0 a4 97 3e 2d d9 21 be
       -0.19217265 -0.09660696 0.29618025 -0.15805502
000030 6b fd 51 3e 6a 19 a7 3e 8f 4b b5 3d 59 b3 3d be
       0.20506828 0.32636577 0.08852302 -0.18525447
000040 e2 1a 15 3d 86 94 81 3c ed 9a c3 3d 45 52 b3 3e
       0.03640259 0.015817892 0.09551034 0.35023704
000050 51 c6 b4 3d ca a6 63 3e e5 b0 53 bd 6a ec 79 be
       0.08826888 0.22231594 -0.05168237 -0.24406591

r_cell.w_vs.weight f4 [24, 24]
000000 6b 31 48 3c a3 7c 0d be 82 1b a2 3e de 67 22 be
       0.012218813 -0.13817076 0.31661612 -0.15859935
000010 98 0d b1 bc 54 29 64 be af 05 84 bc f9 7a a2 3e
       -0.021612927 -0.2228139 -0.016115991 0.31734446
000020 34 0f b0 be b2 9d af be be de 06 bf c8 5b b2 be
       -0.343866 -0.343 -0.5268363 -0.3483565
000030 39 76 70 be df 09 12 bf 24 11 51 3e 4c ee 38 3d
       -0.23482598 -0.5704631 0.20416695 0.045149133
000040 fa e1 88 38 04 84 17 be e5 19 21 bf c8 32 db be
       6.527077e-05 -0.14796454 -0.62930137 -0.4281218
000050 e9 d8 65 3e 01 61 92 3c 01 6a f6 bd 85 60 82 3e
       0.22446026 0.01786852 -0.120319374 0.25464264
000060 f3 99 5a 3d 83 11 8f 3e 34 25 3d bc 62 18 5a bd
       0.053369474 0.27943048 -0.011544514 -0.05324591
000070 1a 5f f1 3d ca a3 db be bf 3b 44 be 66 1b c0 bd
       0.11785717 -0.428984 -0.19163416 -0.09380226
000080 8a 2c 2f 3f 78 ff 90 3e 50 29 98 3e d9 f4 ee be
       0.68427336 0.28319907 0.2971902 -0.4667118
000090 c0 19 19 3f 3f 7b 5a 3d 5c 94 18 bf 53 61 be be
       0.59804916 0.053340193 -0.5960138 -0.37183627
0000a0 a9 2a 00 3f 9a 7b 1f 3f 04 eb 3d be 5d 48 bb be
       0.50065094 0.62297976 -0.18546683 -0.36578646
0000b0 48 e9 fa be 3e d8 b7 be 73 2b 87 be f3 d9 0e 3e
       -0.49006104 -0.35907167 -0.26400337 0.13950329
0000c0 84 dd a5 3e aa d5 81 3e b9 2d 0a be db b3 88 3e
       0.32395566 0.25358325 -0.13494004 0.2669972
0000d0 e9 b6 91 3c 77 59 11 3e 36 ca 02 3e ea 9a 83 3d
       0.017787414 0.14194284 0.1277245 0.06426032
0000e0 66 e9 c1 3e 78 2d f4 3d 45 1b ce bc fe f5 28 3f
       0.3787338 0.11922735 -0.025159488 0.66000354
0000f0 87 6c 5f bd 71 5f 24 3d a2 54 85 be 42 7d b4 3d
       -0.05454686 0.040130083 -0.26041132 0.088129535
000100 3f b1 4f 3e 5b 2a 1b be 56 13 0e be 97 ad 4f 3d
       0.20282458 -0.15152876 -0.13874564 0.050702658
000110 71 52 9f bd b2 0c aa 3e ca 59 af be a2 b4 f5 3d
       -0.07779396 0.3321281 -0.3424819 0.119973436
000120 a1 df d4 3e 94 e5 ff 3d 7d 5b 9e bc 64 52 8d bd
       0.41576865 0.124949604 -0.019330734 -0.069004804
000130 7e b9 ac be 48 a8 b7 3b 5b e2 18 be 8b 58 bd 3e
       -0.3373527 0.0056047775 -0.14930098 0.36981615
000140 b3 9f b2 3d b2 82 67 be ff c3 5f bd f3 6b 08 3f
       0.087218665 -0.2260845 -0.054630276 0.5328972
000150 11 06 44 3d 42 90 d6 b8 49 74 c8 be 9d 9b 5f be
       0.047857348 -0.00010231185 -0.3915122 -0.21836706
000160 34 b9 6e bd 37 15 32 bd ba a8 85 bd de b7 48 3e
       -0.058282092 -0.043477263 -0.06526323 0.1960139
000170 02 50 41 3e e3 de 01 3e f8 9f 76 bd 4a 7f 87 be
       0.18878177 0.12682681 -0.06021115 -0.264643
000180 77 eb 98 be 83 4b ad be 58 2d 25 bd 48 9b 81 be
       -0.29867145 -0.33846673 -0.040326446 -0.25313783
000190 1e ae d7 3c 7f bf fa ba 5b f4 03 be 55 30 03 3e
       0.026328143 -0.0019130557 -0.12886183 0.12811406
0001a0 be 13 dd bd 4a 06 2d 3f 5f d5 c5 3c 47 d5 64 3e
       -0.10794781 0.6758772 0.024149595 0.22346984
0001b0 11 23 89 3e b6 2b ab bc 1c 58 dc be c4 68 4f 3e
       0.26784566 -0.020894866 -0.43035972 0.20254809
0001c0 60 13 11 3f 03 6b 05 3d ab d2 46 3d 74 45 22 be
       0.5667019 0.032572757 0.048540752 -0.15846807
0001d0 5b 7a e4 bd 33 a5 8a 3d 07 34 5d 3d c8 09 bc be
       -0.1115615 0.067697905 0.054004695 -0.36726213
0001e0 36 12 46 3e b9 4a b1 3e 59 47 b2 3e 55 9a 7b be
       0.19342884 0.3462732 0.3482006 -0.24570592
0001f0 f5 96 c3 3e e0 8d 10 3d 03 14 8f be 7b 2a ba 3c
       0.3820111 0.035291553 -0.27944955 0.022725334
000200 22 8b 9d bd 1c 4d 0f 3e ab 25 31 3e 95 9f 88 be
       -0.07692553 0.13994259 0.17299525 -0.2668425
000210 02 45 2b be 9f fe 12 3f 5a bc bb bc d9 83 48 be
       -0.16725543 0.5741977 -0.022916961 -0.19581546
000220 0f ef 1c 3e 9c 04 ea bd 88 87 b5 bd 95 b3 93 3e
       0.15325569 -0.114266604 -0.08863741 0.28847948
000230 3e 0f 39 3e 0c 6d 22 bf 0f 7a a9 3e a4 35 ab be
       0.1807222 -0.6344764 0.33100936 -0.33439362
000240 ee f7 97 3e cf 44 b6 ba 3d 67 db bd 8a 66 c9 3d
       0.29681343 -0.0013906005 -0.107130505 0.09834011
000250 95 49 1b 3b d5 5d a1 be fb c2 9a 3e 73 1e cf 3d
       0.0023694981 -0.315169 0.30226883 0.101132296
000260 55 fc db 3e bb 28 31 3e 6e e0 19 3e c9 87 32 be
       0.42965952 0.17300694 0.1502702 -0.1743461
000270 71 68 e3 3e 79 ed 0e 3e b3 95 89 3e ce 72 ae 3e
       0.4441562 0.13957776 0.26872024 0.34071964
000280 1d 04 bb 3d 86 a6 18 bd 35 95 b1 be b9 06 cb bd
       0.09131644 -0.037268184 -0.34684148 -0.099133916
000290 88 b5 50 be f6 c6 c0 3d 1a 14 06 3f da e5 a5 be
       -0.20381749 0.09412949 0.5237442 -0.32401925
0002a0 3a 75 b4 bd a8 b5 e6 3d b7 65 cd 3e 43 d7 a0 be
       -0.08811422 0.11265117 0.40116665 -0.31414232
0002b0 9e 03 91 bd a9 a2 0a 3d 62 71 22 3e 9e b1 0e be
       -0.07080768 0.03384653 0.15863565 -0.13934943
0002c0 78 1e d3 be c9 1e d4 be 2e 54 ab be 75 09 a5 be
       -0.41234183 -0.41429737 -0.33462662 -0.32233778
0002d0 00 dd 78 3e 20 aa 91 3e 14 77 ca 3d 13 a8 28 be
       0.24303055 0.28450108 0.098859936 -0.16470365
0002e0 30 d2 93 be 4f f8 4b be 03 e5 3e 3e 99 10 ac 3e
       -0.28871298 -0.19918941 0.18642049 0.33606413
0002f0 4b a9 02 3f ce 7a 26 3e cc f2 cf 3e 8c 68 09 be
       0.5103957 0.16257784 0.40614927 -0.13418788
000300 e9 b6 8e 3e 82 f6 6a bd 18 2c b5 be 17 e4 b5 bd
       0.27873924 -0.057363994 -0.35385203 -0.08881395
000310 ae f9 e4 3d 88 34 12 3e 9c f8 c4 3d 04 74 62 3e
       0.11180435 0.14277852 0.09617731 0.22114569
000320 16 4a 0a be 56 6d d2 3d ca ec 4e 3e 85 a0 00 3f
       -0.13504824 0.102747604 0.20207515 0.50244933
000330 51 4f 81 3e de a4 07 bf bf cd 69 3e b6 51 57 be
       0.25255826 -0.5298594 0.22832392 -0.21027264
000340 33 a2 b9 bd d4 8b f3 3d 36 23 22 3f d1 b1 9d be
       -0.0906414 0.118919045 0.6333498 -0.30799726
000350 b9 8d 52 be 6e 0a bc bc a4 6f 2b 3f 91 87 92 be
       -0.20561875 -0.022954192 0.66967225 -0.28619054
000360 3d dc f3 3d e2 bb 91 bc 83 0c 03 bf 21 b1 a7 3e
       0.119072415 -0.017789785 -0.51190966 0.32752326
000370 fb 1a c8 bd 17 2c f2 be 32 b0 c1 be 6d bd 6e be
       -0.09770771 -0.47299263 -0.3782974 -0.23314448
000380 10 6c 1a 3f 46 6c 89 3e d1 6f e3 3e 88 9b 85 3b
       0.6032114 0.2684042 0.44421247 0.0040773787
000390 c2 25 0b 3f 43 70 90 3e fb a8 95 3d a7 13 f1 be
       0.5435449 0.2821065 0.07307621 -0.47085306
0003a0 c2 08 80 3c 3d 97 12 bf 72 e3 a3 3e d7 24 40 3c
       0.015629176 -0.5726202 0.32009465 0.011727533
0003b0 18 d7 a6 bd 7c ff 7f bd c4 54 99 3e 72 b5 38 bd
       -0.081464946 -0.06249951 0.29947484 -0.045094915
0003c0 fd 35 14 bf 15 5a b2 3e da 6a bb be 17 a2 e2 bd
       -0.5789488 0.34834352 -0.3660496 -0.110660724
0003d0 c8 b9 88 3e 1a f2 94 3e ad 9f 2a be ce 04 57 be
       0.2670424 0.2909096 -0.16662474 -0.20997927
0003e0 8b a7 fb 3d 45 dc 21 be 73 5c 91 bd a9 9a 44 bd
       0.12287816 -0.15806682 -0.070977114 -0.047999058
0003f0 24 c0 c6 be 00 fe bc bb 49 ba 26 3c 6e a7 67 bd
       -0.38818467 -0.005767584 0.01017625 -0.056556158

r_cell.w_vs.bias f4 [24]
000000 43 cb b1 3d 98 25 03 3d 9d cd 8a be 44 6f 9c bd
       0.08681347 0.032018274 -0.27109995 -0.0763841
000010 1f dd 0e 3e 06 4f 5f 3e ae 12 3d 3d 3e 90 3c 3e
       0.13951539 0.21807489 0.046160392 0.18414399
000020 e1 e8 45 be ed 8f 3c be df ed b7 3d c9 bf f1 bc
       -0.19327118 -0.18414278 0.08980917 -0.029510396
000030 9b a9 0c 3e 4c a9 9d bc 06 46 dd 3d 00 c1 8d bc
       0.13736574 -0.019245766 0.108043715 -0.017303944
000040 4e 3b 35 3e 0b 35 3b bd 1b 8c 5b bc 13 bb 04 bd
       0.17698404 -0.045704883 -0.013400103 -0.03240497
000050 51 81 e7 bb 59 d2 17 be c7 83 66 be b2 d3 80 3e
       -0.0070649763 -0.14826335 -0.22511207 0.2516151

r_cell.layer_norm.weight f4 [24]
000000 cd d5 d7 3f 0d d0 01 40 df 5f 52 3f 3b df b3 3f
       1.6862122 2.0283234 0.8217754 1.40525
000010 d5 9c 52 3f 04 06 5b 3f a3 27 95 3f 8d a6 98 3f
       0.82270557 0.85556054 1.1652721 1.1925827
000020 9b 63 3f 3f 45 c4 89 3f bd b1 85 3f 09 73 25 3f
       0.7476136 1.0763022 1.0444866 0.64628655
000030 c7 31 47 3f ff fe 59 3f 7c cf 96 3f 60 b1 61 3f
       0.7781033 0.8515472 1.1782069 0.8816128
000040 af 0c a1 3f 31 c3 4b 3f 1b 51 86 3f 10 c4 9e 3f
       1.2581996 0.79594713 1.0493501 1.2403584
000050 f8 9c 64 3f 30 c4 4e 3f 51 5e 48 3f bd bb 5f 3f
       0.89302015 0.8076811 0.78268915 0.8739584

r_cell.layer_norm.bias f4 [24]
000000 6b c3 6b bd 20 21 45 3e 79 4f 9d be d8 7f b0 bd
       -0.057559412 0.19250917 -0.30724695 -0.08618134
000010 bf 5d 80 be 93 e4 1c be a5 c3 9a 3e 26 be a7 3e
       -0.25071523 -0.15321569 0.3022739 0.3276226
000020 17 3c 14 be b3 1d 6a 3d e4 b8 87 bd ef e8 67 bd
       -0.14476047 0.05715723 -0.06627062 -0.056618627
000030 6b 6a af 3e 03 8b 3d 3e 09 4d 06 3e 54 5e ea 3d
       0.34260878 0.1851006 0.13115324 0.11443773
000040 49 d0 f7 bd 8d 8f 21 be 5f 94 9a 3c 8c fc 45 be
       -0.12100274 -0.15777417 0.018869577 -0.1933462
000050 58 d6 57 3e 6d 0a 9b be 21 db 3f 3d df 86 27 be
       0.2107786 -0.30281392 0.046839837 -0.16360043

r_cell.fc.weight f4 [24, 24]
000000 70 40 b6 3d a5 d8 1d 3e 0f 59 b3 bd ef 86 5a 3e
       0.08899009 0.15414675 -0.08757221 0.21340536
000010 7a 36 11 be d2 b5 fa bd a1 3b 8c 3d e1 4d 3b 3e
       -0.14180937 -0.12241711 0.06847311 0.18291427
000020 71 d9 03 3d 6c 70 4d be c1 0a 90 bd bb 23 ce bd
       0.03218979 -0.20062417 -0.07033301 -0.10065409
000030 03 2c c1 bd b0 4c e5 bd b4 d4 c9 3d c1 7e a9 3e
       -0.09432223 -0.111962676 0.09855023 0.33104518
000040 ba d1 79 3b ee a8 23 3e ca 57 20 3e cb 9f c0 bb
       0.0038119392 0.1598241 0.15658489 -0.005878424
000050 79 08 cf bd 01 d8 02 3e a0 48 57 be 56 dd 36 be
       -0.10109038 0.12777711 -0.21023798 -0.1785787
000060 6e 3a 74 bc 8f 3d 72 3d 7e 32 a7 bd 08 4d 14 3e
       -0.014906509 0.059140738 -0.081639275 0.1448251
000070 7c db 28 be 65 80 53 bd 79 b0 86 bd 62 89 7a 3b
       -0.16489977 -0.05163612 -0.06576628 0.003822886
000080 f2 04 f9 bc 7e 0e 3c 3c 0e 4e 9c bc 32 f5 5e 3d
       -0.030397866 0.011478065 -0.019080188 0.054433055
000090 54 58 bb bd bb 30 74 3d 4e dc 0f 3d bf 25 99 bc
       -0.09147707 0.059616785 0.03512221 -0.018694757
0000a0 33 e9 db 3c b5 f6 1d bd 09 ce ce bc 53 6b 19 3e
       0.026844596 -0.038565356 -0.02524473 0.14982347
0000b0 a3 93 9e bd ee 4f f2 bc 67 38 0a 3d 3f f3 00 be
       -0.07743003 -0.02957913 0.033745196 -0.12592791
0000c0 2d 46 0c 3e f5 8b c4 be 0d f2 40 be 52 6a a6 bb
       0.13698645 -0.3838803 -0.18842335 -0.0050785923
0000d0 e3 45 23 3e e5 72 84 be 76 80 74 3e 2a f8 06 bf
       0.15944628 -0.25868908 0.23877129 -0.5272242
0000e0 3c 23 f7 b7 ef a9 dd be 95 3f bd bc 42 e2 65 bb
       -2.9461102e-05 -0.43293712 -0.023101607 -0.0035077487
0000f0 63 51 79 3e a1 9d 1d be 76 4a 87 3d 97 3d d6 3b
       0.24347453 -0.15392162 0.06605999 0.006538104
000100 6a ae 5b 3e 3c 6a 5f bd 2b f6 18 3f 5f 26 9e 3d
       0.21453252 -0.054544672 0.5975062 0.077221625
000110 c4 13 02 bc cd c6 f5 3d db 86 86 be e7 20 cf 3d
       -0.007939283 0.12000809 -0.26274762 0.101136975
000120 3b bb 06 bd 02 f2 ba bd 7e 60 d8 bc c8 ec d4 3d
       -0.0328934 -0.091281906 -0.026413199 0.10396725
000130 e7 43 a0 3c 77 36 be 3c 42 1a 8d bc d4 9c 5a be
       0.019563628 0.02321933 -0.017224435 -0.21348888
000140 01 cc cb bc 0e fd 6d bd d0 93 0a 3d 30 da 10 3e
       -0.02487755 -0.05810266 0.03383237 0.14145732
000150 8e 9d 3f 3c cb 42 a8 3d 15 c8 08 be b0 ee 06 be
       0.011695279 0.08215865 -0.13357575 -0.1317699
000160 31 49 93 3d 3e 9b 85 bd d0 44 71 bd bf 33 2b 3d
       0.071916945 -0.06523751 -0.058903515 0.041797396
000170 05 c8 89 3c ea ab 3c bc 61 05 28 bd df 83 ae bc
       0.01681901 -0.011515597 -0.041020755 -0.021303115
000180 c7 82 a0 bd 9c 7f 1b be 10 69 20 bd 55 24 b4 bd
       -0.07837444 -0.15185398 -0.039162695 -0.08795992
000190 72 3e 01 3f 92 67 82 3e e3 01 71 be 99 0c a6 3e
       0.5048591 0.25469643 -0.23535876 0.32431486
0001a0 d6 e1 17 be 17 81 0e 3e ea f3 a0 3e 66 11 cd 3e
       -0.14832243 0.13916431 0.31436092 0.40052336
0001b0 15 c0 01 be 9a 8b 31 bc bf 66 2e be e8 87 92 be
       -0.1267093 -0.010836506 -0.17031382 -0.28619313
0001c0 36 ec ae 3e 45 32 23 3e 88 d5 49 bc c4 8d 73 bd
       0.3416459 0.15937145 -0.012318976 -0.05946137
0001d0 ea 06 10 bf bf 45 3e 3d 73 20 3b be 1d 3f 49 3d
       -0.5626055 0.046453234 -0.18274097 0.049132455
0001e0 93 e9 c9 3d aa e8 84 bd ff 01 b8 3d 0a b8 ff 3d
       0.09859004 -0.0648969 0.08984756 0.124862745
0001f0 6a c6 15 bb db a2 45 3b 3d 09 65 be 69 e6 9a be
       -0.002285386 0.0030156884 -0.22366805 -0.30253914
000200 e4 6f ab 3e 0a b6 6e be 08 1f 6c 3e 5b ab a2 3e
       0.33483803 -0.2331163 0.23058712 0.3177136
000210 f7 3a 2a 3d 5c ba ca bd af 5f 48 3e c9 ad c9 bc
       0.04156014 -0.098988265 0.1956775 -0.024619
000220 29 a4 17 3e de bf 38 be fd b0 82 bd 05 6a e2 3d
       0.14808716 -0.18041942 -0.06381414 0.11055378
000230 15 d9 55 3d 76 4f 1b bd d9 98 8d 3d ea d5 7d 3e
       0.05220898 -0.037917577 0.06913919 0.24788633
000240 33 72 99 3c 57 d3 78 3e 89 75 04 3e 6e 4e 0d 3e
       0.018731212 0.2429937 0.12935461 0.1379945
000250 18 f2 e8 bd be 01 31 bd df 45 44 3e 1e e0 8b 3e
       -0.11374301 -0.043214552 0.19167279 0.27319425
000260 d3 c2 fb 3d b2 62 e3 bc 56 6c 8a be c8 36 3a 3e
       0.12293019 -0.027757023 -0.2703578 0.1818496
000270 58 ff 7c be 8a a7 23 be 91 95 96 bd cd f7 31 3e
       -0.24706781 -0.1598188 -0.07352746 0.17379685
000280 40 89 4c bd 4e 85 a4 3e 00 75 8a be 31 cc 81 be
       -0.04993558 0.32132953 -0.2704239 -0.25351098
000290 d3 16 62 be 56 12 6d bc 2a b6 57 3e c9 9c 08 3f
       -0.22079019 -0.014469704 0.21065584 0.53364235
0002a0 38 29 96 bc 6a 12 9a 3d c6 cb 4c be 75 4b da 3d
       -0.018330202 0.075230435 -0.19999608 0.106589235
0002b0 38 06 19 3e 81 b8 c8 bc 8b c9 96 3e 2c 46 e4 bd
       0.14943779 -0.02450204 0.2945064 -0.11146197
0002c0 2d 3d f2 3c ed b1 dd bd 43 52 fd 3c 50 5e 02 3d
       0.029570187 -0.10824952 0.030923015 0.031828225
0002d0 bf f9 5b be b5 8e 2f 3e 6d 14 1d be 77 45 53 3e
       -0.2148199 0.17144282 -0.15339823 0.20631967
0002e0 3e 6b aa be 11 1f ea be 0a cb a9 bd 6e 9f 5f bc
       -0.33284944 -0.45726827 -0.0829068 -0.013648851
0002f0 32 8c 32 3d 02 0c e9 bd 3e 20 f7 3d ea 4d 15 3e
       0.043590732 -0.113792434 0.120666966 0.14580503
000300 82 4a 96 3e fc 99 34 3e b8 cb b4 3e 65 6f 78 3e
       0.2935372 0.17636865 0.35311675 0.24261244
000310 f6 6a f8 be 0a 9a 66 be b0 e9 cd be e6 e5 1a be
       -0.48519105 -0.22519699 -0.40217352 -0.15126762
000320 e1 6a 34 3e 3e 08 b9 be 00 87 d4 3e 4b d6 b8 3e
       0.17618896 -0.361391 0.41509247 0.36100993
000330 62 30 91 3d 36 fc 33 3d 22 21 1e be 2c d1 72 3d
       0.070893064 0.0439417 -0.15442327 0.059281513
000340 32 c6 39 3e 3f 4b 01 bc 02 e9 8e 3c 9a 47 4f 3e
       0.18142012 -0.007891475 0.017445091 0.20242158
000350 10 ca 23 3e 9a 0a 86 3e b8 3c 34 bd 47 8b ad 3d
       0.1599505 0.26179963 -0.04400322 0.08473831
000360 3d 86 d5 bc 0d d2 13 be 75 a0 d5 bd 9f a8 87 be
       -0.026064986 -0.14435597 -0.104309954 -0.26495835
000370 9c bb f7 3e 04 51 43 3e 6e 88 4c 3e d4 04 5c bd
       0.48385322 0.19073874 0.19973919 -0.053715542
000380 e9 29 7e be 8f 82 03 3e 1d d9 07 be c9 6e 5a 3e
       -0.24820675 0.12842773 -0.13266416 0.21331324
000390 cb b7 d7 bd 92 a0 21 3e 7e df b1 be 95 b4 a8 bd
       -0.105331026 0.15783909 -0.34740824 -0.08237568
0003a0 31 af 02 be ce 0c 2d bd 1c 90 09 3d fc be 25 3c
       -0.12762143 -0.04224854 0.0335847 0.010116335
0003b0 57 6b 7d 3d dd b0 92 3b 32 0b b6 3d bd 5a f2 3d
       0.061869945 0.00447665 0.08888854 0.11833713
0003c0 56 26 18 be 52 3f cd 3c 11 03 89 bd 5a 46 91 3d
       -0.14858374 0.025054608 -0.06690038 0.070934966
0003d0 79 5b 22 3e 85 b2 24 3e ca 46 71 be 0c 5b 3d be
       0.15855207 0.16083725 -0.2356216 -0.18491763
0003e0 af e6 42 3d 61 e8 93 3d c3 2f e5 bd 32 40 dd ba
       0.04758328 0.07222057 -0.111907504 -0.0016880094
0003f0 61 20 07 3e 10 7a a7 bd a9 7f 1a 3e da bc 45 3d
       0.13195945 -0.081775784 0.15087761 0.048275806

r_cell.fc.bias f4 [24]
000000 7e 1a e0 3d 1e 12 9f 3c 1c 02 d3 3d 33 6b 64 bd
       0.10942553 0.019417819 0.10303137 -0.055766296
000010 86 18 97 bd b7 70 4f 3d a5 94 b3 bd 94 39 10 be
       -0.07377724 0.050644603 -0.08768586 -0.14084464
000020 22 5a 4c 3d 5e f1 9b bd a2 67 3c 3d 79 3e 48 3e
       0.049890645 -0.076143965 0.04599727 0.19555081
000030 bd 83 89 bc f9 e8 42 3d 66 f6 71 bc de 11 12 bd
       -0.01678645 0.04758546 -0.014768219 -0.03566157
000040 e1 59 34 3d 77 ec 84 bd ff 58 39 3d 12 37 bd 3d
       0.044031028 -0.064904146 0.04525089 0.092390195
000050 2f 4a 0c be 9e f8 83 3d 15 14 ff 3a 64 5c 20 be
       -0.13700174 0.06443904 0.0019460941 -0.15660244

fc1.0.bias f4 [24]
000000 40 b9 83 3d a0 2d 37 3d 5d 67 eb bc 7b 73 a7 3c
       0.06431818 0.044721246 -0.02873581 0.020440808
000010 e6 dc 97 3c 50 26 07 bd e6 f9 86 bc f3 47 cc bd
       0.01853795 -0.032995522 -0.016476583 -0.09974661
000020 9a 90 83 bd c9 a1 ba bd 6e 8e a7 3d 6d 77 1c 3c
       -0.06424065 -0.09112889 0.08181463 0.009549958
000030 c4 1f 80 3d ac d4 15 bc 1e 4a 06 3c 0b 74 fe bd
       0.06256059 -0.009144943 0.008196382 -0.12424477
000040 50 9b 82 3c 03 16 18 3d df 87 04 3e be 2e 1f 3e
       0.0159432 0.037130367 0.12942456 0.15545174
000050 bb d2 29 bd cb 30 53 3d 06 7f d0 3d 38 13 cf 3d
       -0.041460734 0.051560204 0.10180478 0.101110876

fc1.0.weight_orig f4 [24, 24]
000000 41 18 9c bd e1 df 45 3e ff 28 7d be aa d6 dd 3e
       -0.076218136 0.19323684 -0.2472267 0.43327838
000010 1d 94 ba 3e b7 60 16 3d bf b3 c7 3e ad 6a 4c 3d
       0.36441126 0.03671333 0.39004323 0.04990642
000020 46 ad 11 bf 6e 2e 75 3f c3 65 fb bd c4 32 fb 3d
       -0.5690502 0.9577397 -0.12275269 0.12265542
000030 6f 7a 5b 3e cf 26 9d 3e f6 d9 9f 3e de 72 0f bf
       0.21433423 0.3069367 0.31220978 -0.5603465
000040 3c d9 31 3e 1c 50 51 3e ef 59 31 be 5b de 31 be
       0.17368025 0.20440716 -0.17319463 -0.17369978
000050 c0 31 e5 3e 89 fb ce bd 79 53 64 be 9d b1 7d be
       0.4476452 -0.1010657 -0.22297467 -0.24774785
000060 94 06 ff be 69 a6 3e 3e 86 9b 74 3e 13 1f 7f be
       -0.49809706 0.18618168 0.23887452 -0.24914198
000070 a0 05 9e 3e 3e 71 92 3e 5a 16 01 bf 0c 79 0c be
       0.30863667 0.28602022 -0.5042473 -0.1371805
000080 69 4e 3a 3e 7b fc 3d bf a2 12 85 bb da a3 70 be
       0.18193974 -0.7421338 -0.004061059 -0.23500004
000090 02 b2 71 bd 7c f2 5e be 65 5f ee 3e 91 4c e8 bd
       -0.059007652 -0.21772188 0.46557155 -0.11342729
0000a0 d7 9a d8 be cb 4d 9d 3e e4 cb e0 bd 2c 1d ae 3e
       -0.42305633 0.30723414 -0.10976389 0.3400663
0000b0 5f af dd 3c 5c dd 89 3d 48 0a 90 3d 70 69 c1 be
       0.027061163 0.06731674 0.07033211 -0.37775755
0000c0 d4 c9 90 be f3 51 48 3e 1b 0d 87 3e 67 0a b8 bd
       -0.28278983 0.19562511 0.26377186 -0.08986359
0000d0 26 00 69 bc 8b 0b 2d bc 86 a4 8f bd 3a 81 28 be
       -0.014221227 -0.010561834 -0.07013802 -0.16455546
0000e0 f9 27 da 3e ac fa a8 be 72 8b ad 3d be 45 0c 3d
       0.42608622 -0.33003747 0.08473863 0.0342462
0000f0 db d6 e7 be de 60 7d be 05 2c 72 be 2c 18 9e be
       -0.4528111 -0.24743983 -0.23649605 -0.30877817
000100 73 4a 3d bc 17 9e 34 be c0 d9 02 bd 8c 3a 86 3c
       -0.011553395 -0.17638431 -0.031945944 0.01638534
000110 b5 94 dc be f2 3c 59 3e 96 c3 90 be b1 b0 d6 be
       -0.43082204 0.21214655 -0.2827422 -0.4193168
000120 01 f3 29 bd c7 51 61 3e 2d 9e 09 bf e1 d4 ab 3e
       -0.041491512 0.22003852 -0.5375698 0.3356085
000130 53 02 d1 bd 17 72 fc bd fc a5 8b be cf ae d5 bc
       -0.102055214 -0.123264484 -0.27275074 -0.026084332
000140 a4 81 18 bf 33 27 47 3e f5 c5 d9 3e 44 f1 e7 be
       -0.59572816 0.19448547 0.42533842 -0.4530126
000150 ac 03 9f be fa 0f df bd e2 34 bf 3e ec 5b 5b 3e
       -0.3105749 -0.10891719 0.37345034 0.21421784
000160 7b b1 50 bd c6 de 37 3d af 4e c1 bd 85 39 35 3f
       -0.05095051 0.044890188 -0.09438836 0.7079089
000170 c9 ba 6e be b0 2b c9 3e 5e 9b 5c be 85 03 14 3e
       -0.2331344 0.39291143 -0.21543643 0.14454468
000180 1f af 04 3f e6 a2 42 3d 17 ee e6 bd 87 6b 5d 3d
       0.51829714 0.047518633 -0.11275881 0.054057624
000190 eb 2d 1a 3e 13 21 25 3f e8 b5 fe bb d6 ee 67 be
       0.15056579 0.6450359 -0.0077731498 -0.22649702
0001a0 73 3c bb be d0 f9 7f 3e 52 bb 08 be 77 14 2a 3e
       -0.36569557 0.2499764 -0.13352707 0.16609369
0001b0 ba 86 f0 bd 0c ef 48 3d 21 bc bc be be c0 f9 3e
       -0.11744447 0.049056098 -0.3686228 0.48779863
0001c0 f0 40 6e bd 69 33 3e 3f c6 4d 74 3e ac bf 59 3b
       -0.058167398 0.74297196 0.23857793 0.0033225818
0001d0 83 21 dd 3d f0 2b 3e be b7 7b 19 3f 96 87 04 be
       0.107974075 -0.18571448 0.599544 -0.12942347
0001e0 14 e1 62 bd 9e 4a 9c 3e 33 c7 ab be eb a0 06 3e
       -0.055390432 0.30525678 -0.33550414 0.13147323
0001f0 79 2b 83 be 3e 2b 06 bf 31 b4 e2 be 38 a1 98 be
       -0.25619105 -0.5240973 -0.442781 -0.298105
000200 51 d1 0f be 0c fe 75 bd 12 f1 84 bd 9f 65 9c be
       -0.14044692 -0.06005673 -0.06491293 -0.3054628
000210 81 7c 49 3e 58 67 af be a1 72 37 3f 2e 33 9a bd
       0.196764 -0.34258533 0.71659285 -0.07529293
000220 f6 b6 5f 3e 89 e8 9c 3d 5e 79 26 bd 98 0b 0d 3e
       0.21847138 0.0766154 -0.04064309 0.13773954
000230 e6 26 07 3c 82 d4 df be 43 8f 09 bd 5f 72 57 3d
       0.00824902 -0.43716818 -0.03358389 0.052599307
000240 43 a1 92 be 01 e3 ef bd 81 05 d3 bd 98 bf 99 bd
       -0.28638658 -0.117132194 -0.10303784 -0.07507247
000250 20 de 68 3c 86 e5 0b 3e 9c 04 73 be 50 79 d8 3d
       0.014213115 0.13661775 -0.23732227 0.105700135
000260 33 3b 33 be 89 0c 32 3f ec 97 80 3e 77 8f d1 be
       -0.17503051 0.6955038 0.25115907 -0.40929767
000270 40 5c 99 be 12 61 0f bc 8a f0 d5 3e 10 06 f7 be
       -0.29953194 -0.008751171 0.4178508 -0.48246813
000280 7e e5 4a 3e 66 a9 7e bd 72 69 05 be ee ee 15 3f
       0.19814107 -0.06217327 -0.13028505 0.585677
000290 42 f9 8c 3e bc f3 d6 3d 28 9b e4 bd 17 e5 21 be
       0.2753392 0.104957074 -0.11162406 -0.15810047
0002a0 b9 2c cd 3a b6 44 56 be 5e 21 1a bf f8 28 bb bc
       0.0015653587 -0.20924649 -0.60207164 -0.022846684
0002b0 97 a4 96 3e b1 f7 d1 bc 04 60 c9 be 78 27 de 3e
       0.29422447 -0.025630804 -0.39331067 0.43389487
0002c0 61 20 cc bd 12 d6 28 bf 99 3e 98 3d 7a b4 1a bf
       -0.09967113 -0.65951645 0.074338146 -0.60431635
0002d0 26 28 d1 bd 50 92 75 bd f8 6e a2 be 10 cf 22 3f
       -0.10212736 -0.059953988 -0.31725287 0.635972
0002e0 36 fd 1c 3f 6b 2e b2 3e fa 79 de bd e6 82 5b be
       0.6132387 0.3480104 -0.10863109 -0.21436653
0002f0 f4 b6 fa bd 1f ae ff 3e f0 7c c1 3c e0 19 f5 3c
       -0.12241927 0.4993753 0.023619145 0.029919565
000300 84 1b 5d 3b 6d 10 1f be d8 66 ec be c8 e9 55 3d
       0.0033738324 -0.1553361 -0.46172214 0.052224904
000310 cd 3c c7 bd 1e 09 17 be 9d 96 51 3e d0 0f 44 be
       -0.09728394 -0.14749572 0.2046761 -0.19146657
000320 83 8c d4 ba 0c a9 95 be 78 a7 08 3d 55 ec cb bd
       -0.0016216192 -0.29230535 0.033362836 -0.09957186
000330 51 4f 16 3f 45 83 32 bf 38 db 62 3d 35 f2 1f bf
       0.5871478 -0.6973155 0.055384845 -0.62478954
000340 54 94 fa 3e 0c 5f 3d bc e8 88 6a 3e 47 53 9a be
       0.4894129 -0.0115583055 0.22903788 -0.3014166
000350 69 d7 96 3e 53 35 f7 3e 62 21 d8 be fb c2 dd 3e
       0.2946122 0.4828287 -0.4221297 0.4331282
000360 33 6d a6 3d f4 b8 99 3c 22 28 c0 bd b0 aa b0 3e
       0.08126297 0.01876495 -0.09382655 0.34505224
000370 a9 b1 79 be 12 d3 87 3c 23 64 2f 3e 8a fb 0e be
       -0.24384178 0.016580138 0.17128043 -0.13963142
000380 35 99 c5 3e 2b 6a f2 3e 0f fc e0 be b1 7c 61 3e
       0.3859345 0.47346625 -0.43942305 0.22020222
000390 23 8f 88 be 39 1d 14 bf 1a 89 d8 be 19 07 73 3e
       -0.26671705 -0.5785709 -0.422921 0.23733176
0003a0 e8 6c 35 bc 8b 57 9d bb fc f5 c0 3e 19 1d 27 be
       -0.011073329 -0.0048016957 0.3768767 -0.16319694
0003b0 9e 89 17 3e 01 3b a3 3c f1 0d 9e 3e 60 35 08 3e
       0.1479859 0.019925596 0.3087001 0.13301611
0003c0 5f e8 97 be 6e 4b 1c bd 79 ab 00 3d 2a b6 e3 be
       -0.29669473 -0.038157873 0.03141353 -0.44474918
0003d0 07 e0 fb bd 97 c3 35 3e 03 03 84 bd 58 a9 f3 bb
       -0.12298589 0.17750393 -0.06445887 -0.007435959
0003e0 bd 01 26 3d 83 86 04 bf c5 70 e4 bd b5 88 59 3e
       0.040529 -0.5176775 -0.111543216 0.21243556
0003f0 c9 ae a3 be 82 a8 f0 3e 64 76 af be 66 fc 50 3f
       -0.31969288 0.4700356 -0.34270012 0.8163513

fc1.0.weight_u f4 [24]
000000 de 20 16 3c f7 54 e6 bd b6 d8 02 bd ac ff 88 be
       0.00916311 -0.112466745 -0.031944953 -0.26757562
000010 32 1c 29 3e 94 12 4c be 2e fa 12 be 00 ce 99 be
       0.16514662 -0.19928962 -0.14353248 -0.30039978
000020 2b ef 6c be 8f 1d 38 3e 30 2d d7 3d 15 3a 58 3c
       -0.2313811 0.17980026 0.10506666 0.013197442
000030 6b f7 3a 3e 94 12 cc be 63 c7 dd 3d 5c e0 56 3e
       0.18258445 -0.39857924 0.108290456 0.20984024
000040 6a 08 e9 3d 27 fa 58 be 01 88 e4 3d 78 79 d1 3e
       0.11378558 -0.21189176 0.11158753 0.40912986
000050 c8 af 73 3d 0d 0a 7b 3e 41 06 8b 3e 0e 6c 04 3e
       0.05949381 0.24515553 0.2715321 0.12931845

fc1.0.weight_v f4 [24]
000000 57 4b 5c 3b 4e b4 f3 bd 09 16 c9 3e 6d 7b 85 3d
       0.0033614242 -0.11899625 0.39274624 0.06517682
000010 8c c1 f7 bd 14 46 ac 3d c2 ae 86 3e 5a 84 1c be
       -0.12097463 0.08411804 0.26305205 -0.15284863
000020 ff 85 2b 3e 37 5b 78 3e f6 ee 42 be 6f 0a d4 3e
       0.16750334 0.24253546 -0.19036469 0.4141421
000030 12 ad b1 bd 24 a1 39 3e 8b 35 8a be 85 37 9c 3d
       -0.08675589 0.18127877 -0.26993975 0.07627777
000040 a8 ec ad be d5 cb 60 3d ce 74 83 bd 6f d7 d5 bd
       -0.33969617 0.05488189 -0.06418763 -0.10441481
000050 d8 04 a1 3d 7e ff 64 be 6c 78 a4 3e c1 ab a5 3d
       0.07862252 -0.22363088 0.32123125 0.080894
