models/17_05_2021/stock_self_attn_MSE_hinge_10000_64_24_6_24_5/8500_discriminator.pth (torch, 55520 bytes, 40 tensors)

position.pe f4 [1, 24, 24]
0	0x00000000	0.0
1	0x3f800000	1.0
2	0x00000000	0.0
3	0x3f800000	1.0
4	0x00000000	0.0
5	0x3f800000	1.0
6	0x00000000	0.0
7	0x3f800000	1.0
8	0x00000000	0.0
9	0x3f800000	1.0
10	0x00000000	0.0
11	0x3f800000	1.0
12	0x00000000	0.0
13	0x3f800000	1.0
14	0x00000000	0.0
15	0x3f800000	1.0
16	0x00000000	0.0
17	0x3f800000	1.0
18	0x00000000	0.0
19	0x3f800000	1.0
20	0x00000000	0.0
21	0x3f800000	1.0
22	0x00000000	0.0
23	0x3f800000	1.0
24	0x3f576aa4	0.84147096
25	0x3f0a5141	0.54030234
26	0x3ee5351d	0.44767085
27	0x3f64ea30	0.8941984
28	0x3e5ae952	0.21378067
29	0x3f7a14eb	0.9768817
30	0x3dcc7576	0.099833414
31	0x3f7eb898	0.9950042
32	0x3d3e0d1e	0.04639923
33	0x3f7fb96a	0.99892294
34	0x3cb07a47	0.021542681
35	0x3f7ff0ca	0.9997679
36	0x3c23d657	0.009999833
37	0x3f7ffcb9	0.99995
38	0x3b981857	0.0046415734
39	0x3f7fff4b	0.9999892
40	0x3b0d3164	0.0021544332
41	0x3f7fffd9	0.9999977
42	0x3a83126d	0.0009999998
43	0x3f7ffff8	0.9999995
44	0x39f35a5c	0.00046415895
45	0x3f7ffffe	0.9999999
46	0x3961e8ab	0.00021544348
47	0x3f800000	1.0
48	0x3f68c7b7	0.9092974
49	0xbed51133	-0.41614684
50	0x3f4cf4fb	0.8006131
51	0x3f1963f8	0.59918165
52	0x3ed5d9be	0.41767687
53	0x3f6899b9	0.9085956
54	0x3e4b6ff8	0.19866931
55	0x3f7ae5a5	0.9800666
56	0x3dbdd8b7	0.09269851
57	0x3f7ee5d1	0.9956942
58	0x3d306fcb	0.043075364
59	0x3f7fc32c	0.99907184
60	0x3ca3d43e	0.019998666
61	0x3f7ff2e5	0.9998
62	0x3c1817ec	0.009283047
63	0x3f7ffd2d	0.9999569
64	0x3b8d314e	0.004308856
65	0x3f7fff64	0.9999907
66	0x3b031268	0.0019999985
67	0x3f7fffdf	0.99999803
68	0x3a735a5b	0.00092831784
69	0x3f7ffff9	0.9999996
70	0x39e1e8ab	0.00043088695
71	0x3f7fffff	0.99999994
72	0x3e1081c3	0.14112
73	0xbf7d7026	-0.9899925
74	0x3f7bf0ce	0.98414314
75	0x3e35a216	0.17737612
76	0x3f1a2dc8	0.60226107
77	0x3f4c5d56	0.7982992
78	0x3e974e6c	0.2955202
79	0x3f7490ef	0.9553365
80	0x3e0e2117	0.1387981
81	0x3f7d85a8	0.9903207
82	0x3d8446bd	0.06458805
83	0x3f7f7729	0.997912
84	0x3cf5b91f	0.0299955
85	0x3f7fe283	0.99955004
86	0x3c6422d5	0.01392432
87	0x3f7ff9a6	0.9999031
88	0x3bd3c9bf	0.006463259
89	0x3f7ffea2	0.99997914
90	0x3b449b92	0.0029999954
91	0x3f7fffb5	0.9999955
92	0x3ab683c2	0.0013924765
93	0x3f7ffff0	0.99999905
94	0x3a296e7f	0.00064633036
95	0x3f7ffffd	0.9999998
96	0xbf41bdcf	-0.7568025
97	0xbf275530	-0.6536436
98	0x3f759ce7	0.9594254
99	0xbe905d6c	-0.28196275
100	0x3f424dbe	0.75899875
101	0x3f26adf9	0.6510921
102	0x3ec761d7	0.38941833
103	0x3f6bcaa7	0.921061
104	0x3e3d0773	0.18459873
105	0x3f7b99b2	0.98281395
106	0x3db045df	0.08607077
107	0x3f7f0ccc	0.996289
108	0x3d23cbdb	0.039989334
109	0x3f7fcb94	0.9992001
110	0x3c98163e	0.018565293
111	0x3f7ff4b4	0.9998276
112	0x3c0d30f8	0.008617632
113	0x3f7ffd91	0.99996287
114	0x3b831257	0.003999989
115	0x3f7fff7a	0.999992
116	0x3af35a54	0.0018566349
117	0x3f7fffe3	0.9999983
118	0x3a61e8a9	0.0008617738
119	0x3f7ffffa	0.99999964
120	0xbf757c10	-0.9589243
121	0x3e913c2c	0.2836622
122	0x3f3b500a	0.73169005
123	0xbf2e7fcb	-0.68163747
124	0x3f6171cf	0.88064283
125	0x3ef29363	0.47378072
126	0x3ef57743	0.47942552
127	0x3f60a940	0.87758255
128	0x3e6b8593	0.23000173
129	0x3f7922ff	0.97319025
130	0x3ddc300e	0.10751353
131	0x3f7e8421	0.9942036
132	0x3d4cb6f4	0.049979165
133	0x3f7fae19	0.99875027
134	0x3cbe1a3c	0.023205869
135	0x3f7fee5a	0.9997307
136	0x3c307ce6	0.010771966
137	0x3f7ffc33	0.999942
138	0x3ba3d6dd	0.004999979
139	0x3f7fff2e	0.9999875
140	0x3b181871	0.0023207928
141	0x3f7fffd3	0.9999973
142	0x3a8d3169	0.0010772172
143	0x3f7ffff6	0.9999994
144	0xbe8f0f8c	-0.2794155
145	0x3f75cdb8	0.96017027
146	0x3eb2c0c6	0.349127
147	0xbf6fe42d	-0.93707544
148	0x3f762963	0.961569
149	0x3e8c938f	0.27456328
150	0x3f108c68	0.5646424
151	0x3f534932	0.8253356
152	0x3e8cc0e9	0.2749093
153	0x3f7622e9	0.9614702
154	0x3e040009	0.12890638
155	0x3f7ddd38	0.9916568
156	0x3d759cd1	0.059964005
157	0x3f7f8a12	0.99820054
158	0x3ce41d2b	0.02784594
159	0x3f7fe696	0.9996122
160	0x3c53c89d	0.012926248
161	0x3f7ffa86	0.99991643
162	0x3bc49b58	0.0059999637
163	0x3f7ffed2	0.999982
164	0x3b3683b7	0.0027849504
165	0x3f7fffbf	0.9999961
166	0x3aa96e7d	0.0012926605
167	0x3f7ffff2	0.99999917
168	0x3f283046	0.6569866
169	0x3f40ffbd	0.75390226
170	0xbddbc69f	-0.10731243
171	0xbf7e858d	-0.9942253
172	0x3f7f7f41	0.9980355
173	0x3d804f23	0.06265094
174	0x3f24eb72	0.6442176
175	0x3f43ccb3	0.7648422
176	0x3ea3716a	0.31922466
177	0x3f729b18	0.94767904
178	0x3e19d85d	0.15023942
179	0x3f7d1825	0.98864967
180	0x3d8f3e32	0.06994285
181	0x3f7f5f81	0.997551
182	0x3d050f6e	0.032485418
183	0x3f7fdd69	0.9994722
184	0x3c771415	0.0150804715
185	0x3f7ff88c	0.9998863
186	0x3be55fc5	0.006999942
187	0x3f7ffe65	0.9999755
188	0x3b54eef8	0.003249107
189	0x3f7fffa8	0.99999475
190	0x3ac5ab91	0.0015081038
191	0x3f7fffed	0.99999887
192	0x3f7d4695	0.98935825
193	0xbe14fdf6	-0.14550003
194	0xbf0a81e3	-0.5410444
195	0xbf574b62	-0.840994
196	0x3f7d04e9	0.9883562
197	0xbe1bcf59	-0.15215816
198	0x3f37a4a5	0.717356
199	0x3f325b5f	0.6967067
200	0x3eb9c7cb	0.36285242
201	0x3f6e8d80	0.9318466
202	0x3e2f9e69	0.17150272
203	0x3f7c34ff	0.98518366
204	0x3da3aa50	0.07991469
205	0x3f7f2e65	0.9968017
206	0x3d180f89	0.03712419
207	0x3f7fd2d3	0.9993107
208	0x3c8d2fa1	0.017234625
209	0x3f7ff644	0.99985147
210	0x3c031212	0.007999914
211	0x3f7ffde7	0.999968
212	0x3b735a38	0.0037132632
213	0x3f7fff8c	0.9999931
214	0x3ae1e8a4	0.001723547
215	0x3f7fffe7	0.9999985
216	0x3ed30132	0.4121185
217	0xbf693fd5	-0.91113025
218	0xbf5c3bf1	-0.86028963
219	0xbf02829f	-0.5098056
220	0x3f6ed7af	0.9329786
221	0xbeb84901	-0.35993198
222	0x3f48881c	0.78332686
223	0x3f1f21d5	0.62161
224	0x3ecfb7ba	0.4056986
225	0x3f69fc5c	0.91400695
226	0x3e454f97	0.19268642
227	0x3f7b33e1	0.98126036
228	0x3db8123e	0.089878544
229	0x3f7ef6c2	0.9959527
230	0x3d2b0ecd	0.041762162
231	0x3f7fc6d3	0.99912757
232	0x3c9ed50c	0.019388698
233	0x3f7ff3ae	0.999812
234	0x3c13743a	0.008999879
235	0x3f7ffd59	0.9999595
236	0x3b88e2ba	0.0041774185
237	0x3f7fff6e	0.9999913
238	0x3afe25b6	0.0019389901
239	0x3f7fffe1	0.99999815
240	0xbf0b44f8	-0.5440211
241	0xbf56cd64	-0.8390715
242	0xbf7f5bd1	-0.99749476
243	0xbd90e07e	-0.070740685
244	0x3f559f61	0.8344632
245	0xbf0d1282	-0.55106366
246	0x3f576aa4	0.84147096
247	0x3f0a5141	0.54030234
248	0x3ee5351e	0.44767088
249	0x3f64ea30	0.8941984
250	0x3e5ae953	0.21378069
251	0x3f7a14eb	0.9768817
252	0x3dcc7576	0.099833414
253	0x3f7eb898	0.9950042
254	0x3d3e0d21	0.04639924
255	0x3f7fb96a	0.99892294

r_cell.w_qs.weight f4 [24, 24]
0	0xbe914fda	-0.28381234
1	0xbedc5e87	-0.4304087
2	0xbd29f116	-0.041489683
3	0xbe9dd03c	-0.30822933
4	0x3ef48f26	0.47765464
5	0x3f2b7b58	0.6698508
6	0x3de8feb7	0.11376708
7	0xbf1f43dd	-0.62212926
8	0x3f3927ab	0.72326154
9	0x3f4b26f3	0.79356307
10	0xbd05121d	-0.032487977
11	0xbe213ff9	-0.1574706
12	0xbf53ab0c	-0.8268287
13	0x3ca91aa6	0.02064259
14	0x3e05096f	0.1299188
15	0x3ec9549b	0.3932236
16	0x3e805950	0.2506814
17	0xbf75c654	-0.9600575
18	0x3e94221a	0.28932267
19	0x3d984b9c	0.07436296
20	0x3f7eb8cc	0.9950073
21	0xbf294814	-0.6612561
22	0x3ee10c7e	0.43954843
23	0xbeb53292	-0.35390145
24	0x3e2c62f1	0.16834618
25	0xbf279f39	-0.6547733
26	0x3eace2f4	0.33766901
27	0xbe85957d	-0.26090613
28	0xbf0c5796	-0.54821146
29	0xbf98ae7a	-1.1928246
30	0xbf604c5c	-0.87616515
31	0x3e46d1fa	0.19416037
32	0xbfd1a369	-1.6377994
33	0xbe5d0813	-0.21585111
34	0xbed06b8c	-0.40707052
35	0x3e1ceab7	0.15323912
36	0xbe076f27	-0.13225995
37	0x3f139263	0.57645243
38	0x3efebbc9	0.49752644
39	0xbc9295c7	-0.017893685
40	0x3f7a2cf8	0.97724867
41	0xbfaf47c0	-1.3693771
42	0x3d566dca	0.052350797
43	0x3d91dc3e	0.07122086
44	0xbdb95e48	-0.09051186
45	0xbf12483d	-0.57141477
46	0xbe37652c	-0.17909688
47	0xbe6ced07	-0.23137294
48	0x3d063854	0.032768562
49	0xbf80dedf	-1.0068015
50	0xbe03c8ab	-0.12869518
51	0xbf6f677a	-0.9351727
52	0x3f48dbc3	0.7846033
53	0x3dc67bd9	0.09691591
54	0x3f2cd8b6	0.67518175
55	0xbef5c0dc	-0.47998703
56	0x3eb2f664	0.34953606
57	0x3f359bb1	0.7094069
58	0xbe2a7695	-0.16646798
59	0xbf7836b3	-0.96958464
60	0xbf0ffddd	-0.5624674
61	0xbf0e5138	-0.5559268
62	0xbf886071	-1.0654432
63	0xbee00ff3	-0.43762168
64	0xbe7d155d	-0.2471518
65	0x3f180358	0.593801
66	0xbd8d30cf	-0.06894075
67	0x3ec378d0	0.3817811
68	0x3f960418	1.1719999
69	0x3f1e10fc	0.61744666
70	0xbe464471	-0.19362046
71	0x3ec68135	0.38770452
72	0x3f6130dd	0.87965184
73	0xbc2ddfa5	-0.010612403
74	0xbf057687	-0.52133983
75	0xbf26be99	-0.6513458
76	0xbc3d2b2f	-0.01154594
77	0xbf39877f	-0.72472376
78	0x3f58e610	0.8472605
79	0x3e8dde9f	0.2770891
80	0x3eaed714	0.34148467
81	0x3f87b100	1.0600891
82	0x3d83d1bf	0.0643649
83	0xbc4ed26b	-0.01262341
84	0xbf099444	-0.5374186
85	0x3f334f49	0.70042855
86	0xbf0ab4da	-0.5418221
87	0x3f22bf52	0.6357318
88	0xbe09ab05	-0.13444145
89	0xbe69196c	-0.22763604
90	0xbf32f310	-0.69902134
91	0xbf200079	-0.6250072
92	0xbeeeb65a	-0.46623498
93	0xbe9619f5	-0.2931668
94	0x3f320948	0.6954541
95	0x3e4068f5	0.18790038
96	0xbdd00724	-0.10157612
97	0x3e7127ed	0.23550387
98	0xbf31b73d	-0.69420224
99	0xbe2415ea	-0.16023985
100	0x3f01a612	0.5064403
101	0x3e06dd05	0.1317025
102	0x3eb3bf71	0.35106996
103	0xbe24724e	-0.16059229
104	0x3e11d81b	0.14242594
105	0x3f95fd68	1.1717958
106	0x3ea3c4ce	0.31986088
107	0xbf80e804	-1.0070806
108	0xbecc413c	-0.3989352
109	0xbf449319	-0.76786953
110	0x3e89f117	0.2694175
111	0xbf102dc8	-0.56319857
112	0x3ef6cd54	0.48203528
113	0xbfb536b3	-1.4157318
114	0xbf157670	-0.58383846
115	0x3f0b6f38	0.5446658
116	0xbfa7ba83	-1.3103794
117	0x3ef1cda2	0.47227198
118	0xbe6c8b5a	-0.23100033
119	0xbe6c81bf	-0.23096369
120	0xbe02a57c	-0.1275844
121	0xbe3571dd	-0.17719217
122	0x3e176699	0.14785232
123	0x3f2222a1	0.6333409
124	0x3e5e4532	0.21706083
125	0x3f3029f3	0.6881401
126	0xbf29eac6	-0.6637386
127	0xbd335c85	-0.043789405
128	0x3ecdaf7d	0.4017295
129	0xbe4fe729	-0.20303024
130	0xbe4f6e7f	-0.20256995
131	0xbee8cb9a	-0.45467836
132	0xbf204f5f	-0.6262111
133	0x3daaa50b	0.08332261
134	0xbf037101	-0.51344305
135	0x3d88d707	0.06681638
136	0xbec59788	-0.38592172
137	0xbe90c1ef	-0.2827296
138	0x3e8f2ad7	0.27962372
139	0x3e5ec125	0.21753366
140	0x3d46e14b	0.0485547
141	0x3f56c2ec	0.8389118
142	0xbf531fb3	-0.82470244
143	0xbded2b41	-0.11580516
144	0xbeaa7651	-0.33293393
145	0xbe5bb6e9	-0.21456493
146	0x3e166ac2	0.14689162
147	0xbf7f262b	-0.99667615
148	0xbebb8faf	-0.3663306
149	0xbedb1d7a	-0.42795926
150	0x3d66cf26	0.056349896
151	0x3e401f1c	0.18761867
152	0x3cd71fa8	0.026260212
153	0x3db1a2dd	0.08673642
154	0x3ec8ab40	0.39193153
155	0xbeb26d73	-0.34849128
156	0xbe863d16	-0.2621848
157	0x3f16228a	0.5864645
158	0xbf19b868	-0.60047007
159	0xbe4ec022	-0.2019048
160	0xbe3c09a3	-0.18363051
161	0xbb671719	-0.003526157
162	0xbe79c7ba	-0.24392596
163	0x3e6ee6c0	0.23330212
164	0xbf121c4e	-0.5707444
165	0x3ecb6471	0.39725068
166	0x3dcab3f0	0.098976016
167	0x3d2172dc	0.03941618
168	0xbf3507ad	-0.7071484
169	0x3e77687d	0.24160953
170	0x3f6d7c37	0.9276766
171	0x3e250ed6	0.1611894
172	0x3ee312d1	0.44350293
173	0x3dbc8679	0.09205336
174	0x3f1ec36f	0.6201696
175	0xbf986069	-1.1904422
176	0x3dcd9f53	0.10040154
177	0xbf254344	-0.64555764
178	0xbdc9f58d	-0.09861288
179	0xbe0892a0	-0.13337183
180	0xbf995d08	-1.1981516
181	0x3e1173a0	0.14204264
182	0xbf298118	-0.66212606
183	0xbf1101bc	-0.5664327
184	0x3f1ef019	0.6208511
185	0x3f7e2af4	0.9928429
186	0x3e082082	0.13293651
187	0xbea1390b	-0.31488833
188	0x3ef6a78d	0.48174706
189	0x3d752fe1	0.059860114
190	0x3ec0cdf1	0.3765712
191	0xbe889adb	-0.26680645
192	0x3f7d682d	0.98987085
193	0xbf0d51d2	-0.5520297
194	0x3e831888	0.25604653
195	0x3e93bebb	0.28856453
196	0xbf5c7d89	-0.8612905
197	0xbf01252b	-0.5044734
198	0xbfd25c56	-1.6434429
199	0x3f4698b2	0.77576745
200	0x3e828820	0.2549448
201	0x3e613d29	0.21995987
202	0x3e7f8a6d	0.24955149
203	0x3e9ce4b7	0.30643246
204	0x3e90b056	0.28259534
205	0x3ca7903f	0.020454524
206	0x3efe8144	0.49707997
207	0x3eed3097	0.46326134
208	0x3e6cdf8b	0.2313215
209	0xbf1c013c	-0.60939384
210	0xbe870c35	-0.263765
211	0xbd615192	-0.055009432
212	0x3e0b8cfa	0.13627997
213	0xbf68266b	-0.9068362
214	0xbeae6137	-0.34058544
215	0xbf09b0ce	-0.5378541
216	0x3cf63839	0.030056106
217	0x3e7a1fe8	0.24426234
218	0x3fa521f5	1.2900988
219	0x3de1dc12	0.11028303
220	0xbf46a396	-0.7759336
221	0x3ccac50c	0.024752162
222	0xbef120a2	-0.4709521
223	0xbc8365f6	-0.01603983
224	0xbf322ba5	-0.69597846
225	0xbf0552bf	-0.52079386
226	0xbcbe0a13	-0.023198163
227	0xbf5e6009	-0.8686529
228	0x3b2c2ed8	0.0026273038
229	0xbfa230d9	-1.2671157
230	0x3ea06837	0.3132951
231	0x3d248d62	0.040173896
232	0xbf84e162	-1.0381281
233	0xbf28d290	-0.6594629
234	0x3c1116fb	0.008855577
235	0x3f18bc9a	0.59662783
236	0x3ea61c5e	0.32443517
237	0x3f592222	0.8481771
238	0xbf0295d5	-0.51009876
239	0xbd87ed60	-0.066370726
240	0xbe9a466b	-0.3013185
241	0xbea554db	-0.32291302
242	0x3eef37a8	0.4672215
243	0x3e11e491	0.14247347
244	0x3f4aceb9	0.79221684
245	0x3f6f02e0	0.9336376
246	0x3e169285	0.1470433
247	0xbed0297c	-0.4065665
248	0x3f7686fe	0.9629973
249	0xbd03d961	-0.03218973
250	0x3e9de0b8	0.3083551
251	0x3cf84b14	0.030309238
252	0xbeabcf42	-0.33556563
253	0xbef25dd1	-0.473372
254	0xbd72ef30	-0.05931014
255	0xbf43bb6f	-0.76457876

r_cell.w_qs.bias f4 [24]
0	0x3fb6cc24	1.4281049
1	0xbf3047ab	-0.68859357
2	0x3e16f0ef	0.14740346
3	0x3fb0680d	1.3781754
4	0xbf3241c5	-0.69631606
5	0x3f008123	0.50197047
6	0xbf487f9f	-0.78319734
7	0x3fc5d903	1.5456852
8	0xbeaab7fb	-0.3334349
9	0xbefcb3d4	-0.49355948
10	0x3ed2f9da	0.41206247
11	0x3e82b468	0.25528264
12	0xbe85f881	-0.26166156
13	0xbf9d6c6e	-1.2298715
14	0x3f99c47d	1.2013088
15	0x3f8b4209	1.0879527
16	0x3df7b089	0.12094218
17	0xbedeb6eb	-0.4349893
18	0x3ef80c7d	0.48447028
19	0x3f9542e3	1.1661037
20	0x3fce6194	1.6123528
21	0xbeae123e	-0.33998293
22	0x3fa40e8f	1.2816943
23	0xbfd9abdb	-1.7005571

r_cell.w_ks.weight f4 [24, 24]
0	0x3f2a0d5e	0.66426647
1	0x3e60820a	0.21924606
2	0xbf08f0b2	-0.5349227
3	0x3f98e707	1.1945504
4	0xbe901ac1	-0.28145412
5	0xbf2e653a	-0.6812321
6	0x3eade7fa	0.33966047
7	0xbf506339	-0.814014
8	0xbe9dd52b	-0.30826697
9	0x3ef8001f	0.48437592
10	0xbddf3c16	-0.10900132
11	0x3e1342bb	0.14380924
12	0x3f597986	0.84951055
13	0xbe4cb6d6	-0.19991621
14	0x3f13413d	0.5752142
15	0xbe5c81a1	-0.21533825
16	0x3eb69032	0.35656887
17	0x3cc061d3	0.023484146
18	0x3d2464a7	0.040135052
19	0x3e959fed	0.29223576
20	0xbfa55af8	-1.2918386
21	0x3f3cc894	0.7374356
22	0x3dec8fd7	0.11550873
23	0x3d7491f5	0.059709508
24	0x3e3a7ff7	0.18212877
25	0xbc8a2dbe	-0.016867515
26	0x3fe17f44	1.7616963
27	0xbf887da5	-1.0663344
28	0x3ea2cac0	0.3179531
29	0x3e464213	0.19361143
30	0xbf93602d	-1.1513726
31	0xbf52e9d1	-0.82388026
32	0x3e8b0abd	0.2715663
33	0x3e8e6c14	0.27816832
34	0xbf8986ca	-1.0744259
35	0xbf7fd93d	-0.99940854
36	0xc017a5de	-2.3694987
37	0xbf014789	-0.5049978
38	0xbee45338	-0.4459474
39	0xbe494c2e	-0.19657966
40	0x3f094d10	0.53633213
41	0xbeb72fcc	-0.35778654
42	0x3f1942f6	0.598678
43	0xbec72fd4	-0.38903677
44	0xbd3fee77	-0.046858277
45	0xbe7a4eec	-0.24444169
46	0xbe849431	-0.2589431
47	0x3f0982b9	0.5371509
48	0xbe98a02a	-0.29809695
49	0x3e01041a	0.12599221
50	0xbfac5f40	-1.3466568
51	0x3f180bb7	0.59392875
52	0xbbde3d24	-0.006782191
53	0xbd58b5cf	-0.05290776
54	0x3f1a3bed	0.6024769
55	0x3e94ce9b	0.29063877
56	0x3e46bfd8	0.1940912
57	0x3e21c9cb	0.15799634
58	0xbf61a538	-0.8814273
59	0x3e5867eb	0.21133392
60	0x3fbb272e	1.4621332
61	0x3f24f507	0.6443638
62	0xbec7556f	-0.38932368
63	0x3ea4f9eb	0.32221922
64	0x3f1f9bb7	0.62346977
65	0x3d4f34bf	0.050587412
66	0x3edb7813	0.42865047
67	0xbe7c320f	-0.24628471
68	0x3cb4b426	0.022058558
69	0xbf0ba381	-0.5454636
70	0x3e81a2ad	0.25319424
71	0xbec811ca	-0.39076072
72	0x3e3cfe78	0.18456447
73	0xbd2d310c	-0.042283103
74	0x3e01b7e0	0.12667799
75	0x3ea57231	0.32313684
76	0xbecb6911	-0.39728597
77	0x3e338f0f	0.17535041
78	0x3da41174	0.080111414
79	0xbe938542	-0.28812605
80	0x3f02c2ee	0.5107869
81	0xbf695d84	-0.9115832
82	0x3d9f816c	0.07788357
83	0x3f89697a	1.0735314
84	0xbebf1af4	-0.3732525
85	0x3f51e57c	0.8199079
86	0xbf9747b6	-1.181876
87	0xbeacc425	-0.33743396
88	0xbdd6a1a8	-0.10480052
89	0x3f3a0123	0.72657984
90	0xbf09f1cd	-0.53884584
91	0x3fdf5091	1.7446462
92	0xbc8e9c42	-0.017408494
93	0x3f748337	0.9551272
94	0x3eb941af	0.36182925
95	0xbebc31fa	-0.3675688
96	0x3fb5eed4	1.421351
97	0xbfa8cb8b	-1.3187116
98	0xbe0124bb	-0.12611668
99	0xbf0dcc30	-0.5538969
100	0xbf95f881	-1.1716462
101	0x3d1a49ef	0.037668165
102	0xbf5df4dd	-0.86701757
103	0xbf19028e	-0.59769523
104	0x3f51546b	0.81769437
105	0xbf367627	-0.71274036
106	0x3e8332c5	0.25624672
107	0x3e5daee9	0.21648754
108	0x3f5c4e39	0.8605686
109	0xbdc4192f	-0.09575116
110	0xbf2e0dd0	-0.67989826
111	0x3f285cf7	0.65766853
112	0x3e8f66b2	0.28008038
113	0xbe91f8eb	-0.28510222
114	0xbf3a565b	-0.7278802
115	0x3dbe9bbb	0.09307047
116	0x3f1f10bf	0.6213493
117	0x3ef7c5d1	0.4839311
118	0x3ef19bdf	0.47189233
119	0xbf1bcdf6	-0.60861146
120	0xbdcf7415	-0.10129563
121	0x3e6b8820	0.23001146
122	0xbe1c358c	-0.15254802
123	0x3d2ded2b	0.04246251
124	0x3d3d3d79	0.046201203
125	0xbe3e7dad	-0.18602629
126	0xbebb42ae	-0.3657431
127	0x3f90521d	1.1275059
128	0xbded83e8	-0.11597425
129	0x3f07a519	0.52986294
130	0xbe846c92	-0.25864083
131	0xbf874170	-1.0566845
132	0xbe54a4ac	-0.20765942
133	0xbecf6e34	-0.40513766
134	0x3ec762cd	0.38942567
135	0xbf4b8894	-0.79505277
136	0x3e5a9633	0.21346359
137	0x3e840827	0.2578747
138	0xbf39ca92	-0.7257472
139	0xbdaeb8ec	-0.08531365
140	0x3efffa3c	0.499956
141	0xbf198cba	-0.59980357
142	0xbf2766c8	-0.65391207
143	0x3ee4200d	0.44555703
144	0xbf1db653	-0.6160633
145	0xbf212eff	-0.62962335
146	0xbfb60c25	-1.4222456
147	0xbefef47e	-0.49795908
148	0x3ecfb39d	0.40566722
149	0x3fbce1b9	1.4756385
150	0xbe45887d	-0.19290347
151	0x3d8ea16b	0.06964382
152	0x3f965ea9	1.1747638
153	0x3e61a6a7	0.22036229
154	0x3ee49485	0.4464456
155	0x3f31aa76	0.6940073
156	0xbf5f3284	-0.87186456
157	0xbe4ed84d	-0.201997
158	0xbd1885b8	-0.0372369
159	0xbe90e102	-0.28296667
160	0xbf76a58f	-0.9634637
161	0x3f2d1602	0.67611706
162	0xbf619ec3	-0.88132876
163	0xbdd84342	-0.105597034
164	0xbf1acfc1	-0.6047326
165	0xbecfc0ff	-0.40576932
166	0x3e92d810	0.28680468
167	0x3c447e8f	0.011993065
168	0x3dccf314	0.10007301
169	0xbd02d7a0	-0.031943917
170	0xbd91419f	-0.07092594
171	0x3f1180cc	0.56837153
172	0xbed58767	-0.41704866
173	0xbf24b2bb	-0.6433522
174	0x3efa6224	0.48903
175	0xbec80752	-0.39068085
176	0xbf2d6de5	-0.6774581
177	0xbf131681	-0.57456213
178	0x3fb0a39b	1.3799928
179	0xbde3613b	-0.111025296
180	0xbb58c027	-0.0033073516
181	0x3f34fed8	0.7070136
182	0xbf7833b4	-0.9695389
183	0x3dbaefd3	0.09127774
184	0xbf0a07f9	-0.53918415
185	0x3f212a57	0.6295523
186	0xbefa542b	-0.4889234
187	0x3f098749	0.53722054
188	0xbec56944	-0.38556874
189	0xbf0ae4b0	-0.542552
190	0x3f30c744	0.69054055
191	0xbccfbf30	-0.02535972
192	0xbef33b30	-0.47506094
193	0x3e55a662	0.20864251
194	0x3e625f58	0.22106683
195	0xbed2b790	-0.41155672
196	0xbec3b191	-0.3822141
197	0x3ec2d065	0.38049617
198	0x3b40baf1	0.00294083
199	0x3c83b6de	0.016078409
200	0x3e4c42c4	0.19947344
201	0xbea6c6e6	-0.32573622
202	0xbf9156bf	-1.1354598
203	0x3f6a384f	0.9149217
204	0xbe5255e3	-0.20540576
205	0xbe77b551	-0.2419026
206	0x3e668d3b	0.22514813
207	0x3f1798cb	0.5921752
208	0x3f339e0f	0.70163053
209	0xbfa739e6	-1.3064544
210	0xbf196924	-0.59926057
211	0xbfc24c3d	-1.5179516
212	0xbde61fc5	-0.11236528
213	0x3ed85011	0.42248586
214	0xbf3e8bbd	-0.74431974
215	0xbe9322bd	-0.2873744
216	0xbf0efe11	-0.55856425
217	0x3f82668a	1.0187542
218	0xbe116d68	-0.14201891
219	0x3fad91c5	1.356011
220	0x3f45f44f	0.7732591
221	0x3ee10c31	0.43954614
222	0x3eb2097c	0.3477286
223	0xbf29b9e4	-0.6629927
224	0xbeeb7968	-0.45991063
225	0x3c2c0bcd	0.01050086
226	0x3eaa7fde	0.3330068
227	0x3f42c6b9	0.76084477
228	0x3fce35f8	1.611022
229	0xbe817834	-0.2528702
230	0xbfbbe000	-1.4677734
231	0xbf0a05e4	-0.5391524
232	0x3f7efd6d	0.9960545
233	0xbebbd60f	-0.3668675
234	0xbdc42007	-0.09576421
235	0xbf0903be	-0.53521335
236	0x3f28c4de	0.65925395
237	0xbde646c1	-0.11243964
238	0xbebaab58	-0.3645885
239	0x3e235e64	0.15953976
240	0x3f608784	0.8770678
241	0x3e9e8d66	0.30967253
242	0x3e14569b	0.14486162
243	0xbf819828	-1.0124559
244	0x3f88a8ed	1.0676552
245	0xbed519a2	-0.4162112
246	0x3e79cdb6	0.24394879
247	0xbef58aed	-0.47957554
248	0x3e5432f4	0.20722562
249	0x3e6f6744	0.23379236
250	0x3e8b4523	0.27201185
251	0xbf07ab30	-0.52995586
252	0xbf129bca	-0.57268965
253	0x3f144a07	0.57925457
254	0x3d19eabe	0.037577383
255	0x3cf82d60	0.030295074

r_cell.w_ks.bias f4 [24]
0	0x3eb340d0	0.35010386
1	0xbe22f57f	-0.15913962
2	0xbe4ea663	-0.20180659
3	0x3d29688f	0.04135948
4	0xbdd46d0d	-0.10372362
5	0x3de74ee5	0.11294345
6	0xbe16b3ee	-0.14717075
7	0x3eb8bbb7	0.36080715
8	0xbee08dc4	-0.4385816
9	0xbd0b916c	-0.034074232
10	0x3da23ee5	0.079221524
11	0x3f4aade9	0.79171616
12	0xbdb0476e	-0.08607374
13	0xbeaff764	-0.34368432
14	0x3d962cdd	0.07332776
15	0x3e38c67b	0.18044464
16	0xbe5c9515	-0.21541245
17	0x3e6c1d6f	0.23058103
18	0xbe1cc932	-0.15311125
19	0xbc8b62e3	-0.017014926
20	0xbe42d71e	-0.19027373
21	0xbe0cab0c	-0.13737124
22	0xbd705076	-0.058670484
23	0xbe6bb5ca	-0.23018566

r_cell.w_vs.weight f4 [24, 24]
0	0x3f092055	0.5356496
1	0x3d5baf29	0.053633843
2	0xbd871657	-0.06596058
3	0x3e20b918	0.15695608
4	0xbe89c9a3	-0.2691165
5	0x3ec65571	0.38737062
6	0x3f80dfe7	1.006833
7	0x3edcda9f	0.43135545
8	0x3f190525	0.59773475
9	0xbf2d4b88	-0.67693377
10	0xbe8de24f	-0.27711722
11	0xbf7f67b2	-0.997676
12	0x3e924b16	0.2857291
13	0x3f67d3e1	0.90557677
14	0x3f49f5ce	0.78890693
15	0xbe9be4f5	-0.30448118
16	0x3ece362b	0.40275702
17	0x3de301a7	0.110842995
18	0x3db6d068	0.08926469
19	0x3cfd7113	0.030937707
20	0x3f08f24c	0.53494716
21	0x3d09bf5f	0.03362977
22	0xbe2ec511	-0.17067362
23	0xbf3846e8	-0.71983194
24	0xbe0c4010	-0.13696313
25	0xbf0a96dd	-0.5413645
26	0x3e29503a	0.1653451
27	0xbe5124e0	-0.20424223
28	0x3eac24e5	0.33621898
29	0xbed31fed	-0.41235295
30	0xbe675da5	-0.22594316
31	0xbf1201c5	-0.5703395
32	0xbf2dcee8	-0.6789384
33	0x3fa3d10a	1.2798169
34	0x3f65b303	0.89726275
35	0x3f67be08	0.9052434
36	0x3d8e6497	0.0695278
37	0xbf8907f9	-1.0705558
38	0x3ebe5cd7	0.37180206
39	0x3ec99037	0.3936784
40	0x3e96d7c2	0.29461485
41	0x3ecd3361	0.40078261
42	0x3c96efb4	0.018424846
43	0xbeb0ef8b	-0.34557757
44	0xbe99b025	-0.300172
45	0xbf4a2729	-0.78966004
46	0x3f42cf1f	0.7609729
47	0x3f83d81c	1.0300326
48	0xbf137b47	-0.5760998
49	0x3e97f08c	0.2967571
50	0x3ed8c0f7	0.4233472
51	0x3e08a44e	0.13343927
52	0x3dea94e5	0.11454181
53	0xbeafde3a	-0.34349233
54	0xbe209bd3	-0.15684442
55	0xbe3757a1	-0.17904522
56	0xbf22cd27	-0.6359429
57	0x3f777874	0.9666817
58	0x3f433749	0.76256233
59	0x3f3f9e26	0.7485069
60	0x3da447b3	0.08021488
61	0xbe82e7e2	-0.25567538
62	0xbda339cb	-0.079700075
63	0x3d38d4bd	0.045124758
64	0x3eaeca17	0.34138557
65	0x3e995954	0.29950964
66	0x3e78eebf	0.24309824
67	0xbe9b2a8e	-0.30305904
68	0xbed9737f	-0.4247093
69	0xbd9f399c	-0.0777466
70	0x3e123d62	0.14281228
71	0x3f3d6e51	0.73996454
72	0xbf57d89a	-0.8431488
73	0x3e93d990	0.28876925
74	0x3ee5938a	0.44839126
75	0xbf26c527	-0.6514458
76	0x3e1b388d	0.15158291
77	0xbf0b949f	-0.5452365
78	0x3dd4854a	0.10376985
79	0x3ee1459a	0.43998414
80	0xbf13ac03	-0.57684344
81	0x3f5b58a8	0.85682154
82	0x3e39a647	0.18129836
83	0xbf11a1b7	-0.5688738
84	0xbde3be01	-0.11120225
85	0x3f181084	0.594002
86	0x3ec58f95	0.38586107
87	0xbce4bb58	-0.027921364
88	0xbe49db20	-0.19712496
89	0xbebc1c58	-0.36740375
90	0xbe58102e	-0.21099922
91	0xbda47901	-0.08030892
92	0xbf903b95	-1.1268183
93	0x3dfa3067	0.12216263
94	0xbf6551ef	-0.89578146
95	0xbf40faf0	-0.753829
96	0x3e2bb90f	0.16769813
97	0xbf2e3c05	-0.6806033
98	0x3e781d0a	0.24229828
99	0xbefecb45	-0.49764457
100	0xbea9f13a	-0.33191854
101	0x3dc7c623	0.097545885
102	0x3f302617	0.6880812
103	0xbf979cbe	-1.1844709
104	0xbf045640	-0.5169411
105	0x3eda244d	0.4260582
106	0x3f3e506b	0.7434146
107	0xbe0e407d	-0.13891788
108	0xbefcc7f1	-0.49371293
109	0x3f2e7c8d	0.681588
110	0x3f9cecf6	1.2259815
111	0x3f520a9b	0.8204743
112	0xbdc42eec	-0.09579262
113	0xbdf9ef31	-0.12203825
114	0x3f5d1e37	0.8637423
115	0xbe829825	-0.25506702
116	0xbefa3f44	-0.48876393
117	0xbe9eb274	-0.30995524
118	0xbf8c969f	-1.0983466
119	0xbe94a057	-0.2902858
120	0xbee4bd44	-0.44675648
121	0x3d65d781	0.056113724
122	0x3ab26a2d	0.0013611965
123	0xbf7d4c44	-0.989445
124	0x3e642f52	0.22283676
125	0xbe9ac76a	-0.30230266
126	0x3d8453c0	0.064612865
127	0xbe4d7a14	-0.200661
128	0x3ef4476f	0.4771075
129	0xbea04f9a	-0.3131073
130	0x3e3809d8	0.17972505
131	0x3d91d8cc	0.07121429
132	0xbf60ed56	-0.87862146
133	0xbf25b77b	-0.64733094
134	0xbfc8b12a	-1.5679066
135	0xbfd547e2	-1.6662562
136	0xbf02d61b	-0.5110795
137	0x3e820c2f	0.2539992
138	0xbf97f998	-1.1873045
139	0xbf5983ea	-0.8496691
140	0xbed9a5d9	-0.42509344
141	0x3f06131f	0.52372926
142	0xbed6af11	-0.4193044
143	0x3d963699	0.073346324
144	0x3dcc1f6c	0.09966931
145	0x3f7bae42	0.9831277
146	0xbecb4303	-0.39699563
147	0xbefd9469	-0.4952729
148	0x3de93d3a	0.11388631
149	0x3f47df99	0.7807556
150	0xbf2f2af5	-0.6842492
151	0x3eb840cb	0.35986933
152	0x3f208cd7	0.62714905
153	0x3f9ce5c9	1.2257625
154	0xbf91f2b2	-1.140219
155	0x3f33c771	0.702262
156	0x3e98c876	0.2984044
157	0xbf779219	-0.967073
158	0x3f5d3f88	0.86425066
159	0xbe6ee2a0	-0.23328638
160	0x3d3afc65	0.04565086
161	0xbe27bd6a	-0.1638085
162	0xbf43f337	-0.7654299
163	0x3f0f6b29	0.5602289
164	0xbf346a66	-0.7047485
165	0xbe5dbdf9	-0.216545
166	0x3f62e057	0.88623565
167	0x3f9a0236	1.2031925
168	0x3d90e877	0.07075589
169	0x3f0c8c3b	0.54901475
170	0xbf11dbab	-0.5697581
171	0xbf751a0a	-0.9574286
172	0x3f24dfb9	0.64403874
173	0xbe1cd93b	-0.15317242
174	0xbf38b8c2	-0.7215692
175	0x3eb57d08	0.35446954
176	0x3ea1285e	0.3147611
177	0x3faceb22	1.3509257
178	0xbf36c906	-0.7140049
179	0x3ea4d526	0.3219387
180	0xbf64a1b2	-0.8930923
181	0xbfef8b0e	-1.8714311
182	0x3fab6ea1	1.3393136
183	0xbef0776b	-0.4696611
184	0x3e2dc417	0.16969334
185	0x3e894177	0.26807758
186	0xbf1c8dbc	-0.6115377
187	0xbec34c1b	-0.38144
188	0xbf8986f6	-1.0744312
189	0x3db5b493	0.088723324
190	0x3dd9314c	0.10605106
191	0xbe0be9b8	-0.13663375
192	0xbe121135	-0.14264376
193	0x3f1bc5c2	0.6084863
194	0xbf01d895	-0.507211
195	0xbfd3a636	-1.6535099
196	0x3fa033b6	1.2515781
197	0x3d3ef03f	0.046615835
198	0xbdc5912f	-0.09646832
199	0xbebe55de	-0.37174886
200	0xbf0a54a9	-0.5403543
201	0x3f91c2f8	1.1387625
202	0xbe6db5f4	-0.23213941
203	0xbf8032b0	-1.0015469
204	0xbf1bf92f	-0.609271
205	0xbe64dafe	-0.22349164
206	0x3f5da39b	0.8657777
207	0xbf9821a2	-1.1885264
208	0xbe69629b	-0.22791521
209	0xbd859997	-0.065234356
210	0xbf15e200	-0.58547974
211	0xbecf79f3	-0.40522727
212	0xbf91499f	-1.1350592
213	0xbf783d6d	-0.9696873
214	0xbf97c2d3	-1.1856331
215	0xbf2c345e	-0.67267406
216	0x3f65e6e5	0.8980544
217	0x3ebce0d1	0.3689027
218	0xbd5d7504	-0.054066673
219	0xbf05de28	-0.5229211
220	0xbf552e2a	-0.83273566
221	0x3d90f061	0.07077099
222	0xbfbfcd8b	-1.4984602
223	0xbeb3e0aa	-0.35132343
224	0xbf25b789	-0.6473318
225	0x3e72cb12	0.23710278
226	0x3eda908a	0.426884
227	0x3e2cac53	0.16862611
228	0xbe8117d8	-0.25213504
229	0xbf2d4cd1	-0.6769534
230	0x3dab1ba1	0.08354879
231	0xbd890369	-0.066901036
232	0xbe5fe45a	-0.21864453
233	0x3ecb924e	0.3976006
234	0xbf371511	-0.7151652
235	0xbecf5021	-0.4049082
236	0x3f0ae17a	0.542503
237	0xbec43a44	-0.38325703
238	0x3eaaf868	0.33392644
239	0xbe03244e	-0.12806818
240	0x3ee24893	0.44195995
241	0xbed62504	-0.41825116
242	0xbe32c79e	-0.1745896
243	0x3f28251e	0.65681636
244	0xbfc023b4	-1.5010896
245	0xbd9673d8	-0.07346314
246	0xbf1efd30	-0.62105083
247	0xbf1f2463	-0.62164897
248	0xbd0eafa6	-0.03483548
249	0x3fc2a1fb	1.5205683
250	0xbeb79c7e	-0.35861582
251	0x3eea5835	0.45770422
252	0xbf01c959	-0.5069786
253	0xbedccb15	-0.4312369
254	0x3f19fe19	0.6015335
255	0x3f168f93	0.58812827

r_cell.w_vs.bias f4 [24]
0	0x3f655d99	0.89595944
1	0xbf988b00	-1.191742
2	0xbf78a10a	-0.97120726
3	0xbd6ae445	-0.0573466
4	0x3f369d89	0.7133413
5	0xbe7c7f95	-0.24658044
6	0x3ebc87b7	0.36822292
7	0x3f1a83fe	0.60357654
8	0x3eae5054	0.3404566
9	0xbd96784f	-0.07347166
10	0xbee0f17d	-0.4393424
11	0xbf286b0c	-0.6578834
12	0x3d1e47d0	0.038642704
13	0x3f03cfbd	0.5148886
14	0x3f297d5d	0.66206914
15	0xbe8102dc	-0.25197494
16	0xbf01df41	-0.50731283
17	0x3efdd1c7	0.4957411
18	0xbdd7551c	-0.1051428
19	0xbee63a9a	-0.44966584
20	0xbeeb29cf	-0.45930335
21	0xbed89944	-0.42304432
22	0xbe59c17c	-0.21265215
23	0x3dfe70a5	0.12423829

r_cell.layer_norm.weight f4 [24]
0	0x3d3733e8	0.044727236
1	0x3f249500	0.64289856
2	0xbe1026bc	-0.14077276
3	0x40650357	3.5783288
4	0x3f94102d	1.1567436
5	0x3fa2545c	1.2681994
6	0x401f144c	2.4856138
7	0x3cf1d8e5	0.029522369
8	0xbf17d792	-0.5931331
9	0x3d7ba127	0.061432984
10	0x3f9b64d2	1.2140143
11	0x403f7a3b	2.9918354
12	0x3f53b45b	0.82697076
13	0xbc04ec06	-0.008112913
14	0x3d142ff7	0.036178555
15	0x3e1a6724	0.15078408
16	0x3d7b669b	0.06137715
17	0x3da9dc77	0.082940035
18	0x3eb712b4	0.35756457
19	0x40190f81	2.3915713
20	0x402cf46a	2.7024179
21	0x3ec22265	0.37916866
22	0x3e7418f7	0.23837648
23	0x401c2cab	2.4402263

r_cell.layer_norm.bias f4 [24]
0	0xbf798e46	-0.9748272
1	0x3ed32583	0.41239557
2	0x3f2cd9fc	0.6752012
3	0xbf864072	-1.0488417
4	0xbe73f08d	-0.23822232
5	0x3fa76600	1.3078003
6	0xbf813aed	-1.0096108
7	0x3f43ea6a	0.7652956
8	0xbeb9c4da	-0.36282998
9	0x3fa21f86	1.266587
10	0x3f970a15	1.1799952
11	0xbf879526	-1.0592391
12	0xbef7f531	-0.48429254
13	0x3f9416ad	1.156942
14	0x3f920e37	1.1410588
15	0x3f07214a	0.5278517
16	0x3f91f675	1.1403338
17	0x3f642345	0.8911632
18	0xbf392b1e	-0.72331417
19	0xbf86fbb6	-1.0545566
20	0x3f9480f5	1.1601855
21	0xbe96e47a	-0.2947119
22	0x3f7f7346	0.9978527
23	0xbf8cc8ab	-1.0998739

r_cell.fc.weight f4 [24, 24]
0	0xbd5b70dd	-0.05357443
1	0xbf8cd1d2	-1.1001532
2	0xbef27217	-0.4735267
3	0x3f6764b7	0.90388054
4	0x3f11f55f	0.5701503
5	0xbea2f1d8	-0.31825137
6	0x3f07f2c8	0.5310483
7	0xbe1276c9	-0.14303125
8	0xbf24d199	-0.6438232
9	0x3f25cf6c	0.64769626
10	0x3e7e9eae	0.24865219
11	0x3ef6c2c8	0.4819548
12	0xbee3008c	-0.44336355
13	0xbe341164	-0.17584759
14	0x3ee031c5	0.4378797
15	0xbed77c32	-0.4208694
16	0x3dec38d4	0.115342766
17	0x3f4d9b9e	0.8031558
18	0xbf8a5099	-1.0805846
19	0xbf371305	-0.71513397
20	0xbd864a1d	-0.06557105
21	0xbeca46e9	-0.39507225
22	0xbf8b6af3	-1.0892013
23	0x3ec144d4	0.37747824
24	0xbe96c01a	-0.29443437
25	0xbf50be6a	-0.8154055
26	0xbe8bda75	-0.27315107
27	0xbf325d52	-0.69673645
28	0x3ee0f57d	0.43937293
29	0xbf29914c	-0.6623733
30	0x3f4d28d6	0.80140436
31	0xbedd2bdb	-0.43197522
32	0xbfdf4661	-1.7443353
33	0x3f98178d	1.1882187
34	0x3ff8f6a1	1.9450265
35	0x3ffac024	1.9589887
36	0xbe1242e5	-0.1428333
37	0x3e5f078c	0.21780223
38	0xbf029f69	-0.5102449
39	0xbfc20a5b	-1.515941
40	0xbe3bc6f7	-0.18337618
41	0x3ebb2f37	0.3655946
42	0xbd87ca9c	-0.066304415
43	0x3e9ce3b9	0.3064249
44	0x3e7761cb	0.24158399
45	0xbf1e31e3	-0.6179487
46	0xbfaac588	-1.3341532
47	0x3e0cf000	0.13763428
48	0xbe0110c8	-0.12604058
49	0xbfb33327	-1.3999985
50	0xbee2cbc5	-0.4429609
51	0x3ef1ee76	0.47252244
52	0x3f95ec39	1.1712714
53	0xbf7c4a19	-0.98550564
54	0x3f2d8dcb	0.67794484
55	0x3ed09206	0.40736407
56	0xbd8fc2fb	-0.070196114
57	0x3f161179	0.5862041
58	0x3dcf90ef	0.10135066
59	0xbddca853	-0.10774293
60	0xbec8fa5e	-0.39253515
61	0x3f2de083	0.679207
62	0x3ead1625	0.33805957
63	0xbeb9598a	-0.36201125
64	0x3d89abf4	0.067222506
65	0x3f067fe7	0.52538913
66	0xbe404f44	-0.18780237
67	0xbf545518	-0.8294234
68	0xbf2fcdd5	-0.6867345
69	0xbf531cd2	-0.8246585
70	0xbf6d1da6	-0.92623365
71	0x3eff16dd	0.4982213
72	0xbeaa67d4	-0.3328234
73	0x3f94a398	1.1612425
74	0x3e194662	0.14968255
75	0xbda0b011	-0.07846082
76	0xbfa35fd2	-1.2763617
77	0x3f8a3875	1.0798479
78	0xbf7f9d69	-0.99849564
79	0xbec5e15b	-0.38648495
80	0xbf00f9cc	-0.5038116
81	0xbf27d10c	-0.65553355
82	0x3f26f714	0.6522076
83	0x3e4bb666	0.19893798
84	0xbe649d70	-0.22325683
85	0xbee315cc	-0.44352567
86	0xbf1a52b0	-0.6028242
87	0x3d356b35	0.044291694
88	0xbeec539d	-0.46157542
89	0xbecd34de	-0.40079397
90	0x3f23c0a1	0.63965803
91	0x3ec79a52	0.38984925
92	0x3f522c1b	0.8209855
93	0x3fb6b4cb	1.4273924
94	0x3dfe9912	0.124315396
95	0xbe59cbed	-0.21269198
96	0x3eae260d	0.34013405
97	0x3e287152	0.16449478
98	0xbf0b77dc	-0.54479766
99	0x3f43c7e6	0.76476896
100	0x3d14b0f8	0.036301583
101	0xbe40fe8f	-0.18847106
102	0xbf041d7d	-0.51607496
103	0xbd2a678a	-0.04160265
104	0x3e624455	0.22096379
105	0xbeafe81c	-0.34356773
106	0xbf022293	-0.50834006
107	0xbfb872f6	-1.4410083
108	0xbf6ae91c	-0.91761947
109	0x3e8d83e4	0.27639687
110	0x3f81289a	1.0090516
111	0x3eb375b3	0.35050735
112	0x3edbfcdf	0.42966363
113	0xbebed6b1	-0.37273172
114	0x3f602421	0.8755513
115	0xbbbce807	-0.0057649645
116	0x3d7ac728	0.061225086
117	0x3f2e3c43	0.680607
118	0x3df4d5b7	0.11954825
119	0x3e78573b	0.24252026
120	0x3b474036	0.0030403263
121	0xbf944f4e	-1.1586702
122	0xbeea19f5	-0.4572293
123	0xbe988f9e	-0.2979707
124	0x3f7bd6e5	0.9837478
125	0xbfacd189	-1.3501445
126	0x3f4106fa	0.7540127
127	0x3e51b87d	0.20480533
128	0x3d5fe142	0.054658182
129	0x3f3b40ee	0.7314595
130	0xbf00194f	-0.5003862
131	0xbe9e81e4	-0.30958474
132	0xbe689b07	-0.22715388
133	0x3f01c6eb	0.5069415
134	0x3f374c7f	0.716011
135	0xbe7ae500	-0.24501419
136	0x3ec5101f	0.38488862
137	0x3e222aa7	0.15836583
138	0x3da89d81	0.082331665
139	0xbeea75ca	-0.4579299
140	0xbe54bde0	-0.20775557
141	0xbf89e1f2	-1.0772078
142	0xbed34148	-0.41260743
143	0x3eadf1e0	0.33973598
144	0xbdf80c47	-0.12111717
145	0x3fa7168c	1.3053756
146	0x3eed2813	0.46319637
147	0x3dad6528	0.0846656
148	0xbfa956f8	-1.3229666
149	0x3f5ef3b6	0.87090623
150	0xbf86085e	-1.0471303
151	0xbeaf2a50	-0.3421197
152	0x3cb8b5e0	0.022547662
153	0xbf161ae9	-0.5863481
154	0x3f066054	0.52490735
155	0xbe19fe59	-0.15038432
156	0xbf0208b9	-0.5079456
157	0xbe8c6746	-0.2742254
158	0xbef6eafc	-0.48226154
159	0x3e02225f	0.12708424
160	0xbe98df20	-0.2985773
161	0xbf04205e	-0.5161189
162	0x3ebf5393	0.3736845
163	0x3f204d58	0.6261802
164	0x3f335f52	0.7006732
165	0x3f858aee	1.0433023
166	0x3f057d33	0.52144164
167	0xbf22d2d1	-0.6360293
168	0x3cfd06bb	0.030886998
169	0xbf1cbdcd	-0.61227113
170	0x3de08a33	0.109638594
171	0x3fe5de8c	1.7958541
172	0x3f16b842	0.58874905
173	0x3eaa05cb	0.33207545
174	0xbf11b91d	-0.56923085
175	0x3e95d730	0.29265738
176	0x3f926351	1.1436559
177	0xbf827a22	-1.0193522
178	0xc03f142c	-2.9856062
179	0xc0902db7	-4.5055804
180	0xbf53dda5	-0.8276008
181	0x3ea06740	0.31328773
182	0x3f7d54c8	0.9895749
183	0x3fb87f44	1.4413838
184	0x3f5954c3	0.8489496
185	0xbe9d7cb8	-0.30759215
186	0x3ebcc836	0.368715
187	0xbf51934d	-0.8186539
188	0xbe7c2783	-0.24624448
189	0xbd7a7393	-0.061145376
190	0x3f162f80	0.5866623
191	0x3f897ca1	1.0741159
192	0x3e9c70eb	0.305549
193	0xbebd90b3	-0.3702446
194	0xbe344280	-0.17603493
195	0xbd814fba	-0.06314035
196	0xbd23559a	-0.039876558
197	0x3df14fc3	0.117827915
198	0x3f8fbe68	1.1229982
199	0x3e976dc3	0.2957593
200	0x3e90eeea	0.28307277
201	0x3f372010	0.715333
202	0x3f965ccc	1.1747069
203	0x3fe022c8	1.7510614
204	0x3f9fed53	1.2494301
205	0x3e6a3bec	0.22874421
206	0xbf3040c1	-0.68848807
207	0xbe424b1f	-0.18973969
208	0xbf93c92e	-1.154577
209	0x3f9b83e6	1.2149627
210	0xbfe59779	-1.7936851
211	0xbf5019c1	-0.812893
212	0xbf8b6887	-1.0891274
213	0xbe937469	-0.2879975
214	0xbc8704c4	-0.016481765
215	0x3d1e2c90	0.038616717
216	0xbe232f55	-0.15936024
217	0xbef4aa70	-0.47786283
218	0xbe8cd059	-0.27502707
219	0x3fb1de8b	1.389604
220	0x3cf9785b	0.030452898
221	0x3e990adc	0.29891098
222	0x3d002768	0.03128758
223	0x3f1beb37	0.60905784
224	0x3fd7aa05	1.6848761
225	0xbf3b1312	-0.73075974
226	0xbff60028	-1.9218798
227	0xc05f1fc4	-3.4863138
228	0x3ed54a02	0.41658026
229	0x3ea391c5	0.3194715
230	0x3dac9f71	0.084288485
231	0x3fcdf861	1.6091424
232	0xbe9594ee	-0.29215187
233	0x3ed3d817	0.413758
234	0xbf948964	-1.1604428
235	0xbfbe2e90	-1.485796
236	0xbf6fa6b2	-0.9361373
237	0xba975ff0	-0.0011548977
238	0x3efcf291	0.49403813
239	0x3f2ece3c	0.6828344
240	0x3e152f42	0.14568809
241	0xbfadf07b	-1.3589014
242	0xbf062a8c	-0.5240867
243	0xbde06aa4	-0.1095784
244	0x3f8fda7f	1.1238555
245	0xbf8b4440	-1.0880203
246	0x3f58a4f5	0.84626704
247	0x3e267195	0.16254266
248	0xbafe8ed5	-0.0019421229
249	0x3ee50822	0.44732767
250	0xbed02be9	-0.406585
251	0x3e028f54	0.12749988
252	0xbd4d769e	-0.05016195
253	0x3e98d0ea	0.2984689
254	0x3f2b5ac3	0.66935366
255	0xbe441932	-0.19150236

r_cell.fc.bias f4 [24]
0	0xbe8ef9c3	-0.27924928
1	0xbf35184d	-0.70740205
2	0x3e7c0021	0.24609424
3	0xbefe6d40	-0.49692726
4	0xbf0b2981	-0.54360205
5	0x3eed308d	0.46326104
6	0xbefe0d07	-0.49619314
7	0x3e81d42e	0.25357193
8	0x3d8ffb7b	0.07030388
9	0x3f494964	0.7862761
10	0x3e84d883	0.25946435
11	0xbf2076ab	-0.6268107
12	0xbe9db93e	-0.3080539
13	0x3e922473	0.28543434
14	0xbe72d9d7	-0.23715912
15	0xbdd74db8	-0.105128706
16	0x3e30a10d	0.17248936
17	0x3e4db869	0.20089878
18	0x3e48bfc8	0.19604409
19	0xbef6780e	-0.4813847
20	0x3e619db7	0.2203282
21	0xbf9d6d43	-1.2298969
22	0xbde5840b	-0.11206826
23	0xbf325613	-0.6966259

fc1.0.bias f4 [24]
0	0x3d4a7495	0.049427588
1	0x3d41798d	0.04723506
2	0xbe568537	-0.20949255
3	0xbd6ed47a	-0.058308102
4	0xbea93ea3	-0.330556
5	0x3deb1ac6	0.11479716
6	0xbcfff334	-0.031243898
7	0xbe8b0dd9	-0.27159002
8	0xbc7b138f	-0.015324487
9	0x3e33c896	0.17556986
10	0x3c610a53	0.013735372
11	0xbd78aafb	-0.060709935
12	0xb9851daf	-0.00025389853
13	0x3d9ffb6a	0.07811625
14	0xbe6f2e10	-0.23357415
15	0xbbff5c52	-0.007792988
16	0xbe50c4c4	-0.2038756
17	0xbd8b4b18	-0.06801432
18	0xbd4bd9a1	-0.049768094
19	0xbd69f6fb	-0.057120305
20	0xbd5896b9	-0.052878115
21	0xbeaa2a1d	-0.33235255
22	0xbe8e3e5a	-0.27781945
23	0xbd84af5a	-0.06478758

fc1.0.weight_orig f4 [24, 6]
0	0x3f5a515f	0.8528041
1	0xbe8807f9	-0.26568583
2	0x3fa5aa2e	1.294256
3	0xbea6b1fa	-0.3255766
4	0x3f56b836	0.83874834
5	0xbf645d64	-0.89205
6	0x3ecdaa55	0.40169016
7	0x3ddae8d7	0.10688942
8	0x3f8f2d98	1.1185789
9	0xbb944a10	-0.0045254305
10	0x3ea12e66	0.31480712
11	0xbf367901	-0.7127839
12	0x3f0152f2	0.5051719
13	0xbc4edebc	-0.012626346
14	0x3e71286a	0.23550573
15	0xbc750073	-0.01495372
16	0x3effd05a	0.49963647
17	0xbfba3ffe	-1.4550779
18	0x3f10b1b5	0.5652116
19	0xbeac7ab0	-0.33687353
20	0x3f53ce80	0.8273697
21	0xbe566271	-0.2093599
22	0x3ed59688	0.4171641
23	0x3f0a7de3	0.5409834
24	0xbd9b0d51	-0.07570899
25	0xbe3c2dbe	-0.18376824
26	0xbec1a8ef	-0.378242
27	0xbc8306b8	-0.015994415
28	0xbd6fd3e7	-0.058551695
29	0xbf0987bc	-0.5372274
30	0x3b9fe19f	0.004879191
31	0x3f1287cb	0.57238454
32	0x3e6d9f92	0.23205402
33	0x3f012c79	0.50458485
34	0x3e01a953	0.12662248
35	0x3f79ee35	0.976291
36	0xbeb186b0	-0.3467307
37	0x3f33312f	0.69996923
38	0x3e50726a	0.20356146
39	0x3ecafaec	0.39644563
40	0xbe4c5c4f	-0.19957088
41	0x3f1908fe	0.59779346
42	0x3db038a5	0.08604554
43	0x3df66e9a	0.12032814
44	0xbdc0af2a	-0.0940841
45	0x3e2829c7	0.16422187
46	0x3dd10966	0.10206871
47	0xbf846c36	-1.0345523
48	0xbcda43ea	-0.026643712
49	0x3d93f9f3	0.072254084
50	0x3c18c003	0.009323123
51	0x3d2ba0c4	0.041901365
52	0xbd4024cc	-0.046910092
53	0x3fafe683	1.3742222
54	0x3e00370d	0.12521
55	0x3eb65b83	0.35616693
56	0x3f3ee2b8	0.74564695
57	0x3e511894	0.20419532
58	0x3e2cb189	0.168646
59	0x3fa14ec4	1.2602162
60	0x3f40aed8	0.7526679
61	0xbcf956b1	-0.030436845
62	0x3f3f44ff	0.74714655
63	0xbcb5d810	-0.022197753
64	0x3f34defa	0.70652735
65	0xbf25bdd1	-0.6474276
66	0x3f287489	0.6580282
67	0xbe81f277	-0.25380298
68	0x3f80ae65	1.0053221
69	0xbea2b485	-0.3177835
70	0x3f1b2e17	0.606172
71	0xbf839e86	-1.0282753
72	0x3f6f0430	0.93365765
73	0xbe0431ab	-0.12909572
74	0x3cd52d5e	0.02602261
75	0xbe741da3	-0.2383943
76	0x3f529580	0.8225937
77	0xbe623e3d	-0.22094055
78	0x3f0a6427	0.5405907
79	0xbb718cdb	-0.0036857638
80	0x3ed456bc	0.41472423
81	0xbae172b3	-0.0017200321
82	0x3f1b74c5	0.6072505
83	0x3f94a75b	1.1613573
84	0xbd8b6451	-0.06806243
85	0xbef793c1	-0.48354915
86	0x3eb0d8a8	0.34540296
87	0xbeceb114	-0.40369475
88	0xbe1e240b	-0.15443437
89	0x3ec8dd6b	0.39231429
90	0xba4b2899	-0.0007749885
91	0xbcb5865e	-0.022158798
92	0xbbfa70e8	-0.007642854
93	0xbcbd267f	-0.023089645
94	0x3ad6296b	0.0016339248
95	0x3f37de22	0.7182332
96	0xbcdad30c	-0.026711963
97	0x3dcf40f1	0.101198085
98	0x3f16cd5f	0.5890712
99	0x3d9dae12	0.07699217
100	0x3da9f7ff	0.082992546
101	0xbf8b7dfe	-1.0897825
102	0x3d8393a7	0.06424647
103	0x3d883067	0.06649857
104	0x3f4f55c4	0.8099024
105	0x3d371918	0.044701666
106	0xbc76a3cb	-0.0150537
107	0x3f43a960	0.7643032
108	0x3f196fdb	0.599363
109	0x3d1b444f	0.03790694
110	0x3f672e86	0.90305364
111	0x3e11a970	0.14224792
112	0x3f013207	0.5046696
113	0xbfc2d0e0	-1.5219994
114	0x3f3613e6	0.7112411
115	0xbefba4f7	-0.49149296
116	0x3f179068	0.5920472
117	0xbee9cab6	-0.4566247
118	0x3ee84d42	0.45371443
119	0x3ea8b6fa	0.329521
120	0x3e1b5008	0.15167248
121	0x3d551954	0.052026108
122	0x3e9cc567	0.30619356
123	0x3dae193b	0.08500906
124	0x3def3fa4	0.1168206
125	0x3fd8f142	1.6948626
126	0xbe60f1eb	-0.21967284
127	0xbe0e009d	-0.13867421
128	0xbe80eca9	-0.25180557
129	0xbdad5cbd	-0.08464954
130	0xbe0b420e	-0.13599417
131	0xbf7d7561	-0.9900723
132	0x3e9d2d02	0.306984
133	0x3d8a619f	0.06756901
134	0x3e6bbb95	0.23020776
135	0xbbf2c152	-0.0074082995
136	0x3e7e4ca0	0.24833918
137	0xbffa4559	-1.9552413
138	0x3f313412	0.6922008
139	0xbe536429	-0.20643677
140	0x3f382c1b	0.719423
141	0xbebbeb0c	-0.36702764
142	0x3f274a09	0.65347344
143	0xbe2ad6b7	-0.1668347

fc1.0.weight_u f4 [24]
0	0xbe974df9	-0.29551676
1	0xbe50b586	-0.20381746
2	0xbe9cd123	-0.3062831
3	0x3b922c22	0.0044608274
4	0xbd94bd0d	-0.07262621
5	0x3e2c6751	0.16836287
6	0x3e099e66	0.1343933
7	0xbe3692ab	-0.17829387
8	0x3e777c52	0.24168518
9	0x3e376da4	0.17912918
10	0xbe575ca7	-0.21031438
11	0xbe92eec6	-0.28697795
12	0xbdf962ee	-0.121770725
13	0x3e0693d3	0.13142328
14	0x3d46a281	0.04849482
15	0x3dfd3025	0.123626985
16	0xbe5b8b30	-0.21439815
17	0x3dc180aa	0.09448369
18	0xbeb30e72	-0.34971958
19	0xbd115129	-0.03547779
20	0x3e89b6ba	0.26897222
21	0xbe16a3a9	-0.14710869
22	0xbebe2d1a	-0.37143785
23	0xbe03ea93	-0.12882452

fc1.0.weight_v f4 [6]
0	0xbe7781bb	-0.24170582
1	0x3da1c5da	0.07899065
2	0xbe747718	-0.23873556
3	0x3d9b7fe9	0.07592756
4	0xbe5fef48	-0.21868622
5	0x3f687d34	0.90816045

fc1.1.weight f4 [24, 24]
0	0xbf262621	-0.6490193
1	0xbef04358	-0.4692638
2	0x3f98f16b	1.1948675
3	0x3fa07aad	1.2537438
4	0x401edd86	2.4822707
5	0xc0098fa8	-2.149393
6	0x3fe62959	1.7981368
7	0x3e5d07d8	0.21585023
8	0x3ed8b220	0.423234
9	0xbfc9a2fd	-1.5752865
10	0xbf70c1ed	-0.9404591
11	0x3f9cedef	1.2260112
12	0xbe6b9965	-0.23007734
13	0xbec09e19	-0.3762062
14	0xbf04d311	-0.5188456
15	0xc0243548	-2.565752
16	0x3e9f4c51	0.31112912
17	0xbf437a66	-0.7635864
18	0xbf4298b0	-0.7601423
19	0x3f9da7e8	1.2316866
20	0x3eaa1257	0.33217117
21	0x3fc68f42	1.5512469
22	0xbf8e51d4	-1.1118722
23	0x3f8a34ff	1.0797423
24	0x3e47216a	0.1944634
25	0x3f6f92d9	0.93583447
26	0x3e6af7ad	0.22946043
27	0xbf952864	-1.1652951
28	0x3f6a148e	0.91437614
29	0x3e9b368c	0.30315053
30	0x3e7865da	0.24257603
31	0x3fe04ce7	1.7523469
32	0x3fc474ae	1.5348108
33	0xbfabc202	-1.3418581
34	0xbf52a8d4	-0.8228886
35	0xc026d9ab	-2.6070354
36	0xbf495ccf	-0.7865724
37	0x400e5e1b	2.2244937
38	0xbe83ff31	-0.25780633
39	0xbe189245	-0.14899547
40	0x3e81e0c5	0.25366798
41	0x3f183de3	0.5946943
42	0x3f0b3a0e	0.5438546
43	0x3f8f5a0e	1.1199358
44	0xbe8be49f	-0.27322862
45	0x3d1593a1	0.036517743
46	0xbf97d50f	-1.1861895
47	0x3f9b1c4b	1.2118009
48	0x3f1587ab	0.5841014
49	0x40090f37	2.1415536
50	0x4005e4f7	2.0921
51	0xbf253e24	-0.64547944
52	0x3f281a44	0.6566508
53	0x3f601cab	0.87543744
54	0xbf0968e0	-0.5367565
55	0x3f2e5eb8	0.6811328
56	0xbf55aa7f	-0.8346328
57	0xbfa17459	-1.2613631
58	0xbf794c8a	-0.97382414
59	0x3db7407d	0.08947847
60	0x3f95d65d	1.1706043
61	0x3f22fd4b	0.63667744
62	0xbe3c812c	-0.1840865
63	0xbffe0da3	-1.9847912
64	0xbf9dffb0	-1.2343655
65	0x3fe4fc71	1.7889539
66	0x3fd6adb8	1.6771765
67	0xbfb64e21	-1.4242593
68	0xbf92c67d	-1.1466824
69	0x3fc6bb13	1.552584
70	0x3f819eb6	1.012656
71	0x3f104f7e	0.56371295
72	0x3ed17081	0.40906146
73	0x3e24efe5	0.16107138
74	0x3fe3349f	1.7750434
75	0xbfa11e8c	-1.2587447
76	0x3f1aaf74	0.6042397
77	0xbf1d35c0	-0.6141014
78	0x3efada30	0.4899459
79	0x3f630d40	0.8869209
80	0xbe4e0720	-0.20119905
81	0xbf8d5472	-1.1041396
82	0xbf91a383	-1.1378025
83	0xbeea14c8	-0.4571898
84	0xbe03929c	-0.12848896
85	0x3f48ac3a	0.78387797
86	0x3fb01880	1.3757477
87	0xbee5f770	-0.44915342
88	0xc002da27	-2.044565
89	0x3efa2c03	0.48861703
90	0x3f734e63	0.95041484
91	0xbfc56b66	-1.54234
92	0xbeb11c75	-0.34592023
93	0x3fb7d771	1.4362622
94	0x3f177da0	0.59176064
95	0xbff3c277	-1.9043721
96	0x3fbe92d2	1.4888556
97	0x40001237	2.0011117
98	0x3fbdd13d	1.482948
99	0xbe92ea02	-0.2869416
100	0x3fdcfa86	1.7263954
101	0x3fdd8ca3	1.7308544
102	0xbf4279b9	-0.75966984
103	0x3e45e9e0	0.19327497
104	0xbf2d9c76	-0.67816865
105	0xbdfb807d	-0.122803666
106	0x3f34c707	0.7061619
107	0x3f5de494	0.8667691
108	0xbeddec5c	-0.4334439
109	0x3f9bd283	1.2173618
110	0x3dea2902	0.11433603
111	0xc01eee39	-2.48329
112	0xbfc3c7af	-1.5295314
113	0xbc7dfd3c	-0.01550227
114	0xbe90afdb	-0.28259167
115	0xc04d14aa	-3.2043862
116	0xc008d7a2	-2.1381612
117	0x3eea06d9	0.4570835
118	0x3f447f17	0.76756424
119	0x3ff23413	1.8922142
120	0x3f38f9c0	0.7225609
121	0x3f8f43bd	1.1192547
122	0x3f8c8d6a	1.0980656
123	0x3e3df066	0.18548736
124	0x3fae0b4a	1.3597195
125	0xbff97cf5	-1.9491259
126	0x3e96ab9f	0.29427812
127	0x3f9bc4a6	1.2169387
128	0xbf392287	-0.7231831
129	0xbf05f12b	-0.5232112
130	0xbf5078c2	-0.8143426
131	0x3f2e7581	0.68148047
132	0x3e3e317c	0.18573564
133	0xbf51aab2	-0.81901085
134	0x3e7efc3e	0.2490091
135	0x3fdcf1ed	1.726133
136	0x3fa7489e	1.3069036
137	0xbeac8e82	-0.33702475
138	0xbf926b21	-1.1438943
139	0x3f8d899d	1.1057621
140	0xbe948613	-0.2900854
141	0xbfadd6a9	-1.3581134
142	0xbf41d8f9	-0.757217
143	0x3f839c27	1.0282029
144	0x3f84c5bb	1.0372843
145	0x3ee88e2d	0.45420972
146	0x3ee6197b	0.44941315
147	0xbfa519c1	-1.2898484
148	0x3f3138d8	0.6922736
149	0x3effb4bb	0.49942574
150	0xbe103db0	-0.14086032
151	0x3e94e170	0.29078245
152	0xbf32612c	-0.6967952
153	0xbf17e111	-0.593278
154	0xbe58df42	-0.21178916
155	0x40340a6a	2.8131356
156	0xbf438101	-0.7636872
157	0x3f872413	1.0557884
158	0x3fe62c73	1.7982315
159	0xc094224a	-4.6291857
160	0xbf965658	-1.17451
161	0x4027013b	2.60945
162	0x3f2f65e0	0.68514824
163	0xbe31c6e3	-0.17361026
164	0xbf89573c	-1.0729747
165	0x4001af8c	2.0263395
166	0x3daeec6d	0.085411884
167	0x3f3bf1ff	0.7341613
168	0xbf537ff2	-0.82617104
169	0x3f07595b	0.5287072
170	0xbf2fa924	-0.68617463
171	0x3df0acb8	0.117516935
172	0x3f1d5664	0.61459947
173	0x3ffff619	1.9996978
174	0xbee64f59	-0.44982412
175	0x3f3a87ff	0.72863764
176	0xbd897183	-0.06711104
177	0xbf11cad1	-0.569501
178	0xbe3bdf60	-0.1834693
179	0x3e277b6d	0.16355677
180	0xbff9299e	-1.9465826
181	0xbe74bf5d	-0.23901124
182	0x3f09e81d	0.538698
183	0x3d52334b	0.051318448
184	0xbf2c2d63	-0.67256755
185	0xbf33c974	-0.7022927
186	0x3e9a753b	0.30167565
187	0x3f03f6c8	0.51548433
188	0xbfec9bf3	-1.8485092
189	0xbeb715e1	-0.3575888
190	0xbe83dc97	-0.25754234
191	0x3fb55d74	1.4169145
192	0xbd497d26	-0.049191616
193	0xbe82dfa3	-0.25561246
194	0x3e78368a	0.24239555
195	0xbe5d4a89	-0.21610464
196	0x3f2f6229	0.68509156
197	0x3f6031c0	0.8757591
198	0xbf3b55dc	-0.73177886
199	0xbf1146d4	-0.567487
200	0xbf8b2144	-1.0869527
201	0xbfdb0697	-1.7111386
202	0x3f7216c0	0.94565964
203	0x3e49fe2f	0.1972587
204	0xbd8e03c3	-0.06934311
205	0x3ffe83d1	1.9883977
206	0xbdd71aba	-0.105031446
207	0xbf80ffe6	-1.0078094
208	0xbfc43d4d	-1.5331208
209	0x3fdafc0a	1.7108166
210	0xbe1866b2	-0.14882925
211	0xbf558c48	-0.8341718
212	0xbeca268e	-0.3948254
213	0x3da119a1	0.078662165
214	0xbf3b1a8c	-0.7308738
215	0xbfa91b57	-1.3211468
216	0x3f89a210	1.0752583
217	0x3c0e9a18	0.008703731
218	0x3f9279b6	1.1443393
219	0xbf597dea	-0.84957755
220	0x4013b994	2.3082018
221	0x3f62d98a	0.8861319
222	0xbf5a1947	-0.8519482
223	0xbebfb8ed	-0.37445775
224	0xc00beae0	-2.1862106
225	0xbda043d3	-0.078254364
226	0x3f2d4bf9	0.6769405
227	0xbf9abded	-1.2089211
228	0x3e10ebb7	0.14152418
229	0xbfd5cc12	-1.6702902
230	0x3f2d5e66	0.67722166
231	0xbfb66426	-1.4249313
232	0xbfca7df4	-1.5819688
233	0x3fee9b9c	1.8641238
234	0xbc367ddc	-0.011138406
235	0xbeaf2698	-0.34209132
236	0xbe00ddf5	-0.1258467
237	0x408b1397	4.3461413
238	0x3de80007	0.1132813
239	0xbefb33a3	-0.49062833
240	0xbeb0b310	-0.34511614
241	0xbedc728f	-0.4305615
242	0x3fc993a0	1.5748177
243	0xbf55cf28	-0.8351922
244	0x3f8b185f	1.0866812
245	0x3fa280fe	1.2695615
246	0x3f9aa148	1.2080469
247	0x400151db	2.020621
248	0xbf30eece	-0.6911439
249	0xbeb765b4	-0.3581978
250	0xbfb6f075	-1.4292132
251	0x3f82437c	1.0176845
252	0x3d55c2ee	0.052187853
253	0x4016af33	2.3544433
254	0xbec4caad	-0.3843588
255	0xbfba5a6a	-1.4558842
