models/17_05_2021/stock_self_attn_MSE_hinge_10000_64_24_6_24_5/8500_generator.pth (torch, 54798 bytes, 39 tensors)

position.pe f4 [1, 24, 24]
0	0x00000000	0.0
1	0x3f800000	1.0
2	0x00000000	0.0
3	0x3f800000	1.0
4	0x00000000	0.0
5	0x3f800000	1.0
6	0x00000000	0.0
7	0x3f800000	1.0
8	0x00000000	0.0
9	0x3f800000	1.0
10	0x00000000	0.0
11	0x3f800000	1.0
12	0x00000000	0.0
13	0x3f800000	1.0
14	0x00000000	0.0
15	0x3f800000	1.0
16	0x00000000	0.0
17	0x3f800000	1.0
18	0x00000000	0.0
19	0x3f800000	1.0
20	0x00000000	0.0
21	0x3f800000	1.0
22	0x00000000	0.0
23	0x3f800000	1.0
24	0x3f576aa4	0.84147096
25	0x3f0a5141	0.54030234
26	0x3ee5351d	0.44767085
27	0x3f64ea30	0.8941984
28	0x3e5ae952	0.21378067
29	0x3f7a14eb	0.9768817
30	0x3dcc7576	0.099833414
31	0x3f7eb898	0.9950042
32	0x3d3e0d1e	0.04639923
33	0x3f7fb96a	0.99892294
34	0x3cb07a47	0.021542681
35	0x3f7ff0ca	0.9997679
36	0x3c23d657	0.009999833
37	0x3f7ffcb9	0.99995
38	0x3b981857	0.0046415734
39	0x3f7fff4b	0.9999892
40	0x3b0d3164	0.0021544332
41	0x3f7fffd9	0.9999977
42	0x3a83126d	0.0009999998
43	0x3f7ffff8	0.9999995
44	0x39f35a5c	0.00046415895
45	0x3f7ffffe	0.9999999
46	0x3961e8ab	0.00021544348
47	0x3f800000	1.0
48	0x3f68c7b7	0.9092974
49	0xbed51133	-0.41614684
50	0x3f4cf4fb	0.8006131
51	0x3f1963f8	0.59918165
52	0x3ed5d9be	0.41767687
53	0x3f6899b9	0.9085956
54	0x3e4b6ff8	0.19866931
55	0x3f7ae5a5	0.9800666
56	0x3dbdd8b7	0.09269851
57	0x3f7ee5d1	0.9956942
58	0x3d306fcb	0.043075364
59	0x3f7fc32c	0.99907184
60	0x3ca3d43e	0.019998666
61	0x3f7ff2e5	0.9998
62	0x3c1817ec	0.009283047
63	0x3f7ffd2d	0.9999569
64	0x3b8d314e	0.004308856
65	0x3f7fff64	0.9999907
66	0x3b031268	0.0019999985
67	0x3f7fffdf	0.99999803
68	0x3a735a5b	0.00092831784
69	0x3f7ffff9	0.9999996
70	0x39e1e8ab	0.00043088695
71	0x3f7fffff	0.99999994
72	0x3e1081c3	0.14112
73	0xbf7d7026	-0.9899925
74	0x3f7bf0ce	0.98414314
75	0x3e35a216	0.17737612
76	0x3f1a2dc8	0.60226107
77	0x3f4c5d56	0.7982992
78	0x3e974e6c	0.2955202
79	0x3f7490ef	0.9553365
80	0x3e0e2117	0.1387981
81	0x3f7d85a8	0.9903207
82	0x3d8446bd	0.06458805
83	0x3f7f7729	0.997912
84	0x3cf5b91f	0.0299955
85	0x3f7fe283	0.99955004
86	0x3c6422d5	0.01392432
87	0x3f7ff9a6	0.9999031
88	0x3bd3c9bf	0.006463259
89	0x3f7ffea2	0.99997914
90	0x3b449b92	0.0029999954
91	0x3f7fffb5	0.9999955
92	0x3ab683c2	0.0013924765
93	0x3f7ffff0	0.99999905
94	0x3a296e7f	0.00064633036
95	0x3f7ffffd	0.9999998
96	0xbf41bdcf	-0.7568025
97	0xbf275530	-0.6536436
98	0x3f759ce7	0.9594254
99	0xbe905d6c	-0.28196275
100	0x3f424dbe	0.75899875
101	0x3f26adf9	0.6510921
102	0x3ec761d7	0.38941833
103	0x3f6bcaa7	0.921061
104	0x3e3d0773	0.18459873
105	0x3f7b99b2	0.98281395
106	0x3db045df	0.08607077
107	0x3f7f0ccc	0.996289
108	0x3d23cbdb	0.039989334
109	0x3f7fcb94	0.9992001
110	0x3c98163e	0.018565293
111	0x3f7ff4b4	0.9998276
112	0x3c0d30f8	0.008617632
113	0x3f7ffd91	0.99996287
114	0x3b831257	0.003999989
115	0x3f7fff7a	0.999992
116	0x3af35a54	0.0018566349
117	0x3f7fffe3	0.9999983
118	0x3a61e8a9	0.0008617738
119	0x3f7ffffa	0.99999964
120	0xbf757c10	-0.9589243
121	0x3e913c2c	0.2836622
122	0x3f3b500a	0.73169005
123	0xbf2e7fcb	-0.68163747
124	0x3f6171cf	0.88064283
125	0x3ef29363	0.47378072
126	0x3ef57743	0.47942552
127	0x3f60a940	0.87758255
128	0x3e6b8593	0.23000173
129	0x3f7922ff	0.97319025
130	0x3ddc300e	0.10751353
131	0x3f7e8421	0.9942036
132	0x3d4cb6f4	0.049979165
133	0x3f7fae19	0.99875027
134	0x3cbe1a3c	0.023205869
135	0x3f7fee5a	0.9997307
136	0x3c307ce6	0.010771966
137	0x3f7ffc33	0.999942
138	0x3ba3d6dd	0.004999979
139	0x3f7fff2e	0.9999875
140	0x3b181871	0.0023207928
141	0x3f7fffd3	0.9999973
142	0x3a8d3169	0.0010772172
143	0x3f7ffff6	0.9999994
144	0xbe8f0f8c	-0.2794155
145	0x3f75cdb8	0.96017027
146	0x3eb2c0c6	0.349127
147	0xbf6fe42d	-0.93707544
148	0x3f762963	0.961569
149	0x3e8c938f	0.27456328
150	0x3f108c68	0.5646424
151	0x3f534932	0.8253356
152	0x3e8cc0e9	0.2749093
153	0x3f7622e9	0.9614702
154	0x3e040009	0.12890638
155	0x3f7ddd38	0.9916568
156	0x3d759cd1	0.059964005
157	0x3f7f8a12	0.99820054
158	0x3ce41d2b	0.02784594
159	0x3f7fe696	0.9996122
160	0x3c53c89d	0.012926248
161	0x3f7ffa86	0.99991643
162	0x3bc49b58	0.0059999637
163	0x3f7ffed2	0.999982
164	0x3b3683b7	0.0027849504
165	0x3f7fffbf	0.9999961
166	0x3aa96e7d	0.0012926605
167	0x3f7ffff2	0.99999917
168	0x3f283046	0.6569866
169	0x3f40ffbd	0.75390226
170	0xbddbc69f	-0.10731243
171	0xbf7e858d	-0.9942253
172	0x3f7f7f41	0.9980355
173	0x3d804f23	0.06265094
174	0x3f24eb72	0.6442176
175	0x3f43ccb3	0.7648422
176	0x3ea3716a	0.31922466
177	0x3f729b18	0.94767904
178	0x3e19d85d	0.15023942
179	0x3f7d1825	0.98864967
180	0x3d8f3e32	0.06994285
181	0x3f7f5f81	0.997551
182	0x3d050f6e	0.032485418
183	0x3f7fdd69	0.9994722
184	0x3c771415	0.0150804715
185	0x3f7ff88c	0.9998863
186	0x3be55fc5	0.006999942
187	0x3f7ffe65	0.9999755
188	0x3b54eef8	0.003249107
189	0x3f7fffa8	0.99999475
190	0x3ac5ab91	0.0015081038
191	0x3f7fffed	0.99999887
192	0x3f7d4695	0.98935825
193	0xbe14fdf6	-0.14550003
194	0xbf0a81e3	-0.5410444
195	0xbf574b62	-0.840994
196	0x3f7d04e9	0.9883562
197	0xbe1bcf59	-0.15215816
198	0x3f37a4a5	0.717356
199	0x3f325b5f	0.6967067
200	0x3eb9c7cb	0.36285242
201	0x3f6e8d80	0.9318466
202	0x3e2f9e69	0.17150272
203	0x3f7c34ff	0.98518366
204	0x3da3aa50	0.07991469
205	0x3f7f2e65	0.9968017
206	0x3d180f89	0.03712419
207	0x3f7fd2d3	0.9993107
208	0x3c8d2fa1	0.017234625
209	0x3f7ff644	0.99985147
210	0x3c031212	0.007999914
211	0x3f7ffde7	0.999968
212	0x3b735a38	0.0037132632
213	0x3f7fff8c	0.9999931
214	0x3ae1e8a4	0.001723547
215	0x3f7fffe7	0.9999985
216	0x3ed30132	0.4121185
217	0xbf693fd5	-0.91113025
218	0xbf5c3bf1	-0.86028963
219	0xbf02829f	-0.5098056
220	0x3f6ed7af	0.9329786
221	0xbeb84901	-0.35993198
222	0x3f48881c	0.78332686
223	0x3f1f21d5	0.62161
224	0x3ecfb7ba	0.4056986
225	0x3f69fc5c	0.91400695
226	0x3e454f97	0.19268642
227	0x3f7b33e1	0.98126036
228	0x3db8123e	0.089878544
229	0x3f7ef6c2	0.9959527
230	0x3d2b0ecd	0.041762162
231	0x3f7fc6d3	0.99912757
232	0x3c9ed50c	0.019388698
233	0x3f7ff3ae	0.999812
234	0x3c13743a	0.008999879
235	0x3f7ffd59	0.9999595
236	0x3b88e2ba	0.0041774185
237	0x3f7fff6e	0.9999913
238	0x3afe25b6	0.0019389901
239	0x3f7fffe1	0.99999815
240	0xbf0b44f8	-0.5440211
241	0xbf56cd64	-0.8390715
242	0xbf7f5bd1	-0.99749476
243	0xbd90e07e	-0.070740685
244	0x3f559f61	0.8344632
245	0xbf0d1282	-0.55106366
246	0x3f576aa4	0.84147096
247	0x3f0a5141	0.54030234
248	0x3ee5351e	0.44767088
249	0x3f64ea30	0.8941984
250	0x3e5ae953	0.21378069
251	0x3f7a14eb	0.9768817
252	0x3dcc7576	0.099833414
253	0x3f7eb898	0.9950042
254	0x3d3e0d21	0.04639924
255	0x3f7fb96a	0.99892294

r_cell.w_qs.weight f4 [24, 24]
0	0xbe8480c1	-0.2587948
1	0x3e390a88	0.18070424
2	0x3df300bb	0.11865374
3	0x3ec75904	0.389351
4	0xbd310954	-0.043221787
5	0xbe133eae	-0.14379379
6	0xbe148a81	-0.1450596
7	0x3eef7f78	0.46776938
8	0x3eeb745b	0.4598721
9	0x3dbea9ba	0.093097165
10	0x3e13ddec	0.14440125
11	0xbe5fd3c8	-0.21858132
12	0x3efb2b0e	0.49056286
13	0xbe3275c2	-0.17427734
14	0xbdd4763c	-0.10374114
15	0xbe820f00	-0.2540207
16	0x3e3216cb	0.17391507
17	0xbe06b4f0	-0.1315496
18	0xbe10338a	-0.1408216
19	0x3ebfe3cd	0.37478486
20	0xbde34e20	-0.110988855
21	0x3dc9132c	0.0981811
22	0x3e91c148	0.28467774
23	0xbec5c272	-0.38624913
24	0x3d3e3ff3	0.046447705
25	0xbd9216fa	-0.07133289
26	0x3dc84f5c	0.097807616
27	0x3d836c25	0.06417111
28	0xbe26ab2b	-0.16276233
29	0xbdb0afbc	-0.08627269
30	0x3f030bea	0.51190054
31	0xbe761a0b	-0.24033372
32	0x3e7733bc	0.24140829
33	0x3dd75474	0.10514155
34	0xbd4ae6ce	-0.04953652
35	0x3d9b9366	0.075964734
36	0x3ce3bb27	0.027799202
37	0x3e906bce	0.28207248
38	0xbf0a93a0	-0.5413151
39	0xbe32512b	-0.17413776
40	0x3e82ace9	0.25522545
41	0x3e62d54b	0.22151677
42	0x3a9dd77b	0.0012042368
43	0x3e71538e	0.2356703
44	0x3e3d429a	0.18482438
45	0x3df40921	0.11915804
46	0x3eb4816c	0.3525499
47	0x3c9d01fa	0.019165982
48	0xbd26a97c	-0.040688977
49	0xbe51bae7	-0.20481454
50	0xbd9ac250	-0.075565934
51	0x3e6ada7b	0.22934906
52	0xbe7cf1eb	-0.2470166
53	0x3e8a014f	0.26954123
54	0x3c296917	0.010339997
55	0x3e8fdf90	0.28100252
56	0xbe9b867a	-0.30376035
57	0xbea5e8b2	-0.32404095
58	0x3e012be4	0.12614399
59	0x3f12f875	0.57410365
60	0x3ea973ad	0.33096066
61	0x3c888b38	0.016667947
62	0x3e219b27	0.15781842
63	0x3d98d467	0.074623875
64	0xbd4226c8	-0.047400266
65	0xbe4e0694	-0.20119697
66	0xbefc69ee	-0.49299568
67	0xbee4ed56	-0.44712323
68	0xbc8f3f4f	-0.017486243
69	0xbdaa41c7	-0.08313327
70	0xbd0602d8	-0.032717556
71	0xbe0acad4	-0.13553935
72	0x3dd05236	0.101719305
73	0x3b8d098b	0.004304116
74	0xbc6ca9d6	-0.014444789
75	0x3edd95e9	0.43278435
76	0xbe3775e0	-0.1791606
77	0x3d6d38d1	0.057915512
78	0xbeafe419	-0.34353712
79	0x3dc1c94b	0.09462222
80	0x3ee4b7b0	0.44671392
81	0xbeae71ea	-0.34071285
82	0xbd85b56b	-0.06528743
83	0x3c7ebecb	0.015548418
84	0x3e4d6c92	0.20060948
85	0xbec658b2	-0.38739544
86	0xbe4684b3	-0.19386558
87	0x3eb6b405	0.3568422
88	0xbe3543b0	-0.17701602
89	0xbb8b59ca	-0.004252647
90	0xbe19283f	-0.14956759
91	0x3ec2e814	0.38067687
92	0x3e78bb53	0.24290209
93	0x3e43469b	0.19069903
94	0xbe2f0612	-0.1709216
95	0xbe8f0005	-0.27929702
96	0x3e5b6e05	0.21428688
97	0x3ea31a55	0.31856027
98	0x3e70010f	0.23437904
99	0xbd9cf6d0	-0.07664263
100	0x3eff7b34	0.49898684
101	0xbc19aa92	-0.009379046
102	0x3cabd359	0.020974802
103	0xbe878c36	-0.2647416
104	0x3e147f00	0.14501572
105	0x3f049668	0.51792
106	0xbe00638a	-0.12537971
107	0xbe55c41e	-0.20875594
108	0xbf229a10	-0.6351633
109	0xbf2b546d	-0.669257
110	0x3cc2ebe1	0.023794116
111	0xbda53eac	-0.08068594
112	0xbe810958	-0.2520244
113	0x3dbde515	0.092722096
114	0x3b358f48	0.002770381
115	0xbe8b0e19	-0.27159193
116	0xbc192beb	-0.00934885
117	0x3e60792f	0.21921228
118	0x3d29e220	0.041475415
119	0xbacb65a3	-0.0015517961
120	0x3e60c523	0.21950202
121	0x3bf0b98f	0.007346339
122	0xbd1ed651	-0.038778607
123	0xbdd4bbaf	-0.1038736
124	0xbe9321e7	-0.28736803
125	0x3dc53bfe	0.09630583
126	0x3e25c956	0.16190085
127	0x3a2cc0f0	0.0006590029
128	0x3e37fbc7	0.17967139
129	0x3ed72f26	0.4202816
130	0xbf21f6af	-0.63267034
131	0xbed48e0a	-0.41514617
132	0x3f0771f7	0.5290827
133	0x3d567af9	0.05236337
134	0xbe2fd8ce	-0.17172548
135	0x3d48dd81	0.049039368
136	0xbd271bef	-0.040798124
137	0xbce73113	-0.028221643
138	0x3e895a4e	0.2682671
139	0x3e114bfb	0.1418914
140	0xbecb7285	-0.3973581
141	0x3ea2b819	0.3178108
142	0x3df4bd0d	0.11950121
143	0xbe04270b	-0.12905519
144	0xbeeeacc5	-0.46616188
145	0xbea404bb	-0.3203486
146	0xbf02c032	-0.51074517
147	0x3de3ce4c	0.111233324
148	0xbecefa1c	-0.40425193
149	0xbe124a8f	-0.14286254
150	0xbdc640a1	-0.09680296
151	0xbd81bc0d	-0.06334696
152	0x3de7c8f4	0.11317626
153	0x3e35ba44	0.17746836
154	0x3edf9b67	0.4367325
155	0x3e8d8d6d	0.27646962
156	0xbe5559ac	-0.20834988
157	0xbe5e577d	-0.21713062
158	0x3efcb809	0.49359158
159	0xbea80a0a	-0.3282016
160	0xbeea754f	-0.45792624
161	0x3d3050b7	0.043045726
162	0xbe8eefd3	-0.27917346
163	0x3f08e9ad	0.5348156
164	0xbc0725e6	-0.008248782
165	0xbe7c6b8d	-0.24650402
166	0x3ee3ed20	0.4451685
167	0x3ebeda7e	0.3727607
168	0x3dce148b	0.10062512
169	0x3e34bc88	0.17650044
170	0x3e423f1a	0.18969384
171	0x3cb835d4	0.022486605
172	0xbe9123f1	-0.28347734
173	0x3eb90237	0.36134502
174	0x3e684be0	0.22685194
175	0x3e8d356e	0.27579826
176	0x3d866dea	0.06563933
177	0x3e1d3830	0.15353465
178	0x3f1758e3	0.59120005
179	0xbee3e4ba	-0.44510442
180	0xbdf7a728	-0.120924294
181	0xbec40813	-0.3828741
182	0xbd06e2bf	-0.032931086
183	0x3dbd5471	0.092446215
184	0x3f0718a5	0.5277198
185	0x3ce47cde	0.027891573
186	0xbbd0ff47	-0.0063780877
187	0x3e7d07fc	0.24710077
188	0x3f546ec2	0.82981503
189	0x3e676348	0.22596467
190	0x3d2ff011	0.042953555
191	0xbe2c3087	-0.16815387
192	0x3e4487e9	0.1919247
193	0x3e35a8d4	0.17740184
194	0x3ea62d0e	0.3245625
195	0x3db7b12b	0.08969339
196	0x3e27491f	0.16336487
197	0xbd244751	-0.040107075
198	0xbe19bce2	-0.1501346
199	0x3dff45d1	0.12464488
200	0x3e7c9a18	0.24668157
201	0xbf2f2cc5	-0.6842769
202	0xbe52ee8e	-0.20598814
203	0xbe254be8	-0.16142237
204	0xbd068345	-0.032840032
205	0xbe57d81b	-0.21078531
206	0xbd885064	-0.06655958
207	0x3f552275	0.832557
208	0x3e7907bc	0.24319357
209	0x3c6202e3	0.013794634
210	0xbc80c46e	-0.015718665
211	0x3ed9329c	0.42421424
212	0x3d57d6dd	0.052695144
213	0x3e6c6e5f	0.23088978
214	0xbed6ea91	-0.41975835
215	0xbe63e323	-0.22254615
216	0x3e4744ac	0.1945979
217	0xbc470ff1	-0.012149797
218	0xbe407fe1	-0.18798782
219	0xbdf9d952	-0.12199654
220	0xbeeeb458	-0.46621966
221	0xbe3c0a03	-0.18363194
222	0xbe4a205c	-0.19738907
223	0xbd9adbce	-0.07561456
224	0x3d12bb43	0.035823118
225	0x3e114b35	0.14188845
226	0x3e814236	0.25245827
227	0x3f415da8	0.75533533
228	0x3e752d41	0.23943044
229	0xbe10c0ce	-0.14136049
230	0xbe796fda	-0.24359074
231	0xbdc23f17	-0.0948469
232	0x3e95df23	0.29271802
233	0xbc3145c1	-0.010819853
234	0xbe52d694	-0.20589668
235	0x3d06defa	0.03292749
236	0xbecddbd3	-0.40206775
237	0xbec56dd4	-0.38560355
238	0xbe2f1d29	-0.17100967
239	0x3e20bf67	0.15698014
240	0x3e29a9e3	0.16568713
241	0xbd358ce3	-0.044323813
242	0x3e49e20d	0.19715138
243	0x3e4f6a15	0.20255311
244	0x3d359e16	0.044340216
245	0xbe44b6c7	-0.19210349
246	0x3c1cf1e1	0.009579153
247	0x3ef424f0	0.4768443
248	0x3c719c78	0.014746778
249	0x3c90f47c	0.017694704
250	0xbd830d9d	-0.06399081
251	0xbecafea0	-0.39647388
252	0xbe9fc005	-0.31201187
253	0x3e2fed9e	0.17180488
254	0x3ee24bd3	0.44198474
255	0x3f2f85a6	0.68563306

r_cell.w_qs.bias f4 [24]
0	0x3dba61ed	0.09100709
1	0x3e3c1d9f	0.18370675
2	0xbd4053a5	-0.04695477
3	0x3cd2ed50	0.025747925
4	0xbdf3c093	-0.11901965
5	0x3d38c41e	0.045108907
6	0x3ea1285c	0.31476104
7	0xbe541c00	-0.20713806
8	0xbe78ef6a	-0.24310079
9	0xbe069814	-0.1314395
10	0x3db87be6	0.09008007
11	0xbe3add0c	-0.18248385
12	0x3e031d9e	0.12804267
13	0x3dd74b78	0.105124414
14	0x3e2b9b9e	0.16758582
15	0x3e278903	0.1636086
16	0x3e159efa	0.14611426
17	0xbe039a35	-0.12851794
18	0xbbc5386b	-0.0060186884
19	0xbce994ce	-0.028513338
20	0x3dd5efcd	0.10446129
21	0x3de4d88a	0.11174114
22	0x3c7dec4a	0.01549823
23	0xbe6411f7	-0.22272478

r_cell.w_ks.weight f4 [24, 24]
0	0x3e9e8431	0.3096023
1	0xbe82caac	-0.2554525
2	0x3e145cfd	0.14488597
3	0x3eb0d78a	0.34539443
4	0x3e68324b	0.22675435
5	0x3e274ef4	0.16338712
6	0x3e9d63aa	0.307401
7	0xbe46d8dc	-0.19418663
8	0xbe806dfd	-0.25083914
9	0xbd53f828	-0.051750332
10	0x3d60b630	0.054861248
11	0xbeee61d1	-0.46559003
12	0x3df2f619	0.11863346
13	0xbecb44d1	-0.3970094
14	0xbd47491b	-0.048653703
15	0xbee8d9a6	-0.45478553
16	0xbee3ae70	-0.44469023
17	0x3e97b4d2	0.29630142
18	0x3e877d4f	0.2646279
19	0xbee78178	-0.45215964
20	0x3cfe294f	0.031025557
21	0x3ef9e0c2	0.4880429
22	0x3eceb753	0.4037424
23	0xbeb8fd71	-0.3613086
24	0xbe83abba	-0.25716954
25	0xbd7fe666	-0.062475584
26	0x3ead9062	0.33899218
27	0x3ec14303	0.37746438
28	0xbe676c62	-0.22599939
29	0xbea04758	-0.3130443
30	0x3cf6bb38	0.03011857
31	0xbd3e02a2	-0.04638923
32	0x3eab8caa	0.33505756
33	0x3ea88d61	0.32920364
34	0x3e72e9e4	0.23722035
35	0x3bb6122c	0.0055563655
36	0xbf0cb2d5	-0.54960376
37	0x3ee4280c	0.44561803
38	0x3e880ec8	0.26573777
39	0x3eb2b31f	0.34902284
40	0x3e744861	0.23855735
41	0x3eb28fda	0.34875375
42	0xbdcbfa46	-0.09959845
43	0xbd6b8eb7	-0.05750915
44	0xbe3b80f9	-0.18310918
45	0xbf07f0c0	-0.5310173
46	0xbe2f5060	-0.17120504
47	0xbd02fb7f	-0.031978127
48	0xbed8adab	-0.42319998
49	0x3ec7e9ca	0.39045554
50	0x3c4a67c7	0.012353844
51	0xbe842f68	-0.25817418
52	0xbd8a71d0	-0.06759989
53	0xbed38d56	-0.41318768
54	0xbe932774	-0.28741038
55	0xbde5a4e4	-0.11213091
56	0x3a77af17	0.00094483927
57	0xbef10a69	-0.47078255
58	0x3ec36357	0.38161728
59	0x3e8af614	0.27140868
60	0xbe32f6f8	-0.17477024
61	0xbdb12294	-0.086491734
62	0xbd8c0f88	-0.068389
63	0xbe89649e	-0.26834577
64	0x3e5a58a0	0.2132287
65	0xbf279d75	-0.65474635
66	0xbbfd1208	-0.0077230968
67	0x3de2d853	0.11076417
68	0xbdeb66cf	-0.114942186
69	0x3e6ee2a4	0.23328644
70	0xbe0a960e	-0.13533804
71	0x3f6b3699	0.91880184
72	0x3d7b064f	0.061285313
73	0xbf00f254	-0.50369763
74	0x3df12c20	0.11775994
75	0xbd6026e6	-0.054724596
76	0xbe83d8f6	-0.25751466
77	0x3d8cbc23	0.06871822
78	0xbd8f27a9	-0.069899864
79	0xbe829485	-0.25503936
80	0xbe7b8035	-0.24560626
81	0xbe6f8c19	-0.23393287
82	0x3ea52cf9	0.32260874
83	0x3e4c119c	0.19928592
84	0x3ea407d0	0.3203721
85	0x3de78dbc	0.113063306
86	0x3d26ee73	0.040754747
87	0xbd7f1b9d	-0.062282193
88	0xbef54f5f	-0.47912118
89	0xbe5ea3a7	-0.21742116
90	0xbba9da18	-0.0051834695
91	0xbd3c1491	-0.04591805
92	0xbe8549c8	-0.26032853
93	0x3cb20b59	0.021733927
94	0x3e7199a3	0.23593764
95	0x3f5bb4fa	0.85823023
96	0xbdd0092a	-0.10157998
97	0x3e3b446c	0.1828782
98	0xbf02802f	-0.5097684
99	0x3e35f20e	0.17768118
100	0xbde457b7	-0.11149543
101	0x3eabeb90	0.33578157
102	0xbde186cf	-0.11012041
103	0xbd8ddf1e	-0.06927322
104	0x3eb9022d	0.36134472
105	0x3eeeab74	0.46615183
106	0xbddb24fb	-0.10700413
107	0x3e6d7e5d	0.23192735
108	0xbee1450c	-0.4399799
109	0xbe975c08	-0.29562402
110	0x3c0e9d1c	0.00870445
111	0xbe63cf55	-0.2224706
112	0xbf014971	-0.5050269
113	0x3ed125fe	0.40849298
114	0xbe06b1b8	-0.13153732
115	0xbdf3faf9	-0.119131036
116	0xbe9eb787	-0.30999395
117	0xbe50e8e5	-0.20401342
118	0xbc74b11d	-0.014934805
119	0xbe27ed5b	-0.16399138
120	0x3c8d938c	0.01728227
121	0x3ec368a7	0.3816578
122	0xbe150b29	-0.14555039
123	0xbe8dcbe5	-0.27694622
124	0x3f0eca39	0.5577732
125	0xbe296e4e	-0.16545984
126	0x3ee840c3	0.4536191
127	0x3e85e954	0.26154578
128	0xbe40de2a	-0.18834749
129	0xbe105333	-0.14094238
130	0x3c03038e	0.007996453
131	0x3c45d5b7	0.012074879
132	0xbe239904	-0.1597634
133	0xbe8cca9f	-0.27498338
134	0x3e915423	0.28384504
135	0x3de94cf9	0.113916345
136	0xbc89302b	-0.016746601
137	0x3eba39c3	0.36372194
138	0xbe8d13af	-0.2755408
139	0xb9069a2d	-0.00012836671
140	0xbe091696	-0.13387522
141	0xbe1625ec	-0.14662904
142	0x3e425792	0.18978718
143	0x3d1c4f7e	0.038161747
144	0xb804fcde	-3.1706753e-05
145	0xbda9f1e3	-0.08298089
146	0xbe81fbab	-0.2538732
147	0x3eb900d1	0.36133435
148	0xbe929d98	-0.2863586
149	0x3e0985b7	0.13429914
150	0xbd62aaa0	-0.055338502
151	0xbe36669c	-0.1781258
152	0x3d674d2c	0.05647008
153	0xbf1b3317	-0.6062483
154	0xbd0f820b	-0.035036128
155	0xbdb51208	-0.0884133
156	0xbed5223f	-0.4162769
157	0xbcbe02d2	-0.023194704
158	0x3e82675c	0.25469482
159	0xbeefc60f	-0.46830794
160	0xbe11d516	-0.14241442
161	0x3f4746fe	0.778427
162	0xbe159257	-0.14606605
163	0xbdf49a19	-0.11943454
164	0xbebf783c	-0.3739642
165	0xbe6b48f6	-0.22977051
166	0xbe485c98	-0.19566572
167	0xbe9ada20	-0.3024454
168	0x3da82b5c	0.08211395
169	0xbe787a6a	-0.24265447
170	0x3f0e031e	0.55473506
171	0x3e139827	0.1441351
172	0x3d279c74	0.04092069
173	0x3eedddba	0.46458226
174	0x3e0ce29b	0.13758318
175	0xbf0afe83	-0.54294604
176	0xbdd1b28a	-0.10239132
177	0xbe344393	-0.17603903
178	0xbe97c16b	-0.29639754
179	0x3c5d95b6	0.013524463
180	0x3e9f485c	0.31109893
181	0x3e3d3f38	0.18481147
182	0x3e6b106f	0.22955488
183	0xbe812d96	-0.25230092
184	0xbe90de8a	-0.28294784
185	0xbf0540c7	-0.5205197
186	0x3d03e1ce	0.032197766
187	0xbdb3b862	-0.087754026
188	0x3e1f0e2e	0.15532753
189	0xbddef121	-0.108858354
190	0xbe76c654	-0.24099094
191	0xbce753ad	-0.028238142
192	0x3e227b80	0.15867424
193	0x3e4cdb50	0.20005536
194	0x3e68facc	0.22751921
195	0xbe26eeca	-0.16302028
196	0x3ee1dbbf	0.44112965
197	0xbd9b628d	-0.075871564
198	0xbf19c0d2	-0.60059845
199	0xbe17872f	-0.14797662
200	0xbe270879	-0.16311826
201	0xbdcbd82f	-0.09953343
202	0x3e9b37cb	0.30316004
203	0xbdad39f0	-0.08458316
204	0x3d47dc80	0.04879427
205	0xbc4ab5b6	-0.012372425
206	0x3ea1108c	0.31457937
207	0xbdb6d26b	-0.08926853
208	0x3ddf5c4f	0.10906278
209	0xbe208e12	-0.15679196
210	0x3def6042	0.116882816
211	0xbecfb001	-0.40563968
212	0x3f0d4d08	0.55195665
213	0xbec8dbb3	-0.39230117
214	0xbe630a99	-0.22172011
215	0x3f052169	0.52004105
216	0xbe3b7bc0	-0.18308926
217	0x3e6869d4	0.2269662
218	0xbe126515	-0.14296372
219	0x3d9c61c3	0.07635834
220	0x3e397c92	0.18113926
221	0x3e416ec5	0.18889911
222	0x3dab190c	0.08354387
223	0x3e2f57ba	0.17123309
224	0x3e9ccef7	0.30626652
225	0x3d9497ee	0.07255541
226	0x3eaebbfc	0.34127796
227	0x3eb73cac	0.35788476
228	0xbe381920	-0.17978334
229	0xbf0041b1	-0.5010024
230	0x3e869453	0.26285037
231	0x3e979c61	0.29611495
232	0xbee8095a	-0.45319635
233	0xbec6147b	-0.386875
234	0xbaa1f967	-0.0012357653
235	0xbf1f9179	-0.6233135
236	0xbe892d9d	-0.26792613
237	0x3e8d5c44	0.27609456
238	0x3e94bd5d	0.29050723
239	0xbe81055c	-0.251994
240	0x3e09dcd7	0.1346315
241	0x3d836649	0.06415994
242	0x3ded2619	0.11579532
243	0x3d30bcaa	0.043148674
244	0x3e9218c2	0.28534514
245	0x3e75e473	0.24012928
246	0xbea151fd	-0.31507865
247	0xbe457d48	-0.19286072
248	0xbdd72910	-0.10505879
249	0x3ebe95d4	0.37223685
250	0x3ea0e94e	0.31427997
251	0x3e096f82	0.13421443
252	0x3e44d85c	0.1922316
253	0x3d88d87b	0.066819154
254	0x3f15c4ce	0.58503425
255	0xbd4653ff	-0.04841995

r_cell.w_ks.bias f4 [24]
0	0x3cf3a737	0.02974282
1	0x3e3de242	0.18543342
2	0x3d526839	0.051368926
3	0x3d545e07	0.051847484
4	0x3e6e63f8	0.23280323
5	0x3e66de69	0.2254578
6	0x3e3cb667	0.18428956
7	0xbdd22487	-0.10260873
8	0xbe6cfd91	-0.23143603
9	0xbd9659fa	-0.073413804
10	0x3b759ab7	0.003747625
11	0xbd8ea5ff	-0.06965255
12	0x3cb7a5ef	0.02241799
13	0x3e01b3e9	0.12666287
14	0xbd7a3742	-0.061087854
15	0x3e8b5e44	0.27220356
16	0x3dadf0b3	0.08493175
17	0x3d7889dd	0.06067835
18	0xbe4ec1f9	-0.20191182
19	0x3c02035f	0.007935374
20	0xbe1dd6f7	-0.15414034
21	0x3d1a47a1	0.037665967
22	0xbd8eaf2f	-0.06967007
23	0xb80f7dbd	-3.421096e-05

r_cell.w_vs.weight f4 [24, 24]
0	0xbdc9e71c	-0.09858534
1	0x3f06f55c	0.5271814
2	0xbd0f42cd	-0.034975816
3	0x3e81d343	0.25356492
4	0x3ec7a81e	0.3899545
5	0x3ee37ffe	0.44433588
6	0x3e7aba86	0.24485216
7	0x3f032e7c	0.51242805
8	0x3ea8a903	0.32941446
9	0x3e2261e2	0.15857652
10	0x3e093680	0.13399696
11	0xbecfe758	-0.4060619
12	0xbe95ff11	-0.29296163
13	0xbef6a490	-0.48172426
14	0xbdca1b51	-0.098684914
15	0xbc889d5d	-0.0166766
16	0x3efb2806	0.49053973
17	0xbe183119	-0.1486248
18	0x3e3beaef	0.18351339
19	0x3e801123	0.25013074
20	0xbe997be6	-0.2997734
21	0x3d80a66f	0.06281745
22	0xbf037357	-0.5134787
23	0xbe143e89	-0.1447698
24	0xbe9b8739	-0.30376604
25	0xbec98e79	-0.3936651
26	0xbe906b9e	-0.28207105
27	0xbd9c98dc	-0.07646343
28	0x3d94c994	0.072650105
29	0x3dcf20c3	0.10113671
30	0x3e2b1e1d	0.16710706
31	0x3fb429e1	1.407528
32	0x3ebbb98c	0.36665
33	0xbe678865	-0.22610624
34	0x3e8135c9	0.25236347
35	0xbf28df64	-0.6596587
36	0x3dd37731	0.10325468
37	0x3f2e3cdc	0.68061614
38	0x3e73c157	0.23804222
39	0x3e46664a	0.19374958
40	0x3c04d7a5	0.008108054
41	0x3d831b8e	0.0640174
42	0xbeab16de	-0.33415884
43	0xbea3b213	-0.31971797
44	0x3ecc1d99	0.3986633
45	0xbe99f9e3	-0.3007346
46	0xbea47e25	-0.3212749
47	0x3e3e9e43	0.1861506
48	0xbf3dba79	-0.7411266
49	0xbda0c879	-0.07850737
50	0xbd36fb29	-0.04467312
51	0xbf23827a	-0.63870966
52	0xbdc53b1a	-0.09630413
53	0x3f107348	0.56425905
54	0xbf4a31d6	-0.78982294
55	0xbea853fc	-0.32876575
56	0xbf0c1577	-0.5472025
57	0xbcc1f18c	-0.023674749
58	0xbe356a8e	-0.17716429
59	0xbeaaa0cc	-0.33325803
60	0xbdc586f9	-0.096448846
61	0xbedec1d5	-0.43507257
62	0xbea3bdf2	-0.31980854
63	0x3eef76a4	0.46770203
64	0xbe2736ec	-0.16329545
65	0xbdd3f551	-0.10349525
66	0xbd9e546b	-0.07730945
67	0xbe7e1688	-0.24813282
68	0xbeb62b7e	-0.35580057
69	0x3e817c8b	0.2529033
70	0xbdb377cb	-0.08763083
71	0x3e9c4cbc	0.30527294
72	0x3f2b9c6e	0.6703557
73	0xbe09362a	-0.13399568
74	0x3d05ed90	0.03269726
75	0xbe62279a	-0.2208542
76	0x3ee67a59	0.4501522
77	0xbe94a3b9	-0.2903116
78	0xbef9f4f0	-0.48819685
79	0x3e22ff1a	0.15917626
80	0x3eca0452	0.3945642
81	0xbe658ea9	-0.22417702
82	0x3e900cb5	0.28134695
83	0x3e5e3419	0.21699561
84	0x3e319de7	0.17345391
85	0xbc3eff66	-0.011657571
86	0x3f98641b	1.190555
87	0x3e22b5dd	0.15889688
88	0x3db0dff8	0.08636469
89	0x3e49c67f	0.19704627
90	0x3e86449d	0.26224223
91	0xbd8a4851	-0.067520745
92	0x3ef6c68c	0.48198354
93	0x3eaa3cb0	0.33249426
94	0x3e66882a	0.2251288
95	0x3df2baee	0.1185206
96	0xbe79539f	-0.24348305
97	0xbe09ddee	-0.13463566
98	0x3f058211	0.5215159
99	0xbe536039	-0.20642175
100	0xbef11a35	-0.47090307
101	0xbe9e9e3a	-0.30980092
102	0x3ea83e5c	0.32860076
103	0xbf438580	-0.7637558
104	0x3e5b9864	0.21444851
105	0xbce935c5	-0.028468022
106	0x3e8072f6	0.25087708
107	0x3efe3af2	0.49654347
108	0xbd76d098	-0.060257524
109	0x3ef44e99	0.47716215
110	0xbe596edc	-0.21233696
111	0x3eb7f282	0.35927206
112	0x3db93f45	0.09045271
113	0xbe30125c	-0.17194504
114	0x3e3e8554	0.18605548
115	0x3e1fe834	0.15615922
116	0x3ec6c2ab	0.38820395
117	0xbe74d95d	-0.23911043
118	0xbe877ac1	-0.2646084
119	0xbee1166c	-0.4396242
120	0x3dfbe505	0.122995414
121	0x3ed4ee1f	0.41587922
122	0x3ef5bbed	0.47994938
123	0xbc939d4e	-0.018019345
124	0x3f053afb	0.5204312
125	0xbf4eff0c	-0.8085792
126	0xbebc6592	-0.36796242
127	0xbf3784af	-0.71686834
128	0xbefff66d	-0.49992695
129	0xbeba287c	-0.36359012
130	0xbd8eb122	-0.06967379
131	0xbe26454d	-0.16237374
132	0xbe8c45d5	-0.27397028
133	0xbe74f3ca	-0.23921123
134	0xba0782a8	-0.00051693106
135	0xbdb57cb1	-0.088616736
136	0x3e1769a3	0.14786391
137	0xbdd7015c	-0.10498306
138	0xbe8f7211	-0.28016713
139	0x3e5fb9eb	0.21848266
140	0xbd908b6f	-0.07057845
141	0xbeee7064	-0.46570122
142	0x3f2c8f90	0.6740656
143	0xbe2ba8b3	-0.16763572
144	0x3e86495f	0.26227853
145	0xbe594895	-0.21219094
146	0xbf6a38a6	-0.9149269
147	0x3e174a4f	0.1477444
148	0xbe850510	-0.25980425
149	0xbf13d043	-0.5773966
150	0xbd08a2b9	-0.03335831
151	0x3f20746a	0.62677634
152	0x3d2bf64e	0.04198294
153	0xbde66b69	-0.112509556
154	0xbd32d37d	-0.043658722
155	0x3d098509	0.033574138
156	0xbdc10518	-0.094248
157	0x3e71ef6f	0.23626493
158	0x3f5685ea	0.83798087
159	0xbd48706c	-0.04893534
160	0x3f15f9bf	0.5858421
161	0xbeb1b0eb	-0.3470529
162	0x3d01005a	0.031494476
163	0xbee312cd	-0.4435028
164	0x3f8f0979	1.1174766
165	0x3e991d55	0.2990519
166	0x3e35cc24	0.17753655
167	0x3e8d76bd	0.27629653
168	0x3ebfb2f3	0.37441215
169	0x3dc8c0cc	0.09802398
170	0x3e73dca3	0.23814635
171	0x3e2f561a	0.17122689
172	0xbe899334	-0.2687012
173	0x3e15f8cf	0.14645694
174	0x3e9adda0	0.3024721
175	0x3f145841	0.57947165
176	0xbdc9b425	-0.09848813
177	0xbeaf1c75	-0.34201398
178	0x3e950fb8	0.29113555
179	0x3db8bbdf	0.090202086
180	0xbece3271	-0.4027286
181	0xbe7e29c3	-0.24820618
182	0x3f2d232a	0.6763178
183	0xbdbe9259	-0.09305257
184	0xbd86e5b9	-0.06586785
185	0xbb9530a2	-0.0045529166
186	0xbecff707	-0.40618154
187	0xbf0f1ab9	-0.5590015
188	0xbef5cb7d	-0.48006812
189	0x3e4bc57f	0.19899558
190	0xbec84ae5	-0.3911964
191	0x3e837870	0.25677824
192	0x3e0d8a46	0.13822278
193	0xbb2f4c81	-0.002674848
194	0x3e94739d	0.28994456
195	0x3df31313	0.118688725
196	0x3ea06e03	0.31333932
197	0xbeb547dd	-0.3540639
198	0x3d506408	0.050876647
199	0x3ecb4079	0.39697626
200	0x3d49d4bf	0.049275156
201	0xbdd12d8e	-0.10213767
202	0x3e86231f	0.2619867
203	0x3e84564d	0.25847092
204	0xbe20980d	-0.15683003
205	0xbc9acaed	-0.01889559
206	0x3f36345d	0.7117365
207	0x3f30b5fe	0.690277
208	0xbe17273b	-0.14761059
209	0xbde77425	-0.1130145
210	0xbccc3d77	-0.024931652
211	0x3f063020	0.5241718
212	0x3ecb8f97	0.39757988
213	0x3e91e897	0.28497764
214	0x3ea67ad9	0.325156
215	0x3e44b71b	0.19210474
216	0xbadfe631	-0.0017082152
217	0xbeba1107	-0.36341116
218	0xbda8e449	-0.08246667
219	0xbcd939d4	-0.026516832
220	0x3c87d479	0.016580807
221	0xbee304b3	-0.44339523
222	0x3e8ca100	0.27466583
223	0xbf68903a	-0.9084507
224	0xbea7bf38	-0.32763076
225	0x3c89b686	0.016810667
226	0x3e8f2867	0.27960512
227	0xbdf39bbf	-0.118949406
228	0x3cd00e41	0.025397422
229	0x3e2ba672	0.16762713
230	0xbe1cf827	-0.15329038
231	0x3f14a469	0.5806337
232	0x3eac978c	0.3370937
233	0xbecbc47e	-0.3979835
234	0xbe78cf73	-0.24297886
235	0xbd036656	-0.032080017
236	0x3f1ff90b	0.62489384
237	0xbd898e01	-0.06716538
238	0x3f04648b	0.51715916
239	0xbe0a4a32	-0.13504866
240	0x3e601763	0.21883921
241	0xbe8fa358	-0.2805431
242	0x3e945a93	0.28975353
243	0xbec24333	-0.37941894
244	0x3eaafe7a	0.33397275
245	0xbf465522	-0.7747365
246	0xbea5b25d	-0.32362643
247	0xbebf0cd6	-0.3731448
248	0x3d855ff7	0.065124445
249	0xbe87500a	-0.26428252
250	0x3e1a9b0f	0.15098213
251	0x3ebfc711	0.37456563
252	0x3d652029	0.055938873
253	0xbf498e1e	-0.7873248
254	0x3e1d70f7	0.15375124
255	0x3e8149e3	0.25251684

r_cell.w_vs.bias f4 [24]
0	0xbdb1d09c	-0.08682367
1	0x3e0eea51	0.13956572
2	0x3e01dcd7	0.126819
3	0x3ea09d9d	0.3137025
4	0x3e60ceec	0.21953934
5	0xbdf84714	-0.12122932
6	0x3e5e0c18	0.21684301
7	0x3dc8de71	0.09808052
8	0x3dddf4bf	0.10837697
9	0xbd618ead	-0.055067707
10	0x3e2c890d	0.16849156
11	0x3e918e39	0.2842882
12	0xbe31b79e	-0.173552
13	0x3cd2b3db	0.025720527
14	0xbda3f7f0	-0.08006275
15	0x3baa00b3	0.0051880716
16	0xbe6c7f0a	-0.23095337
17	0x3d3cb918	0.046074957
18	0xbe745d5e	-0.23863742
19	0xbe1c4ad6	-0.15262923
20	0xbd36dc10	-0.04464346
21	0xbc8a7042	-0.016899232
22	0xbdec6fd0	-0.11544764
23	0xbdfc1147	-0.12307983

r_cell.layer_norm.weight f4 [24]
0	0x3f3f1212	0.7463695
1	0x3f7593b1	0.95928484
2	0x3f73b773	0.95201796
3	0x3f7d7343	0.99004
4	0x3f771b4a	0.96526015
5	0x3f522ce5	0.82099754
6	0x3fa67b89	1.300645
7	0x3f8793db	1.0591997
8	0x3f46c50b	0.77644414
9	0x3f9399c8	1.1531305
10	0x3f93879d	1.1525761
11	0x3fa190b3	1.2622284
12	0x3f85bb59	1.0447799
13	0x3f9b4c7f	1.213272
14	0x3f9f1ff6	1.2431629
15	0x3f8c5372	1.0962965
16	0x3fafbe3e	1.3729932
17	0x3f706c93	0.9391567
18	0x3f9b9c0e	1.2156999
19	0x3f718dd9	0.9435707
20	0x3f77bda8	0.9677377
21	0x3f839035	1.0278383
22	0x3f92430b	1.142671
23	0x3f842e87	1.0326699

r_cell.layer_norm.bias f4 [24]
0	0xbd7106bd	-0.058844317
1	0xbe389a63	-0.18027644
2	0x3d19b8da	0.037529804
3	0x3d1d50b0	0.038407028
4	0x398618c4	0.00025576924
5	0x3e6a2a55	0.22867711
6	0xbe40ef56	-0.188413
7	0xbbdcd66c	-0.0067394283
8	0x3e817da5	0.25291172
9	0x3e48032b	0.19532458
10	0xbc5da818	-0.013528846
11	0xbd28e8e3	-0.041237723
12	0xbcd3568f	-0.02579811
13	0x3d49ba7d	0.049250115
14	0x3d4327d3	0.0476454
15	0xbd810f71	-0.06301773
16	0xbcf5196d	-0.02991935
17	0x3e454d96	0.19267878
18	0xbdc2a4b9	-0.095040746
19	0x3ddf5f08	0.10906798
20	0x3d9b437c	0.07581231
21	0xbe02e336	-0.12781987
22	0x3e2034ce	0.15645143
23	0x3e2daaa5	0.16959627

r_cell.fc.weight f4 [24, 24]
0	0xbd9b9964	-0.07597616
1	0xbeb79977	-0.35859272
2	0xbd13c2f4	-0.036074594
3	0xbe65852b	-0.22414081
4	0x3da1af6c	0.07894787
5	0x3d95ae52	0.073086396
6	0xbf38a398	-0.72124624
7	0xbe5b627f	-0.21424292
8	0xbecc297c	-0.398754
9	0x3f08cba8	0.53435755
10	0x3e853fd4	0.2602526
11	0xbecaf40e	-0.39639324
12	0xbf52721d	-0.82205373
13	0xbed1c500	-0.40970612
14	0xbda9cbb5	-0.08290807
15	0xbc6bf461	-0.014401526
16	0x3e577ae6	0.21042976
17	0x3e15ca90	0.14628053
18	0x3f1227b7	0.5709185
19	0x3f113824	0.5672629
20	0xbeccf78b	-0.4003261
21	0x3f0f701a	0.5603043
22	0xbe59dfb3	-0.2127674
23	0x3da393f3	0.079872034
24	0x3f098b1b	0.53727883
25	0xbe556034	-0.2083748
26	0x3d7e7c82	0.06213046
27	0xbf2c5fc5	-0.6733363
28	0xbdd3a794	-0.10334697
29	0x3f2eeb80	0.68328094
30	0xbef34774	-0.47515452
31	0xbdcb63e0	-0.09931159
32	0xbeae931a	-0.34096605
33	0x3e27e7f5	0.16397078
34	0xbe3bd913	-0.18344526
35	0xbf010189	-0.5039297
36	0xbea979d6	-0.33100766
37	0x3e043f97	0.12914883
38	0xbf02334b	-0.50859517
39	0x3d2b5c68	0.041836172
40	0x3e9bc2ca	0.3042205
41	0x3e6de8ce	0.23233339
42	0x3e33b25c	0.17548507
43	0x3ea53dcc	0.3227371
44	0xbf5511a3	-0.83230036
45	0x3d5cbc2d	0.053890396
46	0xbefff26b	-0.49989638
47	0x3e53dec4	0.20690447
48	0xbe8f891f	-0.28034303
49	0xbe927d1c	-0.28611076
50	0xbbd81cf4	-0.0065952484
51	0x3ef6f980	0.48237228
52	0x3e680e4d	0.22661705
53	0xbe503526	-0.20332775
54	0x3e051f64	0.13000256
55	0xbdecf9b1	-0.11571062
56	0x3efea8d5	0.49738184
57	0x3db7ec7b	0.08980652
58	0x3f47ae58	0.780004
59	0x3f0c31e4	0.5476363
60	0x3ecb4ae7	0.39705583
61	0x3e856992	0.26057106
62	0xbdbd15f7	-0.09232705
63	0xbe40227e	-0.18763158
64	0xbdcec6b1	-0.10096491
65	0xbf902eff	-1.1264342
66	0xbbffe1fd	-0.0078089223
67	0x3b961f1d	0.0045813457
68	0x3f3bf95e	0.7342738
69	0xbe155e7b	-0.14586823
70	0x3df188e8	0.11793691
71	0x3ee375ad	0.44425717
72	0xbe73cdcc	-0.23808974
73	0x3dec00da	0.115236
74	0xbe4bf210	-0.19916558
75	0x3e8c93b6	0.27456445
76	0xbddb647a	-0.10712524
77	0x3e414b33	0.18876342
78	0x3efec927	0.49762842
79	0xbe8c4ed2	-0.27403885
80	0x3e2cc675	0.1687258
81	0x3d35a7f1	0.044349615
82	0x3e1c2f85	0.15252502
83	0x3eb37005	0.35046402
84	0xbe5c076c	-0.21487206
85	0xbdb6ab53	-0.08919396
86	0x3f2ebc97	0.68256515
87	0xbbd560ca	-0.0065117823
88	0xbeb6636f	-0.35622737
89	0x3d98c79b	0.07459947
90	0xbd1edef1	-0.038786832
91	0xbefd8680	-0.49516678
92	0x3dc1433a	0.094366506
93	0x3ead7b53	0.3388315
94	0xbe73b66d	-0.23800059
95	0x3cbe2d07	0.02321483
96	0xbe89f5a0	-0.2694521
97	0xbe8b13c6	-0.27163523
98	0xbea59c00	-0.3234558
99	0x3ee0b606	0.43888873
100	0xbe9f50d4	-0.31116354
101	0x3f60f067	0.87866825
102	0xbebb7d3e	-0.3661899
103	0xbdd57eb5	-0.10424558
104	0x3e41ce69	0.18926395
105	0x3e395fdf	0.18102978
106	0x3efba4ab	0.4914907
107	0x3ea83c24	0.32858384
108	0xbec83097	-0.3909957
109	0xbf0bd82d	-0.54626733
110	0xbe4e5e2f	-0.20153116
111	0x3e379f1a	0.17931786
112	0xbeb6a07a	-0.3566931
113	0xbec2ac20	-0.38021946
114	0xbc9029ef	-0.01759812
115	0xbef2d367	-0.47426912
116	0x3e17717c	0.14789385
117	0x3eb3d7fb	0.35125718
118	0xbe91223b	-0.28346428
119	0x3f00d98b	0.50331944
120	0x3d1071f8	0.03526494
121	0x3e336eee	0.17522785
122	0xbe1bd69d	-0.15218587
123	0x3e6a582b	0.22885196
124	0xbdc8c552	-0.09803261
125	0xbe8d1dbf	-0.27561757
126	0x3f94765e	1.1598623
127	0x3eeeb41c	0.46621788
128	0x3e349658	0.17635477
129	0xbe23065a	-0.15920392
130	0xbe69deed	-0.22838946
131	0x3f541837	0.8284945
132	0x3f0937d8	0.53600836
133	0xbea5765b	-0.3231686
134	0x3f1f11cd	0.62136537
135	0x3d1a128d	0.037615348
136	0xbefa294f	-0.4885964
137	0x3ec420d2	0.3830629
138	0xbf01d61e	-0.5071734
139	0xbec75fd8	-0.3894031
140	0x3e10d041	0.14141943
141	0x3deed462	0.116616026
142	0x3e89f058	0.2694118
143	0xbe3d873d	-0.1850862
144	0x3e7b953a	0.24568644
145	0xbe8e2d43	-0.27768907
146	0xbc3a20d1	-0.011360363
147	0xbe8c134c	-0.27358472
148	0x3e9538fd	0.2914504
149	0x3f19e55c	0.601156
150	0x3c55ae14	0.013041992
151	0x3e5c848a	0.21534935
152	0xbd3b10cf	-0.045670327
153	0x3e0a9de5	0.13536794
154	0xbdb329d4	-0.087482125
155	0x3d842aac	0.064534515
156	0xbe1d6d8c	-0.1537382
157	0xbeb8ba41	-0.360796
158	0x3e6d318d	0.23163433
159	0x3e57f888	0.21090901
160	0x3e0c19b1	0.13681675
161	0xba31baee	-0.0006779869
162	0xbdf96631	-0.121776946
163	0x3ec17841	0.3778706
164	0xbe9717e9	-0.2951043
165	0x3e66e9c6	0.22550115
166	0x3e147ed9	0.14501514
167	0x3f0e5108	0.55592394
168	0x3ea53775	0.32268873
169	0x3ef4c242	0.47804457
170	0x3e855cfe	0.2604751
171	0x3bce2acf	0.0062917243
172	0xbe920e50	-0.28526545
173	0xbed7f5c0	-0.4217968
174	0xbdea350e	-0.11435901
175	0xbd46a862	-0.048500426
176	0x3e91dcd4	0.2848879
177	0xbed43f0f	-0.4145436
178	0xbdab3fac	-0.08361754
179	0xbccd12ee	-0.02503344
180	0x3f0239dd	0.5086954
181	0x3e59d6a7	0.2127329
182	0xbe52fe96	-0.2060493
183	0x3ead3712	0.33831078
184	0x3c0dc51f	0.008652954
185	0x3f143cfd	0.5790556
186	0xbda34b68	-0.07973367
187	0xbca82c21	-0.020528855
188	0xbe209304	-0.15681082
189	0xbe5a6189	-0.21326269
190	0xbf098e3d	-0.53732663
191	0xbeebe073	-0.4606968
192	0x3ef8bc1b	0.48581013
193	0x3eb6bb73	0.35689887
194	0xbf167804	-0.5877688
195	0x3ee3aec0	0.4446926
196	0xbdae4df6	-0.085109636
197	0xbf1bef0c	-0.6091163
198	0x3f397ae3	0.72453135
199	0xbb17d529	-0.0023167825
200	0x3f11fbc0	0.57024765
201	0xbe94647c	-0.28982913
202	0xbf017263	-0.50565165
203	0x3eb4de8b	0.35326037
204	0x3eb2785b	0.3485745
205	0xbe588974	-0.21146184
206	0x3e85fed0	0.2617097
207	0x3e3e65a5	0.18593462
208	0xbc15df9e	-0.009147553
209	0x3de44b28	0.111471474
210	0xbf2c4999	-0.672998
211	0xbd163350	-0.03667003
212	0xbed77ed6	-0.42088956
213	0xbea02914	-0.3128134
214	0x3cb4bc1b	0.022062352
215	0x3ea66f45	0.32506767
216	0x3e9eb596	0.30997914
217	0x3f1c8ba0	0.6115055
218	0xbe225bf9	-0.15855397
219	0x3eb2dcbf	0.3493404
220	0xbe1401aa	-0.1445376
221	0xbe865eae	-0.2624411
222	0x3ecb5bf2	0.39718586
223	0x3d7b71bb	0.06138776
224	0xbe585597	-0.211264
225	0x3dbe1bca	0.09282644
226	0xbe0bef78	-0.13665569
227	0x3edbc766	0.42925566
228	0xbe46b367	-0.19404374
229	0xbd35099b	-0.044198614
230	0x3dd91a12	0.10600676
231	0xbd7902ad	-0.060793567
232	0x3df6c136	0.12048571
233	0x3e9ca4a9	0.30594376
234	0x3e0964c2	0.13417342
235	0x3c5f0713	0.0136125265
236	0xbf354dd0	-0.7082186
237	0x3e816866	0.25274962
238	0x3ebe23e0	0.37136745
239	0x3e81c63a	0.25346547
240	0xbe36081d	-0.17776532
241	0x3e9a3ec0	0.30126
242	0x3e565c33	0.20933609
243	0x3c84cd3b	0.016211143
244	0x3b30fb43	0.0027005232
245	0x3d15147e	0.036396496
246	0x3e9c260d	0.3049778
247	0xbe398b33	-0.18119507
248	0x3d265e74	0.04061742
249	0x3e45435e	0.1926398
250	0x3e86573a	0.26238424
251	0x3e9e67f5	0.30938688
252	0x3cda913f	0.026680587
253	0xbe005663	-0.12532954
254	0xbdd2f01c	-0.102997035
255	0xbec7fd0f	-0.39060256

r_cell.fc.bias f4 [24]
0	0xbde7c0b1	-0.1131605
1	0xbd9f300d	-0.07772837
2	0x3d0fb612	0.035085745
3	0x3e16fd9b	0.1474518
4	0x3e0656f9	0.13119115
5	0x3df7c6dc	0.12098476
6	0x3e76e743	0.24111657
7	0xbe817f1a	-0.25292283
8	0x3cc2cd5a	0.02377956
9	0x3e2fb395	0.17158349
10	0xbdbf661e	-0.09345649
11	0xbdd3014e	-0.10302983
12	0xbdf5e9ab	-0.12007459
13	0xbdc97720	-0.098371744
14	0xbcde2512	-0.027117286
15	0xbe1ce1df	-0.15320538
16	0x3e311391	0.1729262
17	0xbd48ab3a	-0.04899142
18	0xbd937a6d	-0.07201085
19	0x3de39c2d	0.111137725
20	0xbcd4acc6	-0.025961291
21	0xbe320874	-0.17386037
22	0x3ded2ca3	0.115807794
23	0x3eb337ad	0.35003415

fc1.0.bias f4 [24]
0	0x3d80f4a4	0.062966615
1	0xbd1bc7d6	-0.038032375
2	0x3de9a0b5	0.114076056
3	0x3d5be6ef	0.053687032
4	0x3c9fded1	0.019515427
5	0xbd9f1786	-0.077681586
6	0x3c86336a	0.016381938
7	0x3d03efa3	0.032210957
8	0x3d2a217b	0.041535836
9	0x3cb45e0f	0.022017507
10	0xbcdaa1f2	-0.02668855
11	0x3df471d2	0.11935772
12	0x3d06663d	0.032812346
13	0x3e0894f8	0.13338077
14	0xbd1ec7cc	-0.03876476
15	0xbd5b870b	-0.053595584
16	0x3d8928dc	0.066972464
17	0xbdeb3d29	-0.11486275
18	0xbc889cba	-0.016676296
19	0x3d8cdcff	0.06878089
20	0x3d99eb0e	0.07515536
21	0x3c48a895	0.012247224
22	0x3d60e5f7	0.05490681
23	0x3b3c24be	0.0028708423

fc1.0.weight_orig f4 [24, 6]
0	0x3d8ae369	0.06781656
1	0xbd8e129c	-0.06937143
2	0x3d321f6e	0.043487005
3	0xbd066d0f	-0.03281885
4	0x3d746684	0.05966808
5	0x3e8e88de	0.27838796
6	0xbdd5ae8b	-0.10433682
7	0x3e0e98db	0.13925497
8	0xbdab05dc	-0.08350727
9	0x3dfb0fa1	0.1225884
10	0xbd7b8ebe	-0.061415426
11	0xbe832108	-0.25611138
12	0xbd34c188	-0.04412988
13	0x3d5e03f5	0.054202992
14	0xbd3ef83a	-0.046623446
15	0x3d617e7b	0.05505226
16	0xbd159d56	-0.036527
17	0xbebcbfe8	-0.36865163
18	0x3e700cab	0.23442332
19	0xbe2f66e5	-0.17129095
20	0x3e576edd	0.21038385
21	0xbdf7f7a6	-0.12107782
22	0x3e2c2b56	0.16813406
23	0x3d0767e2	0.033058055
24	0x3e8a4e29	0.27012756
25	0xbe41be72	-0.18920305
26	0x3e87f0c1	0.26550868
27	0xbe16dc1d	-0.14732404
28	0x3e548f90	0.2075789
29	0x3e6e71d6	0.23285612
30	0x3d9ba0f2	0.07599057
31	0xbd57622b	-0.052583855
32	0x3d8f862b	0.070080124
33	0xbd4273df	-0.047473785
34	0x3d3c3b1d	0.045954812
35	0xbe92a728	-0.28643155
36	0x3dd041ed	0.10168824
37	0xbd8ee5e7	-0.06977444
38	0x3e124201	0.14282991
39	0xbd7c1915	-0.061547358
40	0x3d5faee7	0.05461016
41	0xbe8b1c73	-0.27170143
42	0x3e017f2f	0.12646173
43	0xbe0627de	-0.13101146
44	0x3d310f5f	0.04322755
45	0xbe00770a	-0.1254541
46	0x3d922b12	0.07137121
47	0x3e3bb99c	0.18332523
48	0x3e166044	0.1468516
49	0xbe4c26f5	-0.19936736
50	0x3e444238	0.19165885
51	0xbe27fdfe	-0.16405484
52	0x3dbcfe1e	0.092281565
53	0x3e73c6f9	0.23806371
54	0x3e471fea	0.19445768
55	0xbe2e1d2b	-0.17003314
56	0x3eb0ca5c	0.34529388
57	0xbe03aba0	-0.12858438
58	0x3e2792fe	0.16364667
59	0xbe41d0eb	-0.18927352
60	0x3e51b69e	0.20479819
61	0xbe4e4238	-0.20142448
62	0x3e626cc4	0.22111803
63	0xbe17c5d5	-0.1482156
64	0x3e2a34a9	0.16621651
65	0xbee0d1e4	-0.43910134
66	0x3e12ee74	0.14348775
67	0xbd4948a1	-0.04914153
68	0x3e817ce9	0.2529061
69	0xbab65351	-0.0013910328
70	0x3df87e96	0.12133519
71	0x3e45b837	0.19308554
72	0xbb5d5d54	-0.0033777552
73	0x3cb39e58	0.02192609
74	0x3c79f9bf	0.015257298
75	0x3b247ac9	0.00250976
76	0xbb312e6b	-0.0027035724
77	0x3f655029	0.8957544
78	0x3e053c36	0.1301125
79	0xbd87f626	-0.06638746
80	0x3db7f627	0.08982497
81	0xbd366db1	-0.044538204
82	0x3ddae212	0.10687651
83	0x3b8da1ee	0.004322282
84	0x3c833f46	0.016021382
85	0xbd705486	-0.058674358
86	0x3cb4de11	0.022078546
87	0xbd4c3198	-0.049851984
88	0x3b781436	0.0037853844
89	0xbf0828f5	-0.53187495
90	0xbd62dce6	-0.055386446
91	0x3dbbfa76	0.09178631
92	0xbd5c98d8	-0.0538567
93	0x3d74ce37	0.059766974
94	0xbd1fbebc	-0.039000258
95	0xbedca1cf	-0.430922
96	0xbe1bc836	-0.15213093
97	0x3e1a4392	0.15064839
98	0xbe11f2df	-0.14252804
99	0x3d882009	0.06646735
100	0xbde7d36d	-0.11319623
101	0xbe2c0d15	-0.16801865
102	0xbd0eb727	-0.034842636
103	0xbc6b8103	-0.0143740205
104	0xbdcb5881	-0.0992899
105	0xbcc97407	-0.024591459
106	0xbcc7dab2	-0.024396274
107	0xbe14aef0	-0.14519858
108	0xbc6398b9	-0.013891392
109	0xbbf10fbc	-0.007356612
110	0xbcb29f3f	-0.02180445
111	0xb9cb4846	-0.00038773025
112	0xbc325138	-0.010883622
113	0xbf6ca4ea	-0.9243914
114	0x3c9e661a	0.019335795
115	0x3db25a8b	0.08708676
116	0xbdcdc399	-0.10047073
117	0x3d725541	0.059163336
118	0x3d4beb28	0.04978481
119	0xbe31092b	-0.17288654
120	0xbe18650b	-0.14882295
121	0x3e268c55	0.1626447
122	0xbe2688ec	-0.16263169
123	0x3df889e7	0.12135678
124	0xbdd0e56d	-0.102000095
125	0xbe454a7e	-0.19266698
126	0xbd45d8cf	-0.048302468
127	0x3de8c913	0.11366477
128	0xbe0c3785	-0.13693054
129	0x3d4bd8c9	0.04976729
130	0xbc892234	-0.016739942
131	0xbd1fab08	-0.038981467
132	0xbcf8a0da	-0.030350138
133	0x3da3a353	0.07990136
134	0xbcefe61f	-0.029284535
135	0x3d773df3	0.060361814
136	0xbc9b225f	-0.018937288
137	0x3f213386	0.62969244
138	0x3d8aac55	0.06771151
139	0xbcd5103d	-0.02600872
140	0x3dd4ab1c	0.10384199
141	0xbd62b8c0	-0.055351973
142	0x3cfe2e03	0.0310278
143	0xbe796fd9	-0.24359073

fc1.0.weight_u f4 [24]
0	0x3e1b9e38	0.15197074
1	0xbe134465	-0.14381559
2	0xbe4b9a3d	-0.19883056
3	0x3d0ac8a2	0.033882745
4	0x3e1234ec	0.14278
5	0xbe15a733	-0.14614563
6	0xbe0ac8a2	-0.13553098
7	0x3dd7008a	0.1049815
8	0x3e0ee494	0.13954383
9	0xbda69eb9	-0.08135743
10	0xbe5cb3b1	-0.21552922
11	0x3de92976	0.11384861
12	0x3ef270d3	0.47351703
13	0x3c290187	0.010315306
14	0xbe8ec2a5	-0.27882877
15	0xbe6e76d0	-0.23287511
16	0xbdcd0f82	-0.100127235
17	0xbda34e61	-0.07973934
18	0xbefaa8b8	-0.48956847
19	0xbdc16556	-0.094431564
20	0xbde9b132	-0.114107504
21	0xbce00409	-0.027345674
22	0x3ea8bda9	0.329572
23	0xbdfcc7a8	-0.12342769

fc1.0.weight_v f4 [6]
0	0x3d27009f	0.040772077
1	0xbce5f5ae	-0.02807125
2	0x3d374e17	0.044752207
3	0xbc986c40	-0.018606305
4	0x3cefa29e	0.029252347
5	0x3f7f466f	0.9971685

fc1.1.weight f4 [24, 24]
0	0xbf159057	-0.5842337
1	0x3f1a9705	0.6038669
2	0x3ec83299	0.39101103
3	0x3f784c4d	0.96991426
4	0x3f77e13b	0.9682805
5	0x3f124460	0.5713558
6	0x3ed21ae5	0.41036144
7	0x3efe5463	0.49673757
8	0xbf7dd842	-0.9915811
9	0xbf97c917	-1.1858243
10	0x3f359700	0.7093353
11	0xbf392fb9	-0.72338444
12	0x3eaf2359	0.34206656
13	0x3dc83074	0.09774867
14	0x3f0b8108	0.5449376
15	0xbd91fd92	-0.07128443
16	0x3ee8d710	0.4547658
17	0x3f51643c	0.8179357
18	0xbd5a5b01	-0.053309444
19	0xbdee165f	-0.11625361
20	0xbf58155f	-0.8440761
21	0x3e90724d	0.28212205
22	0xbee028ee	-0.43781227
23	0xbf0e8990	-0.55678654
24	0xbf29c86b	-0.6632144
25	0xbcc54c24	-0.024084158
26	0xbf4f739f	-0.810358
27	0xbdc375e3	-0.095439695
28	0xbd025bff	-0.031826016
29	0xbea82443	-0.32840165
30	0xbef2cbaa	-0.47421008
31	0x3e1f9335	0.15583499
32	0x3f35fa01	0.710846
33	0x3dd10f97	0.10208052
34	0x3f33319f	0.6999759
35	0x3def96be	0.11698674
36	0x3f825108	1.0180979
37	0x3e8000ca	0.25000602
38	0xbe103752	-0.14083603
39	0x3f9c758b	1.2223371
40	0x3ec2763f	0.3798084
41	0xbeaa64b3	-0.33279952
42	0xbf775f28	-0.9662957
43	0x3fb537fd	1.4157711
44	0x3e8d9634	0.27653658
45	0xbf2a3615	-0.6648877
46	0xbd30b4b4	-0.043141082
47	0xbdea3a4c	-0.114369005
48	0x3f0b6687	0.5445332
49	0xbea461c6	-0.32105845
50	0x3e60c64f	0.21950649
51	0xbf831fce	-1.0244081
52	0xbf3f0fb3	-0.7463333
53	0xbee52094	-0.44751418
54	0xbe35ec64	-0.17765957
55	0xbf0db816	-0.5535902
56	0x3ef1ab81	0.4720116
57	0x3f5825b9	0.8443256
58	0xbf556765	-0.8336089
59	0xbdc6ad92	-0.09701075
60	0xbf630844	-0.8868449
61	0xbe28cd0f	-0.16484474
62	0xbf414752	-0.7549945
63	0x3f20f410	0.6287241
64	0xbe1fd9af	-0.15610383
65	0x3eee5ff8	0.46557593
66	0x3f8ae67d	1.085159
67	0x3f655ae2	0.895918
68	0xbe312972	-0.17300966
69	0x3d9f1264	0.077671796
70	0x3f14aee1	0.58079344
71	0xbe2b0d49	-0.16704287
72	0xbf581c30	-0.8441801
73	0x3ee90698	0.45512843
74	0xbe58583a	-0.21127406
75	0x3f5326c3	0.8248102
76	0x3f031d10	0.5121622
77	0x3f229636	0.63510454
78	0x3d65899f	0.05603945
79	0x3db403b0	0.08789766
80	0xbe917ef9	-0.28417185
81	0xbf96942a	-1.1763966
82	0x3f18d5b1	0.5970107
83	0xbe2436ae	-0.16036484
84	0x3f91ffe8	1.1406221
85	0xbed581ea	-0.4170068
86	0x3f156263	0.5835325
87	0x3e327e8b	0.17431085
88	0xbd4d7b02	-0.050166138
89	0x3f314c34	0.692569
90	0xbf8426ad	-1.0324303
91	0xbfa54414	-1.2911401
92	0xbe6818e6	-0.22665748
93	0x3e184a02	0.14871982
94	0xbf8f4ef9	-1.1195976
95	0x3e7ffebe	0.2499952
96	0x3f265d13	0.6498577
97	0xbf2957c2	-0.6614953
98	0xbf38f0dc	-0.7224252
99	0xbfbe6628	-1.4874926
100	0xbf970dac	-1.1801047
101	0xbf2b6e27	-0.66964954
102	0xbf70f07f	-0.9411697
103	0xbf9c64d5	-1.2218271
104	0x3fb54bb2	1.4163725
105	0x3fb200c3	1.3906482
106	0xbf350972	-0.7071754
107	0xbc252c6a	-0.01008139
108	0xbed2a6b4	-0.4114281
109	0x3d9a36b8	0.07529968
110	0xbeca0a35	-0.39460912
111	0xbe4e21e2	-0.20130113
112	0x3eb17cb3	0.3466545
113	0xbd27f6d3	-0.041006874
114	0xbe6bfb1a	-0.23045006
115	0x3e272c73	0.1632555
116	0x3f7fa36d	0.9985874
117	0x3e0c5e8b	0.1370794
118	0x3ee726b4	0.45146716
119	0xbebaea2e	-0.3650679
120	0xbeb115a4	-0.34586823
121	0xbf409fb2	-0.75243676
122	0xbfbcd420	-1.4752235
123	0xbe721ca6	-0.23643741
124	0xbda88983	-0.08229353
125	0xbeac13ed	-0.33608952
126	0xbebdf0f9	-0.3709791
127	0xbf19d146	-0.6008495
128	0x3edc82fc	0.43068683
129	0xbdfddb0b	-0.12395295
130	0x3f5c288b	0.85999364
131	0x3f2051ff	0.62625116
132	0x3f639124	0.8889334
133	0xbe352836	-0.1769112
134	0x3ab4a5f3	0.0013782367
135	0x3fb5d61b	1.4205965
136	0x3e1ab12f	0.15106653
137	0x3d8025d2	0.06257214
138	0xbfb328e2	-1.3996851
139	0xbc8f2503	-0.017473703
140	0x3e8f79cb	0.28022608
141	0xbf463ca3	-0.77436274
142	0xbf1d3aa2	-0.6141759
143	0xbf8a2cd5	-1.0794932
144	0x3f3b469c	0.73154616
145	0xbf9a6103	-1.2060856
146	0xbf947588	-1.1598368
147	0xbfaf3e39	-1.3690864
148	0xbf977ab9	-1.1834327
149	0xbef78893	-0.48346385
150	0xbf7977b1	-0.9744826
151	0xbfa697c2	-1.3015063
152	0x3fb5e22b	1.4209646
153	0x3fdced5f	1.725994
154	0xbf46e9ea	-0.77700675
155	0x3e3be217	0.18347965
156	0xbf074fc9	-0.5285612
157	0xbea00d40	-0.3126011
158	0xbedd5ca5	-0.43234745
159	0x3f083235	0.5320161
160	0xbe137a9e	-0.14402243
161	0xbe812e45	-0.25230613
162	0x3bb11c1a	0.0054049613
163	0xbdcf4ba0	-0.10121846
164	0x3fa98bcc	1.3245788
165	0xbe6e9ab2	-0.23301199
166	0x3eb97b04	0.36226666
167	0xbeb02e70	-0.3441043
168	0xbf079322	-0.5295888
169	0x3e1d2c3e	0.15348908
170	0xbf4931e7	-0.7859177
171	0x3f816fac	1.0112205
172	0x3f34d95f	0.7064418
173	0x3f59b1df	0.85037035
174	0x3ef50ea8	0.47862744
175	0x3e56f1b4	0.2099064
176	0xbeb181a0	-0.3466921
177	0xbfaf9831	-1.371832
178	0x3f8edaf8	1.1160574
179	0xbeccac53	-0.39975223
180	0x3fbd33e1	1.4781457
181	0xbf205016	-0.626222
182	0x3f646179	0.8921123
183	0x3ec80a50	0.39070368
184	0xbd5924ed	-0.05301373
185	0x3f47a23e	0.77981937
186	0xbfd8999c	-1.6921878
187	0xbebb9304	-0.36635602
188	0xbe8c4032	-0.27392727
189	0x3cd88aac	0.026433311
190	0xbface0a8	-1.350606
191	0x3f090e3e	0.53537357
192	0x3f0c843f	0.5488929
193	0x3ebaa179	0.3645132
194	0x3eb96800	0.36212158
195	0x3efc58a0	0.49286366
196	0x3f814f87	1.0102395
197	0x3fa51c3f	1.2899245
198	0x3f242ae0	0.6412792
199	0x3e4a1a4b	0.19736592
200	0xbf0aa924	-0.5416434
201	0xbf12e512	-0.57380784
202	0x3ea7710a	0.3270343
203	0xbf52fbf3	-0.82415694
204	0xbeb52ee1	-0.35387328
205	0x3ea8ff05	0.33007064
206	0x3da96bef	0.0827254
207	0xbf90bda8	-1.1307878
208	0xbeefe94c	-0.4685768
209	0x3f31e2c1	0.69486624
210	0x3f271cf0	0.6527853
211	0xbf87ad09	-1.0599681
212	0xbf23ca19	-0.6398025
213	0x3f33a216	0.701692
214	0xbe7d0e04	-0.24712378
215	0x3ebcf1d4	0.3690325
216	0x3f2a5e0d	0.6654976
217	0x3f24bdbb	0.64352006
218	0xbf0a4172	-0.5400611
219	0x3efd6771	0.49492982
220	0x3f2bf4e2	0.67170537
221	0xbf01990b	-0.5062415
222	0xbe4cbda0	-0.19994211
223	0x3f4aa41a	0.7915665
224	0x3e2fd027	0.17169248
225	0xbf1f6219	-0.6225906
226	0x3f5edae2	0.8705274
227	0xbf184bee	-0.5949086
228	0x3f4772e2	0.7790967
229	0xbd9a041a	-0.075203136
230	0xbe102f4a	-0.1408054
231	0x3f815872	1.0105116
232	0xbed172d5	-0.40907922
233	0xbf5daf69	-0.8659578
234	0xbf49b91e	-0.7879809
235	0xbf2ba9bd	-0.67055875
236	0xbe357f5a	-0.17724362
237	0x3f90b85f	1.1306266
238	0x3bb8d21a	0.0056402804
239	0xbea60e99	-0.32433012
240	0xbe0a14c4	-0.13484484
241	0xbce31e53	-0.02772442
242	0xbf098975	-0.5372537
243	0x3e869a2a	0.26289493
244	0x3dda7874	0.10667506
245	0xbeabffd8	-0.3359363
246	0xbeedd71f	-0.46453187
247	0xbd2d6b2f	-0.042338546
248	0xbe16eb50	-0.14738202
249	0xbe0092ad	-0.12555952
250	0x3eda0b47	0.4258673
251	0x3f46ac88	0.7760701
252	0x3e7a5182	0.24445155
253	0xbecdd2f2	-0.402
254	0xbd9c58a3	-0.076340936
255	0x3f7896cd	0.97105104
