models/17_05_2021/stock_self_attn_MSE_hinge_10000_64_24_6_24_5/9000_recovery.pth (torch, 54734 bytes, 39 tensors)

position.pe f4 [1, 24, 24]
0	0x00000000	0.0
1	0x3f800000	1.0
2	0x00000000	0.0
3	0x3f800000	1.0
4	0x00000000	0.0
5	0x3f800000	1.0
6	0x00000000	0.0
7	0x3f800000	1.0
8	0x00000000	0.0
9	0x3f800000	1.0
10	0x00000000	0.0
11	0x3f800000	1.0
12	0x00000000	0.0
13	0x3f800000	1.0
14	0x00000000	0.0
15	0x3f800000	1.0
16	0x00000000	0.0
17	0x3f800000	1.0
18	0x00000000	0.0
19	0x3f800000	1.0
20	0x00000000	0.0
21	0x3f800000	1.0
22	0x00000000	0.0
23	0x3f800000	1.0
24	0x3f576aa4	0.84147096
25	0x3f0a5141	0.54030234
26	0x3ee5351d	0.44767085
27	0x3f64ea30	0.8941984
28	0x3e5ae952	0.21378067
29	0x3f7a14eb	0.9768817
30	0x3dcc7576	0.099833414
31	0x3f7eb898	0.9950042
32	0x3d3e0d1e	0.04639923
33	0x3f7fb96a	0.99892294
34	0x3cb07a47	0.021542681
35	0x3f7ff0ca	0.9997679
36	0x3c23d657	0.009999833
37	0x3f7ffcb9	0.99995
38	0x3b981857	0.0046415734
39	0x3f7fff4b	0.9999892
40	0x3b0d3164	0.0021544332
41	0x3f7fffd9	0.9999977
42	0x3a83126d	0.0009999998
43	0x3f7ffff8	0.9999995
44	0x39f35a5c	0.00046415895
45	0x3f7ffffe	0.9999999
46	0x3961e8ab	0.00021544348
47	0x3f800000	1.0
48	0x3f68c7b7	0.9092974
49	0xbed51133	-0.41614684
50	0x3f4cf4fb	0.8006131
51	0x3f1963f8	0.59918165
52	0x3ed5d9be	0.41767687
53	0x3f6899b9	0.9085956
54	0x3e4b6ff8	0.19866931
55	0x3f7ae5a5	0.9800666
56	0x3dbdd8b7	0.09269851
57	0x3f7ee5d1	0.9956942
58	0x3d306fcb	0.043075364
59	0x3f7fc32c	0.99907184
60	0x3ca3d43e	0.019998666
61	0x3f7ff2e5	0.9998
62	0x3c1817ec	0.009283047
63	0x3f7ffd2d	0.9999569
64	0x3b8d314e	0.004308856
65	0x3f7fff64	0.9999907
66	0x3b031268	0.0019999985
67	0x3f7fffdf	0.99999803
68	0x3a735a5b	0.00092831784
69	0x3f7ffff9	0.9999996
70	0x39e1e8ab	0.00043088695
71	0x3f7fffff	0.99999994
72	0x3e1081c3	0.14112
73	0xbf7d7026	-0.9899925
74	0x3f7bf0ce	0.98414314
75	0x3e35a216	0.17737612
76	0x3f1a2dc8	0.60226107
77	0x3f4c5d56	0.7982992
78	0x3e974e6c	0.2955202
79	0x3f7490ef	0.9553365
80	0x3e0e2117	0.1387981
81	0x3f7d85a8	0.9903207
82	0x3d8446bd	0.06458805
83	0x3f7f7729	0.997912
84	0x3cf5b91f	0.0299955
85	0x3f7fe283	0.99955004
86	0x3c6422d5	0.01392432
87	0x3f7ff9a6	0.9999031
88	0x3bd3c9bf	0.006463259
89	0x3f7ffea2	0.99997914
90	0x3b449b92	0.0029999954
91	0x3f7fffb5	0.9999955
92	0x3ab683c2	0.0013924765
93	0x3f7ffff0	0.99999905
94	0x3a296e7f	0.00064633036
95	0x3f7ffffd	0.9999998
96	0xbf41bdcf	-0.7568025
97	0xbf275530	-0.6536436
98	0x3f759ce7	0.9594254
99	0xbe905d6c	-0.28196275
100	0x3f424dbe	0.75899875
101	0x3f26adf9	0.6510921
102	0x3ec761d7	0.38941833
103	0x3f6bcaa7	0.921061
104	0x3e3d0773	0.18459873
105	0x3f7b99b2	0.98281395
106	0x3db045df	0.08607077
107	0x3f7f0ccc	0.996289
108	0x3d23cbdb	0.039989334
109	0x3f7fcb94	0.9992001
110	0x3c98163e	0.018565293
111	0x3f7ff4b4	0.9998276
112	0x3c0d30f8	0.008617632
113	0x3f7ffd91	0.99996287
114	0x3b831257	0.003999989
115	0x3f7fff7a	0.999992
116	0x3af35a54	0.0018566349
117	0x3f7fffe3	0.9999983
118	0x3a61e8a9	0.0008617738
119	0x3f7ffffa	0.99999964
120	0xbf757c10	-0.9589243
121	0x3e913c2c	0.2836622
122	0x3f3b500a	0.73169005
123	0xbf2e7fcb	-0.68163747
124	0x3f6171cf	0.88064283
125	0x3ef29363	0.47378072
126	0x3ef57743	0.47942552
127	0x3f60a940	0.87758255
128	0x3e6b8593	0.23000173
129	0x3f7922ff	0.97319025
130	0x3ddc300e	0.10751353
131	0x3f7e8421	0.9942036
132	0x3d4cb6f4	0.049979165
133	0x3f7fae19	0.99875027
134	0x3cbe1a3c	0.023205869
135	0x3f7fee5a	0.9997307
136	0x3c307ce6	0.010771966
137	0x3f7ffc33	0.999942
138	0x3ba3d6dd	0.004999979
139	0x3f7fff2e	0.9999875
140	0x3b181871	0.0023207928
141	0x3f7fffd3	0.9999973
142	0x3a8d3169	0.0010772172
143	0x3f7ffff6	0.9999994
144	0xbe8f0f8c	-0.2794155
145	0x3f75cdb8	0.96017027
146	0x3eb2c0c6	0.349127
147	0xbf6fe42d	-0.93707544
148	0x3f762963	0.961569
149	0x3e8c938f	0.27456328
150	0x3f108c68	0.5646424
151	0x3f534932	0.8253356
152	0x3e8cc0e9	0.2749093
153	0x3f7622e9	0.9614702
154	0x3e040009	0.12890638
155	0x3f7ddd38	0.9916568
156	0x3d759cd1	0.059964005
157	0x3f7f8a12	0.99820054
158	0x3ce41d2b	0.02784594
159	0x3f7fe696	0.9996122
160	0x3c53c89d	0.012926248
161	0x3f7ffa86	0.99991643
162	0x3bc49b58	0.0059999637
163	0x3f7ffed2	0.999982
164	0x3b3683b7	0.0027849504
165	0x3f7fffbf	0.9999961
166	0x3aa96e7d	0.0012926605
167	0x3f7ffff2	0.99999917
168	0x3f283046	0.6569866
169	0x3f40ffbd	0.75390226
170	0xbddbc69f	-0.10731243
171	0xbf7e858d	-0.9942253
172	0x3f7f7f41	0.9980355
173	0x3d804f23	0.06265094
174	0x3f24eb72	0.6442176
175	0x3f43ccb3	0.7648422
176	0x3ea3716a	0.31922466
177	0x3f729b18	0.94767904
178	0x3e19d85d	0.15023942
179	0x3f7d1825	0.98864967
180	0x3d8f3e32	0.06994285
181	0x3f7f5f81	0.997551
182	0x3d050f6e	0.032485418
183	0x3f7fdd69	0.9994722
184	0x3c771415	0.0150804715
185	0x3f7ff88c	0.9998863
186	0x3be55fc5	0.006999942
187	0x3f7ffe65	0.9999755
188	0x3b54eef8	0.003249107
189	0x3f7fffa8	0.99999475
190	0x3ac5ab91	0.0015081038
191	0x3f7fffed	0.99999887
192	0x3f7d4695	0.98935825
193	0xbe14fdf6	-0.14550003
194	0xbf0a81e3	-0.5410444
195	0xbf574b62	-0.840994
196	0x3f7d04e9	0.9883562
197	0xbe1bcf59	-0.15215816
198	0x3f37a4a5	0.717356
199	0x3f325b5f	0.6967067
200	0x3eb9c7cb	0.36285242
201	0x3f6e8d80	0.9318466
202	0x3e2f9e69	0.17150272
203	0x3f7c34ff	0.98518366
204	0x3da3aa50	0.07991469
205	0x3f7f2e65	0.9968017
206	0x3d180f89	0.03712419
207	0x3f7fd2d3	0.9993107
208	0x3c8d2fa1	0.017234625
209	0x3f7ff644	0.99985147
210	0x3c031212	0.007999914
211	0x3f7ffde7	0.999968
212	0x3b735a38	0.0037132632
213	0x3f7fff8c	0.9999931
214	0x3ae1e8a4	0.001723547
215	0x3f7fffe7	0.9999985
216	0x3ed30132	0.4121185
217	0xbf693fd5	-0.91113025
218	0xbf5c3bf1	-0.86028963
219	0xbf02829f	-0.5098056
220	0x3f6ed7af	0.9329786
221	0xbeb84901	-0.35993198
222	0x3f48881c	0.78332686
223	0x3f1f21d5	0.62161
224	0x3ecfb7ba	0.4056986
225	0x3f69fc5c	0.91400695
226	0x3e454f97	0.19268642
227	0x3f7b33e1	0.98126036
228	0x3db8123e	0.089878544
229	0x3f7ef6c2	0.9959527
230	0x3d2b0ecd	0.041762162
231	0x3f7fc6d3	0.99912757
232	0x3c9ed50c	0.019388698
233	0x3f7ff3ae	0.999812
234	0x3c13743a	0.008999879
235	0x3f7ffd59	0.9999595
236	0x3b88e2ba	0.0041774185
237	0x3f7fff6e	0.9999913
238	0x3afe25b6	0.0019389901
239	0x3f7fffe1	0.99999815
240	0xbf0b44f8	-0.5440211
241	0xbf56cd64	-0.8390715
242	0xbf7f5bd1	-0.99749476
243	0xbd90e07e	-0.070740685
244	0x3f559f61	0.8344632
245	0xbf0d1282	-0.55106366
246	0x3f576aa4	0.84147096
247	0x3f0a5141	0.54030234
248	0x3ee5351e	0.44767088
249	0x3f64ea30	0.8941984
250	0x3e5ae953	0.21378069
251	0x3f7a14eb	0.9768817
252	0x3dcc7576	0.099833414
253	0x3f7eb898	0.9950042
254	0x3d3e0d21	0.04639924
255	0x3f7fb96a	0.99892294

r_cell.w_qs.weight f4 [24, 24]
0	0xbdd1d942	-0.10246517
1	0xbf1ed246	-0.620396
2	0xbde59238	-0.1120953
3	0x3e174b72	0.14774874
4	0xbd11be86	-0.035582088
5	0xbf6b3295	-0.9187406
6	0xbd0ae7a4	-0.033912316
7	0x3e09a815	0.13443024
8	0xbe8b4d19	-0.27207258
9	0xbe33ad24	-0.17546517
10	0xbf071499	-0.52765805
11	0xbe4da1b3	-0.20081215
12	0xbef18681	-0.4717293
13	0xbe64c5a9	-0.22341026
14	0xbeefd93a	-0.46845418
15	0xbf4c1d67	-0.79732364
16	0xbe1fea56	-0.15616736
17	0x3e27e8b4	0.16397363
18	0xbe7167da	-0.23574772
19	0x3e15c840	0.1462717
20	0xbd11f909	-0.03563789
21	0x3e1a5263	0.1507049
22	0xbf070843	-0.5274698
23	0x3c78c068	0.015182592
24	0xbee0489c	-0.43805397
25	0xbe96b902	-0.29438025
26	0xbcf28261	-0.029603185
27	0x3f34e5db	0.7066323
28	0x3ef4ca2f	0.47810504
29	0x3f411d45	0.75435287
30	0x3efa3c66	0.48874205
31	0xbf02dfbc	-0.5112264
32	0x3dab4f01	0.08364678
33	0x3e2c52bf	0.1682844
34	0x3e0377a8	0.12838614
35	0x3f10bf35	0.5654176
36	0xbd451930	-0.048119724
37	0x3f0070df	0.5017223
38	0xbe56d3c4	-0.2097922
39	0xbed6cfa2	-0.41955286
40	0xbd5a4c42	-0.05329538
41	0x3f49313c	0.7859075
42	0x3d2f1a2d	0.042749573
43	0x3f6e85f0	0.9317312
44	0xbe4c38af	-0.19943498
45	0xbf553863	-0.83289164
46	0xbf0d8346	-0.5527843
47	0xbc56dee2	-0.013114663
48	0xbeb0785c	-0.34466827
49	0xbd1366b3	-0.035986613
50	0xbf3e1f77	-0.7426676
51	0xbea047b1	-0.31304696
52	0xbeb00ed9	-0.34386328
53	0xbef672bf	-0.4813442
54	0xbf3ec80d	-0.74524003
55	0x3c43bbb0	0.011946604
56	0x3f9e36b4	1.2360444
57	0xbe539912	-0.2066386
58	0x3d998946	0.07496886
59	0xbde60c46	-0.1123281
60	0xbe808a27	-0.25105402
61	0xbe27be22	-0.16381124
62	0x3b31836e	0.0027086395
63	0xbe06e46b	-0.13173072
64	0x3e1e803a	0.15478602
65	0x3c19cf9e	0.009387879
66	0x3e33f535	0.17574008
67	0xbf13e9d1	-0.5777865
68	0xbed2bd75	-0.4116017
69	0xbe9f970b	-0.31169924
70	0xbe3d3fbd	-0.18481345
71	0xbd17e722	-0.03708566
72	0xbeb344ca	-0.3501342
73	0x3cd49b23	0.025952881
74	0xbdc9c63a	-0.09852262
75	0xbe343d1b	-0.17601435
76	0x3e2607cc	0.16213912
77	0x3e7814ea	0.24226728
78	0xbd90f6f4	-0.070783526
79	0x3f413c4d	0.75482637
80	0x3e83c794	0.25738204
81	0x3cb6f9b7	0.02233587
82	0xbf32133a	-0.6956059
83	0x3c94f585	0.01818348
84	0xbe982482	-0.29715353
85	0x3db306de	0.08741544
86	0xbd20a452	-0.039219208
87	0x3c52acce	0.012858583
88	0x3eb599a3	0.35468778
89	0xbf0c48a9	-0.5479837
90	0x3f11d152	0.5696002
91	0x3c9ae3d0	0.018907458
92	0xbe06a039	-0.13147058
93	0xbedd973e	-0.4327945
94	0xbdf9abff	-0.12191009
95	0x3e1bd23b	0.15216915
96	0x3f443b5a	0.76653063
97	0x3f190000	0.59765625
98	0x3e2b7f51	0.16747786
99	0xbea5badb	-0.32369122
100	0x3df5de53	0.120052956
101	0x3e3771cf	0.17914508
102	0x3de28b58	0.11061734
103	0x3d9c3527	0.076273255
104	0x3e4f9420	0.20271349
105	0xbf441c52	-0.76605713
106	0xbec78199	-0.38966063
107	0x3db6e0e7	0.089296155
108	0x3ef54f33	0.47911987
109	0xbf21d6da	-0.6321846
110	0xbe849e92	-0.2590223
111	0x3e0c41ec	0.13697022
112	0xbd1109f7	-0.035409894
113	0xbedc0fe2	-0.42980868
114	0xbcedb7db	-0.029018333
115	0xbc95688e	-0.018238332
116	0xbf336518	-0.7007613
117	0x3e8a4cc0	0.2701168
118	0xbf1adfad	-0.6049755
119	0xbdc10c38	-0.09426159
120	0xbf242888	-0.64124346
121	0xbe4bd32c	-0.19904774
122	0x3ccd8a67	0.02509041
123	0xbefd5baf	-0.49484012
124	0x3ed54e93	0.4166151
125	0x3c9daca0	0.019247353
126	0x3e1e2392	0.15443256
127	0xbf40c5b1	-0.75301653
128	0x3f015319	0.5051742
129	0x3e068f6d	0.1314065
130	0xbe6ef8dc	-0.2333712
131	0x3f374674	0.7159188
132	0xbeac5423	-0.3365794
133	0x3ef607d1	0.48052838
134	0x3e01476f	0.12624906
135	0x3d45e4d9	0.04831395
136	0x3eb81334	0.3595215
137	0xbef563f3	-0.47927818
138	0xbe9a1eb4	-0.3010155
139	0xbf11b025	-0.569094
140	0xbec604c1	-0.38675502
141	0xbe4b8fce	-0.19879076
142	0x3e978623	0.29594526
143	0x3df0af30	0.11752164
144	0xbd85b351	-0.065283425
145	0x3e025379	0.12727155
146	0xbec8d531	-0.39225152
147	0xbe8b02ea	-0.2715066
148	0xbd5f74d8	-0.05455479
149	0x3e40d3d3	0.18830805
150	0xbf19a9cd	-0.6002472
151	0xbf48b76a	-0.7840487
152	0x3deaed2b	0.114710175
153	0xbe3960e2	-0.18103364
154	0x3c9ff98d	0.019528175
155	0x3e9f51bc	0.31117046
156	0x3e1b63c1	0.15174772
157	0xbe6acf65	-0.22930677
158	0x3e88cc57	0.267184
159	0x3d39cbc8	0.045360357
160	0x3eace97f	0.33771893
161	0x3e8bd05f	0.27307412
162	0xbeb70b82	-0.35750967
163	0xbe4fa801	-0.20278932
164	0x3e878edd	0.26476184
165	0x3f1c3201	0.610138
166	0x3eae5005	0.34045425
167	0xbe7c8f8a	-0.24664131
168	0x3e279ea3	0.16369109
169	0xbe18e432	-0.149308
170	0x3e337599	0.17525329
171	0x3d9bf8de	0.07615827
172	0xbedf5540	-0.43619728
173	0x3ed457c4	0.4147321
174	0xbd7cc670	-0.061712682
175	0x3f18e19c	0.5971925
176	0x3dbbff0f	0.09179508
177	0x3d1756b6	0.03694793
178	0x3f83481b	1.025638
179	0x3e2e9820	0.17050219
180	0x3e9cd364	0.30630028
181	0xbe86d9e4	-0.26338112
182	0x3e2117cd	0.15731736
183	0x3d24ad35	0.040204246
184	0x3ed841ea	0.42237788
185	0xbd954673	-0.07288828
186	0x3f1392be	0.57645786
187	0x3ea6cc13	0.3257757
188	0xbd8ce5db	-0.06879779
189	0xbdbe59bb	-0.092944585
190	0xbed899ba	-0.42304784
191	0x3f1248fd	0.5714262
192	0x3d981540	0.07425928
193	0xbf39c496	-0.7256559
194	0x3e819d9c	0.2531556
195	0xbe977169	-0.29578713
196	0xbe2f6c01	-0.17131044
197	0xbedc1612	-0.42985588
198	0x3de68d1f	0.112573855
199	0xbf0fca0f	-0.5616769
200	0x3f019e19	0.5063186
201	0xbe5aa934	-0.21353608
202	0x3cb1fcc9	0.021726983
203	0xbf198594	-0.5996945
204	0xbeec285f	-0.4612455
205	0xbd99b92f	-0.07506024
206	0xbead73a3	-0.33877286
207	0xbc844b10	-0.016149074
208	0xbe0dd7f4	-0.13851911
209	0xbf5cffa2	-0.86327565
210	0x3e67de3b	0.22643368
211	0xbedd9646	-0.43278712
212	0xbcbf35b0	-0.02334103
213	0xbda27678	-0.07932752
214	0x3dc30865	0.095230855
215	0xbe4330df	-0.19061612
216	0x3f1b2226	0.6059898
217	0x3e11c940	0.14236927
218	0x3e153fb1	0.14575078
219	0xbe8467e8	-0.25860524
220	0x3d9ea5dc	0.07746479
221	0x3e88bb35	0.26705328
222	0xbf0cbab9	-0.54972416
223	0xbc904cd9	-0.017614769
224	0x3e049fa6	0.12951526
225	0xbdc24508	-0.09485823
226	0x3f228961	0.63490874
227	0xbe8c9ddc	-0.27464187
228	0xbd5a9df3	-0.05337329
229	0xbea8ee23	-0.32994184
230	0xbc3e2ac2	-0.011606874
231	0xbe1357c2	-0.14388946
232	0x3e9a8945	0.30182853
233	0x3cda10ca	0.026619334
234	0xbe3a71d2	-0.18207482
235	0xbe10115b	-0.1406912
236	0xbedc1c7e	-0.42990488
237	0x3e08f2a6	0.13373813
238	0xbe17996e	-0.14804623
239	0x3e627940	0.22116566
240	0x3f023e59	0.50876385
241	0xbe9fb303	-0.31191263
242	0xbf1d455f	-0.61433977
243	0x3b29a26e	0.002588417
244	0xbf750b10	-0.95720005
245	0x3ea1770b	0.31536135
246	0x3ce5dce7	0.028059436
247	0xbe9539a1	-0.2914553
248	0xbdbda9ae	-0.092608795
249	0xbe648fb2	-0.2232044
250	0x3ef4a812	0.47784477
251	0x3edd91b4	0.43275225
252	0x3ea83f87	0.32860968
253	0xbf077cf6	-0.5292505
254	0x3ef6d691	0.48210576
255	0xbf033ea0	-0.51267433

r_cell.w_qs.bias f4 [24]
0	0xbd905916	-0.07048242
1	0x3e6d6014	0.23181182
2	0x3d0f8aa0	0.035044312
3	0xbe4876cd	-0.19576569
4	0xbe897d8e	-0.26853603
5	0xbe8846be	-0.26616472
6	0xbe4e9a2c	-0.20176
7	0x3e86798c	0.26264608
8	0xbf220b7b	-0.6329877
9	0xbd52fff7	-0.05151364
10	0xbe0efd91	-0.13963915
11	0xbed8bf37	-0.42333385
12	0xbd3ffaeb	-0.046870153
13	0x3e4b12d7	0.19831406
14	0x3d099e8e	0.033598475
15	0x3d4d7e32	0.050169177
16	0x3ec924d9	0.39285925
17	0xbeeb90a0	-0.46008778
18	0xbb8b5e59	-0.0042531905
19	0x3c935711	0.017985852
20	0x3c4426dd	0.011972156
21	0x3e5a4f2a	0.21319261
22	0x3ec74744	0.3892156
23	0x3f2e8e4e	0.6818589

r_cell.w_ks.weight f4 [24, 24]
0	0x3e02f3e9	0.12788357
1	0x3e1c0038	0.15234458
2	0x3e95df70	0.29272032
3	0xbd9b4d51	-0.07583106
4	0xbdbe05e6	-0.09278469
5	0x3ef1931c	0.47182548
6	0xbece0bb5	-0.40243307
7	0xbdae4008	-0.08508307
8	0x3e80de6e	0.251697
9	0xbe44e6f7	-0.19228731
10	0x3cb8517a	0.022499789
11	0x3f0a5620	0.54037666
12	0x3eb908c6	0.36139506
13	0x3f5299ad	0.8226574
14	0x3ee0a61d	0.43876734
15	0xbf9a6776	-1.2062824
16	0xbd046b0c	-0.03232865
17	0xbe6a6c7c	-0.22892946
18	0xbe1d954d	-0.15388985
19	0xbe8d0786	-0.27544802
20	0x3e0d2342	0.13782981
21	0x3c7a76fc	0.015287157
22	0x3f6dbcfe	0.92866504
23	0x3ef74b3c	0.48299587
24	0xbd25fa6f	-0.040522035
25	0xbe8e6b16	-0.27816075
26	0x3f1d2e8f	0.6139917
27	0x3dbaeee6	0.091275975
28	0xbecd8894	-0.40143263
29	0xbe487ea4	-0.1957956
30	0x3f4326ca	0.7623106
31	0xbef4966f	-0.47771022
32	0xbe498a8a	-0.19681755
33	0x3ec94f3b	0.3931826
34	0x3e491cb1	0.19639851
35	0x3e1e5740	0.1546297
36	0xbd75e931	-0.06003684
37	0x3e55bcaa	0.20872751
38	0x3e8b21fe	0.2717437
39	0xbd8f7e85	-0.070065536
40	0xbf39a988	-0.7252431
41	0xbefe69f1	-0.49690202
42	0xbf2e666b	-0.6812503
43	0x3ed9a0a4	0.42505372
44	0xbedc47e8	-0.4302361
45	0xbf05eb56	-0.5231222
46	0xbe04b133	-0.12958221
47	0xbe7cba13	-0.24680357
48	0x3f0db9ad	0.55361444
49	0x3ee9516b	0.4556993
50	0xbd1831dd	-0.03715693
51	0xbb73cd34	-0.0037201168
52	0xbef9667b	-0.48711
53	0x3e1f18a0	0.15536737
54	0xbe72d2d9	-0.23713244
55	0xbe97d5ff	-0.29655454
56	0x3d9fcd55	0.07802836
57	0x3f143ec9	0.579083
58	0xbdb82e17	-0.08993166
59	0xbe1ab662	-0.15108636
60	0x3e8d2b2b	0.27571997
61	0xbf4bba15	-0.79580814
62	0xbe1ff44d	-0.15620537
63	0xbe4de350	-0.20106244
64	0xbece9091	-0.4034467
65	0xbe0d0b99	-0.13773955
66	0xbdd1e7ce	-0.10249291
67	0xbf10b25b	-0.5652215
68	0x3df42a07	0.119220786
69	0x3eba6112	0.36402184
70	0x3f3e871f	0.7442493
71	0x3f4b0604	0.79306054
72	0x3eb59af8	0.35469794
73	0x3f0a5f97	0.5405211
74	0x3d8699e8	0.06572324
75	0x3dbbb53f	0.09165429
76	0x3f215e11	0.6303416
77	0x3f00a455	0.5025075
78	0xbf1c2a67	-0.610022
79	0xbe60ad0c	-0.21941012
80	0x3f0572d5	0.52128345
81	0xbef663d9	-0.48123053
82	0x3e809c67	0.25119326
83	0xbe5117e1	-0.20419265
84	0x3abc2471	0.0014354122
85	0xbbfa078f	-0.0076302956
86	0xbf0c4dd7	-0.54806274
87	0xbd317432	-0.043323703
88	0x3ec54146	0.38526362
89	0x3eb6faff	0.3573837
90	0x3e0d13ec	0.13777131
91	0xbc5297be	-0.012853561
92	0xbe06c66b	-0.13161628
93	0xbeae30a7	-0.34021494
94	0x3ef0f9fb	0.4706572
95	0x3f11bf88	0.5693288
96	0x3f3002cf	0.68754286
97	0x3f47a4b0	0.7798567
98	0x3db1ebbc	0.08687541
99	0xbeb11610	-0.34587145
100	0xbeb527b6	-0.3538186
101	0xbf23414a	-0.637715
102	0x3f13d12e	0.5774106
103	0x3dc42dec	0.095790714
104	0x3f25fccf	0.6483888
105	0x3e25b57b	0.1618251
106	0x3dac30be	0.08407734
107	0x3d784a0e	0.0606175
108	0x3e80ddae	0.25169128
109	0xbe957ddd	-0.2919759
110	0xbe2f0253	-0.1709073
111	0x3ef46255	0.4773127
112	0x3ec33492	0.38126045
113	0xbeeb898d	-0.4600338
114	0x3eecc508	0.46244073
115	0xbe97781b	-0.2958382
116	0x3ea6b72d	0.32561627
117	0x3e34840a	0.17628494
118	0x3e69e087	0.22839557
119	0x3ecc900f	0.39953658
120	0xbd8e1652	-0.06937851
121	0x3f117be4	0.5682967
122	0xbef17877	-0.4716222
123	0xbdcf0366	-0.1010807
124	0x3e65e064	0.2244888
125	0xbeab2ad0	-0.334311
126	0xbe14c15b	-0.14526884
127	0x3e2c6661	0.1683593
128	0x3d908840	0.070572376
129	0x3eb792c1	0.35854152
130	0x3ec73d74	0.38914073
131	0x3f096f55	0.53685504
132	0x3edcec35	0.43148962
133	0xbbaadd06	-0.0052143363
134	0xbed9f324	-0.42568314
135	0x3f1e2bf3	0.6178581
136	0x3ee5a9e5	0.44856182
137	0x3ea0b4c6	0.3138792
138	0xbf437eea	-0.7636553
139	0xbf0e88db	-0.55677575
140	0xbde9ec48	-0.1142202
141	0x3e9232bf	0.2855434
142	0x3c993138	0.018700227
143	0x3e7441ba	0.23853198
144	0x3f08f6fa	0.53501856
145	0x3e7aab02	0.24479297
146	0x3d457a40	0.04821229
147	0xbe95ebd9	-0.292815
148	0xbd9b846f	-0.07593619
149	0xbeeb127b	-0.45912537
150	0x3d515cdf	0.05111396
151	0xbded152d	-0.115763046
152	0xbdf43319	-0.119238086
153	0xbeb4b7ab	-0.35296378
154	0x3eebd754	0.4606272
155	0x3ebc0e6c	0.36729753
156	0xbe912ba9	-0.28353623
157	0xbe69cfc1	-0.22833158
158	0x3b0cd497	0.0021489018
159	0xbd443d22	-0.047909863
160	0xbf2acf5b	-0.6672265
161	0xbf095077	-0.53638405
162	0xbbc78a38	-0.006089475
163	0x3e4c5807	0.19955455
164	0x3fc24c76	1.5179584
165	0x3ee77caf	0.45212314
166	0x3f0933bd	0.5359457
167	0xbeeb409a	-0.45947725
168	0xbe92eb2f	-0.28695056
169	0xbe85afb9	-0.26110628
170	0x3e961851	0.29315427
171	0xbed51b59	-0.41622427
172	0xbec4a087	-0.38403723
173	0xbe814358	-0.25246692
174	0x3d920ec3	0.07131722
175	0x3d52e735	0.051490027
176	0x3eed7d1e	0.4638452
177	0x3e7b5f06	0.24547967
178	0x3dcf6ff5	0.10128776
179	0xbeb746d8	-0.35796237
180	0xbe8bb7e9	-0.2728875
181	0x3d998092	0.07495226
182	0xbf1b6296	-0.60697305
183	0x3e1c8670	0.15285659
184	0xbf1200ac	-0.57032275
185	0xbf16b69a	-0.5887238
186	0xbeca2ac1	-0.39485744
187	0x3df6d2c5	0.1205192
188	0xbf607cf3	-0.8769066
189	0xbfaf5665	-1.369824
190	0xbf0b3a09	-0.5438543
191	0x3d1d1114	0.038346365
192	0x3b441db2	0.0029924926
193	0xbe2d6afa	-0.1693534
194	0xbb846c06	-0.0040411977
195	0xbe850824	-0.25982773
196	0xbea5cb3c	-0.32381618
197	0xbe6da766	-0.23208389
198	0xbeae03ed	-0.3398737
199	0xbe0a3ade	-0.13499019
200	0xbe2d9f7f	-0.16955374
201	0xbee22b30	-0.44173574
202	0xbe45efef	-0.19329809
203	0x3d30d86d	0.04317515
204	0xbdb8b174	-0.090182215
205	0x3cefa015	0.029251138
206	0xbe97f8a8	-0.29681897
207	0xbec40293	-0.38283214
208	0x3f4fb925	0.81141883
209	0x3cc904f6	0.024538498
210	0x3f33c630	0.70224285
211	0xbf59ad0c	-0.85029674
212	0xbe2e2298	-0.17005384
213	0x3e88d755	0.26726785
214	0x3b789785	0.003793211
215	0xbe85d0cf	-0.2613587
216	0x3eac3f60	0.336421
217	0x3e04a946	0.12955198
218	0xbe839db8	-0.25706267
219	0xbedae8fb	-0.42755875
220	0x3f25e01f	0.64795107
221	0xbed50c66	-0.41611022
222	0xbf02ac74	-0.5104439
223	0xbd8eda1a	-0.06975193
224	0x3f65715a	0.89626086
225	0x3dd3bde0	0.1033895
226	0xbf02cc17	-0.51092666
227	0x3e3f59ae	0.18686554
228	0xba9011da	-0.0010991648
229	0x3d7b0ccb	0.061291497
230	0x3cbca3b0	0.023027271
231	0xbe974b76	-0.2954976
232	0x3e84ceb5	0.25938955
233	0x3e3079c6	0.17233953
234	0x3f3b8b89	0.7325979
235	0x3ce54ba8	0.027990177
236	0x3f1be04b	0.6088912
237	0x3ed3241c	0.41238487
238	0x3e8ec33b	0.27883324
239	0x3eccba7c	0.39986026
240	0x3d3ad3ff	0.04561233
241	0x3e9b3c38	0.3031938
242	0x3f0dd180	0.55397797
243	0xbf262311	-0.6489726
244	0x3d9d20c4	0.07672265
245	0xbf0bd095	-0.54615146
246	0x3f27501e	0.65356624
247	0x3db2cf40	0.08730936
248	0xbe88d937	-0.26728222
249	0xbe858919	-0.2608116
250	0x3e517ec8	0.2045852
251	0xbf02db91	-0.5111628
252	0xbe89944b	-0.2687095
253	0x3db3e611	0.08784116
254	0xbf9b5ea5	-1.2138258
255	0xbecbf206	-0.39833087

r_cell.w_ks.bias f4 [24]
0	0x3e27ca3e	0.16385743
1	0x3e73d647	0.23812209
2	0xbb897218	-0.0041945092
3	0x3e1e770b	0.15475099
4	0x3e1cc13f	0.15308093
5	0x3ed775cf	0.42082068
6	0xbe0769a7	-0.13223897
7	0x3cb8366c	0.022486888
8	0x3e37d4a9	0.17952217
9	0xbd884be8	-0.06655103
10	0x3e04b78e	0.12960646
11	0xbbd49bf6	-0.0064883186
12	0xbbcf6774	-0.0063294712
13	0x3e64dab0	0.22349048
14	0x3d971160	0.07376361
15	0xbd09a98e	-0.033608966
16	0xbe1cae03	-0.15300755
17	0x3c823eb4	0.01589904
18	0x3dcdea72	0.100544825
19	0x3dc552b4	0.09634915
20	0x3d270925	0.040780205
21	0xbe4c99d8	-0.19980562
22	0x3e10489e	0.14090201
23	0xbc1366d4	-0.008996684

r_cell.w_vs.weight f4 [24, 24]
0	0xbd2f518d	-0.042802382
1	0x3b04606e	0.0020199078
2	0xbef2680e	-0.47345012
3	0x3da6f79b	0.08152696
4	0xbe2f1162	-0.17096475
5	0x3e1fbc97	0.15599285
6	0x3e879251	0.26478818
7	0x3df76b9f	0.12081074
8	0x3e131502	0.14363483
9	0x3f077c2d	0.5292385
10	0x3e05ed16	0.13078722
11	0xbe853eb0	-0.2602439
12	0xbe945550	-0.28971338
13	0x3e8fe8e3	0.28107366
14	0xbca439d7	-0.020047111
15	0xbe958880	-0.29205704
16	0xbe254c51	-0.16142394
17	0xbd54d745	-0.05196311
18	0xbe96382a	-0.29339725
19	0x3eb88379	0.36037806
20	0xbda00785	-0.07813934
21	0x3e4961b6	0.1966618
22	0x3e92e449	0.28689793
23	0x3f1e4685	0.61826354
24	0xbde2a01f	-0.11065697
25	0x3d2a46a1	0.041571263
26	0xbe0a0885	-0.13479812
27	0x3e90b510	0.2826314
28	0xbf02d059	-0.51099163
29	0x3e003311	0.1251948
30	0xbec473de	-0.3836965
31	0x3f2e7b96	0.6815733
32	0x3d5b0a9d	0.05347692
33	0xbe7629d5	-0.24039395
34	0x3e00460b	0.1252672
35	0xbe16e65a	-0.1473631
36	0x3e107cfe	0.1411018
37	0x3f018c00	0.5060425
38	0xbdcf4618	-0.10120791
39	0x3e4bd0a4	0.19903809
40	0x3eb9ed37	0.36313793
41	0x3dcf7498	0.1012966
42	0xbeb0ac71	-0.34506562
43	0x3cc33a5e	0.023831543
44	0x3e39b80d	0.18136616
45	0x3ea68920	0.32526493
46	0xbec9cdb3	-0.3941475
47	0xbe089d6a	-0.13341299
48	0xbe11bd45	-0.14232357
49	0xbd1e13bd	-0.038593043
50	0x3f2647dd	0.64953405
51	0x3e15f504	0.14644247
52	0x3dd2848c	0.102791876
53	0xbf3443ef	-0.7041616
54	0x3c0a0405	0.00842381
55	0xbdd8a3db	-0.10578128
56	0x3c8944ce	0.016756441
57	0x3e6d03c2	0.23145965
58	0x3d97a24c	0.074040025
59	0x3dcaa187	0.0989409
60	0x3e695d76	0.22789559
61	0xbde25868	-0.110520184
62	0xbf381dfd	-0.7192076
63	0xbeb4bfb0	-0.35302496
64	0xbf03faf8	-0.5155482
65	0xbe0820fb	-0.13293831
66	0xbe0ce8d5	-0.13760693
67	0xbc7e32b4	-0.015515018
68	0xbda487f3	-0.08033743
69	0xbe03ee02	-0.12883762
70	0xbd8929df	-0.066974394
71	0xbe98cecd	-0.29845276
72	0x3e6c0038	0.23046958
73	0xbd46a19a	-0.04849396
74	0xbda11855	-0.07865969
75	0xbe2ea5e0	-0.17055464
76	0xbe35ad48	-0.17741883
77	0x3e9680aa	0.29395038
78	0xbdabe915	-0.08394066
79	0xbe836d55	-0.2566935
80	0x3efe13da	0.4962452
81	0xbd08ccd0	-0.03339845
82	0x3dea4716	0.1143934
83	0x3f0806c8	0.5313535
84	0x3e2ebd99	0.17064513
85	0xbe97584a	-0.29559547
86	0x3ea7d036	0.3277604
87	0xbe8bd965	-0.27314296
88	0x3e32b45c	0.17451614
89	0xbec86cd6	-0.39145535
90	0x3d187292	0.037218638
91	0x3e623b6f	0.22092985
92	0xbe056222	-0.13025716
93	0xbe862a9d	-0.26204386
94	0x3e210179	0.15723218
95	0xbd4d7f2c	-0.05017011
96	0xbf063afe	-0.52433765
97	0xbc381fa0	-0.011238009
98	0xbe28e815	-0.16494782
99	0x3e200003	0.15625004
100	0xbd6790a4	-0.056534424
101	0xbf38280c	-0.71936107
102	0x3e5b2b97	0.21403347
103	0x3e6d6b1a	0.23185387
104	0xbe29c73e	-0.16579911
105	0xbf2ae825	-0.66760474
106	0xbe138ffd	-0.14410396
107	0xbf043e7e	-0.51657856
108	0xbb98c40d	-0.004662043
109	0x3e177a25	0.14792688
110	0x3d5c4a4e	0.0537818
111	0xbf04b122	-0.51832783
112	0xbec975ad	-0.39347592
113	0xbef1d0b7	-0.4722955
114	0x3e97493a	0.29548055
115	0xbe245513	-0.16048078
116	0xbc94546a	-0.018106658
117	0xbeb936b5	-0.3617455
118	0x3e8f71bc	0.2801646
119	0x3c7f4009	0.015579232
120	0xbcb3ff7a	-0.021972407
121	0x3d9c4ddf	0.0763204
122	0x3efff908	0.49994683
123	0x3eace808	0.33770776
124	0x3f0885b8	0.5332904
125	0x3f74499c	0.9542482
126	0xbe33281b	-0.17495768
127	0xbcac7be4	-0.02105517
128	0x3f0a38b3	0.53992766
129	0x3e2bf7cf	0.1679375
130	0x3ea23c0e	0.31686443
131	0x3cdacd4e	0.026709225
132	0x3c3526cc	0.011056613
133	0x3ecec335	0.40383306
134	0xbcf6ad5f	-0.030111967
135	0x3ed6d846	0.4196188
136	0x3e0a2755	0.13491566
137	0x3f2e76d3	0.6815006
138	0x3d638972	0.055551
139	0xbec73c2a	-0.3891309
140	0x3f4e0a54	0.8048451
141	0x3db286da	0.08717127
142	0xbe19d386	-0.15022096
143	0x3d6742ad	0.05646007
144	0xbd8152e4	-0.06314638
145	0x3e8f82bf	0.2802944
146	0x3c00e301	0.007866622
147	0xbe670c4a	-0.22563282
148	0x3cc0e645	0.023547301
149	0x3e19a817	0.15005527
150	0xbde33ccc	-0.110955805
151	0xbeb23fc0	-0.34814262
152	0xbedf2380	-0.43581772
153	0x3e93633f	0.28786656
154	0x3e2020bd	0.15637489
155	0x3f18c9b9	0.59682804
156	0xbe473a8d	-0.19455929
157	0xbdebb4c8	-0.11509091
158	0x3e322b79	0.17399396
159	0xbe0dbd47	-0.13841735
160	0xbe7e850d	-0.24855442
161	0xbf1e5fc3	-0.6186487
162	0xbe7b78ce	-0.24557802
163	0xbedf2da3	-0.43589506
164	0xbecedea6	-0.40404242
165	0xbe4a692d	-0.19766684
166	0xbf228eae	-0.6349896
167	0x3e571a23	0.21006064
168	0xbea72dd0	-0.3265214
169	0xbeaabd43	-0.3334752
170	0xbf2daa7a	-0.6783825
171	0x3d277b5b	0.040889125
172	0xbe1f466e	-0.1555421
173	0x3f2cf908	0.6756749
174	0x3c429bff	0.011878013
175	0xbecc75d7	-0.39933655
176	0xbd9355da	-0.07194109
177	0x3e4339e2	0.1906505
178	0xbea92577	-0.33036396
179	0x3ecc2f3f	0.39879796
180	0xbcaafb9b	-0.020871928
181	0xbf133764	-0.57506394
182	0x3c6ea457	0.014565549
183	0xbecaaeeb	-0.39586577
184	0xbe45ef38	-0.19329536
185	0xbe7c4aba	-0.24637881
186	0x3ea91b41	0.33028606
187	0xbefca666	-0.49345702
188	0xbddd6f8b	-0.10812291
189	0xbf2561ca	-0.6460234
190	0xbe6f40dc	-0.23364586
191	0x3bf27c44	0.0074000675
192	0xbee6112c	-0.44934976
193	0xbe7168d8	-0.23575151
194	0x3cd3a2a6	0.025834393
195	0x3e92c8e3	0.2866889
196	0xbe8d5901	-0.27606967
197	0xbe91a8cc	-0.28449094
198	0xbd180fc0	-0.037124395
199	0x3dc8f1a4	0.09811714
200	0x3e58bbe7	0.21165429
201	0xbe2a9040	-0.1665659
202	0xbbc37f4c	-0.0059661027
203	0xbee457a4	-0.44598114
204	0x3cfb378b	0.030666133
205	0xbe73aac6	-0.23795614
206	0xbeaab0df	-0.33338067
207	0xbe805b82	-0.25069815
208	0x3e8a15e2	0.2696982
209	0x3dc7ab86	0.097495124
210	0xbda40c45	-0.08010153
211	0x3e7935ff	0.24337004
212	0xbe467b03	-0.19382863
213	0x3f1a2cb5	0.6022447
214	0xbd1f1594	-0.038838938
215	0xbeab51f5	-0.33460966
216	0xbe0c2706	-0.13686761
217	0x3f31b140	0.6941109
218	0x3de7ba09	0.1131478
219	0x3e49032c	0.19630116
220	0x3eae2efc	0.3402022
221	0xbdfa7222	-0.122288
222	0x3daad7bd	0.0834193
223	0x3e76e2b8	0.24109924
224	0x3d55e368	0.052218825
225	0xbecdc0ed	-0.40186253
226	0x3c5214b0	0.012822315
227	0xbe6faed1	-0.23406531
228	0x3eb9d4c3	0.36295137
229	0xbe271f50	-0.16320539
230	0x3ee20988	0.44147897
231	0x3e3dadf5	0.1852339
232	0xbe2faf91	-0.17156817
233	0x3e0cc80f	0.13748191
234	0x3e367597	0.17818294
235	0xbf008675	-0.50205165
236	0xbe8fe8ab	-0.281072
237	0x3e9fc553	0.31205234
238	0xbe8cc162	-0.2749129
239	0x3d23ad7c	0.03996037
240	0x3e5d9bb9	0.21641435
241	0x3e9d49e0	0.30720425
242	0xbe882505	-0.26590744
243	0x3eb6b1b8	0.35682464
244	0xbc64d946	-0.013967818
245	0xbece3568	-0.4027512
246	0xbd587eed	-0.05285542
247	0xbe32fc38	-0.17479026
248	0xbeafac08	-0.34310937
249	0xbe415f71	-0.18884064
250	0x3d428a45	0.047495145
251	0xbe291e02	-0.16515353
252	0x3e926aab	0.28597006
253	0xbea5a420	-0.3235178
254	0x3e128207	0.14307414
255	0x3f27dcfc	0.6557157

r_cell.w_vs.bias f4 [24]
0	0x3d7bcd1f	0.061474916
1	0xbe87b9b4	-0.26508868
2	0xbd05e27b	-0.03268669
3	0x3e94624e	0.2898125
4	0x3e1b0ba3	0.15141158
5	0xbd4f27ad	-0.050574947
6	0x3d722404	0.05911638
7	0xbd938a3c	-0.072041005
8	0xbe3fdd70	-0.18736815
9	0xbd7e829a	-0.06213627
10	0x3e744c74	0.2385729
11	0x3c141a06	0.009039408
12	0x39db2442	0.0004179795
13	0xbdcb3506	-0.09922223
14	0xbd9afaee	-0.07567392
15	0xbd2defe5	-0.04246511
16	0x3e2edf18	0.17077291
17	0xbcc5be9f	-0.024138747
18	0xbe1ff275	-0.15619834
19	0xbe1a5566	-0.1507164
20	0x3defe547	0.11713653
21	0x3e3148f0	0.1731298
22	0xbe071465	-0.13191374
23	0x3ac53790	0.0015046466

r_cell.layer_norm.weight f4 [24]
0	0x3f77abd5	0.9674657
1	0x3f460b66	0.7736114
2	0x3f6d2199	0.9262939
3	0x3f8d1083	1.1020664
4	0x3f73f713	0.9529888
5	0x3f80a80b	1.0051283
6	0x3fcbe59f	1.592945
7	0x3fd6b474	1.677382
8	0x3f9aa9f1	1.2083112
9	0x3f9962a4	1.1983228
10	0x3f878664	1.0587888
11	0x3faa0b12	1.3284628
12	0x3fa8a832	1.3176329
13	0x3f982968	1.1887636
14	0x3f994ee9	1.1977206
15	0x3f6eef23	0.93333644
16	0x3f9b4f7d	1.2133633
17	0x3f72af11	0.9479838
18	0x3fdab5af	1.7086695
19	0x3fb17f21	1.3866922
20	0x3f866f08	1.0502634
21	0x3f5da82a	0.86584723
22	0x3f9467d9	1.1594192
23	0x3f9b80ef	1.2148722

r_cell.layer_norm.bias f4 [24]
0	0x3d78643f	0.060642477
1	0xbe778081	-0.24170114
2	0xbe1d07b8	-0.15334976
3	0xbd5bc9cf	-0.053659257
4	0x3dd3c9ec	0.10341248
5	0xbd8e6ea8	-0.069547
6	0xbd526b6b	-0.051371973
7	0x3d9f2232	0.07770194
8	0xbd875d7a	-0.06609626
9	0x3d1e2fec	0.03861992
10	0x3e340e01	0.17583467
11	0x3d4cc62f	0.04999369
12	0x3d5a2051	0.053253476
13	0xbc44fb87	-0.012022859
14	0x3e8a90e6	0.27063674
15	0x3e8300d4	0.2558657
16	0xbb19926b	-0.002343322
17	0xbeda2064	-0.42602837
18	0xbde82fee	-0.11337267
19	0xbdd27988	-0.102770865
20	0x3de88906	0.1135426
21	0x3e7537cb	0.23947065
22	0x3ed5012c	0.41602457
23	0xbd9d4aa7	-0.076802544

r_cell.fc.weight f4 [24, 24]
0	0xbed24e18	-0.41075206
1	0xbdfdd64d	-0.1239439
2	0x3e0e2daa	0.13884607
3	0x3e2a6c01	0.16642763
4	0x3dc240bc	0.09485003
5	0x3e3010be	0.17193887
6	0x3df37762	0.11888005
7	0xbdbc12c2	-0.09183265
8	0x3babdf70	0.0052451417
9	0xbdc84373	-0.0977849
10	0xbf099513	-0.53743094
11	0x3ef79878	0.48358512
12	0xbe1a0088	-0.15039265
13	0x3e994a37	0.29939434
14	0x3ea8d3c8	0.32974076
15	0x3cf375e4	0.0297193
16	0xbe3af45a	-0.18257275
17	0xbe6447ad	-0.22292967
18	0xbe8eb96c	-0.2787584
19	0x3e7d9308	0.24763119
20	0xbe05c6b3	-0.13064079
21	0xbdca3e16	-0.09875123
22	0xbe3a1c00	-0.18174744
23	0xbec8a08c	-0.39184988
24	0xbe1558bc	-0.1458463
25	0x3dc49492	0.0959865
26	0xbea005a0	-0.31254292
27	0xbe6fab86	-0.23405275
28	0x3e3dd2d8	0.18537462
29	0x3e552c44	0.20817667
30	0xbf4dfa47	-0.8046002
31	0xbec91c59	-0.3927944
32	0x3f0c1f14	0.5473492
33	0x3e89c704	0.2690965
34	0x3dceff9c	0.10107347
35	0x3ebbf694	0.36711562
36	0xbc24f52b	-0.010068218
37	0x3d2c9a1f	0.04213917
38	0xbe041cfc	-0.12901682
39	0xbf444dfd	-0.766815
40	0x3dcc06f1	0.099622615
41	0xbe6adae8	-0.22935069
42	0xbe8425be	-0.25810045
43	0xbe444c91	-0.19169833
44	0x3f7b2c00	0.98114014
45	0x3e838a9d	0.2569169
46	0x3d3560f5	0.04428192
47	0xbe79aaea	-0.24381605
48	0xbdfed392	-0.124426976
49	0x3e8eb568	0.27872777
50	0xbefa5fcf	-0.4890122
51	0xbeb6f4cc	-0.3573364
52	0x3ed30183	0.4121209
53	0xbd8721ad	-0.0659822
54	0xbed5f8cc	-0.4179138
55	0xbeda768a	-0.42668563
56	0x3e316f7f	0.17327689
57	0x3e1886ba	0.14895144
58	0xbe71dc11	-0.23619105
59	0x3f392d1f	0.72334474
60	0xbec69854	-0.38788092
61	0x3e18259d	0.14858098
62	0x3e48e5ee	0.19618961
63	0x3e9ba9fd	0.30403128
64	0xbd42195d	-0.04738747
65	0xbe56fc50	-0.20994687
66	0xbf028df1	-0.50997835
67	0xbe0072e6	-0.1254383
68	0x3ec87424	0.39151108
69	0x3e722b2f	0.23649286
70	0xbd6b3b9e	-0.057429902
71	0xbdd233f7	-0.10263818
72	0x3ecdc12c	0.4018644
73	0xbe2e701d	-0.17034955
74	0x3ea29a25	0.31758228
75	0x3d837fe2	0.06420876
76	0x3e390133	0.18066864
77	0x3ea9abd4	0.33138907
78	0x3e392668	0.18081057
79	0x3ed327eb	0.41241392
80	0xbd324b7a	-0.04352901
81	0x3c8cda1d	0.017193848
82	0x3e744061	0.23852684
83	0xbe91d33a	-0.28481466
84	0xbdd69d7d	-0.10479257
85	0xbd859ab6	-0.065236494
86	0x3d937a21	0.072010286
87	0xbeb2e188	-0.34937692
88	0x3e864202	0.26222235
89	0x3e64932b	0.22321765
90	0x3d3c22d0	0.045931637
91	0x3de69435	0.11258737
92	0xbe5a82de	-0.21338984
93	0xbe873e8d	-0.2641491
94	0xbea2138d	-0.3165554
95	0x3f0176b1	0.50571734
96	0xbde3f042	-0.1112981
97	0xbdd4a068	-0.103821576
98	0x3ccbed60	0.024893463
99	0x3e080bfc	0.13285822
100	0xbede63fc	-0.43435657
101	0xbe0d2065	-0.13781889
102	0xba9ba417	-0.0011874464
103	0x3ecb0f8e	0.39660305
104	0x3d11edee	0.035627298
105	0xbe32df24	-0.17467934
106	0xbed93e6a	-0.4243043
107	0x3e89bab2	0.2690025
108	0x3e00e5e5	0.12587698
109	0x3e2e9f30	0.17052913
110	0x3de8fd00	0.11376381
111	0x3f00310b	0.50074834
112	0xbe8f7050	-0.28015375
113	0xbe460170	-0.19336486
114	0x3edd227c	0.43190372
115	0xbea528ea	-0.32257777
116	0xbe9a9ff0	-0.30200148
117	0xbeb7d0a5	-0.3590137
118	0x3ce75742	0.02823985
119	0xbd807741	-0.06272746
120	0x3e33676b	0.1751992
121	0x3ef72568	0.48270726
122	0xbe8b3591	-0.27189305
123	0x3d2d199f	0.042260762
124	0xbe00d289	-0.12580313
125	0xbe845571	-0.25846437
126	0x3f09c183	0.538109
127	0x3d8fd95e	0.070238814
128	0xbe709038	-0.23492515
129	0xbc134e69	-0.008990862
130	0xbd09d642	-0.033651598
131	0xbe8231a4	-0.25428498
132	0xbd8a1d32	-0.0674385
133	0x3da2903c	0.07937667
134	0xbe43295a	-0.19058743
135	0xbe1177bb	-0.1420583
136	0xbe258fec	-0.16168183
137	0x3c96a72e	0.018390264
138	0x3de54b05	0.111959495
139	0x3e845501	0.25846103
140	0x3dfef7ee	0.124496326
141	0x3be68ca4	0.0070358086
142	0xbe83d8bc	-0.25751293
143	0x3e3edd9f	0.18639229
144	0xbcaa7903	-0.020809656
145	0x3dcc7189	0.099825926
146	0x3db0b045	0.08627371
147	0x3e32b209	0.17450728
148	0xbe6d5ee1	-0.23180725
149	0xbe3a67cf	-0.18203662
150	0x3db19cad	0.08672462
151	0xbd9df496	-0.07712667
152	0x3d98ea26	0.07466535
153	0x3d92a424	0.071602136
154	0xbe4eecad	-0.20207472
155	0xbdcfe63d	-0.10151336
156	0xbe5969ab	-0.21231715
157	0xbdd830d2	-0.10556187
158	0x3c9553e0	0.018228471
159	0xbe019c8c	-0.12657374
160	0x3d45354d	0.048146535
161	0xbd28372e	-0.04106825
162	0xbda11e34	-0.07867089
163	0xbdf00dba	-0.11721368
164	0x3e4e0610	0.201195
165	0xbd6c7043	-0.05772425
166	0x3e85a707	0.26103994
167	0x3e814b42	0.2525273
168	0x3e1afa23	0.15134482
169	0xbe00539d	-0.12531896
170	0x3e2e7cff	0.1703987
171	0x3d7d425b	0.06183086
172	0xbcf84f17	-0.03031115
173	0x3c79f70c	0.0152566545
174	0xbea7164c	-0.326342
175	0xbe08c4d4	-0.13356334
176	0xbd5930be	-0.053025
177	0x3e07df20	0.13268709
178	0x3aca06c9	0.0015413399
179	0x3e5dcb28	0.21659529
180	0xbd8bb2af	-0.068211906
181	0xbd2f2bd2	-0.0427664
182	0xbd24b314	-0.040209845
183	0xbdc7330b	-0.097265325
184	0x3e4b3ca5	0.19847353
185	0xbdfc19d1	-0.123096116
186	0x3ee41ede	0.445548
187	0xbc917f3a	-0.017760862
188	0x3dcc493b	0.09974905
189	0x3d16059d	0.036626447
190	0x3b89a74a	0.0042008506
191	0x3e3362f0	0.1751821
192	0x3dd76d85	0.10518936
193	0xbe5583e9	-0.20851101
194	0xbca4aa47	-0.020100726
195	0x3d341e55	0.04397424
196	0x3e046af0	0.12931418
197	0x3dca1d95	0.098689236
198	0xbdf561c7	-0.1198154
199	0xbe3b4ff3	-0.18292217
200	0xbeeccf00	-0.46251678
201	0xbde41586	-0.11136918
202	0xbdafa04a	-0.085754946
203	0x3ecf6a3f	0.40510747
204	0xbe8325d2	-0.25614792
205	0xbdcd8a36	-0.10036127
206	0xbdf5d971	-0.12004364
207	0xbda95640	-0.08268404
208	0xbe77bf96	-0.24194178
209	0xbd56f4e4	-0.05247964
210	0xbe49e519	-0.197163
211	0x3dd1dc1a	0.10247059
212	0xbeaaa01a	-0.33325273
213	0x3d30e501	0.043187145
214	0x3df52b7b	0.11971184
215	0xbe8eb793	-0.2787443
216	0x3c714b9f	0.014727502
217	0xbe29da25	-0.16587122
218	0x3e92a4e0	0.28641415
219	0xbf3eaa09	-0.74478203
220	0x3e8848f4	0.2661816
221	0x3cd8833a	0.026429761
222	0xbe0be442	-0.13661292
223	0xbe9adfd8	-0.30248904
224	0xbdca7ca6	-0.09887056
225	0x3eaad600	0.33366394
226	0x3eb074d3	0.3446413
227	0x3de14526	0.10999517
228	0x3e285ab6	0.16440853
229	0xbe0f2cba	-0.13981906
230	0xbd5119f8	-0.051050156
231	0x3ca7c3f2	0.020479176
232	0x3ec084cf	0.37601325
233	0x3e68e691	0.22744204
234	0x3e32c084	0.17456251
235	0x3e34b656	0.1764768
236	0x3ea837e5	0.32855144
237	0x3eaf250e	0.34207958
238	0xbe8a2bec	-0.26986635
239	0x3eab1d5c	0.33420837
240	0x3e93ce22	0.28868204
241	0x3c4418b4	0.01196878
242	0x3d86e112	0.065858975
243	0xbe8785c0	-0.2646923
244	0x3e4e2ce6	0.20134315
245	0x3c2e3ebd	0.010635075
246	0xbb3bd238	-0.0028659236
247	0xbf0e43d9	-0.5557228
248	0xbd9a1315	-0.07523171
249	0xbcef38af	-0.029201834
250	0x3e9fd33f	0.31215855
251	0x3f0b8526	0.54500043
252	0xbdef8529	-0.1169532
253	0xbdd1f0b7	-0.10250991
254	0x3e76235a	0.24036923
255	0x3e450520	0.19240236

r_cell.fc.bias f4 [24]
0	0xbe2b2112	-0.16711834
1	0xbc47b048	-0.012188025
2	0x3baa0e3f	0.0051896865
3	0xbb21b1ba	-0.0024672584
4	0xbe0bd259	-0.1365446
5	0x3d2195f6	0.039449655
6	0x3e22914b	0.15875737
7	0x3dc94bcb	0.098289095
8	0x3da3655c	0.07978317
9	0x3e3f8dac	0.18706387
10	0xbe0a894e	-0.1352894
11	0xbdc09d18	-0.09404963
12	0xbdfcfe42	-0.12353183
13	0xbddbad6f	-0.10726439
14	0x3c0e18c3	0.008672896
15	0x3c264291	0.010147707
16	0xbe9bec82	-0.3045388
17	0xbe406026	-0.18786678
18	0x3c1a902b	0.009433786
19	0xbd93ff9d	-0.07226489
20	0x38df5010	0.000106483814
21	0xbd7394de	-0.059468143
22	0x3bf9a3c9	0.0076184017
23	0x3e4a9dce	0.1978676

fc1.0.bias f4 [24]
0	0x3dc4434c	0.09583148
1	0xbdd50d3c	-0.10402915
2	0x3d8b4eb2	0.06802119
3	0xbc51594e	-0.01277764
4	0x3da2086c	0.079117626
5	0x3c846d8a	0.016165514
6	0x3d993d4a	0.07482393
7	0x3d8e0441	0.06934405
8	0xbca193cf	-0.019723801
9	0xbb968179	-0.004593071
10	0x3d6ac70f	0.057318743
11	0x3daa4b84	0.08315185
12	0x3e0df5c4	0.13863283
13	0x3def9b5d	0.11699555
14	0xbd5f9df3	-0.05459399
15	0x3d9dffc7	0.07714801
16	0xbbc02c7c	-0.005864678
17	0xbc9aa234	-0.018876173
18	0xbb23e887	-0.0025010423
19	0x3c662ee5	0.014049266
20	0xbda4cb03	-0.08046534
21	0x3bbf1b98	0.005832147
22	0xbb0623b4	-0.0020468058
23	0xbc80efd8	-0.015739366

fc1.0.weight_orig f4 [24, 24]
0	0x3c9e653b	0.01933538
1	0xbec66a7b	-0.38753113
2	0x3f0dc3ae	0.5537671
3	0x3d555608	0.052084
4	0x3ee06218	0.4382484
5	0x3b38e7f7	0.0028214434
6	0x3e3bac4a	0.18327442
7	0x3cc0c889	0.023533123
8	0xbda0003c	-0.07812545
9	0x3de3d758	0.11125058
10	0xbd8c0005	-0.06835941
11	0x3f45d6a3	0.77280635
12	0x3e7fcb87	0.24979983
13	0x3e5ce4cb	0.21571653
14	0x3e44ba66	0.1921173
15	0xbeffc34d	-0.4995369
16	0xbc9547ca	-0.018222708
17	0x3d473f09	0.0486441
18	0xbcee6962	-0.029102985
19	0xbe58f865	-0.21188505
20	0x3e99c051	0.30029538
21	0xbf1ad6ed	-0.604842
22	0xbec94b08	-0.39315057
23	0xbd104c0b	-0.03522877
24	0x3f2c5a2d	0.673251
25	0xbe5a395c	-0.21310943
26	0x3deced0d	0.11568651
27	0x3e544c6c	0.20732278
28	0xbce02a52	-0.02736393
29	0x3e57b129	0.21063675
30	0xbe004b1e	-0.12528655
31	0xbd87d9b5	-0.06633321
32	0x3e826454	0.2546717
33	0x3dd899d4	0.105762154
34	0xbe9043f3	-0.2817684
35	0x3e07b13c	0.13251203
36	0xbe7b62dd	-0.24549432
37	0x3db55216	0.08853547
38	0xbe44907f	-0.19195746
39	0x3dca60da	0.09881754
40	0x3f049c7c	0.51801276
41	0xbdfe945d	-0.12430642
42	0xbc78409f	-0.015152126
43	0xbc433b8b	-0.011916052
44	0x3dd763de	0.10517095
45	0xbe564d66	-0.20927963
46	0x3ed10e1b	0.40831074
47	0xbeab2601	-0.33427432
48	0xbf20aadf	-0.6276073
49	0x3d42c32b	0.047549408
50	0xbe9f217f	-0.31080243
51	0xbe9b6277	-0.3034856
52	0x3d8f7d83	0.07006361
53	0x3ec61643	0.3868886
54	0xbeca511e	-0.39515013
55	0xbe5eaa6f	-0.21744703
56	0xbe8ec618	-0.2788551
57	0xbd413db5	-0.04717799
58	0x3e98891c	0.29792106
59	0x3d98f35f	0.07468294
60	0x3f2b25d6	0.6685461
61	0x3df3fcb0	0.11913431
62	0xbd85a0f6	-0.065248415
63	0xbeb1b76b	-0.3471025
64	0xbe5371a3	-0.20648818
65	0x3e9b0563	0.30277547
66	0xbd10422b	-0.035219353
67	0x3ef59c2d	0.47970715
68	0x3d512c55	0.05106767
69	0x3e2b5a6a	0.16733709
70	0xbd883cbe	-0.06652211
71	0x3e9806e8	0.2969277
72	0x3f06bf88	0.52636003
73	0xbea0176e	-0.31267875
74	0x3e85680e	0.2605595
75	0xbbcaa1f8	-0.006183859
76	0xbdf9a29f	-0.12189221
77	0x3e2c0cfd	0.1680183
78	0x3d60e11a	0.054902174
79	0x3e027dc2	0.12743285
80	0x3f105f66	0.56395566
81	0xbea6605c	-0.3249539
82	0xbe25929a	-0.16169205
83	0xbe613128	-0.21991408
84	0xbed2c590	-0.41166353
85	0xbe3c73c9	-0.18403544
86	0x3ed7a50b	0.42118105
87	0x3f055dfe	0.52096546
88	0xbe015ab1	-0.12632252
89	0x3f065d94	0.5248654
90	0x3eddb895	0.43304887
91	0xbd80ed4a	-0.06295259
92	0x3e3151c6	0.1731635
93	0xbe566613	-0.20937376
94	0x3e236425	0.15956171
95	0xbeb5a4f3	-0.3547741
96	0x3de2fdeb	0.11083587
97	0x3e6904ae	0.22755691
98	0xbe0a4b9a	-0.13505402
99	0x3eca347e	0.39493173
100	0xbc2ca2f6	-0.0105369
101	0xbe1cdcb2	-0.15318564
102	0xbc0b7ec9	-0.008514115
103	0x3e8e832f	0.2783446
104	0xbec0c059	-0.3764675
105	0xbee406fb	-0.44536576
106	0x3dc52c5e	0.09627603
107	0x3e12b92c	0.1432845
108	0xbc0454af	-0.008076831
109	0xbe9cef17	-0.3065116
110	0x3e773ff9	0.24145497
111	0xbefeee59	-0.4979122
112	0xbe20c420	-0.15699816
113	0xbed73d5c	-0.42039
114	0xbead5b7d	-0.33858863
115	0x3e196d85	0.14983185
116	0xbe8aed09	-0.27133968
117	0xbcc069d3	-0.02348796
118	0xbebe4e31	-0.3716903
119	0xbe07e0d8	-0.13269365
120	0xbe8a7b5a	-0.27047235
121	0x3f046753	0.5172016
122	0xbc24a819	-0.010049843
123	0x3d816290	0.063176274
124	0xbddb7406	-0.10715489
125	0xbf0630c3	-0.52418154
126	0xbf299117	-0.66237015
127	0x3f37ff9f	0.7187442
128	0xbf3c3308	-0.7351537
129	0xbdaa32ce	-0.083104715
130	0xbe0558bf	-0.13022135
131	0x3c5877ed	0.013212186
132	0x3db2b912	0.087267056
133	0x3e428e96	0.18999705
134	0xbe81cf5f	-0.25353524
135	0x3f19a275	0.60013515
136	0xbdbe0b1a	-0.09279461
137	0x3e8f21d6	0.27955502
138	0x3eac5f99	0.33666685
139	0xbdce12c6	-0.100621745
140	0xbd952718	-0.07282847
141	0x3e886737	0.26641247
142	0xbea5b3c3	-0.3236371
143	0xbe61b327	-0.22040997
144	0xbc99f135	-0.018791774
145	0xbe6f7ece	-0.23388216
146	0xbe53fb9e	-0.20701453
147	0x3ef193b6	0.47183007
148	0x3f087e43	0.5331766
149	0x3cc1003b	0.02355968
150	0x3ea9934d	0.33120194
151	0xbea4f1e1	-0.3221579
152	0x3dcaf8a0	0.09910703
153	0x3d4c197e	0.049829
154	0xbe200e57	-0.1563047
155	0x3e80562e	0.2506575
156	0x3d6bed0c	0.057599112
157	0xbd925438	-0.0714497
158	0x3f4ad2b3	0.7922775
159	0xbe875513	-0.26432094
160	0x3a8283ec	0.0009957529
161	0x3eb3b848	0.35101533
162	0xbef017ee	-0.46893257
163	0xbe9bfd75	-0.3046681
164	0x3d324354	0.04352124
165	0xbf1a2a90	-0.60221195
166	0xbee3def0	-0.44506025
167	0x3e5a33b2	0.21308783
168	0x3df08a76	0.11745159
169	0x3e39655b	0.1810507
170	0xbe44a66d	-0.19204111
171	0xbe506e9f	-0.20354699
172	0x3e98dfdd	0.29858294
173	0x3efc299a	0.4925049
174	0xbe0b3e59	-0.13598002
175	0xbe0e514e	-0.13898203
176	0xbebd4cac	-0.36972558
177	0x3e3c6908	0.18399441
178	0x3d476a1f	0.04868519
179	0xbcdc7385	-0.026910553
180	0xbe726884	-0.23672682
181	0xbe5afb17	-0.21384846
182	0x3b2dcff5	0.0026521657
183	0xbdde7f07	-0.10864072
184	0x3d0738b9	0.03301308
185	0xbed267b3	-0.4109474
186	0x3ec6cdb5	0.38828817
187	0x3eca8e62	0.39561754
188	0xbef49182	-0.47767264
189	0xbecb4c50	-0.3970666
190	0xbdd4fd59	-0.10399885
191	0xbe8b9fc8	-0.2727034
192	0xbd27f27f	-0.041002747
193	0x3e654abf	0.22391795
194	0x3e87f321	0.2655268
195	0x3e7ea36e	0.24867031
196	0xbdb5c11e	-0.08874725
197	0xbd9a7a48	-0.075428545
198	0x3db998a7	0.09062319
199	0xbcc2cb8b	-0.023778697
200	0xbdc3ba8d	-0.09557066
201	0xbedfa971	-0.4368396
202	0x3d4da47e	0.0502057
203	0x3e2b79cf	0.16745685
204	0x3ee7a6cb	0.4524444
205	0xbec4cf12	-0.38439232
206	0x3e92d7ac	0.2868017
207	0xbeacf33e	-0.3377933
208	0x3e3baa2f	0.18326639
209	0xbd82f024	-0.063934594
210	0xbe1bda5b	-0.15220015
211	0x3e30e277	0.1727389
212	0xbcea2bab	-0.028585276
213	0xbe44d9f6	-0.1922377
214	0xbe39be3e	-0.18138978
215	0xbe9286f6	-0.28618592
216	0xbe6516bb	-0.22371952
217	0x3e1830df	0.14862393
218	0x3eb031ed	0.3441309
219	0x3e5bdaa0	0.21470118
220	0xbed52326	-0.4162838
221	0x3d1c68d5	0.038185913
222	0xbf2c864f	-0.6739244
223	0xbd06e468	-0.03293267
224	0xbe506b74	-0.2035349
225	0xbea94ff5	-0.33068815
226	0xbdc7e1df	-0.09759878
227	0xbe2d34e6	-0.1691471
228	0x3d36e10a	0.044648208
229	0x3ec89123	0.3917323
230	0xbed0668e	-0.40703243
231	0x3e247d0e	0.1606333
232	0xbc316397	-0.010826967
233	0xbe86eadd	-0.2635106
234	0xbe624688	-0.22097218
235	0x3e2f66c5	0.17129047
236	0xbdb4fe37	-0.0883755
237	0x3c4d3698	0.012525223
238	0x3e84b8fe	0.25922388
239	0xbcf9ab48	-0.030477181
240	0xbe892a59	-0.2679012
241	0x3d853df1	0.06505955
242	0x3e5ced2c	0.21574849
243	0x3e917dc6	0.2841627
244	0xbe51c006	-0.20483407
245	0x3e76da45	0.241067
246	0x3dd0eb6a	0.10201152
247	0x3c7723d3	0.015084225
248	0xbe0b026c	-0.13575143
249	0xbdde8456	-0.10865085
250	0x3cacedda	0.02110951
251	0x3d85eb48	0.06539017
252	0xbcd8db69	-0.02647181
253	0x3ce24fef	0.027626006
254	0x3e89535f	0.2682142
255	0xbe19059f	-0.1494355

fc1.0.weight_u f4 [24]
0	0xbeaf585e	-0.34247106
1	0xbdd5562e	-0.10416828
2	0x3dd5a94f	0.10432684
3	0xbcb6f9d8	-0.022335932
4	0x3ccdde45	0.0251304
5	0x3ec519da	0.38496286
6	0xbe89d73f	-0.26922032
7	0x3dd170aa	0.10226567
8	0xbd0a00cf	-0.033692177
9	0x3e0536b1	0.13009144
10	0xbdafab7f	-0.08577632
11	0xbc716ca2	-0.014735373
12	0xbea0921c	-0.31361473
13	0xbe86ffe3	-0.263671
14	0x3ec5968a	0.38591415
15	0xbe89841e	-0.2685861
16	0x3e65bc13	0.22435026
17	0xbe804303	-0.25051126
18	0xbcb8ec9a	-0.022573758
19	0x3e437a38	0.19089592
20	0x3dd04db8	0.10171074
21	0xbde9f4b9	-0.1142363
22	0xbe080e0c	-0.13286608
23	0xbe1b74dd	-0.15181299

fc1.0.weight_v f4 [24]
0	0xbdf902e7	-0.12158757
1	0x3ea6df91	0.32592443
2	0xbe6bb34f	-0.2301762
3	0xbdf3d11c	-0.11905119
4	0xbd881cb4	-0.066461
5	0xbd718b53	-0.05897076
6	0xbef7e002	-0.48413092
7	0x3e506de7	0.20354424
8	0xbe3b539f	-0.18293618
9	0xbd96274c	-0.07331714
10	0x3d1311bc	0.035905585
11	0xbed28a21	-0.4112101
12	0x3bcd2ec8	0.0062616803
13	0xbe09160a	-0.13387313
14	0xbce5b1bd	-0.028038854
15	0x3e9256bb	0.28581795
16	0x3e0013af	0.12507509
17	0x3c6a13c0	0.014286935
18	0x3e662e68	0.2247864
19	0x3e2732ae	0.16327927
20	0xbe1d608a	-0.15368858
21	0x3e8adf28	0.2712338
22	0xbe1df1fc	-0.15424341
23	0xbd88995f	-0.06669878
