models/17_05_2021/stock_self_attn_MSE_hinge_10000_64_24_6_24_5/9500_discriminator.pth (torch, 55520 bytes, 40 tensors)

position.pe f4 [1, 24, 24]
000000 00 00 00 00 00 00 80 3f 00 00 00 00 00 00 80 3f
       0.0 1.0 0.0 1.0
000010 00 00 00 00 00 00 80 3f 00 00 00 00 00 00 80 3f
       0.0 1.0 0.0 1.0
000020 00 00 00 00 00 00 80 3f 00 00 00 00 00 00 80 3f
       0.0 1.0 0.0 1.0
000030 00 00 00 00 00 00 80 3f 00 00 00 00 00 00 80 3f
       0.0 1.0 0.0 1.0
000040 00 00 00 00 00 00 80 3f 00 00 00 00 00 00 80 3f
       0.0 1.0 0.0 1.0
000050 00 00 00 00 00 00 80 3f 00 00 00 00 00 00 80 3f
       0.0 1.0 0.0 1.0
000060 a4 6a 57 3f 41 51 0a 3f 1d 35 e5 3e 30 ea 64 3f
       0.84147096 0.54030234 0.44767085 0.8941984
000070 52 e9 5a 3e eb 14 7a 3f 76 75 cc 3d 98 b8 7e 3f
       0.21378067 0.9768817 0.099833414 0.9950042
000080 1e 0d 3e 3d 6a b9 7f 3f 47 7a b0 3c ca f0 7f 3f
       0.04639923 0.99892294 0.021542681 0.9997679
000090 57 d6 23 3c b9 fc 7f 3f 57 18 98 3b 4b ff 7f 3f
       0.009999833 0.99995 0.0046415734 0.9999892
0000a0 64 31 0d 3b d9 ff 7f 3f 6d 12 83 3a f8 ff 7f 3f
       0.0021544332 0.9999977 0.0009999998 0.9999995
0000b0 5c 5a f3 39 fe ff 7f 3f ab e8 61 39 00 00 80 3f
       0.00046415895 0.9999999 0.00021544348 1.0
0000c0 b7 c7 68 3f 33 11 d5 be fb f4 4c 3f f8 63 19 3f
       0.9092974 -0.41614684 0.8006131 0.59918165
0000d0 be d9 d5 3e b9 99 68 3f f8 6f 4b 3e a5 e5 7a 3f
       0.41767687 0.9085956 0.19866931 0.9800666
0000e0 b7 d8 bd 3d d1 e5 7e 3f cb 6f 30 3d 2c c3 7f 3f
       0.09269851 0.9956942 0.043075364 0.99907184
0000f0 3e d4 a3 3c e5 f2 7f 3f ec 17 18 3c 2d fd 7f 3f
       0.019998666 0.9998 0.009283047 0.9999569
000100 4e 31 8d 3b 64 ff 7f 3f 68 12 03 3b df ff 7f 3f
       0.004308856 0.9999907 0.0019999985 0.99999803
000110 5b 5a 73 3a f9 ff 7f 3f ab e8 e1 39 ff ff 7f 3f
       0.00092831784 0.9999996 0.00043088695 0.99999994
000120 c3 81 10 3e 26 70 7d bf ce f0 7b 3f 16 a2 35 3e
       0.14112 -0.9899925 0.98414314 0.17737612
000130 c8 2d 1a 3f 56 5d 4c 3f 6c 4e 97 3e ef 90 74 3f
       0.60226107 0.7982992 0.2955202 0.9553365
000140 17 21 0e 3e a8 85 7d 3f bd 46 84 3d 29 77 7f 3f
       0.1387981 0.9903207 0.06458805 0.997912
000150 1f b9 f5 3c 83 e2 7f 3f d5 22 64 3c a6 f9 7f 3f
       0.0299955 0.99955004 0.01392432 0.9999031
000160 bf c9 d3 3b a2 fe 7f 3f 92 9b 44 3b b5 ff 7f 3f
       0.006463259 0.99997914 0.0029999954 0.9999955
000170 c2 83 b6 3a f0 ff 7f 3f 7f 6e 29 3a fd ff 7f 3f
       0.0013924765 0.99999905 0.00064633036 0.9999998
000180 cf bd 41 bf 30 55 27 bf e7 9c 75 3f 6c 5d 90 be
       -0.7568025 -0.6536436 0.9594254 -0.28196275
000190 be 4d 42 3f f9 ad 26 3f d7 61 c7 3e a7 ca 6b 3f
       0.75899875 0.6510921 0.38941833 0.921061
0001a0 73 07 3d 3e b2 99 7b 3f df 45 b0 3d cc 0c 7f 3f
       0.18459873 0.98281395 0.08607077 0.996289
0001b0 db cb 23 3d 94 cb 7f 3f 3e 16 98 3c b4 f4 7f 3f
       0.039989334 0.9992001 0.018565293 0.9998276
0001c0 f8 30 0d 3c 91 fd 7f 3f 57 12 83 3b 7a ff 7f 3f
       0.008617632 0.99996287 0.003999989 0.999992
0001d0 54 5a f3 3a e3 ff 7f 3f a9 e8 61 3a fa ff 7f 3f
       0.0018566349 0.9999983 0.0008617738 0.99999964
0001e0 10 7c 75 bf 2c 3c 91 3e 0a 50 3b 3f cb 7f 2e bf
       -0.9589243 0.2836622 0.73169005 -0.68163747
0001f0 cf 71 61 3f 63 93 f2 3e 43 77 f5 3e 40 a9 60 3f
       0.88064283 0.47378072 0.47942552 0.87758255
000200 93 85 6b 3e ff 22 79 3f 0e 30 dc 3d 21 84 7e 3f
       0.23000173 0.97319025 0.10751353 0.9942036
000210 f4 b6 4c 3d 19 ae 7f 3f 3c 1a be 3c 5a ee 7f 3f
       0.049979165 0.99875027 0.023205869 0.9997307
000220 e6 7c 30 3c 33 fc 7f 3f dd d6 a3 3b 2e ff 7f 3f
       0.010771966 0.999942 0.004999979 0.9999875
000230 71 18 18 3b d3 ff 7f 3f 69 31 8d 3a f6 ff 7f 3f
       0.0023207928 0.9999973 0.0010772172 0.9999994
000240 8c 0f 8f be b8 cd 75 3f c6 c0 b2 3e 2d e4 6f bf
       -0.2794155 0.96017027 0.349127 -0.93707544
000250 63 29 76 3f 8f 93 8c 3e 68 8c 10 3f 32 49 53 3f
       0.961569 0.27456328 0.5646424 0.8253356
000260 e9 c0 8c 3e e9 22 76 3f 09 00 04 3e 38 dd 7d 3f
       0.2749093 0.9614702 0.12890638 0.9916568
000270 d1 9c 75 3d 12 8a 7f 3f 2b 1d e4 3c 96 e6 7f 3f
       0.059964005 0.99820054 0.02784594 0.9996122
000280 9d c8 53 3c 86 fa 7f 3f 58 9b c4 3b d2 fe 7f 3f
       0.012926248 0.99991643 0.0059999637 0.999982
000290 b7 83 36 3b bf ff 7f 3f 7d 6e a9 3a f2 ff 7f 3f
       0.0027849504 0.9999961 0.0012926605 0.99999917
0002a0 46 30 28 3f bd ff 40 3f 9f c6 db bd 8d 85 7e bf
       0.6569866 0.75390226 -0.10731243 -0.9942253
0002b0 41 7f 7f 3f 23 4f 80 3d 72 eb 24 3f b3 cc 43 3f
       0.9980355 0.06265094 0.6442176 0.7648422
0002c0 6a 71 a3 3e 18 9b 72 3f 5d d8 19 3e 25 18 7d 3f
       0.31922466 0.94767904 0.15023942 0.98864967
0002d0 32 3e 8f 3d 81 5f 7f 3f 6e 0f 05 3d 69 dd 7f 3f
       0.06994285 0.997551 0.032485418 0.9994722
0002e0 15 14 77 3c 8c f8 7f 3f c5 5f e5 3b 65 fe 7f 3f
       0.0150804715 0.9998863 0.006999942 0.9999755
0002f0 f8 ee 54 3b a8 ff 7f 3f 91 ab c5 3a ed ff 7f 3f
       0.003249107 0.99999475 0.0015081038 0.99999887
000300 95 46 7d 3f f6 fd 14 be e3 81 0a bf 62 4b 57 bf
       0.98935825 -0.14550003 -0.5410444 -0.840994
000310 e9 04 7d 3f 59 cf 1b be a5 a4 37 3f 5f 5b 32 3f
       0.9883562 -0.15215816 0.717356 0.6967067
000320 cb c7 b9 3e 80 8d 6e 3f 69 9e 2f 3e ff 34 7c 3f
       0.36285242 0.9318466 0.17150272 0.98518366
000330 50 aa a3 3d 65 2e 7f 3f 89 0f 18 3d d3 d2 7f 3f
       0.07991469 0.9968017 0.03712419 0.9993107
000340 a1 2f 8d 3c 44 f6 7f 3f 12 12 03 3c e7 fd 7f 3f
       0.017234625 0.99985147 0.007999914 0.999968
000350 38 5a 73 3b 8c ff 7f 3f a4 e8 e1 3a e7 ff 7f 3f
       0.0037132632 0.9999931 0.001723547 0.9999985
000360 32 01 d3 3e d5 3f 69 bf f1 3b 5c bf 9f 82 02 bf
       0.4121185 -0.91113025 -0.86028963 -0.5098056
000370 af d7 6e 3f 01 49 b8 be 1c 88 48 3f d5 21 1f 3f
       0.9329786 -0.35993198 0.78332686 0.62161
000380 ba b7 cf 3e 5c fc 69 3f 97 4f 45 3e e1 33 7b 3f
       0.4056986 0.91400695 0.19268642 0.98126036
000390 3e 12 b8 3d c2 f6 7e 3f cd 0e 2b 3d d3 c6 7f 3f
       0.089878544 0.9959527 0.041762162 0.99912757
0003a0 0c d5 9e 3c ae f3 7f 3f 3a 74 13 3c 59 fd 7f 3f
       0.019388698 0.999812 0.008999879 0.9999595
0003b0 ba e2 88 3b 6e ff 7f 3f b6 25 fe 3a e1 ff 7f 3f
       0.0041774185 0.9999913 0.0019389901 0.99999815
0003c0 f8 44 0b bf 64 cd 56 bf d1 5b 7f bf 7e e0 90 bd
       -0.5440211 -0.8390715 -0.99749476 -0.070740685
0003d0 61 9f 55 3f 82 12 0d bf a4 6a 57 3f 41 51 0a 3f
       0.8344632 -0.55106366 0.84147096 0.54030234
0003e0 1e 35 e5 3e 30 ea 64 3f 53 e9 5a 3e eb 14 7a 3f
       0.44767088 0.8941984 0.21378069 0.9768817
0003f0 76 75 cc 3d 98 b8 7e 3f 21 0d 3e 3d 6a b9 7f 3f
       0.099833414 0.9950042 0.04639924 0.99892294

r_cell.w_qs.weight f4 [24, 24]
000000 e7 d6 90 be 00 46 d5 be c1 46 26 bd b3 74 9b be
       -0.28288957 -0.41654968 -0.04059482 -0.30362472
000010 67 92 fa 3e bd e1 27 3f 02 32 f7 3d ea 93 1f bf
       0.4893982 0.65578824 0.12070085 -0.62335074
000020 31 ee 38 3f 4a e3 48 3f 81 f6 46 bd a9 e7 23 be
       0.7223845 0.78471816 -0.04857493 -0.1600634
000030 11 bc 55 bf ac 2b f8 3c e9 2c 12 3e d2 05 ce 3e
       -0.8349009 0.030294262 0.14274944 0.40238816
000040 c1 23 72 3e ca ee 72 bf e6 84 96 3e 57 88 85 3d
       0.23646452 -0.94895613 0.29398268 0.065201454
000050 bf 18 7e 3f 32 58 2c bf 75 a4 e3 3e 95 b2 b8 be
       0.9925651 -0.67322075 0.44461408 -0.36073747
000060 b6 35 29 3e 65 f3 23 bf 0f 3e ab 3e ff 2b 82 be
       0.16524395 -0.64043266 0.33445784 -0.2542419
000070 1e 12 0e bf dd 24 99 bf 19 21 5e bf ea 3b 5e 3e
       -0.55496395 -1.1964375 -0.86769253 0.21702543
000080 25 0d d1 bf 2d 50 69 be a2 90 d0 be ca cd 1c 3e
       -1.6332136 -0.22784491 -0.40735346 0.15312877
000090 c2 37 0a be c5 e2 16 3f ee 7e fa 3e fd 86 4f bc
       -0.13497832 0.5893977 0.48924965 -0.012666461
0000a0 5e bf 77 3f 32 52 b0 bf 28 32 49 3d e5 8c 93 3d
       0.9677638 -1.3775084 0.0491201 0.07204608
0000b0 a2 3f b4 bd e0 eb 0f bf aa fe 38 be 73 2b 65 be
       -0.088011995 -0.5621929 -0.18065897 -0.22379856
0000c0 ca b4 1d 3d 97 84 7f bf 36 7d 04 be 3f af 6d bf
       0.038502492 -0.9981169 -0.12938389 -0.9284553
0000d0 f1 d4 49 3f 44 b0 db 3d 7c 17 29 3f c2 bc f4 be
       0.7884055 0.107269794 0.6605146 -0.4780026
0000e0 4c 2f b7 3e cf d0 38 3f 3e ab 23 be 23 67 75 bf
       0.35778272 0.72193617 -0.15983292 -0.958605
0000f0 34 55 10 bf 53 e5 11 bf 8b 59 88 bf 45 ac d9 be
       -0.5638001 -0.56990546 -1.0652326 -0.42514244
000100 91 d1 7a be e2 10 17 3f 67 85 9c bd 41 f6 c1 3e
       -0.24494006 0.59010136 -0.07642632 0.3788319
000110 28 6a 93 3f 74 df 1c 3f 65 66 46 be 1c dc c4 3e
       1.1516771 0.6127846 -0.19374998 0.3844918
000120 1f 1d 5f 3f 37 46 82 bc 7c 67 04 bf f0 a2 2d bf
       0.8715381 -0.015902622 -0.51720405 -0.6782675
000130 36 b0 fa bc ca 68 39 bf ac c2 5b 3f 10 47 91 3e
       -0.030601602 -0.7242552 0.8584392 0.2837453
000140 63 28 b1 3e d4 30 88 3f 41 51 8a 3d ea 91 5e bc
       0.34601125 1.0639901 0.06753779 -0.013584593
000150 61 4b 09 bf 54 b3 36 3f 21 85 09 bf 4b fd 1f 3f
       -0.53630644 0.71367383 -0.53718764 0.6249587
000160 61 cf 09 be 1d 3b 6a be cd b4 30 bf b9 59 1f bf
       -0.13458015 -0.22874112 -0.6902588 -0.6224628
000170 8d 7c ee be 6d 3a 92 be 65 66 30 3f 01 1f 44 3e
       -0.465794 -0.285602 0.6890624 0.19152452
000180 ba 15 d9 bd 5e 5d 74 3e 95 e2 31 bf 17 3f 25 be
       -0.10599847 0.23863742 -0.6948636 -0.16137348
000190 03 8e f8 3e a3 2d f3 3d 19 9c b9 3e e0 89 21 be
       0.48545846 0.11873939 0.36251906 -0.15775251
0001a0 10 b4 0c 3e 1d e3 95 3f 08 37 a7 3e 8f b7 80 bf
       0.13740563 1.1709934 0.32659173 -1.0056018
0001b0 e7 c6 ca be fa 75 45 bf d3 46 7b 3e 14 1b 12 bf
       -0.39604875 -0.7713314 0.24538736 -0.5707257
0001c0 25 45 f6 3e 23 91 b3 bf 90 35 12 bf 25 eb 07 3f
       0.48099628 -1.4028667 -0.5711298 0.5309318
0001d0 47 06 a8 bf 57 d1 f4 3e 65 77 63 be 8f 74 5a be
       -1.3126916 0.47815964 -0.22213514 -0.21333526
0001e0 1c 8c 06 be 14 cb 3b be 29 12 14 3e bf a7 25 3f
       -0.13139385 -0.18339187 0.14460053 0.64709085
0001f0 a1 3d 6d 3e e2 4e 31 3f bb eb 29 bf cd 87 1f bd
       0.23168041 0.6926099 -0.6637532 -0.03894787
000200 46 28 c7 3e 0b 2c 4b be 56 d9 4b be eb bc e6 be
       0.38897914 -0.1984102 -0.19907126 -0.45066008
000210 b7 60 1f bf d8 66 b2 3d 4d 66 ff be 34 4f 97 3d
       -0.6225695 0.08711022 -0.49882737 0.07388154
000220 47 59 bc be aa 75 90 be bc 18 90 3e 37 3e 66 3e
       -0.36786863 -0.2821477 0.2814387 0.2248467
000230 2c 21 38 3d 70 64 54 3f 97 5b 51 bf 06 50 d9 bd
       0.04495351 0.82965755 -0.8178038 -0.106109664
000240 af ea ad be 9c 09 65 be 56 01 17 3e 6d f7 7f bf
       -0.33968112 -0.22366947 0.14746603 -0.99986917
000250 0a 3d bc be 8f 90 db be 33 d1 14 3d b2 a0 3d 3e
       -0.3676532 -0.42883727 0.03633232 0.18518332
000260 0b 1d e0 3c 6f f2 b7 3d 53 11 ca 3e 91 89 ad be
       0.027357599 0.089817874 0.39466342 -0.33894017
000270 07 fc 81 be 04 e7 1a 3f cf a6 1a bf c9 33 49 be
       -0.25387594 0.6050875 -0.6041078 -0.1964866
000280 7b 6e 34 be 3a 4d 11 bb 2c f8 68 be ef dd 69 3e
       -0.1762027 -0.0022171275 -0.2275092 0.22838567
000290 2f 8d 12 bf 1f cc cd 3e 4e 38 c0 3d 79 0d 14 3d
       -0.5724668 0.40194795 0.09385739 0.03614566
0002a0 37 bc 36 bf 5d 58 73 3e 4c 91 6e 3f 11 7d 22 3e
       -0.71380943 0.23764177 0.93190455 0.15868022
0002b0 de 7f df 3e e6 89 a0 3d d2 a3 1d 3f 8b 9c 99 bf
       0.43652242 0.07838802 0.61578095 -1.2000898
0002c0 b7 c1 d4 3d 51 96 26 bf 93 96 e5 bd 2f 7b f9 bd
       0.10388511 -0.65073115 -0.112103604 -0.121816985
0002d0 19 ee 97 bf 60 04 12 3e ad 5c 29 bf 02 c2 0d bf
       -1.1869537 0.14259481 -0.66157037 -0.5537416
0002e0 5e a7 24 3f 78 cc 7f 3f cd 69 05 3e d6 2a a5 be
       0.6431788 0.9992137 0.13028641 -0.32259244
0002f0 19 28 f0 3e 74 a0 43 3d b6 21 c5 3e 40 c1 87 be
       0.46905592 0.047760442 0.38502282 -0.26514626
000300 ed 79 7d 3f 3b dd 0c bf cb 68 84 3e 85 51 8f 3e
       0.9901417 -0.5502507 0.258612 0.27991882
000310 fd 28 5b bf 11 7f fd be 5c 27 d3 bf 33 09 45 3f
       -0.8560942 -0.49511006 -1.6496387 0.7696716
000320 89 a2 87 3e 84 ea 60 3e 58 27 79 3e e4 32 a6 3e
       0.26491192 0.2196446 0.24331415 0.324607
000330 7d ed 88 3e e4 1f e3 3b 27 44 03 3f da a5 ed 3e
       0.2674369 0.006931292 0.5127587 0.46415597
000340 a7 62 6b 3e 9f 98 1c bf 90 72 8b be a4 d0 58 bd
       0.22986852 -0.6117038 -0.27235842 -0.05293335
000350 3f be 08 3e 54 b7 67 bf c5 18 b0 be 9e c3 06 bf
       0.13353823 -0.9051411 -0.34393898 -0.5264224
000360 5b 14 d0 3c 6d 12 7f 3e 7d 81 a5 3f 20 2e c4 3d
       0.025400331 0.24909373 1.2930142 0.0957911
000370 9b b7 43 bf fb 2d d7 3c 93 2b f4 be 46 19 ae bb
       -0.76452035 0.026267042 -0.47689494 -0.0053130714
000380 ed f9 34 bf 7f d9 02 bf 33 00 8d bc 5d f7 5a bf
       -0.70693856 -0.5111312 -0.017212009 -0.85533696
000390 29 db c2 3a 19 78 a0 bf 7c 75 ad 3e 7d aa 2e 3d
       0.001486634 -1.2536651 0.33878696 0.04264306
0003a0 70 0e 83 bf 84 08 2b bf 73 64 36 3c 88 59 1d 3f
       -1.0238781 -0.6680987 0.011132347 0.6146474
0003b0 ec 8f a5 3e 8b 7e 5c 3f 47 4a 04 bf f2 df 8e bd
       0.32336366 0.8613059 -0.5167584 -0.06976308
0003c0 e8 5e 98 be 97 15 a6 be e2 58 ee 3e a7 1b 1a 3e
       -0.29759908 -0.32438347 0.46552187 0.15049611
0003d0 57 b4 4a 3f 87 d8 70 3f f8 52 15 3e 5c 52 ce be
       0.79181427 0.94080395 0.14582431 -0.4029721
0003e0 81 85 75 3f fa 5f e7 bc ff c7 a1 3e f5 78 d5 3c
       0.95906836 -0.028244007 0.31597897 0.026058653
0003f0 8c f0 af be 38 28 f2 be 52 ba 81 bd 80 de 44 bf
       -0.3436321 -0.4729631 -0.06334366 -0.7690201

r_cell.w_qs.bias f4 [24]
000000 5b e0 b7 3f 9b f5 32 bf 4b f9 18 3e 91 d3 b0 3f
       1.4365343 -0.69906014 0.14938848 1.3814565
000010 95 e0 32 bf de ea ff 3e 8b cf 48 bf 44 bc c6 3f
       -0.69873935 0.49983877 -0.78441685 1.5526204
000020 ae c0 a5 be 50 07 fd be 1c 4b d1 3e db ae 7e 3e
       -0.32373565 -0.49419641 0.40877616 0.2487139
000030 11 2f 86 be c6 26 9c bf 8c e8 9a 3f c6 8e 8a 3f
       -0.26207784 -1.2199333 1.2102218 1.0824821
000040 da e8 ed 3d 9d fc e2 be a5 96 f7 3e 4a 5a 96 3f
       0.116166785 -0.44333354 0.4835712 1.1746304
000050 81 6d cf 3f b5 a5 ad be 58 04 a4 3f ba 66 da bf
       1.6205293 -0.33915487 1.2813826 -1.70626

r_cell.w_ks.weight f4 [24, 24]
000000 16 c9 2f 3f ec 63 67 3e 21 45 0a bf f9 5a 98 3f
       0.6866621 0.22596711 -0.5401173 1.1902763
000010 78 95 95 be 59 5c 2e bf 3f af b2 3e 5a f7 50 bf
       -0.29215598 -0.6810966 0.34899327 -0.8162743
000020 bf 8d 9c be 48 a2 f8 3e a6 d6 dc bd cf bd 14 3e
       -0.30576894 0.4856131 -0.107831284 0.14525531
000030 59 59 5a 3f 8e 15 52 be 60 b6 10 3f 76 a9 56 be
       0.85292584 -0.20516035 0.5652828 -0.20963082
000040 7c e5 b5 3e b2 e9 b5 3c 4e 49 33 3d 94 fd 98 3e
       0.35526645 0.022206161 0.04377108 0.29880965
000050 f6 3b a4 bf a3 19 40 3f 38 84 f1 3d 32 09 79 3d
       -1.2830799 0.7503912 0.11792797 0.060799785
000060 08 c7 35 3e b8 2d c0 bc 67 11 e2 3f 00 5f 89 bf
       0.17751706 -0.0234593 1.7661561 -1.0732117
000070 43 39 a6 3e ff e9 49 3e 62 6c 94 bf 23 ca 51 bf
       0.32465562 0.19718169 -1.1595576 -0.8194906
000080 07 97 8f 3e 91 2a 90 3e 76 b7 88 bf c9 35 80 bf
       0.28044912 0.28157476 -1.0680988 -1.0016414
000090 ae 9a 17 c0 5f 6d ff be f1 a8 e0 be 52 83 4f be
       -2.368816 -0.4988813 -0.43878892 -0.20264938
0000a0 5e ff 08 3f 2a 93 b5 be 49 16 18 3f 48 a5 ca be
       0.5351466 -0.3546384 0.59409004 -0.39579225
0000b0 29 8c 30 bd 82 d5 72 be cb 40 85 be bf 60 0a 3f
       -0.043102417 -0.2371426 -0.26025996 0.5405387
0000c0 16 4f 9d be af 5c e6 3d 9d cb ac bf d4 86 19 3f
       -0.307244 0.11248147 -1.3499638 0.59971356
0000d0 2e 4f 9d bb cd 79 3c bd a6 d9 1c 3f 9b f8 96 3e
       -0.0048006987 -0.046014596 0.61269605 0.29486546
0000e0 1b 5b 3c 3e 02 d3 21 3e 89 b2 5f bf a0 95 58 3e
       0.18394129 0.1580315 -0.873818 0.21150827
0000f0 2f f6 b9 3f 3e 62 25 3f 6e 88 c9 be c9 9f a4 3e
       1.4528254 0.6460303 -0.393619 0.32153156
000100 68 e1 1c 3f 30 9f 32 3d 0d c5 d9 3e e2 b2 84 be
       0.6128144 0.043608844 0.4253315 -0.25917727
000110 c7 72 9b 3c 5e c0 0c bf cd 09 81 3e be 0e c7 be
       0.018975629 -0.5498103 0.2520279 -0.38878435
000120 86 67 42 3e 78 77 29 bd c8 76 05 3e 27 50 9e 3e
       0.18984804 -0.0413737 0.13033593 0.30920526
000130 dd d4 ca be bb 04 2e 3e f8 ed a5 3d b0 47 93 be
       -0.39615527 0.16993992 0.081020296 -0.2876563
000140 54 0c 03 3f 7b 91 69 bf 78 5b 9a 3d 9b 6d 8a 3f
       0.51190686 -0.9123761 0.075369775 1.0814699
000150 d2 2f bc be 04 4f 52 3f 0b f9 96 bf b5 79 b3 be
       -0.36755234 0.8215182 -1.1794752 -0.35053793
000160 bc c3 e5 bd d1 3a 3a 3f a1 b6 08 bf de 05 df 3f
       -0.11218974 0.72745997 -0.5340367 1.7423666
000170 cb 59 72 bc 49 a3 75 3f b2 b6 b9 3e a8 c6 bb be
       -0.014791916 0.9595228 0.36272198 -0.36675
000180 94 3a b5 3f 65 6c a9 bf 0a ab 00 be fb 88 09 bf
       1.4158502 -1.3236204 -0.12565246 -0.5372464
000190 bd c1 94 bf 51 bb 21 3d 88 71 5a bf 3d 78 19 bf
       -1.1621624 0.03948528 -0.85329485 -0.59949094
0001a0 83 03 50 3f 8a 7a 36 bf 08 c7 88 3e a5 42 53 3e
       0.8125536 -0.7128073 0.2671435 0.20630892
0001b0 e4 45 5a 3f 6f 46 cb bd 6f e7 2e bf 41 9c 2a 3f
       0.85262895 -0.099255435 -0.6832189 0.66644675
0001c0 68 7b 8f 3e 13 26 94 be 66 10 3c bf b7 f1 c4 3d
       0.2802384 -0.28935298 -0.7346252 0.09616416
0001d0 ee 19 1f 3f f0 14 f8 3e 8e b4 f2 3e 1e 39 1d bf
       0.6214894 0.48453474 0.47403377 -0.6141528
0001e0 dc f0 d6 bd 1c 55 62 3e f1 4a 1b be a8 4c 6c 3d
       -0.10495159 0.22102779 -0.15165307 0.057690293
0001f0 28 72 50 3d 77 0d 36 be 45 ab b4 be 0e c5 90 3f
       0.050890118 -0.17778574 -0.35286918 1.1310136
000200 19 93 f2 bd b0 40 03 3f ba 5c 86 be 88 ac 87 bf
       -0.11844463 0.5127058 -0.2624262 -1.0599527
000210 65 55 64 be 24 d8 cf be ff 7f c5 3e 9f e5 46 bf
       -0.222982 -0.4059459 0.38574216 -0.77694124
000220 93 62 5f 3e 83 fd 86 3e 13 82 3a bf c2 cc b3 bd
       0.21814947 0.2636529 -0.7285473 -0.08779289
000230 7a 72 f4 3e 11 cd 1b bf 85 a1 29 bf f1 f8 e0 3e
       0.4774359 -0.6085978 -0.66262084 0.43939927
000240 da c8 1c bf 9a 61 22 bf e3 03 b9 bf b8 85 f9 be
       -0.61243975 -0.6343018 -1.4454311 -0.48734832
000250 2f f5 ce 3e a5 38 be 3f 80 59 51 be 5e 53 72 3d
       0.40421435 1.4861037 -0.20444298 0.059161536
000260 b6 ac 97 3f 44 a7 68 3e 99 03 e4 3e fc b2 31 3f
       1.1849582 0.22720057 0.44533995 0.69413733
000270 f6 95 5e bf 30 a1 4d be 84 87 7e bd 5c 71 96 be
       -0.8694757 -0.2008102 -0.062140957 -0.2938336
000280 f7 21 77 bf d2 58 2d 3f 0c e9 5f bf 83 fb d9 bd
       -0.965362 0.67713654 -0.87464976 -0.10643675
000290 65 3f 1c bf ae 7e cd be a1 2b 90 3e b9 8c 27 3c
       -0.6103423 -0.4013571 0.28158286 0.010226422
0002a0 6d d0 cc 3d 35 ee e9 bc 0f 19 90 bd 84 43 11 3f
       0.100006916 -0.028555969 -0.070360295 0.56743646
0002b0 f7 29 d5 be 9c 76 25 bf 47 3a fe 3e 3f 00 c7 be
       -0.4163358 -0.6463411 0.49653837 -0.38867375
0002c0 f7 02 2e bf fb 2c 16 bf 6a 8c b1 3f a5 b8 df bd
       -0.67973274 -0.58662385 1.3870976 -0.1092389
0002d0 ea 07 dc ba 3d 7d 33 3f 0c 29 78 bf f5 3c bf 3d
       -0.0016787027 0.70112973 -0.9693763 0.093377985
0002e0 f5 6c 09 bf 8f 58 20 3f ea 21 fb be 6c 52 09 3f
       -0.5368188 0.6263513 -0.49049312 0.5364139
0002f0 9b 56 c5 be 3a 92 0b bf 90 6d 32 3f 6d 59 d7 bc
       -0.38542637 -0.5452 0.6969843 -0.026287759
000300 aa 98 f6 be 5b 09 5d 3e 60 72 61 3e 6c 1d d3 be
       -0.48163348 0.215856 0.22016287 -0.41233385
000310 25 b1 c5 be dd c0 bd 3e 72 be a5 3b 30 5b 9a 3c
       -0.38611713 0.37061206 0.0050581032 0.01884231
000320 22 32 4d 3e 9c 88 a1 be 0f 2f 91 bf ea 7f 69 3f
       0.20038655 -0.31549537 -1.1342486 0.91210806
000330 1d 7c 56 be d3 ae 78 be eb 65 6d 3e cb f5 15 3f
       -0.20945783 -0.2428544 0.2318341 0.58578175
000340 7d 64 31 3f 68 65 a7 bf 10 4d 1e bf 2a 86 c2 bf
       0.6929396 -1.3077822 -0.6183634 -1.5197194
000350 dd 12 d1 bd ed 41 d7 3e 51 de 3a bf 77 a2 95 be
       -0.10208676 0.42042485 -0.7299548 -0.29225513
000360 72 fe 0e bf aa 42 82 3f ca ef 06 be d1 93 ad 3f
       -0.55857 1.0176594 -0.1317741 1.3560735
000370 48 61 46 3f 52 db e8 3e bc 21 aa 3e bb fd 2a bf
       0.7749219 0.45479828 0.33228862 -0.6679341
000380 cc 5d f0 be e2 c0 35 3b be bd a6 3e 86 fd 41 3f
       -0.4694656 0.0027733375 0.32566637 0.7577747
000390 9a e2 cb 3f a4 10 77 be 2e e1 bb bf 6e 32 09 bf
       1.5928528 -0.24127442 -1.4678094 -0.53592575
0003a0 48 05 7f 3f 1f e8 ba be 86 f1 bc bd be c6 09 bf
       0.99617434 -0.3650522 -0.092257544 -0.5381888
0003b0 2d 91 2c 3f 87 b3 df bd 85 ca bd be 01 e4 1c 3e
       0.6740902 -0.10922914 -0.37068573 0.15321352
0003c0 2a d9 5e 3f 09 5a 98 3e 63 18 07 3e 35 2a 83 bf
       0.87050116 0.2975619 0.13192897 -1.0247256
0003d0 8f 8a 88 3f f6 5c d9 be d7 83 78 3e 3e c6 ef be
       1.0667285 -0.42453736 0.24269043 -0.46830934
0003e0 1a df 44 3e fc d4 73 3e 69 34 8d 3e 1e a7 09 bf
       0.19225731 0.23811716 0.27579048 -0.53770626
0003f0 38 bf 13 bf d5 e9 13 3f 0f 95 e2 3c 3d 3e b6 3c
       -0.5771365 0.57778674 0.027658967 0.022246474

r_cell.w_ks.bias f4 [24]
000000 c1 b2 b5 3e 2a 8d 26 be a0 5d 4c be 50 ce 2a 3d
       0.3548794 -0.16264787 -0.1995759 0.04170066
000010 27 4f d1 bd 64 fd e9 3d ac 83 1c be 7e 38 b8 3e
       -0.10220175 0.114252836 -0.15284604 0.359806
000020 c2 d3 e0 be 51 2b f8 bc 9e f7 a5 3d ff 0f 4a 3f
       -0.43911558 -0.030294092 0.0810387 0.7893066
000030 4b d3 af bd 3c c1 af be 95 80 9a 3d b8 0d 34 3e
       -0.08585223 -0.34327114 0.07544056 0.17583358
000040 38 c7 5c be 05 7a 6b 3e 07 18 1a be e6 bb 2b bc
       -0.21560371 0.22995766 -0.15048228 -0.01048181
000050 58 fe 3c be 81 d5 05 be 7a 82 6e bd b1 e3 6b be
       -0.184564 -0.13069727 -0.0582299 -0.23036076

r_cell.w_vs.weight f4 [24, 24]
000000 7b db 07 3f 0e ae 5c 3d e3 fe 89 bd a1 7e 23 3e
       0.53069276 0.05387693 -0.06738069 0.15966274
000010 e3 f6 89 be 13 d7 c9 3e c9 ef 80 3f 3f 26 e1 3e
       -0.26946172 0.394219 1.0073177 0.43974492
000020 ab 80 18 3f 01 c9 2c bf 6b e3 90 be e3 3e 7e bf
       0.5957133 -0.6749421 -0.28298506 -0.9931471
000030 48 7f 8f 3e a9 ef 67 3f f3 27 4a 3f 53 34 9a be
       0.28026795 0.9060007 0.7896721 -0.30118045
000040 1d 24 d1 3e 7f b5 ee 3d fc 7a c1 3d fd c4 0d 3d
       0.40847865 0.116557114 0.094472855 0.03461169
000050 1a e1 03 3f 13 63 ed 3c 9d e3 34 be ae 0b 3d bf
       0.5151535 0.028977906 -0.17664953 -0.73845947
000060 40 11 13 be f6 2c 0b bf 39 fd 29 3e 18 d5 53 be
       -0.14362049 -0.5436548 0.16600503 -0.20686758
000070 42 eb ab 3e 97 51 cf be ae f5 60 be 79 00 12 bf
       0.33577925 -0.40491936 -0.2196872 -0.5703197
000080 56 17 2e bf be 59 a3 3f e9 8b 65 3f 1f 97 66 3f
       -0.6800436 1.2761762 0.8966661 0.9007434
000090 d9 52 94 3d cc eb 88 bf ab 28 bc 3e ca 04 c9 3e
       0.072423644 -1.069696 0.36749777 0.39261466
0000a0 f9 2d 93 3e a7 ec cb 3e 4b 2d 88 3c a4 f8 b0 be
       0.28746012 0.3982899 0.01662316 -0.34564698
0000b0 15 6c 9a be a4 ee 49 bf 6e 8d 42 3f 90 08 84 3f
       -0.30160585 -0.7887976 0.75997055 1.0315113
0000c0 d0 3e 15 bf a0 88 96 3e 1c a3 d8 3e 14 b8 06 3e
       -0.5829897 0.29401112 0.42311943 0.13156158
0000d0 43 34 eb 3d 69 0c ac be 7b 11 19 be f5 57 37 be
       0.114845775 -0.33603218 -0.14948075 -0.17904647
0000e0 3e 2a 23 bf d1 f1 76 3f 72 46 43 3f 9f 3e 3e 3f
       -0.6373633 0.9646273 0.76279366 0.743143
0000f0 87 ab a9 3d 62 19 82 be b8 2c ab bd 56 a7 34 3d
       0.08284669 -0.2540999 -0.08358139 0.044104896
000100 3e ba ab 3e 89 b5 98 3e 65 e5 76 3e 6e 81 9b be
       0.3354053 0.29826 0.24110945 -0.30372185
000110 cd 3d d9 be 58 21 9f bd d6 c9 11 3e 93 08 3e 3f
       -0.42429963 -0.07770032 0.1423715 0.74231833
000120 35 f7 57 bf f2 4f 94 3e d1 03 e3 3e 57 b8 29 bf
       -0.84361583 0.28967243 0.4433885 -0.66296905
000130 ea c3 18 3e 9c 26 0c bf ed 43 d2 3d 02 0b e5 3e
       0.14918485 -0.54746413 0.10266862 0.4473496
000140 1a ca 13 bf 37 76 5b 3f 06 5b 3e 3e c5 fa 10 bf
       -0.5773026 0.85727257 0.1858941 -0.56632644
000150 bb c5 e4 bd 6d e9 18 3f 38 87 c5 3e bd c4 b9 bc
       -0.111705266 0.5973118 0.38579726 -0.02267682
000160 33 b9 45 be 39 38 b9 be cb 35 59 be 76 43 9e bd
       -0.19308929 -0.36175707 -0.21211927 -0.07727711
000170 fa 62 8f bf 1e 2d fb 3d 83 ec 65 bf 12 a9 3f bf
       -1.120208 0.12264465 -0.89814013 -0.74867356
000180 06 3f 36 3e 56 b9 2d bf cd 7d 75 3e fe 32 fc be
       0.17797479 -0.67860925 0.2397377 -0.49257654
000190 9f 65 a9 be 0d 2b b9 3d 4a 34 30 3f 9a 25 98 bf
       -0.33085343 0.090414144 0.68829787 -1.1886475
0001a0 60 56 04 bf d1 f6 d8 3e e4 17 3e 3f 23 a5 0d be
       -0.516943 0.42375806 0.74255204 -0.13832526
0001b0 b8 53 fc be 2e 06 2e 3f 17 b3 9c 3f 9f 03 54 3f
       -0.49282622 0.6797818 1.2242154 0.82818025
0001c0 f6 b8 cc bd 80 8b ef bd b6 ac 5d 3f f0 5a 83 be
       -0.09996216 -0.116965294 0.8659166 -0.25655317
0001d0 35 74 fa be 4a 9e 9e be 15 e0 8c bf 7c c8 94 be
       -0.48916784 -0.3098014 -1.1005884 -0.29059207
0001e0 21 4f e9 be dc 9c 5f 3d 36 70 4b 3b 63 fb 7e bf
       -0.45568183 0.054592952 0.0031042225 -0.99602336
0001f0 55 9f 63 3e 40 41 97 be be 3c 83 3d 37 69 48 be
       0.22228749 -0.2954197 0.0640807 -0.19571386
000200 17 b4 f3 3e 43 f9 9e be 39 76 39 3e 32 62 91 3d
       0.47598335 -0.31049547 0.18111505 0.070988074
000210 93 4a 61 bf 24 17 25 bf bd 8a c8 bf 28 3f d6 bf
       -0.88004416 -0.64488435 -1.566734 -1.6738024
000220 9b 47 01 bf 59 52 80 3e 75 2b 98 bf 74 fc 58 bf
       -0.50499886 0.25062826 -1.1888262 -0.8476021
000230 b7 bd d8 be d2 15 06 3f 34 ea d5 be 82 b2 95 3d
       -0.4233224 0.52377045 -0.41780245 0.07309438
000240 30 0e f3 3d 27 45 7c 3f 6c a7 c9 be fa 68 fb be
       0.118679404 0.9854302 -0.39385545 -0.49103528
000250 be c4 f3 3d eb 5c 47 3f 86 b6 30 bf 2f bc b7 3e
       0.1190276 0.77876157 -0.6902851 0.3588576
000260 1c b6 1f 3f 5a ea 9b 3f 7b e7 92 bf bd 3f 33 3f
       0.6238725 1.2180893 -1.1476892 0.7001913
000270 ca 1b 98 3e 05 3d 78 bf de 59 5d 3f d2 ce 65 be
       0.297087 -0.9696811 0.8646525 -0.22442177
000280 72 dc 2d 3d 63 8c 21 be 24 f7 41 bf e7 cf 0f 3f
       0.04244656 -0.1577621 -0.7576773 0.5617661
000290 7c d3 33 bf f0 34 5c be 6d 80 62 3f 85 45 9a 3f
       -0.70244575 -0.21504569 0.8847721 1.2052466
0002a0 6d 00 b5 3d b7 fb 0d 3f 5f bc 10 bf 10 ee 73 bf
       0.08837972 0.5546221 -0.5653743 -0.9528513
0002b0 67 49 27 3f da 3b 1f be a5 4f 3a bf 5d 7e b5 3e
       0.6534638 -0.15550175 -0.7277778 0.3544797
0002c0 3f bd 9e 3e a3 46 ac 3f 51 09 38 bf a1 9d a2 3e
       0.31003758 1.3459057 -0.71889216 0.31760886
0002d0 e8 bf 64 bf 91 d4 ef bf 40 ba ab 3f f8 89 eb be
       -0.89355326 -1.8736745 1.3416214 -0.460037
0002e0 98 25 31 3e 09 da 8c 3e 4b c7 19 bf 53 5f c1 be
       0.17299497 0.27510098 -0.6006972 -0.3776804
0002f0 9b e2 88 bf d7 76 ba 3d df d1 d2 3d 5d b9 09 be
       -1.0694155 0.09104698 0.10293936 -0.13449617
000300 4a 00 08 be cb 4a 1d 3f d4 03 01 bf df 93 d3 bf
       -0.1328136 0.6144225 -0.50396466 -1.6529502
000310 f4 f7 a0 3f 0b ac 4b 3d a9 50 cd bd 2e 79 bc be
       1.2575669 0.04972462 -0.1002515 -0.36811203
000320 55 53 0c bf 10 12 92 3f 61 e8 6c be 48 37 81 bf
       -0.54814655 1.1411762 -0.2313552 -1.0094995
000330 b2 2a 1c bf 4a b9 65 be 21 86 5e 3f b4 07 97 bf
       -0.6100265 -0.22433963 0.86923414 -1.1799226
000340 13 1c 5f be 46 0a 6f bd 4b f2 12 bf c5 2e cc be
       -0.21788053 -0.058359407 -0.5740096 -0.39879432
000350 bc 40 90 bf 00 91 77 bf e1 1a 98 bf f7 1d 2c bf
       -1.1269755 -0.9670563 -1.1883203 -0.6723322
000360 9e fa 68 3f cd 0a bb 3e 68 fa 7c bd d3 2d 07 bf
       0.9100741 0.36531678 -0.061762244 -0.528043
000370 85 05 56 bf ec 1d 85 3d a5 bb bf bf 33 a4 b4 be
       -0.8360217 0.06499848 -1.497914 -0.35281524
000380 3d 29 27 bf 6d b3 79 3e 18 0d db 3e 61 4a 2b 3e
       -0.652973 0.24384852 0.42783427 0.16727592
000390 88 58 7e be 50 bf 2c bf b2 ce a1 3d d6 38 88 bd
       -0.2483846 -0.6747942 0.07900752 -0.066514656
0003a0 5c 1c 60 be c1 fb ca 3e 25 9a 36 bf c7 fa cf be
       -0.21885818 0.39645198 -0.71328956 -0.40621015
0003b0 5e 74 0a 3f f5 55 c2 be b7 97 aa 3e 01 5f 00 be
       0.5408381 -0.37956205 0.33318874 -0.12536241
0003c0 9d 63 e1 3e 9e 57 d8 be 4b 81 26 be 27 b6 28 3f
       0.4402131 -0.42254347 -0.16260259 0.6590294
0003d0 22 7e c0 bf 42 33 9c bd 45 a5 1d bf be 43 20 bf
       -1.5038493 -0.07626964 -0.61580306 -0.62603366
0003e0 f0 3c 06 bd e6 90 c3 3f 9b 8c b7 be f1 3a ec 3e
       -0.03277296 1.5278594 -0.3584946 0.4613872
0003f0 09 1a 02 bf 26 fd db be 20 b2 1a 3f ef 26 15 3f
       -0.50820976 -0.42966574 0.6042805 0.5826253

r_cell.w_vs.bias f4 [24]
000000 97 2b 67 3f b0 c0 98 bf ac 0e 79 bf 60 d0 71 bd
       0.9030089 -1.1933804 -0.9728801 -0.059036613
000010 1a 8b 36 3f 86 5f 7c be 68 26 bd 3e ef a5 1a 3f
       0.71306 -0.24645814 0.36943364 0.60409445
000020 e9 4a ad 3e ec 46 98 bd 82 d8 e0 be d6 34 28 bf
       0.33846214 -0.07435402 -0.43915182 -0.6570562
000030 3f c6 18 3d 3b 3c 04 3f ed 2a 2a 3f 1d 41 80 be
       0.037298437 0.51654404 0.6647175 -0.25049677
000040 bf 92 01 bf 0b 1b fe 3e 92 e1 d6 bd 58 a2 e6 be
       -0.5061454 0.49630007 -0.10492243 -0.45045733
000050 a0 0b eb be 27 d3 d8 be c7 38 59 be e6 78 ff 3d
       -0.45907307 -0.42348596 -0.21213065 0.124742314

r_cell.layer_norm.weight f4 [24]
000000 5d 29 41 3d b5 63 23 3f 3a dc 1a be ad e0 64 40
       0.047158588 0.63824016 -0.15123072 3.5762131
000010 ca 4a 93 3f ce fa 9f 3f 72 14 1f 40 67 c0 d2 3c
       1.1507199 1.2498415 2.485623 0.02572651
000020 07 3f 16 bf a6 77 7d 3d 92 1e 99 3f ca 6e 3f 40
       -0.5868992 0.061881684 1.1962454 2.991137
000030 79 c7 54 3f 6d 80 21 bc bf dd 01 3d dd 29 13 3e
       0.8311687 -0.009857279 0.031705614 0.14371438
000040 db 61 6b 3d e1 98 99 3d a0 d2 b3 3e bf 5a 18 40
       0.05746637 0.074998625 0.35121632 2.3805387
000050 31 90 2c 40 a9 42 c3 3e e0 6e 67 3e e7 ff 1b 40
       2.6963007 0.38136795 0.22600889 2.437494

r_cell.layer_norm.bias f4 [24]
000000 66 c0 7f bf 43 3f d9 3e 20 80 2d 3f 4d ac 86 bf
       -0.9990295 0.42431077 0.6777363 -1.0521332
000010 50 61 7b be fd 44 a8 3f 40 b2 81 bf c4 a8 44 3f
       -0.2454884 1.3146054 -1.0132523 0.76820016
000020 2f 19 bc be 29 ca a2 3f 27 cf 97 3f 33 e9 87 bf
       -0.36737964 1.2717944 1.1860093 -1.0618042
000030 82 b7 fa be 6b 87 95 3f 3d 85 92 3f d1 cb 03 3f
       -0.4896813 1.1681951 1.1446911 0.51482874
000040 b3 58 92 3f 1f f4 64 3f 2c db 3c bf 13 81 87 bf
       1.1433319 0.89435 -0.7377193 -1.0586265
000050 68 17 95 3f da b7 99 be a8 af 80 3f 15 4a 8d bf
       1.1647768 -0.3002308 1.0053606 -1.1038233

r_cell.fc.weight f4 [24, 24]
000000 ed 60 4b bd 88 f0 8e bf 2e ae f8 be 80 77 69 3f
       -0.049652983 -1.1167154 -0.4857039 0.9119797
000010 54 dd 14 3f 69 83 9c be a8 47 0a 3f 87 75 0f be
       0.5815022 -0.30569008 0.5401559 -0.14009677
000020 c0 70 24 bf 6b 8d 28 3f 35 86 7a 3e 6f e0 f7 3e
       -0.6423454 0.65840787 0.24465258 0.48413417
000030 b6 a1 e9 be f6 39 4d be c8 57 da 3e dd b3 dd be
       -0.45631188 -0.20041642 0.42645097 -0.43301287
000040 32 e7 f6 3d 3f 2e 4c 3f c5 09 8a bf 50 64 37 bf
       0.12055816 0.79758066 -1.0784231 -0.7163744
000050 5f 63 6d bd f0 e9 cb be 8c 5e 8c bf ce cd c6 3e
       -0.057956096 -0.39826918 -1.0966353 0.38828892
000060 6a 1c 99 be ee 32 53 bf 91 15 8e be dc 1c 33 bf
       -0.2990449 -0.8249959 -0.2775083 -0.6996591
000070 fe 58 e3 3e 1b cd 2a bf 8d 4f 4d 3f 6b 68 e1 be
       0.44403833 -0.66719216 0.8019951 -0.44024977
000080 12 bb e0 bf 33 56 98 3f db 88 f8 3f 29 af fa 3f
       -1.7557089 1.1901306 1.9416765 1.9584705
000090 5d 3d 22 be 5b 57 51 3e ec 9a 04 bf 46 39 c1 bf
       -0.1584372 0.2044348 -0.5179889 -1.5095603
0000a0 6a 2d 2f be d1 b3 b4 3e a6 d6 9a bd dd 31 9a 3e
       -0.17107168 0.3529344 -0.07560472 0.30116168
0000b0 e6 77 7f 3e 2b e7 20 bf be 8e ab bf 99 45 09 3e
       0.24948081 -0.62852734 -1.3402936 0.13405456
0000c0 97 e2 fb bd 14 07 b4 bf 24 e4 e3 be 39 88 ec 3e
       -0.12299078 -1.406466 -0.44509995 0.4619768
0000d0 21 c6 95 3f 88 33 7f bf 3b f3 2c 3f ae 7d cf 3e
       1.1701089 -0.99688005 0.6755864 0.40525573
0000e0 fd 98 a0 bd dc 3f 17 3f 55 5d ca 3d aa b2 e1 bd
       -0.0784168 0.59081817 0.09881083 -0.110204056
0000f0 8d 27 d4 be f7 22 2c 3f cb 37 af 3e 71 0a bb be
       -0.41436425 0.6724085 0.34222254 -0.36531404
000100 63 91 87 3d 7d 18 06 3f 13 72 4c be 58 41 57 bf
       0.06619527 0.52381116 -0.19965391 -0.8408408
000110 bc e3 34 bf a9 5b 56 bf a6 4d 6f bf 2d 69 00 3f
       -0.70659995 -0.8373361 -0.9347786 0.50160486
000120 ae 9d a4 be ab 49 94 3f 81 11 0e 3e 8f 63 96 bd
       -0.3215155 1.1584982 0.13873865 -0.07343208
000130 d3 56 a3 bf 07 f9 8a 3f 3a 44 7f bf 83 d0 c5 be
       -1.2760872 1.0857247 -0.9971348 -0.38635644
000140 01 90 00 bf 29 73 27 bf fd 46 29 3f 62 d8 4b 3e
       -0.5021973 -0.65410095 0.66123945 0.19906762
000150 76 b4 67 be d5 f8 df be 04 b6 1c bf 4a a0 52 3d
       -0.22627434 -0.4374453 -0.61215234 0.051422395
000160 58 39 ec be dc 2c ce be ab 8b 23 3f 16 56 c5 3e
       -0.461375 -0.402686 0.6388499 0.3854224
000170 45 69 51 3f 6d 4c b5 3f b9 34 00 3e 89 28 5b be
       0.81801254 1.4163948 0.12520112 -0.21402182
000180 07 4e b4 3e e5 d4 26 3e b4 d2 0a bf 8b b8 43 3f
       0.3521578 0.1629215 -0.5422776 0.76453465
000190 47 85 b4 3c c1 be 33 be b5 87 ff be 23 ce af bc
       0.022036208 -0.17553236 -0.49908224 -0.021460598
0001a0 72 4a 79 3e fd 5a a9 be 19 df 00 bf 22 d6 b7 bf
       0.24344805 -0.3307723 -0.5034042 -1.4362223
0001b0 36 00 69 bf ec f0 90 3e 1d cc 7f 3f 99 dc b2 3e
       -0.91015947 0.2830881 0.9992083 0.34933928
0001c0 0f 68 d9 3e 0d 05 b7 be a7 f8 63 3f 21 9c 19 bb
       0.42462203 -0.3574604 0.8905129 -0.0023439007
0001d0 b3 17 6a 3d e2 4b 32 3f 25 c7 f9 3d a0 5e 80 3e
       0.057151508 0.6964704 0.12196187 0.25072193
0001e0 6b ef 18 bc 18 af 93 bf 8e 42 e4 be 1c 73 9b be
       -0.009334425 -1.1537809 -0.44582027 -0.3036126
0001f0 b8 a7 7b 3f 2f b3 ad bf 0f af 41 3f 34 79 57 3e
       0.98302794 -1.3570307 0.75657743 0.21042329
000200 61 af 58 3d 6f 4e 3a 3f cf 6a 01 bf eb cc 9c be
       0.05290163 0.7277593 -0.505536 -0.3062509
000210 d2 0d 6c be 00 02 00 3f 80 50 39 3f 2e 25 7e be
       -0.23052147 0.5000305 0.7238846 -0.2481887
000220 7f 7d c2 3e 96 c8 23 3e 03 b4 9f 3d e2 72 e8 be
       0.3798637 0.15994486 0.077980064 -0.4540015
000230 f4 5e 54 be b6 41 89 bf 0b 44 d2 be 90 a5 ad 3e
       -0.20739347 -1.0723178 -0.41067538 0.33915377
000240 fa d6 e6 bd a8 44 a7 3f f6 ba ea 3e 36 69 be 3d
       -0.11271472 1.3067827 0.45845765 0.09297411
000250 df a3 a9 bf 63 d6 60 3f f8 aa 85 bf 16 b8 a9 be
       -1.3253134 0.8782713 -1.04428 -0.3314826
000260 8c 49 00 3d 8d 7c 15 bf ff 02 08 3f 29 19 15 be
       0.03132014 -0.58393174 0.5312957 -0.14560379
000270 3b 6d 01 bf 49 a4 8a be 35 5c fb be b1 b6 03 3e
       -0.505573 -0.27078465 -0.49093786 0.1286266
000280 0b b0 97 be cd 7d 03 bf 81 d0 c3 3e 75 d0 1f 3f
       -0.29626498 -0.5136383 0.38245013 0.62427455
000290 e8 ef 32 3f 71 9d 85 3f 5a 33 05 3f be 60 22 bf
       0.6989732 1.0438672 0.5203148 -0.63428867
0002a0 55 ef bc 3c c8 b4 1d bf fa 60 cf 3d ba d4 e5 3f
       0.023063341 -0.61603975 0.10125919 1.7955544
0002b0 8f 0d 15 3f 61 9b a9 3e 98 79 11 bf 99 5d 97 3e
       0.58223814 0.33126357 -0.5682616 0.29563597
0002c0 93 d6 91 3f f0 b5 82 bf d3 b6 3e c0 0a 64 90 c0
       1.1393608 -1.0211773 -2.9799087 -4.512212
0002d0 25 7e 54 bf f5 db 9c 3e 11 9f 7b 3f 59 ad b9 3f
       -0.8300498 0.30636564 0.9828959 1.4506027
0002e0 2d c0 58 3f d2 8b 9c be ca 07 b5 3e 55 a6 52 bf
       0.84668237 -0.30575424 0.35357505 -0.8228505
0002f0 f2 b5 7f be d7 34 7c bd 28 a2 18 3f 5b 88 89 3f
       -0.2497175 -0.06157383 0.5962243 1.0744737
000300 d2 62 9d 3e 17 f2 bd be 75 e1 37 be 9a 9c 6e bd
       0.30739456 -0.37098762 -0.17957099 -0.058254816
000310 75 01 47 bc db a5 e0 3d f9 01 8c 3f 46 0a 91 3e
       -0.0121463435 0.109691344 1.0938102 0.2832815
000320 d8 08 91 3e 21 1a 35 3f de e6 97 3f ff c9 df 3f
       0.2832706 0.70742995 1.186733 1.7483519
000330 ce c5 9f 3f 38 f4 5f 3e af 1a 2e bf 2a e6 39 be
       1.248224 0.21870506 -0.68009466 -0.18154207
000340 fe d5 92 bf 82 94 98 3f 3f f1 e6 bf 5a 6f 50 bf
       -1.1471555 1.1920321 -1.8042372 -0.8141991
000350 09 27 8b bf bc ca 98 be 27 f7 43 bc 56 d5 f0 3c
       -1.0871288 -0.29842174 -0.011960781 0.029398602
000360 aa ad 20 be 57 f6 f0 be 5e 32 87 be 46 f4 b1 3f
       -0.15691248 -0.47062942 -0.26405615 1.3902671
000370 93 07 06 3d 23 46 95 3e 52 d7 bc 3c 61 ee 19 3f
       0.032722067 0.29155073 0.023051891 0.6012936
000380 c1 4b d8 3f 24 46 3a bf 10 0c f7 bf 15 f7 5f c0
       1.6898118 -0.72763276 -1.9300556 -3.4994557
000390 8d f1 db 3e 51 b5 a5 3e a6 55 be 3d 19 d0 cd 3f
       0.42957726 0.32364896 0.0929368 1.6079131
0003a0 88 c3 97 be bf 10 d8 3e f6 d5 94 bf 8b da be bf
       -0.29641366 0.42200276 -1.1627796 -1.4910444
0003b0 b0 b4 72 bf aa 80 30 3c ba 26 00 3f 15 2a 2f 3f
       -0.9480696 0.010772863 0.5005909 0.6842359
0003c0 cc 0f 08 3e cb a3 ad bf ac 70 03 bf d6 46 ea bd
       0.13287276 -1.3565611 -0.513438 -0.11439292
0003d0 32 d1 8f 3f e6 be 8b bf 92 19 59 3f 82 3c 2b 3e
       1.1235716 -1.0917633 0.8480464 0.167223
0003e0 86 76 ce bb d0 44 e2 3e 36 aa d2 be da d7 04 3e
       -0.00630075 0.44193125 -0.41145486 0.12972966
0003f0 01 46 65 bd 50 83 93 3e 47 3e 2d 3f d1 5b 45 be
       -0.055974964 0.2881112 0.6767315 -0.19273306

r_cell.fc.bias f4 [24]
000000 c7 d0 8e be d1 98 36 bf b0 85 7c 3e 61 a9 fe be
       -0.2789366 -0.7132693 0.24660373 -0.497386
000010 bc 6b 0d bf e6 6d ed 3e 9c 15 fe be 12 55 82 3e
       -0.55242515 0.46372908 -0.49625862 0.25455528
000020 93 08 a2 3d e0 7b 48 3f db a9 85 3e 17 0c 20 bf
       0.07911792 0.7831402 0.26106152 -0.6251845
000030 6c ea 9e be cb 57 8c 3e 42 ab 74 be 91 ca cd bd
       -0.31038225 0.2741073 -0.23893455 -0.10048402
000040 a8 3e 2c 3e c1 d7 4f 3e f2 59 45 3e a8 da f4 be
       0.16820776 0.20297147 0.19272593 -0.4782307
000050 16 3b 61 3e 16 82 9d bf 68 fa f1 bd 04 2f 32 bf
       0.21995196 -1.2305324 -0.11815339 -0.6960299

fc1.0.bias f4 [24]
000000 5c 95 4f 3d 9a a5 4f 3d d5 28 58 be f5 52 67 bd
       0.05067955 0.05069504 -0.21109326 -0.0564756
000010 b0 c5 a7 be 38 fc ee 3d f7 c3 f7 bc 6f 46 8d be
       -0.3276801 0.11669201 -0.03024481 -0.275928
000020 70 1e 9f bc dd 29 33 3e 04 93 59 3c 57 16 77 bd
       -0.019423693 0.17496438 0.01327968 -0.06032404
000030 88 f6 53 3a 00 b9 9d 3d b6 4a 6f be 80 fd e2 bb
       0.0008085747 0.077013016 -0.23368344 -0.006927192
000040 a0 1b 52 be 19 0f 8e bd b5 f9 47 bd 65 65 5f bd
       -0.2051835 -0.069364734 -0.048822124 -0.054540057
000050 0a cc 63 bd 7a 1f ab be 33 58 8e be 0a c4 8c bd
       -0.05561451 -0.33422452 -0.27801666 -0.06873329

fc1.0.weight_orig f4 [24, 6]
000000 ce e7 57 3f cb 39 8a be 69 54 a5 3f ba 6c ad be
       0.8433808 -0.26997218 1.2916385 -0.33872014
000010 b9 71 53 3f da 4f 63 bf d6 c6 ce 3e d0 f1 d4 3d
       0.825954 -0.8879372 0.40386075 0.103976846
000020 36 2f 8f 3f 0e 58 ae bb f2 2b a2 3e 6a 13 37 bf
       1.1186283 -0.0053205555 0.31674153 -0.71514
000030 b5 c4 02 3f 41 b3 d2 bc 92 e0 78 3e f2 5d 73 bc
       0.510814 -0.02572024 0.24304417 -0.014853941
000040 28 1a fc 3e 00 d4 b9 bf d0 f4 10 3f 48 67 b1 be
       0.49238706 -1.4517822 0.56623554 -0.3464911
000050 3e fc 52 3f 85 65 5b be 84 b8 d0 3e a9 7c 0d 3f
       0.8241614 -0.21425445 0.40765774 0.5526834
000060 45 10 ac bd cc bf 46 be bd f2 c0 be af 5a a6 3a
       -0.08401541 -0.19409102 -0.37685195 0.0012691821
000070 2f 4f 2e bd 12 04 0a bf 03 47 80 3b fb 8a 10 3f
       -0.042555984 -0.5391246 0.0039147153 0.5646207
000080 be e4 6b 3e 34 a2 03 3f 9c b8 ff 3d 01 77 7a 3f
       0.23036477 0.5141938 0.12486383 0.97837836
000090 50 36 a9 be 39 fd 31 3f 50 60 52 3e 4e b2 d3 3e
       -0.3304925 0.6952701 0.20544553 0.41346973
0000a0 ab 89 44 be ee d2 19 3f ae 6d b6 3d 73 ee e9 3d
       -0.19193141 0.6008748 0.089076385 0.11422434
0000b0 4d 36 c4 bd f3 43 26 3e 7a fc c5 3d 9f 9e 83 bf
       -0.095806696 0.16236858 0.09667297 -1.0282782
0000c0 3f fd b4 bc 65 c2 be 3d 41 80 27 3b 7c 7c 97 3c
       -0.022093413 0.093144216 0.0025558623 0.018491976
0000d0 67 09 59 bd de 70 af 3f c4 c2 f4 3d f8 bf b3 3e
       -0.052987482 1.3706319 0.11951211 0.35107398
0000e0 ac 7a 3b 3f de 00 59 3e 5f 80 38 3e 67 09 a0 3f
       0.7323406 0.21191737 0.1801772 1.2502869
0000f0 bd cf 40 3f c2 1a 16 bd 46 84 3e 3f 47 9a 41 bc
       0.75316983 -0.036646612 0.74420583 -0.011816568
000100 2f b2 39 3f 13 46 26 bf d3 63 29 3f 97 45 87 be
       0.7253751 -0.64950675 0.66167945 -0.2642028
000110 ef a4 7f 3f 6b 96 a6 be 1b 22 1b 3f cc e7 82 bf
       0.99861044 -0.32536635 0.60598916 -1.0226989
000120 78 67 6f 3f fb b1 0e be f2 0c 0e 3d 64 5f 79 be
       0.93517256 -0.13935082 0.034680314 -0.24352795
000130 28 f7 4f 3f 81 b9 64 be 99 88 0b 3f a0 19 48 bc
       0.81236506 -0.22336389 0.54505306 -0.012213141
000140 ff 79 dc 3e 91 28 99 3b 56 b7 19 3f 6d 1a 94 3f
       0.43061826 0.0046740253 0.60045373 1.1570565
000150 63 7f 8f bd 78 96 fd be 05 bc af 3e 15 db cd be
       -0.07006719 -0.4952886 0.34323135 -0.4020621
000160 0b ff 10 be 0f d9 c5 3e 6e 31 91 3b c2 70 a3 bc
       -0.14159791 0.38642165 0.0044309413 -0.019951228
000170 21 84 36 ba a0 29 d4 bc ec 16 06 3c 73 ec 37 3f
       -0.0006962438 -0.025898755 0.008184176 0.7184517
000180 dd 60 94 bc ee b0 c6 3d 38 89 15 3f 67 27 95 3d
       -0.018112594 0.097017154 0.58412504 0.07282906
000190 b8 b8 a9 3d 50 40 8b bf 46 ea 96 3d ca 07 81 3d
       0.082871854 -1.0879002 0.07368903 0.06300314
0001a0 b1 c4 4d 3f 1a ee 53 3d 8a 88 0c bc 59 5d 44 3f
       0.8037825 0.051740743 -0.008577475 0.7670494
0001b0 44 a0 19 3f 26 43 35 3d 47 ef 68 3f 86 8b 12 3e
       0.6001017 0.04425349 0.9099011 0.14311036
0001c0 61 15 01 3f 45 26 c3 bf 31 c5 36 3f 56 10 fa be
       0.50423247 -1.5246054 0.7139464 -0.48840588
0001d0 9a dc 19 3f d9 a8 ed be 19 7a eb 3e d2 cb a3 3e
       0.60102236 -0.46417883 0.4599159 0.3199144
0001e0 89 54 1c 3e 45 39 2f 3d fc 99 95 3e 38 06 a7 3d
       0.15266623 0.042779226 0.29219043 0.08155483
0001f0 61 6e e4 3d c1 19 d9 3f 42 ab 68 be 19 8a 06 be
       0.111538656 1.6960984 -0.2272158 -0.13138618
000200 b1 d5 84 be f8 bb c1 bd 6d 10 16 be 67 c8 7d bf
       -0.25944284 -0.0945968 -0.14654703 -0.99133915
000210 ad 07 9e 3e 8f 2d a5 3d 0e 43 77 3e 6c 7d 2b bc
       0.3086523 0.0806533 0.24146673 -0.010466915
000220 21 c0 74 3e c7 39 fa bf 8a 4e 2f 3f 90 d4 63 be
       0.23901416 -1.9548882 0.68479216 -0.22249055
000230 1a 75 39 3f 25 15 be be 8b 80 2a 3f 29 ed 2c be
       0.7244431 -0.37125507 0.6660239 -0.16887344

fc1.0.weight_u f4 [24]
000000 92 1e 97 be be 2d 52 be 5c d3 9c be af 43 b7 3b
       -0.2951551 -0.20525262 -0.30630004 0.0055927853
000010 4c 1f 95 bd 44 fe 2c 3e ad 6c 09 3e b7 13 35 be
       -0.0728136 0.1689387 0.13420363 -0.17683302
000020 7c e3 76 3e c1 5c 35 3e b0 06 59 be 53 ef 92 be
       0.24110216 0.17711164 -0.21193957 -0.28698215
000030 d0 a4 fb bd 50 62 04 3e 98 d3 3d 3d bb 12 fb 3d
       -0.12287295 0.12928128 0.04634437 0.12259432
000040 64 b0 5b be e9 1b c0 3d 2c 8e b3 be d6 3f 20 bd
       -0.21454006 0.093803234 -0.35069406 -0.03912338
000050 10 ce 89 3e a4 37 15 be a2 1c be be 34 00 06 be
       0.26915026 -0.14572006 -0.3713122 -0.13086015

fc1.0.weight_v f4 [6]
000000 dd 99 78 be 99 19 a5 3d dd 99 78 be d8 ad 9f 3d
       -0.24277444 0.08061523 -0.24277444 0.0779683
000010 74 10 60 be 90 0d 68 3f
       -0.21881276 0.90645695

fc1.1.weight f4 [24, 24]
000000 41 69 23 bf 62 23 e8 be 55 eb 98 3f 20 2b a2 3f
       -0.6383248 -0.45339495 1.1946818 1.2669411
000010 60 08 1f 40 85 5c 0a c0 2f 93 e5 3f d7 98 68 3e
       2.4848862 -2.161897 1.7935542 0.22714554
000020 ae 8a d9 3e 42 2a cc bf 18 a5 6c bf cb a9 9c 3f
       0.42488617 -1.5950396 -0.92439413 1.2239317
000030 f6 82 6c be fb 9a c1 be 3c 64 fc be 38 2c 24 c0
       -0.23096833 -0.37813553 -0.49295223 -2.565199
000040 69 e4 9c 3e 7e 60 41 bf 3d 10 40 bf ad 15 9f 3f
       0.30643013 -0.7553786 -0.7502478 1.242849
000050 ec 57 a9 3e d9 c0 c7 3f cd 3a 8e bf 08 e2 89 3f
       0.33074892 1.5605727 -1.1111695 1.0772104
000060 fe 33 42 3e 7b e4 6f 3f bf 21 6a 3e 69 b8 93 bf
       0.18965146 0.9370801 0.22864436 -1.1540653
000070 33 de 69 3f 5d a5 99 3e 8d ae 6c 3e 15 24 e2 3f
       0.91354674 0.30008975 0.23113461 1.7667261
000080 94 c0 c2 3f ef ad a8 bf 67 c0 50 bf 5d 21 27 c0
       1.521502 -1.317808 -0.8154358 -2.6114113
000090 56 d6 43 bf 90 9b 10 40 e9 bd 8a be 25 37 15 be
       -0.76498926 2.2594948 -0.27098015 -0.14571817
0000a0 18 26 82 3e d4 a9 1e 3f de 89 05 3f bf fa 8e 3f
       0.25419688 0.6197789 0.52163494 1.1170272
0000b0 ba b2 8f be 4d d0 d6 3c 5a 00 98 bf 6a 15 9b 3f
       -0.28066045 0.026222372 -1.1875107 1.211591
0000c0 63 d0 12 3f 9a dc 08 40 24 fb 05 40 81 86 25 bf
       0.5734922 2.1384645 2.0934534 -0.6465836
0000d0 d0 89 2a 3f 65 2a 61 3f 95 93 0a bf b8 b0 2e 3f
       0.66616535 0.87955314 -0.5413144 0.682384
0000e0 12 32 56 bf f9 26 a2 bf 66 36 79 bf 35 a8 d6 3d
       -0.8367015 -1.2668144 -0.9734863 0.10481302
0000f0 c3 41 94 3f 58 f8 21 3f cf c3 40 be 36 8e fe bf
       1.1582569 0.6326957 -0.18824695 -1.9887149
000100 59 9a 9e bf 72 64 e5 3f 2d 0d d7 3f 12 3e b8 bf
       -1.2390853 1.7921278 1.6800896 -1.4393942
000110 57 8c 93 bf b6 f0 c6 3f 7c 76 81 3f 46 65 14 3f
       -1.1527203 1.5542209 1.0114284 0.5796703
000120 1c 31 cf 3e 6d b7 22 3e f8 0a e3 3f 9b ad a2 bf
       0.40467155 0.15890284 1.7737722 -1.270923
000130 d8 6c 1b 3f 14 db 1d bf 15 7c fb 3e cf 06 69 3f
       0.6071296 -0.6166241 0.49118105 0.91026014
000140 84 2e 43 be c7 70 8c bf 81 50 91 bf 5b 52 ec be
       -0.19060713 -1.0971917 -1.1352693 -0.46156582
000150 cb 6f 01 be 1b 2b 4c 3f fe 7f b2 3f eb 4c e3 be
       -0.12640302 0.79753274 1.394531 -0.4439462
000160 59 6a 02 c0 c7 28 fb 3e ca 7d 6f 3f 4f fa c4 bf
       -2.037741 0.49054548 0.93551314 -1.5388888
000170 2d 28 b6 be 61 ad b7 3f f0 56 15 3f 7b 4e f5 bf
       -0.35577527 1.4349786 0.5833578 -1.9164575
000180 e0 9c bd 3f e2 ad ff 3f 34 da bd 3f 51 99 94 be
       1.48135 1.997494 1.4832215 -0.2902322
000190 d2 68 de 3f e3 e8 db 3f 6f 5a 45 bf 36 c7 38 3e
       1.7375739 1.7180446 -0.77091116 0.18044743
0001a0 2e 35 2c bf 57 89 01 be db b5 32 3f 33 9c 5f 3f
       -0.67268646 -0.12650047 0.6980874 0.87347716
0001b0 02 77 dc be e5 4c 9d 3f 14 58 ef 3d c4 f5 1d c0
       -0.43059546 1.2289091 0.116867214 -2.4681253
0001c0 2c 3c c1 bf 59 cf 57 bc d1 b8 91 be 89 46 4d c0
       -1.5096488 -0.013171994 -0.28461316 -3.2074301
0001d0 ae e8 0a c0 9d b2 e6 3e a1 58 41 3f e9 0f f2 3f
       -2.1704516 0.45058146 0.7552586 1.8911105
0001e0 0d 01 3a 3f 97 2b 8f 3f c9 d1 8c 3f f4 dc 40 3e
       0.72657853 1.1185178 1.1001521 0.18834287
0001f0 eb 97 b1 3f a7 c0 fa bf eb 75 9a 3e 41 56 99 3f
       1.3874487 -1.9590043 0.3016809 1.1979448
000200 5b 8d 3a bf ff 6d 0b bf a4 72 52 bf ea ec 31 3f
       -0.7287194 -0.54464716 -0.8220618 0.6950213
000210 0a a9 3d 3e e6 3c 52 bf b8 eb 81 3e c0 ab dc 3f
       0.18521515 -0.82124174 0.25375152 1.7239914
000220 dd 27 a6 3f 49 fe aa be 98 0a 90 bf a3 e3 8f 3f
       1.2980915 -0.3339713 -1.1253233 1.1241344
000230 bf 7a 95 be 41 0e ab bf e0 f8 3f bf 4d e0 82 3f
       -0.2919521 -1.3363725 -0.7498913 1.0224701
000240 5e 92 83 3f ef d5 e8 3e 63 fc eb 3e df c4 a5 bf
       1.0279043 0.45475718 0.46090993 -1.2950705
000250 66 40 2d 3f a3 68 fa 3e 41 a1 2c be 98 ed 93 3e
       0.6767639 0.48907956 -0.16858388 0.28892207
000260 3a fb 32 bf 7e df 1d bf aa f6 5d be a7 33 34 40
       -0.6991459 -0.61669147 -0.21676126 2.8156526
000270 d1 49 43 bf e8 66 86 3f 57 cc e5 3f b6 cc 93 c0
       -0.7628451 1.0500154 1.7952985 -4.618739
000280 54 39 97 bf 1f 3f 27 40 56 d6 31 3f 55 ac 44 be
       -1.181437 2.6132276 0.69467676 -0.19206364
000290 d9 1b 89 bf d2 1b 02 40 b5 ee a1 3d 25 3b 3b 3f
       -1.0711623 2.032948 0.07906858 0.7313712
0002a0 2c ef 52 bf 96 3d 07 3f be fc 2f bf ef 01 03 3e
       -0.823962 0.5282835 -0.6874503 0.12793706
0002b0 4b 48 1f 3f fa 42 fd 3f 73 d5 f1 be 3c d8 39 3f
       0.62219685 1.9786065 -0.4723316 0.7259557
0002c0 48 91 7e bd 7c 94 0e bf 0d 98 37 be 63 4b 28 3e
       -0.06215027 -0.5569532 -0.17929097 0.16435008
0002d0 53 e7 f6 bf 85 2a 78 be 80 87 07 3f 26 6f 6e 3d
       -1.9289345 -0.2423497 0.5294113 0.05821147
0002e0 f9 fa 2a bf 88 fc 35 bf d8 df 95 3e 8f 8d 01 3f
       -0.66789204 -0.7108846 0.29272342 0.50606626
0002f0 90 2d eb bf 21 0b bb be 43 98 85 be 0a 79 b6 3f
       -1.837328 -0.36531928 -0.2609273 1.4255688
000300 44 07 5d bd 3f 61 7c be 8a 21 67 3e c4 3a 5d be
       -0.053962007 -0.24646471 0.22571388 -0.21604449
000310 1e 8d 30 3f 6e 14 5b 3f 8b ec 3b bf 1f b2 10 bf
       0.6896533 0.8557805 -0.7340781 -0.5652179
000320 ac 18 8c bf d2 b1 d9 bf 6d 3d 73 3f fe 3e 47 3e
       -1.0945029 -1.7007391 0.95015603 0.19457623
000330 4b b5 90 bd c5 4f fe 3f 84 14 e2 bd 08 90 81 bf
       -0.07065829 1.9868094 -0.11039069 -1.012208
000340 72 f7 c3 bf d5 f1 db 3f e9 9b 14 be 22 ac 58 bf
       -1.5309889 1.7183176 -0.145126 -0.84637654
000350 6a 48 c5 be 0a d1 9b 3d 69 5b 3c bf a2 9c a8 bf
       -0.3853181 0.076082304 -0.7357698 -1.31728
000360 21 33 88 3f 61 29 1c 3c 0d 1e 93 3f 6a 3e 57 bf
       1.0640603 0.00953135 1.1493546 -0.8407961
000370 7f 0a 14 40 87 2d 62 3f 65 39 58 bf 27 e8 b8 be
       2.3131406 0.8835072 -0.8446258 -0.36114618
000380 cf 25 0e c0 69 44 b6 bd 92 ca 2c 3f fd 6c 99 bf
       -2.2210577 -0.08899767 0.674966 -1.1986386
000390 9d df 15 3e d4 0a d4 bf 65 24 2b 3f a3 75 b6 bf
       0.14636083 -1.6565804 0.6685241 -1.425465
0003a0 8b b9 cb bf a2 18 ee 3f f7 0e 1f bc c9 17 a9 be
       -1.5915998 1.8601267 -0.009708158 -0.3302596
0003b0 65 da fe bd 99 49 8b 40 e6 79 f3 3d 8d 58 fa be
       -0.12443999 4.352734 0.11888485 -0.48895684
0003c0 e3 50 b5 be fe fe da be 08 be c9 3f ac 9e 57 bf
       -0.35413274 -0.4277267 1.5761118 -0.8422649
0003d0 68 fd 89 3f bd 9b a4 3f 17 12 9c 3f 4e d0 01 40
       1.0780458 1.2860028 1.219302 2.028339
0003e0 31 44 31 bf d9 c4 b6 be e0 ee b5 bf 33 8a 81 3f
       -0.69244677 -0.35697058 -1.4213524 1.01203
0003f0 9b 47 7a 3d 97 1e 15 40 dc e3 c1 be a9 9f be bf
       0.061103445 2.329992 -0.37869155 -1.4892474
