models/17_05_2021/stock_self_attn_MSE_hinge_10000_64_24_6_24_5/9500_supervisor.pth (torch, 56590 bytes, 39 tensors)

position.pe f4 [1, 24, 24]
0.0 1.0 0.0 1.0 0.0 1.0 0.0 1.0
0.0 1.0 0.0 1.0 0.0 1.0 0.0 1.0
0.0 1.0 0.0 1.0 0.0 1.0 0.0 1.0
0.84147096 0.54030234 0.44767085 0.8941984 0.21378067 0.9768817 0.099833414 0.9950042
0.04639923 0.99892294 0.021542681 0.9997679 0.009999833 0.99995 0.0046415734 0.9999892
0.0021544332 0.9999977 0.0009999998 0.9999995 0.00046415895 0.9999999 0.00021544348 1.0
0.9092974 -0.41614684 0.8006131 0.59918165 0.41767687 0.9085956 0.19866931 0.9800666
0.09269851 0.9956942 0.043075364 0.99907184 0.019998666 0.9998 0.009283047 0.9999569
0.004308856 0.9999907 0.0019999985 0.99999803 0.00092831784 0.9999996 0.00043088695 0.99999994
0.14112 -0.9899925 0.98414314 0.17737612 0.60226107 0.7982992 0.2955202 0.9553365
0.1387981 0.9903207 0.06458805 0.997912 0.0299955 0.99955004 0.01392432 0.9999031
0.006463259 0.99997914 0.0029999954 0.9999955 0.0013924765 0.99999905 0.00064633036 0.9999998
-0.7568025 -0.6536436 0.9594254 -0.28196275 0.75899875 0.6510921 0.38941833 0.921061
0.18459873 0.98281395 0.08607077 0.996289 0.039989334 0.9992001 0.018565293 0.9998276
0.008617632 0.99996287 0.003999989 0.999992 0.0018566349 0.9999983 0.0008617738 0.99999964
-0.9589243 0.2836622 0.73169005 -0.68163747 0.88064283 0.47378072 0.47942552 0.87758255
0.23000173 0.97319025 0.10751353 0.9942036 0.049979165 0.99875027 0.023205869 0.9997307
0.010771966 0.999942 0.004999979 0.9999875 0.0023207928 0.9999973 0.0010772172 0.9999994
-0.2794155 0.96017027 0.349127 -0.93707544 0.961569 0.27456328 0.5646424 0.8253356
0.2749093 0.9614702 0.12890638 0.9916568 0.059964005 0.99820054 0.02784594 0.9996122
0.012926248 0.99991643 0.0059999637 0.999982 0.0027849504 0.9999961 0.0012926605 0.99999917
0.6569866 0.75390226 -0.10731243 -0.9942253 0.9980355 0.06265094 0.6442176 0.7648422
0.31922466 0.94767904 0.15023942 0.98864967 0.06994285 0.997551 0.032485418 0.9994722
0.0150804715 0.9998863 0.006999942 0.9999755 0.003249107 0.99999475 0.0015081038 0.99999887
0.98935825 -0.14550003 -0.5410444 -0.840994 0.9883562 -0.15215816 0.717356 0.6967067
0.36285242 0.9318466 0.17150272 0.98518366 0.07991469 0.9968017 0.03712419 0.9993107
0.017234625 0.99985147 0.007999914 0.999968 0.0037132632 0.9999931 0.001723547 0.9999985
0.4121185 -0.91113025 -0.86028963 -0.5098056 0.9329786 -0.35993198 0.78332686 0.62161
0.4056986 0.91400695 0.19268642 0.98126036 0.089878544 0.9959527 0.041762162 0.99912757
0.019388698 0.999812 0.008999879 0.9999595 0.0041774185 0.9999913 0.0019389901 0.99999815
-0.5440211 -0.8390715 -0.99749476 -0.070740685 0.8344632 -0.55106366 0.84147096 0.54030234
0.44767088 0.8941984 0.21378069 0.9768817 0.099833414 0.9950042 0.04639924 0.99892294
00000000: 0000 0000 0000 803f 0000 0000 0000 803f
00000010: 0000 0000 0000 803f 0000 0000 0000 803f
00000020: 0000 0000 0000 803f 0000 0000 0000 803f
00000030: 0000 0000 0000 803f 0000 0000 0000 803f
00000040: 0000 0000 0000 803f 0000 0000 0000 803f
00000050: 0000 0000 0000 803f 0000 0000 0000 803f
00000060: a46a 573f 4151 0a3f 1d35 e53e 30ea 643f
00000070: 52e9 5a3e eb14 7a3f 7675 cc3d 98b8 7e3f
00000080: 1e0d 3e3d 6ab9 7f3f 477a b03c caf0 7f3f
00000090: 57d6 233c b9fc 7f3f 5718 983b 4bff 7f3f
000000a0: 6431 0d3b d9ff 7f3f 6d12 833a f8ff 7f3f
000000b0: 5c5a f339 feff 7f3f abe8 6139 0000 803f
000000c0: b7c7 683f 3311 d5be fbf4 4c3f f863 193f
000000d0: bed9 d53e b999 683f f86f 4b3e a5e5 7a3f
000000e0: b7d8 bd3d d1e5 7e3f cb6f 303d 2cc3 7f3f
000000f0: 3ed4 a33c e5f2 7f3f ec17 183c 2dfd 7f3f
00000100: 4e31 8d3b 64ff 7f3f 6812 033b dfff 7f3f
00000110: 5b5a 733a f9ff 7f3f abe8 e139 ffff 7f3f
00000120: c381 103e 2670 7dbf cef0 7b3f 16a2 353e
00000130: c82d 1a3f 565d 4c3f 6c4e 973e ef90 743f
00000140: 1721 0e3e a885 7d3f bd46 843d 2977 7f3f
00000150: 1fb9 f53c 83e2 7f3f d522 643c a6f9 7f3f
00000160: bfc9 d33b a2fe 7f3f 929b 443b b5ff 7f3f
00000170: c283 b63a f0ff 7f3f 7f6e 293a fdff 7f3f
00000180: cfbd 41bf 3055 27bf e79c 753f 6c5d 90be
00000190: be4d 423f f9ad 263f d761 c73e a7ca 6b3f
000001a0: 7307 3d3e b299 7b3f df45 b03d cc0c 7f3f
000001b0: dbcb 233d 94cb 7f3f 3e16 983c b4f4 7f3f
000001c0: f830 0d3c 91fd 7f3f 5712 833b 7aff 7f3f
000001d0: 545a f33a e3ff 7f3f a9e8 613a faff 7f3f
000001e0: 107c 75bf 2c3c 913e 0a50 3b3f cb7f 2ebf
000001f0: cf71 613f 6393 f23e 4377 f53e 40a9 603f
00000200: 9385 6b3e ff22 793f 0e30 dc3d 2184 7e3f
00000210: f4b6 4c3d 19ae 7f3f 3c1a be3c 5aee 7f3f
00000220: e67c 303c 33fc 7f3f ddd6 a33b 2eff 7f3f
00000230: 7118 183b d3ff 7f3f 6931 8d3a f6ff 7f3f
00000240: 8c0f 8fbe b8cd 753f c6c0 b23e 2de4 6fbf
00000250: 6329 763f 8f93 8c3e 688c 103f 3249 533f
00000260: e9c0 8c3e e922 763f 0900 043e 38dd 7d3f
00000270: d19c 753d 128a 7f3f 2b1d e43c 96e6 7f3f
00000280: 9dc8 533c 86fa 7f3f 589b c43b d2fe 7f3f
00000290: b783 363b bfff 7f3f 7d6e a93a f2ff 7f3f
000002a0: 4630 283f bdff 403f 9fc6 dbbd 8d85 7ebf
000002b0: 417f 7f3f 234f 803d 72eb 243f b3cc 433f
000002c0: 6a71 a33e 189b 723f 5dd8 193e 2518 7d3f
000002d0: 323e 8f3d 815f 7f3f 6e0f 053d 69dd 7f3f
000002e0: 1514 773c 8cf8 7f3f c55f e53b 65fe 7f3f
000002f0: f8ee 543b a8ff 7f3f 91ab c53a edff 7f3f
00000300: 9546 7d3f f6fd 14be e381 0abf 624b 57bf
00000310: e904 7d3f 59cf 1bbe a5a4 373f 5f5b 323f
00000320: cbc7 b93e 808d 6e3f 699e 2f3e ff34 7c3f
00000330: 50aa a33d 652e 7f3f 890f 183d d3d2 7f3f
00000340: a12f 8d3c 44f6 7f3f 1212 033c e7fd 7f3f
00000350: 385a 733b 8cff 7f3f a4e8 e13a e7ff 7f3f
00000360: 3201 d33e d53f 69bf f13b 5cbf 9f82 02bf
00000370: afd7 6e3f 0149 b8be 1c88 483f d521 1f3f
00000380: bab7 cf3e 5cfc 693f 974f 453e e133 7b3f
00000390: 3e12 b83d c2f6 7e3f cd0e 2b3d d3c6 7f3f
000003a0: 0cd5 9e3c aef3 7f3f 3a74 133c 59fd 7f3f
000003b0: bae2 883b 6eff 7f3f b625 fe3a e1ff 7f3f
000003c0: f844 0bbf 64cd 56bf d15b 7fbf 7ee0 90bd
000003d0: 619f 553f 8212 0dbf a46a 573f 4151 0a3f
000003e0: 1e35 e53e 30ea 643f 53e9 5a3e eb14 7a3f
000003f0: 7675 cc3d 98b8 7e3f 210d 3e3d 6ab9 7f3f

r_cell.w_qs.weight f4 [24, 24]
0.095207445 0.10947569 -0.6671542 0.061696768 0.10820648 0.39500782 0.82664835 0.258905
0.35682607 0.39365253 0.080622256 1.6144117 0.6140782 -0.011580507 0.32971367 0.060963992
-0.070128545 0.8086791 0.099887 -0.26982364 0.114966296 -0.97497547 0.41141334 0.55404496
0.48408926 0.40913534 0.6508636 -0.013137316 -0.3986961 -0.28053704 -0.87962335 0.36201483
0.5255949 0.74361783 -0.025280742 0.59622145 -0.014487296 0.77056843 0.6188682 0.07359952
0.32525662 0.43816254 0.57647914 0.8734818 -0.046582073 0.40867704 0.7711854 0.50465053
-0.43691304 0.6512837 -0.2067754 0.31060958 -0.5040407 0.10198749 -0.063591026 0.5322898
0.49937913 0.14482988 0.19879092 -1.358043 -0.3727305 -0.04853861 -0.002665648 0.59650993
0.2329596 -0.40431648 0.26575714 -0.2796956 -0.6094343 -0.4728365 0.6424661 -0.39362994
-0.5480526 -0.08436466 0.07927836 -0.6942837 0.10819658 0.22314389 -1.7795535 -0.84018236
0.124116294 -0.88852113 0.22298604 0.799487 -0.370352 -0.8381822 -0.3773269 0.10684358
0.55188847 -0.15581585 0.3086625 -0.13913162 0.35589385 0.30573165 -1.3909004 -0.07827365
-0.17442344 0.51555496 0.6450432 -0.8081492 -0.15042962 0.57493186 0.13386744 -0.4737949
0.28068826 0.04917586 -0.19673361 0.1907142 -0.49171573 -0.08835815 -0.26927254 -0.49460384
-0.13181032 -0.1050207 0.5757414 -0.26425076 0.3519977 -0.11104928 -1.6804127 -0.25835213
-0.84038216 -0.026845811 -0.73091316 1.7541007 -0.1966962 -0.6827609 0.035430435 0.31868693
0.10137231 0.2705332 0.28557864 1.4583523 0.16800207 0.24245913 -0.61706686 0.49344507
-0.07784878 0.6853678 -0.6002555 -0.167318 0.22353981 0.15662588 -0.3365873 0.43438712
0.9124239 -0.94990116 0.27165475 0.48577523 -0.5259813 0.37019873 -0.22117028 0.3743643
-0.055754606 -0.39914507 0.37395597 -0.54478574 0.20644392 -0.56253046 -0.67924756 0.2784527
-0.31905952 -0.62681174 0.35781977 0.10750882 -0.2603553 0.15589309 0.0955638 0.3288202
0.06933409 -0.42191532 0.074256316 0.6102785 -0.13506228 0.6491802 1.4987972 -0.13047951
-0.26412898 -0.18283468 -0.0835825 -0.36523306 0.27277875 0.04172252 0.40789646 -0.5573557
0.56748194 0.70969135 -0.074735634 0.10311572 -0.46782258 -1.2499715 0.96449655 0.6186585
-0.495148 0.55671006 -0.08785129 -0.62713754 -0.4877891 0.513159 0.8905891 0.24334043
-0.9938248 -0.1139948 0.38986626 -0.5240315 -0.3462002 -0.6940696 0.95723855 0.4111472
0.17266855 0.12759206 -0.36708558 0.14030033 0.11899923 0.2799406 0.85189074 0.37441197
0.49455047 0.6836272 -0.28052926 -0.41179588 -0.17103261 0.19688676 -0.41146278 0.12667596
0.06536455 0.7305414 -0.12890457 0.08737159 -0.06045977 0.016310824 -0.9972865 0.30395693
0.77175504 -0.9256196 -0.014147109 0.28435737 -1.0023903 -0.11441448 0.39271265 0.93600184
-0.52008975 0.533734 0.35513216 -0.0847615 -0.5693163 -0.117447935 -1.0760627 0.14300156
-0.76318234 0.11446188 -0.020798419 -0.25692913 -0.8427789 -0.39129737 -0.9674437 0.15801735
00000000: 1ffc c23d ca34 e03d 9eca 2abf c0b5 7c3d
00000010: 5c9b dd3d 773e ca3e 3a9f 533f 328f 843e
00000020: e8b1 b63e d38c c93e 481d a53d 0ba5 ce3f
00000030: 3b34 1d3f 2bbc 3dbc 3bd0 a83e 61b5 793d
00000040: 8e9f 8fbd 9805 4f3f 8e91 cc3d 5326 8abe
00000050: 7373 eb3d fe97 79bf c5a4 d23e e4d5 0d3f
00000060: 8cda f73e 307a d13e ff9e 263f e63d 57bc
00000070: e521 ccbe 8da2 8fbe ff2e 61bf 025a b93e
00000080: 638d 063f bd5d 3e3f 8f19 cfbc f8a1 183f
00000090: 205c 6dbc f943 453f 256e 1e3f 58bb 963d
000000a0: 0988 a63e d756 e03e 2394 133f 819c 5f3f
000000b0: d8cc 3ebd 1e3e d13e 686c 453f c730 013f
000000c0: 11b3 dfbe 87ba 263f eebc 53be 3808 9f3e
000000d0: d008 01bf d1de d03d 033c 82bd 2544 083f
000000e0: 9fae ff3e 494e 143e d98f 4b3e 5ad4 adbf
000000f0: 88d6 bebe 6cd0 46bd 27b2 2ebb e0b4 183f
00000100: f68c 6e3e 9202 cfbe 5211 883e 4334 8fbe
00000110: e303 1cbf a017 f2be a978 243f dd89 c9be
00000120: 2d4d 0cbf 61c7 acbd b15c a23d 94bc 31bf
00000130: 2b96 dd3d d57f 643e 69c8 e3bf 3116 57bf
00000140: af30 fe3d 1f76 63bf 7456 643e 2eab 4c3f
00000150: c79e bdbe 1c93 56bf fe30 c1be cfd0 da3d
00000160: 9048 0d3f 318e 1fbe 0309 9e3e 8578 0ebe
00000170: b837 b63e dc88 9c3e 0609 b2bf ef4d a0bd
00000180: 0f9c 32be 69fb 033f 8d21 253f dee2 4ebf
00000190: 390a 1abe bc2e 133f 8c14 093e 3f95 f2be
000001a0: 5fb6 8f3e a06c 493d 8974 49be 954a 433e
000001b0: 2ac2 fbbe 1ef5 b4bd 17de 89be b73c fdbe
000001c0: 49f9 06be 1815 d7bd ca63 133f e04b 87be
000001d0: 0b39 b43e ce6d e3bd c317 d7bf bb46 84be
000001e0: 4923 57bf bfeb dbbc 201d 3bbf 5f86 e03f
000001f0: bb6a 49be 6bc9 2ebf 811f 113d ef2a a33e
00000200: 499c cf3d 5483 8a3e 5d37 923e 4aab ba3f
00000210: bc08 2c3e 3547 783e 18f8 1dbf d5a4 fc3e
00000220: 2e6f 9fbd 4474 2f3f 58aa 19bf 6955 2bbe
00000230: 9fe7 643e 8962 203e 2c55 acbe fd67 de3e
00000240: 9d94 693f b92c 73bf 5516 8b3e 88b7 f83e
00000250: b6a6 06bf b08a bd3e 767a 62be adac bf3e
00000260: f15e 64bd be5c ccbe 2877 bf3e 1477 0bbf
00000270: 0966 533e ff01 10bf 2be3 2dbf 5a91 8e3e
00000280: c55b a3be bc76 20bf 2734 b73e 962d dc3d
00000290: 4a4d 85be 70a2 1f3e f4b6 c33d 1f5b a83e
000002a0: 08ff 8d3d 4905 d8be b213 983d 363b 1c3f
000002b0: c44d 0abe ac30 263f 96d8 bf3f 6c9c 05be
000002c0: ea3b 87be 0439 3bbe 4d2d abbd d4ff babe
000002d0: a8a9 8b3e 3ce5 2a3d ced7 d03e ddae 0ebf
000002e0: 7f46 113f 55ae 353f ff0e 99bd 562e d33d
000002f0: 7186 efbe 11ff 9fbf 3fe9 763f 6760 1e3f
00000300: 0a84 fdbe 8d84 0e3f 61eb b3bd 168c 20bf
00000310: 7ebf f9be 635e 033f a6fd 633f 3c2e 793e
00000320: 4d6b 7ebf 1b76 e9bd 8d9c c73e ee26 06bf
00000330: 2741 b1be 8cae 31bf 960d 753f e381 d23e
00000340: 06d0 303e 7ea7 023e a4f2 bbbe e4aa 0f3e
00000350: deb5 f33d 6054 8f3e 8315 5a3f edb2 bf3e
00000360: b835 fd3e 3102 2f3f 88a1 8fbe e9d6 d2be
00000370: 2c23 2fbe af9c 493e 40ab d2be 58b7 013e
00000380: d9dd 853d c304 3b3f 8fff 03be e0ef b23d
00000390: aaa4 77bd 479e 853c 2b4e 7fbf 3ea0 9b3e
000003a0: bd91 453f 68f5 6cbf 47c9 67bc 4a97 913e
000003b0: 534e 80bf 2452 eabd a211 c93e d19d 6f3f
000003c0: 9a24 05bf cba2 083f e2d3 b53e 7097 adbd
000003d0: b7be 11bf 8b88 f0bd 6cbc 89bf 006f 123e
000003e0: eb5f 43bf fd6a ea3d 7261 aabc 378c 83be
000003f0: 5cc0 57bf 2158 c8be 64aa 77bf 4dcf 213e

r_cell.w_qs.bias f4 [24]
-0.09305095 0.016194265 -0.24064817 0.50112855 -0.18770026 -0.16873592 0.06731936 0.21254995
0.28286916 -0.4722009 -0.21531786 -0.22355944 0.1473426 -0.2571952 0.07342944 0.21373081
-0.526396 -0.33269498 0.41659698 0.2260011 -0.10551943 -0.44844484 0.028268624 0.2913468
00000000: 7f91 bebd d6a9 843c 796c 76be f649 003f
00000010: 7f34 40be 1cc9 2cbe bcde 893d b2a6 593e
00000020: 3ad4 903e 51c4 f1be 497c 5cbe c4ec 64be
00000030: fbe0 163e 17af 83be 2d62 963d 40dc 5a3e
00000040: e3c1 06bf ff56 aabe 334c d53e d56c 673e
00000050: 921a d8bd 909a e5be 9a93 e73c 682b 953e

r_cell.w_ks.weight f4 [24, 24]
0.44727752 0.4178392 0.2013424 0.18273519 0.50552547 0.33358958 0.14882104 0.29219696
0.1176441 0.15374249 -0.62377703 0.74907845 -0.14352773 0.37525746 0.541049 -0.024229052
-0.12581843 -1.5244063 0.010002363 0.01530844 0.74143595 -0.05656426 -0.14622615 0.11136712
-0.4271382 -0.062406383 -0.5979372 -0.2706179 0.39185596 0.34748325 0.32329828 -0.09636787
-0.24211824 0.13817403 -0.41485548 -0.29705158 -0.12988764 -0.13846122 -0.5054209 -0.9237409
-0.71327263 -0.19967915 0.011018128 -0.105760224 -0.4307785 -0.3916614 0.20056088 0.59106207
-0.08592438 0.19683582 -0.45273954 0.213601 -0.96188617 -0.18200551 0.6247977 0.066635445
-0.67615664 0.0662118 0.37001088 -0.43150675 -0.421479 -0.19386664 1.203861 -0.2922956
-0.18052547 -0.07124386 -0.014890606 -0.35200545 -0.33531657 0.5555513 0.5431025 0.2485836
0.26647365 0.118872605 -0.37914345 -0.24243258 -0.30260766 0.36235902 -1.0351943 -0.33424217
0.18704958 -0.5470985 0.26281077 0.34012917 -0.18429704 0.17626864 -0.3163402 0.11165497
-0.45498726 -0.7142317 -0.23140989 0.17874214 0.33039632 0.30656284 -0.3890334 -0.2357268
-0.13372491 0.06823411 -0.5625507 0.16941477 0.3016314 -0.18511003 -0.38567367 -0.15110421
-0.5228081 -0.45047015 0.044571623 0.0362158 0.07382621 -0.33407632 0.23335558 -0.28683782
-0.8741952 -0.07111037 0.008466968 0.22819075 0.9765695 -0.09185555 -1.0443217 -0.149292
0.20060535 -0.6941417 -0.7901247 1.2488543 -0.19743222 0.018424012 -0.3333542 -0.10359985
1.0768012 0.6818171 -0.09382839 0.4650328 -0.82841116 0.15192918 -0.19643357 -0.019918198
0.42439294 0.52910227 0.16635232 0.265522 -0.60772794 -0.42483106 -0.6193646 0.64050746
-0.25116107 -0.1706792 -0.08032348 0.86927277 -0.15344094 -0.6794747 0.6087116 -0.38393188
-0.21094154 -0.22934367 1.5733598 -0.105565846 -0.08660475 -0.83224934 -0.8900781 0.2737499
-0.09785856 -0.62607014 0.50553894 0.562459 0.39793703 0.23586604 0.24739105 -0.12810586
0.13914172 0.43691647 0.58127993 0.61938834 -0.37609446 0.40943074 1.4862087 -0.36479324
-1.0979685 -0.305395 -1.564692 0.15895523 0.3956295 0.9059511 -0.4360778 -0.67070764
-0.060381662 0.9530409 0.78196585 0.5146898 0.25273645 -0.4455304 0.5343543 -0.5243962
-0.2230959 -0.47731543 0.62856793 -0.81893694 -0.46970704 0.113638535 0.89236087 -0.17049597
0.16189274 -0.28300112 -0.38536578 -0.3195077 -0.11540983 -1.8965278 0.05601559 -0.49570566
0.6501982 -0.5715511 0.15757535 0.78173876 0.13837205 -0.294756 0.4574865 -0.34206277
-0.48258623 -0.5280644 -1.433906 0.15052252 0.118540466 -0.08557704 -0.42265898 0.48778686
-0.50624144 0.70512617 0.45666605 0.0057260804 -0.5733537 0.62613773 0.46504176 0.9314549
-1.0081439 -0.6314347 0.0815099 -0.101007745 -1.0783945 0.24185798 1.725693 -1.1674159
-1.0280439 1.2291816 0.57763666 -0.5518598 -0.22446188 0.077415526 0.31157452 -0.43203437
-0.73765695 -0.12940246 0.1698365 -0.058187872 -1.2099551 -0.6003179 0.5810771 -0.07003858
00000000: 8f01 e53e 05ef d53e b42c 4e3e ef1e 3b3e
00000010: 1e6a 013f 41cc aa3e 8b64 183e d79a 953e
00000020: 64ef f03d ac6e 1d3e daaf 1fbf 9bc3 3f3f
00000030: eff8 12be bf21 c03e 3082 0a3f 017c c6bc
00000040: 8cd6 00be bf1f c3bf f3e0 233c 40d0 7a3c
00000050: bfce 3d3f edaf 67bd 4fbc 15be 7214 e43d
00000060: dcb1 dabe d69d 7fbd 6a12 19bf 6e8e 8abe
00000070: 58a1 c83e 53e9 b13e 5a87 a53e 855c c5bd
00000080: d8ed 77be 7e7d 0d3e f067 d4be 2517 98be
00000090: 4401 05be c7c8 0dbe 4463 01bf 497a 6cbf
000000a0: 0999 36bf b178 4cbe 6185 343c d198 d8bd
000000b0: 008f dcbe d887 c8be d55f 4d3e d84f 173f
000000c0: 1ff9 afbd 548f 493e 7acd e7be 38ba 5a3e
000000d0: 2c3e 76bf a75f 3abe bef2 1f3f 2a78 883d
000000e0: 9a18 2dbf 0d9a 873d 1172 bd3e 74ee dcbe
000000f0: 18cc d7be fa84 46be 1e18 9a3f c5a7 95be
00000100: abdb 38be 4de8 91bd baf7 73bc 0f3a b4be
00000110: 9dae abbe 9c38 0e3f c408 0b3f b38c 7e3e
00000120: 3c6f 883e 7b73 f33d 171f c2be 3f40 78be
00000130: 64ef 9abe 1f87 b93e 3f81 84bf ca21 abbe
00000140: ed89 3f3e a60e 0cbf 228f 863e 6925 ae3e
00000150: 5db8 3cbe c47f 343e 58f7 a1be 5cab e43d
00000160: 17f4 e8be e4d7 36bf b7f6 6cbe 2e08 373e
00000170: b529 a93e cef5 9c3e 632f c7be 5e62 71be
00000180: 2fef 08be 53be 8b3d 5303 10bf 117b 2d3e
00000190: 6e6f 9a3e 7c8d 3dbe 0577 c5be 10bb 1abe
000001a0: c0d6 05bf 06a4 e6be bc90 363d 0557 143d
000001b0: 3232 973d 0d0c abbe c4f4 6e3e 68dc 92be
000001c0: 42cb 5fbf 50a2 91bd 0ab9 0a3c d6aa 693e
000001d0: 7500 7a3f c31e bcbd 55ac 85bf 01e0 18be
000001e0: 7d6b 4d3e 45b3 31bf 9d45 4abf 75da 9f3f
000001f0: ac2b 4abe f4ed 963c 67ad aabe 282c d4bd
00000200: 9fd4 893f 918b 2e3f 1929 c0bd c718 ee3e
00000210: c112 54bf 5393 1b3e e225 49be 7d2b a3bc
00000220: 084a d93e 3f73 073f 4358 2a3e 80f2 873e
00000230: 0f94 1bbf 7583 d9be ae8e 1ebf 4cf8 233f
00000240: 2f98 80be 87c6 2ebe a380 a4bd a988 5e3f
00000250: 9f1f 1dbe 0ef2 2dbf 86d4 1b3f b892 c4be
00000260: 0f01 58be 11d9 6abe db63 c93f e832 d8bd
00000270: d55d b1bd 4b0e 55bf 29dc 63bf f228 8c3e
00000280: 126a c8bd 2246 20bf 006b 013f 50fd 0f3f
00000290: 67be cb3e de86 713e 1454 7d3e 2f2e 03be
000002a0: 2b7b 0e3e 84b3 df3e c3ce 143f 3c90 1e3f
000002b0: 748f c0be e8a0 d13e 163c be3f 2ec6 babe
000002c0: 3b8a 8cbf bc5c 9cbe d447 c8bf 29c5 223e
000002d0: f38f ca3e 69ec 673f 9745 dfbe 7fb3 2bbf
000002e0: c352 77bd 7dfa 733f ea2e 483f b6c2 033f
000002f0: ac66 813e 901c e4be 72cb 083f d43e 06bf
00000300: 4073 64be b062 f4be d4e9 203f daa5 51bf
00000310: 717d f0be 52bb e83d c371 643f 7f96 2ebe
00000320: 36c7 253e 86e5 90be aa4e c5be 8396 a3be
00000330: fd5b ecbd 6cc1 f2bf 9a70 653d 22cd fdbe
00000340: 6473 263f 2c51 12bf 6f5b 213e 0820 483f
00000350: 67b1 0d3e 42ea 96be ac3b ea3e da22 afbe
00000360: 8b15 f7be 3b2f 07bf 3b8a b7bf 9322 1a3e
00000370: 58c5 f23d 0443 afbd c266 d8be 33bf f93e
00000380: 0a99 01bf 2683 343f 22d0 e93e d8a1 bb3b
00000390: 4fc7 12bf 904a 203f f419 ee3e d473 6e3f
000003a0: dc0a 81bf b4a5 21bf aaee a63d 26dd cebd
000003b0: d508 8abf 9ea9 773e 82e3 dc3f e26d 95bf
000003c0: f196 83bf d355 9d3f ffdf 133f af46 0dbf
000003d0: 56d9 65be 088c 9e3d b286 9f3e 9c33 ddbe
000003e0: 16d7 3cbf 1482 04be 9fe9 2d3e 6856 6ebd
000003f0: cfdf 9abf 6fae 19bf 78c1 143f 6370 8fbd

r_cell.w_ks.bias f4 [24]
-0.22588712 0.004960638 -0.09883705 0.07242929 -0.103296325 0.1448576 0.23572323 0.09859909
-0.1945756 -0.09301274 0.29572415 -0.1573388 0.21277498 0.33855286 0.09616235 -0.17791682
0.034074694 0.016673815 0.09169169 0.35104468 0.09221341 0.23768847 -0.04606875 -0.25213012
00000000: f44e 67be d98c a23b 146b cabd cf55 943d
00000010: 068d d3bd 8d55 143e 6e61 713e 52ee c93d
00000020: d33e 47be 777d bebd 2869 973e 6c1d 21be
00000030: afe1 593e cd56 ad3e c4f0 c43d d42f 36be
00000040: e891 0b3d 8697 883c dac8 bb3d 21bc b33e
00000050: 62da bc3d 9b64 733e 96b2 3cbd 3317 81be

r_cell.w_vs.weight f4 [24, 24]
0.0057635303 -0.13527337 0.31706223 -0.15566897 -0.024834346 -0.2285335 -0.016777003 0.31451237
-0.3424974 -0.3468058 -0.5253175 -0.3435334 -0.236033 -0.56385577 0.2001962 0.045752443
-0.0060400837 -0.14465879 -0.630229 -0.4318811 0.22498366 0.01856604 -0.12843236 0.25101906
0.045443583 0.27966335 -0.011415061 -0.056215685 0.10995607 -0.43362495 -0.18492083 -0.089564845
0.6819194 0.28881362 0.30236256 -0.46660632 0.59754074 0.05820332 -0.5978529 -0.3753585
0.4933112 0.6216344 -0.18211064 -0.3644462 -0.49504414 -0.36085278 -0.2643711 0.13921209
0.314899 0.25329322 -0.13422282 0.25613496 0.015464224 0.1409206 0.122450724 0.064023316
0.3779113 0.120161526 -0.020637013 0.6448231 -0.04907496 0.038404368 -0.2593071 0.08858423
0.197808 -0.1503504 -0.13258936 0.05210023 -0.07890123 0.33566585 -0.34084082 0.11542138
0.42049792 0.12104151 -0.020982051 -0.07167986 -0.33383292 0.0018255243 -0.14139193 0.3675334
0.084748484 -0.2242333 -0.052279916 0.5315856 0.05215105 0.005106443 -0.38811654 -0.2142162
-0.05980503 -0.044199176 -0.06334129 0.19315048 0.18492672 0.12846284 -0.05635795 -0.26154017
-0.2898513 -0.3353371 -0.04699033 -0.25080195 0.028608382 -0.0056161885 -0.1309332 0.12778296
-0.10851701 0.673836 0.02594243 0.22563908 0.26342782 -0.023730958 -0.43133518 0.19383259
0.57191557 0.03403638 0.046500336 -0.15726088 -0.1103391 0.06807489 0.05218787 -0.36214685
0.20244643 0.3382861 0.34335318 -0.24978614 0.38725406 0.034761637 -0.2811709 0.024913903
-0.08440755 0.13981073 0.16522902 -0.25837386 -0.16713205 0.5672318 -0.024075681 -0.20418368
0.14943233 -0.11168249 -0.0847176 0.29617056 0.17782101 -0.6372666 0.32825264 -0.32950625
0.288541 -0.0043445257 -0.10135214 0.109559424 0.012623961 -0.31933874 0.300463 0.09997422
0.4330663 0.1780566 0.15133333 -0.17503224 0.44511315 0.13871029 0.27238598 0.3406011
0.09099541 -0.032181762 -0.34652883 -0.1041449 -0.19694744 0.099615246 0.52348053 -0.32299572
-0.095071234 0.10781785 0.40212095 -0.31018195 -0.07830792 0.030750552 0.16289692 -0.14212498
-0.40489447 -0.42132968 -0.33111653 -0.31489453 0.24322198 0.28208974 0.10027107 -0.16674845
-0.2944827 -0.19461344 0.18138249 0.3356837 0.5046712 0.15418155 0.40503868 -0.13519683
0.2774951 -0.054835536 -0.3563105 -0.08769196 0.100813 0.14586905 0.10377253 0.21868858
-0.12848628 0.10148973 0.20848309 0.49619234 0.24765795 -0.5265522 0.22904356 -0.20088528
-0.08797976 0.109946884 0.6326576 -0.31352434 -0.20683299 -0.02333204 0.6659019 -0.28545633
0.11995982 -0.020304592 -0.5085124 0.32910714 -0.095207274 -0.4679059 -0.37579906 -0.22945267
0.6087209 0.2653533 0.44348136 0.0061453003 0.5409611 0.27890554 0.07609022 -0.4748132
0.01478093 -0.57125854 0.32106337 0.01354574 -0.079724535 -0.06266643 0.29835418 -0.04568239
-0.5813778 0.347503 -0.36586618 -0.111966275 0.2708474 0.28935316 -0.16325352 -0.20983247
0.11952566 -0.15615596 -0.06546826 -0.054221153 -0.392216 -0.007045938 0.013115241 -0.051403146
00000000: ffdb bc3b 1a85 0abe fb55 a23e b067 1fbe
00000010: 6671 cbbc b004 6abe ed6f 89bc c407 a13e
00000020: d25b afbe 8890 b1be 357b 06bf 9ce3 afbe
00000030: a2b2 71be da58 10bf 3c00 4d3e ea66 3b3d
00000040: e5eb c5bb 6f21 14be b056 21bf 851f ddbe
00000050: 1e62 663e cf17 983c c683 03be 9285 803e
00000060: 0d23 3a3d 0930 8f3e 3c06 3bbc 6b42 66bd
00000070: a630 e13d 1704 debe e35b 3dbe c66d b7bd
00000080: 4592 2e3f 61df 933e 44cf 9a3e 06e7 eebe
00000090: 6ef8 183f 9b66 6e3d e30c 19bf fd2e c0be
000000a0: 4993 fc3e 6f23 1f3f 367b 3abe b198 babe
000000b0: 6d76 fdbe b2c1 b8be a65b 87be 9d8d 0e3e
000000c0: 713a a13e a6af 813e b571 09be 1f24 833e
000000d0: a85d 7d3c 7d4d 103e 72c7 fa3d a81e 833d
000000e0: 977d c13e 3f17 f63d f40e a9bc 2013 253f
000000f0: d302 49bd e64d 1d3d e6c3 84be a66b b53d
00000100: 2e8e 4a3e 75f5 19be 81c5 07be 0d67 553d
00000110: f896 a1bd 65dc ab3e b082 aebe 0b62 ec3d
00000120: 814b d73e 9ce4 f73d 8de2 abbc e4cc 92bd
00000130: 26ec aabe 6e46 ef3a 0cc9 10be 562d bc3e
00000140: 9d90 ad3d 6a9d 65be 7723 56bd fe15 083f
00000150: 579c 553d f353 a73b 36b7 c6be 7e5b 5bbe
00000160: 1ef6 74bd 320a 35bd 14b9 81bd 3dc9 453e
00000170: 6e5d 3d3e c38b 033e 98d7 66bd 98e8 85be
00000180: 6467 94be 4eb1 abbe ef78 40bd 1d69 80be
00000190: 205c ea3c 0108 b8bb 5a13 06be 89d9 023e
000001a0: 2b3e debd 8480 2c3f 3885 d43c ee0d 673e
000001b0: 03e0 863e 6d67 c2bc f7d7 dcbe 0d7c 463e
000001c0: 0f69 123f bb69 0b3d 2377 3e3d ff08 21be
000001d0: 77f9 e1bd d96a 8b3d f3c2 553d 506b b9be
000001e0: 1e4e 4f3e d633 ad3e fdcb af3e f0c7 7fbe
000001f0: 2a46 c63e 3862 0e3d a2f5 8fbe 3e18 cc3c
00000200: dedd acbd 8b2a 0f3e cc31 293e 9449 84be
00000210: aa24 2bbe 1a36 113f 5d3a c5bc 8715 51be
00000220: ca04 193e cab9 e4bd 6c80 adbd aba3 973e
00000230: b616 363e e723 23bf bb10 a83e 0bb5 a8be
00000240: a5bb 933e 865c 8ebb b691 cfbd b160 e03d
00000250: bbd4 4e3c 5e80 a3be 49d6 993e 49bf cc3d
00000260: deba dd3e 7854 363e 20f7 1a3e a73b 33be
00000270: dfe5 e33e 120a 0e3e 2d76 8b3e 4463 ae3e
00000280: cd5b ba3d 06d1 03bd 3a6c b1be ec49 d5bd
00000290: 97ac 49be 1403 cc3d d202 063f b25f a5be
000002a0: b5b4 c2bd 9bcf dc3d cce2 cd3e 2bd0 9ebe
000002b0: e75f a0bd 95e8 fb3c 73ce 263e 3689 11be
000002c0: 544e cfbe 86b8 d7be 1b88 a9be db39 a1be
000002d0: 2f0f 793e 116e 903e eb5a cd3d 1bc0 2abe
000002e0: 70c6 96be bf48 47be 55bc 393e bcde ab3e
000002f0: 2232 013f c5e1 1d3e 3b61 cf3e 0a71 0abe
00000300: d613 8e3e 3a9b 60bd 546e b6be d897 b3bd
00000310: 0c77 ce3d b25e 153e b186 d43d e6ef 5f3e
00000320: e891 03be d9d9 cf3d 977c 553e ec0c fe3e
00000330: 0c9a 7d3e 20cc 06bf 658a 6a3e dfb4 4dbe
00000340: bb2e b4bd d52b e13d d9f5 213f 4386 a0be
00000350: 07cc 53be d622 bfbc 8c78 2a3f 5527 92be
00000360: 7ead f53d d155 a6bc de2d 02bf bb80 a83e
00000370: 08fc c2bd 5d91 efbe bc68 c0be a4f5 6abe
00000380: 22d5 1b3f 63dc 873e fd0f e33e 845e c93b
00000390: 6d7c 0a3f b5cc 8e3e 30d5 9b3d b71a f3be
000003a0: b72b 723c 003e 12bf 6b62 a43e f4ee 5d3c
000003b0: 9e46 a3bd 4257 80bd e1c1 983e 751d 3bbd
000003c0: 2dd5 14bf eaeb b13e d052 bbbe 934e e5bd
000003d0: 83ac 8a3e 1926 943e ee2b 27be 53de 56be
000003e0: dfc9 f43d 59e7 1fbe 3914 86bd 0017 5ebd
000003f0: 89d0 c8be 9de1 e6bb 4fe1 563c 1b8c 52bd

r_cell.w_vs.bias f4 [24]
0.08606921 0.031482037 -0.27015513 -0.07496952 0.13841653 0.2178104 0.040029623 0.18410088
-0.19108342 -0.18428724 0.09089556 -0.027796771 0.1365692 -0.016870476 0.10780663 -0.019760069
0.17997816 -0.042627063 -0.01065002 -0.033659313 -0.010564752 -0.15139513 -0.22487791 0.25216892
00000000: 0e45 b03d 4ff3 003d c651 8abe 9f89 99bd
00000010: 10bd 0d3e b109 5f3e 1af6 233d f184 3c3e
00000020: 5fab 43be cbb5 3cbe 7427 ba3d 0eb6 e3bc
00000030: ccd8 0b3e f433 8abc b9c9 dc3d dedf a1bc
00000040: 324c 383e b799 2ebd 6c7d 2ebc 59de 09bd
00000050: c817 2dbc 5307 1bbe 6546 66be 491c 813e

r_cell.layer_norm.weight f4 [24]
1.692593 2.0281727 0.82214624 1.4048474 0.82031995 0.86067826 1.1691122 1.1922935
0.7497364 1.0780388 1.0448172 0.6494613 0.77084655 0.8451916 1.1759315 0.880034
1.2588716 0.78555435 1.0496255 1.2352425 0.8884258 0.80385625 0.77561563 0.86944216
00000000: e3a6 d83f 95cd 0140 2d78 523f 0ad2 b33f
00000010: 7d00 523f 6955 5c3f 78a5 953f 139d 983f
00000020: baee 3f3f 2dfd 893f 92bc 853f 1943 263f
00000030: 3356 453f 7a5e 583f ec84 963f e949 613f
00000040: b422 a13f 171a 493f 215a 863f 6d1c 9e3f
00000050: e06f 633f 86c9 4d3f bf8e 463f c393 5e3f

r_cell.layer_norm.bias f4 [24]
-0.056028754 0.19344865 -0.30642933 -0.08657457 -0.25441015 -0.15394408 0.30388412 0.32771352
-0.14397173 0.055370294 -0.06701943 -0.052881848 0.34436944 0.18499796 0.12923506 0.115577914
-0.12283778 -0.16470635 0.021695962 -0.195558 0.2087476 -0.3018476 0.042704534 -0.16729449
00000000: 687e 65bd 6717 463e 4ee4 9cbe 024e b1bd
00000010: 0c42 82be 84a3 1dbe b396 9b3e 11ca a73e
00000020: 536d 13be f6cb 623d 7c41 89bd a39a 58bd
00000030: 3151 b03e 1b70 3d3e 3256 043e 1db4 ec3d
00000040: 6092 fbbd c8a8 28be bbbb b13c 5b40 48be
00000050: eec1 553e c58b 9abe f3ea 2e3d 3f4f 2bbe

r_cell.fc.weight f4 [24, 24]
0.08727674 0.15379563 -0.08629578 0.21045053 -0.14492483 -0.11959294 0.06537406 0.18195727
0.03193875 -0.1942165 -0.07349762 -0.101391315 -0.09371705 -0.11145766 0.09933662 0.32465085
0.0043660165 0.160174 0.15437648 -0.0023781308 -0.102675326 0.13108774 -0.20545112 -0.17366852
-0.015796697 0.05831793 -0.08012093 0.14053708 -0.16217704 -0.051372763 -0.06480918 0.0056492826
-0.030088143 0.011965746 -0.020405686 0.05343731 -0.09342955 0.05666796 0.03451508 -0.021281967
0.023168905 -0.036647007 -0.023444485 0.14522748 -0.07924464 -0.026254743 0.030839315 -0.121257536
0.1471174 -0.37409002 -0.18072395 -0.010097401 0.15866251 -0.25738314 0.24497889 -0.52806145
-0.006812707 -0.44304404 -0.021716347 -0.009407795 0.2489946 -0.15566562 0.063544184 0.004068225
0.22028577 -0.059927642 0.60079426 0.06893995 -0.009584282 0.11927102 -0.27268413 0.09878856
-0.03319309 -0.09153955 -0.024868768 0.097508214 0.021303767 0.019288195 -0.022810342 -0.21222302
-0.019832935 -0.052820917 0.031934593 0.13936155 0.0105664665 0.07914296 -0.12919027 -0.13020484
0.073983856 -0.06368326 -0.057807714 0.040778372 0.016299589 -0.01717246 -0.037086673 -0.016824452
-0.08512797 -0.14494507 -0.030129084 -0.08377535 0.4956802 0.25372773 -0.23416135 0.3158907
-0.13812657 0.1293126 0.31499735 0.39666882 -0.1265767 -0.009466031 -0.1693839 -0.28402886
0.32453457 0.15253165 -0.01668844 -0.058856755 -0.5510598 0.030519074 -0.18318819 0.053896617
0.09749028 -0.069273405 0.08972214 0.12319263 -0.0031112698 0.02455305 -0.22238734 -0.30354366
0.33842638 -0.23147002 0.2360162 0.31634897 0.044109687 -0.09007766 0.19718952 -0.021634722
0.14731382 -0.17618556 -0.06014787 0.10569685 0.052037593 -0.038001567 0.069729626 0.24914126
0.009955549 0.25168914 0.128673 0.13762277 -0.113226615 -0.044967115 0.19225344 0.27449295
0.12237286 -0.027737776 -0.26967838 0.18253101 -0.24247393 -0.14642556 -0.07098522 0.17794299
-0.05706725 0.31358105 -0.2705714 -0.24793904 -0.21588261 -0.012621903 0.21151641 0.5339865
-0.02159335 0.076460324 -0.19862512 0.105818 0.154124 -0.018858299 0.29814276 -0.107853085
0.02531326 -0.10074542 0.029991016 0.03192457 -0.21341522 0.16969094 -0.1472681 0.20426357
-0.33121085 -0.44905597 -0.08540621 -0.011978571 0.040248793 -0.102277815 0.12305141 0.1461865
0.28610545 0.17787133 0.35348326 0.24056341 -0.47214034 -0.22861703 -0.37545803 -0.15710743
0.17458357 -0.3478019 0.40852788 0.33734578 0.06786978 0.041678526 -0.14537068 0.062856905
0.17562285 -0.011272933 0.017794963 0.20965748 0.15799539 0.25525984 -0.05114452 0.07814609
-0.030518714 -0.13848197 -0.10216052 -0.26362208 0.4692885 0.19371782 0.19029638 -0.06442669
-0.24178128 0.11835101 -0.123449124 0.2085094 -0.100262135 0.16108797 -0.34306163 -0.08832915
-0.13517447 -0.048269067 0.03025905 0.007118142 0.06723643 0.005392787 0.085143894 0.12005947
-0.14667754 0.023116177 -0.06786052 0.06962712 0.1620693 0.15046562 -0.24270406 -0.1836319
0.050831318 0.073089465 -0.106457524 0.0010731748 0.1276607 -0.076227866 0.14753671 0.04424571
00000000: 26be b23d 9a7c 1d3e d8bb b0bd 5880 573e
00000010: 2d67 14be 25ed f4bd d6e2 853d 0253 3a3e
00000020: 35d2 023d b1e0 46be ec85 96bd 40a6 cfbd
00000030: baee bfbd ea43 e4bd ff70 cb3d a338 a63e
00000040: cd10 8f3b a704 243e de14 1e3e 6ada 1bbb
00000050: 7147 d2bd dd3b 063e c761 52be 29d6 31be
00000060: 1368 81bc c8de 6e3d 7116 a4bd f4e8 0f3e
00000070: bd11 26be 3f6c 52bd adba 84bd 9e1d b93b
00000080: 697b f6bc fa0b 443c d329 a7bc 15e1 5a3d
00000090: fe57 bfbd aa1c 683d af5f 0d3d 8557 aebc
000000a0: b7cc bd3c 2c1b 16bd a60e c0bc 83b6 143e
000000b0: 044b a2bd 3014 d7bc bba2 fc3c df55 f8bd
000000c0: f2a5 163e ba88 bfbe b30f 39be 926f 25bc
000000d0: 6d78 223e b9c7 83be bfdb 7a3e 092f 07bf
000000e0: 213d dfbb abd6 e2be 7be6 b1bc 2723 1abc
000000f0: 71f8 7e3e cf66 1fbe 7423 823d bf4e 853b
00000100: 9892 613e b076 75bd a7cd 193f 6330 8d3d
00000110: 6407 1dbc 5d44 f43d 419d 8bbe a851 ca3d
00000120: 7af5 07bd 1679 bbbd 96b9 cbbc 63b2 c73d
00000130: 3d85 ae3c 4702 9e3c c1dc babc fe50 59be
00000140: ae78 a2bc bf5a 58bd d9cd 023d cbb4 0e3e
00000150: f91e 2d3c b415 a23d 744a 04be 6b54 05be
00000160: d984 973d 5e6c 82bd c8c7 6cbd 3907 273d
00000170: b786 853c 42ad 8cbc 32e8 17bd 6fd3 89bc
00000180: 9357 aebd 7b6c 14be 45d1 f6bc 6992 abbd
00000190: ccc9 fd3e 9ae8 813e fec7 6fbe 6dbc a13e
000001a0: 0d71 0dbe 866a 043e 5547 a13e 2d18 cb3e
000001b0: 539d 01be 6917 1bbc f972 2dbe 3b6c 91be
000001c0: 6529 a63e 4231 1c3e 32b6 88bc c813 71bd
000001d0: 4112 0dbf 2303 fa3c af95 3bbe b3c2 5c3d
000001e0: fca8 c73d 37df 8dbd 3ec0 b73d 6b4c fc3d
000001f0: 72e6 4bbb 7a23 c93c 82b9 63be 136a 9bbe
00000200: 3946 ad3e 7a06 6dbe 3bae 713e 7ef8 a13e
00000210: 5cac 343d a37a b8bd 0dec 493e 4d3b b1bc
00000220: 6fd9 163e fd69 34be 9d5d 76bd 9777 d83d
00000230: 5f25 553d 88a7 1bbd 68ce 8e3d e31e 7f3e
00000240: 991c 233c 66dd 803e dbc2 033e fcec 0c3e
00000250: 5be3 e7bd 702f 38bd 16de 443e 578a 8c3e
00000260: 9f9e fa3d 553a e3bc 4913 8abe 69e9 3a3e
00000270: 164b 78be 95f0 15be b360 91bd b036 363e
00000280: 59bf 69bd b28d a03e 5688 8abe bbe3 7dbe
00000290: 5510 5dbe 19cc 4ebc c297 583e 57b3 083f
000002a0: 8ae4 b0bc 3b97 9c3d 6264 4bbe 1cb7 d83d
000002b0: afd2 1d3e b87c 9abc 2ba6 983e 14e2 dcbd
000002c0: c15d cf3c 9d53 cebd b8af f53c 57c3 023d
000002d0: 8589 5abe 76c3 2d3e 73cd 16be 782a 513e
000002e0: 7894 a9be aaea e5be 73e9 aebd c541 44bc
000002f0: ebdb 243d 0877 d1bd 6102 fc3d eab1 153e
00000300: 6a7c 923e e723 363e c2fb b43e 4156 763e
00000310: 61bc f1be 951a 6abe 093c c0be c5e0 20be
00000320: 09c6 323e 1713 b2be 912a d13e 96b8 ac3e
00000330: 50ff 8a3d 1ab7 2a3d 0ddc 14be 1fbb 803d
00000340: 7ad6 333e 1cb2 38bc bec6 913c 73b0 563e
00000350: 8bc9 213e 6bb1 823e eb7c 51bd 0f0b a03d
00000360: 6202 fabc 38ce 0dbe 8939 d1bd 79f9 86be
00000370: 9546 f03e f75d 463e 0edd 423e 24f2 83bd
00000380: 8395 77be 0462 f23d e5d2 fcbd 7d83 553e
00000390: 3c56 cdbd 3ff4 243e c6a5 afbe eae5 b4bd
000003a0: 2d6b 0abe c9b5 45bd d4e1 f73c 4e3f e93b
000003b0: 41b3 893d fab5 b03b ec5f ae3d bde1 f53d
000003c0: a332 16be 235e bd3c 75fa 8abd aa98 8e3d
000003d0: 7ff5 253e a913 1a3e 6a87 78be 000a 3cbe
000003e0: 8034 503d eeaf 953d 6706 dabd c5a9 8c3a
000003f0: 7db9 023e 5b1d 9cbd dd13 173e fd3a 353d

r_cell.fc.bias f4 [24]
0.1072724 0.020361891 0.10524375 -0.05224319 -0.068681285 0.048495833 -0.0859422 -0.141291
0.050867572 -0.07667576 0.04572895 0.195714 -0.016945593 0.042800784 -0.018536627 -0.032190338
0.04296728 -0.060466044 0.04439302 0.09299448 -0.13550696 0.06539616 0.0025049024 -0.14972809
00000000: a2b1 db3d fbcd a63c 098a d73d f5fc 55bd
00000010: c6a8 8cbd 91a3 463d 7702 b0bd 97ae 10be
00000020: 845a 503d 2e08 9dbd 484e 3b3d 4069 483e
00000030: 7cd1 8abc e04f 2f3d 20da 97bc 04da 03bd
00000040: 75fe 2f3d 3eab 77bd 75d5 353d e473 be3d
00000050: 56c2 0abe 6cee 853d 4a29 243b 5252 19be

fc1.0.bias f4 [24]
0.06491736 0.045845833 -0.027213586 0.020019412 0.020734936 -0.031479638 -0.015111088 -0.10421628
-0.06646033 -0.08779096 0.08210809 0.010183347 0.06225941 -0.008164312 0.010215593 -0.12510175
0.016737971 0.035495248 0.1321211 0.15724924 -0.04024041 0.052575313 0.10444091 0.1014524
00000000: 65f3 843d d7c8 3b3d 07ef debc c0ff a33c
00000010: 50dc a93c cbf0 00bd 7f94 77bc 586f d5bd
00000020: 5a1c 88bd bfcb b3bd 4928 a83d 0ed8 263c
00000030: b903 7f3d 9bc3 05bc 4d5f 273c ac1a 00be
00000040: 121e 893c 7763 113d c14a 073e f205 213e
00000050: 21d3 24bd 3659 573d 1ee5 d53d 47c6 cf3d

fc1.0.weight_orig f4 [24, 24]
-0.061676286 0.18710642 -0.24345231 0.42799425 0.362429 0.035310794 0.39308593 0.052394792
-0.5710384 0.950695 -0.12264759 0.12328387 0.21279569 0.3024424 0.3163294 -0.56374747
0.17878792 0.19604273 -0.17362058 -0.1770585 0.44941172 -0.10342429 -0.23292524 -0.24639593
-0.49074644 0.18869637 0.23367846 -0.25284988 0.31980076 0.2872471 -0.5063722 -0.12949428
0.1727361 -0.7416335 0.008161708 -0.24493197 -0.060721476 -0.22878823 0.46992806 -0.10621619
-0.42164186 0.3070963 -0.11449049 0.3357672 0.028325863 0.06614845 0.07881686 -0.37924066
-0.28443697 0.20426993 0.2640624 -0.08634829 -0.017850494 -0.009611986 -0.07845134 -0.17100875
0.4254553 -0.3358046 0.07803358 0.024214236 -0.45955396 -0.25704595 -0.24025835 -0.30614558
-0.0086071845 -0.17630711 -0.036557186 0.013914889 -0.4320527 0.20769376 -0.2829821 -0.42181972
-0.02634422 0.21078432 -0.53989094 0.33829305 -0.10013331 -0.12207638 -0.26704323 -0.034209862
-0.59182745 0.18998358 0.42456028 -0.45253605 -0.31151354 -0.112733714 0.38007295 0.21102901
-0.04767287 0.035080206 -0.091857836 0.7112337 -0.23003139 0.39009765 -0.21207023 0.14803025
0.52976924 0.048910502 -0.11401225 0.042990007 0.15169373 0.6535335 -0.014553633 -0.2126734
-0.36377272 0.23758858 -0.12714523 0.15961596 -0.11790784 0.038499154 -0.37581426 0.4875749
-0.061712794 0.7384159 0.23616342 -0.0039152317 0.10553663 -0.18077482 0.61312324 -0.13223398
-0.038429525 0.28993988 -0.32601088 0.1269584 -0.25778887 -0.5271156 -0.44069847 -0.30033168
-0.13724068 -0.057985093 -0.06977957 -0.30296823 0.18999226 -0.32952604 0.72545075 -0.077972904
0.22278605 0.068498485 -0.05062133 0.1453948 0.01623563 -0.44021496 -0.036790147 0.06189065
-0.2882298 -0.114370115 -0.10524416 -0.074572906 0.012036212 0.12238116 -0.23373803 0.101390876
-0.17553383 0.70227903 0.245879 -0.40060416 -0.30719188 0.00010787106 0.42100707 -0.48090672
0.20120378 -0.06415943 -0.13345096 0.5868453 0.27704623 0.10073579 -0.111592345 -0.15557455
0.010385062 -0.20817918 -0.62175155 -0.01441238 0.29740685 -0.03136157 -0.39470991 0.42135888
-0.09735795 -0.66155887 0.07657989 -0.61699843 -0.105544224 -0.07350074 -0.31400082 0.63376176
0.61777616 0.3503028 -0.108196445 -0.21071997 -0.118259445 0.4960517 0.007664986 0.03746054
0.0038587067 -0.16235848 -0.47452515 0.066738434 -0.10256143 -0.14423925 0.19622663 -0.20565054
-0.0069642626 -0.2986361 0.023406865 -0.10511184 0.5830867 -0.69180214 0.058613397 -0.6212695
0.4999706 -0.007272389 0.22603473 -0.28449732 0.3038005 0.47531888 -0.44043612 0.44004112
0.09330744 0.027446413 -0.09747711 0.34178105 -0.24588579 0.022123022 0.17577964 -0.14126179
0.39047396 0.452277 -0.4393414 0.21203643 -0.27582785 -0.5885011 -0.4202276 0.24476558
-0.0026141251 0.0022975972 0.3872587 -0.16547757 0.14808224 0.017385842 0.30378422 0.12738635
-0.27992472 -0.03619104 0.029617451 -0.4527743 -0.11044443 0.18139921 -0.0537497 0.0016539244
0.043203376 -0.5233597 -0.098322116 0.217106 -0.3114926 0.45705327 -0.34421852 0.81720537
00000000: 46a0 7cbd d398 3f3e 904b 79be 1022 db3e
00000010: 4b90 b93e 0da2 103d 8f42 c93e ec9b 563d
00000020: 932f 12bf bf60 733f a92e fbbd 417c fc3d
00000030: 1de7 593e bbd9 9a3e edf5 a13e c151 10bf
00000040: 2e14 373e 6dbf 483e 98c9 31be d34e 35be
00000050: 4b19 e63e 1dd0 d3bd f483 6ebe 374f 7cbe
00000060: 1e43 fbbe 9f39 413e 6849 6f3e 8a75 81be
00000070: edbc a33e 0d12 933e 9ca1 01bf 269a 04be
00000080: bbe1 303e b1db 3dbf afb8 053c 72cf 7abe
00000090: 15b7 78bd 7647 6abe 699a f03e e087 d9bd
000000a0: 71e1 d7be ba3b 9d3e fd79 eabd aee9 ab3e
000000b0: a40b e83c d778 873d bc6a a13d d52b c2be
000000c0: b9a1 91be 232c 513e 3033 873e 5fd7 b0bd
000000d0: 333b 92bc 977b 1dbc 19ab a0bd eb1c 2fbe
000000e0: 47d5 d93e 95ee abbe 12d0 9f3d ef5c c63c
000000f0: a84a ebbe 879b 83be 4906 76be 1dbf 9cbe
00000100: 2605 0dbc da89 34be fdbc 15bd 46fb 633c
00000110: 0336 ddbe acad 543e 08e3 90be c1f8 d7be
00000120: d5cf d7bc d8d7 573e 4b36 0abf bf34 ad3e
00000130: b112 cdbd 2e03 fabd e4b9 88be a41f 0cbd
00000140: 0182 17bf 0e8b 423e f75f d93e ceb2 e7be
00000150: b47e 9fbe efe0 e6bd ec98 c23e fd17 583e
00000160: a144 43bd 43b0 0f3d f61f bcbd 6913 363f
00000170: 598d 6bbe e1ba c73e f028 59be 3e95 173e
00000180: f59e 073f 6156 483d 417f e9bd 4a16 303d
00000190: 9a55 1b3e f94d 273f 5c72 6ebc 0ec7 59be
000001a0: 6b40 babe 6c4a 733e 5c32 02be 5e72 233e
000001b0: aa79 f1bd 4ab1 1d3d ba6a c0be 6ba3 f93e
000001c0: 8ec6 7cbd d308 3d3f d3d4 713e 584b 80bb
000001d0: 9723 d83d 091d 39be a5f5 1c3f 5868 07be
000001e0: 4768 1dbd 0073 943e e6ea a6be 6201 023e
000001f0: e7fc 83be 0cf1 06bf 3ba3 e1be 13c5 99be
00000200: d288 0cbe c781 6dbd 97e8 8ebd a71e 9bbe
00000210: 558d 423e a3b7 a8be 24b7 393f 42b0 9fbd
00000220: 0722 643e ef48 8c3d 5058 4fbd 60e2 143e
00000230: 9500 853c db63 e1be 44b1 16bd 0d81 7d3d
00000240: db92 93be e13a eabd 408a d7bd aeb9 98bd
00000250: 8833 453c f9a2 fa3d 0659 6fbe 05a6 cf3d
00000260: 24bf 33be 8fc8 333f b4c7 7b3e fd1b cdbe
00000270: 4148 9dbe d638 e238 3d8e d73e 6839 f6be
00000280: 5d08 4e3e 0566 83bd 5ea7 08be 7e3b 163f
00000290: 01d9 8d3e 914e ce3d 878a e4bd ef4e 1fbe
000002a0: 1b26 2a3c ec2c 55be 1c2b 1fbf e721 6cbc
000002b0: b645 983e fd74 00bd 6b17 cabe 5abc d73e
000002c0: 9b63 c7bd ec5b 29bf ebd5 9c3d 9cf3 1dbf
000002d0: 9227 d8bd 8e87 96bd b7c4 a0be 363e 223f
000002e0: 9426 1e3f e35a b33e 1996 ddbd fac6 57be
000002f0: 0232 f2bd 7dfa fd3e 902a fb3b 3970 193d
00000300: 5be2 7c3b 4d41 26be f6f4 f2be 29ae 883d
00000310: ba0b d2bd 74b3 13be a2ef 483e 0e96 52be
00000320: 7834 e4bb d5e6 98be c1bf bf3c e044 d7bd
00000330: 2c45 153f f219 31bf 9a14 703d 850b 1fbf
00000340: 25fc ff3e 384d eebb a675 673e a2a9 91be
00000350: bd8b 9b3e ff5c f33e d880 e1be 124d e13e
00000360: f917 bf3d 4dd7 e03c 14a2 c7bd edfd ae3e
00000370: 7cc9 7bbe 573b b53c 94ff 333e eea6 10be
00000380: 34ec c73e da90 e73e 5bf1 e0be 1420 593e
00000390: 4f39 8dbe 02a8 16bf 1228 d7be d4a3 7a3e
000003a0: be51 2bbb 4993 163b c646 c63e f472 29be
000003b0: dfa2 173e c16c 8e3c 9b89 9b3e 9171 023e
000003c0: 4b52 8fbe 0e3d 14bd 4ca0 f23c 08d2 e7be
000003d0: b030 e2bd b7c0 393e a528 5cbd 7ec8 d83a
000003e0: 06f6 303d e7fa 05bf 1b5d c9bd 0951 5e3e
000003f0: f57b 9fbe e302 ea3e 693d b0be 5f34 513f

fc1.0.weight_u f4 [24]
-0.028732415 -0.096406735 -0.017447285 -0.27288502 0.1656854 -0.2046273 -0.15474667 -0.290387
-0.25100756 0.1688941 0.13184825 0.029206427 0.17939527 -0.37862614 0.12244093 0.20944035
0.10413677 -0.24006881 0.10173025 0.392336 0.03731932 0.24590279 0.27755222 0.14730832
00000000: 3e60 ebbc e570 c5bd 9ced 8ebc 96b7 8bbe
00000010: 6fa9 293e d289 51be e975 1ebe 9bad 94be
00000020: 1084 80be 93f2 2c3e 3a03 073e 5142 ef3c
00000030: 65b3 373e 49db c1be 4fc2 fa3d 8877 563e
00000040: a945 d53d 99d4 75be f357 d03d 44e0 c83e
00000050: 25dc 183d f1cd 7b3e 531b 8e3e fed7 163e

fc1.0.weight_v f4 [24]
0.0019368941 -0.11477351 0.41534302 0.03580292 -0.124690406 0.093554266 0.2385889 -0.14364919
0.18827522 0.19644208 -0.18244176 0.40659282 -0.0992419 0.19002527 -0.28934008 0.10172112
-0.34884146 0.0589545 -0.042547867 -0.098002285 0.048527174 -0.22327603 0.3252159 0.062892094
00000000: 62df fd3a 600e ebbd d7a7 d43e 15a6 123d
00000010: af5d ffbd 6199 bf3d a650 743e c618 13be
00000020: 38cb 403e 1d28 493e 03d2 3abe ef2c d03e
00000030: 563f cbbd fc95 423e 6224 94be 2a53 d03d
00000040: 599b b2be 467a 713d ac46 2ebd 6cb5 c8bd
00000050: 6ec4 463d 79a2 64be b382 a63e 92cd 803d

fc1.1.weight f4 [24, 24]
0.70866734 -0.70187706 -0.3969861 0.782173 0.8714179 -0.010421868 0.3381496 0.73367304
2.1860762 0.4258809 0.6508284 -1.215342 -0.22346292 0.12569816 -0.5795679 -0.18702218
0.0003812458 -0.33214682 0.37732962 1.6937196 -0.47163 -0.0046819923 0.43841547 -0.575143
-0.090842746 0.52487254 0.6343943 -0.4959516 0.58071357 0.8257561 0.8966932 -0.39505976
-0.5127211 0.43185756 -0.6167487 0.56158805 0.49088523 -2.0218751 0.3350615 0.893679
-0.88765347 -1.8693613 0.14425312 -1.5512288 0.1322545 -0.3856497 -0.52015686 0.86442286
0.3511288 0.22801287 -0.040094316 0.6128629 -0.23012921 -1.4330796 -0.77666813 -1.4318999
-0.38330647 -0.021317638 -0.58638436 -0.19932018 -0.8544446 0.3137206 0.54317737 -0.33834743
0.6976303 -0.9066298 -0.11789878 -1.3226554 -0.16194235 -0.027207877 -0.46495727 -0.5052734
1.6059467 -0.22572103 -0.51013803 2.1043043 1.0503463 -0.38774848 0.28370717 1.0919914
0.5794866 0.4298697 0.45425728 -0.16702826 -0.15538043 1.3666269 -0.43613455 -0.9651059
0.3568261 -1.5873247 -1.4826708 -0.17969617 -1.0353414 0.64757663 0.36884615 0.3369931
-0.2261541 -1.534708 0.6739213 0.1548154 1.2524319 -0.48286992 -1.667866 0.10565603
0.9864102 1.4982421 0.58331096 0.8790153 -0.07577361 -0.18422893 0.4419319 -1.8107269
-0.2738245 -0.049210854 -0.7767742 0.5437569 -0.7052119 0.816652 0.6534073 1.8038046
-0.18124932 -0.39137033 0.6934354 -1.0577954 1.9978528 -0.38578025 -1.2721813 -0.37696496
0.5526823 -0.5218643 0.6321161 -0.8295911 -0.35207412 0.82105243 -0.4539967 1.1869469
-0.46669677 3.235527 -0.5888627 1.3662126 0.95982903 -0.8978518 0.41775054 1.0277839
0.2479471 1.5627587 0.7798021 -1.0490948 0.4095021 0.46308067 1.2559125 0.6786981
1.0679876 -0.09430018 0.29948363 0.26465806 0.58076465 -0.92788076 -0.5043688 -0.8318773
-0.6528398 0.207539 0.34682116 1.1707906 -0.5847249 0.49370238 0.34998938 -0.12749277
1.0245727 0.28622887 -0.47840485 1.166938 -1.2213706 0.22461618 0.7026203 0.089768
0.4732237 1.4443625 -0.92355996 -1.1370761 -0.3830908 -0.4955051 0.5261848 -1.3632354
0.7843426 -1.2581706 0.6140866 -3.4241261 -0.8369682 0.9156444 -0.5730776 -0.22506495
-0.17966463 1.6482365 0.5769114 0.7674783 -1.8297423 -0.5643232 -0.0030275544 -0.87575203
-0.56409806 0.61069006 -0.7836351 -0.18639408 0.40951812 0.776977 0.315474 1.1145512
-1.1400502 -0.91758305 0.1266291 -0.9944979 0.4333523 -0.1244743 -0.38031268 -1.473779
1.712478 1.012041 -0.19441454 0.056154683 0.42910004 0.030346433 1.1507936 -0.0006738166
0.44885406 -1.0783484 0.5979192 -0.8787698 0.0013716075 0.293901 -0.43671116 2.6247633
0.8281208 -0.21558389 0.11448359 1.4620047 0.4334804 -1.639072 0.27075475 -1.3897702
-0.74993604 1.7958332 1.5750027 -0.20668736 1.0397497 0.040821176 -0.923514 0.17350405
0.21367922 -0.96975565 0.56987166 0.34376356 0.44995376 0.2646396 -0.48692313 1.3307455
00000000: 396b 353f 37ae 33bf c341 cbbe 7d3c 483f
00000010: 3e15 5f3f 7cc0 2abc f221 ad3e ffd1 3b3f
00000020: ace8 0b40 100d da3e b19c 263f 5490 9bbf
00000030: 77d3 64be 05b7 003e 905e 14bf be82 3fbe
00000040: f2e1 c739 260f aabe 5931 c13e cecb d83f
00000050: 7d79 f1be 666b 99bb fe77 e03e 923c 13bf
00000060: c30b babd 0c5e 063f aa67 223f 5eed fdbe
00000070: a5a9 143f c064 533f b08d 653f 4645 cabe
00000080: b141 03bf 6f1c dd3e 3ee3 1dbf 3cc4 0f3f
00000090: 4f55 fb3e 6766 01c0 2e8d ab3e 26c8 643f
000000a0: 423d 63bf 3b47 efbf 17b7 133e aa8e c6bf
000000b0: b96d 073e e173 c5be 0029 05bf d14a 5d3f
000000c0: 27c7 b33e 357c 693e f039 24bd 95e4 1c3f
000000d0: fea6 6bbe 276f b7bf b9d3 46bf 7f48 b7bf
000000e0: bf40 c4be 54a2 aebc 491d 16bf 971a 4cbe
000000f0: e2bc 5abf fd9f a03e ac0d 0b3f e03b adbe
00000100: e697 323f e418 68bf ea74 f1bd c64c a9bf
00000110: 37d4 25be 0ee3 debc e10e eebe 9959 01bf
00000120: a98f cd3f 6a23 67be 6898 02bf ecac 0640
00000130: bf71 863f f886 c6be 1142 913e 60c6 8b3f
00000140: 3c59 143f e217 dc3e 6994 e83e 7509 2bbe
00000150: 0c1c 1fbe a1ed ae3f 074d dfbe 2e11 77bf
00000160: e9b1 b63e 752d cbbf 28c8 bdbf 4602 38be
00000170: 1186 84bf 95c7 253f 67d9 bc3e 5c8a ac3e
00000180: f194 67be 5071 c4bf 1b86 2c3f ee87 1e3e
00000190: b04f a03f ba3a f7be a27c d5bf 3062 d83d
000001a0: 6185 7c3f 66c6 bf3f de53 153f 2607 613f
000001b0: 322f 9bbd 82a6 3cbe e644 e23e e6c5 e7bf
000001c0: ba32 8cbe 5291 49bd adda 46bf a733 0b3f
000001d0: c488 34bf 1b10 513f b345 273f 12e3 e63f
000001e0: 6c99 39be b161 c8be fb84 313f d765 87bf
000001f0: a4b9 ff3f fd84 c5be d6d6 a2bf 8d01 c1be
00000200: 967c 0d3f e698 05bf 5cd2 213f 1560 54bf
00000210: 0f43 b4be 7e30 523f 4172 e8be e0ed 973f
00000220: e1f2 eebe e012 4f40 b5bf 16bf 0ee0 ae3f
00000230: 5bb7 753f 9ed9 65bf 66e3 d53e 6c8e 833f
00000240: d8e5 7d3e 7a08 c83f 1ca1 473f bd48 86bf
00000250: 42aa d13e e918 ed3e bec1 a03f 29bf 2d3f
00000260: d1b3 883f 7420 c1bd eb55 993e 4381 873e
00000270: feac 143f 9889 6dbf 501e 01bf e9f5 54bf
00000280: 8220 27bf 1b85 543e 8b92 b13e 77dc 953f
00000290: 88b0 15bf 8fc6 fc3e cf31 b33e 778d 02be
000002a0: 3325 833f 978c 923e 7bf1 f4be 395e 953f
000002b0: df55 9cbf c901 663e edde 333f 49d8 b73d
000002c0: 604a f23e dfe0 b83f 6d6e 6cbf b68b 91bf
000002d0: 7a24 c4be d8b2 fdbe 0cb4 063f 7f7e aebf
000002e0: adca 483f bc0b a1bf c834 1d3f e224 5bc0
000002f0: 8c43 56bf ac67 6a3f 37b5 12bf 6d77 66be
00000300: 01fa 37be 6af9 d23f 77b0 133f 7579 443f
00000310: ff34 eabf 7c77 10bf ef69 46bb 4931 60bf
00000320: bb68 10bf 2f56 1c3f 4f9c 48bf 17de 3ebe
00000330: 5cac d13e f7e7 463f cf85 a13e 9da9 8e3f
00000340: 2aed 91bf b9e6 6abf 0fab 013e 6a97 7ebf
00000350: 5ae0 dd3e 62ec febd 58b8 c2be caa4 bcbf
00000360: 7b32 db3f 8f8a 813f 9b14 47be 7402 663d
00000370: 00b3 db3e 1599 f83c 344d 933f 11a3 30ba
00000380: 33d0 e53e 5207 8abf 3c11 193f 0ff7 60bf
00000390: 83c7 b33a 317a 963e 9b98 dfbe 1ffc 2740
000003a0: baff 533f 06c2 5cbe 5f76 ea3d f822 bb3f
000003b0: 25f1 dd3e 1ccd d1bf 5ea0 8a3e fde3 b1bf
000003c0: cffb 3fbf dddd e53f b099 c93f daa5 53be
000003d0: 8516 853f 1b34 273d 6a6b 6cbf 0cab 313e
000003e0: bace 5a3e e841 78bf 1ce3 113f c701 b03e
000003f0: 5760 e63e d77e 873e fd4d f9be de55 aa3f
